models/alphazero_2/main.pt (torch, 67532 bytes, 93 tensors)

startBlock.0.weight f4 [6, 4, 3, 3]
000000 ef a5 5a bd 75 ab 7e be 98 bb ba 3c b0 a0 af bd
       -0.053380903 -0.24870093 0.02279453 -0.085755706
000010 e7 40 ab 3d 1d 52 32 3e 4b cf f2 3d b7 ac 09 be
       0.083619885 0.17414136 0.11855944 -0.13444792
000020 c1 e8 c4 3d 08 51 89 3d d4 c6 6e 3d d6 7c 9d bc
       0.09614707 0.067049086 0.058295086 -0.019224565
000030 ad da 9a bd e5 b0 2d be e6 5e 4a 3e 01 1f d2 bd
       -0.0756124 -0.16962011 0.19762763 -0.1025982
000040 1e d0 ce 3d cc 65 95 be dd 34 9f 3d bc 76 c6 3e
       0.10098289 -0.29179227 0.07773755 0.38762462
000050 05 99 5b bd ad 61 fa 3c 87 06 62 3e ea 68 78 bf
       -0.053612728 0.030564154 0.22072802 -0.97035086
000060 c5 63 b4 3d 19 01 16 3e 7b cb 89 3e eb b9 1c 3e
       0.08808092 0.14648856 0.26913056 0.15305297
000070 e9 ca 3a 3b 4f 29 8e 3e 0f 83 d9 3d a8 fa 07 3e
       0.0028502292 0.2776589 0.106207006 0.13279212
000080 f7 9c 23 be d3 a0 be bd 5a 4b 0f bc c5 29 73 3d
       -0.15977846 -0.093080185 -0.008745993 0.059366006
000090 87 e3 a5 bd 33 7b 1b be 4b d6 95 3e 66 cd 7a bd
       -0.08100038 -0.15183716 0.29265055 -0.06123104
0000a0 49 40 c6 bc f7 22 b8 be bd 52 3e be 7f fb 01 3e
       -0.024200575 -0.35964176 -0.1858625 0.12693594
0000b0 98 70 70 3e 8f 3b e9 be cc d5 41 be 3c 33 18 3d
       0.23480451 -0.45553252 -0.18929213 0.037158236
0000c0 3e 6c 2b 3d c3 23 1e 3d 96 db 68 bd 98 69 90 bd
       0.041851275 0.038608324 -0.05685004 -0.070513904
0000d0 20 cc 6b be a7 97 eb 3d 6c e8 2c be 49 71 34 3f
       -0.23027086 0.11503535 -0.16885537 0.7048536
0000e0 1b 5c 28 3d f1 8c ae 3e 84 0b b0 3e c5 2b 51 bd
       0.041103464 0.34091905 0.34383786 -0.051067133
0000f0 ff 18 80 be fe 4a b3 be bd 3d 1a 3e 34 ff 7c 3e
       -0.2501907 -0.35018152 0.15062614 0.24706727
000100 a5 4c 3a 3e bb 72 af be 31 cf 70 3d f7 48 5c bd
       0.181933 -0.3426722 0.058791343 -0.053780522
000110 e0 81 90 bd e3 54 e4 3d c7 2f 99 bd 55 df 30 be
       -0.07056022 0.11149003 -0.07479816 -0.17272694
000120 72 14 d9 3e 5f df ef 3d 53 85 06 3e 83 ff da ba
       0.4239841 0.117125265 0.13136797 -0.0016708229
000130 31 d3 f8 bd 93 11 66 be 09 0b 39 bb 5c 86 47 3d
       -0.121496566 -0.22467642 -0.0028235337 0.04871212
000140 f0 c2 01 3e 47 84 45 bd 48 58 a2 be 56 dd 66 be
       0.12672019 -0.048221853 -0.31707978 -0.2254537
000150 fb e1 dc be 47 9f e7 bd 55 bc ab be d8 42 97 be
       -0.4314116 -0.113096766 -0.33542123 -0.29543185
000160 17 6c e5 be f2 6d 9a be b6 60 06 3e 83 ea 72 be
       -0.44809029 -0.30162007 0.1312283 -0.23722272
000170 dc 9f c0 bd bf df 6b be 82 1d 4b 3d f7 ee b3 3e
       -0.09405491 -0.23034571 0.049588688 0.35143253
000180 bb c4 a8 3e 87 42 bb be 7e 6f 00 be 53 05 92 3e
       0.32962593 -0.36574194 -0.12542531 0.28519687
000190 76 d4 a3 3e 5c ef ca 3e 30 0d 64 3d 8e 24 53 be
       0.31998032 0.39635742 0.05567664 -0.20619413
0001a0 32 1f c9 3e 0f d1 59 3e 1f 6b e8 3e 86 21 2c 3d
       0.39281613 0.21271156 0.45394227 0.042024158
0001b0 7f cb 34 bc a9 26 25 be 4f 5f 41 be c0 92 84 bd
       -0.011034845 -0.16128029 -0.18884014 -0.06473303
0001c0 0f f4 8c 3e e5 0f b6 3d 5c e0 3c 3e 4c e8 ae bd
       0.27529952 0.088897504 0.18444961 -0.08540401
0001d0 7e 0b 09 3d b7 f5 5c 3d 5e 1f ac be 19 6b 1c 3d
       0.033458225 0.05394527 -0.3361768 0.038188074
0001e0 60 28 a1 bd 3b b2 1d bf 56 ec bc 3d 6c d2 71 bd
       -0.07869029 -0.61600083 0.09224765 -0.059038565
0001f0 26 ff 63 be 0d b7 3d be 83 ac 76 3d d4 31 b2 be
       -0.222653 -0.1852686 0.060223114 -0.3480364
000200 b9 1e 92 3d 8d e2 9e 3d 38 bd d0 bc 41 bd 88 bc
       0.07134766 0.07758055 -0.025480852 -0.016691806
000210 1e d4 02 3e bd 58 ee be 4c 88 cb be 57 c7 01 3d
       0.12776229 -0.46552077 -0.39752424 0.031684246
000220 c2 33 d8 3e 96 0f 0e 3e d9 60 df 3e 70 dd 04 3e
       0.42226988 0.13873133 0.43628576 0.12975097
000230 71 18 1e 3f 48 d7 d8 3e 95 20 c4 3d 52 92 4f 3d
       0.61756045 0.42351747 0.09576527 0.05067665
000240 62 35 bb bc 3d 47 60 3c 7c c0 2d be 53 01 e2 bc
       -0.022852603 0.0136888595 -0.16967958 -0.027588522
000250 4a 17 7d 3e 78 53 ff bc d4 52 22 be 1a 57 2b 3e
       0.24715915 -0.03116773 -0.15851909 0.16732445
000260 4e 67 19 3b 35 67 8d 3d 5c 24 9d be ff bb de 3c
       0.0023407522 0.06904451 -0.30691803 0.027189253
000270 e4 3b 14 3d c3 ce f3 bd fd 59 b9 bd 27 83 f1 bb
       0.03618993 -0.11904671 -0.09050367 -0.007370371
000280 bd 16 90 bd 0d 22 60 3e 8b 2f 82 bd 2f ce 8a 3e
       -0.07035587 0.2188799 -0.06356724 0.2711043
000290 ea 46 bd 3e 39 6b 86 be 86 af a8 bd 40 0f 51 bf
       0.36968166 -0.2625368 -0.082366034 -0.81663895
0002a0 2e 3a d3 3e 56 d9 81 bd b8 34 80 3d 54 92 a4 3d
       0.41255325 -0.06340282 0.06260055 0.080357224
0002b0 96 60 b9 3e e3 c8 41 be 21 87 b4 be fa 06 dd 3d
       0.36206502 -0.18924288 -0.35259345 0.10792346
0002c0 fe 35 a0 bd 2a bf dd 3d 75 51 8c 3d 40 ae 31 3e
       -0.07822798 0.10827477 0.06851474 0.17351627
0002d0 2c 92 1f 3c 1a 94 e5 3c 40 0e 8b be bf 1c 48 be
       0.00973944 0.028024722 -0.2715931 -0.19542216
0002e0 7a 81 a2 bd 04 d6 1f 3e ee 0d b6 3e bf fc de 3d
       -0.07934852 0.15608984 0.35557503 0.10888051
0002f0 01 98 5c be f2 a1 c3 3e d0 1f 89 be ad 53 23 3d
       -0.2154236 0.38209492 -0.26782084 0.03987472
000300 ba 95 01 3e 29 7e 71 bd b5 b3 52 3e 43 8b c5 be
       0.12654772 -0.058958206 0.20576365 -0.3858281
000310 2f 92 fe 3d 76 9f fb bd d3 30 0f bd 8d dc 6f 3e
       0.12430226 -0.12286274 -0.03495867 0.23423977
000320 a0 90 97 be a2 a0 b5 3d 29 7c aa 3e 06 82 b1 3e
       -0.29602528 0.08868529 0.33297852 0.34669513
000330 7a f4 fd be 13 37 bb be 77 b4 af 3e 12 10 66 3e
       -0.49600583 -0.36565456 0.3431737 0.22467068
000340 a4 f2 38 bb 25 3d eb 3d 3a 08 db 3d 08 9d 71 3e
       -0.0028220797 0.11486272 0.106949285 0.23595059
000350 95 a4 2f be dd c4 a9 be 24 ab 91 bb 40 61 8a bd
       -0.17152627 -0.33158007 -0.0044454504 -0.0675683

startBlock.0.bias f4 [6]
000000 61 1c f7 3a 0b 3d 79 ba 20 19 40 b7 e2 f3 0a 3a
       0.0018853062 -0.00095076923 -1.1449942e-05 0.00053006236
000010 00 3d 42 37 e9 03 50 3b
       1.1577504e-05 0.0031740612

startBlock.1.weight f4 [6]
000000 6f f1 a5 3f c1 43 92 3f 0b 3e 75 3f ef 31 64 3f
       1.2964305 1.1426927 0.95797795 0.8913869
000010 5b fb 97 3f 19 71 8f 3f
       1.1873583 1.120639

startBlock.1.bias f4 [6]
000000 30 a1 8e 3e 2e 0f a9 3e d2 be c0 3e 3f bd 8a 3e
       0.2785735 0.33019394 0.37645584 0.27097508
000010 1e 07 51 3e de f8 5e 3e
       0.20412871 0.21774623

startBlock.1.running_mean f4 [6]
000000 86 7d 93 3c 14 30 2a 3e 8b fe b0 3c 28 f4 39 be
       0.01800419 0.16619903 0.02160575 -0.18159544
000010 14 f3 b8 bd 04 6f be 3d
       -0.090307385 0.09298518

startBlock.1.running_var f4 [6]
000000 b8 5e 2f 3e dc 82 4d 3e 7c 6c 2c 3e 00 15 37 3e
       0.17125976 0.2006945 0.16838259 0.17879105
000010 92 c2 33 3e bc d7 28 3e
       0.17554691 0.16488546

backBone.0.conv1.weight f4 [6, 6, 3, 3]
000000 60 c2 2a 3e 91 da 87 be 0a 66 39 3e 34 3e df 3e
       0.1667571 -0.2653394 0.18105331 0.43602145
000010 92 48 6a be c7 e0 f0 3c 96 f3 69 bd 7d 89 cb bd
       -0.22879246 0.029404057 -0.057117067 -0.09938333
000020 fd 13 6b bd 75 2d c1 3d 97 7f 04 3f fc e1 8a bd
       -0.05739211 0.09432498 0.51757187 -0.06781384
000030 80 65 90 3e a5 55 20 3e 74 59 f3 3c 36 af 6b be
       0.28202438 0.15657671 0.02970574 -0.23016056
000040 88 4d 40 3c a5 f8 cc bd 85 c4 e3 bb d9 00 97 3d
       0.011737235 -0.10008363 -0.006950917 0.073732086
000050 f5 f3 2b 3e f2 8d 76 bc 9e 1c 33 bd 3c f8 22 bd
       0.16792281 -0.015048491 -0.043728463 -0.039787516
000060 83 2c 37 3e 49 ed 02 3b 33 1c 8f 3e 5d f9 dd 3e
       0.17888074 0.0019977859 0.27951202 0.43354312
000070 cc 78 26 be 21 93 c7 bd 04 9f 0c 3e c8 fc 18 be
       -0.16257018 -0.097448595 0.13732535 -0.14940178
000080 9c 78 e2 3e 6e 3f 0f 3e d0 39 85 3c 27 96 2e 3e
       0.44232643 0.1398904 0.016262919 0.17049466
000090 bb 4b 1c 3e 68 b2 4e 3e 0d 59 15 3e 28 6a a7 be
       0.15263264 0.20185244 0.14584751 -0.32698178
0000a0 5f 5a f0 be 7f 29 41 bd 39 a0 80 bd 17 65 23 3e
       -0.46943948 -0.047158714 -0.0628056 0.15956531
0000b0 9f da 07 3f 96 71 6a be c2 cb df 3e 19 33 d7 bc
       0.53067964 -0.22894892 0.43710142 -0.026269482
0000c0 08 4e 10 3d bc b3 92 be 6a b2 52 3e dc 06 b2 bd
       0.035230666 -0.2865275 0.20575872 -0.086927146
0000d0 79 12 b0 3e 6d 79 a9 be d7 30 8b be f1 b0 cd 3e
       0.34389094 -0.33100453 -0.271857 0.40174058
0000e0 5f be 17 bd 99 fd 59 3d 3c cc af 3d b9 79 08 bf
       -0.037046786 0.053220365 0.085838765 -0.53310734
0000f0 45 fc d2 3c de 27 a1 bb 13 b1 c6 3d 53 d4 55 be
       0.025755057 -0.0049180826 0.09701743 -0.20881777
000100 c5 c7 b2 be 68 82 81 be 27 cb fb 3d 88 74 df 3e
       -0.34918037 -0.25294805 0.122946076 0.43643594
000110 7f bc af be 15 be e9 bd 78 fc f8 3d a9 d2 23 be
       -0.343235 -0.114132084 0.121575296 -0.15998329
000120 b2 1f 95 be f0 c4 00 be 67 b1 97 3e e0 b7 bc 3e
       -0.29125744 -0.12575126 0.29627535 0.36859035
000130 ff 12 50 be 11 9d 5f 3e 81 f5 46 be 1e f7 06 3e
       -0.20319746 0.2183726 -0.1942959 0.13180205
000140 55 59 01 3d 7e 12 01 be 8b 1f db bc a9 d9 09 3d
       0.031579334 -0.1260471 -0.02674844 0.033654843
000150 1e 9f 65 be db c3 a8 be 7b 45 a8 3c 57 0c 94 be
       -0.2242398 -0.32961926 0.020540943 -0.28915665
000160 d9 24 fa 3e cf bd 98 3e 37 eb 45 be fc 25 f6 3c
       0.48856238 0.29832312 -0.19328009 0.03004741
000170 ed ae 8a bd c8 8a 3f 3e 11 83 08 3e 1f 90 14 be
       -0.06771646 0.18705285 0.13331248 -0.14508103
000180 48 1c c5 be 5d 85 a6 bd f1 33 d3 3d f8 f8 fa bd
       -0.3849814 -0.08130906 0.103126414 -0.12254518
000190 91 e2 9c 3d 18 c9 a9 bd 63 c0 f7 3c 97 82 b0 bd
       0.076604016 -0.08290309 0.030243104 -0.08618658
0001a0 1a a9 41 be 9b d3 15 3e 37 30 fb 3e a9 0e 49 be
       -0.18912163 0.14631502 0.49060223 -0.19634499
0001b0 6e 85 6b be 24 90 c8 be d7 c4 34 be 7d f9 56 3e
       -0.23000118 -0.3917247 -0.17653213 0.2099361
0001c0 9a a6 19 3e d3 0b 96 be c3 f4 33 be d4 dd 34 3e
       0.1500496 -0.29305896 -0.17573838 0.17662746
0001d0 18 1c 0f be f9 da 41 3e 20 40 26 be 0b 81 b9 bd
       -0.1397556 0.18931188 -0.16235399 -0.09057816
0001e0 fb d0 c0 bd c6 26 08 3e df 43 05 3e d3 15 6a 3d
       -0.0941486 0.13296041 0.13014172 0.05714972
0001f0 7f ff 1a 3e 7c ca b6 be e7 a2 d0 bd 85 a9 69 3e
       0.15136527 -0.35701358 -0.10187321 0.22818573
000200 a3 bc bb bd 49 a7 ce be ec 77 b0 3b 01 5d bf be
       -0.09166839 -0.40362003 0.0053853896 -0.37375644
000210 06 a8 ad 3e bc 96 04 3f 88 ec 6a bd 31 53 48 be
       0.33917254 0.517925 -0.05735448 -0.19562985
000220 58 26 75 be 71 ff 4c 3e 38 e0 89 be a0 5e 32 be
       -0.23940408 0.20019318 -0.26928878 -0.17418909
000230 0f f0 61 be c9 4a e1 3e 89 c2 4a be 02 d9 79 3d
       -0.22064231 0.4400237 -0.19800772 0.06099797
000240 ef d5 ba be f0 cd 27 be 10 64 b9 3b bb fe 64 3d
       -0.36491343 -0.16387153 0.0056576803 0.055906992
000250 c9 6f 97 3d 82 69 e8 be 8f e4 b5 3d 0d 59 52 3d
       0.07394368 -0.45392996 0.08881485 0.051354457
000260 74 77 ea 3e 59 40 0e 3e de 64 39 be 31 84 a5 be
       0.4579426 0.13891734 -0.18104884 -0.32327417
000270 90 e8 49 3d 1a 65 af be d5 54 8b be b0 a1 58 bd
       0.049294055 -0.34256822 -0.2721316 -0.052888572
000280 72 68 43 3e ca a6 2a 3e 46 8b b3 3e 23 c5 04 3d
       0.19082811 0.16665187 0.35067195 0.032414567
000290 e1 eb 95 be 53 c8 92 be 7d ca a5 be 7d f6 c5 be
       -0.29281524 -0.2866846 -0.3238105 -0.38664618
0002a0 32 3e 92 3d 0f d4 07 bb eb fb ba 3d 88 ad d1 bc
       0.07140769 -0.0020725762 0.09130081 -0.025595441
0002b0 d1 63 86 3e 02 55 48 be 14 31 8d be 27 6d 12 bf
       0.2624803 -0.19563678 -0.27576506 -0.57197803
0002c0 c5 0a 34 3e 77 90 5c be 05 a8 8e be 68 1b 15 3e
       0.17582233 -0.21539484 -0.27862564 0.14561236
0002d0 9a 4b 98 b9 fe 2e de be 92 53 97 3e e3 8d b1 3e
       -0.00029048027 -0.43395227 0.29555947 0.34678563
0002e0 2a 95 30 3e 10 7f 07 be 5a e3 9a bc 71 52 57 3d
       0.17244402 -0.13232064 -0.018907238 0.052568857
0002f0 b6 4b ab 3e 3e 04 05 3c 95 68 2e be d1 2f d6 3e
       0.334562 0.008118687 -0.17032082 0.41833356
000300 a8 f9 49 bd 33 ab ea 3d c4 65 10 be f2 0b 1a be
       -0.049310356 0.11458435 -0.1410132 -0.1504362
000310 ed 90 47 3e 09 57 90 be 89 62 0c 3e fd 97 4b be
       0.19488879 -0.28191403 0.13709463 -0.19882198
000320 d8 ef 48 3e fd bd 4d bd ca e6 3c be a0 f4 86 bd
       0.19622743 -0.050230015 -0.18447414 -0.06589627
000330 9f a5 54 3e 38 13 ab bd 40 c2 1f be a9 ca 03 3d
       0.20766304 -0.08353275 -0.15601444 0.032175694
000340 e8 7c 87 be 73 e8 38 3e 9c 50 7e 3e 5c 2e ee 3d
       -0.26462483 0.18057422 0.24835438 0.11629936
000350 fc 18 9a be 90 9f cc 3e 4e 54 76 be e5 be 2c be
       -0.30097187 0.39965487 -0.24055597 -0.16869695
000360 8e 07 d8 3d 58 81 b8 3e 62 69 ae be e9 24 7f be
       0.10548316 0.3603618 -0.34064776 -0.24916424
000370 78 bb 80 3e e6 6f 5f 3d 68 aa 4e be b9 2b 84 be
       0.25143027 0.054550074 -0.20182192 -0.25814608
000380 84 8b 1d 3e 01 fe 8d bd 4e eb 9b bd 01 7b db bd
       0.15385252 -0.06933213 -0.0761324 -0.107168205
000390 de 1f 63 3e 89 ba 05 be b3 2e f4 3d 0b 58 08 bf
       0.22180125 -0.13059439 0.1192297 -0.5325934
0003a0 0f 14 a3 3a 13 cd 0e 3d af 48 0d be c8 62 15 bd
       0.0012441891 0.034863543 -0.13797258 -0.03647116
0003b0 13 1d f7 3d 75 8c 49 3e 51 fc 11 bf 32 7c bb 3e
       0.12066092 0.19682486 -0.5702563 0.3661819
0003c0 6f f7 30 3d 99 48 0e 3e 2e d2 27 be 4c 04 24 3e
       0.04320472 0.13894881 -0.16388771 0.16017264
0003d0 e3 b4 90 3d 1a 50 b3 3c 54 cc a5 bd f8 2e 22 3e
       0.070657514 0.021888781 -0.08095613 0.1583823
0003e0 78 26 7d 3e 21 ad 1a 3e 77 e5 c1 be bb 0c 08 bd
       0.24721706 0.15105106 -0.3787038 -0.033215266
0003f0 49 01 d2 be 5b ac 93 3e 2e b3 60 3e cf bd 88 3e
       -0.41016605 0.28842434 0.21943352 0.26707312

backBone.0.conv1.bias f4 [6]
000000 ea 9e 65 3a 44 ad 06 ba e0 ff 21 b9 ef 8b 9d b9
       0.0008759337 -0.0005137513 -0.00015449477 -0.00030049632
000010 70 71 d8 38 a2 42 2f ba
       0.00010320812 -0.0006685649

backBone.0.bn1.weight f4 [6]
000000 07 e3 74 3f be b7 75 3f 7f 9a 69 3f a4 bb 7c 3f
       0.95658916 0.95983493 0.9125137 0.98723817
000010 c9 44 61 3f 83 ec 8f 3f
       0.8799558 1.1244053

backBone.0.bn1.bias f4 [6]
000000 1d 60 5a 3e b8 4e 07 be 95 a6 03 bc 8b f4 81 3d
       0.21325727 -0.13213623 -0.008035322 0.06345471
000010 79 d7 8d 3e 78 ed f9 3d
       0.27703455 0.12203497

backBone.0.bn1.running_mean f4 [6]
000000 f7 f5 77 3f 6a 08 fe be dc 04 8a bf d6 54 74 bf
       0.9685969 -0.49615794 -1.0782733 -0.9544195
000010 bf f7 99 be 69 d9 59 bf
       -0.30071828 -0.85097367

backBone.0.bn1.running_var f4 [6]
000000 b5 bc c0 3f 74 11 e7 3f a6 e0 c5 3f fc ab b2 3f
       1.5057589 1.8052201 1.5459182 1.3958735
000010 cc 67 c2 3f 5a 46 26 40
       1.5187926 2.598044

backBone.0.conv2.weight f4 [6, 6, 3, 3]
000000 c1 4f 05 3e 7d 66 ad 3c 6d ab 0e 3d 08 a2 d4 3d
       0.13018705 0.021167034 0.034831453 0.103824675
000010 72 ab bc be 81 88 32 3c aa f2 5b 3d 6f d7 cb 3d
       -0.36849552 0.010896803 0.05369822 0.099532
000020 80 7f de 3d 53 70 b0 3e 74 4c 5d 3e 87 70 6a 3c
       0.108641624 0.34460697 0.21611196 0.014309055
000030 24 3c b0 3c f9 f0 bb 3e 14 b2 c4 be 4d ea 86 3c
       0.021513052 0.36707285 -0.38417113 0.016469145
000040 ff 38 80 3d 02 14 35 be d4 b2 c5 be ae 23 eb bd
       0.06260871 -0.17683414 -0.38612998 -0.11481415
000050 c6 52 ad be 68 ba 80 3e d1 fa 08 3e ff f3 df bc
       -0.33852214 0.25142217 0.13376929 -0.027338026
000060 3c d6 d1 3d c4 d7 a7 be 02 60 58 bc cc 9a 10 be
       0.1024594 -0.32781804 -0.013206484 -0.1412155
000070 c7 91 de be a1 50 e8 3d 2a 73 23 3c d1 75 ac be
       -0.43470594 0.11343504 0.009976188 -0.33683637
000080 c3 13 d2 3d a7 d2 f1 be 3a 9a 49 be e4 4b 0d 3f
       0.102576755 -0.47231027 -0.19687739 0.55193925
000090 9d fd 42 bd 79 a7 92 3d f2 23 c7 be 9c 51 d4 3d
       -0.047605146 0.07160849 -0.38894612 0.10367128
0000a0 2e a2 cc 3d 74 eb 38 3e 29 e9 f2 3e 1c 57 91 3e
       0.09991871 0.18058568 0.47443512 0.28386772
0000b0 6a ec ca bd e6 6a 8d 3d e2 3d cd bb 7a 08 f7 bc
       -0.09908374 0.06905155 -0.0062634805 -0.03015541
0000c0 a4 42 67 3d b2 8c 60 3e 6f 16 32 3c 30 2a 6a be
       0.056460038 0.21928671 0.010869606 -0.22867656
0000d0 0f a4 9d be 06 5b bf be c4 18 ab 3e d5 29 41 bd
       -0.3078923 -0.37374133 0.33417332 -0.047159035
0000e0 a7 91 b2 3e 1a f4 c8 bc 4b 8b a3 3e 25 96 51 be
       0.3487675 -0.02453046 0.3194221 -0.20467432
0000f0 b4 60 58 bd f3 67 62 3e 97 44 e5 be 48 e7 fa 3c
       -0.0528266 0.22109966 -0.44778892 0.030627862
000100 0a c7 8f be 76 e0 55 3e 81 91 e6 be 37 13 1d bd
       -0.28081542 0.20886406 -0.45032886 -0.038348403
000110 ab 9b 68 be 3a 8b 3f bd c7 68 a4 3c b6 8b 58 3e
       -0.22715633 -0.046763636 0.020069493 0.21147045
000120 e6 df c6 3e 9f 69 5e 3c e7 61 60 3e 08 e2 87 be
       0.38842696 0.013574987 0.21912347 -0.26539636
000130 c2 ca cb bb 68 bf 7b 3e 45 a6 eb be b3 c7 e7 3d
       -0.006219239 0.24584734 -0.4602529 0.113173865
000140 1f 99 60 be 48 fa 98 bd b6 af a9 be 6a 73 18 3e
       -0.21933411 -0.07469612 -0.3314187 0.14887777
000150 0f fa 93 3d e9 15 26 bc 75 bb 28 bf 0c 7c b8 bc
       0.07225429 -0.01013706 -0.65911037 -0.022520088
000160 fd ae 34 3e b7 2a 2b 3d 25 60 f3 be 4b c4 f3 3d
       0.17644878 0.041788783 -0.4753429 0.11902674
000170 0c cc 5e be c5 d4 57 3e 5b b2 6a bd 14 1b 1a bc
       -0.21757525 0.21077259 -0.057299 -0.00940587
000180 38 dd 55 be 9f 23 3e 3e 20 cc f4 3d 44 c2 39 3e
       -0.2088517 0.18568276 0.11952996 0.18140513
000190 27 a3 a4 be 4b f5 24 3e e0 0e 5c be 5d 6a 29 bd
       -0.32155725 0.16109197 -0.2149005 -0.0413612
0001a0 67 06 b3 3d e2 3f bc bd b1 28 c9 3d 4f df 51 3c
       0.087414555 -0.09191872 0.098222144 0.012809589
0001b0 b6 02 cc 3e dc 00 90 3e 9a ed a2 be a6 c0 7e 3e
       0.39845818 0.28125656 -0.318219 0.24878177
0001c0 4a 31 94 3e 2b cc 55 bd e6 b4 7c 3e 79 31 9b 3e
       0.28943855 -0.052196663 0.24678382 0.30311182
0001d0 be 9c 8a bd fe 99 1b 3e df 0d cf bd 9c ea 71 3e
       -0.067681774 0.15195462 -0.101100676 0.23624653
0001e0 38 b9 ae be fa 43 77 be 60 32 31 3e 83 ad c4 3d
       -0.34125686 -0.24147025 0.17304373 0.09603407
0001f0 b1 28 3b be 61 ad 8f 3d be 2e 23 3e b8 81 c7 bd
       -0.18277241 0.07015491 0.159358 -0.09741539
000200 26 fb 93 bd 68 8b 93 be 4e e4 17 bb 92 00 05 3e
       -0.07225637 -0.28817296 -0.0023176852 0.12988499
000210 58 c2 19 3e 1a 0c c6 bc 9d 13 f7 be 15 ff 0f 3e
       0.15015543 -0.024175692 -0.4825715 0.1406215
000220 fd 13 d3 3d 17 83 68 3e 48 81 c1 bd 4f 93 3e be
       0.10306547 0.22706257 -0.094484866 -0.18610881
000230 7d d5 60 3e 25 71 e3 3b 5b 3f 59 bd c2 15 83 3e
       0.2195644 0.006940978 -0.053038936 0.25602537
000240 dd 1d 4f be 8e 77 ea 3c 2c 66 37 3e 98 16 85 3e
       -0.20226236 0.028621461 0.17910069 0.259938
000250 4e a6 92 be 8c 77 88 3e 3b ec 7c 3e fc 80 56 be
       -0.28642505 0.26653707 0.2469949 -0.20947641
000260 56 5f 56 bd 84 62 82 3d f7 7f 44 bf ba c6 92 3d
       -0.052337013 0.063664466 -0.7675776 0.0716681
000270 48 ee 0a 3d 6b ea 4f be d6 71 1b be 3e 19 69 3d
       0.03391865 -0.20304267 -0.15180144 0.05690884
000280 2f b1 d4 be 43 08 ab 3e 2b dd ab 3d 63 a3 2d 3a
       -0.4154143 0.3340474 0.08391794 0.0006623773
000290 70 c9 1b 3e 9c 75 6b bb 2b df 52 3e ae 72 8f bd
       0.15213561 -0.0035928255 0.20592944 -0.07004295
0002a0 0b 60 e1 3d 77 51 58 be f3 68 26 3d 91 b0 80 be
       0.11004647 -0.21124826 0.04062743 -0.2513471
0002b0 16 9d 6d be 95 e6 8e be b1 8a 3d bd 0d 00 74 3d
       -0.23204455 -0.27910295 -0.046274845 0.05957036
0002c0 d3 21 8a be 4a 05 21 be e9 d8 0a 3e de ed ac be
       -0.2697893 -0.15724674 0.13559307 -0.33775228
0002d0 8e ee a8 be 75 32 63 be 3c 7f 6f 3e 16 d0 5b be
       -0.32994503 -0.22187217 0.2338838 -0.21466097
0002e0 75 18 c8 3d a4 5d 06 bf dc 85 85 3d 98 3b 1f bd
       0.0977029 -0.52486634 0.06519672 -0.038875192
0002f0 89 43 bb 3d 73 14 22 be 37 5c a6 bc e3 b1 8a be
       0.09143741 -0.15828113 -0.020307643 -0.27088842
000300 47 d8 25 3e 4f 1f 8d 3e 73 8c 38 be 75 e7 8b be
       0.16195785 0.2756295 -0.18022327 -0.27325025
000310 dd de 90 3e e3 e5 3e 3e e1 34 bb bd ea 4e 98 3e
       0.2829503 0.18642382 -0.09140945 0.29747707
000320 9b be 0c be 2a d8 82 be 1c e9 ca be ec b3 b1 be
       -0.13744585 -0.25555545 -0.39630973 -0.34707582
000330 0a 66 49 3e 71 bb 5b bc ea 35 c4 3d 20 dd 09 3e
       0.19667831 -0.013411389 0.09580596 0.13463259
000340 e0 4b 6f 3c a7 c6 bf 3e dc 4d 14 be 8d ae 50 bf
       0.014605492 0.37456247 -0.14482826 -0.81516343
000350 59 e4 56 3e fa dd 37 bd d6 2f e4 bd 13 4c 59 3e
       0.20985545 -0.044889428 -0.111419365 0.21220426
000360 a8 82 06 bf 79 d5 6a 3c 5e 29 cb 3d f8 8f ba 3d
       -0.52543116 0.014333122 0.099199995 0.09109491
000370 08 98 01 3e fb bc 1d 3f 4e 3b 00 bc ea 28 d1 be
       0.12655652 0.61616486 -0.007826639 -0.40851527
000380 d0 a1 28 bd 5c f1 20 be 58 a5 42 be c0 80 9b be
       -0.04116994 -0.15717071 -0.19008386 -0.30371666
000390 58 bd ce be 75 bc d8 3c 05 e8 a7 be 5b 22 3a 3e
       -0.40378833 0.02645705 -0.32794204 0.18177168
0003a0 17 71 80 3e 3f ef 6c bd bc ed 01 3e d9 23 92 be
       0.2508628 -0.05784535 0.12688345 -0.28542975
0003b0 ba bb 0e be 0d 4e f4 3d 7c 88 7e 3d e8 f1 3c 3c
       -0.139388 0.119289495 0.06214188 0.011532284
0003c0 df 67 40 3e 75 8f 85 3e 99 d5 83 3d 13 c7 ec bd
       0.18789624 0.26086012 0.06437225 -0.11561408
0003d0 1b 01 44 3a 35 76 92 3d 0d 34 2e be ab d5 84 be
       0.00074769714 0.071514525 -0.17012043 -0.25944266
0003e0 a3 21 b8 be 3a 28 84 be db 75 18 be 43 8e 6a 3e
       -0.35963163 -0.2581194 -0.14888708 0.22905831
0003f0 6a c2 04 be 69 22 f9 bd 03 b5 88 be 8a 9d 32 3d
       -0.12964788 -0.12164766 -0.267006 0.043607272

backBone.0.conv2.bias f4 [6]
000000 ff f2 28 3a 16 df 92 39 cf 44 6e b9 72 c6 02 39
       0.00064449006 0.00028013502 -0.00022723082 0.00012471693
000010 0a fe 40 39 70 d0 23 3a
       0.00018405184 0.0006249016

backBone.0.bn2.weight f4 [6]
000000 c5 0b 11 3f b8 7d 1e 3f 50 a4 35 3f b6 a2 58 3f
       0.56658584 0.6191058 0.70953846 0.8462328
000010 df 5a 53 3f 6d 4b 80 3f
       0.82560533 1.0023018

backBone.0.bn2.bias f4 [6]
000000 f5 d8 a9 bc 66 e6 83 3e e1 70 24 be ae 81 11 3d
       -0.020733336 0.25761718 -0.16058685 0.035524063
000010 33 e0 97 3e a0 48 2f 3e
       0.29663238 0.17117548

backBone.0.bn2.running_mean f4 [6]
000000 66 e8 05 be 64 db 8c be 82 fb 41 3e 09 d7 78 bf
       -0.13076934 -0.27511132 0.18943599 -0.9720312
000010 95 03 ba bf 6b 8e cd bf
       -1.4532343 -1.6059088

backBone.0.bn2.running_var f4 [6]
000000 80 e6 6e 3f 00 31 32 3f 46 5c a7 3f 31 89 43 3f
       0.93320465 0.6960602 1.3075035 0.7638121
000010 ba 80 94 3f bb b2 9a 3f
       1.1601784 1.2085794

backBone.1.conv1.weight f4 [6, 6, 3, 3]
000000 50 85 27 be e2 75 01 3e 0b 6b e2 3e c9 46 ec bc
       -0.16359448 0.12642625 0.44222292 -0.028842347
000010 d5 3d 0e 3e 00 02 60 3e dc eb 1b 3d d2 76 c9 bd
       0.13890775 0.21875763 0.03806673 -0.09837116
000020 b1 16 55 3e 71 dc 94 3d 45 c1 38 be cd 41 a9 3c
       0.20809437 0.07268608 -0.18042476 0.02066126
000030 1f 8f c4 be 9a e5 de be cf aa dd 3d 2b fa 2b bd
       -0.38390443 -0.43534547 0.10823595 -0.041986626
000040 93 aa 42 be dd a0 a5 3e 7d b4 d3 3c f1 0e a0 3d
       -0.19010381 0.3234929 0.0258429 0.0781535
000050 15 bf 80 be 2f 3e f1 be b1 be 75 bd 12 9c 86 bd
       -0.25145784 -0.47117755 -0.05999631 -0.06572737
000060 20 67 b9 3c c9 2d f5 3e ae ae 0d be 29 71 06 be
       0.022632182 0.47886494 -0.13836166 -0.13129105
000070 85 2a 00 3c ad 36 93 be 07 42 2b be 3c fb f3 be
       0.007822637 -0.28752652 -0.16724406 -0.47652614
000080 20 fe 88 bd 5a 8e 41 be 76 4e c8 bc c8 af 92 3e
       -0.066890955 -0.18901959 -0.024451476 0.28649735
000090 63 01 d0 bd 34 e4 27 3e 56 6d ee 3d 18 0f 18 3d
       -0.101565145 0.16395646 0.11641948 0.03712377
0000a0 69 d2 a8 3e 25 8c 35 bd 03 d0 c5 3d 82 8f 24 3e
       0.3297303 -0.044323105 0.09658816 0.16070369
0000b0 3f 3f 36 be 3c e9 22 be a8 d5 c4 3d ea 68 92 be
       -0.17797564 -0.15909284 0.09611064 -0.28595668
0000c0 2b 04 11 3e 47 27 bb 3e ad ff 92 3e a7 b8 ba bd
       0.14161746 0.36553404 0.2871069 -0.09117251
0000d0 2b 55 e7 be 0a b4 fb be ac 97 d5 3d 86 8f 38 3d
       -0.45182166 -0.49160796 0.1042932 0.04505875
0000e0 01 e1 27 be f0 35 92 be 0e 15 20 39 a1 f8 79 3e
       -0.16394426 -0.28556776 0.00015266633 0.2441125
0000f0 c6 ea 9a be 8c 3c 2c bd 99 45 cc bd 8f bd 48 be
       -0.30257243 -0.04204993 -0.09974212 -0.19603561
000100 eb 53 54 be 26 3d 0c bf 93 3f 47 3c ca e6 a0 be
       -0.20735137 -0.54780805 0.012161153 -0.31426078
000110 f2 ef ed 3e 31 d7 83 be aa c9 2b 3e 98 5d 5e 3d
       0.46472126 -0.25750116 0.16776147 0.054288477
000120 37 3e 16 3d 35 c8 d7 3d df 31 0b 3d c5 00 27 bd
       0.036680426 0.10536233 0.033983108 -0.04077222
000130 24 2c 5a 3e 68 58 3f be 8e 42 9d 3e 6a a7 da be
       0.21305901 -0.18686068 0.3071484 -0.42705852
000140 c6 7e 11 be ee 45 b5 be 3f 9a 1f be 1b 68 84 3e
       -0.14208516 -0.35404915 -0.15586184 0.25860676
000150 ec 53 25 be 72 b3 c2 be 59 28 7b 3d 7c 44 76 3e
       -0.16145295 -0.3802753 0.061317775 0.24049562
000160 15 6d db 3d f7 67 8b 3e d8 1d bf 3c 9f 7e 55 bd
       0.10714165 0.27227756 0.02332966 -0.05212271
000170 43 45 87 be 94 ae bb be 82 70 db bc c0 36 17 3e
       -0.2642003 -0.3665663 -0.026787046 0.14766979
000180 63 29 69 be a9 b1 af bd 1e 61 27 be 60 27 2e be
       -0.22769694 -0.08578808 -0.16345641 -0.17007208
000190 42 75 00 3e f3 63 99 3e 44 e8 a6 bd e3 29 20 3e
       0.1254473 0.29959068 -0.0814977 0.15640979
0001a0 2d 0c 09 3f c8 e5 13 3e 02 4f f0 be 22 7a 2e be
       0.53534204 0.14443123 -0.46935278 -0.17038777
0001b0 5f ef e0 be c4 40 b1 bd c0 8f 9a 3e 68 b8 86 3e
       -0.43932626 -0.08654931 0.30187798 0.26312566
0001c0 4b f4 21 3d 37 b5 09 3e 4c df 8c 3e 9b 11 64 bd
       0.039539617 0.13448034 0.27514112 -0.055680852
0001d0 6e 25 28 bc 1a b9 ec 3b a1 12 04 3e 4d 8d 25 3d
       -0.01026283 0.0072242143 0.12897731 0.040417958
0001e0 c5 66 e7 3e b4 09 d1 3c 6a 13 fe bd 7a 72 d2 3d
       0.45195594 0.025517322 -0.12406047 0.10275741
0001f0 75 78 7b 3d 60 dc e9 3e dc 08 4e 3e 48 77 5c 3e
       0.061394174 0.45675945 0.20120567 0.21529877
000200 8b 93 85 be 25 f3 c9 bd 1a 79 b0 3e d5 06 2d 3e
       -0.2608913 -0.09860829 0.34467393 0.16897137
000210 92 a8 bf be 88 ae 88 3d 59 fe ad 3d 59 4e 0c be
       -0.37433296 0.06673914 0.084957786 -0.13701762
000220 10 e5 57 3e ba 63 cf be 64 34 32 3e 78 df fc be
       0.21083474 -0.40505773 0.17402798 -0.49389243
000230 0b ed 89 be 8e 15 ae bc 2f 9c 6a be 8a d5 f4 3d
       -0.26938662 -0.021250512 -0.22911142 0.11954792
000240 89 c2 8d be 94 8e fe be fc 04 c1 be 08 0d 22 3d
       -0.2768748 -0.49718153 -0.37699115 0.03956321
000250 21 e7 da bd 71 c0 04 3e a6 19 8f bd 29 0d f4 be
       -0.106886156 0.12964036 -0.06987314 -0.4766629
000260 5d 70 87 3e 14 88 d7 bc c8 e6 32 3e 14 49 d4 3e
       0.26452914 -0.026310004 0.17470849 0.41462004
000270 10 8d 05 be 1f ca 50 3d 2b 07 27 3c 5c a0 5a 3d
       -0.13042092 0.050974008 0.01019458 0.053375587
000280 d0 4c 88 be 1e 66 39 3e dc 97 47 3d 3b f6 a8 3c
       -0.26621103 0.18105361 0.04872881 0.020625224
000290 27 b5 b9 3e 70 dc e6 3d f8 50 c6 be 48 0d 1a 3c
       0.3627102 0.11272514 -0.3873365 0.009402581
0002a0 1b 14 20 bf ff 00 42 3e 32 67 ca 3d 9f 75 d5 3c
       -0.6253068 0.18945692 0.09882964 0.026057063
0002b0 03 27 dd 3c 83 ba ed 3d ac ad 15 3e b4 45 c7 3e
       0.026996141 0.1160784 0.14617032 0.38920367
0002c0 04 2d 03 3e 23 8c d7 be 71 52 d9 bd ea d1 bb bc
       0.12810141 -0.42099103 -0.106114276 -0.022927243
0002d0 c7 4b 75 3e 03 0e b3 3d 7a 10 29 be 46 90 ef bd
       0.23954688 0.08742907 -0.16510192 -0.1169744
0002e0 8c 0e 87 be cf 75 e8 3d 7d e9 dc bc e4 2f 0c 3e
       -0.26378286 0.11350595 -0.026966805 0.13690144
0002f0 da 43 7f be cb ca 73 3b 9d 88 84 bd c6 52 80 3e
       -0.24928227 0.0037199731 -0.064713694 0.2506315
000300 b1 87 da 3e 8f b4 31 be 52 b5 ed bd aa dc 61 3e
       0.4268165 -0.17354034 -0.1160685 0.22056833
000310 c0 46 c0 3e 25 1e 41 3d 7c ea 32 3f ea 2d b5 3d
       0.37553978 0.04714789 0.69889045 0.08846648
000320 27 4d e9 3d 38 e9 31 be a8 7f 2b be 81 51 64 be
       0.11391669 -0.17374122 -0.16747916 -0.22296716
000330 e6 a1 c7 3d cb 82 07 3e 8f a8 cf be b9 09 3b 3e
       0.097476766 0.13233487 -0.40558288 0.18265428
000340 36 26 10 3e c3 8c 1a 3e 2b a7 2e be 17 c8 c2 3d
       0.14077076 0.15092759 -0.17055957 0.0951082
000350 0b 67 07 be c7 fa 79 bd fc c7 d0 be 34 91 3a be
       -0.13222902 -0.061030176 -0.40777576 -0.18219453
000360 8c e7 e4 3d ef a6 a8 bc e3 cb 2c bd c8 3e e4 be
       0.111769766 -0.020587413 -0.04218663 -0.44579148
000370 5a 40 93 3e 2a db 2a 3e 1a 92 dc 3d 1b 5b 99 bc
       0.28760034 0.16685167 0.10770054 -0.0187202
000380 68 59 48 3e b4 80 dd be d7 46 55 3e 4a f7 35 3e
       0.19565356 -0.43262255 0.20827805 0.17770115
000390 3b 7c 87 3e bd 22 8d 3e ad 56 ec bc 1a b5 f5 3b
       0.26461968 0.27565566 -0.028849924 0.0074983956
0003a0 8d 1c 9a be 14 24 77 be 96 ef c4 3e 59 1a 44 3e
       -0.30099908 -0.24134856 0.3846404 0.19150676
0003b0 90 a8 0c bd e2 fe b5 bd 5c 02 2d bc fd 77 d9 3d
       -0.03434044 -0.08886506 -0.010559645 0.10618589
0003c0 95 a8 58 3d fa 2c a9 bd 82 fa 01 3c d6 cd 39 bf
       0.052895147 -0.08260532 0.007933261 -0.72579706
0003d0 6c c2 f6 3c 1c 42 40 3e 2e e5 7d be 1e 2a d6 bd
       0.030122004 0.18775219 -0.24794456 -0.10457252
0003e0 e9 a1 b9 3e 95 3b 97 be da eb cb be ce 25 8d bd
       0.3625634 -0.29537645 -0.39828378 -0.06891976
0003f0 4d e8 37 be f3 34 aa be 55 81 0b 3e 6e 18 61 be
       -0.1795971 -0.33243522 0.13623555 -0.21981975

backBone.1.conv1.bias f4 [6]
000000 1a 77 fa 37 51 0a 1e 3a e1 cc 97 b9 08 12 e0 b8
       2.9857783e-05 0.0006028759 -0.0002895361 -0.00010684511
000010 a7 51 36 ba aa 86 b7 b8
       -0.0006954916 -8.751203e-05

backBone.1.bn1.weight f4 [6]
000000 d6 33 69 3f 44 cc 88 3f d6 05 4d 3f 4b fc 76 3f
       0.9109472 1.0687337 0.8008703 0.9647872
000010 75 25 8c 3f de d9 5a 3f
       1.0948931 0.8548869

backBone.1.bn1.bias f4 [6]
000000 53 bd 01 bf 89 26 25 be 6a 49 07 be 64 08 86 bc
       -0.5067951 -0.16127981 -0.13211599 -0.016361423
000010 94 e5 3f bd 85 fe c0 be
       -0.046849802 -0.37694183

backBone.1.bn1.running_mean f4 [6]
000000 56 05 d6 be de ee b6 bf 86 c9 35 be a5 e9 90 3e
       -0.41800946 -1.4291646 -0.17752656 0.28303257
000010 6c 66 5e bf 36 0e b9 3f
       -0.86875033 1.4457462

backBone.1.bn1.running_var f4 [6]
000000 24 f7 12 40 9e 45 12 40 a8 21 49 40 81 19 31 40
       2.2963343 2.285499 3.1426792 2.7671816
000010 41 ae 1b 40 e7 1d 3f 40
       2.4325106 2.9862

backBone.1.conv2.weight f4 [6, 6, 3, 3]
000000 90 4c a3 be 3f 2e 1f be 09 26 0f bc b1 dd eb 3d
       -0.3189435 -0.15544985 -0.008737096 0.11516894
000010 6d b0 39 3e 38 c7 bf be 2c e9 19 3c 69 bb b3 3d
       0.18133707 -0.3745668 0.009393971 0.0877598
000020 57 1c 63 bd 19 90 6a be 46 50 36 be d9 2c 03 3d
       -0.05544695 -0.22906531 -0.1780406 0.032025192
000030 c6 ad fc 3d 4c f8 a0 3d 45 8b 04 bf 4e 27 bf be
       0.12337832 0.07859859 -0.5177501 -0.37334675
000040 3b c2 c0 3e 9b ba d0 3e 83 aa 6e be 13 07 9a be
       0.37648186 0.4076737 -0.23307233 -0.30083522
000050 17 e5 51 be cb 84 8d be ea 9e fe bc 75 ec c7 3e
       -0.20497547 -0.27640375 -0.031081636 0.3904759
000060 27 6f 8f be e3 47 a0 bd a1 1c a2 bd be cd 33 be
       -0.2801449 -0.07826211 -0.07915617 -0.17558953
000070 4f 0c 49 3e 99 c5 95 3d e0 4e 84 3d b1 0b 8f 3e
       0.19633602 0.073130794 0.06460357 0.27938607
000080 9c d3 64 3e 45 b7 3c be 50 2b 25 3e cf 32 23 3d
       0.22346348 -0.18429287 0.16129804 0.039843377
000090 c4 3d fe bd 75 97 1f bd e0 84 c1 3e e3 41 02 be
       -0.124141246 -0.0389628 0.37796688 -0.12720446
0000a0 5c 2b f0 3e 17 c2 18 3e 1d cf 4d 3e fb bd 0f bd
       0.4690808 0.1491779 0.20098539 -0.03509329
0000b0 9f 44 0b bd e0 46 fe be ca 37 f8 bc 3a 7a 92 bd
       -0.03400099 -0.49663448 -0.03030004 -0.07152219
0000c0 7c 83 7c 3e c2 83 39 bd 88 54 a3 3e d9 6b cc bd
       0.24659532 -0.04529167 0.3190043 -0.09981508
0000d0 2d df 00 3e 4e ba 6d 3d 2c 15 04 be 48 71 8e 3b
       0.12585135 0.058039002 -0.12898701 0.0043470003
0000e0 84 43 10 be 7d 5a 64 be 9b c3 a8 be 38 70 2b 3e
       -0.14088255 -0.22300144 -0.32961735 0.16742027
0000f0 52 07 a1 be 2f 8f 21 3f 5f 65 b5 bd 99 46 ed bc
       -0.31450897 0.63109106 -0.088572256 -0.028964328
000100 63 4d 60 be 45 21 58 3e 84 1b 8d bc 81 25 62 bd
       -0.2190452 0.21106441 -0.017225035 -0.055211548
000110 e6 38 b1 3e fa ec 9d 3d 7c 36 d0 bd 33 e5 17 be
       0.34613723 0.07711215 -0.10166642 -0.14833526
000120 4c ea 68 be b3 e1 2f 3e fa a1 dc 3d 0d b7 15 bd
       -0.22745627 0.17175941 0.10773082 -0.036551524
000130 e1 1a 18 bd bc 6e 19 39 8b 97 87 3e 74 7a df be
       -0.03713501 0.00014632469 0.26482806 -0.43648112
000140 19 4e e0 be ae 70 95 be 1f 57 eb 3d 63 bb 82 3d
       -0.43809584 -0.2918753 0.114912264 0.063833974
000150 da 8e 57 3d 9a 2c 75 be 97 94 74 be ff 73 ca be
       0.05262647 -0.23942795 -0.23884808 -0.39541623
000160 05 f8 30 3e 34 3d b3 be eb cc da 3e 38 2f 2e 3d
       0.17282112 -0.35007632 0.42734465 0.0425255
000170 fc 0d 66 3e 61 81 fa bd ab 4e e9 bc f2 db f9 bd
       0.22466272 -0.12231708 -0.028479895 -0.12200154
000180 6d 52 0b bd 3c 58 0e 3e 1d d8 ff bd 3d 1a a7 be
       -0.034014154 0.13900846 -0.12492392 -0.32637206
000190 97 e7 09 3e 7d e8 5d 3e 9b 05 72 3d 7e c5 94 3e
       0.13467251 0.21670718 0.059087377 0.29056925
0001a0 11 2a fe bd a6 da 0a 3f 49 92 5d bd 32 0c 15 be
       -0.12410367 0.5423988 -0.054094587 -0.14555433
0001b0 ae 33 84 3e 8f ea aa be c3 7c 5a be 41 f6 c6 bd
       0.25820678 -0.3338208 -0.21336655 -0.09714938
0001c0 07 85 bb 3e 5e a0 b8 be cf 28 05 3e bf f8 40 be
       0.3662493 -0.3605985 0.13003848 -0.18844889
0001d0 fb 8b ae 3e 39 44 b5 3d 5d 44 88 be 3d 29 1e be
       0.34091172 0.08850903 -0.26614657 -0.15445419
0001e0 5a d5 7d 3e c2 c6 91 3e 01 ca da 3d 45 22 5c 3e
       0.24788418 0.28471953 0.106830604 0.21497448
0001f0 04 f5 8b bd b4 3d 00 be af 59 7a be 93 7c 9b 3d
       -0.068338424 -0.12523538 -0.24448274 0.0759212
000200 fe 09 e1 3e a9 95 8a be 47 c7 5b be 13 3c 57 3e
       0.43952936 -0.27067307 -0.21462737 0.2101901
000210 7a 64 30 be 03 1e b6 3d ca d9 f8 bd 68 d7 d2 3e
       -0.17225829 0.08892443 -0.12150915 0.41179967
000220 0c b3 a5 3d e5 d5 bd be 74 7f b6 be 62 f3 bc bd
       0.08090791 -0.3707725 -0.35644114 -0.09226109
000230 e4 95 46 3e ec 8a a5 3d 0c c3 27 be d9 77 27 be
       0.19393116 0.08083138 -0.16382998 -0.16354312
000240 e7 46 0c be 38 dc c7 be 27 1f 89 3e 05 a9 6f bd
       -0.13698922 -0.390352 0.2678158 -0.0585108
000250 ec c6 c1 be b5 0a a9 bd b8 94 4f bd 64 28 89 bd
       -0.37847078 -0.08253995 -0.05067894 -0.06697157
000260 a7 02 ad be 7c 8b 10 be 85 b6 80 3d df 28 59 be
       -0.33791086 -0.14115709 0.06284813 -0.21206997
000270 d9 a3 b4 3e 0e 95 e7 3d 66 b5 a0 3e 2e 39 38 3e
       0.35281256 0.11307727 0.31388396 0.17990562
000280 5d 64 97 be 89 8e f0 3d 8d ef 7e 3e f6 bf f9 be
       -0.2956876 0.117459364 0.24896069 -0.48779267
000290 41 44 99 3e b8 04 1d be f0 0b b2 bd 62 89 7b 3e
       0.29934886 -0.15333831 -0.08693683 0.24564126
0002a0 00 94 77 3e 48 5f 29 be 09 cc a0 be 50 cf 98 be
       0.24177551 -0.16540253 -0.31405666 -0.29845667
0002b0 2f 54 9e 3c 30 3d 39 3d 60 86 21 3e 39 5d 96 3e
       0.019327251 0.04522437 0.15773916 0.29367998
0002c0 87 4d 8f 3e 3b 5d 1e 3f 00 9e 4c bd e7 4d 6b be
       0.27988836 0.6186101 -0.049955368 -0.22978936
0002d0 f3 eb 87 be fe 48 23 3e cc 03 3a 3e 3a 76 34 3e
       -0.26547202 0.15945813 0.18165511 0.17623225
0002e0 72 37 44 3d 5b ae 61 3c 54 20 a5 bd bd 63 21 be
       0.04790444 0.01377448 -0.08062807 -0.15760703
0002f0 b1 34 a5 3e 08 e7 2e 3c 9b 55 8e bd 9a 0a b4 bd
       0.32266763 0.010675199 -0.06949922 -0.087910846
000300 9f 58 65 be 2b a6 a5 3e 69 f2 1b 3e 6d 94 b7 bd
       -0.22397088 0.3235334 0.15229191 -0.08963857
000310 32 ef 5b bc 84 7e a4 be ec 66 6e be f9 ea 91 be
       -0.013423728 -0.32127774 -0.23281449 -0.28499582
000320 5f bc 14 bc 90 94 0d be bc 6b 05 bf d2 f8 c4 3e
       -0.009078114 -0.13826203 -0.52117515 0.38471085
000330 89 fe 2f bd 71 64 bd be 08 8b 12 be 4a be a6 3e
       -0.042967353 -0.36990693 -0.14310849 0.32567054
000340 35 e4 15 3d 91 41 1b 3d 1b 20 c4 3d 4a 6c 27 be
       0.03659459 0.037904326 0.09576436 -0.16349903
000350 68 fb 6f be 3b 9f 3e 3e 4f 3a 6d be 4c f5 16 be
       -0.23435748 0.18615429 -0.23166774 -0.14742011
000360 0f 74 8b be 75 7c 86 be b4 1f 43 3e 62 84 8f be
       -0.27236983 -0.26266828 0.19055063 -0.28030688
000370 19 08 8f be cd 3b cb bd f9 95 0f 3e 46 38 7f bd
       -0.27935866 -0.099235155 0.14022054 -0.062309526
000380 25 0a 84 3d e0 df 79 bd cc 0a 30 be 75 ed 3a 3d
       0.064472474 -0.06100452 -0.17191619 0.045636613
000390 cc 22 cb bd 0a a0 e2 3d 0f 5b d3 bd 0f cf ad 3c
       -0.09918746 0.11065681 -0.103201024 0.021216897
0003a0 53 4d ae bc 05 a4 e1 bd 73 73 a4 3e 43 4d e6 bd
       -0.021277105 -0.11017612 0.3211933 -0.11245205
0003b0 05 29 19 be 2d a7 27 3e dc 49 40 bd 30 90 96 bb
       -0.14957054 0.16372366 -0.046945438 -0.004594825
0003c0 f1 fb 82 3e f9 d8 39 3e db f6 ba bd ed 06 0b bc
       0.2558284 0.18149175 -0.09129115 -0.008485538
0003d0 5e c4 4e bd 21 44 cf bd 02 49 d6 3e 95 0d af bd
       -0.05048024 -0.101204164 0.41852576 -0.085475124
0003e0 1d fd 1e 3e 85 75 ad be 16 79 a0 3c df 43 46 be
       0.15526243 -0.33878723 0.019588988 -0.19361828
0003f0 ee f3 67 3e 0f b6 66 bd 92 68 81 3e fd 08 0c 3f
       0.22651646 -0.05632597 0.25275093 0.54701215

backBone.1.conv2.bias f4 [6]
000000 21 6d 43 39 90 4b f2 b9 0c 8f 32 ba 73 a9 9c 38
       0.00018637303 -0.00046214135 -0.0006811477 7.470222e-05
000010 4a ea 91 b9 5b 20 b3 3a
       -0.00027831114 0.0013666259

backBone.1.bn2.weight f4 [6]
000000 d3 6f e7 3e 60 70 6f 3f 9f ed 37 3f 72 99 4a 3f
       0.45202503 0.93530846 0.71846956 0.7914039
000010 f0 cd c5 3e 13 c2 73 3f
       0.3863368 0.9521801

backBone.1.bn2.bias f4 [6]
000000 5c 29 45 be c4 b8 8e bd f3 2a 26 3e 55 0a 6f be
       -0.19254059 -0.06968835 0.16227321 -0.23343785
000010 5b d0 7b 3d f0 8b 8c bd
       0.061478 -0.068626285

backBone.1.bn2.running_mean f4 [6]
000000 56 f7 28 3e 5f 5c ce be d6 ad d1 be 17 54 a9 be
       0.16500601 -0.4030485 -0.4095294 -0.33071968
000010 4c 0f 4e 3d 89 4d 9e 3e
       0.050307557 0.3091853

backBone.1.bn2.running_var f4 [6]
000000 77 41 20 3f 13 dc d9 3e eb 0d 0a 3f 44 29 39 3f
       0.6259989 0.42550716 0.5392749 0.7232859
000010 2d 19 2e 3f 70 a5 2c 3f
       0.68007165 0.6743994

backBone.2.conv1.weight f4 [6, 6, 3, 3]
000000 cf 44 0b bd 23 fd 7f be ed 17 06 3e 8d 23 d0 bd
       -0.034001168 -0.24998908 0.13095064 -0.10163031
000010 3b 16 32 3e 56 81 87 bd 89 2c bd 3d b5 be 86 be
       0.17391293 -0.06616466 0.0923701 -0.26317373
000020 90 8d 85 be d3 e4 a2 be a9 e9 27 bd c2 9c 2e bd
       -0.26084566 -0.31815204 -0.04099432 -0.042629965
000030 c2 f8 5d bd 8b 89 0a be 99 98 38 be 25 ce 87 be
       -0.054192312 -0.13529031 -0.18026961 -0.26524463
000040 7f 37 ab 3e 4e bc 80 be 4d e2 2d bf 96 56 85 3d
       0.33440778 -0.25143665 -0.6792343 0.065106556
000050 7a 28 6a bd e1 fb 71 3e c8 6a 53 3d 7e fa d2 3d
       -0.057167508 0.2363124 0.051615506 0.10301684
000060 fe 50 5e be 9a cc f7 3d c3 5e 8f 3e 75 07 39 3e
       -0.21710584 0.120995715 0.28001985 0.18069251
000070 60 e2 b8 3d 16 d3 04 bd 20 12 ac be 70 e4 e1 3d
       0.090275526 -0.03242787 -0.33607578 0.11029899
000080 3e bf 04 3e 00 b0 e4 3e 8c 6f 14 bd 81 f5 b6 3e
       0.12963578 0.44665527 -0.036239192 0.3573418
000090 60 77 cd be 89 11 5d bd cc 8b c3 bc 94 46 81 3e
       -0.40130138 -0.0539718 -0.023870371 0.2524916
0000a0 7f f8 e9 bd 47 14 80 bc 35 3b 00 3e 83 ac ff bd
       -0.1142435 -0.015634669 0.12522586 -0.12484076
0000b0 57 f3 9c 3e e5 6e b3 3d 92 42 c8 be 42 6b 1c 3f
       0.30654404 0.08761386 -0.3911329 0.6110116
0000c0 05 2e 53 3e 1c af 11 bf 26 00 e7 3c 7b d9 d3 bd
       0.20623024 -0.5690782 0.028198313 -0.103442155
0000d0 2a d4 43 3e 27 d6 79 bd ef 8d 2b be 90 9c 0f 3e
       0.19123903 -0.060995247 -0.16753362 0.14024568
0000e0 af 4c 88 bc c8 20 64 bd c6 94 33 be 82 d5 5a 3e
       -0.016638128 -0.055695325 -0.17537221 0.2137051
0000f0 6c 7e d0 3e 1e c4 97 bd 27 4a 93 3e 31 b1 08 be
       0.40721452 -0.07410453 0.2876751 -0.13348843
000100 e6 01 cb be b0 da 55 be e2 58 ab 3d 58 c2 ba 3d
       -0.39649886 -0.20884204 0.083665624 0.091190994
000110 20 ba af 3e 5e 89 99 3d a1 23 64 3e d9 8e 63 3e
       0.3432169 0.07496904 0.22279216 0.22222461
000120 f7 0a 86 bd 8f 33 b0 3e ba be c9 bd 77 73 52 3e
       -0.0654506 0.34414336 -0.09850831 0.20551859
000130 16 f5 43 3e 44 b8 2f 3e ff 7f 20 3f a7 b2 94 3c
       0.19136462 0.17160136 0.62695307 0.018151594
000140 df c4 af 3e 77 57 95 3e b7 05 52 be 4f c9 8f 3e
       0.34329888 0.29168293 -0.20509993 0.28083274
000150 0a 2b 50 bd b4 f7 d1 be 16 b2 5e 3e 93 8c e3 be
       -0.050822295 -0.41009295 0.21747622 -0.44443187
000160 50 df 1d 3f 02 18 34 3e 26 92 9a be bd e2 c4 bc
       0.6166887 0.17587283 -0.30189627 -0.024033898
000170 be 9e d7 bd fc ca 45 3e a4 2e bf bd 3b 41 82 3a
       -0.105283245 0.19315714 -0.09335068 0.0009937653
000180 03 ed ec bd 8a dd 2f 3e 63 31 fc bd 43 ca ea 3d
       -0.11568644 0.17174354 -0.12314107 0.114643596
000190 a4 c9 50 3e 26 02 86 bd be f1 cf 3c 88 f3 fd 3c
       0.2038942 -0.065433785 0.025383826 0.030999914
0001a0 e7 4a 83 be 7c 8e 83 3e dc 74 04 3e 32 c3 b3 bd
       -0.25643083 0.25694644 0.12935203 -0.08777465
0001b0 74 a0 00 3e 54 dc 12 3e ae 11 cc be 68 93 ce 3d
       0.12561208 0.14341861 -0.3985724 0.10086709
0001c0 74 55 4d be ab f8 cc 3e 00 a0 2f 3e 54 55 56 be
       -0.20052129 0.4003347 0.17150879 -0.20930988
0001d0 e1 72 47 be fb 8f bc bc 55 21 b0 3c 6c 76 08 be
       -0.19477417 -0.023017874 0.021500269 -0.13326424
0001e0 d3 1b cf 3e 73 91 ac 3d 76 01 01 be dc 27 70 bd
       0.40450916 0.0842618 -0.12598214 -0.058631763
0001f0 86 49 95 bd 33 bd 26 be 81 19 c8 3c 3d 84 b8 be
       -0.07289414 -0.16283111 0.024426224 -0.3603839
000200 fc c6 d7 3d 73 42 27 be 37 87 43 3e 41 2a 3e bd
       0.10536 -0.16333942 0.19094549 -0.046427015
000210 72 40 b1 bd 19 53 64 bd f2 05 71 be 4e 05 bc be
       -0.0865487 -0.05574331 -0.23537424 -0.36722797
000220 34 71 ae 3e fa d6 71 bc 57 94 ab bc 3b 94 3a be
       0.34070742 -0.014760727 -0.020944757 -0.18220608
000230 84 1b 8e be 9a d5 ac bd 68 5d 65 be 5a 4b fc bd
       -0.27755368 -0.08439179 -0.22398913 -0.1231906
000240 23 a7 84 3d da 77 c2 3e 09 cd dd be 45 0a 98 bb
       0.06477191 0.37982064 -0.43320492 -0.004639896
000250 ed 6d 2c 3e 20 7e 89 bd 6d 9d fa bc 8e 92 7e 3e
       0.16838808 -0.067135096 -0.030592645 0.24860594
000260 b3 f0 75 bd da d2 d6 be 30 63 07 bf 15 b8 a0 3e
       -0.060044 -0.41957742 -0.52885723 0.31390443
000270 54 43 be 3e cd ed f4 3c 85 61 2c be b1 02 56 3e
       0.37160742 0.029898548 -0.16834076 0.20899464
000280 ff b4 ce be 59 d1 b8 3e f0 ff 44 3c 5d a1 84 3d
       -0.40372464 0.3609722 0.012023911 0.0647609
000290 16 62 79 bd 97 7c 71 be 3b f1 c0 be 0f 1e 98 3e
       -0.060884558 -0.23582684 -0.37684044 0.29710433
0002a0 97 a8 53 bd a0 5b d1 be 44 38 98 3e 09 f0 a5 bd
       -0.05167445 -0.40890217 0.29730427 -0.08102424
0002b0 b8 94 ba 3d d1 40 c6 3d ef 4a ee be 63 15 b0 3d
       0.09110397 0.096803315 -0.46541545 0.08597829
0002c0 bb 76 a6 be 16 26 89 be 76 3a 49 be 4a 56 f6 3d
       -0.3251246 -0.2678687 -0.19651207 0.12028177
0002d0 c5 50 1b bd fe 47 2a 3e 60 8b d1 be a4 42 a8 3d
       -0.037918825 0.16629025 -0.40926647 0.08215836
0002e0 60 f3 20 bf 7e f2 3e 3d ab 94 40 3e 65 94 cd 3d
       -0.6287136 0.046617977 0.18806712 0.1003807
0002f0 92 4b 64 3e c2 32 00 3e a1 e3 c9 3c 34 52 d6 3d
       0.22294453 0.12519363 0.024644675 0.10464898
000300 7c 69 ab 3e 99 dc 62 3d c3 2d be 3d f7 4f 9b be
       0.33478916 0.05538616 0.09286072 -0.30334446
000310 b2 82 05 3f 70 61 3b be a1 15 0c 3e be 26 2f 3e
       0.5215255 -0.18298888 0.13680126 0.17104623
000320 ea 19 07 3e 70 cf 03 3e a4 59 1a be 3a 40 9b be
       0.13193479 0.128721 -0.15073258 -0.30322438
000330 1f 63 96 be 42 94 99 3e 6f 54 4d be 93 6e 2e 3e
       -0.29372498 0.29995924 -0.2005174 0.17034368
000340 88 8c 11 3e 79 60 22 be 08 0b 82 3d b4 c7 6e 3e
       0.14213765 -0.15857114 0.0634976 0.23318368
000350 bf e3 61 3c f5 9e 48 bd de 73 b6 3e 54 b3 79 be
       0.013787209 -0.04897972 0.35635275 -0.24384815
000360 a1 3a c2 be 41 b7 62 3d 58 d5 bd be 27 66 1e bf
       -0.37935355 0.055350546 -0.3707683 -0.6187462
000370 2d 59 2c be 49 fb 69 be 02 84 1c 3e ee 75 9f bc
       -0.16830893 -0.22849764 0.15284732 -0.019465413
000380 15 d6 2a bd 46 6f f0 3d 1f f8 33 be aa db 95 3e
       -0.04170807 0.11739974 -0.1757512 0.29269153
000390 43 70 04 bf 31 57 3f be a4 7e 8e 3e e6 a0 55 be
       -0.517338 -0.18685605 0.27830994 -0.20862159
0003a0 f6 35 1f be ed 60 e3 bc e4 05 39 be 45 9e 08 3e
       -0.15547928 -0.027756179 -0.18068653 0.13341625
0003b0 78 cc 2c be 72 62 bb 3e ef 24 1d be 64 f2 4c 3e
       -0.16874874 0.36598545 -0.1534612 0.2001434
0003c0 a2 6d 08 3f 78 ee 5b 3e 86 35 20 be 85 71 c3 3d
       0.53292286 0.21477687 -0.15645418 0.095431365
0003d0 53 f8 d1 3c cc e1 58 be 60 8b 43 3d 8c bc d2 be
       0.025631106 -0.21179885 0.04774034 -0.41159475
0003e0 51 22 6c be 8e e8 85 3e 80 b0 8b be 5c 64 9a bc
       -0.23059966 0.26153988 -0.27283096 -0.018846683
0003f0 08 bd 84 3d 0c 3b 06 be ed 7e 08 bd fa 0f 89 3e
       0.06481367 -0.13108462 -0.03332417 0.26770002

backBone.2.conv1.bias f4 [6]
000000 03 40 82 b8 4b 0e 53 b9 00 1c ac 39 74 9b a6 b9
       -6.210806e-05 -0.00020127853 0.00032827258 -0.0003177781
000010 2b 51 27 b9 8e 85 eb b8
       -0.00015956599 -0.0001123055

backBone.2.bn1.weight f4 [6]
000000 e2 8c 5f 3f e4 e7 25 3f 54 e5 60 3f fc 74 8c 3f
       0.87324345 0.6480696 0.87849927 1.0973201
000010 24 f9 91 3f 62 72 86 3f
       1.1404157 1.0503657

backBone.2.bn1.bias f4 [6]
000000 78 86 54 3e 86 55 3e 3e 11 85 dd bc 60 12 3b be
       0.20754421 0.18587312 -0.02704099 -0.18268728
000010 de df 69 bd 58 f2 b6 be
       -0.057098262 -0.3573177

backBone.2.bn1.running_mean f4 [6]
000000 4c dc 4d bf 0e f9 08 40 2a 9e 61 bf dd 8b be be
       -0.8041427 2.140201 -0.88131964 -0.37216082
000010 76 d8 bb bf 31 c4 0a c0
       -1.4675434 -2.1682246

backBone.2.bn1.running_var f4 [6]
000000 6a fb 28 40 f7 32 33 40 b4 ec 48 40 6b 16 17 40
       2.640345 2.7999856 3.1394472 2.3607433
000010 16 36 39 40 28 f1 37 40
       2.8939261 2.874094
