src/interface/game/static/models/AZ-24-06-24-EIPC51-A/model_quantized.onnx (onnx, 98159 bytes, 17 tensors)

policyHead.4.bias f4 [81]
000000 e6 4c b4 bc 88 fa c3 bb 9d 49 d5 3d 71 c4 b2 3c
       -0.022009324 -0.0059807934 0.10414431 0.021822186
000010 6c f0 bb bc 1b a3 bd 3c a1 7a 09 3d a7 fb 1b bc
       -0.02294179 0.023149064 0.033564214 -0.009520448
000020 04 fe ea bc 1d e8 39 bb b1 68 56 bd 44 a6 37 bd
       -0.028685577 -0.002836711 -0.052345935 -0.044836298
000030 7e 9c 62 3d b3 cd 49 3d ce 46 ac bb f9 04 9e bc
       0.055325024 0.049268436 -0.005257464 -0.01928948
000040 33 ca 00 3d 9b 7e 74 bc 1f cd e2 3c e1 c3 fb 3c
       0.031442832 -0.014922763 0.0276857 0.03073305
000050 fe 3b a2 bb 3e 79 34 bc 89 e3 29 bc 84 ca 0e 3c
       -0.0049509993 -0.0110152345 -0.01036919 0.008715276
000060 89 72 d6 bc 1f 86 7b 3d d6 b1 e0 3d e6 b3 8e 3d
       -0.026177661 0.061407205 0.109714195 0.06967907
000070 05 5f 48 3c 98 53 4c 3d a0 75 67 3d 0f cb a0 bc
       0.012229686 0.04988441 0.05650866 -0.019628076
000080 76 d6 36 bd 74 dd 85 3d 18 04 63 3c d3 ac 07 3c
       -0.04463812 0.065363795 0.0138559565 0.008280951
000090 37 ff 00 bb 37 20 64 bd fb 46 b4 3c 40 1b 58 3c
       -0.001968337 -0.055694785 0.022006502 0.013190091
0000a0 87 5f 02 bc c3 07 e1 3c 28 9c 39 bd 8c 93 10 3d
       -0.007957346 0.027469521 -0.045314938 0.03529696
0000b0 87 ea 2f bb 0b 71 49 3c 94 4d 36 bc bc 51 0c 3d
       -0.002684267 0.012295018 -0.0111268945 0.034257635
0000c0 d1 86 2a bd 7d e5 76 3d c6 a0 05 bd 07 c4 98 3c
       -0.041632477 0.06027745 -0.03262403 0.01864816
0000d0 fc 63 58 3c 67 28 4b bd 46 3d 51 3c 9f 0c ba 3d
       0.013207432 -0.049599078 0.012770956 0.090844385
0000e0 08 fc 85 bc 67 85 24 bd 9d 16 6c 3d fc 76 b5 bb
       -0.01635553 -0.040166285 0.057638753 -0.0055378657
0000f0 31 59 aa bc 9b 9b 3e 3c ca aa ef 3b 3f 84 64 bc
       -0.020794483 0.011633779 0.007314061 -0.013947546
000100 f9 91 20 bd 0b e0 49 bd 45 7e 85 3c f7 7c 55 3d
       -0.03920171 -0.04928593 0.016295562 0.05212113
000110 5f 60 ed 3c 24 1a eb 3b 20 99 e7 bb 25 b0 80 bd
       0.028976617 0.007174747 -0.0070678145 -0.06283597
000120 35 84 f4 bc 18 ce ae bc cc df 07 3d 5a 74 82 bc
       -0.029848197 -0.021338508 0.033172414 -0.015924621
000130 c3 11 d2 3c 0b ce 90 3c c0 82 1a bd dc 2e d4 bc
       0.025643235 0.017676374 -0.03772235 -0.02590125
000140 84 10 06 bc
       -0.008182649

onnx::Conv_84 f4 [32]
000000 1d 6d 14 be 4e 8e f7 3e 4b 24 98 3e df c1 c6 be
       -0.14494748 0.48350757 0.2971519 -0.38819787
000010 70 35 8f 3e b4 6b 03 3f 34 18 9d be c4 53 b4 3e
       0.27970457 0.51336217 -0.30682528 0.35220158
000020 9b a8 06 3f 4b 46 a3 3e a0 28 67 3f 2c 05 64 be
       0.5260102 0.31889567 0.90296364 -0.22267598
000030 8a ed a8 3c 79 34 c2 be b0 60 c1 3e a2 14 c8 be
       0.02062108 -0.37930658 0.3776908 -0.39078242
000040 2e 19 6f 3e a8 6b cb 3d bf 8d 3e bd 47 c9 eb 3e
       0.23349449 0.09932643 -0.0465219 0.46052
000050 08 51 81 3e a0 bb f8 3e 47 04 3e be a8 e1 aa bd
       0.25257134 0.48580647 -0.18556319 -0.08343822
000060 bb c1 02 3d 5f a4 01 3f 28 90 c7 3c c3 f1 18 3f
       0.031923037 0.50641435 0.024360731 0.597439
000070 a5 2c 22 3f fa 65 d3 3e c0 23 f0 bb 7a eb 3c 3e
       0.6334937 0.4128874 -0.0073284805 0.18449202

onnx::Conv_87 f4 [32]
000000 20 4c ba 3b d6 52 59 3f 5a 69 82 3f 80 e6 4d 3f
       0.0056853443 0.8489202 1.0188401 0.8042984
000010 d7 ed 1e be 2f a6 dd bd 7b e5 10 bf bf 60 6b 3f
       -0.15520416 -0.10822713 -0.5660016 0.919445
000020 08 52 c7 bd cf ea 30 3f c0 9f 20 bf e8 7b 99 bc
       -0.09732443 0.6910829 -0.6274376 -0.01873584
000030 3d ff 71 3f 82 7c 59 3e 8a 9d 71 3f a8 e9 6e 3d
       0.9453009 0.21238902 0.9438101 0.0583283
000040 16 bd a8 3e c8 11 86 3f 1c f0 8f 3e 2c 09 5c 3e
       0.3295676 1.0474176 0.28112876 0.21487874
000050 7e 88 90 bd 16 52 e1 3f aa 86 13 3f e2 66 47 3e
       -0.07057284 1.7603176 0.57627356 0.1947284
000060 cb 3b b3 3c a6 02 ee be cb ba 33 be 84 72 a1 3f
       0.021879097 -0.46486396 -0.17551725 1.2613072
000070 e6 96 13 3f 42 8d 26 3f 3e 57 0d bf 1e c4 89 bf
       0.5765213 0.6505929 -0.55211246 -1.0762975

onnx::Conv_90 f4 [32]
000000 3d 29 9a be 94 c5 a3 3e fc 5a 83 3f c9 cb 95 3f
       -0.30109587 0.31986678 1.0262141 1.1702815
000010 81 af a4 3f 02 98 7c 3e a1 40 80 3f 76 b9 82 3e
       1.286606 0.24667361 1.0019723 0.2553212
000020 d0 15 e0 3f b2 3b 77 be 64 71 f7 bd 20 a8 81 3c
       1.7506657 -0.24143866 -0.120821744 0.015827239
000030 89 20 7f 3f 21 40 8e 3f 1f 76 49 3e 7e af e1 3e
       0.9965902 1.111332 0.19673966 0.44079202
000040 7b 3e e1 3e 34 47 62 be 17 80 e1 be 1b 38 31 3f
       0.4399298 -0.22097474 -0.44043037 0.69226235
000050 0e 2e 70 3f 12 bf c1 3e b6 06 51 3d e8 69 5d 3d
       0.93820274 0.37841088 0.05103179 0.05405608
000060 6e 5b 27 be 2f 45 9b 3e 9f 32 c7 3f 7c 95 95 3e
       -0.16343471 0.3032622 1.5562323 0.2921561
000070 9f f3 36 3f c0 ff 99 3f 86 b3 a2 be 3f 5a e1 3e
       0.71465486 1.2031174 -0.3177759 0.44014165

onnx::Conv_93 f4 [32]
000000 3a 7d 23 bf 1f de 54 3f 26 fb 9a be 20 10 b1 bc
       -0.63862956 0.8315143 -0.30269736 -0.021614134
000010 a4 a8 bd be 7b 8b 61 3f 2e d0 dc 3e be e4 44 be
       -0.37042725 0.88103455 0.43127578 -0.19227883
000020 be 8c 80 3e 8c 36 22 3f e6 72 d0 3f e2 f6 6a 3e
       0.25107378 0.6336448 1.6285064 0.22945741
000030 3a 1c b0 3f e7 4e 84 3f de 9b b6 3f 3f 49 74 3f
       1.3758614 1.0336579 1.4266317 0.95424265
000040 01 36 ca 3f 34 00 87 3f e8 dc 8b be b6 c9 ac 3f
       1.5797731 1.0546937 -0.27316976 1.3499057
000050 6a ae 8b bd d8 33 4e 3e 8d 18 e2 3e 6c 41 cc 3d
       -0.06820376 0.20136964 0.44159356 0.09973416
000060 74 d0 93 3e 06 fa 7b 3e 56 aa 23 3e a5 35 03 3f
       0.28869975 0.24607095 0.15982947 0.5125373
000070 39 6b e2 be 51 db a7 3f 46 10 99 bd 15 8c 8c 3e
       -0.4422243 1.3113805 -0.07473807 0.27450624

onnx::Conv_96 f4 [32]
000000 d1 2e 6b 3f 32 5f 14 3f 53 0a f7 bc f2 db 7d 3f
       0.9186831 0.57957757 -0.03015629 0.99163735
000010 4a b3 61 3f 40 3b 7c be 5b da 9b 3f 2d 14 8c 3f
       0.881642 -0.24631977 1.2176012 1.0943657
000020 cb a7 2d 3f bf 4e 15 3f be 0c 18 bf d9 26 8e bf
       0.67834157 0.5832328 -0.59394443 -1.1105605
000030 8a 13 47 be 94 93 67 be 6d a9 41 bf 4f 01 ab bc
       -0.19441047 -0.2261489 -0.7564915 -0.020874647
000040 7d a1 6a bf 81 f0 7e 3f 75 fd f8 3e d6 9c 9c bd
       -0.9165266 0.9958573 0.48630872 -0.076471016
000050 f5 29 24 3f 58 d1 79 bf 1c 7d 25 3f 6c 6c 0e 3f
       0.6412652 -0.9758506 0.64644027 0.5563419
000060 5c 67 76 3e 7c a5 0d be 6f b2 58 3f 85 63 25 3f
       0.24062866 -0.13832659 0.8464727 0.6460498
000070 ee b7 9c be 9a ba c5 3f 2a f4 94 3f fd c2 38 3f
       -0.30609077 1.5447571 1.1637013 0.7217253

onnx::Conv_99 f4 [6]
000000 1e 6a 4d 3e 68 74 75 bf fc 6f 5f 3f 88 ad a6 be
       0.20060012 -0.95880747 0.8728025 -0.3255427
000010 54 87 94 3f 61 34 a5 3f
       1.1603799 1.290661

onnx::Conv_102 f4 [3]
000000 1c cd 40 bf 7e 9a 2c 3f b1 5a b6 bd
       -0.7531297 0.67423236 -0.08904017

onnx::Conv_83_quantized u1 [32, 4, 3, 3]
000000 63 82 8a 70 6a 88 6e 68 81 92 81 8e 77 78 71 79
       99 130 138 112 106 136 110 104 129 146 129 142 119 120 113 121
000010 73 79 7c 91 94 84 62 6c 82 78 7b 69 90 70 53 50
       115 121 124 145 148 132 98 108 130 120 123 105 144 112 83 80
000020 6d 55 78 6f 8d 73 79 7d 79 80 84 80 7f 59 88 69
       109 85 120 111 141 115 121 125 121 128 132 128 127 89 136 105
000030 6e 77 68 65 7f 79 6d 65 77 61 05 5c 6a 6e 8c 4b
       110 119 104 101 127 121 109 101 119 97 5 92 106 110 140 75
000040 b1 85 ee 00 be 36 f7 2d 78 69 6d 79 74 69 82 81
       177 133 238 0 190 54 247 45 120 105 109 121 116 105 130 129
000050 72 97 66 72 5c 9a 94 5f 8a 64 4b 7f 8b 3a 4f 69
       114 151 102 114 92 154 148 95 138 100 75 127 139 58 79 105
000060 70 7d 69 7d 6d 60 73 79 a6 aa 70 8e 80 76 9b 82
       112 125 105 125 109 96 115 121 166 170 112 142 128 118 155 130
000070 93 99 84 85 8e 83 6d 41 69 64 3c 72 5d 30 80 97
       147 153 132 133 142 131 109 65 105 100 60 114 93 48 128 151
000080 4d 5e 90 85 80 4c 88 70 71 85 72 82 8c 94 7e a0
       77 94 144 133 128 76 136 112 113 133 114 130 140 148 126 160
000090 52 7d 4d 6f 72 70 7b 5f 7c a7 92 58 73 b4 97 6d
       82 125 77 111 114 112 123 95 124 167 146 88 115 180 151 109
0000a0 98 98 89 7d 6d 6c bd 9c 84 7c 5c 7b 52 59 58 26
       152 152 137 125 109 108 189 156 132 124 92 123 82 89 88 38
0000b0 40 54 8d 37 72 6e 69 6f 87 60 7a 65 7d 67 83 6e
       64 84 141 55 114 110 105 111 135 96 122 101 125 103 131 110
0000c0 6d 5b ad b0 6e 63 93 97 6e 73 03 6f 7c 73 51 51
       109 91 173 176 110 99 147 151 110 115 3 111 124 115 81 81
0000d0 91 27 9e 4f ec 6a 99 77 76 9a 8f 6d 7f 59 68 6d
       145 39 158 79 236 106 153 119 118 154 143 109 127 89 104 109
0000e0 80 61 6c 81 a6 40 84 72 a1 54 6c 82 aa 70 91 88
       128 97 108 129 166 64 132 114 161 84 108 130 170 112 145 136
0000f0 72 38 7e 92 8c 39 55 a1 4d 7b 77 b9 72 66 69 65
       114 56 126 146 140 57 85 161 77 123 119 185 114 102 105 101

onnx::Conv_86_quantized u1 [32, 32, 3, 3]
000000 61 90 6d 7b 68 45 a6 8e 77 44 9a 8a 48 74 43 6a
       97 144 109 123 104 69 166 142 119 68 154 138 72 116 67 106
000010 b2 58 80 54 86 8f 5f 61 72 55 95 78 4d 7f 97 5e
       178 88 128 84 134 143 95 97 114 85 149 120 77 127 151 94
000020 72 77 41 8d 71 78 97 70 82 c2 d7 8c 38 8e 7c b7
       114 119 65 141 113 120 151 112 130 194 215 140 56 142 124 183
000030 38 b2 5d 6e 8a a4 e0 8f 5f 66 c5 43 b8 87 7b 7e
       56 178 93 110 138 164 224 143 95 102 197 67 184 135 123 126
000040 4d 56 57 3d 65 55 94 5a 94 aa a5 79 61 c4 b3 69
       77 86 87 61 101 85 148 90 148 170 165 121 97 196 179 105
000050 7a 97 72 a3 7b a7 89 92 ac ab 9c 61 94 8f 64 85
       122 151 114 163 123 167 137 146 172 171 156 97 148 143 100 133
000060 6f 8f b4 45 99 72 64 9b 4a a4 77 57 57 6c 45 48
       111 143 180 69 153 114 100 155 74 164 119 87 87 108 69 72
000070 8f 85 9c ac 54 96 47 69 64 43 53 79 42 50 ae b6
       143 133 156 172 84 150 71 105 100 67 83 121 66 80 174 182
000080 84 60 92 7e 5f 85 aa 73 60 81 73 7e 56 74 53 36
       132 96 146 126 95 133 170 115 96 129 115 126 86 116 83 54
000090 73 7b 58 6f 69 48 b1 88 6d 67 5b a4 82 72 8c 8a
       115 123 88 111 105 72 177 136 109 103 91 164 130 114 140 138
0000a0 6f b3 81 9b b0 49 92 49 54 72 60 87 70 4f 24 84
       111 179 129 155 176 73 146 73 84 114 96 135 112 79 36 132
0000b0 6d 9f 9d 74 50 85 6b 3b 6d b1 99 5c 26 6d 91 8a
       109 159 157 116 80 133 107 59 109 177 153 92 38 109 145 138
0000c0 7e 51 85 8d 4e 97 90 8c 52 94 97 9d 60 2f 7c 7e
       126 81 133 141 78 151 144 140 82 148 151 157 96 47 124 126
0000d0 a4 3a 8c 8a a2 8e 5e 37 42 82 57 7c a4 32 ae 6b
       164 58 140 138 162 142 94 55 66 130 87 124 164 50 174 107
0000e0 78 57 63 8a 4f 88 70 65 9f 9d b2 88 66 8c 7e 6e
       120 87 99 138 79 136 112 101 159 157 178 136 102 140 126 110
0000f0 2f 89 68 a2 69 5b 57 75 60 61 ad 8e 87 5b 6c 39
       47 137 104 162 105 91 87 117 96 97 173 142 135 91 108 57

onnx::Conv_89_quantized u1 [32, 32, 3, 3]
000000 b1 91 b0 ab 78 8c a2 81 b4 85 4d 94 97 cb 87 66
       177 145 176 171 120 140 162 129 180 133 77 148 151 203 135 102
000010 60 7a 7c ee 6a b2 a9 7e 6d 91 92 80 92 5a 4b a3
       96 122 124 238 106 178 169 126 109 145 146 128 146 90 75 163
000020 61 b5 74 97 9e 9f 77 56 5c 7e c2 ad 4a 9a b1 6e
       97 181 116 151 158 159 119 86 92 126 194 173 74 154 177 110
000030 78 5f 8b 96 71 8b a2 b6 c2 8d b1 a1 94 7c 9e 74
       120 95 139 150 113 139 162 182 194 141 177 161 148 124 158 116
000040 9e cb 73 76 93 5f bc 91 94 53 c5 5f 96 96 7c 84
       158 203 115 118 147 95 188 145 148 83 197 95 150 150 124 132
000050 93 7f 80 a3 b5 84 83 6f 6e b2 9e 90 ac 54 98 54
       147 127 128 163 181 132 131 111 110 178 158 144 172 84 152 84
000060 8b 73 61 55 8c ab a1 9a 78 5e 77 52 a9 aa 73 91
       139 115 97 85 140 171 161 154 120 94 119 82 169 170 115 145
000070 71 9b a2 a3 68 82 82 6a 86 56 85 83 6c 9f 3b b1
       113 155 162 163 104 130 130 106 134 86 133 131 108 159 59 177
000080 8a 82 70 83 cb 8a 54 82 a8 8c 8a 81 47 40 8d 9e
       138 130 112 131 203 138 84 130 168 140 138 129 71 64 141 158
000090 5d 64 8e 47 70 66 a2 62 92 77 a6 cb c2 ba cb aa
       93 100 142 71 112 102 162 98 146 119 166 203 194 186 203 170
0000a0 64 93 82 7a 61 76 88 64 6f 92 72 88 9e b4 55 a2
       100 147 130 122 97 118 136 100 111 146 114 136 158 180 85 162
0000b0 66 62 97 7a 8e 90 85 82 97 8e 63 74 67 73 b5 72
       102 98 151 122 142 144 133 130 151 142 99 116 103 115 181 114
0000c0 48 c3 79 94 85 7b 6f a6 74 5d 72 83 c6 5b 56 89
       72 195 121 148 133 123 111 166 116 93 114 131 198 91 86 137
0000d0 99 a1 8d 72 91 a9 78 9b a9 5d b0 8c aa 46 a5 80
       153 161 141 114 145 169 120 155 169 93 176 140 170 70 165 128
0000e0 91 96 74 50 5c ac 95 48 6f 5e 61 af ac 9f 69 a5
       145 150 116 80 92 172 149 72 111 94 97 175 172 159 105 165
0000f0 aa ac a9 a2 a8 74 71 7f 73 43 86 8d ac 72 96 9b
       170 172 169 162 168 116 113 127 115 67 134 141 172 114 150 155

onnx::Conv_92_quantized u1 [32, 32, 3, 3]
000000 a1 a6 7c 73 6c ad 98 64 81 8b 79 2c 63 42 9c 75
       161 166 124 115 108 173 152 100 129 139 121 44 99 66 156 117
000010 50 87 93 87 67 8c 86 a2 62 6f 6d 5d 73 80 74 68
       80 135 147 135 103 140 134 162 98 111 109 93 115 128 116 104
000020 7e 8b 42 51 75 8e ba 7d 7c 5f a9 b1 8b a0 75 73
       126 139 66 81 117 142 186 125 124 95 169 177 139 160 117 115
000030 89 79 9b a7 6f 7a 45 86 98 72 88 6a 49 65 83 4d
       137 121 155 167 111 122 69 134 152 114 136 106 73 101 131 77
000040 75 89 78 72 53 8d 54 6a 9f 82 6d a4 68 a1 6f 65
       117 137 120 114 83 141 84 106 159 130 109 164 104 161 111 101
000050 9f 9f 6f 71 6b 94 b6 80 88 89 67 6f 5b 57 87 7d
       159 159 111 113 107 148 182 128 136 137 103 111 91 87 135 125
000060 89 6e 84 6d 6e 51 71 55 7f 9b 9b ab 75 79 69 7f
       137 110 132 109 110 81 113 85 127 155 155 171 117 121 105 127
000070 9a 56 67 a1 8c c6 78 7d 5c 58 6c 66 65 69 70 77
       154 86 103 161 140 198 120 125 92 88 108 102 101 105 112 119
000080 97 64 8d 89 88 9a 86 63 89 7c 52 55 4b 60 65 6c
       151 100 141 137 136 154 134 99 137 124 82 85 75 96 101 108
000090 67 6a 82 99 5d 46 73 2c 51 73 b8 48 96 af 95 7c
       103 106 130 153 93 70 115 44 81 115 184 72 150 175 149 124
0000a0 76 89 81 9a 9f 54 8d 87 87 7c 80 81 85 83 88 94
       118 137 129 154 159 84 141 135 135 124 128 129 133 131 136 148
0000b0 73 74 74 8b 79 54 97 63 87 9a 69 86 90 4e 5e 4d
       115 116 116 139 121 84 151 99 135 154 105 134 144 78 94 77
0000c0 60 7e 9e 85 76 6e a3 6e 77 7b 74 72 92 b2 84 6b
       96 126 158 133 118 110 163 110 119 123 116 114 146 178 132 107
0000d0 48 a2 68 73 5a 72 48 9a 88 92 65 8f d1 7c 7b 89
       72 162 104 115 90 114 72 154 136 146 101 143 209 124 123 137
0000e0 72 83 9a 6c 6c 94 7b 82 99 a7 75 81 92 8f 88 81
       114 131 154 108 108 148 123 130 153 167 117 129 146 143 136 129
0000f0 8d 8e 92 7e 85 65 86 3e 94 cf 76 9e 76 b8 79 6c
       141 142 146 126 133 101 134 62 148 207 118 158 118 184 121 108

onnx::Conv_95_quantized u1 [32, 32, 3, 3]
000000 8b 72 58 50 b3 64 66 4f 49 8b a0 82 3f 7a 88 da
       139 114 88 80 179 100 102 79 73 139 160 130 63 122 136 218
000010 c1 9a 94 90 a7 a6 97 b2 ae a6 78 7b 78 7e 80 76
       193 154 148 144 167 166 151 178 174 166 120 123 120 126 128 118
000020 73 63 53 6a 90 89 b9 89 c6 bb ad ba b4 77 bb 98
       115 99 83 106 144 137 185 137 198 187 173 186 180 119 187 152
000030 90 69 6c 8c 70 75 7b b0 ae 76 5f 91 5a 98 a9 65
       144 105 108 140 112 117 123 176 174 118 95 145 90 152 169 101
000040 71 9a 70 6e 9a a6 71 4f 85 92 9f 69 5d aa 8e 80
       113 154 112 110 154 166 113 79 133 146 159 105 93 170 142 128
000050 8d 81 93 77 90 6c 8a 6c 80 8f 59 58 83 89 8a 7e
       141 129 147 119 144 108 138 108 128 143 89 88 131 137 138 126
000060 67 9c 49 8b 73 7c 94 6b 6e 66 78 7b 70 8c 87 b3
       103 156 73 139 115 124 148 107 110 102 120 123 112 140 135 179
000070 97 82 63 9b 7c 71 74 90 74 96 5f 80 6b 2a 90 9d
       151 130 99 155 124 113 116 144 116 150 95 128 107 42 144 157
000080 9b 93 90 8b 88 92 ac 7d 83 6b 89 a1 90 6f 7c 65
       155 147 144 139 136 146 172 125 131 107 137 161 144 111 124 101
000090 9a 80 a9 8f 95 8f 6e 87 6e a9 85 79 7a a8 b5 97
       154 128 169 143 149 143 110 135 110 169 133 121 122 168 181 151
0000a0 7d a8 53 6d 90 64 80 72 92 5b 56 6d 79 78 83 5e
       125 168 83 109 144 100 128 114 146 91 86 109 121 120 131 94
0000b0 6c 73 97 46 77 51 84 64 8b c1 80 85 56 74 93 83
       108 115 151 70 119 81 132 100 139 193 128 133 86 116 147 131
0000c0 b2 9a 78 41 a0 85 aa 73 9c aa a7 89 65 7d 8b 68
       178 154 120 65 160 133 170 115 156 170 167 137 101 125 139 104
0000d0 8d 49 8d a1 b4 a2 63 36 6f a6 95 7a b4 91 a0 6e
       141 73 141 161 180 162 99 54 111 166 149 122 180 145 160 110
0000e0 67 71 49 4b 44 60 86 6a 66 6b 9e 80 81 ae 91 89
       103 113 73 75 68 96 134 106 102 107 158 128 129 174 145 137
0000f0 b3 6e 64 82 cb 8b 84 7a 74 63 4f 5f 6b 6a 7d 9c
       179 110 100 130 203 139 132 122 116 99 79 95 107 106 125 156

onnx::Conv_98_quantized u1 [6, 32, 3, 3]
000000 a1 ad 86 6d 7d ab 7b 74 7d 73 7a a2 4f ff 56 33
       161 173 134 109 125 171 123 116 125 115 122 162 79 255 86 51
000010 57 33 6e 74 8e 59 87 91 5f 6a 7b 50 81 59 67 67
       87 51 110 116 142 89 135 145 95 106 123 80 129 89 103 103
000020 56 81 92 8d 63 78 78 6e 3f 62 87 9d 7e 90 83 8c
       86 129 146 141 99 120 120 110 63 98 135 157 126 144 131 140
000030 67 7f 67 68 68 60 54 70 65 49 75 6e 55 5f 6d 6a
       103 127 103 104 104 96 84 112 101 73 117 110 85 95 109 106
000040 4f 4d a1 63 a8 92 79 89 63 56 72 66 85 6f 81 82
       79 77 161 99 168 146 121 137 99 86 114 102 133 111 129 130
000050 66 7b a9 64 51 61 7f 98 7a 7b 93 53 50 89 7a 98
       102 123 169 100 81 97 127 152 122 123 147 83 80 137 122 152
000060 81 7d 89 43 93 a1 53 7e 55 5b 5f 91 63 62 32 75
       129 125 137 67 147 161 83 126 85 91 95 145 99 98 50 117
000070 5f 7d 84 8b 73 64 5c 4b 8c 48 7e 67 5c 76 86 6a
       95 125 132 139 115 100 92 75 140 72 126 103 92 118 134 106
000080 75 7e 69 88 6d 4d 79 5c 69 80 76 75 60 8c 69 58
       117 126 105 136 109 77 121 92 105 128 118 117 96 140 105 88
000090 96 9b 4b 4e 5c 73 97 80 64 6d a5 8f 6b 64 61 88
       150 155 75 78 92 115 151 128 100 109 165 143 107 100 97 136
0000a0 5a 8a 88 aa 60 82 39 84 66 c1 57 82 79 31 72 69
       90 138 136 170 96 130 57 132 102 193 87 130 121 49 114 105
0000b0 53 79 71 89 7e 8d 2f 98 64 ab 97 8e 71 5a 74 84
       83 121 113 137 126 141 47 152 100 171 151 142 113 90 116 132
0000c0 50 80 7f 53 46 4c 79 83 81 3a 7b 73 bc 6c 86 43
       80 128 127 83 70 76 121 131 129 58 123 115 188 108 134 67
0000d0 56 5b 9e 47 9f 68 80 92 75 bb 27 51 88 9c 72 6a
       86 91 158 71 159 104 128 146 117 187 39 81 136 156 114 106
0000e0 4b 7f 6d 8a 67 7e 99 6a a4 87 55 82 6f 7c 16 a8
       75 127 109 138 103 126 153 106 164 135 85 130 111 124 22 168
0000f0 72 91 8a 73 51 7c 8b 67 8b 8f 82 b3 60 59 51 57
       114 145 138 115 81 124 139 103 139 143 130 179 96 89 81 87

policyHead.4.weight_quantized u1 [486, 81]
000000 f5 67 a7 99 8f 81 8c 95 96 5c 6e 74 83 88 91 a0
       245 103 167 153 143 129 140 149 150 92 110 116 131 136 145 160
000010 7b 91 b6 7d 84 86 8f 8f 96 8e 94 9f 84 9c 8b 6d
       123 145 182 125 132 134 143 143 150 142 148 159 132 156 139 109
000020 8d 8f 92 96 90 94 82 7c 8f 89 90 83 9c 82 84 96
       141 143 146 150 144 148 130 124 143 137 144 131 156 130 132 150
000030 97 8a 99 93 96 89 80 7f 94 9c 85 91 98 98 ab 8e
       151 138 153 147 150 137 128 127 148 156 133 145 152 152 171 142
000040 93 9a 8c 92 8d 89 9f 8c 8f 95 8b 89 97 7d 8f 83
       147 154 140 146 141 137 159 140 143 149 139 137 151 125 143 131
000050 94 79 dd 57 a4 a5 8b 93 91 8e 76 71 55 80 84 8e
       148 121 221 87 164 165 139 147 145 142 118 113 85 128 132 142
000060 8a 8b 85 7b 92 91 91 89 8a 8c 8f 8c 82 8b 8c a1
       138 139 133 123 146 145 145 137 138 140 143 140 130 139 140 161
000070 95 97 93 90 97 87 92 8a 87 8b 8f 8b 8d 87 8a 97
       149 151 147 144 151 135 146 138 135 139 143 139 141 135 138 151
000080 94 97 8e 96 92 8e 96 8f 87 85 90 8d 88 91 9d 98
       148 151 142 150 146 142 150 143 135 133 144 141 136 145 157 152
000090 8e 8e 95 98 87 91 88 92 9c 8f 9e 83 86 8c 8a 8b
       142 142 149 152 135 145 136 146 156 143 158 131 134 140 138 139
0000a0 9b 89 aa 79 be 5d b7 a1 8f 96 8d a4 79 57 60 80
       155 137 170 121 190 93 183 161 143 150 141 164 121 87 96 128
0000b0 7e 88 8e 8a 85 73 99 8b 8a 93 89 82 88 95 86 92
       126 136 142 138 133 115 153 139 138 147 137 130 136 149 134 146
0000c0 96 8f 92 95 8d 94 90 8f 99 88 8f 9c 94 97 7f 8a
       150 143 146 149 141 148 144 143 153 136 143 156 148 151 127 138
0000d0 90 99 84 87 95 92 8a 95 98 82 95 8e 8c 90 8b 8f
       144 153 132 135 149 146 138 149 152 130 149 142 140 144 139 143
0000e0 8e 93 94 95 81 87 82 98 89 90 8b 9b 95 8c 94 97
       142 147 148 149 129 135 130 152 137 144 139 155 149 140 148 151
0000f0 93 8e 89 8a ba 69 c3 62 a6 99 8f 86 9a 98 5e 60
       147 142 137 138 186 105 195 98 166 153 143 134 154 152 94 96

onnx::Conv_101_quantized u1 [3, 32, 3, 3]
000000 a1 a4 9e 9e 9f c0 cf b3 80 9f 8a 9f b2 aa a4 c5
       161 164 158 158 159 192 207 179 128 159 138 159 178 170 164 197
000010 9a b9 97 6a 80 b1 68 78 89 79 91 be b1 bf bd 99
       154 185 151 106 128 177 104 120 137 121 145 190 177 191 189 153
000020 a5 da 93 a9 89 b1 9f 90 8b 8d bb 80 78 ba a6 a9
       165 218 147 169 137 177 159 144 139 141 187 128 120 186 166 169
000030 ac b9 97 aa 85 b4 c2 97 bf b0 98 9f c1 a3 9e bf
       172 185 151 170 133 180 194 151 191 176 152 159 193 163 158 191
000040 8e a3 d2 a1 82 a7 8f bc a2 7f 7b a5 93 a4 a4 b8
       142 163 210 161 130 167 143 188 162 127 123 165 147 164 164 184
000050 a8 ad 93 90 b7 a8 94 8d 8a a7 b8 89 a2 75 9d 95
       168 173 147 144 183 168 148 141 138 167 184 137 162 117 157 149
000060 3d 77 69 86 67 6e a4 87 7e 7b bb 8e 7b a7 99 b0
       61 119 105 134 103 110 164 135 126 123 187 142 123 167 153 176
000070 ad 89 b7 b2 76 88 c0 92 a6 ae b2 91 98 92 91 9d
       173 137 183 178 118 136 192 146 166 174 178 145 152 146 145 157
000080 7f 8c 6d 94 79 84 6b 99 a0 ba b6 9b ce 99 7f a2
       127 140 109 148 121 132 107 153 160 186 182 155 206 153 127 162
000090 7a 85 8a 9e 8b 88 a6 45 8f af c2 80 80 c7 c0 9d
       122 133 138 158 139 136 166 69 143 175 194 128 128 199 192 157
0000a0 a2 88 be 9f 9d cc ba ba a1 aa b0 ba 9b aa a0 97
       162 136 190 159 157 204 186 186 161 170 176 186 155 170 160 151
0000b0 bd c8 ac a0 96 bc 95 a8 94 ab bd a7 aa 7b 93 8f
       189 200 172 160 150 188 149 168 148 171 189 167 170 123 147 143
0000c0 a5 8e 9c a8 a3 88 ab a4 88 8f c5 8f b1 b5 9a 7f
       165 142 156 168 163 136 171 164 136 143 197 143 177 181 154 127
0000d0 a1 9d c3 aa 92 b4 a8 94 a0 cb ba b2 b3 ac 87 b3
       161 157 195 170 146 180 168 148 160 203 186 178 179 172 135 179
0000e0 9f 81 d6 73 60 ac 81 74 9c 97 ae 94 7b ac b3 a5
       159 129 214 115 96 172 129 116 156 151 174 148 123 172 179 165
0000f0 c4 b6 87 c3 78 96 b6 9f ac bb a6 b7 b6 ba 96 b1
       196 182 135 195 120 150 182 159 172 187 166 183 182 186 150 177

valueHead.4.weight_quantized u1 [243, 1]
000000 d0 a6 98 8b 94 a3 95 ff a9 61 d8 78 a2 a2 64 a4
       208 166 152 139 148 163 149 255 169 97 216 120 162 162 100 164
000010 87 8f b0 66 9c b7 76 8b 77 6b e4 cb 95 a1 58 88
       135 143 176 102 156 183 118 139 119 107 228 203 149 161 88 136
000020 a2 81 a0 63 7b a9 c1 71 7d 6c 94 a8 6d 57 7e 83
       162 129 160 99 123 169 193 113 125 108 148 168 109 87 126 131
000030 b4 bb 5a 8b a8 88 81 8d ae 9a 7e 91 aa 94 c7 d6
       180 187 90 139 168 136 129 141 174 154 126 145 170 148 199 214
000040 a8 8c a3 7c 6b 8d 7c a0 c7 99 a3 a7 a8 84 97 d7
       168 140 163 124 107 141 124 160 199 153 163 167 168 132 151 215
000050 8b 83 8d 81 95 72 00 b6 76 4f 6e 4e 58 92 5b ba
       139 131 141 129 149 114 0 182 118 79 110 78 88 146 91 186
000060 6d bd 93 52 13 83 ab 4f 71 b7 3d 69 90 71 ab 47
       109 189 147 82 19 131 171 79 113 183 61 105 144 113 171 71
000070 c2 45 55 bc 95 67 9b 85 3f 1c 7c ae 9b 67 86 94
       194 69 85 188 149 103 155 133 63 28 124 174 155 103 134 148
000080 00 b2 4c 4f 83 7e 54 84 31 c7 7e 92 4a 76 67 8e
       0 178 76 79 131 126 84 132 49 199 126 146 74 118 103 142
000090 ac 39 92 d0 64 8e 6d af 9e 98 86 7c 8b 7f 50 9e
       172 57 146 208 100 142 109 175 158 152 134 124 139 127 80 158
0000a0 8d 7a 48 78 4b a1 63 a0 59 4a 4b 4b 39 74 5a 92
       141 122 72 120 75 161 99 160 89 74 75 75 57 116 90 146
0000b0 5d 33 42 69 41 74 38 8d 57 42 72 61 67 b2 6a 8f
       93 51 66 105 65 116 56 141 87 66 114 97 103 178 106 143
0000c0 85 5b a7 b6 5b 5e 75 56 81 aa 57 72 4d 96 6e 6a
       133 91 167 182 91 94 117 86 129 170 87 114 77 150 110 106
0000d0 57 54 5e b8 2d 3d 6d 8e 75 7a 90 5a 44 76 ac 54
       87 84 94 184 45 61 109 142 117 122 144 90 68 118 172 84
0000e0 8f 5b 5c 29 71 87 61 6d 6f 36 58 8d 52 69 6f 71
       143 91 92 41 113 135 97 109 111 54 88 141 82 105 111 113
0000f0 62 53 4e
       98 83 78
