gameserver_django/webgameserver/models/AZ-24-06-24-EIPC51-A/vivalavida.tflite (tflite, 332396 bytes, 17 tensors)

Const_16 f4 [32]
00000000: 1d6d 14be 4e8e f73e 4b24 983e dfc1 c6be
00000010: 7035 8f3e b46b 033f 3418 9dbe c453 b43e
00000020: 9ba8 063f 4b46 a33e a028 673f 2c05 64be
00000030: 8aed a83c 7934 c2be b060 c13e a214 c8be
00000040: 2e19 6f3e a86b cb3d bf8d 3ebd 47c9 eb3e
00000050: 0851 813e a0bb f83e 4704 3ebe a8e1 aabd
00000060: bbc1 023d 5fa4 013f 2890 c73c c3f1 183f
00000070: a52c 223f fa65 d33e c023 f0bb 7aeb 3c3e
-0.14494748 0.48350757 0.2971519 -0.38819787 0.27970457 0.51336217 -0.30682528 0.35220158
0.5260102 0.31889567 0.90296364 -0.22267598 0.02062108 -0.37930658 0.3776908 -0.39078242
0.23349449 0.09932643 -0.0465219 0.46052 0.25257134 0.48580647 -0.18556319 -0.08343822
0.031923037 0.50641435 0.024360731 0.597439 0.6334937 0.4128874 -0.0073284805 0.18449202

Const_14 f4 [32]
00000000: 204c ba3b d652 593f 5a69 823f 80e6 4d3f
00000010: d7ed 1ebe 2fa6 ddbd 7be5 10bf bf60 6b3f
00000020: 0852 c7bd cfea 303f c09f 20bf e87b 99bc
00000030: 3dff 713f 827c 593e 8a9d 713f a8e9 6e3d
00000040: 16bd a83e c811 863f 1cf0 8f3e 2c09 5c3e
00000050: 7e88 90bd 1652 e13f aa86 133f e266 473e
00000060: cb3b b33c a602 eebe cbba 33be 8472 a13f
00000070: e696 133f 428d 263f 3e57 0dbf 1ec4 89bf
0.0056853443 0.8489202 1.0188401 0.8042984 -0.15520416 -0.10822713 -0.5660016 0.919445
-0.09732443 0.6910829 -0.6274376 -0.01873584 0.9453009 0.21238902 0.9438101 0.0583283
0.3295676 1.0474176 0.28112876 0.21487874 -0.07057284 1.7603176 0.57627356 0.1947284
0.021879097 -0.46486396 -0.17551725 1.2613072 0.5765213 0.6505929 -0.55211246 -1.0762975

Const_10 f4 [32]
00000000: 3a7d 23bf 1fde 543f 26fb 9abe 2010 b1bc
00000010: a4a8 bdbe 7b8b 613f 2ed0 dc3e bee4 44be
00000020: be8c 803e 8b36 223f e672 d03f e2f6 6a3e
00000030: 3a1c b03f e74e 843f de9b b63f 3f49 743f
00000040: 0136 ca3f 3400 873f e8dc 8bbe b6c9 ac3f
00000050: 6aae 8bbd d833 4e3e 8d18 e23e 6c41 cc3d
00000060: 74d0 933e 06fa 7b3e 56aa 233e a535 033f
00000070: 396b e2be 51db a73f 4610 99bd 158c 8c3e
-0.63862956 0.8315143 -0.30269736 -0.021614134 -0.37042725 0.88103455 0.43127578 -0.19227883
0.25107378 0.63364476 1.6285064 0.22945741 1.3758614 1.0336579 1.4266317 0.95424265
1.5797731 1.0546937 -0.27316976 1.3499057 -0.06820376 0.20136964 0.44159356 0.09973416
0.28869975 0.24607095 0.15982947 0.5125373 -0.4422243 1.3113805 -0.07473807 0.27450624

Const_6 f4 [6]
00000000: 1e6a 4d3e 6874 75bf fc6f 5f3f 88ad a6be
00000010: 5487 943f 6134 a53f
0.20060012 -0.95880747 0.8728025 -0.3255427 1.1603799 1.290661

Const_2 f4 [3]
00000000: 1ccd 40bf 7e9a 2c3f b15a b6bd
-0.7531297 0.67423236 -0.08904017

Const_12 f4 [32]
00000000: 3d29 9abe 94c5 a33e fc5a 833f c9cb 953f
00000010: 81af a43f 0298 7c3e a140 803f 76b9 823e
00000020: d015 e03f b23b 77be 6471 f7bd 20a8 813c
00000030: 8920 7f3f 2140 8e3f 1f76 493e 7eaf e13e
00000040: 7b3e e13e 3447 62be 1780 e1be 1b38 313f
00000050: 0e2e 703f 12bf c13e b606 513d e869 5d3d
00000060: 6e5b 27be 2f45 9b3e 9f32 c73f 7c95 953e
00000070: 9ff3 363f c0ff 993f 86b3 a2be 3f5a e13e
-0.30109587 0.31986678 1.0262141 1.1702815 1.286606 0.24667361 1.0019723 0.2553212
1.7506657 -0.24143866 -0.120821744 0.015827239 0.9965902 1.111332 0.19673966 0.44079202
0.4399298 -0.22097474 -0.44043037 0.69226235 0.93820274 0.37841088 0.05103179 0.05405608
-0.16343471 0.3032622 1.5562323 0.2921561 0.71465486 1.2031174 -0.3177759 0.44014165

Const_8 f4 [32]
00000000: d12e 6b3f 325f 143f 530a f7bc f2db 7d3f
00000010: 4ab3 613f 403b 7cbe 5bda 9b3f 2d14 8c3f
00000020: cba7 2d3f bf4e 153f be0c 18bf d926 8ebf
00000030: 8a13 47be 9493 67be 6da9 41bf 4f01 abbc
00000040: 7da1 6abf 81f0 7e3f 75fd f83e d69c 9cbd
00000050: f529 243f 58d1 79bf 1c7d 253f 6c6c 0e3f
00000060: 5c67 763e 7ca5 0dbe 6fb2 583f 8563 253f
00000070: eeb7 9cbe 9aba c53f 2af4 943f fdc2 383f
0.9186831 0.57957757 -0.03015629 0.99163735 0.881642 -0.24631977 1.2176012 1.0943657
0.67834157 0.5832328 -0.59394443 -1.1105605 -0.19441047 -0.2261489 -0.7564915 -0.020874647
-0.9165266 0.9958573 0.48630872 -0.076471016 0.6412652 -0.9758506 0.64644027 0.5563419
0.24062866 -0.13832659 0.8464727 0.6460498 -0.30609077 1.5447571 1.1637013 0.7217253

convolution f4 [32, 3, 3, 4]
00000000: 6534 e4be ff4c 253f 945d 063e 114a 9bbe
00000010: 4f21 8b3e a492 7d3e 74e8 1f3f 59e2 193f
00000020: 79a6 e53e eb8c 0e3f 07ab 323f 21b9 0cbe
00000030: 523b 0abe 94d6 c23c 36c3 9e3e 1b2b 4cbf
00000040: 3263 8fbe 8576 203d c157 edbe c6ff 61bf
00000050: fd7e d43e 496d d9bd 3737 76be 3ed7 4cbe
00000060: 9aa6 35be 858f a03d e77f 8f3e 0638 3fbf
00000070: 45e3 a8be 0756 8abd 93c5 603d f82f 3d3d
00000080: 8748 843e 1375 943d b8e3 f83d 0817 20be
00000090: 46e8 063f 9b7e 29bf 33a6 48be 28bc 7bbf
000000a0: 28b8 73bd 4b11 d73e 5d25 c6be e043 ac3f
000000b0: d092 8f3d fcf2 98be 67a2 923c 3722 ab3e
000000c0: d888 253e 49a6 36be c3d9 f5be 3da0 2f40
000000d0: 9fc7 953d 15a2 033d 1b65 26c0 3c35 2dc0
000000e0: aaa9 6d3e 0b5e a7be a11e 1bbf 784a d33f
000000f0: 7140 a93e 66b8 c5be 8cc2 8fbe 5ff7 babf
00000100: e944 643e 92da 583e 8424 46be 4000 3d40
00000110: 4975 523e 0d42 783d fb03 fe3e 5024 d5bf
00000120: 1a72 293d b13b 403f deb2 7cbf 8145 2e3e
00000130: 84d5 92be e5fe c0be 608e 5e3e 84b8 55be
00000140: e85f 4bbe 0322 b7bd fbe2 f83e 3564 00bf
00000150: 2a76 933d 8291 18bf 7ac3 b0bf 9267 99bd
00000160: 8425 62bd cc31 563f 5014 63bf eeef 963d
00000170: e729 94be 0961 313f 0e65 9ebe 91fb 8c3f
00000180: 20de 8c3e bfed 05bf 8fba 17be 0668 983f
00000190: 817d 823e e691 e73e 2559 1e3e 357b 0cbe
000001a0: a31f c9bd a482 cfbe 94c9 99be 345c 0b3f
000001b0: bd54 753e c1c1 953e b596 5f3e 5435 0ebe
000001c0: 1f24 b3ba 3d3e 52be ae2b 413f 973c 00be
000001d0: 4fb6 5a3f 83bc 9cbf a7ae 71bf a908 ab3e
000001e0: 7f2a 873e 2ee9 99be 7f63 0cbf 21f2 aabd
000001f0: ed5f 273f fca9 d8be 1b6b 173f 6111 893e
00000200: 8f6c 4b3f 802c aabf 2bd7 ad3e 8cde 013f
00000210: 82e5 9e3e 8048 bfbd b633 643e 6893 2e3f
00000220: 2c4a b23e 84d2 13bf d68d 74bf c9e0 363e
00000230: c855 0d3f 094b cdbf 6ee1 d73e 31d4 763f
00000240: bcbb 52bf 9bb3 903f 1549 e23e a5d5 f23d
00000250: 9df2 183e ec21 273f b71b 213e cf46 51bf
00000260: b135 73bf 34c6 2fbf 0c98 4fbe ef08 29bf
00000270: c0e9 1cbe 4389 9cbd 9bec 66be db1b 30bf
00000280: 6a4e a9bd 3296 b53f 4884 cf3f c5f4 e9bf
00000290: f575 13be 43b1 403f 3050 5d3f 4e1f 9fbf
000002a0: b701 ea3d c40d 4ebe 15a1 a03e 6e75 45bf
000002b0: b9f9 08bf 31d8 493f 3307 043e 207c 043f
000002c0: 6741 0a3e 8242 493f 9f59 18bf 57af b8bf
000002d0: 10f0 c3bd e010 afbe 93bf 273f e733 59bf
000002e0: 895a 38be bed8 983e 1f2f 433f 42ae 1f3f
000002f0: f1a3 95be fb73 43be 0361 39be 64b2 e6bf
00000300: 930e 2bbe a8ac 5ebe 633c 83bd 6c0f 6a3f
00000310: 3b0e c93e a0e4 1bbf 65fd 28c0 31b3 65bf
00000320: de1b 01bf c0da a03f 33e6 2ebe 72cb 2c40
00000330: a30d b23d 425c aa3f 4996 093e 0b3b 88be
00000340: f94c cabe 6e57 40be 4860 8cbd 10bb 4b3f
00000350: f34e 1a3e d979 dcbe c461 59bf 84e6 c73c
00000360: 196b 313c 0687 f8be 1b29 6abe 23e2 263f
00000370: cc83 553f 90e2 69be 81a8 893e 66b3 013f
00000380: 05de 143f f4e0 7d3e 70ad 993f d4d0 b2bf
00000390: dede 4bbe 5c86 8c3f c1c1 11be 4b9f 40bf
000003a0: f374 593e ac80 9fbf c97a 1f3f a7ec 793f
000003b0: 8b3c 2abf bd18 a03e 78f2 d83e e6e6 6ebf
000003c0: dcbf a9be 158c ccbd a586 abbd 17bc f13d
000003d0: 8194 48be ff08 7b3f 40a7 b4bf 9069 f13c
000003e0: 079c 693e 0087 45bf 78a6 433e 11b7 c43f
000003f0: 2029 c3bd 6ee2 2f3f 6681 05bf 6bc8 abbe
-0.44571224 0.6457061 0.13121635 -0.30329946 0.2717385 0.2476297 0.6246407 0.60111004
0.4485357 0.55683774 0.69792217 -0.13742496 -0.13499191 0.02378396 0.3100831 -0.79753274
-0.28005368 0.03917553 -0.46356013 -0.88280904 0.41503134 -0.106165476 -0.240445 -0.20003983
-0.17739335 0.07839874 0.2802727 -0.7469486 -0.32985893 -0.0675469 0.05487592 0.046188325
0.25836584 0.07248893 0.12152809 -0.15633786 0.5269817 -0.6620881 -0.1959465 -0.9833398
-0.059501797 0.4200538 -0.3870038 1.3458214 0.07010424 -0.29872882 0.017899705 0.3342454
0.16165483 -0.1783687 -0.48017702 2.7441552 0.07313465 0.032136995 -2.599921 -2.7063742
0.23209253 -0.32688937 -0.6059361 1.6507101 0.33056977 -0.38617247 -0.28078115 -1.4606742
0.22291912 0.21177128 -0.19349867 2.9531403 0.20552553 0.060609866 0.49612412 -1.6651707
0.04136858 0.7509108 -0.9871043 0.17018701 -0.28678524 -0.3769447 0.21733999 -0.20871168
-0.19860804 -0.08942034 0.48610672 -0.50152904 0.072002724 -0.5959703 -1.3809655 -0.074904576
-0.05521156 0.83669734 -0.8870287 0.07369982 -0.2893822 0.6928869 -0.30936474 1.1014272
0.27513218 -0.52315897 -0.1481726 1.1906745 0.25486377 0.452285 0.15463693 -0.13718875
-0.09820487 -0.40529358 -0.30036604 0.54437566 0.23958106 0.29249385 0.21834834 -0.1388753
-0.0013667381 -0.20531555 0.75457275 -0.12523113 0.8543443 -1.2245029 -0.94407123 0.33405045
0.2639961 -0.30060714 -0.5483932 -0.08346964 0.65380746 -0.42317188 0.59147805 0.26771072
0.7946252 -1.329483 0.33953223 0.50730205 0.31034476 -0.0934 0.22285351 0.68193674
0.34822214 -0.57743096 -0.95528924 0.17859186 0.55209017 -1.6038524 0.42164177 0.9641753
-0.8231771 1.1304811 0.44196382 0.11857156 0.149363 0.65286136 0.15733229 -0.8174867
-0.950038 -0.6866181 -0.20272845 -0.66029257 -0.15323544 -0.07643368 -0.22551195 -0.68792504
-0.082669094 1.4186461 1.6212244 -1.8277823 -0.14400466 0.7527048 0.8645048 -1.2431428
0.11426108 -0.20122439 0.31372896 -0.7713231 -0.53506047 0.78845507 0.12893371 0.517519
0.13501512 0.7861711 -0.5951175 -1.442851 -0.09567273 -0.34192562 0.65526694 -0.8484482
-0.18003286 0.2985286 0.76243776 0.6237527 -0.2922664 -0.19087212 -0.18103413 -1.802319
-0.16704778 -0.2174555 -0.06408002 0.9142978 0.3926867 -0.6089573 -2.640466 -0.8972655
-0.50433147 1.2566757 -0.17080002 2.6999173 0.08694007 1.3309405 0.13436235 -0.26607546
-0.3951185 -0.18783352 -0.06854302 0.7958231 0.15069179 -0.43061712 -0.84914804 0.02440191
0.010828757 -0.48540515 -0.22867243 0.6518881 0.8340423 -0.22840333 0.2688637 0.50664365
0.58151275 0.24792844 1.2006054 -1.3969979 -0.19909236 1.0978503 -0.14234067 -0.7524306
0.21236019 -1.2461143 0.6229673 0.9762673 -0.6649863 0.31268874 0.4237249 -0.93321073
-0.3315419 -0.09987656 -0.08375291 0.118034534 -0.195879 0.980606 -1.4113541 0.029469281
0.22813426 -0.7715912 0.19106472 1.5368367 -0.09529328 0.6870488 -0.5215057 -0.33551344

convolution_1 f4 [32, 3, 3, 32]
00000000: a07a 61bd 44dc e8bd 30e4 273c 3e25 dbbb
00000010: 7f35 b0bc 4267 1f3d 2e82 563e 8e99 c43b
00000020: 59fb 533d 5d8a 703d 2ff8 8a3d f47e e4bd
00000030: f50a 9bbd fe99 623d 564a da3d 43c7 84bc
00000040: 1403 8fbc 1e43 27bd cc13 493c a1ea cc3c
00000050: 3465 b7bd 537b e7bc 1002 323d b5e2 be3b
00000060: 2416 f1bd 8eef 98bd 2481 e83d 7543 a73d
00000070: bd5e c93c 89ee 103d 43a7 37bd 468a 793d
00000080: ef45 313d b5e2 853d d8dd a5bd b0b8 c3bd
00000090: 5c9b cdbb 0cf2 133b 4d72 293d bffb c1bd
000000a0: 36b7 c93d 2338 9dbc 8c1f 5abd 8a51 7b3d
000000b0: 2d5f f7bc 7448 debd 31b3 fb3d 5f47 63bd
000000c0: aab4 133a 06ce 88bd 36a6 893d 6d91 c0bc
000000d0: 931e ad3c f9df 3b3d c26a 0e3d 388e ae3d
000000e0: 5c3e 7a3c 6597 4abd 900a e53c 6250 17bd
000000f0: cfa9 88bd d75d 8f3d 6c2d 2e3d c80b 1e3b
00000100: 5d94 f0bc 57a8 fc3c 486a be3c 04c3 ef3b
00000110: 9de3 703d 88db ff3d 73ff 6cbd 5b96 9bbd
00000120: 9871 b23d 1078 a93d 9318 533d 231a 9dbc
00000130: 6df1 e7bd 19b8 16bd bb1a 973c ec60 463c
00000140: 28e2 94bd fc34 af3d c541 e13d fdd4 babd
00000150: 62f9 0bbd 1449 fc3c bdd5 adbd c111 0bbe
00000160: aad0 9abd 168f 013d 388a 34bd ee84 86bd
00000170: 52f7 fbbc 4fed 853d f034 6f3d 82a6 b63d
00000180: 320b 1b3a 6c22 d8bd 09c8 283d 9a3f 723d
00000190: 65a5 b8bc 99c5 0ebe 5786 33bd e6f6 99bd
000001a0: 9198 9bbb 9575 dc39 d7c8 263d f4e4 3fbd
000001b0: a61e d7bd 4a72 45bd 8d8d 69bd 5765 8cbc
000001c0: 547d d2bc b103 673c 17b8 d4bd d692 38be
000001d0: c114 08be 8541 c13b 6951 513d fad3 133d
000001e0: 1714 0c3b 79d4 babd a4fa 0f3d 840a 9bbd
000001f0: 9063 0dbe d32f 123d a3d0 183e b1d2 093e
00000200: a474 24bd 280a 6cbc 60a4 6ebd 5809 77bd
00000210: dee9 6c3c c3cd e83d 271b 1d3e b8a3 04be
00000220: c811 5abd e365 b93d 37c5 46bd 5d29 863d
00000230: a127 2a3d 4bb3 efbd bb23 423d 1c4d b43b
00000240: c848 1cbd 06a0 a1bc af7d 413d c72b 9c3c
00000250: f677 eebc 7577 b4bd 64bb 6a3d 95d4 003d
00000260: a1ca ae3d c83e e33c ba9a d43b f226 58bc
00000270: 28c6 9a3d b6c3 04be 1cfb c6bd e454 b0bc
00000280: cc66 e6bd 8b5e eebd e584 59bd 781d 9fbc
00000290: 0438 163e 27fc 7ebd 759b edbd 28ef 3dbd
000002a0: 077a 1c3e 420c f53c 6be2 ab3c 230e d0bd
000002b0: 6ce5 a63c 8580 a9bd da33 ee3b 7f85 9cbd
000002c0: 6fbc d9bd 8e3c 0f3d 7594 d6bd 3fd9 f0bc
000002d0: 1c5d e43d 35f4 a13c 8a44 923d 7fe5 a73d
000002e0: 5671 1abe 10c7 b3bc 649b d8bc 74cd 69bd
000002f0: 6e5a fd3d 9a7d 843c 6ac6 7c3d 8837 db3d
00000300: 3d9a b63d d0c9 13bd 3ebd a0bc 1219 08bc
00000310: 23d2 443e ee0f d6bc e6b6 013e 007c a2bd
00000320: 5aea ec3d 0f88 453d 11cd cdbc 7a75 af3d
00000330: 1cb2 8d3d b958 81bb 8ba0 6dbd 3306 6ebc
00000340: e921 e73d 9821 023d c8a3 a6bd df22 993d
00000350: 207b 7b3d 2c8e 1b3d f3dd 68bd e347 233d
00000360: 135a d83d 578b 3bbd 8fab 22be ef7a 5fbd
00000370: ffac 283e 2cfe 0e3d 829c 063e b633 b93b
00000380: ccf8 223d 3cb2 eb3d 2eaf a3bd 8fa1 f5bd
00000390: af68 133d 6577 033d c59d d43c a1a0 523d
000003a0: f187 15bd 817f d03d 807e 2c3d ad3d 10bc
000003b0: ee1f d13d abd5 f4bd e07e a83c 3bc2 a8bd
000003c0: ddb9 d83c 7d7f c9bc cf96 92bc aee0 8e3d
000003d0: fd7a 82bd b1c4 bebd e97b 22be b77b 76bd
000003e0: c05b 06bd beb8 993d a003 e63c 0af3 d43d
000003f0: f841 b1bc d44d 38bc 55b2 673d 4ada 103d
-0.055048585 -0.11370137 0.010247275 -0.006687789 -0.021509884 0.038916834 0.20948097 0.0059997505
0.051753376 0.058725704 0.067856185 -0.11157027 -0.07570449 0.05532264 0.1065871 -0.016208297
-0.017457522 -0.040835492 0.012272786 0.025014224 -0.0895485 -0.028257048 0.043459 0.0058253654
-0.11771801 -0.074675664 0.113527566 0.08167163 0.024581308 0.035383735 -0.044837248 0.060922883
0.043279584 0.065373816 -0.08098954 -0.09556711 -0.006274624 0.002257469 0.04136877 -0.09471845
0.09849398 -0.019191807 -0.05325274 0.06135706 -0.03019675 -0.10853663 0.122900374 -0.055487987
0.0005634526 -0.06679921 0.06721155 -0.023506844 0.021132743 0.045867894 0.03476978 0.0852322
0.015273657 -0.049460787 0.027959138 -0.036941893 -0.066730134 0.070003204 0.042523786 0.002411591
-0.02936762 0.03084199 0.023244038 0.007316949 0.05881082 0.12493044 -0.057860803 -0.075970374
0.087130725 0.08274853 0.051537108 -0.019177502 -0.11325345 -0.036796663 0.018445363 0.012108069
-0.072696984 0.08555028 0.10998873 -0.091226555 -0.034173377 0.030796565 -0.08488033 -0.13580991
-0.07559331 0.031630598 -0.04407713 -0.06568323 -0.03075758 0.06539404 0.058400095 0.089184776
0.0005914449 -0.105534405 0.041206393 0.059142686 -0.022539804 -0.13942565 -0.04382929 -0.07517795
-0.004748412 0.00042049275 0.04071888 -0.046849206 -0.105038926 -0.048204698 -0.05701976 -0.017138166
-0.025694527 0.014100001 -0.10386675 -0.18024763 -0.13289167 0.005897703 0.05110303 0.03609083
0.002137428 -0.09122557 0.03515114 -0.07570365 -0.13807511 0.03569014 0.14923339 0.13459279
-0.0401503 -0.014406718 -0.05826223 -0.060311645 0.014460055 0.11367371 0.15342389 -0.12953079
-0.053239614 0.090526365 -0.048527922 0.06550858 0.0415417 -0.11704119 0.047397356 0.005502356
-0.038155347 -0.019729625 0.047239 0.019063843 -0.029109936 -0.08811847 0.057307616 0.031452734
0.08534742 0.027739897 0.0064881714 -0.013192879 0.075573266 -0.12965283 -0.09715864 -0.021524854
-0.11250076 -0.116391264 -0.053105254 -0.019423231 0.14669806 -0.06225219 -0.11601917 -0.046370655
0.15280925 0.029913072 0.020981988 -0.10158946 0.020373069 -0.08276466 0.007269365 -0.0764265
-0.10631644 0.03496986 -0.10477535 -0.029400466 0.11150572 0.019769767 0.07141979 0.0819807
-0.15082297 -0.021945506 -0.026441284 -0.0570807 0.12370764 0.016173173 0.06171266 0.10703951
0.08916137 -0.036081135 -0.019621488 -0.0083067585 0.19220786 -0.026130643 0.12667426 -0.079338074
0.115681365 0.04822546 -0.025122197 0.08567329 0.06918737 -0.003947344 -0.058014434 -0.014527845
0.11285765 0.03177032 -0.081367075 0.07477354 0.061396718 0.037977383 -0.056852292 0.03986348
0.10564055 -0.04578718 -0.15885757 -0.054560598 0.16472243 0.034910366 0.1314564 0.0056519164
0.039788052 0.11508605 -0.07992397 -0.119937055 0.035988506 0.032096285 0.025954137 0.05142272
-0.036506597 0.101805694 0.042112827 -0.008803767 0.10211168 -0.119548164 0.020568311 -0.082401715
0.026455814 -0.024596924 -0.017894177 0.06976448 -0.063711144 -0.0931486 -0.1586758 -0.060176577
-0.032802343 0.0750594 0.0280779 0.103979185 -0.021637902 -0.011249024 0.056566555 0.035364427

convolution_2 f4 [32, 3, 3, 32]
00000000: db68 e43d 5b7e bfbb 22d4 f9bc f415 8fbc
00000010: 6f84 7c3d 2f5b 4c3d ab38 943d 959e 4cbd
00000020: 37b9 0e3d c8f1 abbc 1d23 803d e9d3 08be
00000030: 075c b73d 9bfd 6bbc abd6 50be 18b1 69bc
00000040: 6721 e6bd b755 31bd 2c85 52bc 36ac 033b
00000050: 4fa5 963c 6835 5fbd 8e52 82bd ee69 893b
00000060: 204a ba3d f74e 233d c192 cebd 320b 943d
00000070: e394 c93d 27c7 bfbd 2732 173c 5791 413b
00000080: 5a1e e03c 4fc8 1fbe 9995 8c3e c40b e63c
00000090: 53fd 803d 56da e63d d163 003e 626e 793d
000000a0: bee7 0dbe 1e18 9ebc 2206 c73c b5b1 683c
000000b0: 2587 bf3d a2ec 68bc bc2d e73d 40e1 b13d
000000c0: 64dd c1bd 4f6a ab3d 87f5 10bd f33e 783d
000000d0: 881f bf3c 2844 fb3d 0226 ac3d 32e5 403d
000000e0: 78c2 e6bd 9d58 4ebd a501 d93d ae0e b23d
000000f0: e3b7 68bd 087d b5bc 5cf2 16bc 3e39 69bc
00000100: 22a8 e23d 6862 0d3d 0668 9cbd 273e f8bd
00000110: c65b 2cbd 078c 87bd ab6d 213e aedf 3a3e
00000120: 172b 2a3e d1ab 983d e00e c93d e5af c33d
00000130: 4307 5abd c2af 9dbd 49ca 003c 27a0 5b3c
00000140: ff4a a03c 5ee8 383e 0f7c cdbd c46f f43d
00000150: aaa1 9bbb e4db 68bd cac5 4cbd 95f1 8b3d
00000160: 98b1 e13d e88e 16be 40d6 cc3d 7c4a 54bd
00000170: 920d 223d 4166 553e 03ba c1bd a34e 66bc
00000180: 97b2 c53d c04b 2e3d 972b ec3d d31d 24be
00000190: 54f2 05be fe15 24bd 4374 873c fcb7 5ebd
000001a0: 7f82 d9bd b096 fd3d ddd5 0abe ed20 8d3d
000001b0: e27e d23c 3af9 e5ba baed 56bc b50a db3b
000001c0: 4028 2fbe 033a 213e eb9e 35bd b6df 08be
000001d0: f431 5ebc 4d28 2cbe 55c1 e5bd 7f83 833c
000001e0: 4db6 603c 640b ecbd 787c 853d 4e30 75bd
000001f0: 243a 583d 192a 7f3c 325b 04be 5df0 e3bd
00000200: 6857 23bd f07b 3a3e e338 bb3d 06d5 9b3d
00000210: f106 e9bd 1498 ddbd 14fd e53d e01a 3ebd
00000220: 4814 283d 3b38 e3bb 9539 373d a025 523d
00000230: 46f2 73bd f638 07be 5b8b 79bd 036b 86bc
00000240: d924 80bd b0ad 0b3e 9309 213b 8153 943d
00000250: 8eaa 2c3d d677 233e 246d 67bd cd5a 66bd
00000260: 42af c13d 9ec4 c83d 4f31 a6bd 05a9 b2bc
00000270: 8ad5 4cbd 334f 01be d685 e4bd f522 90bd
00000280: 1c2b 5e3c 4282 7e3a 56fe c2bc ad59 cdbd
00000290: 7ab7 bdbc 780f 213c 2652 8d3d 26e9 033d
000002a0: dc93 243d 0645 44bc 4954 0bbe fea0 25bd
000002b0: 8745 573d 8f23 d6bb a819 32bc 3069 30be
000002c0: 5afd b6bd 0e0b 3a3e 6d21 c2bd 1097 b2bd
000002d0: 8e9d 9d3c cb7b 1bbd 9f24 29bc 7336 df3c
000002e0: 42bc 31be 297a 1d3d 82c5 a13d ecd4 5cbd
000002f0: 1420 aebc e5dd ed3d 1010 41bd d2c4 b73d
00000300: f1d2 953d 128b b6bd 4a55 8cbd 9bf0 fb3d
00000310: 58c9 223e 9c52 203d 5ae8 093d 9adb dbbd
00000320: 1edc f0bc 8280 82bd 111f 2d3c 3316 e2bd
00000330: a3ef 923d 58aa 37bc 57ec 393e 8585 41be
00000340: a0eb 933d a07b bf3d 546d 82bd efb9 ccbd
00000350: 1a1e c7bd b46c 133d 1cfc 2c3e 43af b73d
00000360: 659e a53d c0cb 2bbe f600 be3d fb19 3bbe
00000370: d735 b53d 6e87 c9b9 2520 303d 1b3a 033e
00000380: 72db 86bc 00a0 d3bd 9044 e33c 68f0 4ebd
00000390: 104c ce3d 076a 6cbd ddad e6bc 3704 123e
000003a0: 8cb4 0bbc 7406 88bd 8cfc 55bd 56c3 2bbd
000003b0: f782 9b3d 4860 96bd fbd8 173c 7904 833c
000003c0: ae6e ccbd a234 c2bd 7955 f53c 15a4 2d3d
000003d0: 1259 52bd 14fe 9cbb c917 efbd 54f3 1fbd
000003e0: 3bdf 93bc c13f 81bd c98c c83d ed60 36bb
000003f0: 275c b13d 6fa8 243e 7f67 1fbd 9e0b 98bc
0.11152812 -0.00584392 -0.03049666 -0.017466523 0.061649736 0.049891647 0.07237371 -0.049955923
0.034844603 -0.020989314 0.06256697 -0.13362087 0.089531 -0.014403726 -0.2039439 -0.014263414
-0.1123684 -0.043294635 -0.012849133 0.002009166 0.018389372 -0.05449429 -0.06363402 0.004193536
0.090961695 0.03987023 -0.10086585 0.07228698 0.09842851 -0.09364157 0.009228266 0.0029536092
0.027358223 -0.15603755 0.27457884 0.028081782 0.06298318 0.11272113 0.12538077 0.060896285
-0.13857934 -0.01929861 0.024294917 0.014202525 0.09351949 -0.014216574 0.1128802 0.08685541
-0.09466055 0.08369886 -0.035390403 0.060606908 0.023330465 0.12268859 0.08405687 0.047093578
-0.11267561 -0.050377477 0.10596017 0.08694206 -0.056815993 -0.022154346 -0.009213056 -0.014234839
0.11067225 0.034517676 -0.076370284 -0.121212296 -0.04207971 -0.06618505 0.15764491 0.1824939
0.16618 0.074546464 0.0981729 0.095550336 -0.05322958 -0.07699539 0.007860729 0.0134048825
0.01956701 0.18057391 -0.10033428 0.1193538 -0.0047494965 -0.05685033 -0.049993314 0.068331875
0.110202014 -0.14702952 0.100018024 -0.051828846 0.039563723 0.20839788 -0.09459307 -0.014056834
0.09653204 0.04255271 0.115317516 -0.16027002 -0.13080722 -0.040060036 0.01653493 -0.05437468
-0.10620593 0.12382257 -0.13558145 0.06891046 0.025695268 -0.0017545589 -0.013118202 0.006684626
-0.17105198 0.15744786 -0.04434101 -0.13366589 -0.013561714 -0.16812249 -0.11218516 0.016053913
0.013715339 -0.1152561 0.06517881 -0.05986052 0.052789822 0.015574002 -0.12925413 -0.1112983
-0.03987828 0.18211341 0.0914171 0.0760899 -0.11378277 -0.10820022 0.112299114 -0.04641235
0.041034967 -0.0069341934 0.04473265 0.051305413 -0.05955722 -0.13205323 -0.060923915 -0.016408449
-0.06257028 0.13640475 0.0024572357 0.072424896 0.04215484 0.15963683 -0.05650057 -0.056238938
0.09457256 0.09803127 -0.081148736 -0.02180911 -0.050008334 -0.12627868 -0.1115834 -0.070379175
0.013560083 0.0009708741 -0.023802917 -0.1002687 -0.023158778 0.009830348 0.06900434 0.03220477
0.040180072 -0.011979347 -0.13606371 -0.040436737 0.05255654 -0.0065350006 -0.010870375 -0.17227626
-0.08935042 0.1816828 -0.09479032 -0.08720219 0.019240167 -0.037959855 -0.010323673 0.027247643
-0.17356971 0.03844658 0.07899 -0.053913996 -0.02125553 0.11614589 -0.04713446 0.08973087
0.073156245 -0.08913244 -0.06852205 0.12301751 0.15897119 0.039141282 0.033668853 -0.10735245
-0.029401835 -0.06372167 0.010566489 -0.110393904 0.07174613 -0.011210047 0.18156563 -0.1889859
0.07222676 0.093497515 -0.06368509 -0.099964015 -0.09722538 0.03599234 0.16893047 0.089689754
0.08086852 -0.16776943 0.09277527 -0.1827163 0.0884816 -0.0003843861 0.042999405 0.12815134
-0.016462062 -0.10333252 0.027742654 -0.050522238 0.100731015 -0.057718303 -0.028159076 0.1425942
-0.008526932 -0.06641856 -0.0522428 -0.041934334 0.07593339 -0.07342583 0.009268041 0.015993344
-0.09982048 -0.09482695 0.029947983 0.04239281 -0.051354475 -0.0047910307 -0.116744585 -0.039050415
-0.01805078 -0.06310988 0.09792478 -0.0027828768 0.08660155 0.16079877 -0.03891706 -0.018560227

convolution_3 f4 [32, 3, 3, 32]
00000000: a125 893d 7392 ea3c 20c4 303d 9ab2 49bd
00000010: 9e99 00bc 18de 863d 850b babd 57da 9ebd
00000020: adb9 803d 1d4a 833d 0894 06bd 51c0 b3bc
00000030: 1c98 02bc bae2 043e 3c3b 8bbc 5f33 24bd
00000040: 80c0 04bd 5075 44bc 28a8 3d3c da76 373c
00000050: f920 90ba d3e9 9abd 305b 903d 4459 ccbc
00000060: cb2c c73c d184 7d3c 68ab 09bc 647e c53b
00000070: 057f f1bb 6b45 323d e1c7 c63b bca1 18bd
00000080: 1b13 993d d721 97ba 205d b33c 119e 4abc
00000090: d32f 0d3d 1336 14bc 02c1 a33c f2f2 12bc
000000a0: 0e30 5e3c 962d 9abc a3b7 9fbc bb91 a6bc
000000b0: 67d6 1cbb 3258 63bb d1ee 9fbb ebf6 cf3c
000000c0: 7ebc dabc 625c da3d 1678 613d 983a 9a3c
000000d0: 5ede 85bd 5a99 46bd e39d acbc 10c6 b0bd
000000e0: a4ee 273d b025 5d3d 2b2a 3a3c ffa6 933c
000000f0: 8f0f d93d 2946 83bd 0e57 ed3c b23a e83d
00000100: fb0c 783b 7b0e 09be e7a7 07bd a442 343c
00000110: 5bc3 e13d 336b 42bc 1e73 543d b25e d93c
00000120: ae35 b7bc fcfc 7cbc dd36 59bd 19dd 8ebd
00000130: 9348 ebbc 832e 963b 4a68 483d 218c 333b
00000140: aac2 553c ee19 aebd 3ec9 803d d105 793c
00000150: 76e8 493d 58ce 9cbd 5b0b bfbb a7fc 8a3d
00000160: ed7f 14bd cfdd bdbc c1db 293d 481d 13bd
00000170: a876 eaba 90f4 763c 9862 e93c a6dc 9c3d
00000180: c071 4abc 6608 1fbd 8030 fa3c 44b4 22bc
00000190: fc5c ae3b c0b4 d23c 79af 61bc e7db 36bb
000001a0: 26a2 943d 698f d5bc de48 72bd 7039 74bc
000001b0: 0654 083c 8cc8 4fbd 9421 1cbd 3505 8dbd
000001c0: 3123 593d 64e9 403d ce42 86bd 4e95 c63c
000001d0: 69c2 21bd 82e7 35bd 535d 8a3a ab44 ffbc
000001e0: 50a2 133d 57c3 c0bc efbf 103d cee1 a73c
000001f0: 9b2a c4bc 9d83 bd3d 4568 b9bc 759d aa3d
00000200: ae56 c0bc e5a6 c5bd 578b a63c a398 fdbc
00000210: d2f5 833b 3dd0 f2ba e38e c03c e1dd 60bc
00000220: 6ef0 00bd e433 333d 8466 b13c b566 82bd
00000230: 1d40 613d e9a8 71bd 70a2 083d 71e7 80bd
00000240: 0fb7 49bd 2397 b93d f9db 053d b7fa 323d
00000250: b220 bb3c 0cd6 f73b fc34 21bc 599c 4ebc
00000260: 7ff6 173e 1ed1 353d ccaf c53c 1270 d3bd
00000270: 0b11 f83c d8e5 6cbd 0656 1fbd ccfe a4bc
00000280: 942a b33d 7ec1 6c3d 7cfd 8b3d 7b31 f13b
00000290: 7ee2 3bbd d054 683d 4ff5 e1bc c96a 88bd
000002a0: 2944 893d 58d9 d23d 4b2e 8e3b 9ebf 163c
000002b0: c43c 7dbd d06f c8bc 3c8d cc3c 5a7c a5bd
000002c0: 9cec b4bd 1597 3b3d d752 bc3c 8de9 3bbc
000002d0: 7699 603d db02 7c3d 7b7e 6abc 689c 5fbd
000002e0: 0a88 6b3b cfb1 a13a 7399 373c 5b86 383d
000002f0: 6d59 22bd b012 113d 7976 523d 0a4f 43bd
00000300: 4b39 503d 6249 1abc 2a75 25bd ce38 e93c
00000310: aa50 a63d 0133 9d3d 8a67 aabd ee1d 043d
00000320: a733 97bc fd0b 343c 233e d23c 02fd 693d
00000330: 56af 07bd 023e 09bd 0695 c73c 3174 33bd
00000340: 295c 4bbc 3ffb 713b bae8 bc3c a211 32bc
00000350: 25ae efbc ab57 993c f697 253d 186a 5ebc
00000360: 51a5 133b cc5f 6e3c c78a 073d 6e6a 143e
00000370: 1670 69bd 5f04 523d 2f53 a0bc f539 523d
00000380: f41f 1abd 4195 92bd 9980 93bc e31b c5bd
00000390: 243d bf3d 0f25 99bc 8c1f 14bd b9b6 85bd
000003a0: 72a9 11bd d474 c23c 75bc a1bc 0e21 643d
000003b0: 4a0e 893d 73df 13bd 9b4b 603d 9540 16bd
000003c0: a6f2 08be bf49 f4bb a0f1 533b c13b 24bc
000003d0: 98ce a23c 5369 f4bb 8952 c53d 02eb aebd
000003e0: 4e26 ce3c 096c 583d f3d9 0a3d dc68 e8bb
000003f0: a9ad 8f3d 84c4 e63c 4034 4bbd 3c8d 4b3d
0.0669663 0.028634286 0.04315579 -0.049242593 -0.007849125 0.0658533 -0.090842284 -0.07756489
0.06285415 0.0641062 -0.032856017 -0.02194229 -0.007970836 0.12977114 -0.016996019 -0.040088054
-0.032410145 -0.01199086 0.011575736 0.01119777 -0.0010996155 -0.0756413 0.07048643 -0.024944909
0.024313351 0.01547356 -0.008402683 0.00602703 -0.0073698782 0.043523233 0.006066308 -0.037263617
0.07474347 -0.0011530471 0.021894991 -0.0123667875 0.034469437 -0.009046095 0.019989494 -0.0089690555
0.013561262 -0.018820565 -0.019496744 -0.020333162 -0.0023931505 -0.003469002 -0.004880764 0.025386294
-0.026701208 0.10662152 0.055046163 0.018826768 -0.06536554 -0.04848609 -0.02107138 -0.086315274
0.04099907 0.05399102 0.011362593 0.018023966 0.10598671 -0.06409866 0.028972175 0.1133932
0.0037849534 -0.1338443 -0.03311911 0.0110022165 0.11023589 -0.011866379 0.051867597 0.026534412
-0.022364464 -0.015441176 -0.053030837 -0.06975765 -0.02872113 0.0045831813 0.048927583 0.0027396756
0.0130469 -0.085010394 0.06288384 0.015199141 0.049293958 -0.076565444 -0.005830211 0.06786471
-0.036254812 -0.023177056 0.04146934 -0.035916597 -0.0017888146 0.015072957 0.028489396 0.07659273
-0.012356222 -0.03882637 0.030540705 -0.009930674 0.005321143 0.025720954 -0.013774746 -0.0027902068
0.0725749 -0.02606936 -0.059151523 -0.014906272 0.008320814 -0.050728366 -0.03811796 -0.06885759
0.053012077 0.04709758 -0.06555711 0.024241116 -0.039492045 -0.044410236 0.0010556377 -0.031160673
0.036043465 -0.023530645 0.035339292 0.020493414 -0.023946097 0.09253619 -0.022632727 0.08330814
-0.023478832 -0.09650973 0.020330114 -0.030956572 0.004027107 -0.0018525195 0.023505634 -0.013724775
-0.03147929 0.04375066 0.021655329 -0.06367246 0.054992784 -0.058998976 0.033358037 -0.06294144
-0.049246844 0.0906203 0.032680485 0.04369613 0.022842739 0.007563358 -0.009839293 -0.012610518
0.14840125 0.044388883 0.024131678 -0.1032411 0.030281564 -0.057836384 -0.038900398 -0.020141028
0.087483555 0.057801716 0.06835458 0.007360635 -0.045870297 0.05672151 -0.027582793 -0.06660993
0.06702454 0.10295361 0.0043390146 0.009200959 -0.06182553 -0.024467379 0.02496969 -0.08080359
-0.08834192 0.04579838 0.02298872 -0.011469257 0.05483385 0.06152616 -0.014312382 -0.05459252
0.003593924 0.0012336316 0.011206019 0.045050006 -0.039636064 0.035418212 0.051382516 -0.0476828
0.05083589 -0.00941691 -0.04039494 0.02846947 0.08120854 0.07675744 -0.0832053 0.032255106
-0.018457247 0.010989186 0.025664395 0.057126053 -0.033126198 -0.0335064 0.024363052 -0.04381198
-0.012412109 0.0036923436 0.023060191 -0.010868462 -0.029257843 0.018718561 0.040428124 -0.013575099
0.0022528956 0.014549207 0.033091333 0.14493725 -0.05699166 0.0512737 -0.019570915 0.051324803
-0.03762813 -0.07157374 -0.018005656 -0.096244596 0.093378335 -0.018694429 -0.036162898 -0.06528992
-0.035561986 0.023737349 -0.019743184 0.055695586 0.066921785 -0.03610177 0.054759603 -0.036682684
-0.13373813 -0.0074550803 0.0032340065 -0.010024012 0.019873902 -0.0074588447 0.09634883 -0.08540918
0.02516475 0.052837405 0.03389926 -0.0070925783 0.07015545 0.028169878 -0.049610376 0.04969524

convolution_4 f4 [32, 3, 3, 32]
00000000: d4f2 513c 11e9 2a3c 84f9 1c3d cc25 0abd
00000010: 7c0e d13c 3993 3fbd 2716 11bd 64e3 c7bd
00000020: b388 9ebb 1fbe 89bc bf5f 08be 7dfb 473c
00000030: 070f 8abd 8f66 83bd bd16 de3c 4de3 e1bc
00000040: 8353 633d 6f36 c73d d0c1 18be 8d92 97bd
00000050: 0925 40bd d83f 5cbd c8e7 cd3d bd38 b9bd
00000060: 38dd 8abd 80c7 7fbd a52d 893d f185 76bc
00000070: 35e9 a6bd 8554 093e 7539 ccbc ca77 13be
00000080: b1e7 75bd ec38 923d 0fcb da3c 7ae3 31bd
00000090: 7aef ba3b c2c7 183e 4e19 f13d dfcd 81bd
000000a0: 134c 013d 3742 0d3d 2f23 0bbe d5cc 67bd
000000b0: 1283 803c 3edc 59bd 8150 7e3d 5d06 2cbc
000000c0: ed1c a4bc 7085 9ebb 8995 9bbd 1512 24bd
000000d0: d3cd 1dbe 5e54 0e3d 72f3 6fbd 90ae 903c
000000e0: c368 b43d 8ad1 36be fb14 a3bc 4c7b 473e
000000f0: d420 acbd df3e 123d cafa 5f3d baf2 9dbb
00000100: 4f64 0abe 5365 59bc af6f ba3d 6424 d5bc
00000110: da90 123e dca6 443d 3740 e83d 636a 653d
00000120: 8064 8c3d e3b7 3bbd 841e 2cbc 671a 03bd
00000130: fc84 04ba 8130 c83c 066e 693d 6ef6 a2bd
00000140: 2fbd ca3d cbae 28bd 193d dd3c 01df 35bd
00000150: 2026 fbbb cc3e 53bc ad22 783d e3be 35be
00000160: 6c98 273d 4ba0 2fbe b6fc 89bc 1723 3f3c
00000170: 2131 e5bc f533 bdbd 34d3 f63c 5460 d2bd
00000180: 7aef 21be b07d 52be 23e5 b33d 0cb9 a8bc
00000190: 48b8 e53b 828f d53c 4710 46bd f126 89bd
000001a0: 28b0 afbd 61ad d23c f0a2 903b fd71 193d
000001b0: e2c9 003e 2877 5bbd 7621 083d 8b85 ea3b
000001c0: a9fb bd3c f206 1abd b843 ccbd a080 3bbc
000001d0: cea9 ccbd aa24 ff3d e3b8 cd3d c943 973c
000001e0: 6114 1cbd 7f8d 44be 7406 e33d 6533 16bc
000001f0: a459 763d e848 06bd 9e50 19bd e6a1 653d
00000200: d24f 013e be3c 1dbd ac30 3b3d 649f 49bd
00000210: 94e2 393e 9042 aebd 6734 edbd 4b38 90bd
00000220: 1191 f9bd 2c25 9ebd d32b 073c 7d39 a6bd
00000230: 65f1 3c3d 5c42 343d 923f d23c 15ed 963d
00000240: a487 263d c375 c23d d338 a4bc a81a f2bd
00000250: c1ec 2f3c b7ba 5c3d 592a bb3d 0317 993d
00000260: d6d3 033e d1d8 e6bd a9e9 e73c ea25 13bd
00000270: bc3f eabc 5efa c93d 2c1e 44bd dfef 46bd
00000280: 92f4 cbbd 8792 0f3b b747 fc3d c251 6dbd
00000290: 1063 1a3e 80cb 9ebd 212d f33c cb20 5f3d
000002a0: 7c40 cd3d c393 fe3b b6da d3bc cee1 95bd
000002b0: 2738 63bc d5c4 eabd 9f67 3e3c a429 cb3c
000002c0: 49e1 b63c 8133 063e cdc8 78bd 69b5 9ebd
000002d0: ca44 2b3e 40c9 2fbd e43d ac3b 2c15 053e
000002e0: 9391 f33c 9187 5cbb af93 9a3b aedf 60bd
000002f0: 27f8 04bd 5929 913d 2cb6 c3bc 4e21 1f3e
00000300: 6c11 c1bd 9499 753e 5add e53d e0b5 d6bd
00000310: 4450 dd3d 23aa 793c ba61 03be 7986 b63d
00000320: ac6f 9c3c 8087 9fbd 4312 bbbd a920 c2bd
00000330: a7b8 d5bd f61a a6bc 74e2 643b dd34 8bbd
00000340: e03b 93bd c002 3d3d aa6e 043d 4980 6dbd
00000350: 9445 99bc 2abd 4dbe 8e5d c5bd 0e67 9f3d
00000360: 054f 933d d2f2 a8bd 4efc 013e 219b d2bd
00000370: 99bb edbd 90a1 573d 16d8 a13d 7e23 8a3d
00000380: 430f 24be da0d 2a3e 3c70 b83d 6562 18be
00000390: 10f4 153e cc0e 88bd 8ae9 473d 8457 7dbd
000003a0: 97d4 9bbc 2aa0 9dbc 9c51 793d 6e09 2bbd
000003b0: e15d 663d 6928 a6bd cfbb fd3c 2a64 04bd
000003c0: b275 6bb9 e82f f0bc 204c 00be 1c1c 3a3d
000003d0: 6b8f b3bb f3b9 953d fc09 f0bc 6480 d2bd
000003e0: 6704 92bd f9cc c0bd eb91 93bd 6c55 25be
000003f0: fe14 0dbe a108 dbbc 28ac afbd 649d e43d
0.012814242 0.010431544 0.038323894 -0.033727452 0.025519602 -0.04677126 -0.035421517 -0.09760168
-0.004838073 -0.01681429 -0.13317774 0.012205956 -0.067411475 -0.06416046 0.027110452 -0.027574206
0.055499565 0.09727179 -0.14917684 -0.07400999 -0.04691032 -0.053771824 0.100539744 -0.09044025
-0.067804754 -0.062446117 0.06698159 -0.015046583 -0.081499495 0.13411148 -0.024929741 -0.14401165
-0.06003541 0.07139763 0.026708154 -0.04342983 0.0057048174 0.14919952 0.117724046 -0.06338095
0.03156669 0.034486976 -0.1358764 -0.056591827 0.0156875 -0.053188555 0.062088493 -0.010499564
-0.020033324 -0.0048376843 -0.07596881 -0.040056307 -0.15410547 0.034748428 -0.058581777 0.017661363
0.08809044 -0.1785337 -0.019907465 0.19480628 -0.08404699 0.03570449 0.05468253 -0.004820195
-0.13514827 -0.0132687865 0.09103333 -0.026018329 0.14313069 0.048010692 0.11340373 0.05600966
0.06855106 -0.045829665 -0.010505322 -0.0320076 -0.00050552166 0.024437191 0.056989692 -0.07957159
0.09899365 -0.04118232 0.027006673 -0.044402126 -0.007664457 -0.01289339 0.060579944 -0.17748599
0.040916845 -0.1715099 -0.016844135 0.011666081 -0.027977528 -0.09238426 0.030130006 -0.102722794
-0.1581401 -0.20555758 0.08783939 -0.02059605 0.0070104934 0.026069406 -0.048355367 -0.066968806
-0.08578521 0.02571744 0.004413955 0.037462223 0.12577012 -0.053580433 0.033235036 0.007157033
0.02319129 -0.03760428 -0.09973854 -0.011444241 -0.09993325 0.12458165 0.1004503 0.01846494
-0.038105372 -0.19194601 0.11085215 -0.009167527 0.06014408 -0.032784373 -0.0374304 0.0560626
0.12628105 -0.038388006 0.045700714 -0.049224272 0.18152839 -0.085087895 -0.115822606 -0.07041987
-0.12185872 -0.07721934 0.008250195 -0.08116434 0.04612865 0.044008598 0.025665078 0.073694386
0.0406567 0.094951175 -0.020046627 -0.118214905 0.010737599 0.053889003 0.091389365 0.07475092
0.12873778 -0.11271823 0.02830966 -0.03592483 -0.028594844 0.09862207 -0.047880337 -0.048568603
-0.099587575 0.0021907405 0.12318366 -0.0579393 0.15076852 -0.07753658 0.029684605 0.054474633
0.10022065 0.0077690794 -0.025861125 -0.073184595 -0.013868368 -0.11463324 0.011621385 0.02480013
0.022324221 0.13105585 -0.060738374 -0.07749445 0.1672546 -0.042916536 0.0052564014 0.12996358
0.029732501 -0.003365014 0.0047173123 -0.054900818 -0.03246322 0.070879646 -0.023890577 0.15540048
-0.09427151 0.23984367 0.1122386 -0.10483909 0.10806325 0.015238318 -0.12830248 0.089123674
0.019096218 -0.077895164 -0.091343425 -0.09478886 -0.1043561 -0.020276528 0.0034925016 -0.06797192
-0.071891546 0.0461452 0.0323321 -0.05798367 -0.018709935 -0.20091692 -0.09636985 0.07783328
0.07192806 -0.08249439 0.12693903 -0.10283495 -0.11608047 0.052644312 0.07902543 0.06745051
-0.16021447 0.16606846 0.09005782 -0.14881285 0.14643884 -0.06643447 0.048806705 -0.06185104
-0.01902227 -0.019241411 0.060868844 -0.04175704 0.056241874 -0.081131764 0.030973343 -0.032322086
-0.00022455191 -0.029319718 -0.1252904 0.045436963 -0.0054797432 0.073108576 -0.029301636 -0.10278395
-0.07129746 -0.094140954 -0.07205566 -0.16145867 -0.13777539 -0.026737513 -0.08577758 0.111628324

convolution_5 f4 [6, 3, 3, 32]
00000000: 596c a23d c637 c3ba 13c4 20bc 394a 81bd
00000010: 352b f1bc f476 4a3d dba2 6abd 6915 8bbc
00000020: e870 f3bc 7c80 483c daf7 623d 6f63 b2bd
00000030: ae2a fabc 851a e3bc 7800 013d acd4 2cbd
00000040: 8bc4 763d 6e40 50bc 35a3 113d 7e2a cb3c
00000050: f398 943c 5162 3cbd 5868 113c e6f9 afbd
00000060: a568 803a 53dc a23c 90d5 5ebd a469 7bba
00000070: af93 0dbd 25f9 4c3c 8c81 c5bc a11a f63c
00000080: 2f82 cc3d 1486 393c 3c4e 48ba c3cf b93c
00000090: deca e73b 2e41 db3c 73c7 eabb eb60 85bd
000000a0: 5d60 58bd e6fd c03d 63f4 70bd 48ad 603d
000000b0: f34f 02bd cd88 2cbd 6ef9 89bc d17d a0bc
000000c0: 5730 8e3d f9bf b13d d2c2 c43d d703 123c
000000d0: 9e24 323d 0903 5f39 940b d43c 5959 55bd
000000e0: 5346 003e 383c 3ebc e4b6 d03c 7166 7bbd
000000f0: 4b71 3fbd 6f49 743c 762e f9bc 3b8d b3bd
00000100: 484c 013d bc9a a63d c31b 3c3d 5372 44bd
00000110: 3a71 d73b 1dd5 293d 5b4e d8bc 485d 8bbd
00000120: 13d1 50bb bc83 ebbc bb5f 81bd c11e a43d
00000130: 03bc efbd 9aaf 95bd 964c 233b 7801 af3c
00000140: 16da 94bd 923d 423d 5b97 0fbd af36 f0bd
00000150: 8e0f f9bd d780 e13c 41e4 c03c baa0 34bd
00000160: ef84 0bbe 8eab 1b3d b17a 16bc bb78 683c
00000170: 7c34 80bd 30b3 573c 1b74 a3bd f83b 06bd
00000180: 3b65 46bc a460 85bd d85d 44bd ff45 c2bc
00000190: 0f03 21bc d5f0 bdbc f842 9cbd 7041 a33d
000001a0: bf89 c3bc 3009 80bd 330d 1b3d dbd0 71bd
000001b0: 3714 a13a ea9a 303d 14f9 963c 8892 6e3b
000001c0: 7017 89bd f6c2 76bc 02f5 c83c d5bf 4abb
000001d0: ffce 813d cb0d 81bd 8b40 d0bd 292d 963d
000001e0: 0c33 7fbd f9df bebc 19b8 673c d2ee 243d
000001f0: 6331 51bd eb67 483d f412 85bc 95b7 953d
00000200: bc59 883c 69bc 7b3e cea6 073d b5aa bcbc
00000210: a9fa c0bd 69b5 983c 7f2f fa3a c240 f5bc
00000220: 2d3b f63c 0789 0cbd c4a6 383c f711 953c
00000230: ba63 18bd a193 9dbd f33f a0bc 4879 e33a
00000240: 5388 2cbd 8532 e4bc 5c8a d6bd c6e7 9cbc
00000250: a4e9 eabc 6352 af3c 8ede 493c f0ad a3bd
00000260: b775 0d3d f6c7 8d3c 40db 29be 911b babc
00000270: 0d0b 0d3c 0ebb 8fbd 4feb d33c 47b0 c3bc
00000280: cbbb c73d e2b2 55bd 22bc 4f3d 79c9 5bbd
00000290: 12f2 01bd a290 bebc 924c 38bc de9f bb3d
000002a0: 81db 09bc ce78 a43c c60a 813d 8b5a 5cbd
000002b0: d1ad 773c 417c 8a3c f0e0 0d3d 3c6d 0dbd
000002c0: e04b a9ba 224c 0cbd 17ac eb3c 0c7c 6bbd
000002d0: 8b31 c73d b0b8 973c 0de4 06bb 7697 9b3d
000002e0: a429 923d 8ff3 863d 7162 ba3d 209a 293d
000002f0: 0adc 273d b187 1e3d a741 fb3d 7706 e23d
00000300: b711 513c 5361 e9bd b76c 17bd ebaf bb3c
00000310: d9de 083d d7c1 b2bc b07c 61bd 9169 583d
00000320: 57cf bd3c 6b56 803d 6e50 bd3c 8566 33bd
00000330: 54c9 e63c e43f babc d86d 49bc 38c8 2e3d
00000340: 5efc 7b3d 1f01 0f3d fea3 c8bc 1183 0f3c
00000350: 1fac 7e3d 46ec 6abd d577 013e ec12 aebc
00000360: 97c6 60bb c700 92bc a9e6 54bb 1582 463d
00000370: 32d4 7bbd 8d78 933d af23 d13d 613b 0a3c
00000380: 4f85 f439 6e44 4fbd 6541 90bc ff6b 583d
00000390: ec47 943d 5b96 abbc 1d48 17bd 8668 133c
000003a0: 9adf d03c 96e8 2b3c cb54 823c b27d 16bd
000003b0: c0c0 233d 03b6 2ebd 6a48 8ebd 61f8 a2bc
000003c0: 3128 ae3c 12cd 3bbd ddbe 0b3e 47a0 abbb
000003d0: 60b9 393d 8a90 a4bd 7574 73bc d48e a63c
000003e0: 3ba4 8bbc 691d ae3d 7052 503d 3799 ca3c
000003f0: 1d5c bdbc e113 c4bc 9b80 c6bc ba56 4f3b
0.07930822 -0.0014893941 -0.009812373 -0.06312985 -0.029439548 0.04942985 -0.057284217 -0.016977983
-0.029716924 0.012237664 0.05541215 -0.08710372 -0.03053793 -0.027722606 0.031494588 -0.042195007
0.06024603 -0.012710674 0.035556037 0.024800535 0.018139338 -0.0459922 0.008874975 -0.08592586
0.0009796812 0.01988045 -0.054402888 -0.0009590632 -0.03456467 0.012510573 -0.024109624 0.030041995
0.09985768 0.011323471 -0.00076410524 0.022682076 0.007073744 0.026764479 -0.0071648895 -0.06512626
-0.052826274 0.09423427 -0.058826815 0.054852754 -0.031814527 -0.04212265 -0.01684257 -0.019591244
0.06942814 0.08679194 0.096074715 0.008912048 0.043491952 0.00021268068 0.025884427 -0.05208716
0.12526827 -0.011611037 0.025477834 -0.061376993 -0.046738904 0.014910086 -0.030417662 -0.08767172
0.031566888 0.08134982 0.045924913 -0.04796059 0.006574777 0.041463006 -0.02640455 -0.06804901
-0.00318629 -0.02874934 -0.06317087 0.08013678 -0.11705782 -0.07308884 0.0024917475 0.021363005
-0.07268159 0.047422 -0.035056453 -0.1172918 -0.1216117 0.027527256 0.02354634 -0.044098593
-0.13624929 0.038005404 -0.009184525 0.014188941 -0.062600106 0.01316528 -0.0798113 -0.032772034
-0.012109096 -0.06512573 -0.04794106 -0.023715017 -0.009827389 -0.023186127 -0.07629961 0.079714656
-0.023869393 -0.062517524 0.037854385 -0.05903707 0.001228935 0.043116488 0.018429317 0.0036403257
-0.066939235 -0.015061131 0.024530891 -0.0030937095 0.063383095 -0.06301459 -0.101685606 0.07332832
-0.06230454 -0.023300158 0.014143013 0.04026682 -0.05107249 0.04892723 -0.01624439 0.07310406
0.016644351 0.24583592 0.03311806 -0.023030618 -0.0942281 0.01864119 0.0019087641 -0.029938105
0.030057514 -0.034310367 0.011270229 0.018197043 -0.03720448 -0.076941736 -0.019561743 0.001735487
-0.042122196 -0.02785612 -0.10475609 -0.019153487 -0.028675862 0.02140159 0.012321128 -0.0799216
0.03453609 0.017307263 -0.16587543 -0.022718223 0.008608592 -0.070181 0.02586904 -0.023887767
0.097526155 -0.05217255 0.050716527 -0.053658936 -0.031724997 -0.023262326 -0.011248725 0.091613516
-0.00841415 0.020077135 0.06300883 -0.053797286 0.015117125 0.016904952 0.034638345 -0.034528002
-0.0012916289 -0.034252293 0.028768582 -0.057491347 0.097262464 0.018520683 -0.0020582706 0.07597248
0.071368486 0.06589424 0.091008075 0.04140675 0.04098133 0.038703624 0.122683816 0.11036389
0.012760571 -0.11395516 -0.036968913 0.022911033 0.03341565 -0.021820946 -0.055050552 0.05283505
0.023170156 0.06266483 0.02310964 -0.043798942 0.028172173 -0.022735544 -0.012294255 0.042671412
0.061519973 0.03491318 -0.02449226 0.008759276 0.062175866 -0.057354234 0.12643369 -0.021249257
-0.0034298056 -0.017822636 -0.0032486117 0.0484639 -0.061481662 0.072007276 0.10211884 0.008437009
0.0004663863 -0.05060237 -0.017609308 0.052837368 0.072402805 -0.020945719 -0.036934007 0.008997088
0.025497247 0.0104924645 0.015909573 -0.036740966 0.039978743 -0.04265405 -0.06947406 -0.019893827
0.0212594 -0.045849867 0.13647027 -0.0052376124 0.045342803 -0.08035381 -0.0148593085 0.020331778
-0.017046085 0.08501703 0.05085987 0.024731262 -0.023115212 -0.02393526 -0.024231246 0.0031637386

convolution_6 f4 [3, 3, 3, 32]
00000000: f926 9e3b f872 723b 0c49 f4b9 3e8f a23c
00000010: 7b88 fdbb 60c3 903c 41dc af3c 43aa a53c
00000020: e8a1 ac3b 7025 313c 46ff 863c 9165 15bc
00000030: ef4f 72bc 2f59 06bc f0e3 61bb e23d 3d3a
00000040: 03c3 7ebc 60b9 453c 88e6 a03c 36d0 8e3c
00000050: 4b34 a6ba 01dc 75bc 50b7 213c 88d6 52bc
00000060: cab1 823b ce14 41bc 62f8 3d3c 1465 b53c
00000070: d33e 7a3c 81b0 8f3b 6c40 973b 2e75 523c
00000080: b7e1 c83b 9d50 e8bb b45f c4bc d100 543c
00000090: 84d7 513c a20a f53b f5f2 3dba 0359 a6bb
000000a0: f713 54bc 4cf6 30bb df92 00bc ee7c d1bc
000000b0: eb2d f63b b759 a83c 809f 1e3b 202c 883b
000000c0: 4e24 1fbc af59 b33c 45da 743b d695 d63a
000000d0: 9bab 993c 339b 36bb 54d1 c73b 11a6 9c3b
000000e0: 4ff6 d73c 705c 023d ff11 0cbb 3817 88bc
000000f0: 23d5 8d3c f238 a1bc 1e2f be3b c8f4 84ba
00000100: 4642 3f3b 40ed 793b 3695 4dbc 4d82 a43c
00000110: a6dc 723b 1618 0f3c 6b68 a33c e51d b23b
00000120: 4a23 73bc d832 81bb 7b4c ad3b 89bf b1bc
00000130: a148 dd39 0990 4fbb cfd2 53bc d847 8e3c
00000140: 45b2 e4bb 3578 49bc 94fd 273b 3f34 1a3c
00000150: d399 d3ba f6c6 94bb b270 09bc e856 253b
00000160: bfda 8d3c 3d3a 9cbc 0c91 77bc 5b72 8dba
00000170: 7525 71ba 3d86 4e3c db8c 21bb 2d78 59bc
00000180: 26fd 3d3b 99c8 593c bd14 573c 894c 9c3c
00000190: 4e89 86bb 8476 283c 652d 4a3c 89e5 f43c
000001a0: d2b5 e13b 1b7b 833c 5971 92bc 6123 d33b
000001b0: 7cb0 4b3c fabb f33b dae7 c5bb 2b4a 7b3c
000001c0: e162 3b3b 2d3c 47bc 931c db3c 2ced 843b
000001d0: d3e9 033c 143e dc3b bddf 92bb f6e7 b63c
000001e0: d204 5f3c 027e eebc de1b 2b3c 6fdb 7b3c
000001f0: 35ce 503c 6142 6b3c 1257 51bb 422c b03c
00000200: 910c 7d3b 2157 163c 9a1b cabc 4609 453a
00000210: b084 debb a653 8d3c a05f 1938 0697 9a3b
00000220: ddaa 2cbb 10b5 053c c539 243b 806d 0ebc
00000230: 1dd6 343c c448 3d3c 72cb b5bc c164 c73a
00000240: 55a0 d9bb 8d07 c83c 2bc5 8f3c 5ff0 3aba
00000250: f30f 0fbb 2554 a6bb 7f93 bc3c 9a41 193c
00000260: 1d80 633c fbc8 253c a6df 613c 005e 6f3b
00000270: ef27 a8bc 9803 5c3c dc15 883c e03e 48bc
00000280: a67c aa3c e564 c53b 6aed 87bc 8efc e13b
00000290: 2ea5 b7bb 590d 28ba de73 753b fe38 37bc
000002a0: 8242 ca3b 45cc f6ba dd52 e8ba 9489 5ebc
000002b0: f95f f9bb 02d2 5a3c f717 05bb fb50 e43c
000002c0: 3b59 07bc 9f10 a83c 73c2 8f3c d05b 9e3c
000002d0: 9002 1e3c 309f 013b 49e5 91bb 169e 4bbb
000002e0: 8abc 2c3c ed2c 44bc fca0 db3b a788 283c
000002f0: a52b 1ebc 57a0 853c 2028 453c 0186 39bb
00000300: 04d2 e63c 7d77 bc3c 6174 02bc 6b1d 0c3d
00000310: cdd4 953c 4218 1c3c da39 af3c 1e43 fb3b
00000320: 4153 d23b 9490 bdbb 9b2a 41bd 9ed2 76bc
00000330: a9a0 813c c28b 5cbb 5d95 81bc 6193 2e3a
00000340: 5c7b ef3b a084 223b c096 9e3b 47c4 c93c
00000350: 935e 9d3c 467b 0a3c d354 513c a467 703c
00000360: 7aec 11bc 28f2 97bc 3ae3 bb3c b6d4 953c
00000370: 6bae d1b9 06d7 823c 3c1a 2f3c 9b41 503c
00000380: bae8 643c 8142 a53a 6685 82bc 17be 28bb
00000390: b69d 48bc b070 21bc 2e7b b33b 7dd3 9abb
000003a0: 7b23 863c 494a f0bb 4b7f 8dbc 12e7 933c
000003b0: 2479 5b3c a691 0239 d728 28bc d358 50bc
000003c0: 6202 2fbd 1a91 a93b 5b8c 183c 9376 253c
000003d0: 6fbb f73b 3fc0 c13b 11d0 783c c70d 063c
000003e0: bd9d 643c 8ca0 113b 2b13 7f3c a843 e73b
000003f0: e6ff b0bc 6156 5d3c 04e6 fa3b 9864 8c3b
0.0048264232 0.0036994796 -0.0004659373 0.019843694 -0.007737217 0.017671287 0.02146733 0.020222789
0.005268324 0.010812148 0.016479146 -0.009118454 -0.0147895655 -0.008199974 -0.0034468137 0.0007218999
-0.015549424 0.012068123 0.019641176 0.017433267 -0.001268038 -0.015006066 0.009870365 -0.012868531
0.0039884793 -0.011784745 0.011594864 0.022142924 0.0152737675 0.0043850546 0.004615834 0.012845321
0.006130423 -0.007089688 -0.023971416 0.012939648 0.012807731 0.007478074 -0.0007245981 -0.005076529
-0.012944213 -0.0027002273 -0.007847517 -0.025572266 0.007512798 0.020550592 0.0024203956 0.0041556507
-0.009713246 0.02189335 0.0037361544 0.0016371559 0.018758586 -0.0027863502 0.006097952 0.004780539
0.026362566 0.031826437 -0.0021373031 -0.016612634 0.017313546 -0.019680474 0.0058039567 -0.0010143751
0.002918379 0.0038135797 -0.012547782 0.020081664 0.0037057786 0.00873377 0.019947251 0.0054356926
-0.014839957 -0.0039428286 0.005288658 -0.021697776 0.00042206518 -0.0031671545 -0.012928679 0.017368242
-0.006979259 -0.012296726 0.0025633322 0.0094118705 -0.0016143866 -0.0045403196 -0.008388685 0.0025228802
0.01731622 -0.019070739 -0.015110265 -0.0010791527 -0.0009199002 0.012605247 -0.0024650607 -0.013273281
0.002899 0.013292455 0.013127503 0.019079464 -0.0041057235 0.010282163 0.012339924 0.029894607
0.0068881297 0.016049912 -0.017876314 0.0064434265 0.012432214 0.00743818 -0.0060396018 0.015337507
0.0028592872 -0.012160343 0.026747024 0.0040565934 0.0080513535 0.0067212675 -0.004482238 0.022327404
0.013611989 -0.02911282 0.010443656 0.015372141 0.012744476 0.014359088 -0.0031942767 0.021505479
0.0038612226 0.009176047 -0.024671365 0.00075163355 -0.00679072 0.0172518 3.65671e-05 0.0047177104
-0.002634696 0.008160844 0.0025058847 -0.008693099 0.011037377 0.011552993 -0.022191737 0.0015212522
-0.0066414275 0.024417663 0.017550072 -0.0007131155 -0.0021829575 -0.005075949 0.02301955 0.00935402
0.013885525 0.010118718 0.013786232 0.0036524534 -0.020526854 0.013428591 0.016611986 -0.012222022
0.02081139 0.0060239905 -0.0165927 0.006896562 -0.0056044078 -0.00064106804 0.0037453095 -0.011183022
0.006172479 -0.0018829188 -0.001772489 -0.013582606 -0.007610318 0.013355734 -0.0020308474 0.027870646
-0.00826102 0.020515738 0.017548775 0.019330889 0.009644166 0.001977872 -0.0044523817 -0.0031069568
0.010542998 -0.011973602 0.0067025404 0.010286487 -0.00965396 0.016311808 0.012033492 -0.0028308632
0.028176315 0.023006195 -0.007962317 0.034207743 0.018289948 0.009527268 0.02138989 0.007667913
0.006418616 -0.0057850573 -0.047159772 -0.0150648635 0.015823679 -0.0033652638 -0.015818292 0.00066595344
0.0073084068 0.002479829 0.004839748 0.024629725 0.019210136 0.008452242 0.012776571 0.014673147
-0.008906478 -0.018548086 0.022935499 0.018289905 -0.00039993538 0.015971672 0.010687407 0.012710954
0.013971502 0.0012608321 -0.01593275 -0.0025748068 -0.0122446325 -0.009853527 0.0054773306 -0.0047249184
0.01637434 -0.007333074 -0.017272612 0.018054519 0.013395581 0.00012452024 -0.010263643 -0.01271649
-0.04272688 0.005174768 0.009310807 0.010099071 0.0075601856 0.00591281 0.015186326 0.008181996
0.013953623 0.0022220938 0.015568535 0.007057626 -0.021606397 0.013509364 0.0076568145 0.0042844526

Const_4 f4 [81]
00000000: e64c b4bc 88fa c3bb 9d49 d53d 71c4 b23c
00000010: 6cf0 bbbc 1ba3 bd3c a17a 093d a7fb 1bbc
00000020: 04fe eabc 1de8 39bb b168 56bd 44a6 37bd
00000030: 7e9c 623d b3cd 493d ce46 acbb f904 9ebc
00000040: 33ca 003d 9b7e 74bc 1fcd e23c e1c3 fb3c
00000050: fe3b a2bb 3e79 34bc 89e3 29bc 84ca 0e3c
00000060: 8972 d6bc 1f86 7b3d d6b1 e03d e6b3 8e3d
00000070: 055f 483c 9853 4c3d a075 673d 0fcb a0bc
00000080: 76d6 36bd 74dd 853d 1804 633c d3ac 073c
00000090: 37ff 00bb 3720 64bd fb46 b43c 401b 583c
000000a0: 875f 02bc c307 e13c 289c 39bd 8c93 103d
000000b0: 87ea 2fbb 0b71 493c 944d 36bc bc51 0c3d
000000c0: d186 2abd 7de5 763d c6a0 05bd 07c4 983c
000000d0: fc63 583c 6728 4bbd 463d 513c 9f0c ba3d
000000e0: 08fc 85bc 6785 24bd 9d16 6c3d fc76 b5bb
000000f0: 3159 aabc 9b9b 3e3c caaa ef3b 3f84 64bc
00000100: f991 20bd 0be0 49bd 457e 853c f77c 553d
00000110: 5f60 ed3c 241a eb3b 2099 e7bb 25b0 80bd
00000120: 3584 f4bc 18ce aebc ccdf 073d 5a74 82bc
00000130: c311 d23c 0bce 903c c082 1abd dc2e d4bc
00000140: 8410 06bc
-0.022009324 -0.0059807934 0.10414431 0.021822186 -0.02294179 0.023149064 0.033564214 -0.009520448
-0.028685577 -0.002836711 -0.052345935 -0.044836298 0.055325024 0.049268436 -0.005257464 -0.01928948
0.031442832 -0.014922763 0.0276857 0.03073305 -0.0049509993 -0.0110152345 -0.01036919 0.008715276
-0.026177661 0.061407205 0.109714195 0.06967907 0.012229686 0.04988441 0.05650866 -0.019628076
-0.04463812 0.065363795 0.0138559565 0.008280951 -0.001968337 -0.055694785 0.022006502 0.013190091
-0.007957346 0.027469521 -0.045314938 0.03529696 -0.002684267 0.012295018 -0.0111268945 0.034257635
-0.041632477 0.06027745 -0.03262403 0.01864816 0.013207432 -0.049599078 0.012770956 0.090844385
-0.01635553 -0.040166285 0.057638753 -0.0055378657 -0.020794483 0.011633779 0.007314061 -0.013947546
-0.03920171 -0.04928593 0.016295562 0.05212113 0.028976617 0.007174747 -0.0070678145 -0.06283597
-0.029848197 -0.021338508 0.033172414 -0.015924621 0.025643235 0.017676374 -0.03772235 -0.02590125
-0.008182649
