models/TestA/main.pt (torch, 51991 bytes, 81 tensors)

startBlock.0.weight f4 [4, 4, 3, 3]
0.068955064 -0.09133815 0.08537308 -0.13056488 0.03925716 0.021129094 0.090419315 -0.06212499
-0.14081116 0.023278415 -0.06471842 -0.14416628 0.043014962 0.052127276 0.13145512 0.14867595
0.16191895 -0.1303512 0.12585454 -0.02758034 0.18106954 -0.05039729 0.1050521 0.07985736
0.13253881 0.015218906 0.0664484 0.06790099 -0.15905905 -0.0008941863 -0.09156935 -0.07737247
0.07389461 0.030076792 0.09313888 -0.020696493 0.037158117 0.06211762 -0.024706483 -0.11678044
-0.028960785 0.058317326 0.1644995 0.14718406 -0.10836134 0.12747778 0.1268622 0.11962153
-0.16939707 0.11441784 0.083466545 -0.12043301 -0.07487037 0.16037986 0.16810855 -0.010720503
-0.09829238 -0.14861615 -0.0025166266 0.16387972 0.12482199 0.06871905 -0.15511277 -0.10658292
0.112679005 0.032830022 -0.1683583 0.08521076 -0.057401337 0.04168622 -0.012456049 -0.0023471676
0.012689127 0.12764971 0.029565273 -0.020996457 0.12373044 0.13400926 0.08738508 -0.005921492
0.10515319 0.16784239 0.113113 0.14672677 0.036196493 0.030005211 0.080055155 0.06675513
0.12403327 -0.018274164 -0.09891156 0.18092632 -0.0014626343 -0.0830872 0.074158974 -0.13515103
-0.08956613 -0.13859391 -0.15918858 0.07722535 -0.013561856 0.016632125 0.049529985 -0.08424699
-0.11728219 0.118717074 0.06563828 0.07626316 -0.07082554 -0.060638472 0.10353957 0.021624023
-0.038499944 -0.06531315 0.06859201 -0.12277684 0.16752616 -0.122418426 0.00835558 0.029302306
-0.06995903 0.16447036 -0.036025625 -0.008540175 0.1841759 -0.08147243 -0.13600023 0.007922316
0.06278419 0.12337681 -0.13431469 0.105714045 0.07759456 -0.12075985 -0.14204063 -0.07455791
-0.014686013 0.033377193 0.0007337735 0.017067418 -0.03462016 0.1274133 0.088920094 -0.14143018
00000000: 5038 8d3d 7f0f bbbd 15d8 ae3d cdb2 05be
00000010: 1ecc 203d ec16 ad3c c32d b93d c676 7ebd
00000020: cd30 10be 60b2 be3c 178b 84bd 53a0 13be
00000030: 7530 303d 6983 553d 2c9c 063e 823e 183e
00000040: 15ce 253e c97a 05be 03e0 003e 2af0 e1bc
00000050: 4b6a 393e 646d 4ebd 8e25 d73d 418c a33d
00000060: 41b8 073e b858 793c 1916 883d ad0f 8b3d
00000070: 60e0 22be d467 6aba b688 bbbd 7575 9ebd
00000080: 0f56 973d 9b63 f63c 99bf be3d b18b a9bc
00000090: 1c33 183d 0c6f 7e3d 4065 cabc 952a efbd
000000a0: 2b3f edbc 26de 6e3d 8f72 283e 6bb7 163e
000000b0: 8dec ddbd 8989 023e 2ae8 013e 22fc f43d
000000c0: 6d76 2dbe e753 ea3d 82f0 aa3d 95a5 f6bd
000000d0: a355 99bd 9e3a 243e a624 2c3e 0ca5 2fbc
000000e0: 844d c9bd d52e 18be fded 24bb 16d0 273e
000000f0: aca2 ff3d 93bc 8c3d e2d5 1ebe 2548 dabd
00000100: 40c4 e63d c678 063d 1e66 2cbe fb82 ae3d
00000110: aa1d 6bbd 2bbf 2a3d 7514 4cbc f0d2 19bb
00000120: 0ee6 4f3c 9bb6 023e df32 f23c c300 acbc
00000130: 6366 fd3d b939 093e f3f6 b23d 1309 c2bb
00000140: 8e5a d73d e0de 2b3e caa7 e73d 8b3f 163e
00000150: c642 143d 7dcd f53c f5f3 a33d eab6 883d
00000160: 2805 fe3d b3b3 95bc 2592 cabd c044 393e
00000170: ddb5 bfba 9f29 aabd a9e0 973d 0865 0abe
00000180: 726e b7bd 90eb 0dbe 5502 23be 5328 9e3d
00000190: 8c32 5ebc 1840 883c f4df 4a3d b089 acbd
000001a0: a531 f0bd f021 f33d 5d6d 863d dc2f 9c3d
000001b0: fb0c 91bd 0c60 78bd 8e0c d43d dd24 b13c
000001c0: 1eb2 1dbd e7c2 85bd f879 8c3d 6d72 fbbd
000001d0: fa8b 2b3e 83b6 fabd d8e5 083c 640b f03c
000001e0: ae46 8fbd eb6a 283e 9b8f 13bd 17ec 0bbc
000001f0: 9b98 3c3e 04db a6bd a543 0bbe 9acc 013c
00000200: ff94 803d fbac fc3d ca89 09be 9b80 d83d
00000210: e6e9 9e3d f150 f7bd 1973 11be d1b1 98bd
00000220: 9a9d 70bc 86b6 083d b55a 403a f8d0 8b3c
00000230: decd 0dbd a278 023e bd1b b63d 13d3 10be

startBlock.0.bias f4 [4]
0.08104332 0.04356462 -0.010349647 -0.061802607
00000000: 0afa a53d d170 323d 9191 29bc bb24 7dbd

startBlock.1.weight f4 [4]
0.99546456 0.99478716 1.0247678 0.99142087
00000000: c4d6 7e3f 5faa 7e3f 972b 833f c2cd 7d3f

startBlock.1.bias f4 [4]
0.0023086206 0.013837028 0.03289146 -0.009870756
00000000: 3a4c 173b b4b4 623c 32b9 063d f4b8 21bc

startBlock.1.running_mean f4 [4]
0.22594984 0.14879896 0.10966099 -0.11948378
00000000: 655f 673e c15e 183e f195 e03d e9b3 f4bd

startBlock.1.running_var f4 [4]
0.043904364 0.04636324 0.0442413 0.03691805
00000000: 10d5 333d 61e7 3d3d 5e36 353d 6237 173d

backBone.0.conv1.weight f4 [4, 4, 3, 3]
0.10531421 -0.077997245 -0.13706718 0.05076581 0.12957545 0.038684893 0.11154817 0.0685555
-0.06846302 0.1115133 0.09602053 -0.056367185 0.19262603 0.09544685 -0.0011200861 -0.13629277
0.031596787 -0.14611487 -0.12509681 -0.003723848 -0.11799088 -0.0570937 0.12828782 -0.09542232
-0.023964211 0.08957837 0.14208336 0.1640703 0.06881194 0.002722254 -0.123020224 0.14868435
0.0978887 0.027233979 0.044084948 -0.0113408165 0.05991509 0.0054296297 0.13717248 0.15204751
0.12019333 0.16494854 -0.005246329 -0.13193071 -0.17408942 -0.1425501 -0.13008194 -0.1171922
0.0009890343 0.006769799 -0.0654139 -0.12609579 0.047540504 0.08371233 0.13198023 -0.027230645
0.007187742 0.13781683 -0.02061288 0.028410876 -0.07545317 0.09154736 0.17053813 0.14396583
0.019465536 -0.03336633 0.16092777 -0.005693946 0.029376116 0.012009936 -0.13585225 0.05100964
-0.024288518 0.10675281 -0.03743745 -0.16952409 0.14112736 0.0026244079 0.07299265 -0.00049077853
-0.07021241 0.12640746 -0.05566788 0.096870854 0.14706746 0.041794524 0.12578897 -0.10418618
-0.04994178 0.0386967 -0.032544825 0.092058904 0.11746931 0.027465738 -0.060283713 0.022573419
-0.11817181 -0.14534555 0.029252818 0.10747926 -0.13945931 -0.12295073 0.10259692 -0.09440952
0.09852674 0.14368345 -0.0681428 -0.115359634 -0.15427788 -0.13830847 -0.04375085 0.054736935
0.104582645 -0.13377343 -0.08418985 0.14089982 0.0329884 0.05309775 -0.064099886 -0.116057664
-0.03521392 -0.08610421 0.054081786 0.16373308 -0.007644767 -0.020262163 -0.1307013 0.10399928
0.0013741578 -0.12073644 0.015896603 -0.16801684 -0.05687284 -0.07701856 0.0040765307 0.014909446
-0.075540796 0.13046414 -0.11854203 0.026492633 0.12107144 -0.14209972 0.14468503 -0.08580596
00000000: faae d73d 05bd 9fbd 575b 0cbe cfef 4f3d
00000010: 6daf 043e 0d74 1e3d 5e73 e43d d366 8c3d
00000020: 5736 8cbd 1661 e43d 69a6 c43d 47e1 66bd
00000030: c23f 453e a379 c33d dacf 92ba 5590 0bbe
00000040: a26b 013d 239f 15be 6119 00be cd0b 74bb
00000050: 34a5 f1bd 15db 69bd e25d 033e c76c c3bd
00000060: 9850 c4bc dd74 b73d 4d7e 113e 0b02 283e
00000070: 46ed 8c3d d867 323b 07f2 fbbd b640 183e
00000080: df79 c83d cb19 df3c 6b92 343d d5ce 39bc
00000090: 8769 753d 09eb b13b f176 0c3e 58b2 1b3e
000000a0: ec27 f63d 45e8 283e 66e9 abbb d818 07be
000000b0: 7f44 32be a7f8 11be 3334 05be 7702 f0bd
000000c0: 7ca2 813a 31d5 dd3b b9f7 85bd 411f 01be
000000d0: d5b9 423d 5f71 ab3d d325 073e cd12 dfbc
000000e0: 2687 eb3b db1f 0d3e 58dc a8bc edbd e83c
000000f0: 3187 9abd 2f7d bb3d 8ca1 2e3e c76b 133e
00000100: 3076 9f3c 22ab 08bd 40ca 243e 4894 babb
00000110: 2ea6 f03c 53c5 443c da1c 0bbe 7cef 503d
00000120: b7f8 c6bc 38a1 da3d 0358 19bd b997 2dbe
00000130: b183 103e 42fe 2b3b 2c7d 953d 97a7 00ba
00000140: 86cb 8fbd f570 013e 0104 64bd 3a64 c63d
00000150: da98 163e bc30 2b3d d3ce 003e 905f d5bd
00000160: c08f 4cbd 6e80 1e3d b94d 05bd 6189 bc3d
00000170: c093 f03d d4ff e03c 0eec 76bd e4eb b83c
00000180: 1004 f2bd 77d5 14be 9ba3 ef3c 161e dc3d
00000190: 6cce 0ebe 98cd fbbd 561e d23d c759 c1bd
000001a0: 63c8 c93d c121 133e 748e 8bbd ac41 ecbd
000001b0: 05fb 1dbe bca0 0dbe 1734 33bd d633 603d
000001c0: 6d2f d63d e7fb 08be ba6b acbd 0b48 103e
000001d0: d81e 073d 077d 593d cd46 83bd a4af edbd
000001e0: 793c 10bd 6757 b0bd dd84 5d3d a5a9 273e
000001f0: f480 fabb d6fc a5bc 90d6 05be 93fd d43d
00000200: 161d b43a ab44 f7bd 9839 823c 9b0c 2cbe
00000210: 7ff3 68bd e8bb 9dbd 6b94 853b c046 743c
00000220: 22b5 9abd 6498 053e 2ac6 f2bd 1407 d93c
00000230: 4ef4 f73d 9782 11be 5028 143e 09bb afbd

backBone.0.conv1.bias f4 [4]
-0.05981286 -0.09075873 -0.001257949 -0.046048127
00000000: 54fe 74bd b7df b9bd c4e1 a4ba f69c 3cbd

backBone.0.bn1.weight f4 [4]
0.9902654 0.99936146 1.0204107 0.99117255
00000000: 0982 7d3f 27d6 7f3f d19c 823f 7cbd 7d3f

backBone.0.bn1.bias f4 [4]
-0.012191139 0.0063910717 0.026330126 -0.014007596
00000000: 58bd 47bc 326c d13b 47b2 d73c 1e80 65bc

backBone.0.bn1.running_mean f4 [4]
0.233188 0.10359851 0.06806893 -0.28443456
00000000: d6c8 6e3e 752b d43d b967 8b3d 68a1 91be

backBone.0.bn1.running_var f4 [4]
0.123343416 0.123360716 0.101991266 0.14768516
00000000: 799b fc3d 8ba4 fc3d cce0 d03d c73a 173e

backBone.0.conv2.weight f4 [4, 4, 3, 3]
-0.1427472 -0.083167896 -0.13294885 0.11882733 0.09382139 -0.06438117 0.0697636 -0.14612275
0.10534859 0.12659678 0.056766734 0.031230496 -0.03376208 -0.011833832 0.14565429 0.08074122
0.07971705 0.090085804 0.08871018 -0.052439824 0.086703084 0.13740245 -0.14532924 0.0583901
-0.076925665 -0.040060557 -0.042263605 0.055357672 0.09287111 0.04242568 -0.095805496 -0.12091954
-0.13092223 0.08411163 0.067366265 -0.11670003 0.10468508 0.13434479 0.018322272 -0.06168705
0.08977287 0.09394751 0.0629288 -0.12679186 0.1501921 0.12903932 -0.06953279 -0.14977726
-0.010379798 0.00085721666 -0.05746791 -0.14210114 -0.16108435 0.061131522 -0.06433995 0.15045956
-0.0074946303 -0.069488965 0.07873639 0.021724297 -0.114726104 0.016483193 -0.12500882 -0.17336816
0.15729997 -0.029411748 0.0023262727 0.048468407 0.11571808 0.09631973 -0.0711381 -0.0111821
-0.07010822 -0.03801317 0.06233169 0.046742737 0.12925042 -0.08907242 0.14553611 0.020934582
0.10769041 0.17376427 -0.1410392 0.09098672 -0.06230768 0.012848771 0.029003702 -0.0039837635
0.15885815 0.11177093 0.031576484 -0.103002496 -0.06496221 0.011785333 -0.11529191 0.029203957
0.10243357 0.09373387 -0.07167962 0.13758582 -0.011063778 0.12070368 -0.12144341 -0.10437092
0.01673569 -0.16150662 -0.13191935 -0.15374896 -0.13413535 0.0970002 0.008588993 0.13625664
-0.15572426 -0.15555538 -0.041688137 0.06487418 0.14975981 -0.14644663 0.064217806 -0.006823363
-0.04645194 0.015963625 -0.102878235 0.12432927 -0.12366 0.08984087 0.014164698 0.14783207
0.1494055 0.042531814 -0.17576095 0.015822737 -0.002979742 -0.094313495 -0.088279404 -0.16278426
-0.12022699 -0.0065029305 -0.031577248 0.10493519 -0.15246338 -0.14981753 -0.035246994 0.027101032
00000000: 522c 12be ee53 aabd be23 08be be5b f33d
00000010: 6e25 c03d 46da 83bd 38e0 8e3d 34a1 15be
00000020: 00c1 d73d 96a2 013e 3c84 683d 19d7 ff3c
00000030: 1b4a 0abd b0e2 41bc 6626 153e a75b a53d
00000040: b142 a33d e87e b83d afad b53d 24cb 56bd
00000050: 6391 b13d 3ab3 0c3e 30d1 14be 752a 6f3d
00000060: 348b 9dbd 8a16 24bd 9a1c 2dbd babe 623d
00000070: 3533 be3d 8dc6 2d3d ac35 c4bd aaa4 f7bd
00000080: 7a10 06be b842 ac3d 53f7 893d 6d00 efbd
00000090: 2265 d63d ae91 093e 9718 963c 8fab 7cbd
000000a0: d7da b73d 8d67 c03d d1e0 803d bad5 01be
000000b0: f5cb 193e e222 043e 3567 8ebd 365f 19be
000000c0: 0710 2abc d6b6 603a 7963 6bbd f682 11be
000000d0: 4cf3 24be 0c65 7a3d aac4 83bd 1212 1a3e
000000e0: 8495 f5bb 3b50 8ebd 8b40 a13d 27f7 b13c
000000f0: 85f5 eabd c307 873c 5002 00be 6c87 31be
00000100: 3e13 213e e8f0 f0bc 6174 183b cf86 463d
00000110: 9afd ec3d 4743 c53d dab0 91bd 2035 37bc
00000120: e694 8fbd b3b3 1bbd 844f 7f3d 5075 3f3d
00000130: 395a 043e 9a6b b6bd 6b07 153e 007f ab3c
00000140: ca8c dc3d 43ef 313e 946c 10be 3f57 ba3d
00000150: 5636 7fbd a783 523c 2c99 ed3c 3b8a 82bb
00000160: b6ab 223e 28e8 e43d 5856 013d f9f2 d2bd
00000170: e80a 85bd 4517 413c 2a1e ecbd 233d ef3c
00000180: b1c8 d13d 8bf7 bf3d c4cc 92bd 4ce3 0c3e
00000190: d944 35bc 7e33 f73d 53b7 f8bd 6cc0 d5bd
000001a0: 4919 893c fe61 25be de15 07be 5e70 1dbe
000001b0: c75a 09be 0aa8 c63d d9b8 0c3c dc86 0b3e
000001c0: 2e76 1fbe e949 1fbe 2ec1 2abd c1dc 843d
000001d0: a35a 193e 1bf6 15be a084 833d 8496 dfbb
000001e0: 6444 3ebd 26c6 823c d3b1 d2bd 58a0 fe3d
000001f0: 7441 fdbd 7dfe b73d 0d13 683c 4a61 173e
00000200: c1fd 183e d735 2e3d aefa 33be af9e 813c
00000210: c647 43bb 6f27 c1bd d5cb b4bd ebb0 26be
00000220: 9139 f6bd 8916 d5bb 2557 01bd 43e8 d63d
00000230: 5c1f 1cbe c469 19be 275f 10bd fc02 de3c

backBone.0.conv2.bias f4 [4]
-0.05367728 -0.07808611 -0.004273629 -0.10711485
00000000: b5dc 5bbd 9ceb 9fbd cc09 8cbb 085f dbbd

backBone.0.bn2.weight f4 [4]
0.9933918 1.0222367 0.99462473 0.9986978
00000000: ed4e 7e3f a7d8 823f ba9f 7e3f a9aa 7f3f

backBone.0.bn2.bias f4 [4]
0.0012130528 0.015738938 0.0021976265 0.014584169
00000000: 4cff 9e3a f2ee 803c 0e06 103b 70f2 6e3c

backBone.0.bn2.running_mean f4 [4]
0.0025341292 -0.04712962 0.06830612 -0.33422795
00000000: a213 263b fd0a 41bd 14e4 8b3d ed1f abbe

backBone.0.bn2.running_var f4 [4]
0.09517358 0.09719221 0.1512049 0.13990615
00000000: 5eea c23d b60c c73d 75d5 1a3e 8f43 0f3e

backBone.1.conv1.weight f4 [4, 4, 3, 3]
-0.14241296 -0.023810608 -0.063300766 -0.09169408 0.018264582 0.0697354 -0.07919045 -0.04853256
-0.09913921 0.0040674005 -0.117126726 0.09749633 -0.080929615 0.10650223 0.0013945985 0.026665226
-0.11845911 0.0894749 0.018698955 -0.11261424 0.050934136 0.031868752 0.03461011 -0.13399838
-0.1222295 0.024666958 -0.08492828 0.013244812 -0.08628901 -0.031149033 0.14897014 0.128803
-0.018360479 -0.1691333 -0.12911472 0.049430255 0.07024674 0.02645173 0.03545045 0.029069934
0.15380207 -0.07414409 -0.07910833 0.099993914 -0.03835409 0.040394947 0.14511667 -0.17015119
0.15821858 0.01133847 -0.18811226 -0.08221582 -0.12793629 -0.1557408 0.13865744 0.11836244
0.06754842 -0.13026553 -0.15723373 -0.015497126 -0.12798712 -0.056177903 -0.04974764 0.094855376
0.036900014 0.0060814153 -0.040867005 0.1041482 -0.108124234 -0.16945696 0.015110445 0.16417202
0.052352108 -0.09708698 0.14688124 0.02427607 0.04243885 -0.14632434 0.12485249 -0.016421253
-0.11075198 0.08842235 0.022777764 -0.09758938 0.16034234 -0.04129501 0.033367258 0.12784515
0.03576138 -0.07945215 0.16016012 -0.15016632 0.02753101 0.067174755 0.04062433 0.13380699
0.12225677 0.15155573 0.082717925 0.044312958 -0.077980824 0.14827624 0.020948322 0.069926456
0.08709557 0.11652697 0.0279451 -0.10540394 -0.10861646 0.15854771 0.058389615 0.13377464
-0.10173932 0.003389623 -0.14219472 0.008959919 0.09111531 0.12280152 -0.025512017 -0.012360053
0.111656174 0.031883486 0.14772733 0.030214889 0.06368022 -0.009631355 0.004041468 -0.06368145
0.013548027 0.09475503 -0.102890424 0.05165462 0.06158459 -0.027926056 0.17606446 0.007490908
0.16701357 0.008560392 0.13457695 0.081550874 0.12861331 -0.095059745 -0.06510124 0.0844085
00000000: b4d4 11be 770e c3bc d5a3 81bd 1bca bbbd
00000010: 9b9f 953c 6fd1 8e3d 9a2e a2bd 14ca 46bd
00000020: 8009 cbbd d447 853b 23e0 efbd 28ac c73d
00000030: 6dbe a5bd d71d da3d f6ca b63a 0871 da3c
00000040: b19a f2bd 9e3e b73d 8d2e 993c 4ba2 e6bd
00000050: 50a0 503d cf88 023d 55c3 0d3d df36 09be
00000060: 7653 fabd 5c12 ca3c e1ee adbd c500 593c
00000070: 4bb8 b0bd 422c ffbc a18b 183e efe4 033e
00000080: b768 96bc 4831 2dbe a636 04be 6177 4a3d
00000090: 86dd 8f3d 4cb1 d83c 7e34 113d 1224 ee3c
000000a0: 4a7e 1d3e dbd8 97bd 8c03 a2bd 9cc9 cc3d
000000b0: 2e19 1dbd 2c75 253d 7799 143e 1d3c 2ebe
000000c0: 0d04 223e fdc4 393c 80a0 40be c560 a8bd
000000d0: bb01 03be 847a 1fbe 37fc 0d3e 0268 f23d
000000e0: d356 8a3d 5464 05be e101 21be a8e7 7dbc
000000f0: 0e0f 03be cd1a 66bd 2ec4 4bbd 8943 c23d
00000100: 7824 173d 9c46 c73b 2964 27bd a74b d53d
00000110: 3d70 ddbd 2086 2dbe cd91 773c b61c 283e
00000120: 2a6f 563d 8ad5 c6bd 0968 163e 9cde c63c
00000130: 5cd4 2d3d 0cd6 15be aab2 ff3d dd85 86bc
00000140: efd1 e2bd c716 b53d 6f98 ba3c f1dc c7bd
00000150: c830 243e f524 29bd 1bac 083d d7e9 023e
00000160: 867a 123d cfb7 a2bd 0401 243e 33c5 19be
00000170: b688 e13c eb92 893d b365 263d b304 093e
00000180: c261 fa3d 6d31 1b3e 0468 a93d 8181 353d
00000190: 69b4 9fbd bad5 173e d19b ab3c 9a35 8f3d
000001a0: 2a5f b23d b1a5 ee3d 1fed e43c 05de d7bd
000001b0: 4e72 debd 555a 223e f329 6f3d 38fc 083e
000001c0: b45c d0bd 7024 5e3b 7e9b 11be a0cc 123c
000001d0: aa9a ba3d 5d7f fb3d 94fe d0bc d281 4abc
000001e0: feab e43d 4298 023d d545 173e 3785 f73c
000001f0: c66a 823d d5cc 1dbc 4a6e 843b 6c6b 82bd
00000200: 8bf8 5d3c ed0e c23d 37b8 d2bd cb93 533d
00000210: 1f40 7c3d 2fc5 e4bc 3e4a 343e 4a76 f53b
00000220: 9b05 2b3e e340 0c3c 8ace 093e 2504 a73d
00000230: 35b3 033e afae c2bd cd53 85bd 5dde ac3d

backBone.1.conv1.bias f4 [4]
-0.094358675 -0.0016245833 -0.055690326 -0.08855907
00000000: 1f3f c1bd f8ef d4ba 8a1b 64bd 755e b5bd

backBone.1.bn1.weight f4 [4]
1.0056531 0.98921263 1.0011201 0.999488
00000000: 3eb9 803f 0a3d 7d3f b424 803f 72de 7f3f

backBone.1.bn1.bias f4 [4]
0.012342983 0.013072573 -0.013019253 0.0027454128
00000000: 393a 4a3c 582e 563c b44e 55bc 62ec 333b

backBone.1.bn1.running_mean f4 [4]
-0.5262753 -0.10331779 0.5801192 0.53861856
00000000: fab9 06bf 4798 d3bd b182 143f e8e2 093f

backBone.1.bn1.running_var f4 [4]
0.30859625 0.35300824 0.46712908 0.27701533
00000000: 5400 9e3e 7fbd b43e 8b2b ef3e f4d4 8d3e

backBone.1.conv2.weight f4 [4, 4, 3, 3]
0.16273813 0.092406064 0.108547606 0.07267226 -0.0338091 0.12560906 0.09528083 0.0854091
0.07797023 0.018004093 0.0012279177 -0.06868119 0.026634818 0.16767779 0.13263355 -0.14368486
-0.11827621 -0.024248343 -0.18537223 0.12879314 -0.10190562 -0.059579447 -0.14242795 0.06809235
0.04194392 0.034671 -0.058811557 0.11656574 -0.12503041 0.06601783 0.05449245 -0.0772036
-0.022620566 -0.10613648 0.04398855 0.0063201324 -0.07336598 0.019436534 0.13905294 0.15833642
-0.008179236 -0.012977693 0.13032259 0.11158791 0.0022138974 -0.034731183 0.048114266 0.10359868
0.058535155 0.04023811 -0.13668932 -0.055810522 0.12613113 -0.14525898 0.02432056 0.113036774
0.039881665 0.1488941 -0.039010372 0.07687509 0.008658831 -0.03293961 0.13992564 -0.097322345
-0.10431882 -0.10791384 0.16844155 0.13342755 0.15162936 -0.13318998 0.049560696 -0.07678764
0.12556319 -0.038491283 0.048560377 0.1801386 0.142675 -0.02992867 -0.053229194 0.017418604
-0.07936736 0.09340012 0.04491239 0.063870884 0.090860024 0.08335266 -0.013694967 0.14173959
0.049311798 0.12389402 -0.0391198 -0.09330444 -0.11870281 0.0040456764 -0.062468465 0.13950242
0.10237689 -0.13526537 0.02047979 -0.051637035 0.13334954 -0.10389465 0.054532602 -0.15784018
-0.047907982 -0.0318788 -0.1587928 0.0056178533 0.0126030315 -0.0068070353 0.16617145 -0.06010742
-0.002817849 -0.12381945 0.132863 0.051190175 -0.029096082 0.038360987 -0.12877986 -0.03165753
-0.103153355 -0.016809259 -0.13126595 0.12891653 -0.1267493 0.07471809 -0.0043386603 -0.104696244
0.05736819 0.07181321 0.03412982 0.0091917515 -0.12256512 0.108849175 -0.033497725 -0.0031719913
-0.14418456 -0.14097194 0.15989712 -0.08522053 0.075047895 0.08590339 0.05359776 -0.022203099
00000000: d3a4 263e 643f bd3d 354e de3d 32d5 943d
00000010: 697b 0abd a99f 003e 9922 c33d f7ea ae3d
00000020: dbae 9f3d 527d 933c 15f2 a03a b9a8 8cbd
00000030: 4331 da3c bab3 2b3e 17d1 073e 2022 13be
00000040: cc3a f2bd 76a4 c6bc 38d2 3dbe 59e2 033e
00000050: e5b3 d0bd 9409 74bd a2d8 11be 0174 8b3d
00000060: 63cd 2b3d 2e03 0e3d 63e4 70bd 05ba ee3d
00000070: f907 00be 5b34 873d 7a33 5f3d ec1c 9ebd
00000080: c44e b9bc 155e d9bd 562d 343d 1d19 cf3b
00000090: e740 96bd 5e39 9f3c e563 0e3e f122 223e
000000a0: 3402 06bc 64a0 54bc 4973 053e 3488 e43d
000000b0: 0917 113b 4942 0ebd 7713 453d 8b2b d43d
000000c0: 8fc2 6f3d b7d0 243d 49f8 0bbe 9399 64bd
000000d0: 8528 013e c5be 14be e93b c73c d37f e73d
000000e0: f55a 233d b277 183e 57c9 1fbd b070 9d3d
000000f0: c5dd 0d3c afeb 06bd ab48 0f3e f050 c7bd
00000100: 1ba5 d5bd ee01 ddbd f17b 2c3e 3ba1 083e
00000110: ba44 1b3e f462 08be 2800 4b3d d742 9dbd
00000120: a393 003e 09a9 1dbd 3fe7 463d 4176 383e
00000130: 6519 123e f82c f5bc db06 5abd 76b1 8e3c
00000140: 5b8b a2bd 9048 bf3d 0ef6 373d bdce 823d
00000150: d214 ba3d cdb4 aa3d db60 60bc 2f24 113e
00000160: 2bfb 493d 26bc fd3d 153c 20bd 6616 bfbd
00000170: 751a f3bd 9891 843b efde 7fbd b9d9 0e3e
00000180: faaa d13d 0183 0abe 3cc5 a73c 5b81 53bd
00000190: c88c 083e b8c6 d4bd 945d 5f3d dba0 21be
000001a0: 293b 44bd 5893 02bd 949a 22be f815 b83b
000001b0: f27c 4e3c 8d0d dfbb d928 2a3e 3333 76bd
000001c0: a9ab 38bb 0d95 fdbd 3d0d 083e caac 513d
000001d0: e85a eebc 6920 1d3d dede 03be 54ab 01bd
000001e0: 1142 d3bd 92b3 89bc 956a 06be b202 043e
000001f0: 92ca 01be cc05 993d 522b 8ebb fc6a d6bd
00000200: e8fa 6a3d ce12 933d b6cb 0b3d 0099 163c
00000210: 6c03 fbbd 51ec de3d e934 09bd 2fe1 4fbb
00000220: 1ea5 13be f35a 10be 12bc 233e 1a88 aebd
00000230: b6b2 993d 1eee af3d 5389 5b3d 46e3 b5bc

backBone.1.conv2.bias f4 [4]
-0.100011006 -0.0006553641 0.09227688 -0.10274673
00000000: 92d2 ccbd becc 2bba a9fb bc3d e16c d2bd

backBone.1.bn2.weight f4 [4]
1.0008655 0.9764328 0.98975194 0.9868554
00000000: 5c1c 803f 80f7 793f 6260 7d3f 8ea2 7c3f

backBone.1.bn2.bias f4 [4]
-0.0030771908 0.01706354 0.0074003185 0.017793113
00000000: b2aa 49bb d6c8 8b3c 5f7e f23b ddc2 913c

backBone.1.bn2.running_mean f4 [4]
0.018232727 0.30072305 0.18655494 -0.17682144
00000000: cd5c 953c 5ff8 993e 4208 3f3e ae10 35be

backBone.1.bn2.running_var f4 [4]
0.1323592 0.09321081 0.0990192 0.083481774
00000000: 2c89 073e 4fe5 be3d 94ca ca3d 7ef8 aa3d

backBone.2.conv1.weight f4 [4, 4, 3, 3]
-0.16933273 -0.123841986 -0.041185305 0.03891995 -0.1468188 0.020345522 0.008281534 0.09809669
0.16232158 -0.1496433 -0.15573448 0.09256512 0.15493998 0.06898799 0.14897394 -0.12111418
0.13626543 0.14786078 -0.05337621 -0.028907008 -0.044376552 -0.11702938 -0.096043095 0.04480758
-0.07914718 0.12145128 -0.059156734 -0.0010014356 0.15835236 -0.13756499 -0.060780067 -0.175328
0.19152968 -0.10414791 0.15593657 -0.028914327 -0.14611602 0.029578028 0.11891371 0.12668306
0.054058693 -0.14704238 -0.030349901 0.15149218 -0.009246049 -0.10021331 0.1001992 -0.12164251
0.07500748 -0.01837809 -0.026095256 0.095594235 -0.06113301 -0.15904362 -0.092219055 0.16679195
-0.12961945 -0.14871772 0.18566586 0.028955018 0.17557664 -0.022757303 -0.016594557 0.028872514
-0.08516553 0.061946925 -0.07573993 0.052375548 -0.17345731 -0.12401706 -0.023671014 -0.123804934
0.13721584 0.08218831 0.112679355 -0.08619042 -0.15946527 0.038081583 -0.1449042 0.009999319
-0.1394429 0.01315088 -0.08448189 -0.1684564 -0.057771478 0.14296491 0.042655095 -0.060503457
0.016619386 -0.0211296 0.0052060387 0.0050956747 0.00927443 -0.036250196 -0.09944634 -0.07576424
0.029187534 -0.06915279 0.0043009124 0.06860001 0.079223886 0.028027691 -0.07524198 0.09636504
0.03004688 0.1320059 0.08129851 -0.14517125 -0.056140456 0.079527974 0.044316217 0.12608054
0.10880559 0.011460332 -0.13500175 -0.0075794035 0.06837667 -0.012449159 -0.096530676 -0.06043221
-0.051696155 -0.14585996 0.024939943 0.014117053 -0.11267706 0.017797535 -0.082473345 0.089560136
0.016792161 0.013175452 -0.020563995 0.11587081 0.02802851 0.06716663 -0.12505981 -0.009832025
0.0491452 0.030166408 0.048271906 0.12898271 -0.13109894 0.03696264 0.1364986 0.025194703
00000000: 8f65 2dbe dea0 fdbd ecb1 28bd 876a 1f3d
00000010: ab57 16be a7ab a63c 45af 073c ebe6 c83d
00000020: a137 263e 183c 19be dc78 1fbe c892 bd3d
00000030: 96a8 1e3e 9349 8d3d a08c 183e b60a f8bd
00000040: 2a89 0b3e d168 173e 03a1 5abd 64ce ecbc
00000050: 30c4 35bd 19ad efbd 3eb2 c4bd 2788 373d
00000060: eb17 a2bd 73bb f83d 554e 72bd 9a42 83ba
00000070: 1f27 223e d6dd 0cbe 85f4 78bd 2f89 33be
00000080: 5b20 443e 804b d5bd d6ad 1f3e bddd ecbc
00000090: 709f 15be 9f4d f23c 0889 f33d 34b9 013e
000000a0: a66c 5d3d 4792 16be 5ba0 f8bc c420 1b3e
000000b0: be7c 17bc a33c cdbd 3d35 cd3d b51f f9bd
000000c0: 869d 993d a68d 96bc b8c5 d5bc e9c6 c33d
000000d0: 9b66 7abd 55dc 22be 58dd bcbd 82cb 2a3e
000000e0: f6ba 04be 7549 18be 311f 3e3e 1333 ed3c
000000f0: 5dca 333e 866d babc 4ff1 87bc 0d86 ec3c
00000100: 446b aebd 0fbc 7d3d 891d 9bbd be87 563d
00000110: cb9e 31be a8fc fdbd b7e9 c1bc 718d fdbd
00000120: 4f82 0c3e 5852 a83d 6fc4 e63d 9a84 b0bd
00000130: dd4a 23be 6ffb 1b3d c461 14be 2fd4 233c
00000140: 1fca 0ebe ca76 573c d704 adbd d67f 2cbe
00000150: c9a1 6cbd 6565 123e 1cb7 2e3d 79d2 77bd
00000160: 6125 883c fc17 adbc 6b97 aa3b 9ef9 a63b
00000170: c7f3 173c 167b 14bd 86aa cbbd 482a 9bbd
00000180: b21a ef3c fa9f 8dbd abee 8c3b 297e 8c3d
00000190: 2240 a23d 549a e53c 7818 9abd 095b c53d
000001a0: e024 f63c 8e2c 073e d57f a63d c6a7 14be
000001b0: 89f3 65bd 90df a23d ec84 353d 421b 013e
000001c0: 77d5 de3d 1ec4 3b3c e63d 0abe a55c f8bb
000001d0: 1109 8c3d 8ff7 4bbc e0b1 c5bd c487 77bd
000001e0: 59bf 53bd 505c 15be da4e cc3c 364b 673c
000001f0: 3bc3 e6bd 23cc 913c c9e7 a8bd 4e6b b73d
00000200: b78f 893c dadd 573c d375 a8bc ad4d ed3d
00000210: 0c9c e53c a88e 893d ae0f 00be 8016 21bc
00000220: 7a4c 493d 8b1f f73c c3b8 453d 0b14 043e
00000230: cd3e 06be 2366 173d 4ac6 0b3e 1f65 ce3c

backBone.2.conv1.bias f4 [4]
-0.10665093 8.474736e-05 -0.106380984 -0.1054068
00000000: ce6b dabd 64ba b138 46de d9bd 85df d7bd

backBone.2.bn1.weight f4 [4]
1.0279192 0.9953742 0.9757818 0.99860775
00000000: db92 833f d8d0 7e3f d6cc 793f c2a4 7f3f

backBone.2.bn1.bias f4 [4]
0.022635654 0.009967383 -0.010907889 -0.0048306566
00000000: 686e b93c 3c4e 233c 01b7 32bc 7c4a 9ebb

backBone.2.bn1.running_mean f4 [4]
-0.121362284 -0.15401404 -0.32984895 0.04154195
00000000: ca8c f8bd dbb5 1dbe f6e1 a8be e427 2a3d

backBone.2.bn1.running_var f4 [4]
0.72416985 0.37323868 0.2617975 0.21815014
00000000: 3263 393f 2419 bf3e 520a 863e c062 5f3e

backBone.2.conv2.weight f4 [4, 4, 3, 3]
0.030653406 -0.042466126 0.12523782 -0.1539606 -0.03304329 0.10959418 0.12715216 -0.11738636
0.016264105 0.011253623 -0.072688766 -0.16090885 0.102750205 -0.0020233411 0.044007044 -0.004089417
0.04543733 -0.038228408 0.124883704 0.081695326 0.082969815 0.03568501 -0.117687196 0.07338222
-0.011106203 0.113060884 0.14271533 0.0030399072 0.116137214 0.1312247 -0.15857847 0.12105366
0.14061281 0.123727486 0.045729432 0.096530154 0.17378403 -0.08179734 -0.07867991 0.13005462
0.09553433 -0.109190874 0.12749761 -0.073039785 -0.033634342 0.0033379088 0.17991273 -0.11469245
0.064158954 0.038822267 -0.04597094 0.06463781 -0.14448646 0.05252226 -0.16845556 0.117767006
0.019321876 -0.028703185 -0.12928246 -0.010785555 -0.04264352 0.017283365 0.013942656 -0.1160495
0.058517475 0.11350204 -0.018197097 0.050045334 -0.02622871 0.09220499 0.07162222 -0.1730844
-0.14834288 -0.099002905 -0.13301201 0.07098755 0.07720113 -0.11724413 0.16202228 -0.15727437
-0.050228897 0.13078323 -0.13972016 -0.11006671 -0.05656014 -0.12497833 -0.07529475 -0.09132214
-0.17489718 0.033158418 -0.102092676 0.034482066 0.09190884 -0.11258592 -0.010154296 -0.14125496
0.15423739 -0.07450001 0.115476705 0.14375715 -0.10918924 0.052987106 -0.09683386 0.12616277
-0.091380335 -0.027266731 0.074280545 -0.14945629 -0.057190504 -0.1323267 -0.17489922 0.01581807
-0.00077060197 -0.020978251 -0.03618207 -0.06659329 0.09430652 -0.16504332 0.13149321 -0.016946224
-0.078755364 0.07938984 -0.0578704 0.085931 -0.01740834 -0.15658554 0.12188899 0.03618774
0.016155368 -0.07018257 -0.06509349 -0.011606077 -0.007784324 0.052120097 -0.15414888 -0.0053050146
0.13017671 -0.18944965 0.010721005 -0.0861117 0.03992394 -0.14393185 -0.010903085 0.058972586
00000000: da1c fb3c f6f0 2dbd 583e 003e d9a7 1dbe
00000010: 6758 07bd ea72 e03d 2d34 023e 4368 f0bd
00000020: 4d3c 853c 1e61 383c d9dd 94bd 4ac5 24be
00000030: b36e d23d 089a 04bb bb40 343d 8400 86bb
00000040: 7e1c 3a3d 6495 1cbd 07c3 ff3d e14f a73d
00000050: 14ec a93d 722a 123d fc05 f1bd 6b49 963d
00000060: cbf6 35bc 778c e73d f823 123e 2e39 473b
00000070: 59d9 ed3d c55f 063e 6562 22be fbea f73d
00000080: cefc 0f3e d664 fd3d c94e 3b3d 9ab1 c53d
00000090: 71f4 313e 5d85 a7bd ef22 a1bd 0a2d 053e
000000a0: 81a7 c33d 779f dfbd bc8e 023e e295 95bd
000000b0: 2ac4 09bd d1c0 5a3b 0b3b 383e e0e3 eabd
000000c0: c565 833d 1904 1f3d 064c 3cbd d460 843d
000000d0: 42f4 13be 9521 573d 9d7f 2cbe d42f f13d
000000e0: e948 9e3c f122 ebbc 9f62 04be e5b5 30bc
000000f0: f9aa 2ebd d895 8d3c bd6f 643c 5cab edbd
00000100: 05b0 6f3d c273 e83d 1412 95bc 56fc 4c3d
00000110: 97dd d6bc f8d5 bc3d acae 923d 093d 31be
00000120: 32e7 17be 09c2 cabd 4d34 08be ec61 913d
00000130: a01b 9e3d b11d f0bd 2be9 253e 880c 21be
00000140: d1bc 4dbd 0aec 053e cd12 0fbe a86a e1bd
00000150: 9bab 67bd a4f4 ffbd 2234 9abd 1a07 bbbd
00000160: 3f18 33be 1fd1 073d f715 d1bd 113d 0d3d
00000170: b43a bc3d 7293 e6bd 345e 26bc 24a5 10be
00000180: 68f0 1d3e 7693 98bd 0d7f ec3d 1335 133e
00000190: 9c9e dfbd 0209 593d d550 c6bd d030 013e
000001a0: 9d25 bbbd 7b5e dfbc 6620 983d 120b 19be
000001b0: 9740 6abd a780 07be c818 33be e694 813c
000001c0: 3902 4aba 95da abbc a633 14bd 1062 88bd
000001d0: c723 c13d 1e01 29be 28a6 063e cfd2 8abc
000001e0: 7e4a a1bd 2497 a23d 8309 6dbd 98fc af3d
000001f0: ef9b 8ebc f657 20be efa0 f93d 9839 143d
00000200: 4358 843c e1bb 8fbd bc4f 85bd 6a27 3ebc
00000210: a513 ffbb e27b 553d 34d9 1dbe b0d5 adbb
00000220: 0b4d 053e 17ff 41be 27a7 2f3c 555b b0bd
00000230: 4987 233d df62 13be daa2 32bc 3d8d 713d

backBone.2.conv2.bias f4 [4]
0.024712479 0.10617726 0.099440165 0.06959594
00000000: d371 ca3c 7773 d93d 49a7 cb3d 5188 8e3d

backBone.2.bn2.weight f4 [4]
0.98054284 1.0063355 1.0286071 0.9988564
00000000: db04 7b3f 9acf 803f 66a9 833f 0eb5 7f3f

backBone.2.bn2.bias f4 [4]
-0.013018397 0.009785115 0.009406784 0.012468752
00000000: 1d4b 55bc bf51 203c e91e 1a3c bd49 4c3c

backBone.2.bn2.running_mean f4 [4]
0.28393754 0.18051621 -0.23780315 -0.17379774
00000000: 4360 913e 3ed9 383e ab82 73be 09f8 31be

backBone.2.bn2.running_var f4 [4]
0.086174086 0.09560456 0.111183956 0.09319767
00000000: 0a7c b03d 53cc c33d 6ab4 e33d 6cde be3d

backBone.3.conv1.weight f4 [4, 4, 3, 3]
0.14056443 0.060960867 -0.031488482 -0.09186394 -0.13078631 -0.026787106 -0.055385776 0.15874866
-0.13426596 -0.004783721 -0.03645755 -0.123037405 -0.041682724 0.04407578 -0.09393858 0.10278093
0.053444326 0.083673246 0.08347764 -0.024890898 0.023047723 0.030150443 0.0952497 -0.16523722
-0.030314783 -0.12209078 0.09019683 -0.16496946 0.13473734 -0.1559964 0.19562264 0.045481917
0.008098827 -0.033899393 0.09708621 0.08462992 0.078642465 -0.00016876397 -0.032492224 -0.117653094
-0.011280487 -0.044987675 -0.06453315 -0.056520853 -0.062499862 -0.06253375 0.066959284 0.017708404
-0.012329679 -0.13968818 0.1528083 -0.10790886 -0.12060499 0.10413052 0.12792277 -0.09977179
0.00039255078 -0.04678997 0.16643396 -0.05087862 -0.076263845 0.14085677 -0.12796292 -0.11315824
0.1312348 0.0158895 0.12039842 -0.028962266 -0.17243539 -0.028371453 0.1293312 -0.002367958
-0.068778194 0.11897681 -0.12819657 -0.11275472 0.028773343 0.14281131 -0.06418574 -0.03939159
-0.08216491 -0.04679598 0.08742708 0.013337303 0.00023874643 0.0018793126 -0.17808732 -0.15360585
0.07399527 0.058159713 -0.1026621 0.07363442 -0.0060841567 0.06847685 -0.13868172 0.09907872
-0.069583274 -0.113174 -0.05273558 0.15034579 0.14476037 -0.07923935 0.11895923 -0.0577021
0.050021335 0.1281453 0.06998703 0.04247552 -0.081151895 -0.038562685 -0.13402385 0.13706128
0.05610753 0.11205019 0.05036376 -0.06700494 0.12667422 0.058052547 -0.055036884 -0.13173237
0.0787838 0.16718127 0.082001336 -0.0013480441 0.0341937 -0.18672377 -0.14043865 -0.12876056
0.094211124 0.08542349 0.05698154 0.024850463 0.025454253 -0.082414195 0.06819311 -0.12977056
0.08828516 0.08423458 -0.16062996 0.12783296 -0.100275576 -0.09512982 0.08343488 -0.05226004
00000000: 1ff0 0f3e 1ab2 793d 11fa 00bd 2923 bcbd
00000010: d9ec 05be a270 dbbc 32dc 62bd 028f 223e
00000020: 047d 09be c3c0 9cbb 8354 15bd 09fb fbbd
00000030: 81bb 2abd ce88 343d df62 c0bd cf7e d23d
00000040: 70e8 5a3d e15c ab3d 53f6 aa3d ffe7 cbbc
00000050: 94ce bc3c 10fe f63c 4612 c33d f233 29be
00000060: b556 f8bc bb0a fabd 1eb9 b83d c1ed 28be
00000070: 96f8 093e 85bd 1fbe 4d51 483e 3f4b 3a3d
00000080: f1b0 043c 17da 0abd 23d5 c63d 7452 ad3d
00000090: 4d0f a13d 3cf6 30b9 9116 05bd 1bf4 f0bd
000000a0: cbd1 38bc ff44 38bd f529 84bd 6982 67bd
000000b0: dbff 7fbd b211 80bd f321 893d 3711 913c
000000c0: 6c02 4abc 6b0a 0fbe c779 1c3e 52ff dcbd
000000d0: c0ff f6bd 6242 d53d 30fe 023e 2755 ccbd
000000e0: 46cf cd39 d7a6 3fbd aa6d 2a3e 1a66 50bd
000000f0: 3830 9cbd c23c 103e b608 03be 82bf e7bd
00000100: 6a62 063e b22a 823c 7293 f63d 4642 edbc
00000110: e792 30be 406b e8bc 666f 043e be2f 1bbb
00000120: 95db 8cbd 1daa f33d f645 03be f2eb e6bd
00000130: 13b6 eb3c 213d 123e d073 83bd 1359 21bd
00000140: 1446 a8bd 24ad 3fbd f80c b33d b484 5a3c
00000150: 0258 7a39 4453 f63a 865c 36be da4a 1dbe
00000160: d58a 973d e138 6e3d 8240 d2bd a5cd 963d
00000170: 9b5d c7bb 973d 8c3d 9502 0ebe c9e9 ca3d
00000180: ad81 8ebd c5c7 e7bd 4301 58bd 3ff4 193e
00000190: 103c 143e 3e48 a2bd e6a0 f33d 0a59 6cbd
000001a0: 2ce3 4c3d 8638 033e 5c55 8f3d d0fa 2d3d
000001b0: f732 a6bd e8f3 1dbd 8c3d 09be cb59 0c3e
000001c0: 02d1 653d 927a e53d 3b4a 4e3d e339 89bd
000001d0: e3b6 013e 82c8 6d3d 5b6e 61bd dae4 06be
000001e0: 6759 a13d 9131 2b3e 51f0 a73d dbb0 b0ba
000001f0: b10e 0c3d 8434 3fbe 26cf 0fbe cfd9 03be
00000200: c3f1 c03d 83f2 ae3d 7a65 693d 3393 cb3c
00000210: 7085 d03c c6c8 a8bd d4a8 8b3d 93e2 04be
00000220: dace b43d 2e83 ac3d 2e7c 24be a5e6 023e
00000230: 485d cdbd 6cd3 c2bd e8df aa3d a00e 56bd

backBone.3.conv1.bias f4 [4]
0.0010455349 -0.034609817 -0.07271512 0.047950845
00000000: 540a 893a 06c3 0dbd aaeb 94bd 1b68 443d

backBone.3.bn1.weight f4 [4]
1.0036143 0.9677988 1.0097388 0.99868387
00000000: 6f76 803f aac1 773f 1f3f 813f bfa9 7f3f

backBone.3.bn1.bias f4 [4]
-0.0168273 -0.03477311 0.011736907 0.018311894
00000000: 68d9 89bc 406e 0ebd 284c 403c d302 963c

backBone.3.bn1.running_mean f4 [4]
0.04135077 -0.24645671 -0.21600802 0.32696128
00000000: 6d5f 293d 265f 7cbe 3531 5dbe 7867 a73e

backBone.3.bn1.running_var f4 [4]
0.54049253 0.3875058 0.32771814 0.375026
00000000: b85d 0a3f 2967 c63e acca a73e 6803 c03e

backBone.3.conv2.weight f4 [4, 4, 3, 3]
0.004198194 0.06128016 -0.032524526 0.13203931 0.106994115 -0.049943876 -0.17780402 -0.13649586
-0.09793468 0.06100283 -0.051063523 -0.051502455 0.04551177 -0.055656 0.06842934 -0.06340603
0.06863718 0.120865844 -0.10740062 -0.17200075 -0.010769978 -0.035158906 -0.09473268 0.05468556
-0.10625474 0.11525401 0.15863359 -0.15453224 -0.20224066 -0.011112832 -0.14095652 0.014264951
0.12401424 0.077788234 0.033326685 0.1431395 0.15086733 0.13912289 0.09025302 0.046545208
0.0012504115 -0.0489337 0.005944948 0.11707472 0.114890024 -0.023663646 -0.108041726 -0.10282261
0.011851804 0.018055338 0.10250779 -0.008624617 -0.09944311 0.07409368 0.07910811 -0.019774517
0.12739284 -0.04263759 -0.025440598 -0.10737709 -0.010550925 0.10818252 -0.18051024 -0.068075694
-0.06644004 0.05067505 0.07686509 0.008967342 -0.07843853 0.11966536 0.17200217 -0.120409615
-0.05168065 0.029477894 0.13749489 0.083803676 0.004262437 0.14812775 -0.07878833 0.046796206
0.083608225 0.13664691 0.054311212 -0.019271547 -0.07993765 -0.15804134 -0.02276138 0.068189524
0.14188527 0.14142592 0.082632996 -0.13486364 -0.030697374 -0.15011345 -0.027449338 0.023206865
0.00955068 -0.17793429 -0.08023943 -0.028221983 -0.04085174 0.00018833284 -0.11530644 0.0794559
0.09885549 0.09283852 -0.14680825 0.044698875 0.01344891 -0.018849274 0.095034905 0.15111135
0.15291011 0.03328707 -0.0634821 -0.11918425 -0.11010598 0.07353282 -0.13478784 -0.14032471
0.01028217 -0.06922833 0.10596642 0.1524631 -0.0018747561 -0.06550976 -0.07816097 -0.048381753
-0.18507032 -0.14483012 -0.142708 0.15168996 -0.1501554 0.03449918 0.07447765 0.04664997
-0.011149222 0.1152391 0.14542826 0.024032984 0.06313338 0.024800086 -0.06104289 0.0038276752
00000000: 0191 893b e800 7b3d 7038 05bd 5035 073e
00000010: bb1f db3d f391 4cbd 4212 36be 92c5 0bbe
00000020: fa91 c8bd 1ade 793d fc27 51bd 3df4 52bd
00000030: 8d6a 3a3d 8cf7 63bd af24 8c3d 05db 81bd
00000040: a691 8c3d 8388 f73d dbf4 dbbd f720 30be
00000050: 9074 30bc c902 10bd 3503 c2bd f7fd 5f3d
00000060: 169c d9bd 4b0a ec3d d870 223e b33d 1ebe
00000070: 2d18 4fbe 9912 36bc e856 10be 8bb7 693c
00000080: 2efb fd3d 704f 9f3d 9081 083d 2993 123e
00000090: f77c 1a3e 3b76 0e3e 93d6 b83d 30a6 3e3d
000000a0: d9e4 a33a b46e 48bd d7cd c23b dfc4 ef3d
000000b0: 764b eb3d 43da c1bc fb44 ddbd a994 d2bd
000000c0: 122e 423c cae8 933c 9bef d13d 444e 0dbc
000000d0: d4a8 cbbd 6dbe 973d 6f03 a23d 2bfe a1bc
000000e0: 4573 023e c1a4 2ebd cd68 d0bc 85e8 dbbd
000000f0: c9dd 2cbc cc8e dd3d add7 38be 456b 8bbd
00000100: b711 88bd a490 4f3d 726b 9d3d c2eb 123c
00000110: 61a4 a0bd 1d13 f53d 5621 303e 5199 f6bd
00000120: 17af 53bd a07b f13c 76cb 0c3e 43a1 ab3d
00000130: eaab 8b3b cdae 173e c75b a1bd 61ad 3f3d
00000140: ca3a ab3d 2bed 0b3e 6f75 5e3d 5ddf 9dbc
00000150: 5ab6 a3bd 97d5 21be 1376 babc f3a6 8b3d
00000160: 5f4a 113e f5d1 103e 7d3b a93d b219 0abe
00000170: 0f79 fbbc 57b7 19be 6fdd e0bc 531c be3c
00000180: 757a 1c3c 6834 36be 9254 a4bd ca31 e7bc
00000190: 2754 27bd 367b 4539 c825 ecbd c6b9 a23d
000001a0: bf74 ca3d 1f22 be3d e754 16be 2b16 373d
000001b0: d158 5c3c cb69 9abc a9a1 c23d efbc 1a3e
000001c0: 7894 1c3e 0658 083d e702 82bd df16 f4bd
000001d0: 3e7f e1bd 6098 963d d305 0abe 48b1 0fbe
000001e0: 8c76 283c 95c7 8dbd ec04 d93d 491f 1c3e
000001f0: 60ba f5ba fb29 86bd dc12 a0bd f22b 46bd
00000200: 1383 3dbe 594e 14be 0c22 12be 9d54 1b3e
00000210: 56c2 19be 034f 0d3d bd87 983d 0a14 3f3d
00000220: 3aab 36bc 7a02 ec3d 25eb 143e d2e0 c43c
00000230: 134c 813d 8d29 cb3c 1c08 7abd bcd9 7a3b

backBone.3.conv2.bias f4 [4]
-0.0036189535 -1.2210439e-05 -0.058890678 0.00044632013
00000000: f72b 6dbb 70db 4cb7 5a37 71bd 1300 ea39

backBone.3.bn2.weight f4 [4]
1.0016215 1.0038048 0.993565 0.998715
00000000: 2235 803f ad7c 803f 475a 7e3f c9ab 7f3f

backBone.3.bn2.bias f4 [4]
-0.0073114447 0.007369142 0.018249132 -0.025551423
00000000: d894 efbb d878 f13b 347f 953c 3851 d1bc

backBone.3.bn2.running_mean f4 [4]
-0.06750493 0.11890932 -0.03759658 0.023411876
00000000: 0640 8abd bb86 f33d dffe 19bd 43ca bf3c

backBone.3.bn2.running_var f4 [4]
0.10801619 0.10547122 0.07194962 0.08608305
00000000: 9837 dd3d 4c01 d83d 535a 933d 4f4c b03d

backBone.4.conv1.weight f4 [4, 4, 3, 3]
-0.15232794 -0.067744106 0.085822985 0.1149548 -0.07444337 -0.057869766 0.15847594 -0.155667
0.10542733 -0.041923773 0.03858339 0.06756876 0.10933634 0.09280336 -0.14353265 0.0072506554
-0.0077473316 0.13411622 0.0783102 -0.18055376 -0.16934395 -0.009485578 0.13274732 0.10941904
0.016837701 0.04866153 -0.0963621 -0.058468267 0.08755542 0.079000495 0.14310656 0.14098948
0.1099122 0.051644955 0.14039011 -0.13562335 -0.14564082 0.14130725 0.0049967812 0.04181704
0.050991993 0.04132932 0.11157742 0.12783031 -0.061658625 0.092306234 0.13062082 0.07040647
-0.054487992 0.0024943328 0.09822468 -0.09661226 -0.10883875 -0.057109255 -0.045548376 -0.16148359
0.011025489 0.048539504 0.03332646 0.08532805 -0.11244982 -0.077060334 0.14850368 0.11472536
-0.15591168 -0.11032767 -0.16382286 0.08519763 0.16817479 -0.14590606 -0.020960402 -0.021873074
-0.051081784 0.030272914 -0.101182766 0.107369214 -0.12016593 0.07186497 0.16515386 0.047020823
-0.11704983 0.14321803 0.036504235 -0.10532657 -0.17617103 0.040360767 -0.11107254 0.011104318
-0.08210635 0.1526652 -0.07214183 0.086204745 0.19698575 -0.04049358 -0.072964735 -0.051682997
-0.15447593 -0.019053072 0.13068455 0.008697592 -0.09093635 0.08237919 -0.12549062 -0.022762913
0.01421584 0.0673164 0.13288286 -0.12718822 -0.14236501 -0.039278597 0.08754369 0.004332502
-0.059527036 -0.03569646 0.002695288 -0.17529207 -0.10977411 0.18476732 0.14290889 -0.1006763
-0.05172032 -0.05866972 -0.018858897 0.02252824 -0.11586204 -0.102939345 0.08078183 -0.03145225
-0.1510269 0.07761319 0.10015638 0.13622217 0.15483813 -0.1087305 -0.15185553 -0.032158718
-0.11355659 -0.082147315 0.12681481 0.096674174 -0.068796664 0.14302388 -0.137282 -0.07908409
00000000: dbfb 1bbe 6cbd 8abd f6c3 af3d 6c6d eb3d
00000010: c475 98bd d908 6dbd 8447 223e 2c67 1fbe
00000020: 49ea d73d 43b8 2bbd 9e09 1e3d 7d61 8a3d
00000030: bbeb df3d b00f be3d 39fa 12be e896 ed3b
00000040: 54dd fdbb c355 093e 1961 a03d 16e3 38be
00000050: 8068 2dbe 6669 1bbc eaee 073e 1717 e03d
00000060: 38ef 893c 5051 473d 7e59 c5bd 6c7c 6fbd
00000070: 4250 b33d 03cb a13d 878a 123e 8c5f 103e
00000080: a619 e13d a989 533d 6dc2 0f3e d9e0 0abe
00000090: de22 15be d9b2 103e 0abc a33b 5848 2b3d
000000a0: fbdc 503d ef48 293d b482 e43d f3e5 023e
000000b0: c18d 7cbd 0d0b bd3d 77c1 053e 4431 903d
000000c0: cd2e 5fbd f677 233b 052a c93d a6dc c5bd
000000d0: dae6 debd 65eb 69bd ef90 3abd f45b 25be
000000e0: 41a4 343c 5cd1 463d 5381 083d 79c0 ae3d
000000f0: 174c e6bd cfd1 9dbd 5911 183e 21f5 ea3d
00000100: 50a7 1fbe 79f3 e1bd 2ec1 27be 187c ae3d
00000110: 0336 2c3e 6668 15be 26b5 abbc 292f b3bc
00000120: 223b 51bd e7fe f73c e938 cfbd 64e4 db3d
00000130: 8e19 f6bd f12d 933d 181e 293e e898 403d
00000140: d2b7 efbd bfa7 123e 7785 153d 75b5 d7bd
00000150: 2e66 34be 5551 253d 007a e3bd e3ee 353c
00000160: 6027 a8bd 4454 1c3e 19bf 93bd 1d8c b03d
00000170: a2b6 493e 99dc 25bd 896e 95bd 8db1 53bd
00000180: f02e 1ebe 3015 9cbc 2cd2 053e 5880 0e3c
00000190: d63c babd 6cb6 a83d 9d80 00be 4a79 babc
000001a0: 8ee9 683c 2edd 893d 7212 083e a13d 02be
000001b0: 22c8 11be 98e2 20bd 1b4a b33d a9f7 8d3b
000001c0: 9fd2 73bd 7436 12bd 6ea3 303b c47f 33be
000001d0: 40d1 e0bd a533 3d3e b556 123e 602f cebd
000001e0: b0d8 53bd a94f 70bd f97d 9abc 258d b83c
000001f0: 1449 edbd ddd1 d2bd f270 a53d 13d4 00bd
00000200: cca6 1abe aaf3 9e3d ca1e cd3d d37d 0b3e
00000210: e38d 1e3e 19ae debd 0480 1bbe dcb8 03bd
00000220: 5c90 e8bd da3c a8bd bedb 013e 1cfd c53d
00000230: 44e5 8cbd da74 123e a793 0cbe d7f6 a1bd

backBone.4.conv1.bias f4 [4]
0.07334844 0.0022625485 -0.00015325972 0.07268148
00000000: b537 963d 4447 143b 58b4 20b9 07da 943d

backBone.4.bn1.weight f4 [4]
0.99662703 1.019501 0.99354655 0.9916499
00000000: f322 7f3f 027f 823f 1159 7e3f c5dc 7d3f

backBone.4.bn1.bias f4 [4]
0.027534291 0.012896657 -0.013843855 -0.025519416
00000000: 988f e13c 804c 533c 56d1 62bc 180e d1bc

backBone.4.bn1.running_mean f4 [4]
0.8402389 0.3157294 -0.16858172 -0.53695923
00000000: e619 573f 49a7 a13e b0a0 2cbe 2976 09bf

backBone.4.bn1.running_var f4 [4]
1.1681544 0.7709921 0.41374394 1.1386967
00000000: 1586 953f bd5f 453f 3fd6 d33e d0c0 913f

backBone.4.conv2.weight f4 [4, 4, 3, 3]
-0.1392385 0.058353547 0.031044811 0.14106122 0.06389084 0.1491749 0.041847765 -0.049598604
-0.08607389 0.026370242 0.058586594 -0.14440875 -0.013807706 -0.15168986 0.0051126545 -0.053463444
-0.0070732357 0.16457425 -0.053210005 0.022997033 -0.1341481 -0.13051434 -0.056227293 -0.12455719
-0.074541524 -0.023119478 0.023396144 -0.037090845 -0.16272745 -0.10786599 -0.16505337 0.15439539
-0.19075076 -0.118450835 0.13858451 -0.054986667 0.12264002 -0.060617514 -0.10193258 -0.059242617
0.14258115 -0.102548376 -0.06886929 -0.028140955 0.033718415 -0.047936723 0.16650791 -0.11097933
-0.11959488 -0.12093416 -0.08050742 0.034850575 0.09994802 0.16821477 0.13827655 0.021164075
-0.057172235 -0.09925927 0.062401902 -0.07191828 -0.07083423 -0.1018876 0.06733753 0.016840544
0.14214942 -0.084253065 0.096896686 0.16512315 -0.10179998 -0.014457373 -0.07278563 0.105909236
-0.0069518248 -0.11101892 -0.0008696264 0.014695874 0.07635833 0.15824103 0.15366644 0.04207615
0.08110153 -0.02277026 0.024594838 0.022703571 -0.042010773 -0.120469674 -0.138293 0.1068059
0.01734665 -0.07998789 -0.1413855 -0.08071054 -0.1645961 0.1751414 0.053307712 0.11661257
0.048392978 -0.14694113 0.11484109 0.032497365 0.13715604 -0.043130822 0.12221529 0.08650031
-0.016269367 0.045220025 -0.11991334 -0.035859015 -0.098376974 0.046162736 0.15092564 0.0044579064
0.0025230744 0.16091934 -0.16621596 0.14699286 -0.040638275 -0.0026980613 0.11715067 0.12948391
0.08824944 0.009882439 0.11451249 -0.09151716 0.030404467 0.15809864 0.114875436 -0.121769376
0.03232837 -0.17643017 -0.071262814 0.1272756 -0.09488733 0.16097088 -0.038643405 0.13379268
0.11506053 -0.08225447 0.12869132 0.06572871 -0.052300237 -0.024651306 0.0349717 -0.10130586
00000000: 8a94 0ebe 2104 6f3d b051 fe3c 5a72 103e
00000010: 33d9 823d 4ec1 183e 9068 2b3d e827 4bbd
00000020: 8247 b0bd 6806 d83c 7ff8 6f3d e3df 13be
00000030: b739 62bc 9654 1bbe 0e88 a73b 7cfc 5abd
00000040: 9ac6 e7bb 2786 283e bcf2 59bd 4664 bc3c
00000050: 1f5e 09be 8da5 05be 974e 66bd d717 ffbd
00000060: 3aa9 98bd 0f65 bdbc 45a9 bf3c 92ec 17bd
00000070: 06a2 26be d8e8 dcbd c003 29be d319 1e3e
00000080: 2b54 43be 5a96 f2bd 19e9 0d3e b339 61bd
00000090: b12a fb3d 124a 78bd 07c2 d0bd 63a8 72bd
000000a0: cb00 123e e204 d2bd 580b 8dbd dc87 e6bc
000000b0: 521c 0a3d 4c59 44bd 0d81 2a3e 2249 e3bd
000000c0: 29ee f4bd 54ac f7bd 13e1 a4bd 7abf 0e3d
000000d0: 8cb1 cc3d 7e40 2c3e 5e98 0d3e 4860 ad3c
000000e0: 6f2d 6abd 7248 cbbd 2399 7f3d e449 93bd
000000f0: 8911 91bd 72aa d0bd 42e8 893d 2ef5 893c
00000100: 9e8f 113e df8c acbd c571 c63d 0b16 293e
00000110: 827c d0bd 9ede 6cbc a210 95bd f1e6 d83d
00000120: 22cc e3bb e35d e3bd a4f7 63ba f7c6 703c
00000130: c261 9c3d f009 223e bc5a 1d3e 0b58 2c3d
00000140: 8f18 a63d b288 babc 1d7b c93c d7fc b93c
00000150: 7d13 2cbd ceb8 f6bd ae9c 0dbe 0dbd da3d
00000160: 901a 8e3c b1d0 a3bd 5cc7 10be 914b a5bd
00000170: e18b 28be 4458 333e 3059 5a3d 92d2 ee3d
00000180: b737 463d bc77 16be ce31 eb3d f51b 053d
00000190: a272 0c3e f2a9 30bd 034c fa3d 1327 b13d
000001a0: 5647 85bc a238 393d 2095 f5bd e7e0 12bd
000001b0: de79 c9bd 2315 3d3d 408c 1a3e a113 923b
000001c0: 2a5a 253b 0ac8 243e 8434 2abe 4c85 163e
000001d0: 5274 26bd f5d1 30bb b1ec ef3d 6e97 043e
000001e0: 1fbc b43d f4e9 213c 8685 ea3d 596d bbbd
000001f0: ca12 f93c 9ce4 213e d043 eb3d 3962 f9bd
00000200: c16a 043d 1caa 34be 3df2 91bd 8954 023e
00000210: 4a54 c2bd 8dd5 243e 8c48 1ebd f300 093e
00000220: dba4 eb3d 0875 a8bd a8c7 033e c69c 863d
00000230: c638 56bd 89f1 c9bc 7c3e 0f3d 7279 cfbd

backBone.4.conv2.bias f4 [4]
-0.015876904 -0.050212488 0.010485594 0.05658707
00000000: 4810 82bc 9cab 4dbd c5cb 2b3c d8c7 673d

backBone.4.bn2.weight f4 [4]
0.97913384 1.0085192 1.0142784 1.0169146
00000000: 84a8 7a3f 2817 813f e0d3 813f 422a 823f

backBone.4.bn2.bias f4 [4]
-0.0124533065 0.012676819 0.010437113 -0.0058261664
00000000: f408 4cbc 6fb2 4f3c 6d00 2b3c 6de9 bebb

backBone.4.bn2.running_mean f4 [4]
-0.24205501 -0.08454217 0.08956428 0.3362193
00000000: 45dd 77be 7224 adbd 7a6d b73d f024 ac3e

backBone.4.bn2.running_var f4 [4]
0.12187389 0.10496534 0.10775204 0.14089906
00000000: 0599 f93d 11f8 d63d 1aad dc3d d847 103e

policyHead.0.weight f4 [6, 4, 3, 3]
-0.16280672 -0.07331259 -0.0905255 -0.17211474 -0.0057832557 0.03448584 0.1039319 0.053500917
-0.16790591 0.090160765 0.02461598 -0.046424646 0.16141835 -0.0717527 0.061320957 0.12784427
0.060768157 -0.058338318 -0.07265611 0.07493458 -0.077995256 -0.0710999 -0.049118303 0.058886904
0.1414045 0.036459617 -0.049066782 0.117116824 -0.12426623 -0.06649449 -0.13276336 0.1408777
0.087967984 0.03748505 -0.12195704 -0.07207358 0.15781312 0.10372345 0.028326908 -0.011530617
0.081131145 0.003974112 0.039577328 0.034502447 0.0919671 0.13296242 0.170432 0.020606268
-0.07108944 0.12708972 -0.09432925 0.14150992 -0.03811282 0.012169208 0.02952725 0.048531085
0.094793744 0.09431995 -0.008056566 -0.03219959 0.13956617 0.10967524 -0.07794492 -0.13923803
0.06614529 0.04303767 0.09558683 0.012659437 -0.09571406 -0.047818244 0.0035735748 0.031401556
0.07220062 -0.064844914 0.16039594 -0.13944486 -0.07483591 0.08380519 0.058066078 0.11402886
-0.0018446671 -0.108573586 -0.113064975 -0.121367276 -0.10443029 0.031067664 -0.02593517 -0.018504152
0.099131346 0.101804495 -0.15324138 0.08825711 0.11333333 -0.0011424928 -0.013621655 -0.1642813
-0.15177907 0.039708443 -0.024904508 0.10826389 -0.07164497 0.06629082 -0.05414656 -0.039675903
0.062890075 0.06832592 -0.076151244 -0.07489281 -0.131948 -0.0056451876 0.023456572 -0.08788172
-0.07446489 0.026863167 -0.15824814 -0.123490185 0.021727236 0.06819112 0.047396313 0.09548356
0.031223265 -0.15229744 -0.0769062 -0.15642853 0.02596279 -0.106796 -0.17083798 -0.061984148
-0.041346155 -0.058576714 0.010332444 0.0117482925 -0.12467383 0.08480349 0.005525793 0.17873828
-0.05463109 0.0011589567 -0.08114657 0.059412487 -0.06314301 -0.106175825 -0.05276529 -0.03410423
-0.05436296 0.15039898 -0.12749432 -0.16375197 0.041233834 -0.01873619 0.017737675 -0.069468915
-0.09986388 0.1236417 0.10898311 0.056914285 -0.12486563 -0.1509153 -0.05010059 -0.107543446
-0.021882644 -0.008641159 -0.02046477 -0.15112714 0.08231003 -0.15525594 -0.122714266 -0.009203339
0.067575306 -0.03099366 -0.15617557 0.09599242 0.018985732 -0.0857604 -0.071980774 0.10512747
0.1122109 0.0042267423 0.06657465 -0.100698516 0.11348314 -0.03787111 0.10784797 0.059895158
-0.037215535 -0.11876348 0.07755326 0.15488836 -0.06429104 -0.050285432 0.119907886 -0.07798041
-0.0072001894 0.012029785 0.1589446 0.08038934 0.09670282 -0.013414244 -0.17264007 -0.038164537
-0.060730156 -0.06001036 -0.16035992 -0.101534866 0.13727207 0.078706704 0.07268686 -0.13459262
-0.049489006 0.1265559 -0.03709375 0.0696004 0.013847288 -0.1539322 -0.039000954 -0.09657506
00000000: ceb6 26be e924 96bd 6f65 b9bd d93e 30be
00000010: 7781 bdbb 0641 0d3d 3fda d43d c723 5b3d
00000020: 87ef 2bbe 35a6 b83d 74a7 c93c c527 3ebd
00000030: da4a 253e 14f3 92bd af2b 7b3d 9ce9 023e
00000040: 08e8 783d 29f4 6ebd bacc 94bd 4d77 993d
00000050: fabb 9fbd d39c 91bd 4630 49bd 6533 713d
00000060: 57cc 103e ae56 153d 40fa 48bd f2da ef3d
00000070: 4b7f febd 432e 88bd 1ef3 07be 3e42 103e
00000080: 8f28 b43d ec89 193d 9dc4 f9bd 509b 93bd
00000090: c399 213e f66c d43d d50d e83c eaea 3cbc
000000a0: 1628 a63d 4539 823b d61b 223d 7052 0d3d
000000b0: 3f59 bc3d 4d27 083e ba85 2e3e 7ace a83c
000000c0: 5797 91bd cf23 023e b22f c1bd fae7 103e
000000d0: 301c 1cbd 5c61 473c 22e3 f13c 88c8 463d
000000e0: 3923 c23d d12a c13d b0ff 03bc b8e3 03bd
000000f0: 6fea 0e3e 6a9d e03d 96a1 9fbd 6a94 0ebe
00000100: 2f77 873d 4548 303d 07c3 c33d 8769 4f3c
00000110: bc05 c4bd 10dd 43bd a332 6a3b eb9e 003d
00000120: ebdd 933d 69cd 84bd d53e 243e a2ca 0ebe
00000130: 9243 99bd 0ea2 ab3d b2d6 6d3d f787 e93d
00000140: c2c8 f1ba d45b debd 9c8e e7bd 688f f8bd
00000150: 8cdf d5bd 9d81 fe3c fe75 d4bc 0596 97bc
00000160: 6005 cb3d e07e d03d 4feb 1cbe 25c0 b43d
00000170: 4e1b e83d b2bf 95ba 5d2d 5fbc 5b39 28be
00000180: f96b 1bbe 52a5 223d 8a04 ccbc 75b9 dd3d
00000190: 99ba 92bd 7bc3 873d c9c8 5dbd 3383 22bd
000001a0: 83cc 803d 76ee 8b3d 2ff5 9bbd 6761 99bd
000001b0: 601d 07be 44fb b8bb ff27 c03c 55fb b3bd
000001c0: 0c81 98bd 2510 dc3c cd0b 22be 6ce8 fcbd
000001d0: 51fd b13c c9a7 8b3d a322 423d e28c c33d
000001e0: efc7 ff3c dcf3 1bbe ff80 9dbd cd2e 20be
000001f0: ebaf d43c dcb7 dabd 27f0 2ebe 17e3 7dbd
00000200: 965a 29bd 23ee 6fbd 6949 293c e97b 403c
00000210: fe54 ffbd 74ad ad3d b611 b53b 2b07 373e
00000220: dac4 5fbd 22e8 973a 2c30 a6bd 825a 733d
00000230: 1f51 81bd b672 d9bd 6b20 58bd e1b0 0bbd
00000240: b2ab 5ebd 3102 1a3e df8d 02be 99ae 27be
00000250: cfe4 283d a37c 99bc 9a4e 913c b845 8ebd
00000260: 6f85 ccbd dc37 fd3d 8932 df3d f41e 693d
00000270: 8db9 ffbd 8a89 1abe 4736 4dbd bd3f dcbd
00000280: 3b43 b3bc a693 0dbc bca5 a7bc 13c1 1abe
00000290: 2992 a83d 6afb 1ebe 9e51 fbbd 9ac9 16bc
000002a0: ec64 8a3d 6be6 fdbc 7dec 1fbe ad97 c43d
000002b0: f787 9b3c 26a3 afbd a86a 93bd 124d d73d
000002c0: d4ce e53d 7c80 8a3b 4a58 883d 063b cebd
000002d0: d969 e83d bd1e 1bbd 66df dc3d a054 753d
000002e0: 516f 18bd 443a f3bd 3ed4 9e3d 0e9b 1e3e
000002f0: 05ab 83bd 19f8 4dbd 4492 f53d 31b4 9fbd
00000300: 91ef ebbb 9318 453c 60c2 223e 2ba3 a43d
00000310: 210c c63d 6bc7 5bbc 8fc8 30be 6b52 1cbd
00000320: 2fc0 78bd 6ccd 75bd 6435 24be 83f1 cfbd
00000330: 0d91 0c3e fb30 a13d d9dc 943d a6d2 09be
00000340: fcb4 4abd df97 013e 9eef 17bd a88a 8e3d
00000350: bcdf 623c 67a0 1dbe 77bf 1fbd 25c9 c5bd

policyHead.0.bias f4 [6]
0.040789004 -0.034034427 0.04607549 0.015580665 -0.00033417172 -0.098324254
00000000: 5f12 273d af67 0bbd a7b9 3c3d 0c46 7f3c
00000010: c533 afb9 3a5e c9bd

policyHead.1.weight f4 [6]
0.9938955 0.9802766 0.98213005 0.9998253 0.9916964 0.98347205
00000000: ef6f 7e3f 68f3 7a3f e06c 7b3f 8df4 7f3f
00000010: d1df 7d3f d3c4 7b3f

policyHead.1.bias f4 [6]
0.0027836752 -0.016741188 -0.010839566 0.018984063 -0.0030227033 -0.016157534
00000000: 526e 363b d124 89bc 6f98 31bc 7784 9b3c
00000010: 8c18 46bb ce5c 84bc

policyHead.1.running_mean f4 [6]
-0.284925 1.2777523 -0.3968671 -1.27058 -0.883456 -0.2286232
00000000: b1e1 91be 638d a33f 2a32 cbbe 5ea2 a2bf
00000010: 2c2a 62bf 331c 6abe

policyHead.1.running_var f4 [6]
0.6501595 1.0707082 0.62259895 1.3235079 1.1617875 0.42228076
00000000: da70 263f f70c 893f a562 1f3f b568 a93f
00000010: 74b5 943f 2f35 d83e
