gameserver_django/webgameserver/static/models/model.onnx (onnx, 325770 bytes, 17 tensors)

policyHead.4.weight f4 [81, 486]
0	0x3ef75739	0.48308733
1	0xbdd99a8d	-0.10625181
2	0x3e03f5e0	0.12886763
3	0xbcc06bd9	-0.023488926
4	0xbd22fb54	-0.039790466
5	0xbc08aba6	-0.008341705
6	0xbc3087aa	-0.010774532
7	0x3c221191	0.0098918835
8	0xbd604238	-0.05475065
9	0x3cd5f33b	0.026116958
10	0x3d29fc93	0.04150064
11	0xbd5eaa5b	-0.054361682
12	0xbaa929b2	-0.0012906103
13	0xbc9183e0	-0.017763078
14	0x3d4b1fb9	0.0495908
15	0xbb9970b7	-0.004682626
16	0xbc4d9272	-0.012547122
17	0xbd02ba74	-0.031916097
18	0xbe0f2f4f	-0.1398289
19	0x3dc0eb54	0.09419885
20	0x3d1e3fb2	0.038634963
21	0xbc823d95	-0.015898505
22	0xbcf1b97c	-0.029507391
23	0x3ca386e4	0.019961782
24	0xbcbc91ea	-0.023018796
25	0xbbe7cefb	-0.0070742345
26	0xbcd50b81	-0.026006462
27	0x3d1387cf	0.03601819
28	0x3cdb396f	0.026760785
29	0xbb8b5c73	-0.004252964
30	0xbd78af9f	-0.06071436
31	0x3c74ddcd	0.01494546
32	0xbc5f8641	-0.0136428485
33	0x3c932b0f	0.017964868
34	0xbcbbd4db	-0.022928646
35	0xbd3bb331	-0.045825187
36	0xbd5853bb	-0.052814227
37	0x3c3bbd98	0.011458777
38	0x3d8525eb	0.06501373
39	0x3ca0d26c	0.019631587
40	0xbcbd9faa	-0.023147423
41	0x3cdc12ba	0.026864398
42	0xbbfa97d2	-0.007647493
43	0xbc778881	-0.015108229
44	0xbc6fb530	-0.014630601
45	0x3cc4a74b	0.024005553
46	0xbcacf550	-0.021113068
47	0xbd46cf7d	-0.04853772
48	0xbb032ac2	-0.00200145
49	0x3c676021	0.01412204
50	0xbb8527bd	-0.004063575
51	0xba969f58	-0.001149158
52	0xbca24691	-0.01980904
53	0xbc881fce	-0.016616728
54	0x3aa91a47	0.0012901508
55	0x3d430b10	0.047617972
56	0x3c98fcb7	0.018675191
57	0xb87c3f0d	-6.0140203e-05
58	0x3c9d2039	0.019180404
59	0x3b79da4c	0.00381245
60	0x3b53504b	0.0032243903
61	0x3a087d53	0.0005206663
62	0xbc59f41f	-0.013302832
63	0xbd2841c8	-0.04107836
64	0x3a7b6261	0.000958955
65	0x3c89ff29	0.016845303
66	0x3cd6e5d3	0.026232636
67	0xbc1a1156	-0.009403547
68	0xbbd97070	-0.006635718
69	0x3cabb06a	0.020958144
70	0xbc426df3	-0.011867034
71	0xbc49dc4d	-0.01232059
72	0x3d3f54e7	0.04671183
73	0x3d415535	0.0472004
74	0x3cd5bd19	0.026091145
75	0xbc42379c	-0.011854079
76	0x3cf9b51f	0.030481873
77	0x3d161b42	0.03664709
78	0xbd017c40	-0.031612635
79	0x3d4165e6	0.04721632
80	0x3be5ff04	0.0070189256
81	0xbe626eae	-0.22112533
82	0x3cfebc3e	0.03109562
83	0x3d907979	0.07054419
84	0xbce97f58	-0.028503105
85	0x3cf4c88c	0.029880784
86	0x3b53bcc5	0.003230856
87	0x3be784ad	0.0070653767
88	0xba6bce17	-0.00089952484
89	0x3caf7509	0.021418111
90	0x3e84718d	0.25867882
91	0xbd0a544a	-0.03377179
92	0x3dc3e899	0.09565849
93	0x3cc76c74	0.024343707
94	0x3d162310	0.036654532
95	0x3d487fdd	0.048950065
96	0xbd05df73	-0.0326838
97	0xbce5aac8	-0.028035536
98	0xbc3f4d2f	-0.011676117
99	0xbd5822e2	-0.05276764
100	0x3c252b9b	0.010081197
101	0xbc63ebb1	-0.013911174
102	0x3cdea7a8	0.027179554
103	0xbd02a896	-0.031899057
104	0x3c8972e3	0.016778415
105	0x3d2ce300	0.04220867
106	0x3d3185f6	0.043340646
107	0x3d45b5b6	0.048268996
108	0x3d5d1843	0.053978216
109	0x3cf1b9b4	0.029507495
110	0x3c3b2f5e	0.011424867
111	0x3cc1fa23	0.023678845
112	0x3b0bbc66	0.002132201
113	0x3cde7242	0.027154092
114	0x3d5ba98a	0.053628482
115	0x3d3bf4e2	0.045887835
116	0xbbc7fb12	-0.006102928
117	0xbb2b4c03	-0.0026137836
118	0xbcaa5572	-0.020792697
119	0xbcf2365e	-0.02956694
120	0x3d66fa1d	0.05639087
121	0x3d17eeb8	0.037092894
122	0x3cf4aa74	0.029866435
123	0x3cfeffa8	0.031127766
124	0x3c71d685	0.014760618
125	0xbca1d31a	-0.019753981
126	0x3bc40558	0.0059820823
127	0x3be82a1a	0.007085097
128	0x3d3692b8	0.044573516
129	0x3cc5f8b8	0.02416645
130	0x3d578873	0.052620362
131	0x3d06a555	0.032872517
132	0x3d4a5cf9	0.049405072
133	0x3c2a3118	0.010387681
134	0xbcbe76ea	-0.023250062
135	0x3ceaf728	0.028682306
136	0xbd18616b	-0.03720228
137	0xbcecd037	-0.028907878
138	0x3cc009bc	0.023442142
139	0xbc02d4db	-0.007985319
140	0x3d0bb1fa	0.03410528
141	0x3caf819a	0.021424104
142	0x3c9c4aff	0.01907873
143	0x3d8fe8ab	0.070268
144	0x3d8c56c9	0.068524905
145	0x3cbdd94d	0.023174906
146	0x3c86b39a	0.016443063
147	0x3c0a4286	0.008438712
148	0x3cd4e8bf	0.025989888
149	0x3cc9bd67	0.024626447
150	0x3a79b54b	0.0009525611
151	0xbd367d0f	-0.04455286
152	0x3ca41fdd	0.020034725
153	0xbd214eff	-0.039381977
154	0x3d0ab057	0.033859577
155	0xbc346928	-0.011011399
156	0xbce45471	-0.027872296
157	0xbcc4b57d	-0.024012322
158	0x3d18b6a3	0.03728355
159	0x3d413681	0.04717112
160	0xbd4c8722	-0.04993356
161	0x3d0f167a	0.034933545
162	0x3d9bd709	0.07609374
163	0xbe1c4d0d	-0.15263768
164	0xbcd0c67c	-0.02548527
165	0x3c2be782	0.0104922075
166	0xbcc1636e	-0.023606982
167	0xbd3d704f	-0.046249684
168	0x3c4a8031	0.012359665
169	0x3ce859b2	0.028363083
170	0x3c7ae786	0.015313989
171	0x3ec54afe	0.38533777
172	0x3e0fccec	0.14043015
173	0xbd53f3d4	-0.051746204
174	0x3b29b662	0.0025896062
175	0xbd834588	-0.064097464
176	0xbd03d396	-0.032184206
177	0xbd7a36eb	-0.06108753
178	0x3b408426	0.0029375642
179	0x3ca1abab	0.019735178
180	0x3cec652b	0.028856834
181	0xbd568bd7	-0.052379455
182	0xbce1d1fd	-0.02756595
183	0xbcde4074	-0.027130343
184	0xbc9ff73f	-0.019527076
185	0xbc6688c2	-0.014070692
186	0x3b859454	0.00407652
187	0xbcc00822	-0.023441378
188	0xbd35c100	-0.044373512
189	0xbc07e4fa	-0.008294338
190	0x3b01d4b6	0.0019810623
191	0xbd7de813	-0.0619889
192	0xbd0ef722	-0.034903653
193	0xbca4196a	-0.02003165
194	0x3c5d8ec2	0.013522806
195	0xb9d18437	-0.00039962094
196	0x3d4d345b	0.05009876
197	0xbd889de5	-0.06670741
198	0x3d76175f	0.060080882
199	0xbc7d7362	-0.015469404
200	0xbc600cf8	-0.013674967
201	0x3ca13f2d	0.019683445
202	0x3b6285b3	0.0034564554
203	0xbce6c014	-0.028167762
204	0xbc5f810b	-0.013641606
205	0xbcca56cc	-0.024699591
206	0x3d1f875b	0.038947444
207	0x3cd98ee5	0.026557395
208	0x3d70145a	0.05861316
209	0xbd2ee28a	-0.042696513
210	0xbd7d3c82	-0.061825283
211	0xbd9605da	-0.07325335
212	0x3c809a74	0.015698649
213	0xbd800c84	-0.06252387
214	0x3c94e556	0.018175762
215	0xbca323f1	-0.0199146
216	0x3d21ecf1	0.039532606
217	0xbd4d8f76	-0.050185643
218	0xbd01de9d	-0.03170644
219	0xbc2174e8	-0.009854533
220	0xbd1d5749	-0.03841332
221	0x3cb79774	0.022411086
222	0xbd4d44b4	-0.05011435
223	0x3ca0bd6e	0.019621577
224	0x3d0f7b72	0.035029836
225	0x3cae523f	0.021279452
226	0x3c2def22	0.010616096
227	0xbd0d87e2	-0.034553416
228	0xbd7a08a2	-0.06104339
229	0xbd1170ff	-0.035508152
230	0xbbc6a806	-0.0060625104
231	0x3ce37151	0.027763994
232	0xbc83faa6	-0.01611073
233	0x3c04f489	0.008114942
234	0x3c890522	0.01672608
235	0xbd2189a1	-0.039437894
236	0x3b378bd1	0.002800692
237	0xbd1a49a6	-0.037667893
238	0xbcacb028	-0.021080092
239	0xbcbcea35	-0.023060897
240	0xbcdf5cb9	-0.027265893
241	0xbc321e6a	-0.010871509
242	0xbd8a8580	-0.06763744
243	0x3a520a8d	0.00080124364
244	0xbea39dc7	-0.31956312
245	0x3e297ef5	0.16552337
246	0x3bce07e6	0.0062875627
247	0xbc93dae1	-0.018048706
248	0xbd8a85c7	-0.06763797
249	0x3c81a402	0.015825275
250	0x3caf3f9b	0.021392634
251	0xbd21cf68	-0.03950444
252	0xbd20ec84	-0.03928806
253	0x3e22b8b8	0.15890777
254	0x3c8f62ec	0.017503224
255	0x3c894fc8	0.016761675

policyHead.4.bias f4 [81]
0	0xbcb44ce6	-0.022009324
1	0xbbc3fa88	-0.0059807934
2	0x3dd5499d	0.10414431
3	0x3cb2c471	0.021822186
4	0xbcbbf06c	-0.02294179
5	0x3cbda31b	0.023149064
6	0x3d097aa1	0.033564214
7	0xbc1bfba7	-0.009520448
8	0xbceafe04	-0.028685577
9	0xbb39e81d	-0.002836711
10	0xbd5668b1	-0.052345935
11	0xbd37a644	-0.044836298
12	0x3d629c7e	0.055325024
13	0x3d49cdb3	0.049268436
14	0xbbac46ce	-0.005257464
15	0xbc9e04f9	-0.01928948
16	0x3d00ca33	0.031442832
17	0xbc747e9b	-0.014922763
18	0x3ce2cd1f	0.0276857
19	0x3cfbc3e1	0.03073305
20	0xbba23bfe	-0.0049509993
21	0xbc34793e	-0.0110152345
22	0xbc29e389	-0.01036919
23	0x3c0eca84	0.008715276
24	0xbcd67289	-0.026177661
25	0x3d7b861f	0.061407205
26	0x3de0b1d6	0.109714195
27	0x3d8eb3e6	0.06967907
28	0x3c485f05	0.012229686
29	0x3d4c5398	0.04988441
30	0x3d6775a0	0.05650866
31	0xbca0cb0f	-0.019628076
32	0xbd36d676	-0.04463812
33	0x3d85dd74	0.065363795
34	0x3c630418	0.0138559565
35	0x3c07acd3	0.008280951
36	0xbb00ff37	-0.001968337
37	0xbd642037	-0.055694785
38	0x3cb446fb	0.022006502
39	0x3c581b40	0.013190091
40	0xbc025f87	-0.007957346
41	0x3ce107c3	0.027469521
42	0xbd399c28	-0.045314938
43	0x3d10938c	0.03529696
44	0xbb2fea87	-0.002684267
45	0x3c49710b	0.012295018
46	0xbc364d94	-0.0111268945
47	0x3d0c51bc	0.034257635
48	0xbd2a86d1	-0.041632477
49	0x3d76e57d	0.06027745
50	0xbd05a0c6	-0.03262403
51	0x3c98c407	0.01864816
52	0x3c5863fc	0.013207432
53	0xbd4b2867	-0.049599078
54	0x3c513d46	0.012770956
55	0x3dba0c9f	0.090844385
56	0xbc85fc08	-0.01635553
57	0xbd248567	-0.040166285
58	0x3d6c169d	0.057638753
59	0xbbb576fc	-0.0055378657
60	0xbcaa5931	-0.020794483
61	0x3c3e9b9b	0.011633779
62	0x3befaaca	0.007314061
63	0xbc64843f	-0.013947546
64	0xbd2091f9	-0.03920171
65	0xbd49e00b	-0.04928593
66	0x3c857e45	0.016295562
67	0x3d557cf7	0.05212113
68	0x3ced605f	0.028976617
69	0x3beb1a24	0.007174747
70	0xbbe79920	-0.0070678145
71	0xbd80b025	-0.06283597
72	0xbcf48435	-0.029848197
73	0xbcaece18	-0.021338508
74	0x3d07dfcc	0.033172414
75	0xbc82745a	-0.015924621
76	0x3cd211c3	0.025643235
77	0x3c90ce0b	0.017676374
78	0xbd1a82c0	-0.03772235
79	0xbcd42edc	-0.02590125
80	0xbc061084	-0.008182649

valueHead.4.weight f4 [1, 243]
0	0x3e0bb21e	0.13642165
1	0x3d851612	0.0649835
2	0x3d275b07	0.040858295
3	0x3c96686c	0.01836034
4	0x3d0f8ad4	0.035044506
5	0x3d722b2a	0.059123196
6	0x3d102c10	0.03519827
7	0x3e5e0945	0.21683224
8	0x3d8ed333	0.06973877
9	0xbd5965d6	-0.053075634
10	0x3e1ae4fa	0.1512641
11	0xbc5e31c7	-0.0135616725
12	0x3d6ecf9f	0.05830347
13	0x3d6dc6e1	0.058050994
14	0xbd473d2a	-0.048642315
15	0x3d801751	0.06254447
16	0x3c521889	0.012823232
17	0x3cce9b19	0.02522044
18	0x3da8476c	0.08216748
19	0xbd37dee9	-0.044890318
20	0x3d46fab3	0.04857893
21	0x3dc20491	0.09473527
22	0xbc8ee11c	-0.017441325
23	0x3c973874	0.018459536
24	0xbc848bec	-0.016180001
25	0xbd1474b1	-0.036244098
26	0x3e2f631c	0.17127651
27	0x3e02e979	0.12784375
28	0x3d152175	0.03640886
29	0x3d659362	0.05604876
30	0xbd8b1aee	-0.06792246
31	0x3c56dd2f	0.013114258
32	0x3d6c24b9	0.05765221
33	0x3a9702ca	0.0011521217
34	0x3d5ff983	0.054681312
35	0xbd4da22a	-0.05020348
36	0xbc0dc84a	-0.00865371
37	0x3d8e9e11	0.069637425
38	0x3de2fab6	0.110829756
39	0xbccc45d6	-0.024935644
40	0xbb92e793	-0.004483172
41	0xbd0aebbd	-0.033916224
42	0x3d0a744b	0.033802312
43	0x3d8ba441	0.06818438
44	0xbd01f18f	-0.03172451
45	0xbd900c33	-0.07033577
46	0xbb60b3ee	-0.0034286934
47	0x3ba35091	0.0049839695
48	0x3db5dee0	0.08880401
49	0x3dcda968	0.10042077
50	0xbd865fdd	-0.06561253
51	0x3c98d2ae	0.018655147
52	0x3d8c3331	0.068457015
53	0x3c6e51a8	0.014545836
54	0x3a8c628b	0.001071052
55	0x3cb19c1b	0.021680882
56	0x3da085d3	0.07838025
57	0x3d33eea4	0.043928757
58	0xbb4ae88d	-0.0030961365
59	0x3cf387bb	0.029727807
60	0x3d93ff4f	0.072264306
61	0x3d0fa43e	0.035068743
62	0x3df9edc3	0.122035526
63	0x3e174423	0.14772086
64	0x3d8c8927	0.06862097
65	0x3ca1b3a6	0.019738983
66	0x3d778091	0.060425345
67	0xbbe4a345	-0.006977471
68	0xbd13fcf1	-0.036129896
69	0x3cb51380	0.022104025
70	0xbbf6c684	-0.007530989
71	0x3d5e1e88	0.054228336
72	0x3df7f962	0.12108113
73	0x3d2ffd8c	0.04296641
74	0x3d72fdc9	0.05932406
75	0x3d885c73	0.06658258
76	0x3d8b29f0	0.06795108
77	0x3bd089f6	0.0063641025
78	0x3d1ed81a	0.03878031
79	0x3e193eee	0.14965412
80	0x3c96ca7f	0.018407105
81	0x3b8d03e3	0.004303442
82	0x3cb47f34	0.022033311
83	0x3b1944d8	0.0023386981
84	0x3d16da11	0.036829058
85	0xbcc9cf6b	-0.024635037
86	0xbe5fcbd0	-0.21855092
87	0x3dbd1065	0.09231643
88	0xbc89fa4b	-0.016842982
89	0xbdab45ae	-0.083629
90	0xbcfd1723	-0.030894822
91	0xbdaf9231	-0.08572806
92	0xbd8af8e0	-0.067857504
93	0x3cf9d0ee	0.030495133
94	0xbd824cf7	-0.06362336
95	0x3dca3816	0.09873979
96	0xbd087b46	-0.033320688
97	0x3dd6284f	0.10456907
98	0x3d026607	0.031835582
99	0xbda15a00	-0.07878494
100	0xbe3fb3e9	-0.18720974
101	0x3bc1626e	0.0059016263
102	0x3d960d7e	0.07326792
103	0xbdac19fd	-0.08403394
104	0xbccd23f0	-0.02504155
105	0x3dc03d81	0.09386731
106	0xbdea94ba	-0.114541486
107	0xbd224f01	-0.039626125
108	0x3cdc74c5	0.026911149
109	0xbccfe953	-0.025379812
110	0x3d95c975	0.073138155
111	0xbdc74045	-0.09729055
112	0x3de6559a	0.11246796
113	0xbdcf8026	-0.10131864
114	0xbd988bad	-0.07448516
115	0x3dd22904	0.10261729
116	0x3d13f1fe	0.036119454
117	0xbd310b73	-0.04322381
118	0x3d3a767b	0.045523148
119	0x3c14234d	0.0090416195
120	0xbde34440	-0.11097002
121	0xbe2f9ce1	-0.17149688
122	0xbbef3510	-0.0073000267
123	0x3da11dec	0.07867035
124	0x3d3c3024	0.045944348
125	0xbd2c61d1	-0.042085472
126	0x3c23985d	0.009985057
127	0x3d091098	0.03346309
128	0xbe6170aa	-0.22015634
129	0x3dae729b	0.08517953
130	0xbdb5bbfd	-0.088737465
131	0xbdad9d86	-0.08477311
132	0x3b9f72da	0.0048659863
133	0xbb41f9a8	-0.002959827
134	0xbd98ccd5	-0.074609436
135	0x3bf65147	0.0075170132
136	0xbe0a4452	-0.13502625
137	0x3dfade2e	0.12249409
138	0xbb5fc0f6	-0.0034142113
139	0x3cf98279	0.030457722
140	0xbdbe9a1d	-0.093067385
141	0xbc863748	-0.016383782
142	0xbd2c84cb	-0.04211883
143	0x3cbdb2e4	0.02315659
144	0x3d9ad3a0	0.075598955
145	0xbdf9efd0	-0.12203944
146	0x3d00a7a6	0.031409882
147	0x3e0cb750	0.13741803
148	0xbd4803cf	-0.048831757
149	0x3cbe9e05	0.023268709
150	0xbd06d371	-0.03291649
151	0x3da58fb8	0.08084053
152	0x3d521347	0.051287916
153	0x3d259b1a	0.04043112
154	0x3c276f3e	0.010219393
155	0xbbca6a9a	-0.0061772587
156	0x3c99a24f	0.018754153
157	0xbac5f98b	-0.0015104277
158	0xbda99b61	-0.08281589
159	0x3d538926	0.051644467
160	0x3cba12be	0.022714015
161	0xbc2fc12b	-0.010727207
162	0xbdc395c6	-0.095500514
163	0xbc5b9faa	-0.013404766
164	0xbdb90b9a	-0.09035416
165	0x3d6737b5	0.05644961
166	0xbd4933ef	-0.049121793
167	0x3d5f19bd	0.054467905
168	0xbd8a242a	-0.06745179
169	0xbdbc8f62	-0.092070356
170	0xbdb99d43	-0.090631984
171	0xbdbb5c94	-0.09148517
172	0xbdf7848b	-0.120858274
173	0xbca8ce3f	-0.020606158
174	0xbd83dae9	-0.06438238
175	0x3cf5e4e7	0.030016376
176	0xbd737fc4	-0.05944802
177	0xbe07c08e	-0.13257048
178	0xbddad1f0	-0.10684574
179	0xbd206a0b	-0.03916363
180	0xbddb825c	-0.107182235
181	0xbcaafa3d	-0.020871276
182	0xbdfc71fb	-0.123264275
183	0x3cb20422	0.021730486
184	0xbd904829	-0.070450135
185	0xbdda1aee	-0.10649668
186	0xbcc56ae0	-0.024098814
187	0xbd59cf2d	-0.053176094
188	0xbd2dea5d	-0.042459834
189	0x3db0fed6	0.08642356
190	0xbd182989	-0.037148986
191	0x3cd037eb	0.025417289
192	0x3c169f59	0.009193265
193	0xbd81cd1c	-0.0633795
194	0x3d89c717	0.067274265
195	0x3dbc9693	0.09208407
196	0xbd82f89f	-0.06395077
197	0xbd6dada9	-0.058026943
198	0xbc9d4fc2	-0.01920307
199	0xbd93d346	-0.072180316
200	0x3b09b8d0	0.0021014698
201	0x3d9481aa	0.07251294
202	0xbd8ea6ba	-0.06965394
203	0xbcc62a52	-0.024190102
204	0xbdb167c4	-0.0866237
205	0x3d1da290	0.03848511
206	0xbd0010cf	-0.03126603
207	0xbd186151	-0.037202183
208	0xbd8e76d3	-0.06956258
209	0xbd9b507f	-0.07583713
210	0xbd7152ec	-0.05891697
211	0x3dc432be	0.09579991
212	0xbe1215da	-0.14266148
213	0xbdea0c0f	-0.11428081
214	0xbd075442	-0.03303934
215	0x3cc37f04	0.023864277
216	0xbc958f0a	-0.018256683
217	0xbc319d65	-0.010840748
218	0x3ce60c2f	0.028081981
219	0xbd84696f	-0.06465422
220	0xbdd2e75c	-0.102980345
221	0xbc8e3341	-0.017358424
222	0x3d9c009d	0.076173045
223	0xbd9a1861	-0.07524181
224	0x3cd0ca90	0.025487214
225	0xbd81adfd	-0.06332014
226	0xbd7b5a36	-0.06136533
227	0xbe1961de	-0.1497874
228	0xbcd50795	-0.026004592
229	0x3c4e9a60	0.012610048
230	0xbd59bc84	-0.053158298
231	0xbd04baab	-0.032404583
232	0xbcea6429	-0.028612213
233	0xbe0259fd	-0.1272964
234	0xbd8de322	-0.06928088
235	0x3cb86b1a	0.022512008
236	0xbda02c8e	-0.07820998
237	0xbd20fcd6	-0.039303623
238	0xbcf09f31	-0.029372783
239	0xbcd5f3ed	-0.02611729
240	0xbd5184f3	-0.05115218
241	0xbd9e4b1a	-0.07729168
242	0xbdaf0b6c	-0.085471004

onnx::Conv_83 f4 [32, 4, 3, 3]
0	0xbee43465	-0.44571224
1	0x3e8b214f	0.2717385
2	0x3ee5a679	0.4485357
3	0xbe0a3b52	-0.13499191
4	0xbe8f6332	-0.28005368
5	0x3ed47efd	0.41503134
6	0xbe35a69a	-0.17739335
7	0xbea8e345	-0.32985893
8	0x3e844887	0.25836584
9	0x3f254cff	0.6457061
10	0x3e7d92a4	0.2476297
11	0x3f0e8ceb	0.55683774
12	0x3cc2d694	0.02378396
13	0x3d207685	0.03917553
14	0xbdd96d49	-0.106165476
15	0x3da08f85	0.07839874
16	0xbd8a5607	-0.0675469
17	0x3d947513	0.07248893
18	0x3e065d94	0.13121635
19	0x3f1fe874	0.6246407
20	0x3f32ab07	0.69792217
21	0x3e9ec336	0.3100831
22	0xbeed57c1	-0.46356013
23	0xbe763737	-0.240445
24	0x3e8f7fe7	0.2802727
25	0x3d60c593	0.05487592
26	0x3df8e3b8	0.12152809
27	0xbe9b4a11	-0.30329946
28	0x3f19e259	0.60111004
29	0xbe0cb921	-0.13742496
30	0xbf4c2b1b	-0.79753274
31	0xbf61ffc6	-0.88280904
32	0xbe4cd73e	-0.20003983
33	0xbf3f3806	-0.7469486
34	0x3d3d2ff8	0.046188325
35	0xbe201708	-0.15633786
36	0x3f06e846	0.5269817
37	0xbd73b828	-0.059501797
38	0x3d8f92d0	0.07010424
39	0x3e2588d8	0.16165483
40	0x3d95c79f	0.07313465
41	0x3e6da9aa	0.23209253
42	0x3ea94071	0.33056977
43	0x3e6444e9	0.22291912
44	0x3e527549	0.20552553
45	0xbf297e9b	-0.6620881
46	0x3ed7114b	0.4200538
47	0xbe98f2fc	-0.29872882
48	0xbe36a649	-0.1783687
49	0x3d03a215	0.032136995
50	0xbea75e0b	-0.32688937
51	0xbec5b866	-0.38617247
52	0x3e58da92	0.21177128
53	0x3d78420d	0.060609866
54	0xbe48a633	-0.1959465
55	0xbec6255d	-0.3870038
56	0x3c92a267	0.017899705
57	0xbef5d9c3	-0.48017702
58	0xc026651b	-2.599921
59	0xbf1b1ea1	-0.6059361
60	0xbe8fc28c	-0.28078115
61	0xbe462484	-0.19349867
62	0x3efe03fb	0.49612412
63	0xbf7bbc28	-0.9833398
64	0x3fac43e0	1.3458214
65	0x3eab2237	0.3342454
66	0x402fa03d	2.7441552
67	0xc02d353c	-2.7063742
68	0x3fd34a78	1.6507101
69	0xbfbaf75f	-1.4606742
70	0x403d0040	2.9531403
71	0xbfd52450	-1.6651707
72	0x3d29721a	0.04136858
73	0xbe92d584	-0.28678524
74	0xbe4b5fe8	-0.19860804
75	0x3d93762a	0.072002724
76	0xbd622584	-0.05521156
77	0xbe9429e7	-0.2893822
78	0x3e8cde20	0.27513218
79	0x3e827d81	0.25486377
80	0xbdc91fa3	-0.09820487
81	0x3f403bb1	0.7509108
82	0xbec0fee5	-0.3769447
83	0xbdb72203	-0.08942034
84	0xbf189182	-0.5959703
85	0x3f5631cc	0.83669734
86	0x3f316109	0.6928869
87	0xbf05edbf	-0.52315897
88	0x3ee791e6	0.452285
89	0xbecf82a4	-0.40529358
90	0xbf7cb2de	-0.9871043
91	0x3e5e8e60	0.21733999
92	0x3ef8e2fb	0.48610672
93	0xbfb0c37a	-1.3809655
94	0xbf631450	-0.8870287
95	0xbe9e650e	-0.30936474
96	0xbe17ba8f	-0.1481726
97	0x3e1e5925	0.15463693
98	0xbe99c994	-0.30036604
99	0x3e2e4581	0.17018701
100	0xbe55b884	-0.20871168
101	0xbf006435	-0.50152904
102	0xbd996792	-0.074904576
103	0x3d96efee	0.07369982
104	0x3f8cfb91	1.1014272
105	0x3f986806	1.1906745
106	0xbe0c7b35	-0.13718875
107	0x3f0b5c34	0.54437566
108	0x3e7554bd	0.23958106
109	0xbab3241f	-0.0013667381
110	0x3f5ab64f	0.8543443
111	0x3e872a7f	0.2639961
112	0x3f275fed	0.65380746
113	0x3f4b6c8f	0.7946252
114	0x3e9ee582	0.31034476
115	0x3eb24a2c	0.34822214
116	0x3f0d55c8	0.55209017
117	0x3e95c1c1	0.29249385
118	0xbe523e3d	-0.20531555
119	0xbf9cbc83	-1.2245029
120	0xbe99e92e	-0.30060714
121	0xbed8a9fc	-0.42317188
122	0xbfaa2c80	-1.329483
123	0xbdbf4880	-0.0934
124	0xbf13d284	-0.57743096
125	0xbfcd4b09	-1.6038524
126	0x3e5f96b5	0.21834834
127	0x3f412bae	0.75457275
128	0xbf71aea7	-0.94407123
129	0xbf0c637f	-0.5483932
130	0x3f176b1b	0.59147805
131	0x3eadd72b	0.33953223
132	0x3e6433b6	0.22285351
133	0xbf748dd6	-0.95528924
134	0x3ed7e16e	0.42164177
135	0xbe0e3554	-0.1388753
136	0xbe003c97	-0.12523113
137	0x3eab08a9	0.33405045
138	0xbdaaf221	-0.08346964
139	0x3e891161	0.26771072
140	0x3f01de8c	0.50730205
141	0x3f2e9368	0.68193674
142	0x3e36e0c9	0.17859186
143	0x3f76d431	0.9641753
144	0xbf52bbbc	-0.8231771
145	0x3e18f29d	0.149363
146	0xbf7335b1	-0.950038
147	0xbe1ce9c0	-0.15323544
148	0xbda94e6a	-0.082669094
149	0xbe1375f5	-0.14400466
150	0x3dea01b7	0.11426108
151	0xbf08f9b9	-0.53506047
152	0x3e0a4167	0.13501512
153	0x3f90b39b	1.1304811
154	0x3f2721ec	0.65286136
155	0xbf2fc634	-0.6866181
156	0xbd9c8943	-0.07643368
157	0x3fb59632	1.4186461
158	0x3f40b143	0.7527048
159	0xbe4e0dc4	-0.20122439
160	0x3f49d831	0.78845507
161	0x3f494282	0.7861711
162	0x3ee24915	0.44196382
163	0x3e211bb7	0.15733229
164	0xbe4f980c	-0.20272845
165	0xbe66ec9b	-0.22551195
166	0x3fcf8448	1.6212244
167	0x3f5d5030	0.8645048
168	0x3ea0a115	0.31372896
169	0x3e040733	0.12893371
170	0xbf18599f	-0.5951175
171	0x3df2d5a5	0.11857156
172	0xbf5146cf	-0.8174867
173	0xbf2908ef	-0.66029257
174	0xbf301bdb	-0.68792504
175	0xbfe9f4c5	-1.8277823
176	0xbf9f1f4e	-1.2431428
177	0xbf45756e	-0.7713231
178	0x3f047c20	0.517519
179	0xbfb8af57	-1.442851
180	0xbdc3f010	-0.09567273
181	0xbe385a89	-0.18003286
182	0xbe95a3f1	-0.2922664
183	0xbe2b0e93	-0.16704778
184	0x3ec90e3b	0.3926867
185	0xbf011bde	-0.50433147
186	0x3db20da3	0.08694007
187	0xbeca4cf9	-0.3951185
188	0x3e1a4ef3	0.15069179
189	0xbeaf10e0	-0.34192562
190	0x3e98d8be	0.2985286
191	0xbe4373fb	-0.19087212
192	0xbe5eaca8	-0.2174555
193	0xbf1be4a0	-0.6089573
194	0x3fa0dac0	1.2566757
195	0x3faa5c42	1.3309405
196	0xbe40576e	-0.18783352
197	0xbedc79d9	-0.43061712
198	0x3f27bf93	0.65526694
199	0x3f432f1f	0.76243776
200	0xbe396103	-0.18103413
201	0xbd833c63	-0.06408002
202	0xc028fd65	-2.640466
203	0xbe2ee633	-0.17080002
204	0x3e099649	0.13436235
205	0xbd8c6048	-0.06854302
206	0xbf5961c4	-0.84914804
207	0xbf5933e7	-0.8484482
208	0x3f1fae42	0.6237527
209	0xbfe6b264	-1.802319
210	0x3f6a0f6c	0.9142978
211	0xbf65b331	-0.8972655
212	0x402ccb72	2.6999173
213	0xbe883b0b	-0.26607546
214	0x3f4bbb10	0.7958231
215	0x3cc7e684	0.02440191
216	0x3c316b19	0.010828757
217	0x3f5583cc	0.8340423
218	0x3f14de05	0.58151275
219	0xbe4bdede	-0.19909236
220	0x3e5974f3	0.21236019
221	0xbf2a3c8b	-0.6649863
222	0xbea9bfdc	-0.3315419
223	0xbe489481	-0.195879
224	0x3e699c07	0.22813426
225	0xbef88706	-0.48540515
226	0xbe69e290	-0.22840333
227	0x3e7de0f4	0.24792844
228	0x3f8c865c	1.0978503
229	0xbf9f80ac	-1.2461143
230	0x3ea018bd	0.31268874
231	0xbdcc8c15	-0.09987656
232	0x3f7b08ff	0.980606
233	0xbf458700	-0.7715912
234	0xbe6a291b	-0.22867243
235	0x3e89a881	0.2688637
236	0x3f99ad70	1.2006054
237	0xbe11c1c1	-0.14234067
238	0x3f1f7ac9	0.6229673
239	0x3ed8f278	0.4237249
240	0xbdab86a5	-0.08375291
241	0xbfb4a740	-1.4113541
242	0x3e43a678	0.19106472
243	0x3f26e223	0.6518881
244	0x3f01b366	0.50664365
245	0xbfb2d0d4	-1.3969979
246	0xbf409f4b	-0.7524306
247	0x3f79eca7	0.9762673
248	0xbf6ee6e6	-0.93321073
249	0x3df1bc17	0.118034534
250	0x3cf16990	0.029469281
251	0x3fc4b711	1.5368367
252	0xbdc32920	-0.09529328
253	0xbeb86e4d	-0.36021653
254	0xbe9b399c	-0.3031739
255	0xbec358ae	-0.38153595

onnx::Conv_84 f4 [32]
0	0xbe146d1d	-0.14494748
1	0x3ef78e4e	0.48350757
2	0x3e98244b	0.2971519
3	0xbec6c1df	-0.38819787
4	0x3e8f3570	0.27970457
5	0x3f036bb4	0.51336217
6	0xbe9d1834	-0.30682528
7	0x3eb453c4	0.35220158
8	0x3f06a89b	0.5260102
9	0x3ea3464b	0.31889567
10	0x3f6728a0	0.90296364
11	0xbe64052c	-0.22267598
12	0x3ca8ed8a	0.02062108
13	0xbec23479	-0.37930658
14	0x3ec160b0	0.3776908
15	0xbec814a2	-0.39078242
16	0x3e6f192e	0.23349449
17	0x3dcb6ba8	0.09932643
18	0xbd3e8dbf	-0.0465219
19	0x3eebc947	0.46052
20	0x3e815108	0.25257134
21	0x3ef8bba0	0.48580647
22	0xbe3e0447	-0.18556319
23	0xbdaae1a8	-0.08343822
24	0x3d02c1bb	0.031923037
25	0x3f01a45f	0.50641435
26	0x3cc79028	0.024360731
27	0x3f18f1c3	0.597439
28	0x3f222ca5	0.6334937
29	0x3ed365fa	0.4128874
30	0xbbf023c0	-0.0073284805
31	0x3e3ceb7a	0.18449202

onnx::Conv_86 f4 [32, 32, 3, 3]
0	0xbd617aa0	-0.055048585
1	0x3d3145ef	0.043279584
2	0xbcf0945d	-0.02936762
3	0x3a1b0b32	0.0005914449
4	0xbd2474a4	-0.0401503
5	0xbde666cc	-0.11250076
6	0x3db69a3d	0.08916137
7	0x3d22f8cc	0.039788052
8	0xbc0ca202	-0.008583548
9	0xbde8dc44	-0.11370137
10	0x3d85e2b5	0.065373816
11	0x3cfca857	0.03084199
12	0xbdd8226c	-0.105534405
13	0xbc6c0a28	-0.014406718
14	0xbdee5e8b	-0.116391264
15	0xbd13c9d0	-0.036081135
16	0x3debb23c	0.11508605
17	0xbd938c24	-0.07204464
18	0x3c27e430	0.010247275
19	0xbda5ddd8	-0.08098954
20	0x3cbe6a48	0.023244038
21	0x3d28c809	0.041206393
22	0xbd6ea460	-0.05826223
23	0xbd5984e5	-0.053105254
24	0xbca0bd3e	-0.019621488
25	0xbda3af2e	-0.07992397
26	0x3d5ecda2	0.054395325
27	0xbbdb253e	-0.006687789
28	0xbdc3b8b0	-0.09556711
29	0x3befc304	0.007316949
30	0x3d723f9a	0.059142686
31	0xbd770958	-0.060311645
32	0xbc9f1d78	-0.019423231
33	0xbc081912	-0.0083067585
34	0xbdf5a18f	-0.119937055
35	0x3d1b2ab9	0.03788254
36	0xbcb0357f	-0.021509884
37	0xbbcd9b5c	-0.006274624
38	0x3d70e39d	0.05881082
39	0xbcb8a565	-0.022539804
40	0x3c6ce9de	0.014460055
41	0x3e163804	0.14669806
42	0x3e44d223	0.19220786
43	0x3d1368af	0.035988506
44	0xbe0f57fc	-0.13998407
45	0x3d1f6742	0.038916834
46	0x3b13f20c	0.002257469
47	0x3dffdb88	0.12493044
48	0xbe0ec599	-0.13942565
49	0x3de8cdc3	0.11367371
50	0xbd7efc27	-0.06225219
51	0xbcd60fee	-0.026130643
52	0x3d037765	0.032096285
53	0x3db05901	0.08610726
54	0x3e56822e	0.20948097
55	0x3d29724d	0.04136877
56	0xbd6cff73	-0.057860803
57	0xbd338657	-0.04382929
58	0x3e1d1b27	0.15342389
59	0xbded9b75	-0.11601917
60	0x3e01b6e6	0.12667426
61	0x3cd49dc5	0.025954137
62	0x388f4ecf	6.8334506e-05
63	0x3bc4998e	0.0059997505
64	0xbdc1fbbf	-0.09471845
65	0xbd9b965b	-0.075970374
66	0xbd99f6e6	-0.07517795
67	0xbe04a3b8	-0.12953079
68	0xbd3def28	-0.046370655
69	0xbda27c00	-0.079338074
70	0x3d52a0a1	0.05142272
71	0xbd8ca3b4	-0.068671614
72	0x3d53fb59	0.051753376
73	0x3dc9b736	0.09849398
74	0x3db27198	0.087130725
75	0xbb9b9891	-0.004748412
76	0xbd5a11c8	-0.053239614
77	0x3e1c7a07	0.15280925
78	0x3decea5a	0.115681365
79	0xbd1587f1	-0.036506597
80	0xbb3084eb	-0.0026934694
81	0x3d708a5d	0.058725704
82	0xbc9d3823	-0.019191807
83	0x3da97810	0.08274853
84	0x39dc7595	0.00042049275
85	0x3db965e3	0.090526365
86	0x3cf50c42	0.029913072
87	0x3d45880f	0.04822546
88	0x3dd07f81	0.101805694
89	0x3dcd9c32	0.100395575
90	0x3d8af82f	0.067856185
91	0xbd5a1f8c	-0.05325274
92	0x3d531893	0.051537108
93	0x3d26c8d7	0.04071888
94	0xbd46c537	-0.048527922
95	0x3cabe26b	0.020981988
96	0xbccdcd11	-0.025122197
97	0x3d2c7e80	0.042112827
98	0x3df32ce3	0.11873796
99	0xbde47ef4	-0.11157027
100	0x3d7b518a	0.06135706
101	0xbc9d1a23	-0.019177502
102	0xbd3fe4f4	-0.046849206
103	0x3d86295d	0.06550858
104	0xbdd00e23	-0.10158946
105	0x3daf757a	0.08567329
106	0xbc103dad	-0.008803767
107	0xbd975448	-0.07389122
108	0xbd9b0af5	-0.07570449
109	0xbcf75f2d	-0.03019675
110	0xbde7f16d	-0.11325345
111	0xbdd71ea6	-0.105038926
112	0x3d2a27a1	0.0415417
113	0x3ca6e56c	0.020373069
114	0x3d8db21c	0.06918737
115	0x3dd11fee	0.10211168
116	0xbda6a63e	-0.08137177
117	0x3d6299fe	0.05532264
118	0xbdde4874	-0.10853663
119	0xbd16b819	-0.036796663
120	0xbd45724a	-0.048204698
121	0xbdefb34b	-0.11704119
122	0xbda98085	-0.08276466
123	0xbb8158b9	-0.003947344
124	0xbdf4d5ab	-0.119548164
125	0xbdb5c13a	-0.08874746
126	0x3dda4a56	0.1065871
127	0x3dfbb331	0.122900374
128	0x3c971abb	0.018445363
129	0xbd698d8d	-0.05701976
130	0x3d4223bb	0.047397356
131	0x3bee33da	0.007269365
132	0xbd6da08b	-0.058014434
133	0x3ca87ee0	0.020568311
134	0x3dc92124	0.09820774
135	0xbc84c743	-0.016208297
136	0xbd63475f	-0.055487987
137	0x3c4660ec	0.012108069
138	0xbc8c6557	-0.017138166
139	0x3bb44d1c	0.005502356
140	0xbd9c857f	-0.0764265
141	0xbc6e0633	-0.014527845
142	0xbda8c23b	-0.082401715
143	0xbe131201	-0.14362337
144	0xbc8f0314	-0.017457522
145	0x3a13b4aa	0.0005634526
146	0xbd94e228	-0.072696984
147	0xbcd27d54	-0.025694527
148	0xbd1c48c8	-0.038155347
149	0xbdd9bc6f	-0.10631644
150	0x3de721e9	0.11285765
151	0x3cd8b9dd	0.026455814
152	0xbce98b81	-0.028508903
153	0xbd27431e	-0.040835492
154	0xbd88ce06	-0.06679921
155	0x3daf34fc	0.08555028
156	0x3c6703b1	0.014100001
157	0xbca1a006	-0.019729625
158	0x3d0f3c8e	0.03496986
159	0x3d022198	0.03177032
160	0xbcc97f7d	-0.024596924
161	0x3df08204	0.117435485
162	0x3c4913cc	0.012272786
163	0x3d89a636	0.06721155
164	0x3de141c5	0.10998873
165	0xbdd4b817	-0.10386675
166	0x3d417daf	0.047239
167	0xbdd69475	-0.10477535
168	0xbda6a3c8	-0.081367075
169	0xbc9296cf	-0.017894177
170	0xbd6352f3	-0.05549903
171	0x3ccceaa1	0.025014224
172	0xbcc0916d	-0.023506844
173	0xbdbad4fd	-0.091226555
174	0xbe3892d6	-0.18024763
175	0x3c9c2bc7	0.019063843
176	0xbcf0d93f	-0.029400466
177	0x3d9922df	0.07477354
178	0x3d8ee0ae	0.06976448
179	0xbc6e125b	-0.0145307435
180	0xbdb76534	-0.0895485
181	0x3cad1e93	0.021132743
182	0xbd0bf962	-0.034173377
183	0xbe0814c1	-0.13289167
184	0xbcee77f6	-0.029109936
185	0x3de45d1c	0.11150572
186	0x3d7b7b20	0.061396718
187	0xbd827afd	-0.063711144
188	0xbe34d1c5	-0.17658146
189	0xbce77b53	-0.028257048
190	0x3d3bdff9	0.045867894
191	0x3cfc4914	0.030796565
192	0x3bc14185	0.005897703
193	0xbdb47775	-0.08811847
194	0x3ca1f435	0.019769767
195	0x3d1b8e2c	0.037977383
196	0xbdbec4b1	-0.0931486
197	0x3d6b90c3	0.057511102
198	0x3d320210	0.043459
199	0x3d0e6ac2	0.03476978
200	0xbdadd5bd	-0.08488033
201	0x3d515169	0.05110303
202	0x3d6abb64	0.057307616
203	0x3d92448a	0.07141979
204	0xbd68ddf3	-0.056852292
205	0xbe227be9	-0.1586758
206	0x3ae6fae7	0.0017622382
207	0x3bbee2b5	0.0058253654
208	0x3dae8e38	0.0852322
209	0xbe0b11c1	-0.13580991
210	0x3d13d3fa	0.03609083
211	0x3d00d495	0.031452734
212	0x3da7e57f	0.0819807
213	0x3d2347e3	0.03986348
214	0xbd767bb7	-0.060176577
215	0xbe112c78	-0.1417712
216	0xbdf11624	-0.11771801
217	0x3c7a3e5c	0.015273657
218	0xbd9ad0aa	-0.07559331
219	0x3b0c1417	0.002137428
220	0x3daecaa1	0.08534742
221	0xbe1a7156	-0.15082297
222	0x3dd85a13	0.10564055
223	0xbd065bc0	-0.032802343
224	0xbbc55b5a	-0.006022853
225	0xbd98ef8e	-0.074675664
226	0xbd4a9765	-0.049460787
227	0x3d018f16	0.031630598
228	0xbdbad479	-0.09122557
229	0x3ce33ec8	0.027739897
230	0xbcb3c710	-0.021945506
231	0xbd3b8b57	-0.04578718
232	0x3d99b8be	0.0750594
233	0x3d91eb76	0.07124989
234	0x3de88124	0.113527566
235	0x3ce50a90	0.027959138
236	0xbd348a38	-0.04407713
237	0x3d0ffaa4	0.03515114
238	0x3bd49aba	0.0064881714
239	0xbcd89b64	-0.026441284
240	0xbe22ab8f	-0.15885757
241	0x3ce603a0	0.0280779
242	0xbd1f79d6	-0.03893455
243	0x3da74375	0.08167163
244	0xbd175062	-0.036941893
245	0xbd8684ee	-0.06568323
246	0xbd9b0a84	-0.07570365
247	0xbc5826f2	-0.013192879
248	0xbd69cd74	-0.0570807
249	0xbd5f7aef	-0.054560598
250	0x3dd4f30a	0.103979185
251	0x3d21b1a6	0.03947606
252	0x3cc95ebd	0.024581308
253	0xbd88a9cf	-0.066730134
254	0xbcfbf752	-0.03075758
255	0xbe0d6390	-0.13807511

onnx::Conv_87 f4 [32]
0	0x3bba4c20	0.0056853443
1	0x3f5952d6	0.8489202
2	0x3f82695a	1.0188401
3	0x3f4de680	0.8042984
4	0xbe1eedd7	-0.15520416
5	0xbddda62f	-0.10822713
6	0xbf10e57b	-0.5660016
7	0x3f6b60bf	0.919445
8	0xbdc75208	-0.09732443
9	0x3f30eacf	0.6910829
10	0xbf209fc0	-0.6274376
11	0xbc997be8	-0.01873584
12	0x3f71ff3d	0.9453009
13	0x3e597c82	0.21238902
14	0x3f719d8a	0.9438101
15	0x3d6ee9a8	0.0583283
16	0x3ea8bd16	0.3295676
17	0x3f8611c8	1.0474176
18	0x3e8ff01c	0.28112876
19	0x3e5c092c	0.21487874
20	0xbd90887e	-0.07057284
21	0x3fe15216	1.7603176
22	0x3f1386aa	0.57627356
23	0x3e4766e2	0.1947284
24	0x3cb33bcb	0.021879097
25	0xbeee02a6	-0.46486396
26	0xbe33bacb	-0.17551725
27	0x3fa17284	1.2613072
28	0x3f1396e6	0.5765213
29	0x3f268d42	0.6505929
30	0xbf0d573e	-0.55211246
31	0xbf89c41e	-1.0762975

onnx::Conv_89 f4 [32, 32, 3, 3]
0	0x3de468db	0.11152812
1	0x3ce01e5a	0.027358223
2	0x3de2a822	0.11067225
3	0x3dc5b297	0.09653204
4	0xbd235768	-0.03987828
5	0x3c5e2b1c	0.013560083
6	0x3d95d2f1	0.073156245
7	0xbc86db72	-0.016462062
8	0x3df6e84d	0.120560266
9	0xbbbf7e5b	-0.00584392
10	0xbe1fc84f	-0.15603755
11	0x3d0d6268	0.034517676
12	0x3d2e4bc0	0.04255271
13	0x3e3a7bf0	0.18211341
14	0x3a7e8242	0.0009708741
15	0xbdb68b12	-0.08913244
16	0xbdd3a000	-0.10333252
17	0xbd1185ad	-0.035527874
18	0xbcf9d422	-0.03049666
19	0x3e8c9599	0.27457884
20	0xbd9c6806	-0.076370284
21	0x3dec2b97	0.115317516
22	0x3dbb38e3	0.0914171
23	0xbcc2fe56	-0.023802917
24	0xbd8c554a	-0.06852205
25	0x3ce34490	0.027742654
26	0x3cf0030e	0.029298332
27	0xbc8f15f4	-0.017466523
28	0x3ce60bc4	0.028081782
29	0xbdf83e27	-0.121212296
30	0xbe241dd3	-0.16027002
31	0x3d9bd506	0.0760899
32	0xbdcd59ad	-0.1002687
33	0x3dfbf09b	0.12301751
34	0xbd4ef068	-0.050522238
35	0x3d2ab7a1	0.04167903
36	0x3d7c846f	0.061649736
37	0x3d80fd53	0.06298318
38	0xbd2c5bc6	-0.04207971
39	0xbe05f254	-0.13080722
40	0xbde906f1	-0.11378277
41	0xbcbdb77a	-0.023158778
42	0x3e22c958	0.15897119
43	0x3dce4c10	0.100731015
44	0xbe273bad	-0.16331358
45	0x3d4c5b2f	0.049891647
46	0x3de6da56	0.11272113
47	0xbd878c07	-0.06618505
48	0xbd2415fe	-0.040060036
49	0xbddd9814	-0.10820022
50	0x3c210f78	0.009830348
51	0x3d20529c	0.039141282
52	0xbd6c6a07	-0.057718303
53	0x3c23fae4	0.010008547
54	0x3d9438ab	0.07237371
55	0x3e0063d1	0.12538077
56	0x3e216dab	0.15764491
57	0x3c877443	0.01653493
58	0x3de5fd14	0.112299114
59	0x3d8d5226	0.06900434
60	0x3d09e85a	0.033668853
61	0xbce6addd	-0.028159076
62	0x3d7fe05f	0.062469836
63	0xbd4c9e95	-0.049955923
64	0x3d796e62	0.060896285
65	0x3e3adfae	0.1824939
66	0xbd5eb7fc	-0.05437468
67	0xbd3e1ae0	-0.04641235
68	0x3d03e926	0.03220477
69	0xbddbdb9a	-0.10735245
70	0x3e120437	0.1425942
71	0x3cde6b3c	0.027150743
72	0x3d0eb937	0.034844603
73	0xbe0de7be	-0.13857934
74	0x3e2a2b17	0.16618
75	0xbdd9827f	-0.10620593
76	0x3d281448	0.041034967
77	0x3d2493dc	0.040180072
78	0xbcf0dc1e	-0.029401835
79	0xbc0bb48c	-0.008526932
80	0x3d04d5e3	0.03243054
81	0xbcabf1c8	-0.020989314
82	0xbc9e181e	-0.01929861
83	0x3d98abd1	0.074546464
84	0x3dfd96b0	0.12382257
85	0xbbe3383b	-0.0069341934
86	0xbc444506	-0.011979347
87	0xbd828082	-0.06372167
88	0xbd880674	-0.06641856
89	0x3dec1fae	0.1152948
90	0x3d80231d	0.06256697
91	0x3cc70622	0.024294917
92	0x3dc90ee0	0.0981729
93	0xbe0ad5dd	-0.13558145
94	0x3d373995	0.04473265
95	0xbe0b5449	-0.13606371
96	0x3c2d1f11	0.010566489
97	0xbd55fc8c	-0.0522428
98	0xbdd11d73	-0.10210695
99	0xbe08d3e9	-0.13362087
100	0x3c68b1b5	0.014202525
101	0x3dc3afe5	0.095550336
102	0x3d8d20ed	0.06891046
103	0x3d5225a0	0.051305413
104	0xbd25a0fe	-0.040436737
105	0xbde21633	-0.110393904
106	0xbd2bc356	-0.041934334
107	0xbe116227	-0.14197598
108	0x3db75c07	0.089531
109	0x3dbf8725	0.09351949
110	0xbd5a0743	-0.05322958
111	0x3cd27ee2	0.025695268
112	0xbd73f246	-0.05955722
113	0x3d574587	0.05255654
114	0x3d92efa3	0.07174613
115	0x3d9b82f7	0.07593339
116	0xbda86ec1	-0.0822425
117	0xbc6bfd9b	-0.014403726
118	0xbc68eca2	-0.014216574
119	0xbd9dafc2	-0.07699539
120	0xbae5f93a	-0.0017545589
121	0xbe0738f6	-0.13205323
122	0xbbd6238f	-0.0065350006
123	0xbc37aa58	-0.011210047
124	0xbd966048	-0.07342583
125	0x3d81c513	0.06336417
126	0xbe50d6ab	-0.2039439
127	0x3de72dbc	0.1128802
128	0x3c00ca49	0.007860729
129	0xbc56edba	-0.013118202
130	0xbd798b5b	-0.060923915
131	0xbc3219a8	-0.010870375
132	0x3e39ec57	0.18156563
133	0x3c17d8fb	0.009268041
134	0xbe0c3bf1	-0.13694741
135	0xbc69b118	-0.014263414
136	0x3db1e140	0.08685541
137	0x3c5ba027	0.0134048825
138	0x3bdb0ab5	0.006684626
139	0xbc866b03	-0.016408449
140	0xbe306930	-0.17227626
141	0xbe418585	-0.1889859
142	0x3c830479	0.015993344
143	0x3d7cd752	0.061728783
144	0xbde62167	-0.1123684
145	0xbdc1dd64	-0.09466055
146	0x3ca04aff	0.01956701
147	0xbe2f2840	-0.17105198
148	0xbd8024d9	-0.06257028
149	0xbdb6fd5a	-0.08935042
150	0x3d93eba0	0.07222676
151	0xbdcc6eae	-0.09982048
152	0x3ce7c8ce	0.028293993
153	0xbd3155b7	-0.043294635
154	0x3dab6a4f	0.08369886
155	0x3e38e85e	0.18057391
156	0x3e213a03	0.15744786
157	0x3e0badb0	0.13640475
158	0x3e3a0b0e	0.1816828
159	0x3dbf7ba0	0.093497515
160	0xbdc234a2	-0.09482695
161	0x3d06f255	0.03294595
162	0xbc52852c	-0.012849133
163	0xbd10f587	-0.035390403
164	0xbdcd7c0f	-0.10033428
165	0xbd359eeb	-0.04434101
166	0x3b210993	0.0024572357
167	0xbdc2216d	-0.09479032
168	0xbd826d54	-0.06368509
169	0x3cf55579	0.029947983
170	0xbd624efa	-0.0552511
171	0x3b03ac36	0.002009166
172	0x3d783ef3	0.060606908
173	0x3df46fc4	0.1193538
174	0xbe08dfb6	-0.13366589
175	0x3d945381	0.072424896
176	0xbdb29710	-0.08720219
177	0xbdccb9ef	-0.099964015
178	0x3d2da415	0.04239281
179	0xbd0b3534	-0.033986285
180	0x3c96a54f	0.018389372
181	0x3cbf1f88	0.023330465
182	0xbb9ba1aa	-0.0047494965
183	0xbc5e31f4	-0.013561714
184	0x3d2caa8e	0.04215484
185	0x3c9d9d8e	0.019240167
186	0xbdc71e1a	-0.09722538
187	0xbd525912	-0.051354475
188	0xbdb031c6	-0.086032435
189	0xbd5f3568	-0.05449429
190	0x3dfb4428	0.12268859
191	0xbd68dbe4	-0.05685033
192	0xbe2c284d	-0.16812249
193	0x3e2377d6	0.15963683
194	0xbd1b7bcb	-0.037959855
195	0x3d136cb4	0.03599234
196	0xbb9cfe14	-0.0047910307
197	0xbd0363b4	-0.032077506
198	0xbd82528e	-0.06363402
199	0x3dac2602	0.08405687
200	0xbd4cc5ca	-0.049993314
201	0xbde5c155	-0.11218516
202	0xbd676d24	-0.05650057
203	0xbc29249f	-0.010323673
204	0x3e2cfc1c	0.16893047
205	0xbdef17c9	-0.116744585
206	0xbe06d904	-0.13168722
207	0x3b8969ee	0.004193536
208	0x3d40e532	0.047093578
209	0x3d8bf195	0.068331875
210	0x3c83837f	0.016053913
211	0xbd665acd	-0.056238938
212	0x3cdf3673	0.027247643
213	0x3db7af43	0.089689754
214	0xbd1ff354	-0.039050415
215	0x3d55f8bb	0.05223916
216	0x3dba4a20	0.090961695
217	0xbde6c278	-0.11267561
218	0x3de1b198	0.110202014
219	0x3c60b64d	0.013715339
220	0x3dc1af42	0.09457256
221	0xbe31bc42	-0.17356971
222	0x3da59e65	0.08086852
223	0xbc93df3b	-0.01805078
224	0x3cdaef25	0.026725361
225	0x3d234ef7	0.03987023
226	0xbd4e589d	-0.050377477
227	0xbe168ee8	-0.14702952
228	0xbdec0b64	-0.1152561
229	0x3dc8c49e	0.09803127
230	0x3d1d7a29	0.03844658
231	0xbe2bcbc0	-0.16776943
232	0xbd813fc1	-0.06310988
233	0xbde1fd9e	-0.11034702
234	0xbdce92c1	-0.10086585
235	0x3dd901a5	0.10596017
236	0x3dccd640	0.100018024
237	0x3d857c78	0.06517881
238	0xbda6314f	-0.081148736
239	0x3da1c582	0.07899
240	0x3dbe00f6	0.09277527
241	0x3dc88cc9	0.09792478
242	0x3dba403f	0.09094285
243	0x3d940b32	0.07228698
244	0x3db20eae	0.08694206
245	0xbd544a7c	-0.051828846
246	0xbd75304e	-0.05986052
247	0xbcb2a905	-0.02180911
248	0xbd5cd4ec	-0.053913996
249	0xbe3b19fb	-0.1827163
250	0xbb3660ed	-0.0027828768
251	0x3c87b464	0.01656551
252	0x3dc994e3	0.09842851
253	0xbd68b7e3	-0.056815993
254	0x3d220d92	0.039563723
255	0x3d583a24	0.052789822

onnx::Conv_90 f4 [32]
0	0xbe9a293d	-0.30109587
1	0x3ea3c594	0.31986678
2	0x3f835afc	1.0262141
3	0x3f95cbc9	1.1702815
4	0x3fa4af81	1.286606
5	0x3e7c9802	0.24667361
6	0x3f8040a1	1.0019723
7	0x3e82b976	0.2553212
8	0x3fe015d0	1.7506657
9	0xbe773bb2	-0.24143866
10	0xbdf77164	-0.120821744
11	0x3c81a820	0.015827239
12	0x3f7f2089	0.9965902
13	0x3f8e4021	1.111332
14	0x3e49761f	0.19673966
15	0x3ee1af7e	0.44079202
16	0x3ee13e7b	0.4399298
17	0xbe624734	-0.22097474
18	0xbee18017	-0.44043037
19	0x3f31381b	0.69226235
20	0x3f702e0e	0.93820274
21	0x3ec1bf12	0.37841088
22	0x3d5106b6	0.05103179
23	0x3d5d69e8	0.05405608
24	0xbe275b6e	-0.16343471
25	0x3e9b452f	0.3032622
26	0x3fc7329f	1.5562323
27	0x3e95957c	0.2921561
28	0x3f36f39f	0.71465486
29	0x3f99ffc0	1.2031174
30	0xbea2b386	-0.3177759
31	0x3ee15a3f	0.44014165

onnx::Conv_92 f4 [32, 32, 3, 3]
0	0x3d8925a1	0.0669663
1	0x3d99131b	0.07474347
2	0x3b780cfb	0.0037849534
3	0xbc4a71c0	-0.012356222
4	0xbcc056ae	-0.023478832
5	0x3db32a94	0.087483555
6	0x3d50394b	0.05083589
7	0xbd1a1ff4	-0.03762813
8	0x3c39b0e3	0.011333677
9	0x3cea9273	0.028634286
10	0xba9721d7	-0.0011530471
11	0xbe090e7b	-0.1338443
12	0xbd1f0866	-0.03882637
13	0xbdc5a6e5	-0.09650973
14	0x3d6cc17e	0.057801716
15	0xbc1a4962	-0.00941691
16	0xbd929541	-0.07157374
17	0x3cb3c2bc	0.021943443
18	0x3d30c420	0.04315579
19	0x3cb35d20	0.021894991
20	0xbd07a7e7	-0.03311911
21	0x3cfa3080	0.030540705
22	0x3ca68b57	0.020330114
23	0x3d8bfd7c	0.06835458
24	0xbd25752a	-0.04039494
25	0xbc938099	-0.018005656
26	0xbcb7c2ae	-0.022431698
27	0xbd49b29a	-0.049242593
28	0xbc4a9e11	-0.0123667875
29	0x3c3442a4	0.0110022165
30	0xbc22b444	-0.009930674
31	0xbcfd98a3	-0.030956572
32	0x3bf1317b	0.007360635
33	0x3ce938ce	0.02846947
34	0xbdc51be3	-0.096244596
35	0xbd8ec1a5	-0.069705285
36	0xbc00999e	-0.007849125
37	0x3d0d2fd3	0.034469437
38	0x3de1c35b	0.11023589
39	0x3bae5cfc	0.005321143
40	0x3b83f5d2	0.004027107
41	0xbd3be27e	-0.045870297
42	0x3da650aa	0.08120854
43	0x3dbf3d24	0.093378335
44	0x3cf30815	0.02966694
45	0x3d86de18	0.0658533
46	0xbc143613	-0.009046095
47	0xbc426b33	-0.011866379
48	0x3cd2b4c0	0.025720954
49	0xbaf2d03d	-0.0018525195
50	0x3d6854d0	0.05672151
51	0x3d9d3301	0.07675744
52	0xbc99250f	-0.018694429
53	0x3a118992	0.00055518106
54	0xbdba0b85	-0.090842284
55	0x3ca3c102	0.019989494
56	0x3d54731e	0.051867597
57	0xbc61af79	-0.013774746
58	0x3cc08ee3	0.023505634
59	0xbce1f54f	-0.027582793
60	0xbdaa678a	-0.0832053
61	0xbd141f8c	-0.036162898
62	0x3c80d5a6	0.015726876
63	0xbd9eda57	-0.07756489
64	0xbc12f2f2	-0.0089690555
65	0x3cd95eb2	0.026534412
66	0xbb36dbe7	-0.0027902068
67	0xbc60dde1	-0.013724775
68	0xbd886ac9	-0.06660993
69	0x3d041dee	0.032255106
70	0xbd85b6b9	-0.06528992
71	0xbce12a44	-0.027485974
72	0x3d80b9ad	0.06285415
73	0x3c5e300e	0.013561262
74	0xbcb735ae	-0.022364464
75	0x3d94a226	0.0725749
76	0xbd00f06e	-0.03147929
77	0x3d894429	0.06702454
78	0xbc9733a7	-0.018457247
79	0xbd11a972	-0.035561986
80	0x3d82071a	0.06349011
81	0x3d834a1d	0.0641062
82	0xbc9a2d96	-0.018820565
83	0xbc7cfcfc	-0.015441176
84	0xbcd58f69	-0.02606936
85	0x3d3333e4	0.04375066
86	0x3dd2d958	0.10295361
87	0x3c340bfd	0.010989186
88	0x3cc274d4	0.023737349
89	0x3cd3bd72	0.02584717
90	0xbd069408	-0.032856017
91	0xbc9fb7a3	-0.019496744
92	0xbd5936dd	-0.053030837
93	0xbd7248de	-0.059151523
94	0x3cb16684	0.021655329
95	0x3b8e2e4b	0.0043390146
96	0x3cd23e23	0.025664395
97	0xbca1bc75	-0.019743184
98	0x3c8a6322	0.016892973
99	0xbcb3c051	-0.02194229
100	0xbca691bb	-0.020333162
101	0xbd8edd19	-0.06975765
102	0xbc743970	-0.014906272
103	0xbd8266b5	-0.06367246
104	0x3c16bf9e	0.009200959
105	0x3d69fd02	0.057126053
106	0x3d64210e	0.055695586
107	0x3dabd90e	0.08391009
108	0xbc02981c	-0.007970836
109	0xbb1cd667	-0.0023931505
110	0xbceb4893	-0.02872113
111	0x3c085406	0.008320814
112	0x3d61401d	0.054992784
113	0xbd7d3cc4	-0.06182553
114	0xbd07af56	-0.033126198
115	0x3d890e4a	0.066921785
116	0x3cf9555f	0.030436216
117	0x3e04e2ba	0.12977114
118	0xbb635832	-0.003469002
119	0x3b962e83	0.0045831813
120	0xbd4fc88c	-0.050728366
121	0xbd71a8e9	-0.058998976
122	0xbcc86fd0	-0.024467379
123	0xbd093e02	-0.0335064
124	0xbd13df73	-0.03610177
125	0xbce8a173	-0.028397297
126	0xbc8b3b3c	-0.016996019
127	0xbb9feed1	-0.004880764
128	0x3d48684a	0.048927583
129	0xbd1c2194	-0.03811796
130	0x3d08a270	0.033358037
131	0x3ccc8d3c	0.02496969
132	0x3cc79506	0.024363052
133	0x3d604b9b	0.054759603
134	0x3ca432f5	0.02004383
135	0xbd24335f	-0.040088054
136	0x3ccff6eb	0.025386294
137	0x3b338c21	0.0027396756
138	0xbd8d0535	-0.06885759
139	0xbd80e771	-0.06294144
140	0xbda57c5a	-0.08080359
141	0xbd337431	-0.04381198
142	0xbd164095	-0.036682684
143	0xbcc4eb05	-0.024037847
144	0xbd04c080	-0.032410145
145	0xbcdabc7e	-0.026701208
146	0x3c55c2aa	0.0130469
147	0x3d592331	0.053012077
148	0xbd49b70f	-0.049246844
149	0xbdb4ec9c	-0.08834192
150	0xbc4b5c29	-0.012412109
151	0xbe08f2a6	-0.13373813
152	0xbd8ee62d	-0.06977496
153	0xbc447550	-0.01199086
154	0x3dda5c62	0.10662152
155	0xbdae19ee	-0.085010394
156	0x3d40e964	0.04709758
157	0x3db99723	0.0906203
158	0x3d3b9715	0.04579838
159	0x3b71fb3f	0.0036923436
160	0xbbf449bf	-0.0074550803
161	0x3cd7e43e	0.026353952
162	0x3c3da828	0.011575736
163	0x3d617816	0.055046163
164	0x3d80c93e	0.06288384
165	0xbd8642ce	-0.06555711
166	0x3d05dbf9	0.032680485
167	0x3cbc52d7	0.02298872
168	0x3cbce8ba	0.023060191
169	0x3b53f1a0	0.0032340065
170	0x3c3362fb	0.010948892
171	0x3c3776da	0.01119777
172	0x3c9a3a98	0.018826768
173	0x3c7905d1	0.015199141
174	0x3cc6954e	0.024241116
175	0x3d32fab7	0.04369613
176	0xbc3be98d	-0.011469257
177	0xbc3211a2	-0.010868462
178	0xbc243bc1	-0.010024012
179	0x3ce849a9	0.028355436
180	0xba9020f9	-0.0010996155
181	0xbd85de5e	-0.06536554
182	0x3d49e876	0.049293958
183	0xbd21c269	-0.039492045
184	0x3cbb20b2	0.022842739
185	0x3d609976	0.05483385
186	0xbcefae25	-0.029257843
187	0x3ca2ce98	0.019873902
188	0x3d16dc93	0.03683145
189	0xbd9ae9d3	-0.0756413
190	0xbd46995a	-0.04848609
191	0xbd9cce58	-0.076565444
192	0xbd35e782	-0.044410236
193	0x3bf7d60c	0.007563358
194	0x3d7c02db	0.06152616
195	0x3c9957ab	0.018718561
196	0xbbf46953	-0.0074588447
197	0xbcad4032	-0.021148775
198	0x3d905b30	0.07048643
199	0xbcac9de3	-0.02107138
200	0xbbbf0b5b	-0.005830211
201	0x3a8a5d53	0.0010556377
202	0xbc2134fc	-0.009839293
203	0xbc6a7e7b	-0.014312382
204	0x3d2597f6	0.040428124
205	0x3dc55289	0.09634883
206	0x3c8d4057	0.017242594
207	0xbccc5944	-0.024944909
208	0xbdb0c610	-0.086315274
209	0x3d8afca7	0.06786471
210	0xbcff44ab	-0.031160673
211	0xbc4e9c59	-0.012610518
212	0xbd5f9c68	-0.05459252
213	0xbc5e6a18	-0.013575099
214	0xbdaeeb02	-0.08540918
215	0x3d61a8eb	0.055092733
216	0x3cc72ccb	0.024313351
217	0x3d27eea4	0.04099907
218	0xbd147fed	-0.036254812
219	0x3d13a250	0.036043465
220	0x3e17f67f	0.14840125
221	0x3b6b880a	0.003593924
222	0x3b13a551	0.0022528956
223	0x3cce264e	0.02516475
224	0xbc601f7a	-0.01367938
225	0x3c7d84d1	0.01547356
226	0x3d5d25b0	0.05399102
227	0xbcbdddcf	-0.023177056
228	0xbcc0c357	-0.023530645
229	0x3d35d11e	0.044388883
230	0x3aa1b1cf	0.0012336316
231	0x3c6e5fcc	0.014549207
232	0x3d586c09	0.052837405
233	0x3d9dca3c	0.07704589
234	0xbc09ab68	-0.008402683
235	0x3c3a2a2b	0.011362593
236	0x3d29dbc1	0.04146934
237	0x3d10bfef	0.035339292
238	0x3cc5afcc	0.024131678
239	0x3c379973	0.011206019
240	0x3d078ac7	0.033091333
241	0x3d0ad9f3	0.03389926
242	0x3d26756f	0.040639337
243	0x3bc57e64	0.00602703
244	0x3c93a6ff	0.018023966
245	0xbd131d48	-0.035916597
246	0x3ca7e1ce	0.020493414
247	0xbdd37012	-0.1032411
248	0x3d38865b	0.045050006
249	0x3e146a6e	0.14493725
250	0xbbe868dc	-0.0070925783
251	0x3d790dfe	0.06080436
252	0xbbf17f05	-0.0073698782
253	0x3dd90f8f	0.10598671
254	0xbaea76a8	-0.0017888146
255	0xbcc42a9b	-0.023946097

onnx::Conv_93 f4 [32]
0	0xbf237d3a	-0.63862956
1	0x3f54de1f	0.8315143
2	0xbe9afb26	-0.30269736
3	0xbcb11020	-0.021614134
4	0xbebda8a4	-0.37042725
5	0x3f618b7b	0.88103455
6	0x3edcd02e	0.43127578
7	0xbe44e4be	-0.19227883
8	0x3e808cbe	0.25107378
9	0x3f22368c	0.6336448
10	0x3fd072e6	1.6285064
11	0x3e6af6e2	0.22945741
12	0x3fb01c3a	1.3758614
13	0x3f844ee7	1.0336579
14	0x3fb69bde	1.4266317
15	0x3f74493f	0.95424265
16	0x3fca3601	1.5797731
17	0x3f870034	1.0546937
18	0xbe8bdce8	-0.27316976
19	0x3facc9b6	1.3499057
20	0xbd8bae6a	-0.06820376
21	0x3e4e33d8	0.20136964
22	0x3ee2188d	0.44159356
23	0x3dcc416c	0.09973416
24	0x3e93d074	0.28869975
25	0x3e7bfa06	0.24607095
26	0x3e23aa56	0.15982947
27	0x3f0335a5	0.5125373
28	0xbee26b39	-0.4422243
29	0x3fa7db51	1.3113805
30	0xbd991046	-0.07473807
31	0x3e8c8c15	0.27450624
