models/test9x9/main.pt (torch, 189732 bytes, 69 tensors)

startBlock.0.weight f4 [4, 4, 3, 3]
0	0xbdde8407	-0.10865026
1	0xbde88481	-0.11353398
2	0xbd7db11e	-0.06193649
3	0xbe270641	-0.1631098
4	0x3db013fc	0.08597562
5	0x3c060bbf	0.008181511
6	0xbe1e78b0	-0.15475726
7	0x3e0f6882	0.1400471
8	0x3dca0660	0.09864497
9	0xbcacaff2	-0.021079991
10	0x3d39e958	0.04538855
11	0x3db7436e	0.08948408
12	0xbe20605b	-0.15661757
13	0xbca577f3	-0.020198798
14	0x3d773645	0.06035449
15	0xbc968193	-0.018372333
16	0xbdec843c	-0.11548659
17	0x3bc4c96f	0.006005458
18	0xbc04b289	-0.008099207
19	0x3dee19f0	0.11626041
20	0x3e091f1e	0.13390777
21	0x3e0983b8	0.13429153
22	0xbd8b0a85	-0.06789116
23	0xbc93a7d1	-0.018024357
24	0xbe17fdeb	-0.14842956
25	0x3e0716ce	0.13192293
26	0xbe34cedc	-0.17657036
27	0x3e15be88	0.14623463
28	0xbde2d067	-0.11074906
29	0xbd6fb442	-0.058521517
30	0xbdfa696f	-0.12227141
31	0x3d917f23	0.071043275
32	0xbe21ccb6	-0.15800747
33	0x3db139eb	0.08653625
34	0xbdd86ee0	-0.10568023
35	0x3e0e185a	0.13876477
36	0xbdaf9c53	-0.08574738
37	0xbe2524d2	-0.16127327
38	0x3ba63bcd	0.005073047
39	0xbdb74c2e	-0.08950077
40	0x3d83f80f	0.06443798
41	0xbe0ffe5b	-0.14061873
42	0x3b855053	0.0040684133
43	0xbdf72bfe	-0.12068938
44	0xbdd9da20	-0.10637307
45	0xbd9db7b9	-0.07701058
46	0x3bde8aec	0.006791463
47	0xbe03ca46	-0.1287013
48	0x3c06e2c3	0.008232775
49	0xbde66435	-0.11249582
50	0x3bbfe914	0.0058566425
51	0x3d81e684	0.063427955
52	0x3e1814a1	0.1485162
53	0x3de4e6ff	0.111768715
54	0x3c84ef13	0.01622728
55	0x3dde7a1e	0.10863136
56	0x3d3c8c42	0.046032198
57	0xbd5e3c13	-0.05425651
58	0xbc56022d	-0.013062042
59	0x3d8ebb9b	0.06969377
60	0xbce90be4	-0.028448053
61	0xbd42cdb1	-0.047559444
62	0xbddf4afe	-0.109029755
63	0xbdcefd5b	-0.101069175
64	0x3d981313	0.07425513
65	0x3e16d0e7	0.14728127
66	0xbdfb78d9	-0.12278909
67	0xbdd5358b	-0.10410603
68	0x3de5db2d	0.11223445
69	0xbdf4362a	-0.119243935
70	0x3dbe0fab	0.09280332
71	0xbdb2714e	-0.087130174
72	0x3e3463e3	0.17616229
73	0xbb29b099	-0.0025892614
74	0x3de24564	0.110483915
75	0x3e19edab	0.1503207
76	0x3cc8ec83	0.02452684
77	0xbdc80d12	-0.09768118
78	0xbd8e2166	-0.06939964
79	0xbdce9d49	-0.100885935
80	0x3dd30bb2	0.10304965
81	0xbd928897	-0.07154959
82	0x3de0fd02	0.109857574
83	0xbdbe10d2	-0.09280552
84	0xbc3fd985	-0.011709576
85	0x3c29edc5	0.01037163
86	0xbc0be15e	-0.008537618
87	0xbe265e0a	-0.1624681
88	0x3e07abc2	0.13249114
89	0x3debb4a0	0.11509061
90	0x3e1c89de	0.15286967
91	0x3c97b400	0.018518448
92	0x3d919deb	0.071101986
93	0xbdc472aa	-0.09592183
94	0xbc0b2f9a	-0.008495236
95	0xbd8f383c	-0.06993148
96	0xbd673ea7	-0.056456234
97	0xbda252f6	-0.0792598
98	0xbdf63c9d	-0.1202328
99	0x3e14ffd5	0.14550717
100	0x3e04bc69	0.12962498
101	0x3d84620e	0.06464015
102	0x3b8b1048	0.0042438842
103	0x3de1585d	0.11003182
104	0xbe1bb251	-0.15204741
105	0x3debdfdc	0.11517307
106	0xbe1b506d	-0.15167399
107	0xbd591601	-0.0529995
108	0xbe0b156e	-0.13582394
109	0xbdef84ca	-0.116952494
110	0xbcf38426	-0.0297261
111	0xbd0d9c00	-0.0345726
112	0xbdab1a9c	-0.08354685
113	0x3e136fd4	0.14398128
114	0x3d8c9a69	0.06865389
115	0x3d90d0a4	0.07071045
116	0x3d72c993	0.059274267
117	0x3cc5b2f2	0.02413318
118	0x3ba7d9ba	0.0051223906
119	0x3d8f5598	0.069987476
120	0xbe0ed74e	-0.1394932
121	0xbe0d1030	-0.13775706
122	0xbe0955db	-0.13411658
123	0x3c80435e	0.015657123
124	0xbd0e88e1	-0.034798507
125	0x3d9640ce	0.07336579
126	0x3d830d9f	0.063990824
127	0xbd5fec1d	-0.054668535
128	0xbe0b4781	-0.13601495
129	0x3d0327da	0.032020427
130	0x3e27d10f	0.16388343
131	0xbda151b3	-0.07876911
132	0xbd07c48d	-0.03314643
133	0xbd9f7312	-0.0778562
134	0x3da6f0c4	0.08151391
135	0x3e01f44a	0.12690845
136	0x3d24fdb7	0.040281024
137	0xbd5ae2de	-0.053439014
138	0xbe251867	-0.1612259
139	0x3d274430	0.040836513
140	0xbdd2397a	-0.10264869
141	0xbd4d7408	-0.050159484
142	0x3d693e69	0.056944285
143	0xbdc27c85	-0.094964065

startBlock.0.bias f4 [4]
0	0x3d98f045	0.07467703
1	0x3a64e5c6	0.00087317487
2	0xbc57c5f5	-0.013169755
3	0xbe14d734	-0.14535218

startBlock.1.weight f4 [4]
0	0x3f7d3573	0.9890968
1	0x3f7e8692	0.9942409
2	0x3f81034b	1.007913
3	0x3f8077f9	1.0036613

startBlock.1.bias f4 [4]
0	0xbc396cec	-0.011317473
1	0xbc03e9b0	-0.008051321
2	0x3c2924e7	0.01032374
3	0x3b9c2c8c	0.0047660526

startBlock.1.running_mean f4 [4]
0	0x3b8a550a	0.004221563
1	0xbe4b7146	-0.19867429
2	0x3c10fecb	0.00884981
3	0xbe294f91	-0.16534258

startBlock.1.running_var f4 [4]
0	0x3e658044	0.2241221
1	0x3e6dcb65	0.2322212
2	0x3e67b48c	0.22627467
3	0x3e5f2213	0.21790342

backBone.0.conv1.weight f4 [4, 4, 3, 3]
0	0x3dd8562a	0.105633095
1	0x3dd92bbe	0.10604046
2	0x3deba95e	0.115069136
3	0x3db2ad7f	0.08724498
4	0x3a38ed36	0.000705439
5	0xbdd1f71c	-0.102522105
6	0xbcb9be57	-0.022673769
7	0xbc9cae04	-0.019125946
8	0x3d78ba2b	0.06072442
9	0x3e08d997	0.13364254
10	0x3d8a3bda	0.06749697
11	0x3d06a985	0.03287651
12	0x3d0ba3cc	0.034091756
13	0xbe29a3af	-0.16566347
14	0xbc73e06a	-0.014885047
15	0xbd80a1e7	-0.062808804
16	0xbd6a69df	-0.057229873
17	0xbe06e31b	-0.13172571
18	0xbdb19669	-0.086712666
19	0x3e0c14e1	0.1367984
20	0xbde2bb2c	-0.110708565
21	0x3d571953	0.052514385
22	0xbe181c1e	-0.14854476
23	0x3d106aa6	0.035257958
24	0x3ddfd012	0.10928358
25	0xbda0aaf1	-0.078451045
26	0x3deb4c27	0.11489134
27	0x3de613ae	0.11234222
28	0x3e2b6019	0.16735877
29	0x3e367431	0.17817761
30	0x3d2bd907	0.04195502
31	0xbdb64072	-0.08899011
32	0x3dfb2a56	0.12263934
33	0xbc4445d3	-0.011979538
34	0x3e26ce98	0.16289747
35	0x3e08f461	0.13374473
36	0xbda27595	-0.07932583
37	0xbc5ac63c	-0.013352927
38	0xbd3a939f	-0.04555094
39	0x3dd7dd64	0.10540274
40	0x3dbb8d4b	0.09157809
41	0x3e16b5be	0.14717767
42	0xbdf89ca0	-0.12139249
43	0x3dd4ddeb	0.1039389
44	0xbc86deba	-0.016463626
45	0x3d8da0e3	0.06915452
46	0x3e118327	0.14210187
47	0xbdae6289	-0.08514888
48	0xbde0eb33	-0.10982361
49	0xbd089d12	-0.03335292
50	0xbda35be7	-0.07976513
51	0x3e04ba3c	0.12961668
52	0xbdb42839	-0.08796734
53	0x3e252f0d	0.1613123
54	0xbd0644ec	-0.032780573
55	0xbe00e4b1	-0.12587239
56	0xbde08ea7	-0.10964709
57	0x3e0b1958	0.13583887
58	0x3dd2b4a6	0.10288362
59	0x3e0d5d0c	0.13805026
60	0x3de4fce6	0.11181049
61	0xbda853d7	-0.08219116
62	0xbddbc5f5	-0.10731117
63	0xbd8e98bb	-0.06962725
64	0x3cd22977	0.025654538
65	0xbe13885f	-0.1440749
66	0xbe20e744	-0.15713221
67	0xbe182ca5	-0.1486078
68	0x3df33f0a	0.11877258
69	0xbdd56f49	-0.104216166
70	0xbd8b6c11	-0.068077214
71	0x3e1da97e	0.15396687
72	0xbdddf0dd	-0.10836957
73	0xbd33b4b1	-0.043873493
74	0x3da126e9	0.0786875
75	0xbe274403	-0.16334538
76	0xbd68194e	-0.056664757
77	0xbe1325d1	-0.14369895
78	0xbbe12b09	-0.0068715853
79	0x3e15d5a1	0.14632274
80	0x3b55d62b	0.0032628875
81	0x3d95d2b8	0.07315582
82	0x3e221db9	0.15831651
83	0x3dee6291	0.11639894
84	0x3b22a2ea	0.0024816343
85	0x3e20b500	0.15694046
86	0xbe0eccf7	-0.13945375
87	0xbe11c103	-0.14233784
88	0xbccd9bcc	-0.025098704
89	0x3e0a83c2	0.13526824
90	0x3e1ea748	0.154935
91	0xbe24030b	-0.16016786
92	0xbd824017	-0.063598804
93	0xbe23a787	-0.15981875
94	0x3d9550d2	0.07290806
95	0xbd06565a	-0.032797195
96	0x3dbbd5cb	0.09171637
97	0x3d54cc66	0.051952742
98	0x3d35cfa9	0.044387493
99	0xbd152ae3	-0.036417853
100	0xbd321710	-0.043479025
101	0x3df667a7	0.12031489
102	0xbdb8ccdf	-0.09023451
103	0xbb12d054	-0.0022402005
104	0xbd70f854	-0.058830574
105	0xbd5e50c2	-0.054276235
106	0xbce322d0	-0.02772656
107	0x3dfa6542	0.12226345
108	0xbda91909	-0.08256728
109	0xbe0cb4ac	-0.13740796
110	0x3e0ce4bc	0.1375913
111	0xbc8783bf	-0.016542314
112	0x3dc2969c	0.09501383
113	0xbe0160f3	-0.1263464
114	0x3d383172	0.04496903
115	0xbe0b5c21	-0.13609363
116	0x3e0ee83a	0.13955775
117	0x3dfb05a5	0.12256936
118	0x3c06cf35	0.008228113
119	0x3dd6133c	0.104528874
120	0xbd5355fa	-0.051595666
121	0x3dd596d8	0.10429162
122	0xbd084488	-0.03326848
123	0xbe15d4da	-0.14631978
124	0x3df7b186	0.12094407
125	0xbda7dc83	-0.08196356
126	0x3e0c1d1f	0.13682984
127	0x3d89d5ac	0.06730208
128	0xbcd68f19	-0.026191281
129	0xbe1bbe98	-0.15209424
130	0x3d7e0d10	0.062024176
131	0x3e10b6aa	0.14132181
132	0x3d8a1544	0.06742337
133	0xbcdc9371	-0.026925774
134	0x3dddaa39	0.10823483
135	0x3c0016f6	0.007817974
136	0xbd81cbab	-0.06337675
137	0x3dfd3b7b	0.123648606
138	0xbbd1527e	-0.0063880077
139	0xbdc9f67b	-0.098614655
140	0xbdce7cb8	-0.10082382
141	0xbda82f82	-0.082121864
142	0xbda1f7b2	-0.07908572
143	0x3da2c937	0.07948535

backBone.0.conv1.bias f4 [4]
0	0x3e099c68	0.1343857
1	0x3c108c4d	0.008822513
2	0xbdb04bf6	-0.086082384
3	0xbceee153	-0.029160177

backBone.0.bn1.weight f4 [4]
0	0x3f7cf82f	0.988162
1	0x3f80231f	1.0010718
2	0x3f818b6d	1.0120674
3	0x3f808e44	1.0043416

backBone.0.bn1.bias f4 [4]
0	0xbc3e909e	-0.011631159
1	0xbb36736a	-0.0027839788
2	0xbaa13940	-0.0012300387
3	0x3bd1a1d3	0.006397465

backBone.0.bn1.running_mean f4 [4]
0	0x3eb9dd79	0.36301783
1	0xbc620674	-0.013795484
2	0xbdd03829	-0.10166962
3	0x3cded8b5	0.027202943

backBone.0.bn1.running_var f4 [4]
0	0x3e8d54e5	0.27603832
1	0x3e87fed3	0.26561603
2	0x3e863215	0.26210085
3	0x3e7e7e7a	0.24852934

backBone.0.conv2.weight f4 [4, 4, 3, 3]
0	0xbdf48a12	-0.11940397
1	0x3dd45713	0.103681706
2	0xbdec88c2	-0.11549522
3	0xbe06f18e	-0.13178083
4	0xbdacc0c5	-0.08435205
5	0x3dcfe598	0.101512134
6	0x3daa7523	0.08323123
7	0x3da1615c	0.07879898
8	0x3d1c11ab	0.038102787
9	0xbe1b5f75	-0.15173133
10	0x3e23744b	0.15962331
11	0xbb2daded	-0.0026501373
12	0xbdb9be3e	-0.09069489
13	0x3ceb11bb	0.028694978
14	0x3e13d962	0.14438394
15	0x3e050a4e	0.12992212
16	0xbe24fe41	-0.16112615
17	0x3e175787	0.14779483
18	0x3c10d716	0.008840343
19	0xbd998f64	-0.07498053
20	0x3d8c22a8	0.06842548
21	0x3e0cf9c0	0.13767147
22	0xbde66cbc	-0.11251208
23	0xbdaf3ad2	-0.08556141
24	0x3de6d193	0.11270442
25	0x3e15fa78	0.14646327
26	0x3dfa3bc0	0.12218428
27	0x3db657b6	0.08903448
28	0x3deb1b4e	0.11479817
29	0x3d0f12ec	0.034930155
30	0x3d4915cb	0.04909305
31	0xbcb8ca41	-0.02255738
32	0x3d942012	0.072326794
33	0xbdda7625	-0.106670655
34	0xbca9edd2	-0.020743284
35	0x3e0c1a9f	0.1368203
36	0x3d51ea80	0.051249027
37	0x3d81538d	0.06314764
38	0x3ce786ab	0.028262457
39	0xbe1aa0bb	-0.15100376
40	0xbe0e252c	-0.13881367
41	0xbe0af48f	-0.13569854
42	0x3d88678a	0.066603735
43	0x3e259032	0.16168287
44	0x3dbdbf6b	0.09265026
45	0x3d3d6857	0.046242084
46	0xbe1e85a0	-0.15480661
47	0x3db4f11f	0.08835053
48	0xbe034ab1	-0.12821461
49	0xbdff17c8	-0.12455708
50	0x3e163083	0.14666943
51	0x3d675abf	0.056483027
52	0x3cececea	0.028921563
53	0x3cd459e0	0.025921762
54	0x3d980e1f	0.074245684
55	0x3e103da4	0.14086014
56	0xbdb6aa8d	-0.08919249
57	0x3dbf8201	0.09350968
58	0x3dd9a4e2	0.10627152
59	0xbdcd8bcc	-0.1003643
60	0x3cc2a218	0.023758933
61	0x3dada189	0.08478076
62	0xbe2bd5e6	-0.16780815
63	0xbd8a7885	-0.067612685
64	0xbd26f83b	-0.040764075
65	0xbe25f930	-0.16208339
66	0x3c953bf4	0.018217064
67	0xba826c46	-0.0009950481
68	0x3de1f4a5	0.1103299
69	0xbe11854e	-0.14211008
70	0x3d8b0858	0.06788701
71	0xbc708e70	-0.014682397
72	0x3e0ff9c2	0.14060119
73	0xbe0f4100	-0.1398964
74	0xbd60171f	-0.05470955
75	0xbcabc515	-0.020968
76	0xbdfdf399	-0.12399978
77	0x3db7e71d	0.08979628
78	0xbd109fa3	-0.03530849
79	0x3dcb2ac8	0.09920269
80	0x3c9d5e01	0.019209864
81	0x3df12922	0.117754236
82	0x3e06a2a4	0.1314798
83	0x3e0914d9	0.13386859
84	0xbd50bb2c	-0.05095975
85	0x3dd9e68e	0.10639678
86	0x3e1fdb76	0.15611061
87	0x3d8f90c4	0.07010034
88	0xbdd38b23	-0.103292726
89	0xbe14d2bf	-0.14533518
90	0xbd8a5d5a	-0.06756087
91	0xbdf4c276	-0.11951153
92	0xbc958913	-0.018253839
93	0xbd3d3f98	-0.046203226
94	0x3cd49f62	0.025954906
95	0xbd2c5773	-0.042075586
96	0x3d9b3eb4	0.07580319
97	0xbc550228	-0.013001002
98	0xbd625206	-0.055254005
99	0xbcbce84e	-0.02305999
100	0x3e04c2f1	0.12964989
101	0x3e088e5a	0.13335553
102	0x3de4e868	0.111771405
103	0x3de9d943	0.114183925
104	0x3dba8c7a	0.09108825
105	0x3e232982	0.15933803
106	0x3db78385	0.08960632
107	0xbe01a100	-0.12659073
108	0xbdf6f24a	-0.12057932
109	0xbd9b8a5a	-0.07594748
110	0x3c902b77	0.01759885
111	0xbdd2a098	-0.10284537
112	0x3dba0db3	0.09084644
113	0x3e07e930	0.13272548
114	0x3e1f4c3a	0.15556422
115	0x3c096a10	0.008387104
116	0xbd91c2bf	-0.07117223
117	0x3be5b9c5	0.007010671
118	0xbe19fe4e	-0.15038416
119	0x3cb2cbca	0.02182569
120	0x3e189fdf	0.14904736
121	0x3df7dd65	0.121027745
122	0xbe13fbf2	-0.14451578
123	0xbdcd40d7	-0.10022133
124	0x3d9b6875	0.07588283
125	0x3c8d3d9e	0.017241295
126	0xbe0db4e7	-0.1383854
127	0xbc85f5d2	-0.016352568
128	0x3c7e1644	0.015508238
129	0x3c97651c	0.01848083
130	0x3de6d252	0.11270584
131	0xbe3060f9	-0.17224492
132	0x3dbb8686	0.09156518
133	0xbdc60807	-0.096695
134	0x3d30b1bf	0.043138262
135	0xbd19b267	-0.037523653
136	0xbe23347f	-0.15937994
137	0xbddfe94b	-0.10933169
138	0x3d445988	0.047936946
139	0x3d375408	0.044757873
140	0x3dadca72	0.08485879
141	0xbd1d2a9e	-0.03837072
142	0xbe105703	-0.14095692
143	0xbddb1d5e	-0.10698961

backBone.0.conv2.bias f4 [4]
0	0x39618f28	0.00021511002
1	0xba3a2c76	-0.0007101962
2	0xbda0f39d	-0.078589655
3	0x3d312f09	0.043257747

backBone.0.bn2.weight f4 [4]
0	0x3f7da06a	0.990729
1	0x3f80fcf3	1.0077194
2	0x3f7fadba	0.9987446
3	0x3f8112bd	1.0083843

backBone.0.bn2.bias f4 [4]
0	0xbc2368ac	-0.009973686
1	0x39ac2fb4	0.00032841938
2	0xbb74bc92	-0.0037343842
3	0x3bdf102b	0.0068073473

backBone.0.bn2.running_mean f4 [4]
0	0x3e566826	0.20938167
1	0x3c50ac47	0.012736387
2	0x3e2a17a1	0.16610576
3	0xbdb134f0	-0.08652675

backBone.0.bn2.running_var f4 [4]
0	0x3e934130	0.28760672
1	0x3e8b2591	0.27177098
2	0x3e92c8cc	0.2866882
3	0x3e8db74b	0.27678904

backBone.1.conv1.weight f4 [4, 4, 3, 3]
0	0x3ded634d	0.11591206
1	0x3cc7358f	0.02431753
2	0x3d40e09c	0.047089204
3	0x3d2ffbf7	0.0429649
4	0x3d20fb14	0.039301947
5	0xbcf2431d	-0.029573018
6	0xbe1616b7	-0.14657103
7	0x3d952907	0.07283216
8	0xbc885e71	-0.016646596
9	0x3d8af217	0.06784456
10	0xbdab2967	-0.08357506
11	0x3d807be2	0.06273629
12	0x3d3ec28b	0.04657225
13	0x3dd34a62	0.10316922
14	0xbc17f56f	-0.0092748245
15	0x3de59184	0.112093955
16	0x3db1e80f	0.0868684
17	0xbd7ea586	-0.062169574
18	0xbe1293d9	-0.14314212
19	0x3d7cec31	0.061748687
20	0x3e019959	0.12656154
21	0xbde94053	-0.11389222
22	0x3dbcf19a	0.09225769
23	0x3d2883e8	0.04114142
24	0x3dbf1140	0.09329462
25	0x3d5ae940	0.0534451
26	0x3ddd8243	0.10815861
27	0x3d834b7c	0.06410882
28	0xbd2352a9	-0.039873753
29	0x3e1b42e7	0.1516224
30	0xbdcb72b1	-0.09933985
31	0x3cb0b802	0.021572117
32	0x3c4ba7b0	0.0124301165
33	0xbe07766b	-0.13228767
34	0xbdb8bfb2	-0.09020938
35	0xbd91cbaf	-0.07118928
36	0xbcdc3788	-0.026881948
37	0xbdf8c214	-0.121463925
38	0xbe27105c	-0.16314834
39	0x3e1bf8f5	0.15231688
40	0xbd5a10bf	-0.053238627
41	0x3dc8f118	0.0981161
42	0x3e0418ab	0.12900035
43	0xbc760d0c	-0.015017759
44	0xbb7d7966	-0.0038677095
45	0xbdd247ce	-0.10267602
46	0x3e22f69f	0.15914391
47	0x3c9b44e7	0.018953754
48	0x3da410d7	0.080110244
49	0xbdea7320	-0.114477396
50	0xbe25a8a2	-0.1617761
51	0xbdf5e463	-0.12006452
52	0xbdb63733	-0.08897247
53	0xbe068263	-0.13135676
54	0x3df2a9a0	0.1184876
55	0x3dab4e5a	0.08364554
56	0xbd1ab7c4	-0.03777291
57	0x3e15d298	0.14631116
58	0x3d78cf29	0.06074444
59	0x3d0fe4e2	0.03513039
60	0xbd96c7ff	-0.07362365
61	0xbd5ec8b2	-0.054390617
62	0xbe01e0c9	-0.12683405
63	0x3e09bc29	0.13450684
64	0x3ccbdc81	0.024885418
65	0xbe032d3a	-0.12810221
66	0x3c604a03	0.013689521
67	0x3d28b9d9	0.041192863
68	0xbe04b568	-0.12959826
69	0xbd0f1daf	-0.034940418
70	0xbe31029f	-0.17286156
71	0x3d8e7e98	0.069577396
72	0x3db02262	0.08600308
73	0xbdda1beb	-0.10649856
74	0x3da25177	0.079256944
75	0x3cfc0080	0.030761957
76	0xbc748da4	-0.014926348
77	0x3e0773de	0.13227794
78	0xbc075207	-0.008259303
79	0x3dec5c4b	0.11541041
80	0x3da84bd3	0.08217587
81	0xbe19de4c	-0.15026206
82	0xbd2b74b1	-0.041859332
83	0x3e231aa5	0.15928133
84	0xbe30ea52	-0.17276886
85	0xbd9caeb1	-0.07650507
86	0xbdac5828	-0.08415252
87	0x3d2f23bc	0.04275869
88	0x3d3d1eb7	0.04617187
89	0x3c2a68ed	0.010400993
90	0x3d97808c	0.07397565
91	0xbe1307c8	-0.14358437
92	0x3d95431c	0.07288191
93	0xbc743ae4	-0.014906619
94	0xbd35f61f	-0.044424172
95	0x3e0e7adb	0.13914053
96	0x3e07bd5c	0.13255829
97	0x3d6f16e2	0.058371432
98	0xbd9b24d1	-0.075753815
99	0xbe093b9e	-0.13401648
100	0x3dd93213	0.10605254
101	0x3c4bf82f	0.012449308
102	0xbc10a1c3	-0.0088276295
103	0xbdbcc9ec	-0.09218201
104	0x3d15de6b	0.036589067
105	0x3dfdc338	0.12390751
106	0xbb9a78c1	-0.004714102
107	0xbe2130a6	-0.15741214
108	0xbcd21ecf	-0.025649456
109	0x3baec382	0.005333365
110	0x3da6bd83	0.08141615
111	0xbe18c3ec	-0.14918488
112	0xbdd9938e	-0.10623847
113	0x3d5d48e1	0.05402458
114	0x3b8c0ed9	0.004274231
115	0xbd231238	-0.039812297
116	0x3cebce64	0.028784938
117	0x3b8c02fe	0.0042728176
118	0x3dd1b0ed	0.10238824
119	0xbe23b92a	-0.15988603
120	0x3d9b0944	0.07570127
121	0xbe14c31b	-0.14527552
122	0x3e0c9d8e	0.13731977
123	0x3d601e7a	0.054716565
124	0xbe3219a2	-0.1739259
125	0x3cf06bc7	0.029348267
126	0x3dd2a273	0.10284891
127	0x3d7f5ecd	0.06234627
128	0xbdf533e0	-0.11972785
129	0xbd7edaf1	-0.062220518
130	0xbdc84af6	-0.09779923
131	0xbdaf6043	-0.08563282
132	0xbe17ae86	-0.14812669
133	0x3c81836b	0.015809735
134	0x3df03be2	0.11730172
135	0x3d496c06	0.049175285
136	0x3d3a6f2e	0.045516185
137	0x3e0c4d5b	0.13701384
138	0xbdf86e10	-0.12130368
139	0x3de38cec	0.11110863
140	0x3dc8b4df	0.098001234
141	0xbd388bb1	-0.045055095
142	0x3cf0908c	0.0293658
143	0x3c51927c	0.012791272

backBone.1.conv1.bias f4 [4]
0	0x3d50e45f	0.05099904
1	0x3dcc9d6f	0.099909656
2	0xbd2786d1	-0.040900055
3	0x3dfa22ff	0.12213706

backBone.1.bn1.weight f4 [4]
0	0x3f8067f0	1.0031719
1	0x3f7fba40	0.9989357
2	0x3f80449b	1.0020937
3	0x3f7cf99d	0.9881838

backBone.1.bn1.bias f4 [4]
0	0xbc033610	-0.008008495
1	0x3baf6aff	0.005353331
2	0xbaf2b396	-0.0018516656
3	0xbc30ee1c	-0.010798957

backBone.1.bn1.running_mean f4 [4]
0	0x3ed0cec0	0.40782738
1	0xbdfdfd4d	-0.12401829
2	0x3d055115	0.03254803
3	0x3c9d2ce3	0.019186443

backBone.1.bn1.running_var f4 [4]
0	0x3ec6e24f	0.38844535
1	0x3eec2150	0.46119165
2	0x3ebc53f6	0.36782807
3	0x3eadbeef	0.33934733

backBone.1.conv2.weight f4 [4, 4, 3, 3]
0	0x3dd11039	0.10208172
1	0xbde24a86	-0.110493705
2	0xbe204985	-0.15653045
3	0x3b186f7d	0.0023259812
4	0xbdd3bc16	-0.10338609
5	0x3e2af408	0.16694653
6	0x3d8ceb9a	0.06880875
7	0x3e0ca90e	0.13736364
8	0x3e206d45	0.15666683
9	0x3dc42a68	0.09578401
10	0x3c608df0	0.013705716
11	0x3d359f35	0.044341285
12	0x3e04392f	0.12912439
13	0xbd715efa	-0.058928467
14	0xbb041ded	-0.0020159439
15	0x3de2802a	0.110596016
16	0xbd84318a	-0.06454761
17	0xbdd20f11	-0.1025678
18	0xbe0eb055	-0.13934453
19	0x3d0d7b1a	0.034541227
20	0x3d16a6be	0.03678011
21	0x3e2653ef	0.16242956
22	0x3dbb2d29	0.09139473
23	0x3be82700	0.0070847273
24	0xbd485a08	-0.048913985
25	0x3ce33842	0.027736787
26	0x3da0af58	0.07845944
27	0x3ce718a7	0.028209997
28	0x3e1369b1	0.14395787
29	0xbd9821fc	-0.07428357
30	0x3da30ff1	0.07962025
31	0x3db7fbb1	0.08983553
32	0x3da95f39	0.082701154
33	0x3dd2ff85	0.10302643
34	0x3c025de2	0.007956954
35	0x3d929f78	0.071593225
36	0x3c27759a	0.0102209095
37	0x3de98adb	0.11403438
38	0x3daf52d9	0.08560724
39	0x3e10ee01	0.14153291
40	0x3dad822c	0.08472094
41	0xbd9fe48a	-0.07807262
42	0x3c49d127	0.012317932
43	0xbd95d579	-0.07316107
44	0xbd81ccb7	-0.063378744
45	0x3d1743bf	0.036929842
46	0xbdc13922	-0.09434725
47	0x3d95ee27	0.073208146
48	0xbe2702e6	-0.163097
49	0xbe1e7926	-0.15475902
50	0x3d8d0a42	0.06886722
51	0x3dc9bb8f	0.09850227
52	0x3db9291e	0.090410456
53	0xbe16ecaf	-0.14738725
54	0x3e2cc0d3	0.16870432
55	0xbdd3457a	-0.10315986
56	0xbc867305	-0.016412267
57	0x3be6569e	0.0070293685
58	0xbcefd33c	-0.02927553
59	0xbdc41770	-0.09574783
60	0xbd5c6559	-0.05380759
61	0x3dc018d4	0.093797356
62	0xbd10473f	-0.035224196
63	0x3ca0039e	0.019532975
64	0xbd5f2c07	-0.054485347
65	0x3d6b5a70	0.057459295
66	0x3d97ab1a	0.07405682
67	0xbda0ba96	-0.078480884
68	0x3d9cf578	0.07664007
69	0x3d8def67	0.06930428
70	0xbce901c8	-0.028443232
71	0xbd830c24	-0.063988
72	0xbdd8395c	-0.105578154
73	0xbe01ab23	-0.1266294
74	0x3e291ab8	0.16514099
75	0xbdc86e4e	-0.09786664
76	0xbb3d5e45	-0.00288953
77	0xbd8354a2	-0.06412627
78	0xbe119d7c	-0.14220232
79	0x3c9386e1	0.018008651
80	0x3e1cd7c0	0.15316677
81	0x3b02b125	0.0019942012
82	0xbdcf2688	-0.10114771
83	0xbde6e3f6	-0.11273949
84	0x3dad285c	0.084549636
85	0x3decfed0	0.11572039
86	0x3e0092f0	0.12556052
87	0xbdc8fa44	-0.098133594
88	0x3d9f4724	0.07777241
89	0xbd8f6ab1	-0.07002772
90	0xbc07bfdc	-0.008285489
91	0x3d9ee103	0.07757761
92	0xbd9a089b	-0.075211726
93	0x3e00e56b	0.12587516
94	0xbdc52075	-0.09625331
95	0xbe1b8ac6	-0.15189657
96	0x3d5c846f	0.053837236
97	0x3ddeae70	0.10873115
98	0xbc8924cc	-0.016741179
99	0x3de0ac67	0.10970383
100	0xbd98f0be	-0.07467793
101	0xbd34fcfa	-0.04418657
102	0xbd99fed3	-0.07519307
103	0xbc3ea3fb	-0.011635776
104	0x3d822d0e	0.0635625
105	0x3c30e2b0	0.010796234
106	0x3e0ab0e8	0.13544047
107	0x3d319a8c	0.043360278
108	0xbca644f8	-0.020296559
109	0x3e2f04db	0.17091696
110	0x3aa000af	0.0012207235
111	0xbe26f463	-0.16304164
112	0xbdc26f4a	-0.09493883
113	0x3db4d5ff	0.08829879
114	0xbd270ec4	-0.040785566
115	0xbd538041	-0.051635984
116	0xbd64307f	-0.055710312
117	0xbd7e41f1	-0.062074605
118	0xbd996707	-0.07490354
119	0xbddb38c3	-0.10704186
120	0xbe0227c0	-0.12710476
121	0xbde13ccb	-0.109979235
122	0xbcf404de	-0.029787477
123	0xbd945189	-0.07242114
124	0x3d1fe658	0.039038032
125	0xbe187362	-0.14887765
126	0x3b7e8518	0.0038836654
127	0xbcfee292	-0.031113897
128	0xbdf63697	-0.12022131
129	0x3d8e3c5b	0.06945106
130	0xbe10b8c0	-0.14132977
131	0x3d4d597f	0.05013418
132	0xbe124bbc	-0.14286703
133	0x3dc48e46	0.09597449
134	0x3d3a3bfd	0.045467366
135	0x3cf83e68	0.030303195
136	0x3cfc99b9	0.03083502
137	0x3ddacfff	0.10684203
138	0x3d9d71bc	0.07687709
139	0x3da93458	0.08261937
140	0xbe17d090	-0.14825654
141	0xbe2adf52	-0.16686752
142	0x3c4d73b4	0.012539793
143	0x3d428df2	0.04749865

backBone.1.conv2.bias f4 [4]
0	0xbc5cdbe3	-0.013480159
1	0x3a6bd02d	0.0008995559
2	0x3c613273	0.013744938
3	0x3c8a018f	0.016846446

backBone.1.bn2.weight f4 [4]
0	0x3f804e1e	1.002384
1	0x3f7e5a70	0.99356747
2	0x3f7d4e96	0.9894804
3	0x3f810ed1	1.0082647

backBone.1.bn2.bias f4 [4]
0	0xbbba8b47	-0.0056928727
1	0xbb8bbb18	-0.0042642467
2	0xbb8f562c	-0.004374286
3	0xbb8f1197	-0.0043661105

backBone.1.bn2.running_mean f4 [4]
0	0x3e965543	0.29361925
1	0x3c8dcb3b	0.017308822
2	0x3cacb94e	0.021084454
3	0xbe7e5614	-0.24837524

backBone.1.bn2.running_var f4 [4]
0	0x3e94a8ae	0.29034942
1	0x3e8060cc	0.2507385
2	0x3e8f0a60	0.27937603
3	0x3e9721f3	0.2951809

backBone.2.conv1.weight f4 [4, 4, 3, 3]
0	0xbdc44167	-0.09582787
1	0x3db22bd3	0.08699765
2	0xbd8748d1	-0.066056855
3	0xbdfd5a82	-0.123707786
4	0x3db7bba9	0.0897134
5	0xbd58fc96	-0.05297526
6	0x3e043676	0.129114
7	0x3c9bbe24	0.019011565
8	0xbe23de7e	-0.16002843
9	0xbde0ba14	-0.109729916
10	0xbcd4e9b4	-0.025990345
11	0xbd500ff5	-0.050796468
12	0x3da24d6c	0.07924923
13	0x3e30bec4	0.17260271
14	0xbd986da9	-0.07442791
15	0xbe2e104b	-0.16998403
16	0x3da325da	0.07966204
17	0x3e0a33da	0.13496342
18	0x3d791bfc	0.060817704
19	0xbc3b7ec7	-0.0114438
20	0x3dfffe19	0.12499637
21	0x3d00ff31	0.03149337
22	0xbc3127cb	-0.01081271
23	0x3d47e8dc	0.048806056
24	0xbc81fa28	-0.015866354
25	0x3daeaefc	0.08529469
26	0x3dedc5ce	0.11609994
27	0xbdb649d6	-0.08900802
28	0x3de75e9a	0.11297341
29	0xbd4070e9	-0.04698268
30	0x3d698208	0.057008773
31	0xbd3b1988	-0.045678645
32	0xbd8707ae	-0.06593262
33	0x3e2a6e3f	0.16643618
34	0xbd73241d	-0.059360612
35	0xbe2fa0b4	-0.17151147
36	0x3e0b3a83	0.13596539
37	0xbda8351a	-0.08213253
38	0x3ddb9a03	0.10722735
39	0x3d8e3f3d	0.069456555
40	0xbcce4879	-0.025181042
41	0x3e1c5f58	0.15270746
42	0xbd4e6bf9	-0.05039594
43	0x3e0854a6	0.13313541
44	0x3de18ff1	0.11013783
45	0xbe138364	-0.1440559
46	0x3cc1020e	0.02356055
47	0x3ae1bd3e	0.0017222536
48	0x3e1ac9a6	0.15115985
49	0xbd656bd8	-0.05601105
50	0x3e0f12bf	0.13971995
51	0xbd2aceab	-0.041701
52	0x3e19ee26	0.15032253
53	0xbd8aafcc	-0.06771812
54	0x3c5ef916	0.013609191
55	0x3d9b5537	0.07584613
56	0xbde8a761	-0.1136005
57	0x3d83b5be	0.06431149
58	0xbdddadd8	-0.10824174
59	0x3dd6f336	0.104956076
60	0x3c6b8fa4	0.014377508
61	0xbda5aaec	-0.080892414
62	0x3e068d1a	0.13139763
63	0x3df7831a	0.120855525
64	0x3e07a8c3	0.13247971
65	0x3d60f196	0.054917894
66	0xbc960569	-0.018313127
67	0x3e2dec04	0.16984564
68	0xbdf3c1dd	-0.11902211
69	0xbd3fe6fc	-0.046851143
70	0xbe05eaf9	-0.13077916
71	0xbdf69561	-0.120402105
72	0x3e0407f7	0.12893663
73	0x3e226e2f	0.15862344
74	0x3daa8a0f	0.08327114
75	0xbdb3e639	-0.08784146
76	0xbc9089bb	-0.0176438
77	0x3da01d8b	0.07818135
78	0x3dc444f6	0.09583466
79	0x3d5a5218	0.053300947
80	0x3c9c4f9e	0.019080933
81	0x3e06dd97	0.13170467
82	0xbdb55c3b	-0.08855482
83	0x3cbc3383	0.022973781
84	0xbe1471a2	-0.14496472
85	0x3db75a01	0.08952714
86	0x3b82ab44	0.0039877016
87	0x3d753dcc	0.059873387
88	0x3dfa02cc	0.12207565
89	0x3e2a50fc	0.16632456
90	0xbe0a647d	-0.13514896
91	0xbcbda9d9	-0.023152279
92	0x3d0439a6	0.03228154
93	0xbdffde86	-0.12493615
94	0xbdc24a1a	-0.0948679
95	0x3e00605a	0.12536755
96	0xbd89aa77	-0.06721967
97	0x3d4fb8f6	0.050713502
98	0x3ce9c004	0.028533943
99	0x3e054abf	0.13016795
100	0x3d155f4c	0.036467835
101	0x3cfd74dc	0.030939512
102	0x3e05a9ec	0.13053101
103	0x3e35420c	0.17700976
104	0xbd09c88c	-0.033638522
105	0x3d31e7c6	0.043433927
106	0x3db066c5	0.08613352
107	0x3dde1975	0.10844699
108	0xbd6f3bc2	-0.0584066
109	0xbddea1aa	-0.10870679
110	0xbd9ccb1a	-0.07655926
111	0xbe178191	-0.1479552
112	0xbdf7ea2c	-0.121052116
113	0xbe2b749c	-0.16743702
114	0x3d4bc344	0.049746767
115	0x3d8215dd	0.06351826
116	0xbd0d69f6	-0.03452488
117	0xbd5659c7	-0.052331712
118	0xbe1b1237	-0.15143667
119	0x3e1260a3	0.14294676
120	0x3dae3e4a	0.085079744
121	0xbddb1c48	-0.106987536
122	0x3cebe5b8	0.028796062
123	0xbdfba03b	-0.12286421
124	0x3df6767e	0.12034319
125	0x3e2350d0	0.15948796
126	0xbdd7d4d0	-0.10538638
127	0xbcd71b90	-0.02625826
128	0xbd8fa94c	-0.07014713
129	0x3e0f7321	0.14008762
130	0xbca47c2e	-0.020078745
131	0xbdfbec1f	-0.12300896
132	0x3e135ba4	0.14390427
133	0xbe278d4b	-0.16362493
134	0x3d4750fc	0.048661217
135	0x3db289b1	0.08717669
136	0xbdd5c804	-0.104385406
137	0xbe081bc7	-0.13291846
138	0xbe009111	-0.12555338
139	0xbdeefbe3	-0.11669137
140	0xbdb0f701	-0.08640862
141	0x3e23e39a	0.16004792
142	0x3e167f1b	0.14696924
143	0xbcf5c19d	-0.029999549

backBone.2.conv1.bias f4 [4]
0	0x3d3df9d5	0.046380837
1	0xbe0cb0d2	-0.13739327
2	0x3da071d0	0.07834208
3	0xbe0e5cf9	-0.13902654

backBone.2.bn1.weight f4 [4]
0	0x3f7ec0c2	0.99512875
1	0x3f7f49af	0.9972181
2	0x3f8188f3	1.0119919
3	0x3f805c9d	1.0028263

backBone.2.bn1.bias f4 [4]
0	0xbc1d6b65	-0.009608124
1	0xbb969aa6	-0.0045960722
2	0x3c77a64c	0.015115332
3	0x3c0ca322	0.008583816

backBone.2.bn1.running_mean f4 [4]
0	0x3e4f7bfc	0.2026214
1	0x3eec4c9a	0.46152192
2	0x3f73537c	0.9504926
3	0xbf3e0906	-0.7423252

backBone.2.bn1.running_var f4 [4]
0	0x3eda51c9	0.42640522
1	0x3f13aeec	0.57688785
2	0x3f3214f8	0.69563246
3	0x3f156f83	0.5837328

backBone.2.conv2.weight f4 [4, 4, 3, 3]
0	0xbd4abe16	-0.049497686
1	0xbdcac0bc	-0.099000424
2	0xbdf776ca	-0.12083204
3	0x3e1a359f	0.15059517
4	0xbcb14504	-0.021639355
5	0xbe185de7	-0.14879571
6	0x3d0b2e48	0.033979684
7	0xbdb3767d	-0.08762834
8	0x3e0237fb	0.12716667
9	0x3db5409c	0.08850214
10	0xbd377702	-0.04479123
11	0xbcab42fd	-0.020905966
12	0xbcb612f9	-0.022225844
13	0x3e004d10	0.12529397
14	0xbde48329	-0.11157829
15	0x3d623f56	0.055236183
16	0x3e36764e	0.17818567
17	0x3d25d561	0.040486697
18	0x3cd6d58a	0.02622487
19	0xbc105e43	-0.008811536
20	0xbdc96059	-0.0983283
21	0xbc5fd424	-0.013661418
22	0x3c93535f	0.01798409
23	0xbd901b69	-0.07036478
24	0xbd02b1fe	-0.031908028
25	0x3c88f071	0.016716214
26	0x3c50ab43	0.0127361445
27	0xbc9dc73c	-0.019260041
28	0xbe132668	-0.1437012
29	0xbd679b9a	-0.056544878
30	0x3de1d361	0.110266455
31	0x3e1adcad	0.15123244
32	0x3d06dc36	0.032924853
33	0x3d3d845e	0.046268813
34	0xbdf2292a	-0.11824258
35	0x3d976ba8	0.07393581
36	0xbc9df1ca	-0.019280333
37	0xbe23c40d	-0.15992756
38	0x3df16f6d	0.11788831
39	0xbbea5872	-0.007151657
40	0xbe110c27	-0.14164792
41	0xbdd155f6	-0.10221474
42	0x3cfdd043	0.030983096
43	0xbe158cdd	-0.14604516
44	0xbdb8656e	-0.09003721
45	0xbda6ffa6	-0.0815423
46	0x3dae6aa1	0.085164316
47	0xbdea49ae	-0.114398345
48	0xbdefa31d	-0.11701033
49	0x3d356860	0.044288993
50	0xbe029ace	-0.12754366
51	0x3d4da145	0.050202627
52	0xbd0f4bd7	-0.034984436
53	0xbd12420c	-0.03570752
54	0xbdd09fe2	-0.10186745
55	0xbd37d7bd	-0.04488348
56	0xbd19dc4b	-0.037563603
57	0x3db0fb3f	0.086416714
58	0xbceb0b21	-0.02869183
59	0xbe15b825	-0.14621027
60	0xbd084368	-0.03326741
61	0xbde989ed	-0.114032604
62	0xbc9f6fc2	-0.01946247
63	0xbd53d4dc	-0.05171667
64	0x3bc78121	0.0060883914
65	0xbdbebe88	-0.09313685
66	0xbc64a891	-0.013956205
67	0xbb8fb1ca	-0.004385208
68	0x3e273e7d	0.16332431
69	0xbe177650	-0.14791226
70	0x3e02f96b	0.12790458
71	0xbd850fb0	-0.06497133
72	0xbe10f85a	-0.14157239
73	0x3c7cec40	0.015437186
74	0xbd642a57	-0.05570444
75	0xbdf134a3	-0.11777618
76	0xbcc0087f	-0.023441551
77	0xbdd098a3	-0.10185363
78	0x3d90f331	0.07077635
79	0xbcdac268	-0.026704028
80	0xbcdae5dc	-0.026720934
81	0x3dbd86b0	0.09254205
82	0x3dfcfa7a	0.12352462
83	0x3e047d7f	0.12938498
84	0x3c9494c1	0.018137338
85	0x3ddafcb2	0.10692729
86	0xbe013c63	-0.12620692
87	0xbde88e2a	-0.11355241
88	0xbdfac84f	-0.12245237
89	0xbd933a93	-0.071889065
90	0x3dfb7be0	0.12279487
91	0xbca1505a	-0.019691635
92	0x3d1b2917	0.037880983
93	0x3c038b0c	0.008028757
94	0x3dc19dfd	0.09453962
95	0x3e15ef5c	0.1464209
96	0xbbf41329	-0.007448573
97	0xbe144f19	-0.14483298
98	0x3e0e3dcc	0.13890761
99	0x3d20cc0e	0.0392571
100	0xbe22404f	-0.15844844
101	0x3b660d74	0.0035103234
102	0x3dad865a	0.08472891
103	0x3d791a74	0.060816243
104	0xbdd46899	-0.10371513
105	0x3dd18b89	0.10231692
106	0xbd672710	-0.056433737
107	0x3d312108	0.04324439
108	0x3c7f5005	0.015583043
109	0x3b6fb65c	0.00365772
110	0x3e11dd83	0.14244656
111	0xbdc7f9c0	-0.09764433
112	0xbdffa422	-0.12482478
113	0xbc8593e8	-0.016305879
114	0x3c21b5ba	0.009869987
115	0xbd24586c	-0.04012339
116	0xbd97d0a6	-0.074128434
117	0xbd92bf56	-0.07165401
118	0x3e034e62	0.1282287
119	0x3d9ec995	0.077532925
120	0xbe068991	-0.13138415
121	0x3da787bc	0.08180186
122	0x3c7d3011	0.015453354
123	0xbd9b341d	-0.07578299
124	0x3e07495d	0.1321158
125	0x3e164a13	0.14676695
126	0x3da613d9	0.081092544
127	0xbd9a44fb	-0.07532688
128	0xbd26b959	-0.040704105
129	0x3e301967	0.1719719
130	0x3d65a686	0.056067012
131	0x3e0e4c60	0.13896322
132	0xbd5f6c91	-0.054546896
133	0xbc85fcb9	-0.01635586
134	0x3e0f09bc	0.13968557
135	0xbd9a5278	-0.07535261
136	0x3d0d5c25	0.034511704
137	0x3df5898a	0.11989124
138	0x3e1c0040	0.1523447
139	0x3e0c5156	0.13702902
140	0xbe098b21	-0.1343198
141	0xbdaa531c	-0.08316633
142	0x3d537096	0.051621042
143	0x3d483555	0.048878986

backBone.2.conv2.bias f4 [4]
0	0x3d873b30	0.06603086
1	0x3dabdf71	0.083922274
2	0xbe13d680	-0.14437294
3	0x3d8bfdf0	0.06835544

backBone.2.bn2.weight f4 [4]
0	0x3f80c2a6	1.0059402
1	0x3f80a51e	1.005039
2	0x3f8088aa	1.0041707
3	0x3f8179a9	1.0115253

backBone.2.bn2.bias f4 [4]
0	0xbc56fd61	-0.013121934
1	0xbb906d29	-0.004407544
2	0xbb35d036	-0.0027742512
3	0x3bd6794c	0.0065452214

backBone.2.bn2.running_mean f4 [4]
0	0x3d57abf6	0.05265423
1	0xbe9dc7e3	-0.30816564
2	0xbe073b15	-0.13206132
3	0x3e912900	0.28351593

backBone.2.bn2.running_var f4 [4]
0	0x3e8c7c5f	0.27438638
1	0x3eb761d4	0.35816824
2	0x3e85c4b4	0.26126635
3	0x3e94f4ab	0.29092917

backBone.3.conv1.weight f4 [4, 4, 3, 3]
0	0x3d3ace4a	0.04560689
1	0xbcc4d8bd	-0.02402913
2	0x3de3d6ba	0.1112494
3	0xbc862706	-0.01637603
4	0x3dcc711e	0.09982513
5	0x3da4bbe6	0.08043651
6	0x3e068ccd	0.13139649
7	0x3e0990bc	0.13434118
8	0xbd22f2c8	-0.039782315
9	0x3e285ab0	0.16440845
10	0xbe098604	-0.13430029
11	0xbd14d45c	-0.036335334
12	0x3c4bba1b	0.012434508
13	0x3ded0684	0.115735084
14	0x3ca48ccc	0.020086668
15	0xbd7dfee0	-0.062010646
16	0xbe1fced1	-0.15606238
17	0x3e1a6c6a	0.15080419
18	0xbc325e53	-0.010886746
19	0xbd3776c0	-0.044790983
20	0xbd7a8795	-0.061164457
21	0x3d883876	0.06651394
22	0xbd52c571	-0.051457826
23	0x3defa82e	0.117019996
24	0xbe22bbb3	-0.15891914
25	0xbdeddbc4	-0.116141826
26	0xbca1614d	-0.019699717
27	0xbdd114c7	-0.10209041
28	0xbd46275c	-0.04837738
29	0xbe1c55b4	-0.15267068
30	0x3d9fe370	0.07807052
31	0x3dcf65ee	0.101268634
32	0x3dd9d468	0.106362164
33	0x3d9c80a6	0.07641725
34	0xbd81c33a	-0.06336065
35	0x3b937537	0.004500057
36	0xbde1b17d	-0.11020181
37	0xbcbcb69c	-0.023036294
38	0xbe279dda	-0.1636881
39	0x3cb432bf	0.021996854
40	0xbde9ceb1	-0.114163764
41	0x3d0d3332	0.03447265
42	0x3dfaffd2	0.12255825
43	0xbda3c9b3	-0.079974554
44	0xbcb7a662	-0.022418205
45	0xbd9fea49	-0.07808358
46	0x3dd1a3e1	0.102363355
47	0xbdd9aa63	-0.10628202
48	0x3d8e2a8b	0.06941708
49	0x38250cd8	3.9351027e-05
50	0x3dc12551	0.09430946
51	0xbdcfd041	-0.10147143
52	0xbe21802c	-0.1577155
53	0x3e14d3a5	0.14533861
54	0x3d6772f8	0.056506127
55	0x3cfaaad0	0.030599028
56	0x3cdaec4a	0.026724
57	0x3d19d22e	0.03755396
58	0xbcfd0840	-0.030887723
59	0x3d343199	0.043992613
60	0x3e1f8fe2	0.1558223
61	0xbdab0bf3	-0.083518885
62	0xbbd579de	-0.006514772
63	0xbd5475dd	-0.051870216
64	0x3caa6084	0.020797975
65	0xbe1bc620	-0.15212297
66	0xbcc29b65	-0.023755739
67	0xbe151ee8	-0.14562571
68	0x3e36a7b0	0.17837405
69	0x3df0e5ea	0.117626026
70	0x3dab285c	0.08357307
71	0x3b1a2260	0.0023519024
72	0x3e141e95	0.14464791
73	0xbe0c4ab1	-0.13700368
74	0x3df7b414	0.12094894
75	0x3de3c19b	0.11120912
76	0xbdde030a	-0.108404234
77	0x3da7da0e	0.081958875
78	0x3d8fd653	0.07023301
79	0x3e233945	0.15939815
80	0xbe2624ad	-0.16224928
81	0x3da75e9b	0.081723414
82	0xbc0e7f7a	-0.008697385
83	0x3c585aa5	0.013205205
84	0xbceb42ac	-0.028718315
85	0x3e22f9a2	0.1591554
86	0x3e060215	0.13086732
87	0xbd7c78b3	-0.061638545
88	0xbe05bfbf	-0.13061427
89	0xbd6557b2	-0.055991836
90	0xbda4adbd	-0.080409504
91	0xbd3e1a78	-0.04641196
92	0xbd79f278	-0.06102225
93	0x3d7a7624	0.061147824
94	0x3dfb241f	0.12262749
95	0x3df6da98	0.12053412
96	0xbdfb00df	-0.122560255
97	0x3e26fa65	0.16306455
98	0xbdd6bb47	-0.10484939
99	0x3d885f74	0.06658831
100	0xbc9b329d	-0.018945033
101	0xbae8328b	-0.0017715258
102	0x3dd5e590	0.10444176
103	0x3dc71ad7	0.09721916
104	0x3d23a976	0.039956532
105	0xbdb368bf	-0.08760213
106	0x3dbf5c70	0.09343803
107	0xbe14e5b8	-0.14540756
108	0xbd42206d	-0.047394205
109	0xbdbe0d4b	-0.09279879
110	0x3d94ee99	0.072720714
111	0xbe1a9989	-0.15097632
112	0xbdaddebc	-0.08489749
113	0x3d10ff7f	0.03539991
114	0x3dd01c32	0.10161628
115	0x3b0df859	0.002166292
116	0x3d4055e5	0.046956915
117	0x3da95c57	0.082695656
118	0xbe0b6de1	-0.13616134
119	0x3dca84f3	0.09888639
120	0xbdc5ed44	-0.096643955
121	0x3d619cde	0.05508124
122	0x3df8fe82	0.121579185
123	0xbda2dcd9	-0.079522796
124	0x3ca2a3d8	0.019853517
125	0xbd32f183	-0.043687355
126	0x3dee7375	0.116431154
127	0xbd7a0090	-0.061035693
128	0x3d9b88b9	0.07594437
129	0x3cf6f248	0.030144826
130	0xbdc73a98	-0.09727973
131	0x3cac53fc	0.02103614
132	0x3e2a3b05	0.16624077
133	0x3cf99e80	0.030471087
134	0xbdca92cf	-0.09891283
135	0xbdf9d52b	-0.12198862
136	0xbe0dff4b	-0.13866918
137	0xbd613547	-0.05498245
138	0x3d52e83f	0.05149102
139	0xbdf11058	-0.117706954
140	0xbd04a93d	-0.03238796
141	0x3b97501e	0.004617705
142	0x3e1d66f0	0.15371299
143	0x3d8979f9	0.067127176

backBone.3.conv1.bias f4 [4]
0	0xba933bdd	-0.0011233051
1	0xbaf7dfa2	-0.0018911252
2	0xbda0a9f5	-0.07844917
3	0x39827ba0	0.0002488764

backBone.3.bn1.weight f4 [4]
0	0x3f807077	1.0034322
1	0x3f805660	1.002636
2	0x3f7c2f75	0.98509914
3	0x3f7f227f	0.9966201

backBone.3.bn1.bias f4 [4]
0	0x3a8a2274	0.0010538832
1	0xbb5535e4	-0.0032533342
2	0xbc649c2a	-0.013953248
3	0xbc120964	-0.008913372

backBone.3.bn1.running_mean f4 [4]
0	0x3e83abd8	0.25717044
1	0xbdf419a1	-0.11918951
2	0x3f02e969	0.51137406
3	0xbe2b242b	-0.16713016

backBone.3.bn1.running_var f4 [4]
0	0x3f19c84c	0.60071254
1	0x3f060358	0.5234885
2	0x3f145851	0.5794726
3	0x3eea68af	0.45782992

backBone.3.conv2.weight f4 [4, 4, 3, 3]
0	0xbe3559e4	-0.17710072
1	0xbdf73577	-0.120707445
2	0xbd802662	-0.06257321
3	0x3cdb18b1	0.026745172
4	0xbd971604	-0.07377246
5	0xbdf0d04d	-0.1175848
6	0x3dc857c4	0.09782365
7	0x3cbfdf8b	0.023422023
8	0x3e000164	0.1250053
9	0xbde23ad5	-0.110463776
10	0x3e2a987c	0.1665973
11	0x3d771de4	0.06033124
12	0xbdcdd697	-0.100506954
13	0xbd2f48d3	-0.04279406
14	0xbe15fb8a	-0.14646736
15	0xbdc0b656	-0.09409778
16	0x3c57ea0d	0.013178361
17	0x3db773cc	0.089576334
18	0xbd1c03f5	-0.03808971
19	0x3d84fd41	0.06493617
20	0x3e062f15	0.13103898
21	0xbe018a0e	-0.1265032
22	0xbe1ad37d	-0.15119739
23	0x3dbe0d94	0.092799336
24	0xbde152d6	-0.11002128
25	0x3d508301	0.050906185
26	0xbbbc1520	-0.005739823
27	0xbe30472e	-0.17214653
28	0xbe0004b5	-0.12501796
29	0x3d8e36c5	0.0694404
30	0x3b18f9b2	0.002334219
31	0xbd603b59	-0.0547441
32	0xbe0e2cbf	-0.13884257
33	0x3e199371	0.1499765
34	0xbdc285a4	-0.09498146
35	0xbdb75089	-0.08950908
36	0x3d48916a	0.048966803
37	0x3cbc3bd1	0.022977741
38	0xbc9e8736	-0.019351583
39	0xbc7e6716	-0.015527507
40	0xbdf7ce78	-0.12099928
41	0x3d99096c	0.074725
42	0x3d722692	0.059118815
43	0x3da76ee5	0.08175448
44	0x3e0a6e56	0.13518652
45	0xbdfa5ebf	-0.12225103
46	0x3dfefde2	0.12450768
47	0xbce211c6	-0.027596366
48	0xbcdc3c37	-0.026884181
49	0xbe0978e1	-0.13425018
50	0x3e33583e	0.1751413
51	0xbda264d6	-0.07929389
52	0xbe00dca1	-0.12584163
53	0x3c8da02a	0.017288286
54	0x3ddda414	0.10822311
55	0x3d9a53d5	0.07535521
56	0x3df6ed01	0.12056924
57	0xbe0369d7	-0.12833343
58	0x3d37d86a	0.044884123
59	0xbd848bd0	-0.064719796
60	0x3e292c90	0.16520905
61	0x3c53f4c1	0.012936772
62	0xbe20eadd	-0.15714593
63	0x3dbf638e	0.093451604
64	0x3c8708e7	0.016483737
65	0x3de95de4	0.11394861
66	0xbdcb5cdc	-0.09929821
67	0xbd86f686	-0.06589989
68	0x3d87dfed	0.06634507
69	0x3dfc60a4	0.1232312
70	0x3e29ed77	0.16594492
71	0x3d9a54bc	0.07535693
72	0xbc901269	-0.017586904
73	0xbdd7e14d	-0.105410196
74	0x3cacc0f3	0.0210881
75	0x3ddc8c36	0.107689306
76	0xbdacbfb6	-0.084350035
77	0x3e1fc297	0.15601574
78	0x3e22c596	0.15895686
79	0x3d36ecc1	0.04465938
80	0x3e179c4e	0.1480572
81	0x3df89bf0	0.12139118
82	0x3e0a44d9	0.13502826
83	0x3e0f5066	0.13995513
84	0x3da4a35b	0.0803897
85	0xbd10644d	-0.035251904
86	0xbe0c6b0c	-0.1371271
87	0x3e052f4e	0.13006327
88	0xbd38d1b8	-0.04512188
89	0xbd08bd35	-0.033383567
90	0x3ccf62aa	0.025315601
91	0x3d8a7e25	0.067623414
92	0x3dc43603	0.095806144
93	0xbe0d306b	-0.13788001
94	0xbe2118b2	-0.15732077
95	0xbd62f392	-0.055408068
96	0x3e27918d	0.16364117
97	0xbd0b803b	-0.034057837
98	0xbc2f64dd	-0.0107052
99	0xbde02be7	-0.10945874
100	0x3d4def67	0.05027714
101	0xbcd3fcc4	-0.025877364
102	0x3df36311	0.1188413
103	0x3a975917	0.0011546937
104	0xbde3c4d8	-0.11121529
105	0xbd471ce3	-0.048611533
106	0xbd06c958	-0.03290686
107	0xbd83bebc	-0.06432864
108	0x3dc539a4	0.09630135
109	0x3e1a9d63	0.15099101
110	0x3db72bc6	0.08943896
111	0xbd3c37a9	-0.04595152
112	0xbd847bfa	-0.06468959
113	0x3d2a1bc8	0.0415304
114	0x3e104fa7	0.14092885
115	0xbdd78e0a	-0.10525139
116	0xbd9ec7c5	-0.07752947
117	0xbe28bd22	-0.16478398
118	0xbde5f9f2	-0.11229314
119	0x3e009f38	0.12560737
120	0x3c633e3d	0.013869819
121	0x3ca6ea8e	0.020375516
122	0xbe19659a	-0.14980164
123	0xbd01cdfe	-0.03169059
124	0xbd868955	-0.06569163
125	0xbdfe847d	-0.12427614
126	0xbbad4dd1	-0.0052888175
127	0x3dba1e03	0.090877555
128	0xbc69275b	-0.0142305745
129	0xbe049607	-0.12947856
130	0xbd7dbcf7	-0.06194779
131	0xbe27a493	-0.16371374
132	0xbca6cdcf	-0.020361809
133	0xbd861dc3	-0.06548645
134	0x3d743057	0.059616413
135	0x3d94a3f4	0.07257834
136	0x3e04f75b	0.12984984
137	0xbe07140a	-0.13191238
138	0xbe18c474	-0.14918691
139	0x3d670d7d	0.056409348
140	0xbd464393	-0.048404288
141	0xbdf5ea42	-0.12007572
142	0xbd23dfd0	-0.040008366
143	0xbe070221	-0.13184406

backBone.3.conv2.bias f4 [4]
0	0xbd6266cb	-0.055273812
1	0xbdc066eb	-0.0939463
2	0xbb2018f9	-0.0024428947
3	0x3de29733	0.11063995

backBone.3.bn2.weight f4 [4]
0	0x3f7ef624	0.9959433
1	0x3f7fce96	0.999246
2	0x3f7c9143	0.9865915
3	0x3f80b33b	1.0054697

backBone.3.bn2.bias f4 [4]
0	0xbb24f8dc	-0.0025172746
1	0xbb8f9ac6	-0.004382464
2	0x37b03ab0	2.1008163e-05
3	0x3c4f6456	0.012658199

backBone.3.bn2.running_mean f4 [4]
0	0xbeb77bb7	-0.35836574
1	0x3db106eb	0.086438976
2	0x3de5ae10	0.112148404
3	0xbe09729b	-0.13422625

backBone.3.bn2.running_var f4 [4]
0	0x3e9a038e	0.30080837
1	0x3e9a5bfe	0.3014831
2	0x3e8690a3	0.26282224
3	0x3e8d8224	0.27638352

policyHead.0.weight f4 [6, 4, 3, 3]
0	0x3cd72ab2	0.026265476
1	0xbbb56901	-0.005536199
2	0x3e074634	0.13210374
3	0xbdeae531	-0.11469496
4	0xbe120070	-0.1425798
5	0xbde0d6bf	-0.109784596
6	0x3e076a65	0.1322418
7	0xbd27d392	-0.040973254
8	0xbd93d247	-0.072178416
9	0x3dd847b0	0.10560548
10	0x3e1827ca	0.14858928
11	0x3c57ebf0	0.0131788105
12	0x3d3270c7	0.043564584
13	0x3bc84f3f	0.0061129625
14	0xbdd8c20f	-0.10583889
15	0xbdb66850	-0.08906615
16	0x3e0fcd13	0.14043073
17	0xbdd7ede5	-0.10543422
18	0xbd525a22	-0.05135549
19	0xbdb85dd8	-0.09002274
20	0xbd9037ca	-0.07041891
21	0xbd3fddc0	-0.046842337
22	0x3de09476	0.10965817
23	0x3e0d4b53	0.13798265
24	0x3cd85d84	0.02641178
25	0xbaa54c2f	-0.0012611205
26	0x3e11c6a2	0.14235929
27	0xbe3636bc	-0.17794317
28	0xbcbccaef	-0.023045985
29	0x3c8ce416	0.017198604
30	0xbdb39fd3	-0.087707184
31	0x3d1872a9	0.037218723
32	0x3e23b479	0.15986814
33	0x3ccfab2c	0.025350176
34	0xbdcf0d4c	-0.10109958
35	0xbda7ac6a	-0.08187182
36	0x3d292500	0.04129505
37	0x3d2be2ac	0.041964218
38	0x3c37f765	0.011228417
39	0xbc2ee5ad	-0.010674876
40	0xbdbfb7e3	-0.093612455
41	0x3dfa7e7e	0.12231158
42	0x3de675d3	0.11252942
43	0xbdb98914	-0.09059349
44	0xbc037294	-0.008022923
45	0xbda30b28	-0.07961112
46	0x3e1fcd23	0.15605597
47	0xbe149216	-0.14508852
48	0xbe13e57e	-0.14443013
49	0x3d40aedc	0.04704176
50	0xbe0ce509	-0.13759245
51	0x3d95a721	0.07307268
52	0x3e194c51	0.14970519
53	0xbdaf0a7d	-0.08546922
54	0x3e11c9a4	0.14237076
55	0x3e0c4317	0.13697468
56	0xbe08d158	-0.13361108
57	0x3dca8e21	0.0989039
58	0x3d85ebbf	0.065391056
59	0x3d45762b	0.048208397
60	0x3e08fa69	0.13376774
61	0xbb9e93ee	-0.004839412
62	0x3d01b96e	0.03167098
63	0x3d40fc3f	0.04711556
64	0x3dcd3234	0.10019341
65	0xbdb8f0ac	-0.090302795
66	0xbd847870	-0.06468284
67	0x3dd59012	0.1042787
68	0xbd5cde73	-0.05392308
69	0xbde0ea32	-0.10982169
70	0xbd183b71	-0.037166063
71	0x3d286b2c	0.041117832
72	0xbe043e61	-0.1291442
73	0xbd0f5aa6	-0.03499856
74	0xbe2cc2b0	-0.16871142
75	0x3d686c43	0.05674387
76	0xbe090454	-0.13380557
77	0x3e18f938	0.1493882
78	0xbde5daee	-0.11223398
79	0x3d422a64	0.047403708
80	0x3e137515	0.14400132
81	0x3ddbc9d6	0.107318565
82	0xbc352c53	-0.011057931
83	0xbdf49945	-0.11943296
84	0xbddb1e4e	-0.106991395
85	0x3e2bb008	0.1676637
86	0x3bd67aaf	0.0065453867
87	0x3e17b939	0.1481675
88	0xbd2c32f9	-0.0420408
89	0x3d7b0fcb	0.06129436
90	0x3dda395c	0.10655472
91	0xbd2e3041	-0.042526487
92	0xbdb1376e	-0.086531505
93	0xbe15937f	-0.14607047
94	0xbde83577	-0.113383226
95	0xbc9a5dce	-0.018843558
96	0x3cab8da0	0.020941556
97	0xbcf9eb79	-0.03050779
98	0xbdbf17cf	-0.09330713
99	0x3e1ab1b8	0.15106857
100	0xbe2499c2	-0.16074279
101	0x3e18f688	0.14937794
102	0xbdbce404	-0.09223178
103	0x3d1d3d58	0.03838858
104	0x3e0c294e	0.13687631
105	0x3c3ad30a	0.011402855
106	0x3dd7baad	0.105336525
107	0xbe326130	-0.17419887
108	0xbe000ab0	-0.12504077
109	0x3bb59444	0.0055413563
110	0x3cf40ddd	0.029791767
111	0xbc8ce8b8	-0.017200813
112	0xbd53f02a	-0.05174271
113	0xbe1d63cb	-0.15370099
114	0xbd42b32c	-0.047534153
115	0xbdae3544	-0.08506253
116	0xbdc3027e	-0.0952196
117	0xbe2132e5	-0.15742071
118	0x3d12bb91	0.03582341
119	0xbd86e22f	-0.0658611
120	0xbe0e9ce1	-0.13927032
121	0x3de3aa09	0.11116416
122	0x3d88423a	0.06653257
123	0xbabcb668	-0.0014397623
124	0x3d989e3e	0.07452057
125	0x3e076213	0.13221006
126	0x3db01429	0.08597595
127	0x3d055163	0.03254832
128	0x3d8323e3	0.06403329
129	0xbe22da5d	-0.15903611
130	0xbd06a37c	-0.032870755
131	0x3dde34da	0.108499244
132	0x3cf1e7e4	0.02952952
133	0x3e1fb8d9	0.15597858
134	0xbddf790a	-0.10911758
135	0xbbe27196	-0.006910513
136	0xbe0c94db	-0.13728659
137	0xbe1ef8b9	-0.15524568
138	0xbcfd5e7b	-0.03092884
139	0xbdbe91b9	-0.09305138
140	0x3d7b02c9	0.061281953
141	0x3dfcf7b8	0.12351936
142	0x3de0571f	0.10954117
143	0xbd727fe0	-0.059203982
144	0x3e1d08b3	0.1533535
145	0xbe0167cf	-0.12637256
146	0xbe26b404	-0.16279608
147	0xbd8b1b66	-0.06792335
148	0x3dfdd559	0.123942085
149	0xbd09645d	-0.03354298
150	0x3de0e5b5	0.10981313
151	0x3c80a453	0.015703356
152	0xbdcf9844	-0.10136464
153	0x3e033a33	0.1281517
154	0x3d8fc702	0.070203796
155	0x3e16dcd6	0.1473268
156	0x3d68ec99	0.056866262
157	0xbd3e4e72	-0.04646153
158	0x3da83c5b	0.08214637
159	0xbda203bc	-0.079108685
160	0xbdab91f2	-0.08377446
161	0xbde84512	-0.11341299
162	0xbe02b9a6	-0.12766132
163	0xbde2e074	-0.11077967
164	0xbda2b919	-0.07945461
165	0xbe2b8470	-0.1674974
166	0xbd938cc5	-0.07204584
167	0x3d38b9c1	0.045099024
168	0x3d12605c	0.035736427
169	0x3dc84866	0.09779434
170	0xbe2e8b2d	-0.17045279
171	0x3e00764a	0.12545124
172	0x3d8c998f	0.068652265
173	0x3b99844d	0.004684961
174	0x3e19aadd	0.15006585
175	0x3d83c0fd	0.06433294
176	0x3dd65e2d	0.10467181
177	0x3a04d46b	0.0005067053
178	0x3e032826	0.12808284
179	0xbde77814	-0.113022
180	0xbe1992e2	-0.14997438
181	0x3d58c5b4	0.05292292
182	0x3ba6dfbd	0.0050925897
183	0x3e1e450e	0.1545603
184	0x3d6ee329	0.058322106
185	0x3df678f4	0.12034789
186	0xbd893e92	-0.067013875
187	0xbcfec77e	-0.031100985
188	0x3ccfdb1f	0.02537304
189	0x3df27b8a	0.118399695
190	0xbd5169b3	-0.051126193
191	0xbe1c15a9	-0.15242638
192	0xbc33ad51	-0.010966615
193	0x3e0b8bde	0.13627574
194	0xbd43a04e	-0.0477603
195	0x3dfb789a	0.12278862
196	0x3db9a20c	0.09064111
197	0x3e19972e	0.14999077
198	0xbd109a96	-0.035303675
199	0x3da17b67	0.07884865
200	0x3d7fa87f	0.06241655
201	0x3e0c585e	0.13705584
202	0x3cae9ab8	0.02131401
203	0xbc4334c4	-0.011914436
204	0xbdc821af	-0.0977205
205	0xbdf9b663	-0.12192991
206	0x3dc1a095	0.09454457
207	0x3db031f4	0.08603278
208	0x3c7f8fc2	0.015598239
209	0xbd74b1bb	-0.05973981
210	0x3d7467be	0.05966925
211	0x3cdcc27e	0.02694821
212	0xbd4519fb	-0.04812048
213	0x3e08c210	0.13355279
214	0x3e1c8c99	0.15288009
215	0x3d33cdb2	0.04389734

policyHead.0.bias f4 [6]
0	0xbbcaf688	-0.0061939396
1	0xbdfb35f3	-0.12266149
2	0x3d770781	0.06030989
3	0xbde9a0ba	-0.11407609
4	0x38899e4c	6.562154e-05
5	0x3c39caed	0.011339885

policyHead.1.weight f4 [6]
0	0x3f7d07c4	0.98839974
1	0x3f7cbd2a	0.9872614
2	0x3f7d2982	0.9889146
3	0x3f7de3e5	0.99175864
4	0x3f7dfbb3	0.9921219
5	0x3f7cbc9a	0.98725283

policyHead.1.bias f4 [6]
0	0xbc2f981d	-0.010717419
1	0xbc166d98	-0.009181403
2	0xbc576942	-0.013147654
3	0xbc2f0883	-0.010683182
4	0xbc2dfa1f	-0.010618716
5	0xbc4cd77f	-0.01250255

policyHead.1.running_mean f4 [6]
0	0xbe08f50f	-0.13374732
1	0x3e914b4c	0.2837776
2	0xbe0a5d0c	-0.13512057
3	0xbf093c17	-0.53607315
4	0x3e2e7a82	0.1703892
5	0x3f81d8ec	1.0144324

policyHead.1.running_var f4 [6]
0	0x3f23168d	0.63706285
1	0x3f157533	0.58381957
2	0x3f2f7137	0.6853213
3	0x3f1a4c4f	0.6027269
4	0x3f4c1827	0.79724354
5	0x3f487a20	0.7831135
