models/Test/main.pt (torch, 39871 bytes, 57 tensors)

startBlock.0.weight f4 [3, 4, 3, 3]
000000 55 0a c8 3d 8c 25 7d 3d bf 04 ba 3d d6 1e b7 bd
       0.09767596 0.061803386 0.090829365 -0.08941428
000010 7a 15 59 3d b2 b5 04 3e 67 7b 94 3d 7b 9b 33 3e
       0.052998997 0.12959936 0.072501 0.1753978
000020 4c 40 5d 3c 5e 90 72 bd 3e e8 9d ba 45 55 28 3d
       0.013504099 -0.05921971 -0.0012047363 0.041096944
000030 7d b3 4f 3d b8 ea 52 3d 8e 55 2d bd c1 50 8f 3d
       0.050708283 0.051493376 -0.04231792 0.069978245
000040 84 6f 5e 3d 4e f7 80 bd f7 19 86 bd 5c 1e a9 be
       0.05430557 -0.062971696 -0.06547921 -0.33030975
000050 da 58 fc 3d db 23 03 3e ae ca 52 3e 7d db 72 be
       0.123216346 0.12806647 0.20585129 -0.2371654
000060 20 e1 fd 3d 30 54 29 be b2 5d e7 3d a1 29 58 3d
       0.12396455 -0.16536021 0.11297168 0.052774075
000070 35 47 5b 3c d8 b7 0c bd a6 31 6a bd 3e ad 46 bd
       0.013383676 -0.034355015 -0.057176255 -0.04850506
000080 6e 83 3d 3c 88 4d 22 bd 05 ae 27 bd 98 02 1f 3d
       0.01156698 -0.03962472 -0.040937442 0.038820833
000090 b3 dd 2d 3c 91 eb ba bd 8a 78 91 3c 53 47 8c 3d
       0.010611939 -0.09126962 0.017757673 0.068495415
0000a0 f5 8e cc bd c0 5a 11 3d f8 28 11 3e 0f ab 1b be
       -0.099882044 0.035486937 0.14175785 -0.15201972
0000b0 f4 18 82 bd 46 72 44 be fa f1 02 be 0e d5 36 3d
       -0.06352416 -0.19184217 -0.12787619 0.04463678
0000c0 dc 9a 48 bd ba 31 90 3c 35 04 69 bd ae 1e 8f bd
       -0.04897581 0.017601836 -0.056888778 -0.069882736
0000d0 00 6e 18 bd 58 cb 38 3d b7 19 c1 bd b3 0a d2 bd
       -0.03721428 0.0451158 -0.09428733 -0.10255947
0000e0 58 eb 24 3e 7b 30 32 bc c5 84 28 3c 52 16 6c 3e
       0.16105402 -0.010875816 0.010285561 0.2305539
0000f0 93 b9 08 3e d0 38 b2 bd 2d 8f 22 3e 1d 03 00 3e
       0.13352041 -0.087022424 0.1587493 0.12501188
000100 76 0a 38 bc 19 23 5d be 6a 43 fe 3c 02 51 6b 3d
       -0.011232963 -0.2159542 0.031038005 0.057450302
000110 43 bf e5 3d a4 2c 13 3d 49 14 f2 3c 7b 27 a7 3b
       0.11218121 0.035931244 0.029550688 0.005101142
000120 21 59 89 3d d3 ab 41 3d ac 5d ec bd b3 7a 64 bd
       0.06706453 0.047283005 -0.11541304 -0.055781078
000130 9e 59 3e 3b ce 33 27 3d 07 2f 8c 3d 9a b8 35 3e
       0.0029045115 0.04082089 0.06844907 0.17746201
000140 ff 09 12 bd d3 aa b2 bd 1e db 02 3c 91 f2 6d 3d
       -0.035654064 -0.087239884 0.007986812 0.058092657
000150 c0 38 e5 bc c8 98 2f bc 8a 67 f2 bb 8a 5b 70 bc
       -0.027981162 -0.010717578 -0.0073975967 -0.014670262
000160 b0 f1 a9 3b 4e 21 42 ba 17 93 4e 3e 34 e4 71 3e
       0.005186282 -0.00074054755 0.20173298 0.23622209
000170 39 87 64 be 1a 9b 83 3c d5 c1 7c 3d 71 28 6d 3e
       -0.22317208 0.01606517 0.06170829 0.23159958
000180 9a 55 99 be 9c 3c 0e be 51 6d a6 3c a3 d0 fa 3d
       -0.2994812 -0.13890308 0.020315798 0.122468255
000190 2a e0 84 3c 37 8e 22 bd 9e 3b 31 ba 52 da 90 bc
       0.016220171 -0.039686408 -0.0006760898 -0.017682228
0001a0 25 b8 06 3d 3d 26 f9 bb 9a 9d ec bc 80 a0 0e 3c
       0.032890458 -0.0076034353 -0.028883744 0.008705258

startBlock.0.bias f4 [3]
000000 72 bf de 3a b6 5e 4a b9 dc 65 0a ba
       0.0016994311 -0.00019299504 -0.00052794605

startBlock.1.weight f4 [3]
000000 52 a7 81 3f b7 ba 67 3f 98 94 94 3f
       1.0129187 0.9051928 1.1607847

startBlock.1.bias f4 [3]
000000 68 cd b8 3d 0e cf 1d 3d 23 29 2d 3e
       0.09023553 0.03852754 0.16910224

startBlock.1.running_mean f4 [3]
000000 dc 1d 2a 3e d2 d2 5b 3d 7e 63 cc 3d
       0.16612953 0.05366785 0.09979914

startBlock.1.running_var f4 [3]
000000 41 fc 35 3d c4 1f 31 3d af 44 40 3d
       0.04443002 0.043243185 0.0469405

backBone.0.conv1.weight f4 [3, 3, 3, 3]
000000 58 10 aa 3d 8a fd ea 3a 49 70 66 bd e9 49 0a 3d
       0.083038986 0.0017928344 -0.056259427 0.033761892
000010 1d 4e b2 bc 6d c0 d0 bd cb d9 0a be 14 33 e4 bd
       -0.021765763 -0.10192952 -0.13559644 -0.11142555
000020 78 8b 4c 3e e8 88 46 3e e5 68 da bc fb d1 e8 bb
       0.19975078 0.19388163 -0.026661346 -0.0071051097
000030 10 1b d8 3d 89 dc 19 3d 50 36 bb 3d 7d db e5 bd
       0.10552037 0.037563834 0.09141219 -0.11223505
000040 08 5d 18 be 47 fa 5e 3e 11 01 38 3e 42 6d 58 3a
       -0.14879239 0.2177516 0.17969157 0.0008256027
000050 d4 d5 7a 3d 02 5a 7b 3e 4c 01 a1 3d ff ca 8c bd
       0.06123908 0.24546054 0.078615755 -0.06874656
000060 03 27 13 be dd db e2 3d 35 dc 5f be 84 6a ec bd
       -0.1437035 0.11077092 -0.21861346 -0.11543754
000070 bc 6a bb bb 2b 44 6e 3d b7 8c 65 3e 4d ae 96 3b
       -0.005719511 0.05817048 0.2241696 0.004598415
000080 32 ce 8e 3c 62 e3 2c 3d a8 b5 a4 3d 1c cd ba 3d
       0.017432306 0.042209037 0.08042461 0.09121153
000090 fa ec 61 3c 49 2b c9 3d 07 3c d1 3d 88 6b a0 bd
       0.01378941 0.09822709 0.102165274 -0.0783301
0000a0 5e eb 5f 3d a3 b4 c4 bd f1 c5 15 3d f4 7c 7f 3d
       0.054667823 -0.09604766 0.036565725 0.062375024
0000b0 09 cd 7a 3e a9 ae 3c be 26 c4 1f 3d 93 36 77 3e
       0.24492277 -0.18426003 0.03900542 0.24141912
0000c0 06 33 8d be fa d1 64 3d c0 df 2c 3d 25 37 95 3d
       -0.2757799 0.05586431 0.042205572 0.072859086
0000d0 00 ae 24 3d ba 56 35 be 8c f4 bc bd 76 00 04 3e
       0.040205 -0.17708865 -0.09226331 0.12890801
0000e0 99 47 dc 3d 53 b0 1c be 95 d8 57 3d 61 f4 2b bd
       0.10755844 -0.15301637 0.052696783 -0.041981105
0000f0 7a 3f 12 3e 05 e7 a1 3c 88 5d 97 3b 28 cc 77 3e
       0.14282027 0.019763479 0.004619304 0.24198973
000100 fe f9 05 be 32 d9 a6 3d 88 c5 38 bb 41 dc e9 bd
       -0.13083646 0.081468955 -0.002819391 -0.11418963
000110 7b 7e 7a bd a6 67 2d be ff 96 74 3d 38 90 5d be
       -0.061155777 -0.1693407 0.059714314 -0.21637046
000120 43 9c f5 bc f1 fe 45 be 0a 7b f0 3d 9c 73 1f be
       -0.029981738 -0.19335534 0.11742218 -0.15571445
000130 11 d3 4d bd 49 07 98 bd 33 75 82 be 72 f3 d5 ba
       -0.050250117 -0.074232645 -0.2548004 -0.0016323163
000140 09 1b f7 bd
       -0.120657034

backBone.0.conv1.bias f4 [3]
000000 b7 97 02 b8 4f f8 3d ba 30 a1 7e 3a
       -3.113571e-05 -0.00072467787 0.000971335

backBone.0.bn1.weight f4 [3]
000000 31 48 84 3f 1c f3 6a 3f ab 3e 81 3f
       1.0334531 0.91777205 1.009725

backBone.0.bn1.bias f4 [3]
000000 83 0d 9a 3d 5c fd 5d 3e 5a 0a 9b 3b
       0.075221084 0.2167868 0.0047314586

backBone.0.bn1.running_mean f4 [3]
000000 36 62 c1 3d ed 8e 57 3e ab 7f a6 be
       0.094425604 0.21050616 -0.32519278

backBone.0.bn1.running_var f4 [3]
000000 17 40 72 3e 70 c3 1c 3e 35 40 18 3e
       0.23657261 0.15308928 0.14868243

backBone.0.conv2.weight f4 [3, 3, 3, 3]
000000 09 8d 57 3e d6 94 eb bd 8d 7d 8e bd 7e 99 b3 bd
       0.21049894 -0.115029976 -0.06957541 -0.08769511
000010 99 43 a9 3d fc 23 a4 3d 9d 39 19 bd 1a 65 d2 bd
       0.08264846 0.08014676 -0.03740846 -0.1027319
000020 56 cc a0 3d 2d 88 05 3e c7 90 ba 3d 16 31 92 bc
       0.07851474 0.13040228 0.09109645 -0.017845672
000030 34 0d 69 be cb c4 04 3e cd 42 3b 3e a5 c7 fb bd
       -0.22758943 0.12965696 0.18287201 -0.122939385
000040 40 e0 44 3d 31 0e ea bd bf 65 77 3d 0e f3 03 3e
       0.048065424 -0.11428488 0.060399767 0.12885687
000050 a0 18 21 3e fd b1 13 be a4 49 a9 3d 53 9b 44 3d
       0.1573205 -0.14423366 0.08265999 0.04799969
000060 f7 2c 2e 3e 1f 4e 61 3e a1 57 e8 3d c6 52 68 3d
       0.1700934 0.22002457 0.11344839 0.056719564
000070 37 a8 14 3e 67 7c 1b 3e 26 cf e1 3d 82 85 15 bd
       0.14517294 0.15184174 0.110258386 -0.036504276
000080 04 74 0d 3d 74 fb 2f be f7 ee c3 3c bf 6a 2c be
       0.03453447 -0.17185766 0.023917658 -0.16837595
000090 af 7b c4 3d e9 d1 cb bb 11 df 0f be 6d fd 42 3e
       0.09593903 -0.0062200916 -0.14049937 0.19041987
0000a0 44 9c a3 3d 02 65 b9 3c f8 eb 10 3e 1a 61 59 bd
       0.0798879 0.022631172 0.14152515 -0.05307112
0000b0 8b 92 03 3e 04 bd a4 bd 1c d0 97 be ab 32 b2 3d
       0.1284887 -0.08043864 -0.29650962 0.087010704
0000c0 87 95 d4 3d c9 7d 06 3e ed 98 14 be b0 e3 d0 3d
       0.103800826 0.1313392 -0.14511462 0.10199678
0000d0 c4 b8 6b 3d 41 82 bc bd 93 c1 ab bd dd 61 55 be
       0.057549253 -0.092045315 -0.08386531 -0.20838113
0000e0 9b a7 48 bd b5 7a 99 3d 89 1b 50 3d 64 fb 1d bd
       -0.048987966 0.07494108 0.05080751 -0.038569823
0000f0 53 3a b3 3c ac 44 2e 3e 94 52 16 be e4 33 c5 bd
       0.021878397 0.17018384 -0.14679939 -0.09629038
000100 0b a3 d1 3d 1b 81 4e 3e 41 84 eb 3c c3 72 dc 3d
       0.10236176 0.20166437 0.028749587 0.107640766
000110 a8 ef f5 3d 1c 53 59 3e 69 0f 9a bd 0c ab b9 3d
       0.120086014 0.2122311 -0.075224705 0.09065828
000120 7c 07 c0 bd bf bd 56 3d 15 d0 e0 bd 93 a6 0c be
       -0.093764275 0.05242705 -0.109771885 -0.13735418
000130 21 0a 07 be bd 41 b6 3d b9 6b 24 be d6 49 e9 bd
       -0.13187458 0.08899257 -0.16056718 -0.11391036
000140 a5 5b af bd
       -0.08562402

backBone.0.conv2.bias f4 [3]
000000 06 6b b1 b7 c8 e9 ad b8 a0 ec fd 36
       -2.1149881e-05 -8.292828e-05 7.5675343e-06

backBone.0.bn2.weight f4 [3]
000000 d9 08 7c 3f 90 ef 88 3f cc 58 5e 3f
       0.98451 1.0698109 0.86854243

backBone.0.bn2.bias f4 [3]
000000 e1 f6 c5 3d bb e6 4c 3d 15 c6 c4 3d
       0.09666229 0.05002473 0.09608094

backBone.0.bn2.running_mean f4 [3]
000000 36 86 8a 3e b5 62 2b 3e d7 56 25 3d
       0.2705552 0.16736872 0.04036602

backBone.0.bn2.running_var f4 [3]
000000 f6 34 0c 3e 29 fd e5 3d 02 38 fb 3d
       0.13692078 0.11229927 0.12266542

backBone.1.conv1.weight f4 [3, 3, 3, 3]
000000 9a a2 36 be ea be a3 3b ff d5 bc 3b 65 a2 66 3d
       -0.17835465 0.004997124 0.005762815 0.056307215
000010 30 3e ca bd d7 3c 20 be 17 20 2d 3d 83 d3 9a 3d
       -0.098751426 -0.15648209 0.04226693 0.07559874
000020 84 f5 b4 bd 48 80 19 3e d1 8f 0a 3e a3 2f 8a bb
       -0.08835891 0.14990342 0.13531424 -0.0042171045
000030 ea ae db bd e8 f4 3d 3d e6 af 1b be ef 09 f2 3d
       -0.107267216 0.04637614 -0.15203819 0.11818301
000040 cd 23 58 bd a7 31 2e be 52 2d 08 3e 1d 35 59 be
       -0.052768517 -0.17011128 0.13298538 -0.21211667
000050 94 2a 86 bd 2d 07 d4 bd b4 64 cc bd a8 76 9c bd
       -0.0655109 -0.10352931 -0.09980145 -0.076398194
000060 4d a0 4a 3d c9 7f 9c 3c fc 7e 37 3e b4 dc 16 bd
       0.04946928 0.019103901 0.17919534 -0.036831573
000070 22 98 31 3d b4 c0 91 3d 28 a1 83 be 7c 4e d4 bd
       0.043357976 0.07116833 -0.2570889 -0.10366532
000080 6c 0a 0e be 8c 52 64 bd b5 b1 4a 3d ac 51 f0 3c
       -0.13871163 -0.055742785 0.04948588 0.02933582
000090 2f 8c b5 3c 1d 3c 82 bd 48 db b2 3d 23 38 ab 3d
       0.022161571 -0.06359122 0.08733231 0.083603166
0000a0 d1 3a c7 bc b3 42 19 be ca 00 eb bd 0d 99 87 be
       -0.024320038 -0.1496685 -0.1147476 -0.26483956
0000b0 2a 0d 9b 3c 6b 30 14 be bf ce 82 3d 6c 54 3b be
       0.018927176 -0.14471595 0.0638709 -0.18293923
0000c0 05 e3 ec bd ba 05 ad 3c f3 94 4f 3e 70 b4 cb bc
       -0.11566738 0.021120895 0.20271663 -0.024866313
0000d0 b5 7a 3d 3c 29 bd 82 bd c6 78 33 be 4f 0c 21 be
       0.0115649 -0.06383736 -0.1752654 -0.15727352
0000e0 e5 04 5e bd 83 e1 6b bd b6 4a 89 be a0 a6 97 3b
       -0.054203887 -0.05758811 -0.26814812 0.0046280175
0000f0 b3 8d 8c bb d5 95 49 be b0 30 5a be 9c a3 07 bd
       -0.004289353 -0.19686063 -0.21307635 -0.033115014
000100 63 cc 35 3e 4f ce ce 3d b3 30 9d 3d 54 b5 b5 3d
       0.17753749 0.10097944 0.07675304 0.08872476
000110 10 6b 6a 3c fc 2e a9 bd 0a 2a 3a bd 14 ef b2 3d
       0.014307752 -0.08260915 -0.045450248 0.08737007
000120 77 48 bc bd 60 e5 05 3e 27 3e 22 3e 14 7e 00 3e
       -0.09193509 0.13075781 0.15844022 0.12548095
000130 77 91 a5 3d c1 bd f5 bd 1e 86 d7 bd 0f 54 28 be
       0.08084386 -0.11999083 -0.10523628 -0.16438316
000140 b6 d0 1b be
       -0.15216336

backBone.1.conv1.bias f4 [3]
000000 22 4c 0f 36 dc 5e fb 38 fe b9 a7 38
       2.1352976e-06 0.000119862816 7.997824e-05

backBone.1.bn1.weight f4 [3]
000000 b8 92 78 3f ad 23 82 3f ba 4a 7e 3f
       0.97098875 1.0167137 0.99332774

backBone.1.bn1.bias f4 [3]
000000 f2 07 73 3d 14 77 9d 3c d0 28 b0 bc
       0.05933375 0.01922182 -0.021503836

backBone.1.bn1.running_mean f4 [3]
000000 e5 3d d4 be 04 c3 1b bf 65 c2 38 bf
       -0.41453472 -0.60844445 -0.7217162

backBone.1.bn1.running_var f4 [3]
000000 62 49 ca 3e a5 b0 da 3e 42 61 0e 3f
       0.39509112 0.42712894 0.55617154

backBone.1.conv2.weight f4 [3, 3, 3, 3]
000000 ca 77 e1 bd 43 a4 d9 3d 32 ac 6a 3d ab af a4 3d
       -0.11009176 0.106270336 0.057293124 0.080413185
000010 7e d5 ec ba 06 e5 d6 3d a3 94 a0 3d 44 39 67 bd
       -0.0018068997 0.104929015 0.0784085 -0.056451097
000020 76 0f 4d be 46 e2 23 3e 7b a8 f9 bd 7c 6b 1f bd
       -0.20025429 0.16004285 -0.12190338 -0.038920864
000030 1d d3 a1 bd 91 0a 02 be e1 36 e8 bd 52 65 90 3d
       -0.07901595 -0.12699343 -0.11338592 0.07050575
000040 ea 7b 16 be 2a ea 7c bd 62 b4 ba bd 29 e2 b7 3c
       -0.14695707 -0.061746754 -0.091164365 0.022446709
000050 05 aa 8d 3d 8b 3f 58 3e fa 6e b3 3d b6 cf a9 3d
       0.06917194 0.2111799 0.087614015 0.08291571
000060 2f 61 da 3c 45 3c 10 3e 9c d5 00 be 42 a2 c6 3d
       0.026657669 0.14085491 -0.12581486 0.09698917
000070 dc d3 b0 bd 7b 8e 41 bd c9 21 6a bd a5 14 47 bd
       -0.08634159 -0.04725502 -0.057161126 -0.048603673
000080 30 30 4c bd b6 2f ca 3c aa db 03 be 3e 41 10 3e
       -0.049850643 0.024680953 -0.12876764 0.14087388
000090 81 2c 20 3e a0 e0 eb bd 5b ae 09 be 9c 5a 31 be
       0.15641977 -0.11517453 -0.13445418 -0.17319721
0000a0 7c 75 82 be 75 0d 62 be 59 4e ec bd 76 ee a7 3c
       -0.25480258 -0.22075446 -0.11538381 0.02049945
0000b0 0a 9d b0 ba fc 93 a7 bd 6d 32 cc bd 55 44 a3 3d
       -0.0013474536 -0.08182523 -0.099705555 0.07972018
0000c0 f8 b9 a0 3c e8 47 18 bb 2d b4 55 3d 62 5d f0 bd
       0.019619927 -0.002323622 0.052173782 -0.11736561
0000d0 fe 0d 4a 3d 71 f0 4d 3e b7 74 48 3d f6 a1 07 3e
       0.04932975 0.20111252 0.048939433 0.13245377
0000e0 fe 50 e7 3d 25 95 3b 3e 60 f2 24 bd 71 20 d8 bd
       0.11294745 0.18318613 -0.04027021 -0.10553063
0000f0 1c 7e 9a bd 29 70 61 3e 3d 96 1a 3e 57 96 40 3e
       -0.07543585 0.22015442 0.15096374 0.1880735
000100 f7 c8 38 bc 6e 1d 1c be db 80 8d 3d 59 1a 84 3d
       -0.0112783825 -0.15245602 0.06909343 0.06450338
000110 7f 4c 3a 3e 0e 9c d2 bd 9b 56 d5 3c 71 0d 7e 3d
       0.18193243 -0.10283671 0.026042273 0.062024537
000120 7d 82 3d 3e d3 c7 27 be 20 d7 18 3d 39 df bc 3b
       0.18506809 -0.1638482 0.037314534 0.005763915
000130 3f e9 46 3e 30 c3 53 bd 8a 90 6a bd 0c 30 a2 bd
       0.19424914 -0.051699817 -0.05726675 -0.079193205
000140 ae 39 c5 3c
       0.024075355

backBone.1.conv2.bias f4 [3]
000000 3c 7d a2 37 3a 05 e5 37 03 d5 d2 b9
       1.9370222e-05 2.7301361e-05 -0.00040213027

backBone.1.bn2.weight f4 [3]
000000 3d 5e 72 3f 0f 32 6d 3f aa b0 87 3f
       0.94675046 0.9265451 1.0600789

backBone.1.bn2.bias f4 [3]
000000 81 c6 1b 3d 34 74 12 3d 76 b5 d1 3d
       0.038031105 0.03575535 0.10239689

backBone.1.bn2.running_mean f4 [3]
000000 76 f0 d4 3c 30 1d 90 be 53 1c a2 3e
       0.025993567 -0.28147268 0.31662235

backBone.1.bn2.running_var f4 [3]
000000 56 c2 92 3d d5 4a 9e 3d 5c a3 77 3d
       0.07165973 0.07729117 0.060458526

backBone.2.conv1.weight f4 [3, 3, 3, 3]
000000 b8 8b 51 bd 50 28 14 be 5d 91 52 be 4c e5 3c be
       -0.051158637 -0.14468503 -0.20563264 -0.18446845
000010 c9 97 e4 bd 42 90 08 be 1c 25 17 be ac 75 d2 3d
       -0.11161763 -0.1333628 -0.1476025 0.102763504
000020 9a 36 28 bd da ec 91 bd 59 4d be bd aa 33 14 3e
       -0.041067697 -0.07125254 -0.09292097 0.14472833
000030 28 72 09 be 4e 80 fd 3c 4d d6 28 3c 39 60 9c bd
       -0.13422453 0.03094497 0.010305 -0.076355405
000040 e4 e6 1d 3e a0 e3 f1 bd 7c 23 da 3d 02 6f 8b 3c
       0.15420109 -0.11810994 0.10651299 0.017020706
000050 a9 98 c0 bd ba 79 6b 3d ad d5 35 be 1d ee 21 3e
       -0.094041176 0.057489134 -0.17757292 0.1581349
000060 e0 49 49 be 84 cb b6 bc e5 d0 85 bd ae 75 b8 bd
       -0.19657087 -0.02231384 -0.06533984 -0.090068206
000070 83 7b 3c be c4 2b a9 3d e7 4c 25 bc 96 b3 3e bd
       -0.18406491 0.08260301 -0.010089136 -0.046557985
000080 24 c9 3d 3d a2 a8 d1 bc eb 99 da bd 5f 68 1f 3d
       0.0463344 -0.025593106 -0.10673889 0.038917895
000090 7e 83 14 be 21 54 d1 3b d7 ea b2 3d 98 d8 0e be
       -0.14503285 0.006388203 0.087361984 -0.13949811
0000a0 76 cc f7 bd f3 36 7c 3d 37 e1 88 3b 50 70 6d bd
       -0.12099545 0.06157584 0.0041772383 -0.057968438
0000b0 07 13 d1 bd 56 4b 48 be cf 38 bb bd 9f 52 39 be
       -0.10208707 -0.19559988 -0.09141695 -0.18097924
0000c0 63 04 d5 3d 20 1b f1 3c c4 4d 8a be 6b 51 1e be
       0.10401227 0.02943188 -0.27012455 -0.15460746
0000d0 31 3f 69 3d 5a 7e 2b 3e be 80 95 3d e1 bb a9 3c
       0.05694503 0.16747418 0.07299946 0.02071947
0000e0 3e f7 bc 3d 15 44 3f 3e b1 60 85 3c a0 c4 17 be
       0.09226845 0.18678315 0.016281458 -0.148211
0000f0 9e 69 ea bd dd 9c 0f be 7c d9 1e be 60 42 40 3e
       -0.11445926 -0.14024682 -0.15512651 0.1877532
000100 bf 16 a9 3c ce bf 8a bd 0c 20 f2 bd 8f 32 44 be
       0.020640729 -0.06774865 -0.11822519 -0.19159912
000110 c6 5a 29 bd 98 78 b7 3d 63 60 5e be 01 b8 49 bd
       -0.041346334 0.08958548 -0.21716456 -0.049247745
000120 e0 d2 0b be 9d 0b 48 be 42 82 d5 bd ca bb d7 bd
       -0.13654661 -0.1953568 -0.10425235 -0.10533865
000130 19 d7 a2 bd b5 79 8f bd 2f 4f 03 be ff ec 3c bd
       -0.07951183 -0.07005636 -0.12823175 -0.046124455
000140 1e f1 87 be
       -0.26551145

backBone.2.conv1.bias f4 [3]
000000 36 ad 04 b7 76 27 06 b9 3c 90 90 38
       -7.908142e-06 -0.00012793936 6.893321e-05

backBone.2.bn1.weight f4 [3]
000000 d4 21 7f 3f 6b 68 80 3f 36 3e 7b 3f
       0.9966099 1.0031866 0.981418

backBone.2.bn1.bias f4 [3]
000000 67 e7 03 bd cc 18 c0 bd db 78 83 bd
       -0.032203104 -0.0937973 -0.06419536

backBone.2.bn1.running_mean f4 [3]
000000 5e 37 8d bf 02 85 78 bf b9 10 c2 bf
       -1.1032522 -0.97077954 -1.5161353

backBone.2.bn1.running_var f4 [3]
000000 63 66 54 3f 2a 7b 6c 3f b2 f3 ae 3f
       0.8296873 0.92375433 1.366812

backBone.2.conv2.weight f4 [3, 3, 3, 3]
000000 e6 e8 98 bd 56 03 2e 3e 05 f6 0f 3d 42 9c 8b bd
       -0.07466297 0.1699346 0.035146732 -0.06816913
000010 ed 70 67 3d cd 96 17 3e 05 b5 2d be 45 1d c4 3d
       0.05650418 0.1480362 -0.16963585 0.09575895
000020 a2 62 39 bd f6 98 fa bd 56 64 1e 3e d9 81 b7 3d
       -0.04526008 -0.12236206 0.15467963 0.08960313
000030 60 8e 4c ba 23 47 db 3d e7 f8 67 be b6 ff c7 3d
       -0.0007803198 0.107069276 -0.22653542 0.0976557
000040 e8 00 0a be 55 79 65 3d d2 f8 62 bd 9a 05 1f be
       -0.13476908 0.056023914 -0.055413075 -0.1552948
000050 aa a5 cd 3d 13 1d 52 be 35 6a 2b 3e dc fc 44 3e
       0.100413635 -0.20518903 0.16739734 0.19237083
000060 52 30 b9 3d 84 87 06 be 50 4d 20 be 36 ad eb 3b
       0.090424195 -0.13137633 -0.15654492 0.007192279
000070 dc d8 c2 bd da d4 40 3d a3 bc b8 bc b1 0c 28 3e
       -0.09514019 0.04707799 -0.022550886 0.16411091
000080 d7 4c d6 bd bb 00 90 bd ed 25 96 be a3 af 27 3e
       -0.10463875 -0.07031389 -0.2932581 0.16375594
000090 57 e6 6c bd 33 8b 24 be 7f 09 cb bc fc 39 61 bd
       -0.057836857 -0.16068725 -0.024784802 -0.05498694
0000a0 38 a0 a2 3d 90 0a d4 3d f9 3b 0d 3e d3 b1 cb 3c
       0.079407156 0.10353577 0.13792409 0.024865067
0000b0 f0 b6 af bd 24 80 ae 3c f9 c5 37 be 25 35 d3 3c
       -0.085798144 0.021301337 -0.17946614 0.025782177
0000c0 19 eb 4a bd f3 ad f4 bd cd 4d 00 3e 34 37 47 3d
       -0.049540613 -0.11947241 0.12529679 0.04863663
0000d0 a3 1f aa 3b 6c be 7d bd 90 74 93 bd 9d 91 7b 3d
       0.0051917597 -0.06194918 -0.07199967 0.061418165
0000e0 1d ce 50 3d a5 be a8 3b 38 a2 e7 bd c7 32 93 bd
       0.050977815 0.0051496797 -0.11310238 -0.071874194
0000f0 43 69 2f 3e 71 4a c7 3c 78 9b 0b 3e 95 21 11 3d
       0.17129998 0.024327489 0.13633525 0.035432417
000100 a8 95 c9 3c 5f 9d e5 3c da fa 04 3d b6 bc 56 be
       0.024607494 0.028029142 0.032465793 -0.20970425
000110 98 65 5d 3e ae 8d 40 3d 7f a3 26 be 68 a7 64 be
       0.21620786 0.047010116 -0.16273306 -0.22329485
000120 51 f5 62 be 73 8a 41 be 0f f4 e3 bd 58 9c a1 bd
       -0.22163893 -0.1890047 -0.11130535 -0.07891148
000130 4c 86 9c 3d 47 02 6f bd 3e e0 f9 bd 5e f6 32 3e
       0.076428026 -0.05835178 -0.12200974 0.17476794
000140 e1 bc 77 3d
       0.060482863

backBone.2.conv2.bias f4 [3]
000000 5b 9b 65 36 bc 93 9b 37 7d ed 1a 39
       3.4214088e-06 1.8546234e-05 0.00014775056

backBone.2.bn2.weight f4 [3]
000000 0d e1 51 3f d7 50 76 3f 19 12 89 3f
       0.81984025 0.962171 1.0708648

backBone.2.bn2.bias f4 [3]
000000 44 6c 55 bb 7a 58 2f bc c1 3b c0 3d
       -0.0032565752 -0.010702247 0.09386397

backBone.2.bn2.running_mean f4 [3]
000000 48 8b 80 3d aa 2d 03 be 2f b7 bd bd
       0.06276566 -0.12810388 -0.09263455

backBone.2.bn2.running_var f4 [3]
000000 21 e0 5b 3d 04 ea 1b 3d df db 2c 3d
       0.053680543 0.03806497 0.042201873

policyHead.0.weight f4 [6, 3, 3, 3]
000000 b5 b3 09 bd 20 ec dd 3d 06 ab 0e 3e 9b 8b 38 3e
       -0.033618648 0.10836053 0.13932428 0.18022005
000010 cd cd a8 3b c4 08 cd bd cc 86 9e bd ed 22 aa bd
       0.0051514865 -0.100114375 -0.07740554 -0.08307443
000020 a8 70 67 3e e0 65 01 3e 88 7f c3 3d 08 ff 98 3c
       0.22601569 0.12636518 0.09545809 0.018676296
000030 e7 1c 98 3d 3e a4 61 bd f9 27 88 bd 6f c0 5c bd
       0.07427388 -0.055088274 -0.06648249 -0.053894456
000040 60 41 2d 3e e4 77 f3 bd ed 88 d3 bd 6f 95 ca bd
       0.1691947 -0.11888102 -0.10328851 -0.098917834
000050 47 ec 29 be 08 75 3b be c0 04 01 3e 7e a7 5e 3e
       -0.16594039 -0.18306363 0.12599468 0.2174358
000060 ba cc c4 3d aa 5f d1 3c ac ef 7d 3b a9 c1 1f be
       0.09609361 0.025558311 0.0038747592 -0.15601219
000070 9e 9b 88 bb 0e df 37 be 43 a9 46 be 21 72 ec 3b
       -0.0041689416 -0.17956182 -0.19400506 0.0072157537
000080 8f cb df 3d fc be 82 3e 2b 87 10 be a3 48 9c 3d
       0.109274976 0.25536335 -0.14114062 0.07631042
000090 eb bb ba bc 37 94 0d 3e f4 5b 32 be 06 50 da bd
       -0.022794684 0.1382607 -0.1741789 -0.106597945
0000a0 74 e0 7a bd 3e 34 4d bd 3b 5d 3b bd 18 6e 03 3e
       -0.06124921 -0.05009865 -0.04574321 0.12834966
0000b0 06 05 a6 3d 6d b8 2d 3e 3d 12 93 3d a0 07 06 3e
       0.08106427 0.16964884 0.07181213 0.13088846
0000c0 f8 06 bc bd 7c 59 63 3d d8 a8 08 3d 45 96 74 bd
       -0.09181017 0.05550526 0.033364147 -0.05971362
0000d0 e6 53 05 be 96 7d 24 be e2 43 43 3e d1 d0 2f 3e
       -0.13020286 -0.16063532 0.19068864 0.17169501
0000e0 b6 c2 fa bd 34 6d 05 3e 38 80 4e 3d 20 1c 26 be
       -0.122441694 0.13029939 0.050415248 -0.16221666
0000f0 6c 3c 3e 3e 8a 7b 11 3d 97 92 44 3e cc 00 10 be
       0.18577737 0.035518207 0.19196545 -0.14062804
000100 f3 28 1a 3d 42 4a 4b 3e f2 94 a7 bd 43 68 4e be
       0.03763671 0.19852546 -0.08182706 -0.2015696
000110 2f 1e 5c 3e c0 0b e4 3c f4 2a 73 3d 00 50 e0 bd
       0.21495889 0.027837634 0.059367135 -0.10952759
000120 98 11 b4 3b 31 c0 39 be 4d c7 2b bc a2 3a be bc
       0.0054952614 -0.18139721 -0.010484529 -0.023221318
000130 ce 60 b3 bd 70 71 38 be 01 31 7d bd ac fd 25 be
       -0.087586984 -0.18012023 -0.061814312 -0.1621005
000140 c4 3d c7 bd d3 9b f0 bd c6 bf 58 be 41 ce ed 3d
       -0.09728578 -0.11748471 -0.21166906 0.116116054
000150 ce 7a cd bc 38 70 5c bc b2 00 bf bc 6a 0d dd 3d
       -0.025082972 -0.013454489 -0.023315761 0.10793574
000160 83 c5 a3 bc 9f 29 09 3e e0 3a 1a 3e b4 bd 1a 3e
       -0.019991642 0.13394783 0.15061522 0.15111428
000170 1d ab 64 be 5e 6e 4a 3e 29 a8 8d bb a0 8f 13 3e
       -0.223309 0.19768664 -0.004323025 0.14410257
000180 c3 58 e3 bd 3e 93 22 3b 1b 9c b2 3d ef 03 33 bd
       -0.11100914 0.0024807001 0.08721181 -0.043704923
000190 86 15 98 3c a1 2c 20 3e 3d 28 f8 3c 1a a1 11 3e
       0.01856495 0.15642025 0.030292625 0.14221612
0001a0 11 2a 48 be e8 19 35 be 9a d7 c2 bd 58 55 ca bc
       -0.19547297 -0.17685664 -0.09513779 -0.024698898
0001b0 6b 56 fb bd 12 f6 94 bd 72 f5 b1 bc fe fd fc 3d
       -0.12272342 -0.07273497 -0.021723483 0.12353133
0001c0 a8 e3 08 3e bc 2f 95 3d 59 93 74 3e c0 b2 96 bd
       0.13368094 0.07284495 0.23884334 -0.073583126
0001d0 79 cc 01 3e 13 61 13 3d 8e 88 bd bd f3 a8 20 3e
       0.12675656 0.03598125 -0.09254561 0.15689449
0001e0 ff e6 a6 3d 4a dd fb bb 43 8f 2a 3e e2 a8 0d be
       0.08149528 -0.007686292 0.16656213 -0.13833955
0001f0 15 70 0d be a0 50 5c bd d9 5a bd 3d 4b a5 0c be
       -0.13812287 -0.053787827 0.092458434 -0.1373493
000200 9c 19 e8 3d 6b 6c ca 3d 0e f6 34 3d 56 bf 39 be
       0.113330096 0.0988396 0.04417997 -0.18139395
000210 66 93 a9 bd b3 f2 77 3d e8 66 e2 3d d9 b4 ba bd
       -0.08280067 0.06053419 0.11054784 -0.09116525
000220 76 54 b6 bd 72 a4 22 3c b8 76 a1 bc a9 60 f4 3c
       -0.089028284 0.009926902 -0.01970993 0.029831247
000230 58 a1 c8 3d a5 4b 7e 3d 06 f1 9d bd c2 45 2e 39
       0.09796399 0.06208386 -0.07711987 0.0001661992
000240 bf 11 8a bc 52 4d 79 bc 78 91 5c bd f8 e7 80 bc
       -0.016854165 -0.0152161885 -0.053849667 -0.015735611
000250 b6 d3 a3 bd 65 c7 ae 3d 7a d2 d7 3c 1f 50 86 bd
       -0.07999365 0.08534125 0.02634548 -0.06558251
000260 83 0c b1 bd 38 58 b2 3b 5d b6 cc bc 9a 8d 2a 3e
       -0.086449645 0.0054426454 -0.024989301 0.16655579
000270 cd 4d a5 3d 1d 2c 1b 3d df 15 36 be d7 51 a5 3d
       0.0807148 0.037883867 -0.1778178 0.0807225
000280 b9 53 31 be 3c 42 8e 3e
       -0.17317094 0.27784908

policyHead.0.bias f4 [6]
000000 70 9c 6b 34 15 3f 3c 36 60 4a 5d 36 48 5b 95 b6
       2.1942992e-07 2.8050902e-06 3.2974858e-06 -4.4511726e-06
000010 bc b5 c2 b7 64 8a 24 b6
       -2.3211229e-05 -2.4518458e-06

policyHead.1.weight f4 [6]
000000 ee ea c6 3f 88 da be 3f 3a 9b bd 3f 81 d5 be 3f
       1.5540445 1.491044 1.4812996 1.4908906
000010 d1 8c b7 3f 34 ea bc 3f
       1.4339849 1.4758973

policyHead.1.bias f4 [6]
000000 de fb 02 3f 85 4f af 3e a5 80 ad 3e d4 f9 db 3e
       0.5116557 0.34240356 0.3388721 0.4296404
000010 17 a8 d1 3e be 21 a9 3e
       0.40948555 0.33033556

policyHead.1.running_mean f4 [6]
000000 29 f7 f6 3e 91 37 a8 be d6 30 98 be bd 09 61 3e
       0.48235443 -0.32854894 -0.2972476 0.21976371
000010 d5 61 1b 3f 74 6a 88 bd
       0.60696155 -0.06660929

policyHead.1.running_var f4 [6]
000000 8a aa 53 3f 33 80 db 3e 26 5a 1e 3f 75 71 04 3f
       0.82682097 0.42871246 0.61856306 0.5173562
000010 9c 9b 1c 3f 30 ae b1 3e
       0.6117494 0.34703207

policyHead.4.weight f4 [25, 150]
000000 6c 50 69 bd c7 25 85 bd 7f 54 3e 3c a1 bb dc 3d
       -0.056961462 -0.06501346 0.011616825 0.10777975
000010 b9 4a 97 bd 7d ae 66 bd 95 25 3a 3e ea 43 85 3e
       -0.07387299 -0.05631875 0.18178399 0.26028377
000020 39 c3 b2 bc d8 62 8d bd 06 5a 58 3e 25 ea dd 3c
       -0.021821605 -0.069036186 0.21128091 0.027089188
000030 26 2d 16 3d d0 60 cc 3d a9 f3 2a bd 1e 14 fc 3d
       0.03666415 0.09979403 -0.04173628 0.123085245
000040 aa 02 92 bd ef 5a 14 be be e6 fd bc f6 43 d1 3d
       -0.071294144 -0.14487813 -0.030993816 0.10218041
000050 fa e0 18 be 05 a5 a0 bd 5e 3b e8 bd e0 b9 d2 3c
       -0.14929572 -0.07843975 -0.113394484 0.025723398
000060 b3 01 8c bd de c2 0d be b3 6a a7 bd 7b 94 17 be
       -0.068362616 -0.13843867 -0.08174648 -0.14802735
000070 86 7c b4 bd ba 83 3e be 18 a2 10 be a9 0a 94 bd
       -0.088128135 -0.18604937 -0.14124334 -0.07228596
000080 18 03 81 bb b8 95 86 bd 16 73 0e be e1 28 52 be
       -0.0039371364 -0.06571525 -0.1391109 -0.20523407
000090 cc 7f 59 bd 5d 7e c1 bd 81 5b b0 ba dd 15 50 bd
       -0.053100392 -0.0944793 -0.0013455005 -0.0508021
0000a0 68 ed 3b 3e 72 d9 8a 3d 57 af 90 3d 3b 57 ab 3d
       0.18352282 0.06779756 0.070646934 0.08366247
0000b0 07 f8 b0 3c c6 c1 07 bc d8 be bc 3d 75 c3 cd bd
       0.021602644 -0.008285945 0.09216088 -0.10047046
0000c0 4c 37 a8 bd 75 75 97 bd da c9 df 3d a9 8a 67 be
       -0.08213672 -0.0739545 0.10927172 -0.22611488
0000d0 76 5e 3e be 7d 96 37 bd 8f 80 bd bc ce 11 b2 3c
       -0.18590721 -0.04482125 -0.02313259 0.021737006
0000e0 15 f9 c1 bc c8 37 2b be 41 be 26 be b4 d8 77 bd
       -0.023678342 -0.16720498 -0.16283514 -0.0605094
0000f0 05 25 7b bd 8b 9f 2e 3e 21 28 ab bd 5d 9f dd bd
       -0.0613146 0.17053048 -0.08357263 -0.10821412
000100 62 bc 2c bd 62 2d 12 be b9 18 85 bc f7 b3 15 3e
       -0.042171843 -0.14275125 -0.01624714 0.14619432
000110 1b 29 c3 bd 08 c2 00 be 69 71 c6 bd 48 12 f2 bd
       -0.095293246 -0.12574017 -0.096896 -0.11819893
000120 0d 7a d8 bd ad 01 04 bd 61 da 60 3b ce 3a 59 3e
       -0.10570154 -0.03222816 0.0034309851 0.21213838
000130 67 a5 64 3d df f9 75 bd 24 83 90 bd de c1 b3 3b
       0.055821802 -0.06005275 -0.07056263 0.0054857573
000140 64 fa e3 bb 64 0a 53 3c 75 0d f4 3d 1a 9f 32 3e
       -0.006957339 0.012880895 0.11916629 0.17443505
000150 50 a0 d4 bc bd e0 bb bd a3 cc 8d bd 29 07 20 bd
       -0.02595535 -0.09173725 -0.06923797 -0.03906933
000160 2b cb b1 3d 6a 9d a6 3d 59 4e e5 3d 13 b9 15 be
       0.08681329 0.08135493 0.11196584 -0.14621381
000170 7f 7b 8a bc 76 8e b5 3d 03 8e ab bc 7d f2 0f 3e
       -0.01690459 0.08865063 -0.02094174 0.14057346
000180 ff 7b 13 3e 66 6b bd 3d 11 dd 20 bd 16 1c 90 3c
       0.1440277 0.09249 -0.039273325 0.017591517
000190 0a 32 79 3b 48 3a 98 3d 2d ab a2 3d b1 47 e2 bd
       0.003802421 0.07432991 0.079428054 -0.1104883
0001a0 8b 3c 4b 3c 62 50 b2 3e 73 56 7f 3d e2 3a d1 3d
       0.012404571 0.34826952 0.062338304 0.10216309
0001b0 69 94 af bd bd 5e 80 3d e0 db 56 3d 79 84 56 3d
       -0.08573229 0.0626807 0.052455783 0.05237243
0001c0 f8 9e 81 bd 2c c3 0a 3d 3b 1e ff 3a 04 16 d7 bd
       -0.06329149 0.033877537 0.0019463965 -0.10502246
0001d0 c2 af 27 be 6e 4f 20 3d b7 86 62 bc fd 66 a8 bd
       -0.1637564 0.03913825 -0.013826064 -0.082227685
0001e0 1a 62 82 3d b5 75 a4 bd ad 47 01 3e 83 36 cd 3c
       0.06366368 -0.08030263 0.12624998 0.025050407
0001f0 f0 da 20 be cb 20 8b be 63 c7 1b 3e 7d 20 39 be
       -0.15708518 -0.27173457 0.15212779 -0.180788
000200 ab 43 51 be f7 b4 b0 bd af 3b 45 3c 51 dd f0 bd
       -0.2043597 -0.08628266 0.012038155 -0.11760963
000210 ff a5 06 be 41 a6 e9 bc a1 d9 92 bd 0c 03 9d bc
       -0.1314926 -0.028521659 -0.07170416 -0.019166492
000220 8d ed 9a bc 72 56 78 3d d8 84 c9 3b bb 98 e7 3a
       -0.018912101 0.060629316 0.0061498694 0.0017669419
000230 03 b3 f6 bd 4e b3 39 3c dd 04 45 3d d5 d4 c3 39
       -0.120458625 0.0113342535 0.04810034 0.0003735187
000240 fa 9b 2d bd 22 55 94 3d b0 d6 24 bb 2c f9 00 bd
       -0.04238508 0.072428 -0.0025152378 -0.03148763
000250 1b fd a2 bd 98 88 d4 bb 4a 85 4a 3e e5 83 59 bd
       -0.07958432 -0.00648601 0.19777408 -0.0531043
000260 e3 72 94 be b3 d6 31 be d9 57 a3 3d 1e 90 9a bd
       -0.28993902 -0.17367058 0.0797574 -0.075470194
000270 b7 08 6b bd 98 bd f4 3d eb df 65 3e ec 48 18 3b
       -0.057381358 0.11950225 0.22448699 0.0023236824
000280 b5 c3 40 3e 49 ef ab 3d db 6d 53 bd 6f df 06 3d
       0.18824656 0.083952494 -0.05161844 0.032927927
000290 8b ed b2 bc 01 a0 28 be 02 5e 24 be 45 9e 2a bd
       -0.021841785 -0.16467287 -0.16051486 -0.041654844
0002a0 b8 70 7d bd b7 60 70 bd 8b d3 1b 3d 7a ab 00 3d
       -0.061875075 -0.058685984 0.03804354 0.031413533
0002b0 a1 ee 88 bc 56 ac 0f 3d 5b fe 27 3e 8e 12 3f 3d
       -0.01671535 0.03507646 0.16405623 0.046648555
0002c0 7b 18 d6 bd 90 b2 4f be 04 7b ec 3d d8 73 11 be
       -0.10453888 -0.2028296 0.11546901 -0.14204347
0002d0 6c 24 1c be c8 d9 c1 bc 55 c5 9b bd c5 0b 76 bd
       -0.15248269 -0.023663417 -0.076059975 -0.060069818
0002e0 89 81 03 be e2 82 fe bd 8f 06 0c bc d8 6e 51 be
       -0.12842382 -0.12427308 -0.008546486 -0.2045244
0002f0 29 cd 35 be 6a 16 be 3c 78 10 26 3d 8a e2 0a be
       -0.17754044 0.023204047 0.04054305 -0.1356298
000300 88 70 a1 bd 74 85 56 bd 3c c4 ba 3d d0 7f 04 3d
       -0.07882792 -0.052373365 0.0911946 0.032348454
000310 14 95 a5 bd 70 8a 93 3c 1d 9c ba bd a7 b7 fb bc
       -0.08085075 0.018010348 -0.091118075 -0.03072722
000320 e0 c5 97 3e 6c 6e 24 3d 15 94 15 be 7f 0f 78 be
       0.29643154 0.04014437 -0.1460727 -0.24224661
000330 7b ad 25 bd c8 45 09 3d cf 04 97 3b 6c 7e d6 bd
       -0.040448647 0.033513814 0.0046087275 -0.10473332
000340 c3 29 27 bd 73 32 bd bd 14 e1 d4 bd 47 35 d2 bd
       -0.04081131 -0.09238138 -0.10394493 -0.10264068
000350 27 13 3f 3e 1b 12 18 bd b8 54 07 be 83 7f d4 bd
       0.1865965 -0.03712664 -0.13215911 -0.103758834
000360 94 17 1a be 4b 61 0d bd c2 50 1d bd 01 8a 13 be
       -0.15048057 -0.034516614 -0.038407095 -0.14408113
000370 12 81 28 3c a4 b0 25 bc 41 f8 24 be fa b8 c4 bd
       0.010284679 -0.010112915 -0.16110326 -0.09605594
000380 82 7a 0e 3c 58 8c fc 3d f3 71 b1 bc 6d 8c 35 3e
       0.0086962 0.12331456 -0.02166078 0.1772935
000390 85 46 3c 3e 7a 69 e3 bd 58 2f 0f be ad 5e 14 3e
       0.18386276 -0.111041024 -0.13982904 0.14489241
0003a0 a6 a1 12 3d ff ed 87 bd a6 63 35 3c 92 1e ae 3d
       0.03579869 -0.06637191 0.011071121 0.085019246
0003b0 34 49 10 be 88 5f d2 3c bd 41 95 3d 09 b6 07 3e
       -0.14090425 0.025680318 0.07287929 0.13253035
0003c0 c6 e6 ee 3d 89 43 8a 3d 10 7c 53 3d 5b 4f 9f 3d
       0.1166511 0.067511626 0.051631987 0.07778808
0003d0 b2 29 59 3d 77 0f 36 bd ac b3 e6 3c f7 38 c6 3d
       0.05301828 -0.044448342 0.028161846 0.09678834
0003e0 eb 76 63 3d c0 38 1d bd 53 01 25 3e e5 97 0d 3c
       0.05553333 -0.0383842 0.16113786 0.0086421715
0003f0 26 0a 11 3e bb 68 b8 3d f3 54 1e 3b 55 37 3a 3e
       0.14164028 0.09004351 0.002415952 0.1818517

policyHead.4.bias f4 [25]
000000 c3 ee ce 3b f6 34 9f bd a5 08 df bd 17 bb 9c 3d
       0.0063150837 -0.07773773 -0.10890321 0.07652872
000010 61 b3 68 bc 9e c4 fb bc 4d 8c ae bd 05 d7 43 bd
       -0.0142029235 -0.030733403 -0.08522854 -0.04781248
000020 5d 40 d6 3d cb d8 59 3d cc 46 5f bc 3e 3a bd 3c
       0.10461495 0.053185266 -0.013627719 0.023099061
000030 72 0a 41 3c 50 f1 d6 3b 4e 99 ae 3c ac 8b d0 3b
       0.0117822755 0.0065595284 0.021313336 0.0063643064
000040 f2 d0 b7 3c c3 6d e7 bd ac c4 6f 3d 5a a1 c3 3b
       0.0224385 -0.11300232 0.05853717 0.0059701623
000050 10 34 87 3c ec 11 b2 3c 0c 6c 5e 3d e1 33 9b 3c
       0.016504318 0.021737061 0.05430226 0.018945636
000060 48 e9 42 bd
       -0.047585756

valueHead.0.weight f4 [3, 3, 3, 3]
000000 7b 5b 27 3d ba 37 0d 3e 7c cb af 3d 48 5c 1b 3b
       0.040858727 0.13790789 0.085837334 0.0023706127
000010 c9 9f 80 bd 02 0b 5d bc 9a 20 0c be b7 29 77 3b
       -0.062804766 -0.013491394 -0.13684312 0.0037714073
000020 57 d6 a9 3d ef 18 b8 bb c8 1e 97 38 8d c4 67 be
       0.08292835 -0.0056182067 7.2059745e-05 -0.22633572
000030 23 05 f7 bc 3d 96 44 3d cd 03 01 bd 51 6a fc bc
       -0.030153817 0.04799484 -0.031497765 -0.030812414
000040 a1 01 7e bc cb 30 0d be 76 31 b2 3d a2 bd 03 3d
       -0.015503318 -0.13788144 0.0870084 0.03216327
000050 68 40 01 be 05 eb c7 3d 61 4b 4f be 13 5c 53 be
       -0.12622225 0.09761623 -0.20243599 -0.20640592
000060 2b a0 23 3d d6 99 cb bd 47 dc 74 3c b8 d2 a1 bd
       0.03994767 -0.09941451 0.014945096 -0.079015195
000070 f6 37 5b be 78 2e 57 be 58 da 0a 39 fc b8 58 3d
       -0.21408066 -0.2101382 0.00013242045 0.05291079
000080 b6 03 52 bd 10 9e 5d bd f8 e7 07 3e 07 e0 45 be
       -0.05127307 -0.05410582 0.13272083 -0.19323741
000090 dc 85 2a be 0a 75 3b 3e 2a cf e3 3d f6 a7 e7 bc
       -0.16652626 0.18306366 0.11123498 -0.028278332
0000a0 63 f4 20 bc 87 e9 0b be 46 04 f4 bc 9f 83 f2 3d
       -0.009823891 -0.13663302 -0.029787194 0.11841511
0000b0 30 c7 49 be a3 7d 06 bb 90 dc b5 3c 2f d8 0f be
       -0.1970489 -0.0020521663 0.022199899 -0.14047311
0000c0 de 6a 95 bd d7 80 cc 3d a7 51 03 3e ed 86 27 3c
       -0.07295774 0.09985512 0.12824117 0.01022504
0000d0 43 8e a0 bc c8 25 12 bd 4a aa c9 3d 6b f0 06 bd
       -0.019599086 -0.035680562 0.09846933 -0.032944124
0000e0 02 ab e5 3d d2 f5 85 3d 0c 0d 4b be 7d dd 07 be
       0.11214258 0.06541027 -0.19829196 -0.13268085
0000f0 25 3a 35 be b6 34 3a be d3 0d 8d 3c a2 ff 06 3e
       -0.17697962 -0.1818417 0.017218506 0.13183454
000100 b8 71 55 be 24 84 63 be bc b3 15 3d ff 5d 18 be
       -0.20844162 -0.22218376 0.03654836 -0.14879607
000110 1d 25 18 3d 96 b0 b2 bd 5f c0 3a bd 47 d2 6a bd
       0.03714477 -0.08725087 -0.045593616 -0.057329442
000120 0d fa 50 bd cb 5f 07 be f4 f7 dc bc fb c7 ba bd
       -0.051019717 -0.13220136 -0.026973702 -0.091201745
000130 33 30 f3 3d 58 93 91 3d dc f3 e9 bc 68 29 aa bd
       0.11874428 0.07108182 -0.028558664 -0.08308679
000140 08 fc 52 be
       -0.20603955

valueHead.0.bias f4 [3]
000000 9e 21 e0 38 07 4c c1 b7 44 50 f1 b5
       0.00010687414 -2.3042796e-05 -1.797926e-06

valueHead.1.weight f4 [3]
000000 50 10 71 3f a2 72 71 3f 5d a6 57 3f
       0.94165516 0.9431554 0.84238225

valueHead.1.bias f4 [3]
000000 e1 11 07 3c fc eb 29 bd 76 95 b7 bd
       0.008244009 -0.041484818 -0.08964054

valueHead.1.running_mean f4 [3]
000000 97 57 68 bf fc 68 11 bf 9f 2b c3 bf
       -0.9075865 -0.5680082 -1.5247687

valueHead.1.running_var f4 [3]
000000 5e 6e 2c 3f 34 83 0e 3f 5d 0b cf 3f
       0.67355907 0.5566895 1.6175343

valueHead.4.weight f4 [1, 75]
000000 2d a0 8b 3d 99 34 bc bd 6e c0 77 bd 91 b3 e3 3c
       0.068176605 -0.0918972 -0.06048625 0.027795585
000010 90 bb 2f 3e bb 12 13 bd d2 bb 83 3d fb e1 28 3d
       0.17161393 -0.035906535 0.06432308 0.041231137
000020 3b 11 51 3d 3b 1f 3f 3d 1e df 97 bd d4 ac 85 bb
       0.051041823 0.046660643 -0.07415603 -0.0040794406
000030 ca 5d 22 bd 8e 8d ca bc d1 a6 24 bd 9d 3c 64 3c
       -0.039640225 -0.024725702 -0.04019815 0.013930467
000040 08 c0 d7 3d 87 47 58 bd 81 4d 31 be be e3 d2 bd
       0.10534674 -0.05280259 -0.17314722 -0.102973446
000050 6e 51 f6 3d e6 61 c8 bd 29 1d 26 bd 87 2c e1 bd
       0.1202725 -0.09784298 -0.040555153 -0.10994821
000060 15 69 c9 3d f0 ae 50 3d 55 27 79 bc 82 89 f0 3d
       0.09834496 0.050948083 -0.015207131 0.117449775
000070 1f c6 05 bc 5c b1 48 3d f1 b0 ae bd 06 10 f8 bc
       -0.0081649115 0.048997268 -0.08529843 -0.030281078
000080 fa bd e6 3d 57 1e 66 bd 2f 89 e3 bb d7 82 0e 3c
       0.11266704 -0.056181278 -0.006943844 0.008698187
000090 f2 57 62 3d 4f c2 15 bb d5 98 04 bd 5b 75 65 3b
       0.055259652 -0.0022851413 -0.032372314 0.0035012576
0000a0 4f 58 ab 3d b0 4b d8 3d 98 d8 8f bd e0 0b be bd
       0.08366453 0.10561311 -0.07023734 -0.09279609
0000b0 6e 8a a2 3d 72 f1 80 3d d3 9e 20 3d 6f 50 81 3d
       0.079365596 0.06296052 0.039213967 0.063141696
0000c0 09 11 29 be ee 48 ae bb 1c 4f f7 bc 41 d2 69 3c
       -0.16510405 -0.0053187525 -0.03018909 0.01427132
0000d0 42 b8 5c 3d be 38 e5 3c d1 de 05 bd a8 fd a3 bd
       0.05388666 0.027981158 -0.032683197 -0.080073655
0000e0 c3 69 cf 3d 5e 76 ce 3d 0d 90 80 bc 8d 8c c6 3d
       0.10127594 0.100811705 -0.015693689 0.09694777
0000f0 61 b2 a6 3d 70 e4 8b bb f1 39 77 3d c2 52 a1 bd
       0.08139492 -0.004269175 0.06035799 -0.07877113
000100 1e 41 0f be 4f 20 0f bd be dc 0e 3c 1b 0d a3 3d
       -0.13989684 -0.03494292 0.008719621 0.07961484
000110 82 73 2e bd 1f 07 70 3d 85 12 8d bc dc 6d 51 3d
       -0.042590626 0.05860054 -0.017220745 0.05113016
000120 fe c0 3f bd 19 02 40 bd 1a 3d 49 3c
       -0.04681491 -0.046877 0.012282634
