models/Test/main.pt (torch, 39871 bytes, 57 tensors)

startBlock.0.weight f4 [3, 4, 3, 3]
000000 d6 35 dc 3d ca 7a 94 3d cc fb c6 3d 4b 97 d1 bd
       0.10752456 0.07249983 0.09715995 -0.10233935
000010 56 f9 49 3d 61 b4 10 3e 46 40 9c 3d 48 f0 3c 3e
       0.04931005 0.14131309 0.07629447 0.18451035
000020 88 df 03 3d c3 01 75 bd 47 c6 82 3b 72 c0 09 3d
       0.032195598 -0.059816133 0.0039909217 0.033630796
000030 c1 79 93 3c 28 61 7b 3d b8 e9 1f bc cf 24 a0 3d
       0.018002393 0.061371952 -0.009760313 0.07819521
000040 c1 b7 c7 3c 98 87 c0 bc c3 e1 63 bd 2e 1a a3 be
       0.024379613 -0.023502156 -0.055635225 -0.3185591
000050 2d 1c f3 3d 61 28 ed 3d f6 b7 3b 3e 6c 13 71 be
       0.118706085 0.11579967 0.18331894 -0.23542565
000060 e7 33 e8 3d 0a 19 24 be a4 0f d2 3d ac 2c 8f 3d
       0.113380246 -0.16025177 0.102568895 0.06990942
000070 3c 14 1d 3d 84 76 81 3b 88 80 c2 bc 75 a9 46 bd
       0.038349375 0.0039508957 -0.02374293 -0.04850145
000080 8e 04 9a 3a a8 2d 4b bd 9e 9b c2 bc 50 f7 c4 bb
       0.0011750625 -0.049604088 -0.023755845 -0.0060109273
000090 3a b3 b7 3c d0 36 ce bd 74 f1 ea 3a b9 9c 3c 3d
       0.02242433 -0.100690484 0.0017924742 0.0460479
0000a0 ed ff e5 bd 63 9c 0f 3d 69 86 e7 3d 58 e9 15 be
       -0.112304546 0.03506125 0.113049336 -0.14639795
0000b0 8e 83 a5 bd c4 27 4b be 95 53 01 be 2b aa 8b bc
       -0.08081733 -0.19839388 -0.1262954 -0.017048916
0000c0 3d 28 03 bd 46 b2 3b 3d e4 ad 46 bd 9c 5b eb bc
       -0.032020796 0.04582431 -0.04850568 -0.028730206
0000d0 cb e5 99 bd 35 e7 6c 3d d6 57 bb bd c9 cd eb bd
       -0.07514533 0.057837684 -0.09147613 -0.1151386
0000e0 37 70 19 3e 23 b4 80 bc d9 ed 97 3c 9c 67 6e 3e
       0.14984213 -0.015710896 0.018546032 0.23281711
0000f0 6d ea ed 3d 42 3d 8e bd b3 e1 18 3e c2 71 15 3e
       0.11616979 -0.06945278 0.14929847 0.14594176
000100 13 c7 6e bd 82 f9 52 be 62 2b 0f 3d 12 f4 47 3d
       -0.05829532 -0.20602992 0.034953482 0.048816748
000110 c2 20 c8 3d 88 42 40 bc 0e 1b 6a 3d 30 bb 83 bc
       0.09771873 -0.011734612 0.057154708 -0.016080469
000120 c2 9d 88 3d 4c 8a 65 3d ef 7e f8 bd 40 48 4e bd
       0.06670715 0.056040093 -0.12133586 -0.05036187
000130 08 15 ae 3b 04 71 29 3d 28 a7 32 3d 4e 47 23 3e
       0.0053125657 0.041367546 0.043616444 0.1594517
000140 ac cb b6 bc e0 b7 a8 bd c7 66 84 bc 17 4c f2 3c
       -0.022313915 -0.082381964 -0.01616229 0.029577298
000150 7e 97 00 bd aa 1f 1b bc b5 12 bb 3c d4 c7 f2 3c
       -0.031394474 -0.0094679985 0.022836069 0.029636301
000160 4e 90 d2 3a ed f6 b4 3b 2a 9b 45 3e 8e 8d 7e 3e
       0.0016064735 0.0055226 0.19297472 0.24858686
000170 07 ef 4e be 80 f6 f0 3c a8 1b b5 3d 6b 74 73 3e
       -0.20208369 0.029414415 0.08843166 0.23774879
000180 88 4e 92 be 0e 73 04 be f9 9b 17 3d 24 ab d4 3d
       -0.2857554 -0.12934515 0.03701398 0.10384205
000190 b6 59 df 3c 04 7f 05 bd 1a a2 ba bb 65 39 fe 3c
       0.027264457 -0.032591835 -0.0056955935 0.031033227
0001a0 0a 22 8f 3c 79 a4 1c bc 32 de c5 ba f5 ac 33 3b
       0.017472286 -0.009560698 -0.0015096127 0.0027416323

startBlock.0.bias f4 [3]
000000 a8 f6 6a 39 b2 d2 3a ba a1 f6 98 39
       0.00022407866 -0.0007126733 0.00029175452

startBlock.1.weight f4 [3]
000000 a0 c7 81 3f e3 9d 69 3f 7d 83 93 3f
       1.0139046 0.9125654 1.1524502

startBlock.1.bias f4 [3]
000000 b1 42 89 3d 79 83 7b bc 6b d0 24 3e
       0.067021735 -0.01535117 0.1609513

startBlock.1.running_mean f4 [3]
000000 b3 b4 1d 3e aa a8 86 3c ab ff e9 3d
       0.15400963 0.016437847 0.11425718

startBlock.1.running_var f4 [3]
000000 7b fa 18 3d be fc 1e 3d 64 24 46 3d
       0.03734825 0.038815252 0.04837455

backBone.0.conv1.weight f4 [3, 3, 3, 3]
000000 e6 6a 7a 3d 73 67 e4 bb e7 e2 9e bd 7b ac 79 3d
       0.061137103 -0.00697034 -0.07758122 0.060955506
000010 37 8a 3c bc f2 eb e3 bd 54 2a 01 be 3c d2 b9 bd
       -0.011507562 -0.11128987 -0.12613803 -0.09073302
000020 34 47 3f 3e a0 a7 4d 3e 6a d2 64 bc 45 8e 00 bc
       0.18679506 0.20083475 -0.013966182 -0.00784642
000030 43 5c d5 3d 92 fb 28 3d a1 8c b7 3d c5 92 96 bd
       0.10417988 0.04125554 0.0896237 -0.07352213
000040 56 36 28 be a6 c7 50 3e 1c 95 48 3e 5c b8 66 3b
       -0.16426978 0.2038866 0.1958813 0.0035205102
000050 ec 92 6a 3c 32 40 7c 3e 0b 54 b5 3d de e7 a3 bd
       0.0143172555 0.24633864 0.088539205 -0.080032095
000060 c2 de 07 be e4 2c 08 3e d6 63 49 be 53 23 a0 bd
       -0.13268569 0.13298374 -0.1966699 -0.078192376
000070 3d dc 4b 3b 28 79 61 3d 66 39 6a 3e 11 6c 34 bc
       0.0031106614 0.055047184 0.22873458 -0.011012093
000080 1c 69 b9 3c 8a 2f 18 3d 57 af db 3d c8 07 e4 3d
       0.022633128 0.03715471 0.10726803 0.11134297
000090 d5 4f bf 3c e6 19 cd 3d 8f 6b da 3d b1 f3 9b bd
       0.023353497 0.10014705 0.106650464 -0.0761484
0000a0 ce 99 50 3d d6 b6 fa bd 5e 7a 43 3d a8 bc 2a 3d
       0.05092793 -0.122419044 0.04772412 0.041683823
0000b0 13 47 7a 3e 3a 36 34 be 34 86 1c 3d 5a 77 6b 3e
       0.24441175 -0.17598811 0.038213924 0.22994748
0000c0 06 b1 84 be 89 62 95 3d 53 cb 45 3d ba 5a 57 3d
       -0.25916308 0.07294185 0.04828961 0.052576758
0000d0 6a d7 07 3d 44 56 1c be 99 24 b0 bd 9e 8d 08 3e
       0.03316442 -0.15267283 -0.086007304 0.13335273
0000e0 46 62 b8 3d f4 3a 28 be ce 0c 5a 3d 9c 8d 4b bd
       0.09003119 -0.16428739 0.053234868 -0.049695596
0000f0 a4 6a 0a 3e d3 c1 3d 3d a4 86 fe 3c e8 8e 48 3e
       0.13517243 0.046327423 0.031070061 0.19585764
000100 38 93 d8 bd 41 e6 ad 3d 62 72 91 bc 06 29 b3 bd
       -0.10574955 0.08491183 -0.017754737 -0.08748059
000110 6e ce c6 bd 31 7a 49 be b5 2c 01 3d 36 a9 55 be
       -0.09707342 -0.19675519 0.031536777 -0.2086533
000120 2e bf 85 bc 39 cd 2c be d9 84 e0 3d c9 4e 3b be
       -0.016326513 -0.16875161 0.10962839 -0.18291773
000130 b1 96 80 bd f7 17 ae bd a4 64 7e be 1a 05 ea 3b
       -0.06278742 -0.08500665 -0.24843079 0.0071417214
000140 cb 42 c9 bd
       -0.09827193

backBone.0.conv1.bias f4 [3]
000000 3a 4d 4c 39 ee 01 f9 b9 9a bf 02 3b
       0.00019483725 -0.0004749442 0.001995063

backBone.0.bn1.weight f4 [3]
000000 c4 20 84 3f f0 c1 6b 3f f5 df 81 3f
       1.0322499 0.920928 1.0146471

backBone.0.bn1.bias f4 [3]
000000 39 cc 4a 3d 79 fc 40 3e fa e8 9f 3c
       0.04951117 0.1884631 0.019520272

backBone.0.bn1.running_mean f4 [3]
000000 65 8b dd 3d a4 b9 71 3e 59 9f a7 be
       0.10817603 0.23605973 -0.3273876

backBone.0.bn1.running_var f4 [3]
000000 f2 9c 63 3e af cd 0d 3e d2 6d 14 3e
       0.22227839 0.13847993 0.14495018

backBone.0.conv2.weight f4 [3, 3, 3, 3]
000000 fd cc 37 3e b9 84 e0 bd 2d 40 cc bd ea 3b a1 bd
       0.1794929 -0.10962815 -0.09973178 -0.07872756
000010 25 c5 a0 3d 6b 13 a9 3d 71 f5 33 bd c3 82 d3 bd
       0.07850102 0.08255657 -0.043935243 -0.10327675
000020 c1 bc ca 3d bc 25 03 3e 34 ad af 3d 7f ae 05 bd
       0.09899283 0.12807363 0.08577958 -0.032637116
000030 2d e6 69 be a1 ee fd 3d 86 2d 32 3e bb 68 f3 bd
       -0.22841711 0.123990305 0.17400178 -0.1188521
000040 70 44 62 3d c2 d6 e4 bd ef 30 36 3d 07 89 03 3e
       0.05524105 -0.11173774 0.04448026 0.1284524
000050 56 eb 21 3e 97 fa fa bd d4 24 8b 3d 86 13 76 3d
       0.1581243 -0.122548275 0.06794134 0.060077213
000060 b5 da 3d 3e 1b 7e 58 3e 33 c7 07 3e 6d 01 77 3d
       0.18540461 0.21141855 0.13259582 0.060304094
000070 15 fc 33 3e e2 44 e2 3d d1 fb c2 3d c5 f9 84 bc
       0.1757663 0.110482946 0.095206864 -0.01623238
000080 c5 25 f9 3c 1a 62 33 be 4e 30 98 bc 9a d7 2a be
       0.030413518 -0.17517892 -0.018577721 -0.16683808
000090 87 9a a9 3d e0 bd 12 3d d0 a0 0c be 04 29 50 3e
       0.08281427 0.03582561 -0.1373322 0.20328146
0000a0 0f 88 7a 3d 54 15 2d bb de 93 08 3e eb af 3d bd
       0.06116491 -0.0026410418 0.13337657 -0.046310347
0000b0 6f ea f1 3d 4e b1 7b bd e8 a5 8a be 5b f1 04 3d
       0.11812293 -0.061448388 -0.270797 0.032456737
0000c0 80 93 1e 3e a9 64 fc 3d ae d3 0d be 75 cc f1 3d
       0.15485954 0.12323887 -0.1385028 0.11806575
0000d0 17 23 5a 3d 97 af 96 bd 9e d3 b1 bd 3a 01 42 be
       0.05325612 -0.0735771 -0.08682941 -0.1894578
0000e0 47 be 49 bd bf 5b 9a 3d e0 1b e0 3c 00 d0 36 bd
       -0.04925373 0.075370304 0.027357042 -0.044631958
0000f0 70 44 b1 ba 4b 71 2b 3e 96 31 0d be 39 20 b8 bd
       -0.0013524424 0.16742437 -0.13788447 -0.08990521
000100 86 f2 f5 3d 4a 8f 3c 3e 43 f4 2b 3d 21 9c c1 3d
       0.12009148 0.18414035 0.041980993 0.09453607
000110 5b aa 17 3e 01 5c 55 3e 17 19 9d bd 16 bf a0 3d
       0.14811079 0.20835878 -0.07670801 0.07848947
000120 46 58 da bd b6 a5 10 3d 0a f0 00 be 9e dc 0f be
       -0.10661368 0.035314284 -0.12591568 -0.14049003
000130 e3 a9 0c be 7c 9e cb 3d e1 4e 19 be 71 97 e8 bd
       -0.13736682 0.09942338 -0.14971496 -0.1135701
000140 ef 87 c7 bd
       -0.09742724

backBone.0.conv2.bias f4 [3]
000000 a6 22 09 b8 3e b4 5b b9 6d af d8 37
       -3.2695614e-05 -0.00020952613 2.5830896e-05

backBone.0.bn2.weight f4 [3]
000000 79 52 7c 3f 65 8a 8a 3f fb d1 61 3f
       0.98563343 1.0823485 0.8821103

backBone.0.bn2.bias f4 [3]
000000 dc 66 c6 3d bd 75 32 3d a1 95 d2 3d
       0.096875876 0.043569315 0.10282446

backBone.0.bn2.running_mean f4 [3]
000000 df 8c 84 3e d0 3b 1d 3e 46 0a 4b 3b
       0.25888726 0.15354848 0.0030981465

backBone.0.bn2.running_var f4 [3]
000000 c4 62 02 3e a1 67 f3 3d 6b 8c 0b 3e
       0.12732989 0.11885 0.13627784

backBone.1.conv1.weight f4 [3, 3, 3, 3]
000000 2f f2 22 be 6f e6 81 3c 30 56 fd 3b c5 ae 77 3d
       -0.15912698 0.01585695 0.0077312216 0.060469408
000010 11 6f c1 bd cd 23 14 be fa ae 34 3d 54 09 85 3d
       -0.09445012 -0.14466782 0.044112183 0.0649592
000020 f8 bd cd bd c5 56 10 3e e3 fc 24 3e cb 7b 54 3c
       -0.10045999 0.140956 0.16112094 0.012968968
000030 48 71 cd bd ce 47 46 3d c1 a4 19 be 59 cf e2 3d
       -0.10031372 0.048408322 -0.15004255 0.11074705
000040 ba ed 82 bd 5d 24 2a be 1b 57 0c 3e bb 84 4d be
       -0.06392999 -0.16615434 0.13705103 -0.20070164
000050 34 99 76 bd 68 af ac bd 35 c9 d2 bd 9f a6 a3 bd
       -0.0602047 -0.084318936 -0.102922834 -0.07990765
000060 76 1b 6c 3d cb 94 ab 3c 76 4e 43 3e dd 6d 7f bd
       0.057643376 0.020944973 0.19072899 -0.062360633
000070 a4 66 1b 3d 6e c0 9a 3d c0 0e 72 be 54 18 a1 bd
       0.037939683 0.07556234 -0.23638439 -0.07865968
000080 07 9b 27 be b0 74 36 bd d8 bc 7e 3d 6e 5f 00 bc
       -0.16367732 -0.044544876 0.062191814 -0.007835252
000090 4d b3 04 3d 20 a4 5e bd 1b 91 b3 3d be 2e 85 3d
       0.032397557 -0.05435574 0.08767911 0.06503056
0000a0 a7 8f d6 bc 50 1e 17 be f1 76 02 be ba 3e 83 be
       -0.026191546 -0.14757657 -0.12740685 -0.25633794
0000b0 b2 e2 18 3c f4 24 1a be c9 20 62 3d 7a bb 3d be
       0.009331392 -0.15053159 0.055207048 -0.18528548
0000c0 4e 3f f2 bd a5 a0 08 3d 96 de 34 3e ab 72 f9 bc
       -0.11828481 0.033356328 0.17663035 -0.030450186
0000d0 7a 61 d7 bc d6 cd b7 bd 06 2d 33 be 69 d3 2a be
       -0.026291598 -0.08974807 -0.17497644 -0.16682209
0000e0 52 93 31 bd e6 44 4d bd b9 b8 6f be 4e 39 54 3a
       -0.043353386 -0.050114535 -0.2341031 0.0008095697
0000f0 5c 3d 63 bc 7e f3 3c be b9 28 44 be f0 67 08 bd
       -0.01386961 -0.1845226 -0.1915616 -0.033302248
000100 34 61 3b 3e c6 bc f7 3d b3 0a 60 3d 84 02 fe 3d
       0.18298799 0.120965526 0.054697704 0.124028236
000110 ef f0 24 3d 73 b4 0e be 3c b0 95 bd 06 7a a9 3d
       0.040268835 -0.13936023 -0.07309005 0.08275227
000120 83 42 d9 bd 53 91 01 3e 57 c8 20 3e e3 21 d8 3d
       -0.10608389 0.12653093 0.15701424 0.105533384
000130 99 38 87 3d 12 8d f6 bd df 23 d5 bd 28 d4 29 be
       0.06602592 -0.12038626 -0.104072325 -0.16584837
000140 15 2f 03 be
       -0.12810929

backBone.1.conv1.bias f4 [3]
000000 b1 49 a0 37 4c 52 f2 36 0d 56 85 38
       1.9107802e-05 7.2217426e-06 6.3579624e-05

backBone.1.bn1.weight f4 [3]
000000 26 91 7f 3f 2a 96 81 3f 44 a2 77 3f
       0.99830854 1.0123951 0.9673197

backBone.1.bn1.bias f4 [3]
000000 52 dc 4e 3d ca 89 a5 3c f1 11 07 bd
       0.050503083 0.020207305 -0.032976095

backBone.1.bn1.running_mean f4 [3]
000000 70 e8 c3 be ef f0 3a bf 92 ad 29 bf
       -0.38263273 -0.73023885 -0.6628047

backBone.1.bn1.running_var f4 [3]
000000 f7 bf b2 3e 93 87 f3 3e 9f 6b 05 3f
       0.34912083 0.47564372 0.5211734

backBone.1.conv2.weight f4 [3, 3, 3, 3]
000000 9e 5d 06 be a7 c3 ac 3d 15 2b ac 3d c6 4e ae 3d
       -0.1312165 0.08435755 0.08406655 0.085111186
000010 e1 3e dc 3a f0 00 ef 3d 22 74 9d 3d 18 18 4c bd
       0.0016803407 0.11670101 0.07688166 -0.049827665
000020 a3 32 47 be c9 46 0a 3e 60 d2 eb bd ac 5c 40 bd
       -0.1945291 0.13503565 -0.11514735 -0.04696338
000030 5e 9e a1 bd f8 07 f4 bd 12 84 f5 bd e0 4e bd 3d
       -0.07891534 -0.119155824 -0.11988081 0.0924356
000040 3f 39 0e be 53 13 77 bd 40 28 c5 bd 0e c3 91 3b
       -0.13889025 -0.060321163 -0.09626818 0.004448301
000050 d9 6b 8b 3d 5d 9d 49 3e d8 b5 ae 3d 58 78 83 3d
       0.0680768 0.19688936 0.08530778 0.06419438
000060 9b 89 46 3c 7a 72 08 3e f4 b1 fd bd 13 d7 af 3d
       0.012117769 0.1332492 -0.123874575 0.08585944
000070 c8 a1 e0 bd e3 05 60 bd 6e 9f e7 bd 7f 94 47 bd
       -0.10968357 -0.054693114 -0.11309706 -0.0487256
000080 3e 9a 46 bd 08 8f 13 bb 8c a7 bc bd 92 77 2f 3e
       -0.04848694 -0.0022515673 -0.092116445 0.17135456
000090 50 15 d3 3d c1 44 d7 bd 9e a1 23 be b2 77 40 be
       0.103067994 -0.10511161 -0.15979621 -0.1879566
0000a0 8b 26 6f be cb 60 50 be 2c f8 04 be 8c 77 d7 3c
       -0.23354547 -0.20349424 -0.12985295 0.026302122
0000b0 55 e3 de bc 8a 5c a4 bd 57 01 d6 bd 94 c7 d3 3d
       -0.02720801 -0.08025463 -0.10449474 0.10340801
0000c0 4f fa 2d 3c bc c4 81 3c 54 2b 90 3d 44 fe d5 bd
       0.01061876 0.01584088 0.07039514 -0.10448888
0000d0 e8 ff 18 3d 2f a5 25 3e b2 82 6e 3d 48 7e c5 3d
       0.037353426 0.16176294 0.05823011 0.09643227
0000e0 1a 9e f4 3d af ab 4a 3e eb 53 8b bc 63 c5 0b be
       0.11944218 0.19792055 -0.017007789 -0.13649516
0000f0 65 e5 a7 bd c5 04 2a 3e 70 a9 30 3e 5c ba 4a 3e
       -0.081980504 0.16603382 0.17252135 0.19797653
000100 d1 7e ce bc 48 77 21 be 1e 57 93 3d 27 c1 98 3d
       -0.025206955 -0.15768158 0.07194351 0.07458716
000110 46 b3 2d 3e 6e d6 be bd a7 c7 e0 3c 73 29 27 3d
       0.16962919 -0.09318243 0.027438952 0.040811013
000120 9c 3a 2a 3e 2a 9c 14 be 64 cd d2 3c 83 a9 9a 3c
       0.1662392 -0.14512697 0.025732704 0.018879658
000130 58 22 3f 3e cf c3 9b bd b3 01 58 bd 24 af 87 bd
       0.18665445 -0.07605707 -0.052735996 -0.06625202
000140 c3 19 7f 3c
       0.015570107

backBone.1.conv2.bias f4 [3]
000000 ff 94 89 38 65 93 3b 38 8d 0b 01 39
       6.560422e-05 4.4721546e-05 0.00012306702

backBone.1.bn2.weight f4 [3]
000000 34 f1 6e 3f fa 90 70 3f 3f 4f 83 3f
       0.93336797 0.93971217 1.0258559

backBone.1.bn2.bias f4 [3]
000000 fb de 21 3d 97 64 0e 3d e6 64 be 3d
       0.03951929 0.0347639 0.092965886

backBone.1.bn2.running_mean f4 [3]
000000 57 80 08 3c a0 b0 9d be 72 91 95 3e
       0.00833138 -0.30798817 0.29212528

backBone.1.bn2.running_var f4 [3]
000000 b8 a3 84 3d 0c 9a a8 3d 51 e2 72 3d
       0.064765394 0.08232507 0.059297863

backBone.2.conv1.weight f4 [3, 3, 3, 3]
000000 91 6a 8a bd 24 bd 1f be e1 23 4b be e5 98 29 be
       -0.06758607 -0.15599495 -0.19837905 -0.16562231
000010 05 62 ea bd 72 69 1e be ae 43 02 be 90 fa e9 3d
       -0.11444477 -0.15469912 -0.1272113 0.11424744
000020 99 0d 3a bd 17 64 cf bd fa 4d b9 bd 8a 78 0a 3e
       -0.045423124 -0.101265125 -0.09048076 0.13522545
000030 42 10 0b be ad 17 d8 3c f7 a2 11 3c e2 36 a1 bd
       -0.1358042 0.026378477 0.0088889515 -0.07871796
000040 a8 82 30 3e c7 76 f1 bd 82 12 de 3d e3 47 b1 3c
       0.17237341 -0.11790233 0.10843374 0.021640724
000050 e9 d4 95 bd d2 fc 65 3d 1d bb 33 be a0 f9 16 3e
       -0.07316 0.05614931 -0.17551847 0.14743662
000060 a6 ff 34 be ad da ae bc de 17 63 bd a3 2b 54 bd
       -0.17675647 -0.021344507 -0.055442683 -0.051799428
000070 13 5c 2d be e4 c8 94 3d 49 dc 93 3c ab 8e 4c bd
       -0.16929655 0.07264879 0.018049376 -0.049940746
000080 4f 9c 1c 3d 32 8e ad bb 31 56 01 be 5b 09 b1 3c
       0.038235005 -0.005296492 -0.12630536 0.021610906
000090 60 11 10 be 61 fa 92 3c 55 e9 a6 3d 4d 13 e2 bd
       -0.14069128 0.017941656 0.08149973 -0.110388376
0000a0 53 67 ff bd 11 76 11 3d e4 90 a5 bb 9a 70 3f bd
       -0.124708794 0.035512988 -0.0050526727 -0.046738245
0000b0 bb cf ca bd 17 d3 43 be 9c 0f bd bd 62 f6 37 be
       -0.09902903 -0.19123493 -0.09231493 -0.17965081
0000c0 e5 58 c9 3d b3 c5 36 3c 61 93 94 be 33 02 11 be
       0.098314084 0.011155534 -0.2901869 -0.14160995
0000d0 44 1d 5f 3d 5e 4e 3d 3e e3 c2 28 3d d6 e4 20 bb
       0.05447127 0.18486926 0.041201483 -0.002455046
0000e0 91 4f d5 3d 86 41 4a 3e e7 5c 41 3d ac 77 12 be
       0.10415567 0.19751558 0.04720774 -0.14303464
0000f0 2b 92 ec bd f4 8f fc bd 41 e1 20 be d6 80 50 3e
       -0.11551317 -0.123321444 -0.15710928 0.20361647
000100 d4 cc 83 3c 4b 7d 88 bd 7e 1a e3 bd e1 e6 3c be
       0.01608888 -0.06664523 -0.11089037 -0.18447448
000110 90 26 7a bd 55 6d a1 3d b3 8c 5e be 53 6c f4 bc
       -0.061071932 0.078821816 -0.2173336 -0.02983681
000120 94 d6 d3 bd aa 25 32 be 95 31 e4 bd 4d 26 dc bd
       -0.10343662 -0.1739718 -0.111422695 -0.10749493
000130 9c 32 70 bd 1a 3b a6 bd 0b fe cc bd 38 7e 93 bc
       -0.058642015 -0.081167415 -0.10009392 -0.018004522
000140 19 21 81 be
       -0.25220564

backBone.2.conv1.bias f4 [3]
000000 fc a7 a3 b7 24 3c 41 39 59 58 ab 37
       -1.9509338e-05 0.00018428318 2.0425929e-05

backBone.2.bn1.weight f4 [3]
000000 93 62 7c 3f d3 72 80 3f b7 2b 80 3f
       0.9858791 1.0035042 1.0013341

backBone.2.bn1.bias f4 [3]
000000 59 f6 01 bc 78 ca 76 bd f8 1b 56 bd
       -0.007932269 -0.060251683 -0.052272767

backBone.2.bn1.running_mean f4 [3]
000000 4d bd 8b bf e9 9a 77 bf d9 30 af bf
       -1.0917145 -0.9672075 -1.3686782

backBone.2.bn1.running_var f4 [3]
000000 9d c7 59 3f b2 b6 51 3f d9 b5 9c 3f
       0.8507021 0.81919396 1.2242996

backBone.2.conv2.weight f4 [3, 3, 3, 3]
000000 ef c1 b6 bd 7d 1a 24 3e 82 ec 3b 3d 55 d3 9b bd
       -0.08923709 0.1602573 0.04587985 -0.07608668
000010 ae 14 38 3d 42 4f 0b 3e 8c 71 1d be 83 26 cf 3d
       0.044941597 0.13604453 -0.15375346 0.101147674
000020 aa 40 5a bd b6 60 03 be ec e9 23 3e 70 bb 8c 3d
       -0.053284325 -0.12829861 0.16007203 0.06871688
000030 fc 12 f5 bb 45 e9 bc 3d 9f 24 6a be 3a 18 a5 3d
       -0.0074790698 0.0922418 -0.22865532 0.080612615
000040 3d 22 fb bd 07 47 c8 3c 23 fd 98 bd ec ad 19 be
       -0.1226239 0.024447931 -0.07470157 -0.15007752
000050 cc c1 ea 3d 5e 77 4c be aa 25 1a 3e cf 4c 35 3e
       0.11462745 -0.1996741 0.1505343 0.17705081
000060 8b b7 d4 3d 33 74 1a be 6b 81 3a be 51 52 a7 b9
       0.103865705 -0.15083389 -0.18213432 -0.00031914053
000070 af ce c6 bd 85 de 3e 3d 70 59 bb bc ca bd 2b 3e
       -0.097073905 0.04659893 -0.022869796 0.16771618
000080 b6 97 ac bd 34 43 bf bd 5d dd 8e be 2e 72 11 3e
       -0.08427374 -0.0933899 -0.27903262 0.14203712
000090 20 61 a8 bd 6b 43 35 be 73 1a fa bc 4d 6a 7b bd
       -0.0822165 -0.17701499 -0.03053019 -0.061380673
0000a0 c2 77 a6 3d 52 5b 91 3d 7b db 0f 3e ac d8 38 3c
       0.08128311 0.07097496 0.14048569 0.011282127
0000b0 cb 0f 96 bd 02 df fb 3c 68 1e 2b be 35 09 23 3c
       -0.07327231 0.030745987 -0.16710818 0.009950926
0000c0 53 58 87 bd fa d5 00 be 09 56 cf 3d 6f dc 09 3d
       -0.066086434 -0.12581626 0.10123832 0.033657487
0000d0 08 60 8c 39 1f 8c 94 bd 9e 81 48 bd 59 5d 6a 3d
       0.0002677443 -0.072532885 -0.048951738 0.05721793
0000e0 e5 f5 7f 3d e8 7d 2a 3c bc d5 ce bd c1 d8 92 bd
       0.062490363 0.010405995 -0.1009936 -0.07170249
0000f0 40 91 32 3e 60 06 23 bb 9e 4c 0f 3e eb c2 09 3d
       0.17438221 -0.0024875626 0.13994071 0.033633154
000100 1b ee c9 3c 4c f1 de 3c 52 68 18 3d 4d 11 54 be
       0.02464967 0.027214669 0.037208863 -0.20709725
000110 61 fa 4d 3e c9 a2 6e 3d 35 ed 28 be b0 1a 43 be
       0.20115043 0.058260713 -0.16496737 -0.19053149
000120 63 9f 56 be e1 87 39 be 23 72 fe bd 08 bc c1 bd
       -0.20959239 -0.1811824 -0.124241136 -0.09459692
000130 bc 71 c8 3d 55 32 42 bd e7 2d 0b be 1f fc 2c 3e
       0.09787318 -0.04741128 -0.13591729 0.16893052
000140 4e 71 6e 3d
       0.058213525

backBone.2.conv2.bias f4 [3]
000000 8a 6e 0d b9 98 fc 71 35 1a e2 7a 39
       -0.00013487987 9.014707e-07 0.00023926087

backBone.2.bn2.weight f4 [3]
000000 06 68 5f 3f c0 a5 79 3f aa cf 87 3f
       0.872681 0.9751854 1.0610249

backBone.2.bn2.bias f4 [3]
000000 57 07 a9 bb 0c 89 33 bc 34 12 77 3d
       -0.0051583457 -0.0109579675 0.060320094

backBone.2.bn2.running_mean f4 [3]
000000 db df 89 3c 9b 72 23 be 55 ef b4 bd
       0.016830375 -0.15961687 -0.088347115

backBone.2.bn2.running_var f4 [3]
000000 10 d0 5e 3d 45 c5 26 3d 74 8b 26 3d
       0.054397643 0.040715475 0.040660337

policyHead.0.weight f4 [6, 3, 3, 3]
000000 3a 7c e0 bc 14 eb f9 3d 59 54 07 3e 5c 92 37 3e
       -0.027402986 0.12203041 0.1321577 0.17926925
000010 5b 77 20 3c 51 e5 e7 bd bb 3f 83 bd 41 35 9f bd
       0.009794082 -0.113230355 -0.0640864 -0.07773829
000020 83 74 68 3e 6d d3 00 3e db 47 c6 3d 59 c0 af 3a
       0.22700696 0.12580653 0.09681674 0.0013408764
000030 6c 5a 92 3d 8a b4 54 bd 0c 21 8f bd 1e 09 7a bd
       0.07146153 -0.051929988 -0.06988725 -0.06104385
000040 ed 02 29 3e c6 80 00 be 24 8e e2 bd f3 4a d4 bd
       0.16505022 -0.12549123 -0.110622674 -0.10365858
000050 ea 3a 37 be 1e 32 2a be ed 0f 07 3e eb 68 4f 3e
       -0.17893568 -0.1662068 0.13189669 0.20254867
000060 b8 eb ba 3d a6 bc cf 3c 68 af 87 bb d4 b0 15 be
       0.09126991 0.02535851 -0.004140783 -0.14618236
000070 33 e2 2d bc a6 10 4b be 60 85 3c be f8 e9 f5 3c
       -0.010613012 -0.1983057 -0.18410254 0.030018792
000080 67 2a e1 3d b9 88 7a 3e b1 13 06 be 97 0e ce 3d
       0.10994416 0.24466218 -0.13093449 0.100613765
000090 95 23 7f bc c2 6f 0e 3e cc 06 37 be 76 26 c5 bd
       -0.015572448 0.1390982 -0.17873687 -0.096264765
0000a0 3d 53 55 bd 08 e8 0b bd 5e 33 2e bd 78 fa e2 3d
       -0.052081335 -0.03415683 -0.042529456 0.110829294
0000b0 29 65 89 3d a0 8a 1c 3e 25 23 8a 3d 0e a5 15 3e
       0.06708748 0.15287256 0.067449845 0.14613745
0000c0 91 9e d0 bd 29 97 3e 3d de ff 40 3d 9a ed 83 bd
       -0.10186494 0.046530876 0.047119014 -0.06441803
0000d0 f7 a1 12 be e1 5c 3a be 79 49 37 3e 90 7f 20 3e
       -0.14319597 -0.18199493 0.17899121 0.15673661
0000e0 89 f9 e1 bd 6f 6a 0d 3e 1f 9f 4c 3d 88 82 1c be
       -0.11033923 0.13810132 0.049956437 -0.15284169
0000f0 28 49 3c 3e 37 c1 19 3d 42 c1 57 3e c7 c0 1d be
       0.18387282 0.03753778 0.21069816 -0.1540557
000100 bf af 71 3c 87 6b 3c 3e 8e 85 9a bd ff 65 51 be
       0.014751374 0.18400393 -0.07545005 -0.20449065
000110 31 bd 6c 3e 93 8e 1d 3d bc 9a 74 3d 75 ab c9 bd
       0.23119046 0.038466047 0.05971788 -0.09847156
000120 67 10 29 3c bb a6 33 be 79 e6 a5 bc 2b a2 a2 bc
       0.010318852 -0.17544071 -0.0202515 -0.019852718
000130 74 dc cb bd 39 b9 40 be e0 d9 40 bd 24 2b 24 be
       -0.099541575 -0.18820657 -0.04708278 -0.16032082
000140 af c5 a1 bd 0b c2 d1 bd 6f f2 52 be 88 d8 f4 3d
       -0.07899033 -0.10242089 -0.20600294 0.119553626
000150 6d 3a 23 bc e8 e3 31 bb c6 65 62 bc 86 35 f0 3d
       -0.00996266 -0.00271439 -0.01381821 0.11728959
000160 20 9f 56 bc 7c c6 06 3e 91 5a 2e 3e 28 ed 32 3e
       -0.013099462 0.13161653 0.17026736 0.1747328
000170 2c 18 71 be 72 21 48 3e c8 98 4b 3c 55 16 05 3e
       -0.23544377 0.19544008 0.012426563 0.129968
000180 12 47 d5 bd 2b 49 0a bc be 48 a5 3d da be 55 bd
       -0.10413946 -0.008440296 0.08070515 -0.052183963
000190 67 77 8f 3c 1b ab 14 3e 48 5a 19 3d 17 fb 12 3e
       0.01751299 0.14518397 0.037439615 0.14353596
0001a0 65 13 44 be 9c b8 29 be 9d 4b a7 bd 67 75 3a bc
       -0.19148023 -0.16574329 -0.08168719 -0.01138053
0001b0 f1 fd 08 be 94 70 94 bd e1 6e 86 bc d5 6c 00 3e
       -0.13378121 -0.07248035 -0.016410293 0.12541516
0001c0 4d d7 10 3e 33 41 9f 3d 94 4e 7c 3e 08 d3 8b bd
       0.1414463 0.07776108 0.2463935 -0.068273604
0001d0 58 0b 03 3e 64 78 07 3d ea 7c ba bd 57 6e 2b 3e
       0.12797296 0.033073798 -0.09105857 0.1674131
0001e0 d0 a2 c0 3d 1c 8e 2e bc 84 c8 0c 3e c6 75 0a be
       0.09406054 -0.010653999 0.13748366 -0.1352149
0001f0 48 e1 0e be cb 62 4d bd 14 41 8b 3d 21 44 16 be
       -0.13953125 -0.050143044 0.06799522 -0.14674427
000200 cc ad cb 3d 80 c2 c7 3d 6a 80 46 3d 40 e4 3a be
       0.099452585 0.09753895 0.04846231 -0.18251133
000210 b7 04 93 bd e7 53 55 3d 3c 19 ce 3d 2a cf ae bd
       -0.07178634 0.05208197 0.10063407 -0.08535607
000220 e3 9a 9e bd 47 db b4 3b ba 64 de bc bd db 22 3d
       -0.07744386 0.005519304 -0.02714764 0.03976034
000230 68 54 e2 3d 0f 70 81 3d 34 ee 8b bd 24 f4 87 3a
       0.110512555 0.063202016 -0.06832543 0.0010372442
000240 68 94 1f bd 52 88 1b bc d0 7d 7b bd 90 ba 11 bd
       -0.03895989 -0.0094929505 -0.06139928 -0.03557831
000250 93 5f b1 bd 7e 6e 7c 3d 09 05 c9 3c 13 31 84 bd
       -0.086608075 0.06162881 0.024538534 -0.06454673
000260 c9 be d8 bd 3b 1d d6 3b f5 29 46 bc 02 55 37 3e
       -0.105832644 0.0065342463 -0.012094964 0.17903522
000270 9a 03 b3 3d 39 03 00 3d 5e d3 53 be c6 6c 8e 3d
       0.08740921 0.031253073 -0.20686099 0.06954341
000280 e2 3e 30 be 0c 77 80 3e
       -0.17211488 0.25090826

policyHead.0.bias f4 [6]
000000 82 54 98 35 ba c4 9a b6 77 47 64 35 4b f4 eb b6
       1.1349478e-06 -4.6124596e-06 8.5040614e-07 -7.031985e-06
000010 48 f4 18 37 80 1c 17 37
       9.116782e-06 9.006937e-06

policyHead.1.weight f4 [6]
000000 38 66 c1 3f f9 63 b6 3f f8 e6 b5 3f d4 7d b8 3f
       1.510932 1.4249259 1.4211111 1.44134
000010 f5 17 b0 3f b2 72 b4 3f
       1.3757311 1.4097502

policyHead.1.bias f4 [6]
000000 b0 11 f0 3e 58 a3 9a 3e 6c 8e 98 3e 00 9d c3 3e
       0.46888494 0.30202746 0.2979616 0.3820572
000010 d0 55 b7 3e 8e 44 98 3e
       0.35807657 0.29739803

policyHead.1.running_mean f4 [6]
000000 ff a8 f2 3e 82 09 81 be ba c8 8c be 1c 10 b3 3e
       0.4739456 -0.25202566 -0.27496892 0.34973228
000010 2b 8f 13 3f ec f2 16 be
       0.5764033 -0.14741105

policyHead.1.running_var f4 [6]
000000 66 23 4d 3f b6 b2 c6 3e cc b0 12 3f 21 97 04 3f
       0.8013214 0.3880822 0.5730102 0.51793104
000010 84 38 20 3f c9 c7 b9 3e
       0.62586236 0.36285236

policyHead.4.weight f4 [25, 150]
000000 7d b7 7a bd 30 d4 33 bd ff 39 e4 3c a0 1c a5 3d
       -0.061210144 -0.04390353 0.027859686 0.080621004
000010 0a e1 d3 bd fa fe 07 bd 65 92 28 3e 96 3a 6b 3e
       -0.10345657 -0.03320215 0.16462095 0.22971568
000020 36 99 33 bc c4 2a 7a bd b6 68 39 3e ae 39 01 3d
       -0.010961821 -0.06107594 0.1810635 0.03154915
000030 71 d4 3a 3d c6 c4 d4 3d bb ff 27 bd 9b 64 dd 3d
       0.045612756 0.10389094 -0.041015368 0.108102046
000040 b4 ca a7 bd 0e b9 0d be 79 60 d6 bc bb ca cb 3d
       -0.081929594 -0.13840124 -0.026169049 0.09950777
000050 d5 52 02 be 36 cc 96 bd 7e 4f d4 bd e5 b0 75 3c
       -0.1272691 -0.07363169 -0.103667244 0.014995788
000060 4f e1 9e bd aa 8f 18 be bf cf b1 bd dc 1e 0d be
       -0.07757818 -0.14898553 -0.086822025 -0.13781303
000070 fb fe 99 bd 00 a7 2a be 8f 57 0a be b7 c7 24 bd
       -0.07519337 -0.16665268 -0.13509963 -0.040229525
000080 6e 29 24 bc ad 7a 92 bd 81 03 01 be 6a 10 3e be
       -0.010019643 -0.07152305 -0.12598993 -0.18560949
000090 48 be 05 bd c0 43 93 bd f9 b0 62 3c b6 16 d5 bd
       -0.03265217 -0.07190657 0.013836139 -0.104047224
0000a0 a2 d3 1e 3e 68 ec 3a 3d c6 20 4f 3d 4f a8 23 3d
       0.15510419 0.04563561 0.050568365 0.039955433
0000b0 df e8 27 3d fc 85 85 bc 3b a3 85 3d 4d fe c8 bd
       0.040993568 -0.01629924 0.06525274 -0.09814129
0000c0 3f a2 ae bd 35 ea 97 bd 77 71 b7 3d b4 41 3d be
       -0.0852704 -0.07417718 0.089571886 -0.18482095
0000d0 3b 3e 35 be 00 88 3a bd 50 65 a0 bc 09 72 62 3b
       -0.1769952 -0.045539856 -0.01957956 0.0034552834
0000e0 60 fa 73 bc c6 a1 26 be 4a de 0f be 2d 77 59 bd
       -0.014891237 -0.16272649 -0.1404964 -0.05309217
0000f0 55 7e 4d bd 86 cd 16 3e 75 ce 81 bd b7 dc d6 bd
       -0.050169308 0.14726838 -0.06338207 -0.10491317
000100 a4 b3 ed bc a5 9a 0b be 71 02 69 bd 8c 89 c8 3d
       -0.029016323 -0.13633211 -0.056887094 0.0979186
000110 0a 7b bc bd 62 12 e9 bd 0c b2 8e bd 1b c1 d7 bd
       -0.09203155 -0.11380459 -0.069675535 -0.10534879
000120 f0 30 d7 bd a7 2b ea bc 01 1f bd 3b 0c ae 36 3e
       -0.10507381 -0.028585268 0.005771518 0.17839831
000130 0a da f7 3c 96 85 6c bd c1 19 14 bd 42 3a 82 3c
       0.030255336 -0.057744585 -0.036157373 0.01589692
000140 4d bd 05 bc 72 d1 de bb 6a 3e cd 3d 06 a4 1a 3e
       -0.008162809 -0.00679987 0.1002167 0.15101632
000150 23 86 b7 bc b7 57 a6 bd d9 e4 71 bd d5 e7 35 bd
       -0.022402829 -0.08122199 -0.059056137 -0.044410545
000160 a6 6c c2 3d 2a 71 9a 3d cd 26 a0 3d e2 4c fe bd
       0.09493379 0.075411156 0.07819901 -0.12417008
000170 be 73 4e 3b 70 f6 6f 3d 75 f6 27 bd c2 98 cf 3d
       0.0031502093 0.05858463 -0.041006524 0.10136558
000180 fc e5 04 3e 25 5d a4 3d 5f 0d 41 bd 34 36 2f 3c
       0.12978357 0.080255784 -0.047131892 0.010694075
000190 0a 4a 07 3d d0 f0 93 3d 34 a8 7a 3d 6b 2e c7 bd
       0.033029594 0.07223666 0.061195567 -0.097256504
0001a0 76 b9 99 3c 25 0f 95 3e 5a 48 6c 3d 4c bc c1 3d
       0.018765192 0.29113117 0.057686187 0.09459743
0001b0 85 ab 88 bd 8d a5 86 3d c6 3f 9d 3d 52 bd 47 3d
       -0.0667334 0.06574545 0.076781794 0.048764534
0001c0 3a 94 69 bd 3c 2e 42 3d d1 28 df 3a b7 94 92 bd
       -0.057026125 0.047407374 0.0017025714 -0.07157271
0001d0 62 52 16 be b9 79 81 3d 1d 06 00 bd f9 07 bb bd
       -0.14679864 0.06322045 -0.03125583 -0.0913238
0001e0 ba d4 e5 3c 11 06 ec bd 81 11 b9 3d 13 14 28 3c
       0.028055537 -0.115245946 0.09036542 0.010258692
0001f0 66 c4 09 be 8e 70 54 be 73 f5 f2 3d fb eb 37 be
       -0.13453826 -0.20746061 0.11863222 -0.17961113
000200 d5 41 44 be 43 1a be bd 4f 59 bb bc 09 bd b3 bd
       -0.19165738 -0.09282353 -0.022869734 -0.0877629
000210 c4 cd d1 bd 28 78 97 bd 37 af 84 bd 25 6c d6 bb
       -0.10244325 -0.07395965 -0.06478732 -0.0065436536
000220 59 66 44 bc 2d c5 74 3d 11 6d 43 3c b2 df 1e bb
       -0.011987292 0.059758354 0.011927859 -0.002424222
000230 0a 12 e3 bd 61 a0 6d 3c 08 8a 71 3d ca ed ac bb
       -0.11087425 0.014503569 0.058969527 -0.00527737
000240 9c 45 2d bd 02 15 3e 3d 01 06 18 bd fc 65 1b bd
       -0.042302713 0.046406753 -0.0371151 -0.037939057
000250 a3 56 a1 bd 39 3c 81 3b e6 dd 57 3e 92 84 1d bd
       -0.07877853 0.0039439467 0.21080741 -0.038456507
000260 0d a8 8f be 42 af 0e be 75 70 86 3d 68 ac 8a bd
       -0.280579 -0.13934043 0.06564418 -0.06771165
000270 f5 f3 37 bd 66 8f ff 3d 85 55 59 3e 7c ec 18 3c
       -0.04491039 0.12478523 0.2122403 0.009333726
000280 9f d6 3c 3e 4f bd 9c 3d b6 e0 21 bd cd 6c 61 3d
       0.18441246 0.07653295 -0.03952094 0.0550354
000290 e5 4f 38 bc 18 4e 0b be 27 7a 09 be 18 82 e8 bc
       -0.011249517 -0.13604009 -0.13425504 -0.028382346
0002a0 7a 5e 53 bd aa ed 71 bd 58 7a 1b 3d ed d7 06 3d
       -0.05160377 -0.059064545 0.037958473 0.032920767
0002b0 13 20 97 bc 3f ec 05 3d 36 91 27 3e a5 d3 85 3d
       -0.018447911 0.032696005 0.16363987 0.065345086
0002c0 c9 66 c5 bd e5 7b 32 be 84 8c e5 3d 81 37 0b be
       -0.09638745 -0.17430075 0.11208442 -0.13595392
0002d0 e4 75 09 be 7c c5 cb bc b4 1d 8e bd ef b0 85 bd
       -0.13423878 -0.024874441 -0.06939259 -0.06527888
0002e0 e8 ab cb bd fa 99 02 be 13 06 ae bb 5c 3d 53 be
       -0.09944898 -0.1275405 -0.0053107827 -0.20628875
0002f0 2d 36 29 be 27 fe b1 3c 6e 51 3c 3d 0c 09 09 be
       -0.16524573 0.021727635 0.045976095 -0.13382357
000300 8c 23 82 bd b3 2e 1a bd 33 95 b5 3d 8c 93 3e 3d
       -0.06354436 -0.037642192 0.08866348 0.04652743
000310 81 2c ad bd 60 82 a4 3c f6 0f bf bd f6 95 d9 bc
       -0.08455754 0.020081699 -0.09329216 -0.026560765
000320 cf 9c 8e 3e 13 fc 61 3d 91 0e fb bd 77 34 79 be
       0.2785401 0.055172037 -0.12258638 -0.2433642
000330 d3 19 1e bd 85 0c 18 3d da fb ee 3c c5 aa a3 bd
       -0.038598847 0.037121315 0.029172827 -0.07991556
000340 de 14 0a bd 49 50 b0 bd ea b0 bb bd 2d de 9f bd
       -0.033711307 -0.08609063 -0.09164603 -0.078060485
000350 b2 79 2f 3e 19 93 c8 bc 90 c3 ec bd 2b 86 d3 bd
       0.17136267 -0.024484204 -0.11560738 -0.10328325
000360 9b 40 ff bd 2f 7b 0e bc 8c b6 c5 bc ec 1f 00 be
       -0.124634944 -0.008696361 -0.024134897 -0.12512177
000370 c9 1b 8a bc 85 d8 69 bb 5a 98 20 be ae f0 c0 bd
       -0.016858952 -0.0035682034 -0.15683118 -0.09420906
000380 3d b0 28 3c ea 3f e6 3d a2 e4 0c bc c7 3a 1f 3e
       0.010295925 0.112426594 -0.008599432 0.15549766
000390 7c fc 2e 3e 47 90 b3 bd 4b 8a 09 be 2d ab 15 3e
       0.17088503 -0.08767753 -0.13431661 0.1461608
0003a0 b8 e7 46 3d 26 65 3a bd 78 2b a5 3c 62 ae a9 3d
       0.048560828 -0.04550662 0.02016233 0.08285214
0003b0 e9 fc fd bd d0 4e 0e 3d 86 bd 9d 3d 10 36 0e 3e
       -0.124017544 0.03474313 0.07702164 0.1388781
0003c0 93 f8 ec 3d 19 e0 78 3d 0c 58 36 3d 6c 58 9d 3d
       0.11570849 0.06076059 0.04451756 0.07682881
0003d0 a2 cd 6f 3d 6d ba c1 bc a8 b5 01 3d cf ad c7 3d
       0.058545716 -0.023648465 0.03166738 0.09749948
0003e0 ce 65 4c 3d 5f 70 13 bd 0c 85 0c 3e bc ee 8a 3c
       0.049901776 -0.035995837 0.13722628 0.01695954
0003f0 57 82 0f 3e 20 7a a4 3d 74 cd f8 3b af 97 39 3e
       0.14014564 0.08031106 0.0075928513 0.18124269

policyHead.4.bias f4 [25]
000000 86 26 b9 3b e9 8d 95 bd 34 e5 db bd e7 09 9c 3d
       0.0056503443 -0.07302458 -0.107370764 0.07619076
000010 ae 1b f8 bc ab 67 bb bc 06 1a ab bd 15 71 3e bd
       -0.030286636 -0.022876581 -0.08354573 -0.046494562
000020 c5 ef d4 3d 7b c4 47 3d 7d 52 5c bc b2 91 bb 3c
       0.10397295 0.048771363 -0.013447401 0.022896621
000030 81 24 8b 3c 0f 08 29 3c b1 5d f4 3c fb ea 0d 3a
       0.01698518 0.010316863 0.029829832 0.0005413738
000040 82 4b d6 3c 8f a0 f1 bd 7f a3 6d 3d 6d 19 0b 3c
       0.026159052 -0.11798202 0.05801725 0.008489949
000050 26 5f d4 3b 8f 38 b2 3c 15 2d 67 3d 59 2f a0 3c
       0.006481069 0.021755485 0.056439478 0.019553827
000060 fd ea 43 bd
       -0.047831524

valueHead.0.weight f4 [3, 3, 3, 3]
000000 c3 46 85 3c 7a 64 03 3e c4 68 c0 3d 5d 03 78 3c
       0.016269093 0.12831298 0.093949825 0.015137521
000010 6e 83 8b bd 11 26 98 bc b7 f1 06 be d0 61 de 3c
       -0.068121776 -0.018572839 -0.13178144 0.02714625
000020 63 40 bc 3d 0a b6 ec 39 24 18 ed 3b 6f 1c 62 be
       0.09191968 0.00045149057 0.007235544 -0.22081159
000030 f8 b1 de ba 57 d5 79 3d 38 a9 3b bd ef 39 fa bc
       -0.0016990295 0.060994472 -0.045815676 -0.030545203
000040 d6 a9 43 bc 25 34 01 be 65 2a e3 3d a3 9e 30 3d
       -0.0119423475 -0.12617548 0.110920705 0.043120038
000050 34 cd e6 bd 3c bc b5 3d a2 cf 33 be 9c 64 3c be
       -0.11269608 0.088737935 -0.17559674 -0.18397754
000060 37 05 4e 3d ab 42 de bd 0a 49 a9 3c 5e b6 8b bd
       0.050297942 -0.1085256 0.02066471 -0.06821893
000070 15 a3 57 be 8b 76 5b be 90 f7 b9 3b 83 e3 82 3d
       -0.21058305 -0.2143194 0.0056752637 0.06391051
000080 56 02 23 bd e3 5a 0a bd 55 a8 18 3e f5 56 25 be
       -0.03979715 -0.033778083 0.14907964 -0.16146453
000090 42 4e 1c be b2 8d 35 3e d9 63 e1 3d 28 9f 5c bc
       -0.15264228 0.17729834 0.110053726 -0.01346568
0000a0 15 aa 5b bc bf 5b 2d be af 04 fb 3b 2e 81 dc 3d
       -0.01340725 -0.1692953 0.0076604704 0.107668266
0000b0 53 f3 47 be a3 f4 a1 3c 35 f9 f7 3c 7a ed 09 be
       -0.19526415 0.019769972 0.030270198 -0.13469496
0000c0 3d 34 12 bd 45 cf d7 3d fe b3 df 3d 7d 53 08 3d
       -0.03569435 0.105375804 0.10923003 0.033282746
0000d0 ba 95 70 bc 11 ad cd bc 13 41 9a 3d a3 89 06 bd
       -0.014684135 -0.025106939 0.07531943 -0.032846104
0000e0 22 50 eb 3d 90 04 a8 3d e8 15 39 be d8 7f 11 be
       0.114898935 0.08203995 -0.18074763 -0.14208925
0000f0 6c b4 3f be a4 3f 3a be ae f4 c8 3c e3 22 28 3e
       -0.18721169 -0.1818834 0.024530735 0.16419558
000100 e9 b4 30 be 96 24 5b be 1f 48 3b 3d 2e b8 19 be
       -0.17256512 -0.21400675 0.045723077 -0.15011665
000110 f4 b5 50 3d 9f ba ac bd 6f 91 0f bd b6 ea 12 bd
       0.050954774 -0.08434033 -0.035050806 -0.03586837
000120 37 b5 ad bc f9 37 fe bd 30 62 c0 bc 7d 06 db bd
       -0.021204574 -0.1241302 -0.02348432 -0.10694597
000130 77 37 e2 3d 79 64 93 3d 72 41 6f bc ab 1f b9 bd
       0.11045735 0.07196898 -0.014603006 -0.09039243
000140 d3 e9 55 be
       -0.20889978

valueHead.0.bias f4 [3]
000000 fc 60 2d b8 a4 38 64 39 43 80 c1 37
       -4.1336738e-05 0.00021764875 2.306712e-05

valueHead.1.weight f4 [3]
000000 0c a0 70 3f ca 92 76 3f f4 8a 5d 3f
       0.9399421 0.9631773 0.8654015

valueHead.1.bias f4 [3]
000000 79 5f 21 bc db 71 d7 bc 46 51 58 bd
       -0.009849423 -0.026299408 -0.052811883

valueHead.1.running_mean f4 [3]
000000 6a 8c 11 bf b9 98 be be 84 56 a8 bf
       -0.5685488 -0.37225893 -1.3151402

valueHead.1.running_var f4 [3]
000000 aa 25 06 3f 11 fb 15 3f 4c 79 ba 3f
       0.5240122 0.5858622 1.4568267

valueHead.4.weight f4 [1, 75]
000000 a4 84 a4 3d 79 77 ab bd 1f 9d 4f bd 84 13 8c 3c
       0.08033112 -0.08372397 -0.05068695 0.01709915
000010 ab f2 0b 3e 50 9d cb bc 7e bc 71 3d ae af 41 3d
       0.13666789 -0.024855286 0.05901765 0.04728668
000020 88 ee f3 3c 8c 5a 5e 3d c6 7d a0 bd 7c fb 0b bc
       0.029776827 0.05428557 -0.078364894 -0.008543845
000030 a1 15 09 bd 6c 10 18 bd 68 f4 8e bc 2a d4 bf ba
       -0.033467893 -0.037125036 -0.017450526 -0.0014635373
000040 b0 7b b7 3d 82 c7 3f bd 25 41 29 be 07 d2 b9 bd
       0.089591384 -0.046821125 -0.16528757 -0.09073263
000050 79 63 ff 3d 25 60 ab bd 1f d0 cd bc b5 0f f2 bd
       0.12470145 -0.083679475 -0.025123654 -0.11819402
000060 74 2a d1 3d 4b 21 24 3d ee eb f2 bc c1 1f da 3d
       0.102131754 0.040070813 -0.029653516 0.10650588
000070 e5 d9 96 3c 97 38 50 3d ff 7c b2 bd fa 51 07 bd
       0.018414447 0.05083522 -0.08715247 -0.033037163
000080 89 d4 c1 3d e2 5e 04 bd 05 a1 0b bc 69 7a be 3c
       0.09464366 -0.03231705 -0.008522277 0.02325173
000090 19 6b 95 3d ca fe 56 3c d8 36 30 bd 72 42 22 bb
       0.07295818 0.01312227 -0.043021053 -0.0024758843
0000a0 5c 0e ab 3d 83 fe b4 3d 3d 7b c1 bd 27 f2 b9 bd
       0.08352348 0.08837607 -0.09447334 -0.0907939
0000b0 a4 03 cf 3d 93 5a c0 3d ad e2 5a 3b b3 f9 8c 3d
       0.10108116 0.09392276 0.003339927 0.06883564
0000c0 c6 fc 16 be f6 f7 2f bb 7a 16 25 bd a6 66 75 3c
       -0.14744863 -0.0026850677 -0.04030464 0.014978087
0000d0 d5 3e 7b 3d be 48 f5 3c 2a 20 36 bd 43 68 9f bd
       0.06133922 0.029941913 -0.044464268 -0.07783558
0000e0 4d 5c c6 3d b7 c0 d0 3d bf ca a8 bc 9b 86 b5 3d
       0.09685574 0.101930074 -0.02060449 0.088635646
0000f0 88 a0 8d 3d 40 1b dd 3b ac f2 a7 3d 39 ec 9f bd
       0.069153845 0.006747633 0.08200583 -0.07808728
000100 1b 81 0a be b7 78 0c bd 62 58 ab 3b 04 5f 9b 3d
       -0.13525812 -0.03429481 0.005229042 0.07586482
000110 dc 66 7d bd 60 19 98 3d 56 66 36 3c 81 b9 64 3d
       -0.061865672 0.07426715 0.011132797 0.055840973
000120 e4 0d 39 bd 41 31 ca bc 4d 45 bc 3c
       -0.045179263 -0.02468169 0.022982264
