gameserver_django/webgameserver/static/models/AZ-04-05-24-EIPC51-A/model.onnx (onnx, 164232 bytes, 17 tensors)

policyHead.4.weight f4 [81, 486]
00000000: 6cf4 9f3e dddf 84be 9f48 1bbe 6284 17bd
00000010: 8242 01bd 017c 0ebd cc6c 47bd 5c83 b43c
00000020: f5c7 813c 3f98 0fbd 92df c73d 04da 02be
00000030: e744 c33b 9807 033c b5fb 5c3d c025 c0bb
00000040: fc18 22bd 5c85 83bc 0fee bd3d 837c 553e
00000050: ea14 9f3d 35a2 9c3d f42a 183d 35d4 ebb9
00000060: 430c 98bd a04f 8a3d d5de aabc a769 1cbc
00000070: a96a 9dbd cff6 123d 03b9 e7bc 36f4 843c
00000080: fec9 2abd f989 863b d695 8d3c e6f6 4abc
00000090: c0fd ccbd 0c4d 90bd 6e03 b5bc 6c37 16bd
000000a0: 3806 a5bc 719b fdbc bbe0 c33c 87ef 9e3d
000000b0: f0be 10bd 57d8 55bd d13d 313d e441 313c
000000c0: dc74 e03c 2e94 8fbb cd8a 77bc dfea 2f3d
000000d0: eb4b 9dbc f911 88bc 8d68 2fbc 81f9 123d
000000e0: 3805 dfbc dfe1 54bb dd22 4c3d 246f 153b
000000f0: fa0a 573d 565d 10bd 0f1a 053d 538e 96bd
00000100: 10fb 63bd 6b64 dcbb c44e b6bd 5499 00bd
00000110: 82b2 25bd fc81 02bd 664b cabc 3c0a 8aba
00000120: 6d88 bbbd fde5 afbd f8d9 90bc 95c6 4bbc
00000130: b023 5dbd 295d 94bd 3c25 263c 722e 62bd
00000140: 6c1c 70bc 4536 db3c 1571 09be 8e92 a63d
00000150: b138 123d 9aba 4cbd 35ec 1fbd 95dc 8bbd
00000160: 701e 83bd 4eb6 aa3c 68d2 13be bf04 9b3e
00000170: d737 cbbd 811c a6bd d8d9 dabc 229a 93bb
00000180: e7cd 1dbd 3d3a 4b3c 8829 db3c 11b9 aa3d
00000190: 2aa1 24be 98ea 00bc e108 193d 1d4f 333c
000001a0: 16df 2bbc 5946 6d3c 7150 393d f1a8 973b
000001b0: 0251 42bc bc05 a53d 33e6 4f3d baa5 3abd
000001c0: d19a 1a3d d83d 7c3c 8fb5 4e3d 2b86 863d
000001d0: 0448 a83c a281 26bc 3aa7 aa3b 5201 b3bb
000001e0: 46d0 ffbc c121 53bd f51a 5ebc ce56 ea3b
000001f0: 38e0 39bd 61ba c43d a22c 263c 0a37 fb39
00000200: 4ce9 82bd c070 7cbc 15bd e2bc 7eb9 013d
00000210: d874 8abd baee d73c 40db 453d 8e9a 753c
00000220: c943 843d 2697 b1bd f627 db3c 3cf9 08bd
00000230: 92ae 8a3d 2bae 95bd ffb6 d13d cb41 413d
00000240: 8109 af3d 3ca9 93bc 09e3 cebc 21ca 563d
00000250: 4d17 1f3d 5de8 e23c ebbb 6bbc d844 e33d
00000260: 6505 4b3d f961 4e3d f68f d4bc 998c c0bc
00000270: 72bd 3f3d d789 6a3d df59 83bc 5c7c c23c
00000280: ce75 a23d b088 dcbc 9073 5e3e 1a4b c2be
00000290: 9903 243d cf1a 723c 9257 183d 60c6 35bc
000002a0: e6a9 e6bc 01dc b2bc e872 403d dca1 11bc
000002b0: daf4 ff3e 01dd f1bd ddaf c8bd cd4b 91bb
000002c0: 1091 453d 1625 913c fe28 98bc 407e c0ba
000002d0: e5f1 9abd fe60 ebbd 4d47 bb3d f8f9 0e3e
000002e0: 7227 103d 8c97 97bc 5690 8fbc 63e9 163d
000002f0: 49d9 a93c cf4d 523d df1a 87bc 31c2 a7ba
00000300: 8759 43bd e425 573d b7e1 243d 5f6b 12bc
00000310: 5d82 88bc c6f2 76bd 2835 4b3b 703d b3bc
00000320: 74d4 cdbc 0db4 92bb 38d3 d5bd c7f9 7ebd
00000330: a7eb 643d 2637 5c3d 9edc 9b3a 03e1 293d
00000340: e572 343c 86f9 943b 5b74 243d 2561 b43c
00000350: 4c6b 2d3c d383 d1ba 9827 a03c faf6 a5bc
00000360: 9e41 c6bc 1956 703c 8cc4 863c 3402 e43c
00000370: 0579 28bc 7e77 00bc 786b 63bb 20dd af3d
00000380: 1647 5b3c 282b 4abb a1ea bd3c 6fc1 2c3c
00000390: 64a4 9abc 5ff5 273d d3e8 39bd 064e 46bd
000003a0: f4f3 2ebc eca2 0c3c 6b58 753d c832 c0bc
000003b0: 704c 5fbd 7569 aa3d 7f78 b1bc d347 773c
000003c0: b9c9 7ebd 50d6 cbbd 5617 223b e96e 4d3e
000003d0: 9519 dabe 0317 783d 4d56 3a3d 230a 373d
000003e0: d82a dcbc f0f5 70bc a0f8 fcbd f78f 1f3d
000003f0: 1359 70be 1cb8 f63e 8c46 5ebc c8bd 08bd
0.31241167 -0.25952044 -0.15164421 -0.036991484 -0.031557567 -0.034786228 -0.04868774 0.022035293
0.015842417 -0.035057303 0.097594395 -0.12778479 0.0059591415 0.007997416 0.053950984 -0.005863875
-0.03957461 -0.016054802 0.09273922 0.20848279 0.07767661 0.07648126 0.03715034 -0.000449808
-0.07424214 0.067534685 -0.020858208 -0.009546674 -0.076863594 0.035879906 -0.028286463 0.01622973
-0.04169654 0.004105803 0.017283361 -0.012387967 -0.100093365 -0.070459455 -0.022096362 -0.03667395
-0.020144567 -0.03095791 0.02391087 0.0776053 -0.035338342 -0.05220827 0.043271843 0.010818932
0.027399473 -0.004381678 -0.015108776 0.0429486 -0.01920124 -0.016610133 -0.010706079 0.035882477
-0.027224168 -0.0032483262 0.049837936 0.002280184 0.052500702 -0.035245262 0.032495555 -0.07351365
-0.055659354 -0.006725838 -0.08901742 -0.031396225 -0.04045344 -0.031862244 -0.024694156 -0.0010531615
-0.091568805 -0.08588789 -0.01768206 -0.012437482 -0.053989112 -0.072443314 0.010140713 -0.055220075
-0.014655214 0.026759276 -0.13422044 0.08133422 0.035698596 -0.049982645 -0.039043624 -0.06829182
-0.0640229 0.020838883 -0.14435732 0.30277058 -0.0992276 -0.081109054 -0.026715204 -0.004504458
-0.038526442 0.012404022 0.026753202 0.0833608 -0.16077104 -0.0078684315 0.037361983 0.010944155
-0.0104902 0.014482104 0.04524273 0.0046282937 -0.011860134 0.08057734 0.050756644 -0.045568205
0.0377453 0.015395604 0.050466117 0.06568559 0.020542152 -0.010162743 0.0052079232 -0.005462804
-0.031227242 -0.051545862 -0.013556232 0.007151461 -0.045379847 0.096058615 0.010142477 0.00047915458
-0.06392154 -0.015407741 -0.027678052 0.03167104 -0.067605674 0.02635895 0.048304796 0.014990462
0.064582415 -0.086714074 0.026752453 -0.033440813 0.06771578 -0.073086105 0.10239982 0.047181886
0.085467346 -0.018025033 -0.025254743 0.05243886 0.03884058 0.02769869 -0.014388065 0.11097115
0.04956569 0.050386403 -0.025947552 -0.023504542 0.04681153 0.05726036 -0.016034065 0.02374094
0.07932626 -0.026920646 0.21723771 -0.37947923 0.040042493 0.0147768995 0.03719289 -0.01109466
-0.028157186 -0.021833422 0.046984583 -0.008888688 0.49991494 -0.11809731 -0.09799168 -0.004434085
0.048234046 0.01771788 -0.018574234 -0.0014686063 -0.07565669 -0.11493109 0.09144459 0.13962543
0.035193868 -0.01850488 -0.01752488 0.03684367 0.020733492 0.051343735 -0.016492305 -0.0012798962
-0.0476928 0.05252637 0.04025432 -0.008936732 -0.016663725 -0.06029012 0.0031007025 -0.021879882
-0.02512572 -0.00447703 -0.104406774 -0.062249925 0.055888798 0.05376353 0.001189131 0.041474354
0.011013721 0.004546347 0.040150028 0.022018978 0.010584664 -0.0015984721 0.01955013 -0.02025937
-0.02420121 0.014668965 0.016451143 0.027833082 -0.01028276 -0.007840989 -0.0034701508 0.08587098
0.013383647 -0.0030848477 0.023183169 0.010544165 -0.018877216 0.04100549 -0.045388054 -0.048414253
-0.01067828 0.0085837655 0.059898775 -0.023461714 -0.054516256 0.083208956 -0.021663902 0.015092808
-0.062204096 -0.09952986 0.0024733148 0.2006184 -0.42597643 0.06056882 0.04549246 0.0446874
-0.026875898 -0.014707074 -0.12352109 0.038955655 -0.23471479 0.4818734 -0.013566624 -0.033384115

policyHead.4.bias f4 [81]
00000000: 4f5b 82bd 2ab6 97bc 7f6e 95bc 8b8a 953c
00000010: b2b9 2ebd 561a ed3c 87c2 13bd 04c9 51bd
00000020: 0cef 37bd 69cb d7bc e3b9 543d 4a17 d6bc
00000030: 0959 2b3d 5306 8f3c 4a8a 373c e14c 6fbb
00000040: 16e0 8bbb dcb1 55bc 3969 fe3c fd3e de3c
00000050: ed75 c1bc 4359 cf3c 9c8f 123c c255 78bc
00000060: 4919 e6bc 0e8f b23c 3059 9f3b 8bc4 debc
00000070: e81f 003d 391e 44bd 0393 293d 6daf 17bd
00000080: c37e d4bc a670 163d cb1f ed3c bca1 b7bc
00000090: a322 973c 8c73 993c 54ee c83c 4c9e 4b3d
000000a0: 2e04 df3b f923 3c3d 198e de3c 5120 35bd
000000b0: 7435 a6bc 2739 dd3c 29ec b23c e431 773c
000000c0: 45e5 a93d 1d3d 323d 2011 c73d f170 6ebc
000000d0: 0da5 43bc 1c42 133d 5f93 9a3b 5ebb 603d
000000e0: aabd 61bd 044c a53d 4645 7b3c 0652 14bd
000000f0: 1c4b 12bc 0469 51bc c142 03bd b40c 913c
00000100: 9d37 75bc d503 d9bc 776b 023d 93da 28bc
00000110: f1ae cebc bde2 ce3c 76fd 15ba ce1b 733c
00000120: 3657 e0bb 0db9 c03c 29d1 1fbd 0aea d8bb
00000130: 608e b5bc decc 563a 2500 ecbc 2206 05bd
00000140: 27ad fabc
-0.06365072 -0.01851948 -0.018241165 0.018254539 -0.04265756 0.028943222 -0.036074188 -0.051217094
-0.044905707 -0.02634211 0.051935088 -0.026134152 0.041832957 0.01745907 0.011202404 -0.003651433
-0.0042686565 -0.013042893 0.031056033 0.027129645 -0.023615802 0.025311118 0.008945372 -0.015157165
-0.028088229 0.02179673 0.004862927 -0.027193328 0.03128043 -0.047880385 0.041399967 -0.037032533
-0.025939351 0.036728524 0.028945824 -0.022415988 0.018449133 0.018731855 0.024527706 0.04971151
0.006805918 0.045932744 0.027167367 -0.044220272 -0.02028916 0.027004791 0.021841126 0.015087578
0.08295683 0.043515313 0.09720063 -0.0145532945 -0.011941207 0.03595172 0.004717275 0.054866187
-0.05511252 0.080711395 0.01533634 -0.036211036 -0.00892904 -0.012781385 -0.032046083 0.017706253
-0.0149668725 -0.026491085 0.031840768 -0.010306018 -0.025229903 0.025254602 -0.00057216675 0.014838172
-0.006846334 0.02352574 -0.03901783 -0.0066196965 -0.022162616 0.000819398 -0.028808663 -0.03247655
-0.030600144

valueHead.4.weight f4 [1, 243]
00000000: f936 5a3d 9767 81bc 6636 8d3c ea67 e33d
00000010: 04d7 643d 3a60 0bbd 90f8 dcbc c272 f73c
00000020: 682e f6bc 174d 513c 8540 2d3d 40f8 b53d
00000030: 5fc5 b23d 5b46 d83d 653a 8c3c 0baf 873d
00000040: bf46 89bd cc2a 113d bf2e c1bc a6eb 64bc
00000050: 296d 46bc 52cd 87bd d3b6 a23c 078f fabc
00000060: 5f67 a7bc 7e4c 4c3d a3f0 c93c afaf 663d
00000070: d5d6 ec3d dcf0 943c 4606 b83d 32bf 06bd
00000080: bf68 73bc acd3 c13b e22a 253b 2273 e63c
00000090: 7846 0dbd 7dad 02bd c42b d83d 3c07 343e
000000a0: f979 c33b f012 4ebd 3957 5e3d be51 d0bd
000000b0: a139 10ba 4c02 033d eacc cabb 91bf 0b3d
000000c0: c522 c33c 7d00 733d 6ff2 7bbd 0557 c13d
000000d0: d1f0 8f3c 0601 debb d137 7dbd 1e0d 833d
000000e0: 9f07 8e3b 61cc 963d ba4e 21bd 7cf6 373b
000000f0: 7285 55bb b20b d4bc 0472 303d 1660 80bc
00000100: 9f0c 643c 495e 8fbc 9433 313d 8277 e53c
00000110: e5bd 5fbd daf5 c6bc 22f9 3bbb 826f dfba
00000120: a051 febb 4bbb 963d a586 ad3d 69fa 3b3d
00000130: 9e0e 0c3e 530d bd3c 26c7 52bd aa13 1bbd
00000140: f8c2 c7bd cbfe c6bd 4ec3 263c a8ab c3bd
00000150: db71 84bd a6eb 8bbd 09fe dbbc 5c7d 4f3d
00000160: 0aa3 8c3c 82af adbd c8a1 fd3c ce2f b6bc
00000170: c11b 8f3d 6729 e1bc 9c7e 12bc 9a61 85bc
00000180: 215b 0d3d 3d75 483b 957f cabd 84cf 7c3d
00000190: 37f4 0d3c 4f43 40bd 64b2 ccbc 2b37 18bd
000001a0: b695 02bc c4dc fdbc e71f 70bc a579 a03d
000001b0: 5202 d93d a72e da3d 37e2 1dbd f6a6 16bd
000001c0: 1103 83bc 3df0 8abb bdec b4bd d9a3 c5bc
000001d0: 5e36 ecbc 9889 093d c34b 013d 5e64 d1bd
000001e0: 2cd5 a2bd 2f41 a3bc 337e 3c3c 1efc 0cbd
000001f0: a0d5 aaba efc3 1cbd 5601 123d 517f a13d
00000200: c4b6 14bd 6269 a3bd f118 9ebd 4b4a 013c
00000210: ba49 403b 1841 143d b3b8 c83c bd68 983d
00000220: 488d 2a3c e0cc 41bd 1dfe 0d3d 683d c73c
00000230: 9e00 093b a631 333c 4f6a 97bd 7bc6 3c3e
00000240: d4f1 dfbc d414 51bd f6fb 00be 9046 f2bc
00000250: e0bd 13bd 03e4 d13b 583d afbd 4d66 67bd
00000260: 4d72 07be 93ff 2e3d 2c04 c8bc 40f9 08bd
00000270: 20e1 4c3d e9d9 d43c ba90 a8bb 3ba1 bc3d
00000280: c029 5e3d f481 5f3d 3d06 33bd 462b 603c
00000290: c4b7 133d 7f59 6e3d da8c c73b c558 cbbc
000002a0: dd3e b5bc e758 a2bc e06a 813d 7586 d1bc
000002b0: 8ae5 fb3b a8e0 263d b658 903c f1f1 ad3b
000002c0: aa67 b6bc b36a 53bc 6b16 53bd 8634 a73d
000002d0: 59c7 503c f42b 243d 27b8 6c3d 33eb d83c
000002e0: 9fcc 423d 1322 9cbd 1b95 653c e922 db3b
000002f0: 6fb7 9cbd c14f 24bd 3bcb 383d 200f 013b
00000300: 42cb 5bbb c1e4 903c ccee 953b d214 a63c
00000310: e59f 6ebc 049e 2fbd ae96 8dbd 26b9 f6bc
00000320: 1517 ffbc d56d 9bbd 2b67 ecbc 9516 25bd
00000330: 77f6 4dbd 6d2e 903b 42bc 8a3d 581e c1bd
00000340: efa9 58bd 055d 85bb a215 a5bd a3bb 11bd
00000350: 9c0b c03c 406b aabc 4093 34bd 519d b23d
00000360: 2348 b2bd 85b3 3cbd e05a b33c 9cff 913d
00000370: 9377 613c 528c 6abc f049 6cbc 4600 34bd
00000380: 6166 9abd 322f bdbc 7196 9d3b 4c8b 643b
00000390: d2a4 a83d 82c6 09bc 957d 573c f6d9 813c
000003a0: fa4c b73d 6348 463b 4bb2 1a3e dcc9 a23c
000003b0: 95f3 84bd 7979 2cbd 633e 19bc ec38 90bc
000003c0: 10de 0bbe 2d11 24bd 1f7d 923d
0.053275082 -0.015796466 0.017237853 0.111038044 0.055869117 -0.034027316 -0.026973993 0.030206088
-0.030051425 0.012774727 0.04229786 0.088852406 0.08729052 0.10560294 0.017117688 0.06625184
-0.06702947 0.035441205 -0.02358186 -0.013972199 -0.012110987 -0.066309586 0.019862568 -0.030585779
-0.020435033 0.049877636 0.024650877 0.05631989 0.115644135 0.018181257 0.089855716 -0.03289718
-0.014856516 0.005915126 0.0025202562 0.028131071 -0.034491032 -0.031903733 0.10555223 0.17580885
0.005965468 -0.05031103 0.0542824 -0.10171841 -0.00055017514 0.031984612 -0.0061889784 0.03411824
0.02382029 0.059326638 -0.0615105 0.09440426 0.017570885 -0.0067750243 -0.06182081 0.06398986
0.0043344046 0.07363201 -0.03938172 0.00280705 -0.003258076 -0.025884483 0.043077484 -0.015670817
0.013919025 -0.017501013 0.04326208 0.028011087 -0.054624457 -0.024287153 -0.002868243 -0.0017046782
-0.0077611953 0.07359942 0.08472947 0.045893107 0.13677451 0.023077643 -0.051459454 -0.03786055
-0.09753984 -0.09716567 0.0101784 -0.09554225 -0.06467029 -0.06832056 -0.026854532 0.05065666
0.017167587 -0.08480741 0.030960932 -0.022239592 0.069877155 -0.027485562 -0.008941319 -0.016281892
0.034510735 0.0030587458 -0.098876156 0.06172134 0.008664182 -0.04693919 -0.024987407 -0.037161987
-0.007970264 -0.030989058 -0.014656044 0.07835702 0.10596146 0.106534295 -0.038545813 -0.03678032
-0.015992673 -0.0042400644 -0.08834217 -0.02412598 -0.028834518 0.033578485 0.031566393 -0.10224222
-0.079508156 -0.019928543 0.011504698 -0.034420125 -0.0013033636 -0.038272794 0.035645805 0.07885612
-0.03630711 -0.079790846 -0.07719601 0.007891248 0.002934082 0.03619489 0.024502134 0.07441852
0.010409661 -0.047314525 0.03466617 0.024321273 0.002090491 0.01093713 -0.07393324 0.1843509
-0.027336992 -0.051045254 -0.12596115 -0.029574662 -0.03606975 0.006405355 -0.08556622 -0.056494046
-0.13227196 0.042724203 -0.024416052 -0.03344083 0.050019383 0.025982814 -0.005144206 0.0921044
0.054239035 0.054567292 -0.04370712 0.013682192 0.036063924 0.05819082 0.006089789 -0.024822602
-0.022124702 -0.019817783 0.06319213 -0.02557681 0.0076872753 0.040741593 0.017620426 0.0053083827
-0.022266228 -0.012903857 -0.05153505 0.08164315 0.012742841 0.04008098 0.05779281 0.02647934
0.047558423 -0.07623687 0.0140126 0.006687511 -0.07652175 -0.04011512 0.04511569 0.0019692853
-0.00335379 0.017687203 0.004575586 0.0202736 -0.014564489 -0.042875305 -0.069135055 -0.030117583
-0.031138936 -0.07589308 -0.028857788 -0.04030474 -0.050283875 0.0044000656 0.067741886 -0.09429616
-0.052896436 -0.0040699267 -0.08060767 -0.035579335 0.023443036 -0.020803094 -0.04408574 0.08721412
-0.08705165 -0.04606964 0.021893919 0.07128832 0.013761419 -0.0143156815 -0.014421925 -0.043945573
-0.075390585 -0.023093794 0.004809194 0.0034873066 0.08234562 -0.008409144 0.0131525 0.015851002
0.08950229 0.0030255548 0.15107076 0.019871645 -0.06491772 -0.042108033 -0.009353253 -0.017605267
-0.13658929 -0.040055443 0.07152771

onnx::Conv_83 f4 [2, 4, 3, 3]
00000000: 28fe 9dbe 02e9 243e cd54 fabd cdde 7b3d
00000010: 84e8 6bbe 3c72 733e 3c7d c9be cf2b 8abe
00000020: 3e07 d0be 8d30 e83e 14aa 133f 135f 2b3e
00000030: c611 933e 5f83 f63e 10fb e33e aec8 f9bd
00000040: 6d45 553e dc50 4a3e c700 c13f 5fc2 7bbf
00000050: 4295 783f 48a6 aabf 2b0e 2e3f 7f6e 083f
00000060: 3bae 5b3e 2ec2 c13f cc27 513f ece3 e7bc
00000070: 247c f4be bd71 063d f359 e4bd 7312 96be
00000080: 6e3b b1be c358 98bc 544e 813d 4aec 90be
00000090: 2cd4 0e3f 3df8 c83e c433 833f 7769 313f
000000a0: fada 2cbf f635 d7bc 250d cc3e 79cd aabe
000000b0: bfa0 f1bd 817c a8be 7e1c 5ebb 7bc8 a33e
000000c0: ec3f 0a3f ef10 ee3e e0e3 933f 3ca1 00bd
000000d0: 51a8 43bf a3b3 34bf c7fa a0be 5102 a13e
000000e0: 6339 9cbf 70eb cabe e8a8 373f 4360 09bf
000000f0: d3dc 643e de22 813f ce29 bbbf f86d 48be
00000100: b3ac 22bf 2713 12bf 8854 fabd d47a 6b3d
00000110: 5b3e 41bf 2ec9 2c3e 20c4 c03d 76c7 1b3d
-0.30857968 0.1610451 -0.12223206 0.061491776 -0.23037916 0.23774046 -0.3935336 -0.26986548
-0.40630525 0.4534954 0.57681394 0.16735487 0.28724498 0.48147103 0.44527483 -0.1219648
0.20827265 0.19757408 1.5078362 -0.9834346 0.9710275 -1.3331995 0.6799037 0.53293604
0.21453182 1.5137384 0.8170135 -0.028306924 -0.47750962 0.032823313 -0.11149969 -0.2931095
-0.34615654 -0.018597012 0.06313768 -0.28305274 0.557925 0.3925189 1.0250173 0.6930155
-0.6752163 -0.026270848 0.39853778 -0.33359888 -0.11798238 -0.3290749 -0.0033891494 0.31988892
0.5400379 0.46497294 1.1553917 -0.031403765 -0.76428705 -0.70586604 -0.31441328 0.3144708
-1.2205013 -0.3963275 0.71742105 -0.5366251 0.22349863 1.0088766 -1.4622133 -0.195732
-0.6354477 -0.57060474 -0.12223154 0.057490185 -0.7548577 0.16873619 0.09412408 0.038032018

onnx::Conv_84 f4 [2]
00000000: e44f fdbe 95d0 9e3e
-0.49475014 0.3101851

onnx::Conv_86 f4 [2, 2, 3, 3]
00000000: e323 b1be 81e7 b43d 222e 8abb ee35 2abe
00000010: 7dcc 283e e9a4 47be 293e f43d 7ccd b33b
00000020: e346 8c3e a21d 83be 4ae9 9cbe 6957 44be
00000030: 0847 bd3e cef1 3cbd 3591 1b3f 00ae cb3e
00000040: 2522 ebbe bb39 9a3e 0cf2 9dbd 03d7 db3d
00000050: 939e a8be be5e 2bbe 1e91 cdbe e091 6ebe
00000060: a2dc 893e fb9e 86be dacf 863e 530d 923e
00000070: 5286 113f 1754 a13e 6b6d 24be 78b1 e73e
00000080: 3a5d d83d d1b2 18be 083c b83c d295 34be
-0.34597692 0.08833218 -0.0042169252 -0.16622135 0.16484256 -0.19496502 0.119259186 0.005487142
0.27397832 -0.25608546 -0.30646735 -0.1917397 0.36968255 -0.04612904 0.60768443 0.3978119
-0.45924488 0.3012217 -0.077121824 0.107343696 -0.32933483 -0.1673536 -0.40149778 -0.23297834
0.26926142 -0.26293167 0.26330453 0.2852579 0.5684558 0.31509468 -0.16057365 0.45252585
0.105646566 -0.14911963 0.022489563 -0.17635277

onnx::Conv_87 f4 [2]
00000000: 1048 ef3d 766a 063e
0.11683667 0.13126549

onnx::Conv_89 f4 [2, 2, 3, 3]
00000000: ebac dabd da7e c0bd 2f81 8dbe b0a2 853d
00000010: f529 a43d 14e2 59bd 9999 523e 9161 1dbe
00000020: 9f46 a8bc 3a81 52bd 3d38 4d3e 4210 94be
00000030: 03db efbd a3bc 76be bb1f e53e d3a9 01be
00000040: 488c c53e 491a 9a3e e0e8 36be c084 84bb
00000050: 9274 8cbe 6b27 8dbc e8bb 863e 3b53 2d3f
00000060: 326f c8bd 6ed4 35bc 7548 103f 6c3c b93e
00000070: 6ae9 833e bea9 0a3d 3e05 1e3f 6e0c 16bf
00000080: 6924 2c3f 0bd8 913e 6845 93be 758c 79be
-0.10677513 -0.09399195 -0.27637622 0.06525171 0.08015815 -0.05319412 0.20566405 -0.1536925
-0.020541487 -0.05139277 0.20040984 -0.28918654 -0.11711695 -0.24095397 0.4475077 -0.12662439
0.3858359 0.3009818 -0.17862272 -0.0040441453 -0.27432686 -0.01723071 0.26315236 0.67705125
-0.09786834 -0.01109801 0.5636056 0.3617891 0.25764018 0.033853285 0.6172675 -0.58612716
0.6724306 0.2848514 -0.2876389 -0.24369986

onnx::Conv_90 f4 [2]
00000000: dd53 353e 47e3 d6be
0.17707773 -0.41970274

onnx::Conv_92 f4 [2, 2, 3, 3]
00000000: 95ec 9ebe 2f63 cbbe 7479 c8be 69b1 c13d
00000010: b9ea 4537 8f45 623d ea67 99bd a915 223d
00000020: d301 c83e 6d55 e2bd 054d d53e 2560 df3e
00000030: 337b 983e 43bb b33e 4780 2c3d e747 d3bc
00000040: 2bc4 c83d b4c0 94bd 513f 9ebe ee6d 54bd
00000050: 01c2 6e3e 4d17 dabd 5cee eb3d 8173 07be
00000060: 5fab a2be c193 963e f063 0a3e 5632 86be
00000070: 4bcc af3e a6c6 72bb 8480 0bbe ea9d bb3b
00000080: 3275 c23e 86a4 babe 0a3c 2a3e bdd6 d63e
-0.31039873 -0.3972411 -0.3915516 0.094576664 1.1796766e-05 0.055242117 -0.07490523 0.039571438
0.39063892 -0.1105145 0.41660324 0.4362804 0.29781494 0.35103807 0.042114522 -0.025791122
0.09803041 -0.07263318 -0.30907682 -0.05186265 0.23316194 -0.106489755 0.11520073 -0.13227655
-0.3177137 0.29409602 0.13514686 -0.26210278 0.3433555 -0.0037044673 -0.13623244 0.005725612
0.37980038 -0.36453646 0.16624466 0.41960707

onnx::Conv_93 f4 [2]
00000000: 2841 e4be 48bb 9cbd
-0.4458096 -0.076529086

onnx::Conv_95 f4 [2, 2, 3, 3]
00000000: 9463 aabd 7770 7f3e 0e5f 243e 6bae 0ebd
00000010: d20c 813e 8a38 13bd a7fe 89bd 3f41 5fbe
00000020: 563f d0be c47b c83e f72d e53d ab6c 923d
00000030: 892e c63c 2d20 b23e 3fc1 b8bd 67d1 db3d
00000040: 668a dabb cb2f 33be f26a fa3d 2084 053f
00000050: a5df ce3d 4bcf 523d af29 b13b 5584 cbbd
00000060: 6f80 173e 282d a23e 5f50 bfbe 087c 0e3e
00000070: 37cc 40bd 16ac d13d 3b6d 673e 59f6 d73e
00000080: d8a2 b9bd 3456 5ebd 8379 4d3e 04c3 9a3e
-0.08319774 0.24945246 0.16051885 -0.034834307 0.25205094 -0.03594259 -0.06738024 -0.21802233
-0.4067332 0.39156926 0.11190408 0.07149633 0.024192112 0.34790173 -0.09021234 0.107333
-0.0066693304 -0.174987 0.122274294 0.5215473 0.101012506 0.05146722 0.0054065804 -0.0993735
0.14795087 0.31675076 -0.37366006 0.13914502 -0.047069754 0.10237901 0.22600262 0.42180136
-0.09064263 -0.05428143 0.20065884 0.3022691

onnx::Conv_96 f4 [2]
00000000: 5ba2 67be 69a9 28bf
-0.22620527 -0.658835

onnx::Conv_98 f4 [6, 2, 3, 3]
00000000: 03ea 5dbe 9b96 40bf def8 60be e427 d33b
00000010: 7db6 5abf 14f9 303f 4e8b 893e 6a1c 293f
00000020: 9d85 333e ba0f 813f 37a6 123e 7389 363e
00000030: f16f 883e 47e9 0fbf f486 41be 814f 9fbe
00000040: 2251 93be 5639 a2be d5cb a2be 821f 733f
00000050: 7cea 8ebe 573d 573f 2e11 fbbe 5fc5 13be
00000060: 0804 113f 610b 03be 682e 26bf 4a13 b0be
00000070: 93b2 743e 1d45 a6be 278e a9be 8abf 4fbd
00000080: a8f4 533e 586d 88be e14e c5bd 9727 613f
00000090: 82bb 77bf 920e ff3e 7ed9 1c3f 03ef 603f
000000a0: 8e39 97bf 0ecd bdbd 766e 933d 9974 93bd
000000b0: d101 ec3e e779 623f cadd bdbe e7ff 1ebf
000000c0: 2085 bfbe 7490 4a3f 3443 e8bd 0019 aebd
000000d0: a036 eebe b415 7f3e 8077 08be 32ce 323f
000000e0: c96c 233f f346 6a3f f28d aabf e630 b13e
000000f0: 0d29 ba3e b606 97be 0ff2 ba3e bfbc 38be
00000100: fd1d 9dbe 675c f0bd a15a 823e eb94 47bd
00000110: 8789 24bf c23d 4fbe b114 173e 6d79 e43e
00000120: 94dc 05bf 7009 723d 91f3 acbe 376d 5f3f
00000130: b2d6 ac3c e5dd aebe 19bd 83bf 6370 a33f
00000140: a4e2 07be 0029 bdbe f13c 143f 8b31 773d
00000150: e8a3 583f 97c7 59bf 6d11 2cbf 926b 33be
00000160: b4f9 0bbf 6768 203f e6e0 28bf 922a 793f
00000170: a470 e0be 2551 28bf eea1 e63d 8848 a8be
00000180: 81aa 843f 55d3 d1be 0514 85be 611f 95bd
00000190: 4929 83be 2be9 ba3e a5e0 443f d300 91be
000001a0: fae2 d43e c44f 05bf 59c8 273d 1e62 223c
-0.216713 -0.75229806 -0.21969935 0.0064439643 -0.85434705 0.69130063 0.26864094 0.6605898
0.17531438 1.0082924 0.14321218 0.1782587 0.26647905 -0.5621533 -0.18899137 -0.31115344
-0.28772837 -0.3168437 -0.31796136 0.9496995 -0.27913272 0.8407797 -0.49036545 -0.1443076
0.56646776 -0.1279731 -0.6491456 -0.34389716 0.23896246 -0.32474604 -0.33116266 -0.050719775
0.20698798 -0.26645923 -0.096341856 0.87951034 -0.9677049 0.49815804 0.61269367 0.878647
-1.1814439 -0.09267627 0.07198803 -0.071999736 0.46095136 0.8846726 -0.37083274 -0.62109226
-0.37406254 0.7912667 -0.11340943 -0.08500862 -0.4652605 0.24910623 -0.13326836 0.6984588
0.6383787 0.9151451 -1.3324568 0.3460762 0.36359444 -0.29497308 0.365128 -0.18040751
-0.30686942 -0.11736374 0.2545977 -0.048726004 -0.6427235 -0.20238402 0.14753987 0.4462389
-0.522897 0.05909103 -0.33779576 0.87276024 0.021098468 -0.34153667 -1.0292083 1.2768673
-0.1327005 -0.36945343 0.5790549 0.060349982 0.846251 -0.85070175 -0.6721409 -0.17521504
-0.5467789 0.62659305 -0.6596817 0.9733058 -0.43835938 -0.65748817 0.112613544 -0.32867837
1.0364534 -0.40981546 -0.25991836 -0.07281376 -0.25617436 0.36506018 0.7690528 -0.2832094
0.4157942 -0.5207484 0.04096255 0.009911088

onnx::Conv_99 f4 [6]
00000000: 4065 b93f 7d6f 883e faa2 243f 2e57 b4be
00000010: 94ab aa3f 96b9 723f
1.4484024 0.2664756 0.6431118 -0.35222763 1.3333611 0.9481443

onnx::Conv_101 f4 [3, 2, 3, 3]
00000000: 0952 7b3b b618 4fbe ef9b fa3d cade 84bd
00000010: 6b44 0e3e d3a9 423e b81d 18be 28b1 ddbd
00000020: dba2 853d 42ab 1dbe a4ee d6bd d437 113c
00000030: 1d06 de3d 64aa eebb 92f8 d63d 9e4d 96be
00000040: ec44 34be f8c3 b93d 1bde a83c 0a6b 86bb
00000050: 4ed4 8bbd f5d3 093e 09f1 3f3e a9d4 b9bb
00000060: c3cc 733d d8bf 3d3e ea14 1c3e 2954 033e
00000070: 0b97 03be acae b53d f0ba 6c3c 8208 373d
00000080: 3c11 4abd c451 9a3d 1928 94bd fe65 f53c
00000090: 6b3c 01be ef42 0dbe b6e6 33be d426 34bd
000000a0: c6bd 5bbe 926b d4bd 12f0 843d a364 27bc
000000b0: d92d 9b3d e8ec a4bd 0911 21be b876 683c
000000c0: e98f f73d 5684 a33d 8be6 ec3d 6dfa 76bd
000000d0: 6cf8 f23d aac3 02be
0.0038348457 -0.2022427 0.12236773 -0.06487806 0.13893287 0.19010095 -0.14855087 -0.108248055
0.06525203 -0.15397361 -0.10494736 0.008863408 0.1084101 -0.0072834957 0.1049663 -0.29356092
-0.17604417 0.09070581 0.02061372 -0.0041021155 -0.06827603 0.13459761 0.18744291 -0.005671103
0.059521448 0.18530214 0.15242353 0.12825073 -0.12850587 0.08871207 0.014448866 0.044685848
-0.049332842 0.07535127 -0.072342105 0.02995586 -0.12620704 -0.13795064 -0.17568478 -0.043982342
-0.21459112 -0.1037208 0.06491102 -0.010216865 0.07577104 -0.08052999 -0.15729155 0.014188461
0.120879956 0.079842255 0.1156741 -0.06029742 0.11863789 -0.12769952

onnx::Conv_102 f4 [3]
00000000: 3287 973e 3ff0 81bf c06f 363f
0.29595333 -1.0151442 0.71264267
