models/AZ-10-05-24-EIPC51-A/main.pt (torch, 190393 bytes, 69 tensors)

startBlock.0.weight f4 [4, 4, 3, 3]
000000 77 cb 83 3d 10 c3 c4 3d 93 2f a1 3d 8f 20 85 bd
       0.06435292 0.09607518 0.07870402 -0.06500351
000010 d2 b7 ed 3d 54 47 f7 bc b4 14 67 b9 d8 7c f9 3d
       0.116073266 -0.03018538 -0.00022037589 0.12182015
000020 54 d1 83 3d 68 c5 99 3d 8e 96 b3 bc 24 ad 20 3d
       0.064364105 0.075083554 -0.021922376 0.03922762
000030 a7 55 58 bd 34 85 23 be c5 9f 8a bd ba 92 49 3d
       -0.05281606 -0.15968782 -0.06768755 0.049212195
000040 82 62 10 be ac 08 9c bd 7b 53 e8 3d 53 61 31 be
       -0.14100078 -0.076188415 0.11344048 -0.17322282
000050 79 fa 24 bd 1e 2c 57 3e 63 a8 c0 bd 48 e0 e2 3d
       -0.04027793 0.21012923 -0.09407117 0.110779345
000060 47 47 53 be 7d 4f 3a 3e 44 f5 0a be 06 c6 00 bd
       -0.20632659 0.18194385 -0.13570124 -0.03143885
000070 06 d0 84 3b 94 53 13 3d 12 e3 ca 3d 4a d1 04 3e
       0.0040531186 0.03596838 0.099065915 0.12970462
000080 04 bb 71 bd db 80 cf bd ca 5f 74 3e 1b 0b ad 3d
       -0.059016243 -0.10131999 0.23864666 0.08449384
000090 b0 91 84 ba 07 38 61 bd b0 ca 79 bd c3 a5 ed 3c
       -0.0010114219 -0.054985072 -0.060984313 0.029009705
0000a0 89 a3 e0 bc 6f d5 25 bd 3c 1b 37 bd 2d c4 d8 3b
       -0.02742173 -0.04048675 -0.044703707 0.006615183
0000b0 55 51 e5 3c ae 18 42 3e 35 d0 1a 3e 0f 82 93 bc
       0.027992884 0.18954727 0.15118487 -0.018006353
0000c0 fa a7 05 3e a6 c8 35 3e 18 da 9c 3d 4b 47 2e 3e
       0.13052359 0.17752323 0.076587856 0.17019384
0000d0 4e 70 d8 3d 24 71 d3 3b a9 ec 08 3e 6e d1 91 3d
       0.105682954 0.0064526964 0.13371529 0.07120024
0000e0 23 f6 4d 3d 59 88 6b 3e 72 e2 95 3d c1 7a 04 3e
       0.050283562 0.23001231 0.07318582 0.12937452
0000f0 a0 b6 2c 3e db 3c 0e bd e8 33 0d bd b0 44 0a be
       0.16866541 -0.034726005 -0.03447333 -0.13502765
000100 a9 91 7d bd f5 43 03 3d d9 65 7a be a0 ef f9 bb
       -0.06190649 0.03204723 -0.24452914 -0.0076274425
000110 fa a3 30 be 6e 00 c6 bd 0a 50 5d be 65 99 85 3d
       -0.17250052 -0.09668051 -0.21612564 0.06523398
000120 a1 19 76 bd 0e 36 15 bd 38 c5 92 bd a7 c0 84 3d
       -0.060083035 -0.036428504 -0.07166523 0.06482058
000130 bd 5d 35 3c 48 e9 a7 3d 76 1e 86 bd 53 12 2a 3e
       0.011069712 0.08198792 -0.06548779 0.16608553
000140 04 7c 8f bd aa 8b fa 3d ae 91 3d be 64 10 38 3d
       -0.07006076 0.1223367 -0.18512604 0.044937506
000150 fc c5 bc bb c9 96 f2 3d 7e d0 6b bd 2f 15 43 3e
       -0.0057609063 0.11845166 -0.05757188 0.1905105
000160 cb 4f eb 3d a8 7d 74 3e 8b 9b 63 bd d9 b8 cc bb
       0.11489829 0.23876059 -0.05556826 -0.0062476215
000170 fa c6 b4 3d 94 73 37 bd 07 dd c5 bd 00 df e5 3d
       0.08827014 -0.04478796 -0.09661298 0.112241745
000180 f2 eb 2e be 41 ef 4b be 16 54 0d 3e 08 cb a7 bd
       -0.17082193 -0.19915487 0.13801607 -0.08193022
000190 49 c6 1c 3e 16 bd 2a be e5 d3 32 bd 40 59 68 3d
       0.15310015 -0.16673693 -0.04365911 0.05672574
0001a0 d6 29 fc bc e0 b9 b2 3d 65 dd 14 be 38 92 01 be
       -0.030781668 0.08726859 -0.1453758 -0.12653434
0001b0 76 3f 17 3d bd e6 07 bd 54 14 bc bc 86 cc 23 3c
       0.036925755 -0.033179034 -0.022958912 0.009997493
0001c0 80 e1 9a bd 51 d1 02 bd c4 3a 6f 3d 6d 54 f3 3c
       -0.07562542 -0.0319379 0.058405653 0.029703343
0001d0 a3 99 f3 bc c7 26 f8 3c d4 78 a7 bc 6e 0d 76 bd
       -0.029736346 0.030291928 -0.020443358 -0.0600714
0001e0 3e 17 95 bb f6 99 75 bc 6f 63 45 bc 0f 65 49 bd
       -0.00454989 -0.01499032 -0.012047633 -0.049168643
0001f0 fd ef f7 bd bd 01 a8 bd 9a 65 a3 3d 41 99 69 3e
       -0.12106321 -0.082034566 0.07978363 0.22812368
000200 8d 66 60 be 3f d1 d1 bc c9 09 a4 3e 87 3b 3c 3e
       -0.2191412 -0.025612472 0.32038715 0.18382083
000210 1a bc bc bd 12 ac 43 3e f3 b4 1e be 41 23 c2 3d
       -0.09215565 0.19108608 -0.15498714 0.094793804
000220 a1 7d 1f 3d 54 34 a9 bc d3 4d 32 3d 17 05 c8 bd
       0.03893817 -0.020654835 0.04353125 -0.09766596
000230 54 46 25 3e e5 e2 ff 3c 75 56 38 3e 82 6b b6 3c
       0.1614011 0.031236121 0.1800173 0.02226806

startBlock.0.bias f4 [4]
000000 11 b4 b3 38 09 6f 6e 3a f0 e7 27 39 6c 7b 10 39
       8.568925e-05 0.0009095525 0.00016012765 0.00013778888

startBlock.1.weight f4 [4]
000000 cf 5f 8e 3f 5d da 93 3f 99 35 84 3f 49 b8 b2 3f
       1.1122988 1.1551014 1.0328857 1.3962489

startBlock.1.bias f4 [4]
000000 7a 4f e4 3e de e5 3c 3f e2 11 b3 3e 39 dd d7 3e
       0.44591886 0.7378825 0.3497458 0.42160967

startBlock.1.running_mean f4 [4]
000000 c5 9a 03 3e 2d a1 45 3e ae 69 2c bd 3d c5 22 3e
       0.12852009 0.19299765 -0.04209297 0.15895553

startBlock.1.running_var f4 [4]
000000 bb f7 49 3d 38 5d 5c 3d 71 17 27 3d 07 9d 8c 3d
       0.04930852 0.053799838 0.04079384 0.06865888

backBone.0.conv1.weight f4 [4, 4, 3, 3]
000000 e0 bd d6 3a 9a 5e 76 3c 7a 6a e0 bd 25 7d 28 3e
       0.0016383491 0.015037203 -0.10957809 0.16453989
000010 8e 78 07 be 4b 76 49 3d ef eb d1 3d bd df a4 3d
       -0.13229582 0.04918508 0.10250079 0.08050487
000020 47 d4 a9 bd 2b 76 57 be 15 bb da bd 3f 88 47 bc
       -0.08292442 -0.21041171 -0.10680214 -0.01217848
000030 7e 17 15 bd db 29 d5 3d eb 51 75 be 5a 71 90 bd
       -0.036399357 0.10408374 -0.2395703 -0.0705287
000040 18 d4 64 3e 4b 12 27 3e 9e cf 9a bd 1e 00 04 bd
       0.22346532 0.16315572 -0.07559131 -0.032226674
000050 3b ec 18 bd 65 03 3e 3e 11 76 8a 3c c5 4d 5e 3d
       -0.037334662 0.18555982 0.016902002 0.054273386
000060 5c c0 ad bd e9 2a 87 bc 5f 32 bf 3d fc 63 e6 bd
       -0.08483955 -0.016499953 0.093357794 -0.11249539
000070 da 94 a3 3d ab 81 08 3d 21 8e 87 bd 7b bd 63 3d
       0.079873756 0.033326786 -0.06618906 0.055600625
000080 d0 b1 68 bd e7 9f 6d bd 04 43 90 3d 43 bf 9b bc
       -0.0568102 -0.058013823 0.07044032 -0.0190121
000090 e4 3e 36 be dd 66 6a 3d 34 54 df bd 11 cf 7b bc
       -0.17797428 0.057227004 -0.10904732 -0.015369193
0000a0 3f d7 aa 3d 35 35 ab 3d cb ae 3c bd 90 5f 87 be
       0.08341836 0.08359758 -0.046065133 -0.26440096
0000b0 02 13 cd bd 3d 5d cb 3d 6f 14 e7 bd a7 60 98 bd
       -0.10013391 0.09929893 -0.11283194 -0.0744031
0000c0 79 d4 bc 3c 67 83 dc bd ea 0f 50 3d 2e 6d fa 39
       0.023050534 -0.107672505 0.050796427 0.0004776506
0000d0 60 cc 3a be 88 a4 89 3c 7b fc 69 3e d8 b8 df bc
       -0.18242025 0.016802087 0.2285022 -0.02730982
0000e0 5d 55 e7 bc 69 17 32 be ff a0 99 3d 31 7c eb 3c
       -0.028238947 -0.17391743 0.07501411 0.028745743
0000f0 b6 15 3a bd 79 90 7a bd f7 c0 d6 bc 85 07 48 bb
       -0.04543086 -0.061172936 -0.02621506 -0.003052206
000100 53 4e 1f be 23 75 fb 3d 62 33 9c 3d c6 ae 88 bc
       -0.15557222 0.122782014 0.07626988 -0.016684901
000110 e6 7e c4 3c 1e 9e f1 3d 11 9d 36 bd 73 ac 51 3d
       0.023986291 0.117977366 -0.044583384 0.05118985
000120 99 3d 24 3e 22 8f 3a bc d9 f7 d5 3d d7 58 80 3d
       0.16039123 -0.011386665 0.10447664 0.06266945
000130 d3 86 0d be 49 7e b9 3d 1d a1 29 bd 96 57 01 bd
       -0.13820963 0.0905729 -0.041413415 -0.03157767
000140 05 13 b7 bd ea b8 0b 3d d6 0f 5b bc a9 4d 36 3e
       -0.089391746 0.034111895 -0.013370475 0.17803062
000150 f1 e4 b2 bd 5f aa 31 3e 06 29 dd 3d 89 56 c7 3d
       -0.08735073 0.17350148 0.1079884 0.09733302
000160 ed 16 1b be 7c df 8e bd 1b f7 39 3e a5 a1 eb bd
       -0.15145464 -0.0697622 0.1816067 -0.115054406
000170 bf fa d7 3d bf 9c a5 3d 24 03 91 bc cb 95 74 bd
       0.10545873 0.080865376 -0.017701693 -0.059713166
000180 24 75 b5 3d 1a 4e 06 3e 97 ab 4c 3d 30 aa 40 bd
       0.088602334 0.13115731 0.04996833 -0.047037303
000190 a4 7d f6 bd 85 e9 88 3d a2 ea 2d be 43 ce c2 bd
       -0.12035683 0.06685165 -0.16984037 -0.095119976
0001a0 83 e2 b9 bd 9a c7 9d 3b bf 27 bf bd 2c f1 97 bd
       -0.09076407 0.004815054 -0.09333753 -0.07419047
0001b0 84 14 a8 3d 0d d9 b7 3d 21 42 f5 3d 1f 15 6a 3e
       0.08207038 0.08976946 0.11975504 0.2285962
0001c0 92 ce 4f be e3 fd 27 be 08 bd c9 bd f2 56 31 be
       -0.20293644 -0.16405444 -0.09850508 -0.17318323
0001d0 a3 9a 57 3e e0 82 d0 bb 39 21 49 3e 16 47 06 3e
       0.21055083 -0.0063632578 0.1964158 0.13113055
0001e0 dd 79 1d be 7f 04 09 be ce fc e6 3d 66 a6 1f 3c
       -0.15378518 -0.13380621 0.112786874 0.009744262
0001f0 54 cf b3 3c e7 2a 42 3d 69 3f 1d bd 3e 0e 03 3e
       0.021949448 0.047404196 -0.03839055 0.12798402
000200 81 10 c2 bd 37 f0 88 bc 5a bb d7 bc c8 36 b0 bd
       -0.09475804 -0.016716106 -0.026334453 -0.08604199
000210 84 b4 b8 bd 26 6c 5f 3c 57 2d c8 bb 93 f4 8c bc
       -0.090188056 0.013636624 -0.0061089206 -0.017206466
000220 01 df 41 bb 5b f7 ff 3d b5 c4 86 3d 3e 74 b7 3d
       -0.0029582384 0.12498351 0.06580488 0.08957718
000230 8f 8c 12 3d 2c af a6 bc eb e1 05 3e c1 94 cb 3b
       0.03577858 -0.0203472 0.13074462 0.006212801

backBone.0.conv1.bias f4 [4]
000000 76 4d 19 39 3b 47 24 39 5b 04 b3 b8 0b 96 e1 b7
       0.00014620073 0.00015666794 -8.5361964e-05 -2.689196e-05

backBone.0.bn1.weight f4 [4]
000000 b6 3f 79 3f f5 75 7f 3f 52 f2 75 3f 73 45 70 3f
       0.9736284 0.99789363 0.96072876 0.9385597

backBone.0.bn1.bias f4 [4]
000000 05 05 7c 3e 29 55 11 3e 62 94 87 3e 4e 3d 8c 3d
       0.2461129 0.14192642 0.26480395 0.068476304

backBone.0.bn1.running_mean f4 [4]
000000 d0 ec 6b bd 6b db da be 66 2c 12 3d aa 9c d5 3e
       -0.05759889 -0.42745528 0.035686873 0.41721088

backBone.0.bn1.running_var f4 [4]
000000 3f 68 8d 3e 29 ae 7b 3e ef 95 9b 3e 70 f9 c7 3e
       0.27618596 0.24578156 0.30387828 0.39057493

backBone.0.conv2.weight f4 [4, 4, 3, 3]
000000 05 08 ce bd 37 5d 19 bd a1 03 66 3d 96 be ac 3d
       -0.10060123 -0.037442412 0.056155805 0.08434789
000010 b9 8a 9a 3d bd 73 4c be 5b e1 7d 3c 30 29 33 3e
       0.075459905 -0.19966026 0.015495623 0.1749618
000020 e6 86 18 bb d6 c3 1c 3d 06 b2 6f bd 17 f9 94 3d
       -0.0023273765 0.0382727 -0.058519386 0.072740726
000030 4e c9 de 3d 0e 1d d5 bc b1 e5 94 3c a9 36 aa bd
       0.108782396 -0.02601483 0.018175932 -0.08311207
000040 57 08 06 3e fe 79 0e 3e 95 0a b5 bd 03 e6 b6 bd
       0.13089119 0.13913724 -0.08839909 -0.0893059
000050 31 04 38 3e be 38 f7 bd 9e b6 38 3d 88 a0 c3 3d
       0.17970349 -0.120713696 0.045096032 0.09552103
000060 22 a2 46 be 7b c5 fe bc fd 7a 94 bd a7 ce 06 bc
       -0.19397786 -0.031100025 -0.07250021 -0.008227981
000070 6c b3 12 3e 12 4a 94 3a 61 2a a7 3d f6 ca 2f 3c
       0.14326257 0.0011313579 0.0816238 0.010729542
000080 f9 15 83 bd 68 79 23 3e 65 c1 0c be f2 55 47 be
       -0.06400675 0.15964282 -0.13745649 -0.1946638
000090 73 e9 af 3c 6f 7b ad bc cb 76 b4 3d 5e c9 5c be
       0.021473622 -0.021177022 0.088117205 -0.2156119
0000a0 bd cc 2d bc c6 3d 78 bc 6f 4f 11 be 12 32 a9 3d
       -0.010607895 -0.015151447 -0.14190458 0.08261503
0000b0 6f 6b 71 3d b6 85 ca bd be c9 3a 3d 75 f4 2a be
       0.058940347 -0.098887846 0.045602553 -0.16694815
0000c0 a6 8b b8 3c 2a b8 aa 3c 2d 3c 05 be 0e ae 0f 3e
       0.022527527 0.02083977 -0.13011236 0.1403124
0000d0 95 67 91 3c 0c bc 12 3e 39 31 57 3e 39 54 1c be
       0.017749587 0.14329547 0.2101487 -0.15266503
0000e0 d4 89 98 3a c4 37 54 bd 58 59 65 3e 11 44 85 3d
       0.0011637756 -0.051810995 0.22397363 0.06507123
0000f0 25 77 fc bd c9 2e 8a 3d 2a b2 c1 bd 20 d2 8c 39
       -0.123274125 0.06747205 -0.0945781 0.00026859436
000100 94 af 3c bd 34 d4 6e 3b 33 58 7f 3d fe c9 ce 3d
       -0.04606588 0.00364424 0.062339973 0.10097121
000110 8d ef b0 bc 32 7a 58 be 83 a8 b5 bd b8 04 23 3d
       -0.021598602 -0.21140364 -0.08870032 0.039799422
000120 4c 98 99 3d 74 db 80 3d 01 ab d6 3c e9 ae 43 bd
       0.074997514 0.06291857 0.026204588 -0.04777423
000130 ee 27 2c 3e 17 2c 6d 3d 5f 17 ae 3d a7 e8 08 3d
       0.16812107 0.057903375 0.085005514 0.033425
000140 0d 20 28 3e 50 99 d2 bd e7 0c f5 3d 77 f4 bc bc
       0.16418476 -0.10283148 0.119653516 -0.023065789
000150 35 2f 07 3d 36 be b2 bd 99 d0 2c 3e 81 ae 61 be
       0.033004005 -0.08727686 0.16876449 -0.22039224
000160 7e 4b 49 bc 02 8f 0c 3e a7 89 69 3d 0f 48 df 3d
       -0.012286065 0.13726428 0.05701604 0.10902416
000170 b1 23 f4 3d 57 b8 b5 3c e4 f1 e4 bd 74 f9 f2 3d
       0.1192087 0.022182627 -0.111789495 0.11863986
000180 eb 7f 0a be 91 6c 4f 3d a9 a9 83 bd e8 35 aa 3c
       -0.1352536 0.050640646 -0.064288445 0.020777658
000190 29 49 78 bd 07 e3 1e 3b 35 ae c7 bc 3f 2e 24 be
       -0.060616646 0.0024244206 -0.02437506 -0.16033266
0001a0 30 a1 77 bd 9f ec e7 3d e5 a7 f8 bd 46 92 63 3e
       -0.060456455 0.11324429 -0.12141398 0.22223768
0001b0 8a d5 90 bd e4 c9 69 3e fb 8e 5c 3e 5f c1 f9 3d
       -0.07071979 0.22830921 0.21538918 0.12195086
0001c0 4d 8b 5f bd a7 22 38 3e 47 4d 93 3d 1a c2 b8 3d
       -0.054576207 0.17981969 0.07192474 0.09021397
0001d0 d3 d7 fb bd c8 f5 b2 bd a8 80 e8 bd 2b 64 2d be
       -0.122970246 -0.08738285 -0.11352664 -0.16932742
0001e0 66 50 aa bd 4f 21 25 bd 86 59 0e 3d 71 bd 08 be
       -0.08316116 -0.04031497 0.034753345 -0.13353516
0001f0 68 3f 33 be 21 6e 70 be b4 f8 0e 3c 32 8b 88 3d
       -0.17504656 -0.23479511 0.008726288 0.066671744
000200 9a 62 59 be b5 a0 9a 3c 6b d6 01 3e f6 c4 08 3d
       -0.2122902 0.01887546 0.1267945 0.03339096
000210 b2 26 1b 3d c9 49 fe 3d 9d fc b8 3d 3e f1 a3 bc
       0.0378787 0.12416417 0.09032557 -0.020012494
000220 f1 c0 90 3d 13 a6 28 bd 93 50 99 bd f4 e5 ff bd
       0.07068051 -0.041174006 -0.074860714 -0.12495032
000230 da 5b 68 bd 4e 45 89 3d e7 e7 5e 3e d2 b6 15 3e
       -0.05672822 0.06702672 0.21768151 0.14620522

backBone.0.conv2.bias f4 [4]
000000 6a 4a 36 b9 f7 8f 7f 39 0b fb 96 b8 e9 a4 b1 b9
       -0.00017384594 0.00024372326 -7.199318e-05 -0.00033882938

backBone.0.bn2.weight f4 [4]
000000 96 91 5c 3f aa 96 2f 3f 88 1e 4f 3f 4e ff 33 3f
       0.86159647 0.6858927 0.8090596 0.7031144

backBone.0.bn2.bias f4 [4]
000000 20 71 45 3e 00 6d 20 3f 22 db 95 3e 54 94 e7 3e
       0.19281435 0.6266632 0.29268748 0.45230353

backBone.0.bn2.running_mean f4 [4]
000000 2b 2d 9c 3c d7 59 2f bd 67 1b 98 3e 8b 94 19 3e
       0.019064507 -0.042810287 0.29708406 0.14998071

backBone.0.bn2.running_var f4 [4]
000000 ee a8 1c 3e 0a f0 11 3e 4b b1 01 3e b6 c6 b5 3e
       0.15298817 0.14251724 0.12665288 0.35503167

backBone.1.conv1.weight f4 [4, 4, 3, 3]
000000 19 1c 8d bc 69 84 34 bd 29 0f 82 bd 47 5f b8 3c
       -0.017225312 -0.04407159 -0.06350548 0.02250637
000010 56 fb fa 3d cc 6f 5d 3c 79 24 9e 3d 5c 80 7c 3d
       0.1225497 0.013515424 0.077218 0.06164585
000020 6f 2e 9d 3d 22 08 51 bd e1 bd c6 bd 55 b1 cb bb
       0.07674872 -0.051033147 -0.09704185 -0.006216208
000030 40 c3 65 3d 34 11 aa 3d a2 1c 4f be 5e d3 aa 3c
       0.056094408 0.083040625 -0.20225766 0.02085274
000040 0c a4 56 3d fc b2 01 bc df ac ac bd 3b be c2 bd
       0.05240254 -0.007916208 -0.0843141 -0.0950894
000050 fd 25 42 3d d7 6a 49 bd 1d 97 32 be f2 ef 09 3e
       0.04739951 -0.049174156 -0.17440458 0.13470438
000060 19 a2 0b 3d bc b4 96 3d 82 94 40 3d 0f 8c a9 bd
       0.034090135 0.07358691 0.047016628 -0.08278667
000070 7f 7c ef 3d 86 93 02 be 20 09 0e 3e 60 f3 6e be
       0.116936676 -0.12751588 0.13870668 -0.23335028
000080 aa 7e 8a bd 84 a5 e3 bd 6f 81 e5 3d fe a6 0f be
       -0.067624405 -0.11115554 0.11206328 -0.14028546
000090 50 4d b1 3c e5 22 57 be 67 59 1b 3e 2a d4 9d 38
       0.02164331 -0.21009405 0.15170823 7.525862e-05
0000a0 99 5c a1 bd a6 77 d2 bd 4b 82 10 be 13 b0 d9 3d
       -0.0787899 -0.102767274 -0.14112203 0.106292866
0000b0 49 ab 50 bc fa 9d b8 bc 21 4f 86 3c 34 00 e5 3d
       -0.01273615 -0.022536267 0.016395153 0.11181679
0000c0 02 3a b4 3d c4 3e 70 3e 4f 83 7d bc 25 0f 35 3d
       0.088001266 0.23461443 -0.015473201 0.044203896
0000d0 41 ad 37 3e d5 19 3c 3e a4 d9 ce bd e0 51 a2 bd
       0.17937185 0.18369229 -0.101001054 -0.07925773
0000e0 7f d7 04 be b8 cd 82 bc 34 66 dc bd 74 ab 0e bd
       -0.1297283 -0.015967235 -0.10761681 -0.03483148
0000f0 8a e1 46 bd 42 0a 14 be 3c 8b 12 bd 59 81 96 3c
       -0.048554935 -0.14457038 -0.035777315 0.018372225
000100 a0 3f 89 3c ce 1e 13 be 87 ee 07 bc c9 83 d7 bc
       0.016753972 -0.1436722 -0.008296615 -0.026307957
000110 c8 89 68 3d a1 ea 7e 3d 70 34 9f bc bf 8b 4d 3e
       0.056772023 0.06223548 -0.019434184 0.2007284
000120 22 b1 04 3e bb a7 eb 3d fd ca cc 3c 7b 20 5f 3e
       0.12958196 0.115066014 0.024999136 0.21789734
000130 74 1e 3d be 36 54 0e be 26 ad 09 bc 2d cd b0 3d
       -0.18468648 -0.13899311 -0.008403098 0.08632884
000140 27 92 a6 bd 16 af f3 3d 86 da 85 bd a9 82 24 be
       -0.08133345 0.11898629 -0.06535821 -0.16065468
000150 d0 05 06 3e 70 8b a4 3d 6e ee 48 3d c5 05 04 be
       0.13088155 0.08034408 0.04905551 -0.12892826
000160 7d 3b 9e bd d9 f3 2b bc 59 f3 70 3e 64 a2 f6 3d
       -0.0772619 -0.0104951495 0.2353033 0.12042692
000170 02 99 1c 3e 9a 96 b0 3d cb 46 aa bd 1f af 2d bc
       0.15292743 0.08622475 -0.08314284 -0.010600834
000180 00 df 8b 3d 75 d9 65 bd c9 db ea 3d 39 5b 75 bd
       0.06829643 -0.056115586 0.11467702 -0.05990145
000190 26 2b d1 3d 26 23 90 3d 79 17 9f 3c 4d af 95 bd
       0.10213308 0.07037954 0.019420372 -0.073088266
0001a0 2d 93 78 bd 28 ca 88 bd da d8 c4 bd c5 1f 04 3e
       -0.060687233 -0.06679183 -0.09611674 0.12902744
0001b0 0d 61 7b 3e 5b 9d 9d 3c 70 91 b3 bd 44 cf 08 3e
       0.2454874 0.019240072 -0.087679744 0.13360316
0001c0 ff 13 c1 3d 56 bf 0b be ba d1 be bd 9e 19 8b bd
       0.09427642 -0.13647208 -0.09317346 -0.067919955
0001d0 58 04 d5 bd 41 f7 6d 3e 0c dc 76 3d fc 3c 03 be
       -0.10401219 0.23238851 0.060268447 -0.12816232
0001e0 79 29 f8 bc e0 ae b2 bb 4b 1b 34 3d 9e bd 44 3c
       -0.030293213 -0.0054529756 0.04397134 0.012008099
0001f0 f4 4a 07 bd 7a 7a bb 3c e2 50 4c be a9 74 aa bc
       -0.033030465 0.02288555 -0.1995273 -0.020807581
000200 d8 f9 f7 bd 7b 50 5a 3e b6 23 e6 3d 1f 74 49 be
       -0.12108201 0.21319763 0.1123728 -0.19673203
000210 71 b2 3a bc b5 1e 3b 3c 0a b8 2b 3e 78 f4 d2 bb
       -0.011395083 0.011420895 0.16769424 -0.0064378344
000220 34 45 d7 bc b2 7c e0 3d 26 77 ec 3d 29 af 9d 3d
       -0.026278116 0.10961284 0.11546163 0.07699425
000230 9a 9b 44 3e 40 2a fa 3d de e1 a7 3d 99 84 8a 3d
       0.19199982 0.1221509 0.081973776 0.06763572

backBone.1.conv1.bias f4 [4]
000000 4a fa b8 38 fb bb 15 39 25 04 8a b8 14 5d 9c 37
       8.820424e-05 0.00014279775 -6.581125e-05 1.8639992e-05

backBone.1.bn1.weight f4 [4]
000000 f0 5d 75 3f 57 9f 72 3f cf ea 77 3f af 6c 7a 3f
       0.9584646 0.94774383 0.96842664 0.9782209

backBone.1.bn1.bias f4 [4]
000000 c6 9e 7e 3b e9 5a 5a 3e 6d 62 63 3e 95 0a 56 3e
       0.003885196 0.21323742 0.22205515 0.20902474

backBone.1.bn1.running_mean f4 [4]
000000 7e c2 06 bf b2 02 e6 3e 66 0a 05 3f 7e a5 8a 3f
       -0.5264052 0.4492393 0.5196899 1.0831754

backBone.1.bn1.running_var f4 [4]
000000 0e f9 e5 3e 56 dc 0e 3f 64 bc d8 3e 6a 3a 40 3f
       0.44916576 0.55804956 0.4233123 0.7508913

backBone.1.conv2.weight f4 [4, 4, 3, 3]
000000 2d 7e 3d 3d 63 93 ef bd f5 32 42 3e c1 62 75 3d
       0.04626291 -0.11698034 0.18964751 0.059908632
000010 07 a6 1d 3e 96 3c c3 3d 0f 08 43 be fe 7b a8 3d
       0.15395366 0.0953304 -0.19046043 0.08226775
000020 93 3b 74 3d 9a 49 be bc 6c 18 80 bd cd e6 bc 3d
       0.059627127 -0.023228455 -0.06254658 0.09223709
000030 80 ee ea 3d 65 c4 e0 3d 91 14 3a 3a 78 06 24 be
       0.114712715 0.10974959 0.00070984015 -0.16018093
000040 54 dd 90 3d f2 38 12 be d0 2c 4a 3e cf f9 70 3d
       0.07073465 -0.14279535 0.19743657 0.058831986
000050 44 53 4d 3e 88 bc 06 bc 05 5e a3 bd 2f 3b 2d be
       0.20051295 -0.00822366 -0.07976917 -0.16917108
000060 1c 47 b0 3d 87 fe 8c 3c e1 89 ce bd 94 fe da 3d
       0.08607313 0.017211212 -0.10084892 0.10693088
000070 c9 a0 07 be d8 2d cf 3b 0f 59 7e 3d c0 54 6b bd
       -0.13244928 0.0063226037 0.06209665 -0.05745387
000080 92 dc 7b 3d 2a 4c 1e 3a 1e 75 2e 3e 2a 09 43 3d
       0.06148965 0.0006038571 0.17036864 0.04761616
000090 4f ba 71 be 71 cb 31 bd 6d fc bc 3d 11 f0 ba 3d
       -0.23606227 -0.043406907 0.09227834 0.0912782
0000a0 cb 60 40 3d a1 d3 b1 3a 01 8a 98 3d 93 dd 38 3d
       0.04696731 0.0013567099 0.07448197 0.045133185
0000b0 9c b9 f1 3d 6a 0b 35 3e 13 3a d5 bc 0b d4 20 3e
       0.1180298 0.17680135 -0.026028669 0.15705888
0000c0 79 1f 34 3e e3 2f ca bd 06 39 96 bd 39 39 19 bd
       0.17590131 -0.09872415 -0.07335095 -0.037408087
0000d0 80 cb 42 3d 57 d0 d6 bc 32 5a 6e 3d ad 70 53 be
       0.047557354 -0.026222391 0.058191486 -0.20648451
0000e0 26 ec 0e 3e 21 40 ef bc e7 f8 9f 3c 15 90 10 be
       0.13957271 -0.029205384 0.019527866 -0.14117463
0000f0 ef e9 ef 3d cb 51 33 3d f8 67 1b bd d8 0c 8f b9
       0.11714541 0.043779176 -0.03794095 -0.00027284655
000100 e0 97 74 bd 8b e6 8a 3d 9f f6 48 3c fb ab 0a 3e
       -0.05971515 0.06782254 0.01226583 0.13542168
000110 a5 bd 83 3e c1 ff 01 3e 24 dc 53 3e 0b 6b 0f 3d
       0.25730625 0.12695219 0.20689446 0.035014194
000120 72 c9 ef 3d 4c c7 49 bd 52 1f b4 3c 45 85 23 3e
       0.117083445 -0.04926233 0.021987591 0.15968807
000130 96 b6 2d bd c7 5e ca 3d 70 e9 cb 3d 7c b9 d9 bc
       -0.042410456 0.098813586 0.09956634 -0.026577704
000140 a0 87 40 3d 34 ce e8 3d 73 0b 8e 3d f7 67 44 3d
       0.047004342 0.11367455 0.069357775 0.04795071
000150 07 b6 54 3d 81 9f 71 3d 5f ef 09 be f0 7b 3f 3d
       0.051931407 0.058990005 -0.13470219 0.046749055
000160 26 f9 de 3d a7 67 ad 3d 87 b5 f5 bd 54 29 0d 3e
       0.10887365 0.08467036 -0.11997514 0.13785297
000170 a3 af 89 3e 3a 58 4b 3e cd 6f 96 3c 97 82 e6 3c
       0.26891813 0.19857875 0.018363858 0.028138442
000180 a8 c6 37 be b2 7d 29 3c b8 41 21 3d 08 01 c0 bd
       -0.17946875 0.0103449095 0.039369315 -0.09375197
000190 de b6 e6 3b 93 76 96 bd 70 22 8c bd 19 88 0b be
       0.0070408424 -0.07346835 -0.06842506 -0.13626136
0001a0 f2 4a c8 bd 48 73 36 bd 5b 6b 67 3d bd 14 89 bd
       -0.0977992 -0.044543535 0.056498867 -0.06693409
0001b0 a0 2f 4f be 75 94 01 3e 86 cd 41 bd 55 19 01 be
       -0.20233011 0.12654288 -0.047315143 -0.1260732
0001c0 e3 85 34 be c9 ad 1a bb 8e 5a a1 3c e6 2e be 3b
       -0.17629199 -0.002360212 0.0196965 0.0058039306
0001d0 08 4a 2b 3e 77 5d 01 3e 7c ae d3 3d 92 a6 3c 3e
       0.1672746 0.1263331 0.10336015 0.18422917
0001e0 1f 43 07 3e a4 c6 ae 3c e0 83 3c 3e 43 1e c1 bb
       0.13209198 0.021334954 0.18409681 -0.0058935
0001f0 42 80 89 3c a9 ff 4d 3d 0f 00 68 bd 9c f5 87 bd
       0.01678479 0.050292645 -0.05664068 -0.06638643
000200 45 c8 e4 3d f5 61 6e 3d 04 18 dd bd 83 88 dd bb
       0.11171011 0.058198888 -0.10795596 -0.006760658
000210 08 f1 84 3d c7 60 00 bc e0 cb 1e bd 1f 27 2a 3d
       0.064912856 -0.0078355735 -0.03876865 0.041541215
000220 fc 91 e8 3d 6a 12 b5 3d b6 56 78 bc 13 a5 0b 3e
       0.11355969 0.08841403 -0.015157392 0.1363719
000230 2b 05 be bb b8 6e cd 3d 8d b8 51 be 6f 14 61 bd
       -0.005798956 0.100308836 -0.20480557 -0.054951128

backBone.1.conv2.bias f4 [4]
000000 1b 0b cc 38 ed 5c 48 3a 5a 96 51 37 79 ee 17 b8
       9.7295466e-05 0.00076432416 1.2492377e-05 -3.62233e-05

backBone.1.bn2.weight f4 [4]
000000 4a ad 53 3f 83 8b 63 3f 09 5c 79 3f 3f fe 39 3f
       0.82686293 0.88884753 0.9740606 0.72653574

backBone.1.bn2.bias f4 [4]
000000 7a d5 99 3d 95 c9 ec 3e 22 cb 62 3e 04 d0 db 3e
       0.075114205 0.46247545 0.22147802 0.4293214

backBone.1.bn2.running_mean f4 [4]
000000 f4 c4 ac 3e 79 35 06 3f de 8a 84 3e 2d 41 b3 3e
       0.33744013 0.5242534 0.25887197 0.35010663

backBone.1.bn2.running_var f4 [4]
000000 9d c8 13 3e 70 2f aa 3e 23 cf 0a 3e e0 3a bf 3e
       0.14431997 0.33239317 0.13555579 0.37349606

backBone.2.conv1.weight f4 [4, 4, 3, 3]
000000 37 79 23 bd 24 41 c4 3b ad 6b c2 bc 92 52 66 be
       -0.03991052 0.0059892107 -0.023732984 -0.22492436
000010 45 6c 38 3e be 5a 93 bb cc 14 0d 3e 51 d8 58 3e
       0.18010052 -0.0044969013 0.13777465 0.21176268
000020 f9 54 b7 3c 45 05 b4 bd 59 7e 58 be 45 3c 20 be
       0.022379385 -0.087900676 -0.21141948 -0.15647991
000030 1d dd 2b 3d a6 c1 f1 3c d8 55 78 bd b8 e8 0f be
       0.041958917 0.029511284 -0.060628742 -0.14053619
000040 a2 c7 26 bd 73 4f 16 be eb fc 99 bd c3 48 4e 3e
       -0.04071773 -0.14678745 -0.075189434 0.20144944
000050 d1 d8 48 3b 26 08 90 bd 3a 74 33 bd 0e be 5c bc
       0.003064681 -0.07032804 -0.043812014 -0.013473047
000060 0f ef 0e 3e 9e 84 74 bd 2e ba c5 bd 7e a6 33 bd
       0.13958381 -0.059696786 -0.096546516 -0.04385995
000070 f1 d7 36 3e 95 a3 c4 bb e2 c6 f6 bd e5 ba c3 3d
       0.17855813 -0.006000946 -0.12049653 0.09557132
000080 e8 7b 01 3e 4f 8a 8e bd c6 e9 45 3e d3 87 9f bc
       0.12644923 -0.06959974 0.19327459 -0.019473946
000090 17 3f d7 bd 49 fb a1 bd 6c 5a e1 bc f1 1a c4 3d
       -0.1051008 -0.07909257 -0.027508937 0.09575451
0000a0 41 0e 27 3e 68 a5 4e bd 47 c6 2f 3d 56 c1 2f bd
       0.16314031 -0.050450712 0.0429137 -0.04290899
0000b0 51 3c 84 3d 97 9a 40 be b4 b7 c0 3b 3c 90 13 3d
       0.06456817 -0.18808971 0.005881274 0.036026224
0000c0 78 c3 b4 3c 85 9c b7 3d c7 e4 1d 3d 2a f3 1b be
       0.022065863 0.089654006 0.038548257 -0.15229478
0000d0 ab 84 55 3d c1 d9 0f be 6a 1e 8a be ed 56 82 bd
       0.052128475 -0.1404791 -0.2697633 -0.06364236
0000e0 ef 3a 30 3c ef e3 32 be 50 fd d0 3d 06 6f 1d 3d
       0.010756238 -0.17469762 0.102045655 0.03843596
0000f0 e9 5f 00 bc 84 b1 8b 3e 40 0c 02 3e 84 1e 2c bc
       -0.007835367 0.2728387 0.12699986 -0.010505322
000100 23 0f 11 3e 8e fa 05 3c 08 28 b9 3d ad f6 34 3a
       0.1416593 0.008177413 0.090408385 0.00069032126
000110 59 4b fe 3c 50 38 9f 3d bf 7c e7 3d be a6 41 3c
       0.031041788 0.07774413 0.1130309 0.01181954
000120 87 3a 88 3d fd b0 c4 bd 01 48 18 3e 0d 2a e4 3d
       0.06651788 -0.0960407 0.14871217 0.11140833
000130 ff a7 0f 3e 4b 62 d9 bd 8a bf a4 bd e1 85 4e 3e
       0.14028929 -0.10614451 -0.08044346 0.20168258
000140 9c 71 48 bd ba 5d 0a 3e e0 a5 8c 3d dc 7d 7d 3d
       -0.04893647 0.13512316 0.06867576 0.061887607
000150 90 f2 57 3d d5 8d 01 bd a8 ee 8f bc 7e 7d f7 bd
       0.05272156 -0.031629402 -0.017569855 -0.120844826
000160 8f e4 ef 3d 39 9f 65 3d 9d c7 b6 bd 65 51 89 3d
       0.11713516 0.05606005 -0.08924792 0.06704978
000170 1c e1 25 3c 7d d2 9b 3c de 5c bf bd 93 ee 6f 3e
       0.010124471 0.019021267 -0.09343885 0.23430853
000180 f2 8d 40 3e 4a 2b 5a 3e 2d c3 53 3d 6b c4 a1 3c
       0.18804148 0.21305576 0.051699806 0.01974698
000190 53 0f e5 bc bd 67 c4 3d 1e 37 f8 3c c8 d4 56 be
       -0.027961409 0.09590099 0.03029972 -0.20979607
0001a0 71 6c 68 be 2f 66 a4 ba 0f 91 24 bc bd ce 21 be
       -0.22697617 -0.001254266 -0.01004435 -0.1580152
0001b0 2a 2a ac 3a a8 78 4f bc dd 08 f6 3d e8 fd f0 3d
       0.0013135124 -0.012663044 0.12013409 0.11767179
0001c0 65 ad 0b bd 82 ae 76 bd b0 70 09 bb 1c f2 ac bd
       -0.03410091 -0.060225017 -0.0020971708 -0.08444616
0001d0 fd b1 1a 3e f7 39 48 3d cf d4 65 be 4b 8d 89 bd
       0.1510696 0.048883405 -0.22444461 -0.067164026
0001e0 05 09 e3 3d 3a 82 8f 3d 12 49 2d be 59 44 c5 3d
       0.11085705 0.070072606 -0.16922405 0.09632177
0001f0 93 a5 0e 3a a0 9d 88 3d b9 c8 08 3e 4b 62 fd bd
       0.00054415426 0.066706896 0.1335782 -0.123722635
000200 bd c2 b4 bd a5 4a 4f be 54 e1 0f be c6 88 b2 3c
       -0.08826206 -0.20243318 -0.140508 0.021793734
000210 ba 7e c5 3d ff e8 fb bd 5a e6 11 3d 74 3d 95 bd
       0.09643312 -0.123003 0.03562007 -0.07287112
000220 42 2b ca 3d aa 39 d6 bd 1b 53 03 bd ab 9d c6 3d
       0.09871532 -0.10460217 -0.032061677 0.096980415
000230 fa 34 06 3e 06 29 09 be 8c d0 33 3d fd 2a 14 3e
       0.13106146 -0.13394555 0.043900058 0.14469524

backBone.2.conv1.bias f4 [4]
000000 e8 49 c0 b8 a1 b4 cf 38 63 63 8f b7 e5 c9 73 b7
       -9.1690395e-05 9.904174e-05 -1.7093209e-05 -1.4530936e-05

backBone.2.bn1.weight f4 [4]
000000 3d 20 64 3f 71 20 6d 3f 0a 07 80 3f 23 3f 7f 3f
       0.8911169 0.92627627 1.0002148 0.99705714

backBone.2.bn1.bias f4 [4]
000000 24 6f a5 3e da 5a 49 3e 5c 0e d9 3d e2 5a 3f 3e
       0.32311356 0.19663563 0.10598442 0.18687013

backBone.2.bn1.running_mean f4 [4]
000000 f8 0f 08 bf 4b 88 07 3f 75 cd 4f 3f a0 e5 18 be
       -0.53149366 0.5294234 0.8117288 -0.14931345

backBone.2.bn1.running_var f4 [4]
000000 8a 24 28 3f 84 bf 47 3f ca 47 57 3f 3d c0 32 3f
       0.65680754 0.78026605 0.84093916 0.6982458

backBone.2.conv2.weight f4 [4, 4, 3, 3]
000000 2c f9 21 be c7 a0 e2 bc 06 dd 0b 3e 06 49 4e 3c
       -0.15817708 -0.027664555 0.13658533 0.012590652
000010 56 54 15 3d 10 54 b8 bd 1c 85 99 3c 5b bc 24 bd
       0.036457382 -0.09000409 0.01874023 -0.040218692
000020 2e bd b0 bd f5 9b 04 3e 26 4d 97 bd 00 60 2f 3e
       -0.08629833 0.12950118 -0.07387762 0.17126465
000030 3f 9f 19 3e 7a b4 0f 3c 99 08 3a 3e 51 33 8c bc
       0.15002154 0.008771056 0.18167342 -0.017114313
000040 43 d3 ab 3c 14 e0 8e 3d e6 bd 40 be 4a fd 33 3d
       0.02097476 0.06976333 -0.1882244 0.043942727
000050 0a 12 77 bd 9d 29 ab bc 53 81 63 3b b4 00 1d 3e
       -0.060319938 -0.020893866 0.0034714534 0.153323
000060 50 c1 13 be 7a a5 8d 3d 2f d6 06 be b3 d3 36 be
       -0.14429212 0.06916328 -0.13167642 -0.17854194
000070 5b ec 95 3e 33 97 8f bc 62 41 92 3c 7e b5 47 3b
       0.29281887 -0.017528152 0.017853443 0.0030473168
000080 99 79 85 3c d9 8d af bb ad 6f 3d be 22 9f 72 3d
       0.016293334 -0.0053574857 -0.18499632 0.059233792
000090 9c 80 97 be 5d d9 be bd f8 0d 0f 3d ff 55 c9 bd
       -0.2959031 -0.093188025 0.03492543 -0.098308556
0000a0 3c bb a5 3d 60 40 35 3d e0 c7 ef bd 06 55 30 be
       0.08092353 0.044250846 -0.11708045 -0.17219934
0000b0 d0 59 ac 3d e1 ce d3 3c 39 b0 e0 bc a8 4c 64 3e
       0.08415568 0.025855483 -0.02742778 0.22294867
0000c0 7e ec 0b be 92 6e 14 be 32 64 16 3e 1b fd 46 bd
       -0.13664433 -0.14495304 0.14686659 -0.048581224
0000d0 1f 1d 7d bd 98 16 f9 3c ad de 3f 3d ca 5c 50 3d
       -0.06179535 0.030406281 0.04684322 0.05086974
0000e0 5b 6a af bd 53 ad 77 bd f9 ea 0c be c0 6b 7b 3d
       -0.085652076 -0.06046803 -0.1376151 0.061382055
0000f0 af 1b 52 3d 28 81 2c 3e b9 04 26 3e 89 28 cc 3d
       0.051295932 0.16846144 0.16212739 0.09968669
000100 aa fe 15 be 05 d9 64 bd 40 7f 3d 3e 60 43 c5 bd
       -0.14647928 -0.05587103 0.18505573 -0.096319914
000110 63 6d fe bd 1c e0 53 bd b1 22 03 bd 67 01 96 3c
       -0.124232076 -0.0517274 -0.032015506 0.018311216
000120 b8 3d 0b be 05 92 01 3e d2 40 87 3d bc 26 81 bc
       -0.13597763 0.12653358 0.0660416 -0.01576554
000130 dc 33 13 bc 9c df ec 3c 1d 59 8b 3d 96 dd 35 3d
       -0.008984532 0.028915219 0.068041064 0.044400774
000140 a3 f9 20 3c db 67 12 be b1 f8 a2 be 60 e2 60 bd
       0.009825143 -0.1429743 -0.3183036 -0.054903388
000150 58 10 9e 3b 30 51 0d be bf 3e c6 bd fc bc 06 be
       0.0048237257 -0.13800502 -0.096799366 -0.1315803
000160 2d 84 d5 3d 9f cc e8 3d 9c a9 7f 3d d1 d0 8b be
       0.10425601 0.113671534 0.06241761 -0.27307752
000170 f2 71 f9 3c 7d 01 83 3e 9d dd f2 3d 86 ab 1c be
       0.030449841 0.25587073 0.11858676 -0.15299806
000180 5d fc 8c 3d 3f d2 e3 bd 5f 76 00 3d 4b 4c 7f bd
       0.06884072 -0.11124086 0.031362887 -0.062328618
000190 93 53 8a bc 1e 4a 31 bc 08 09 81 3d 50 cf 08 3e
       -0.016885554 -0.010820894 0.06300551 0.13360333
0001a0 c1 12 b4 bb 35 58 b4 3c 90 24 f8 3d 95 d0 67 bc
       -0.0054953997 0.022014717 0.12116349 -0.014148851
0001b0 16 89 20 bd 8f 77 7e 3c 34 36 17 3e a5 f1 b4 bc
       -0.039193235 0.015531435 0.1476677 -0.022087881
0001c0 cf ff 91 3d c1 6b 0a be 94 1f 0f 3d e4 1f 01 be
       0.0712887 -0.13517667 0.034942225 -0.12609822
0001d0 7e 2a be 3d cf 4a db bd 35 4a cc bd 3c fb b3 bd
       0.092854485 -0.10707628 -0.09975091 -0.087881535
0001e0 68 fa 8c 3c 6a 06 ff bd ca 1f b9 bd b0 8a 69 bd
       0.017209247 -0.12452395 -0.090392664 -0.05701703
0001f0 cb 0a dd bb 59 40 ed 3d 86 12 87 3d 8a aa 80 bc
       -0.0067456714 0.11584539 0.0659533 -0.01570632
000200 1f 41 a3 bd 33 3a 99 bd 6f 9b d6 bd cb 7f 03 be
       -0.07971405 -0.07481804 -0.10478865 -0.12841718
000210 fb a3 08 3e 61 e8 23 bd a0 17 92 3c e3 5b 7c 3e
       0.13343804 -0.040016536 0.01783353 0.24644427
000220 71 48 90 bd 63 ce b7 3d 4a 37 ff 3d 77 ae 26 3e
       -0.07045067 0.08974912 0.124617174 0.1627749
000230 f2 25 33 3d ef 88 63 be 03 9a 65 3c 4b 35 a4 3d
       0.04373736 -0.22220205 0.01401377 0.08017977

backBone.2.conv2.bias f4 [4]
000000 5b 8f e6 38 81 ff c2 b8 f3 1d 9e 39 ea 45 17 b9
       0.00010993957 -9.298232e-05 0.00030158422 -0.00014426527

backBone.2.bn2.weight f4 [4]
000000 c2 65 50 3f fc bc fb 3e dc c7 86 3f 38 e8 bf 3e
       0.8140527 0.4916762 1.0529742 0.37481856

backBone.2.bn2.bias f4 [4]
000000 ce a0 10 3e 60 c2 a3 3e 47 05 2b 3e 64 85 6b 3e
       0.14123842 0.31984234 0.16701232 0.23000103

backBone.2.bn2.running_mean f4 [4]
000000 7c 12 a8 3d 34 4c 8d be fc 55 eb bd 43 22 9a bd
       0.082066506 -0.275972 -0.114910096 -0.07526066

backBone.2.bn2.running_var f4 [4]
000000 69 68 1d 3e b4 28 06 3e 37 02 60 3e 74 6e 2a 3e
       0.1537186 0.13101465 0.21875845 0.16643697

backBone.3.conv1.weight f4 [4, 4, 3, 3]
000000 30 cb 13 3d 23 68 74 bd 5f b3 8b be 6d 1f 03 3e
       0.036082447 -0.059669625 -0.27285287 0.12804957
000010 83 e5 3f be 00 76 84 bd 26 14 5e bd 07 3f a0 3c
       -0.18739896 -0.06467819 -0.054218434 0.019561304
000020 67 24 bb 3d 64 71 51 bd d7 f8 38 3e 34 de 78 3d
       0.091378026 -0.05113353 0.18063675 0.060758784
000030 fc b7 52 3d b1 b8 05 3d 2b fb ea bd c9 95 24 3e
       0.051444992 0.03264684 -0.11473688 0.16072764
000040 c0 a6 51 bc b5 23 82 3e b3 d3 6a be 3c af cf 3d
       -0.012796104 0.25417867 -0.2293232 0.10140845
000050 9c 90 0d 3e 62 f2 06 be 9b 18 02 bd b6 49 9c bd
       0.13824695 -0.13178399 -0.031761747 -0.07631247
000060 56 e4 3b 3d 37 42 9a 3c ef 20 c2 bd 38 60 4a bd
       0.045872055 0.018830402 -0.09478938 -0.049408168
000070 57 93 1a be ce 51 21 bc e1 22 9b 3d cc 3a b5 bd
       -0.15095268 -0.009846164 0.07575012 -0.08849105
000080 3a 8f d3 3c 58 ce 22 3d 19 a9 3c 3d 1f 68 bb 3d
       0.025825132 0.039747566 0.0460597 0.09150719
000090 de fc 5e 3e c5 01 80 3d de 76 99 3d 48 f5 b2 bd
       0.21776149 0.062503375 0.07493375 -0.0873819
0000a0 82 64 f7 3c b3 c4 95 bd 42 d2 81 bd 22 11 e0 bb
       0.030199293 -0.07312908 -0.063389316 -0.00683798
0000b0 80 59 de 3d 72 ab e7 bd 24 a1 57 be a3 b1 67 3e
       0.108569145 -0.113119975 -0.21057564 0.22626357
0000c0 57 3a 05 3e 0f a7 13 be 7e 3b 46 3d 6a c8 a6 bc
       0.13010536 -0.14419197 0.04839658 -0.020359237
0000d0 55 7f b0 3d cd 02 fb 3d 98 96 d4 bb 4c 73 94 bc
       0.08618037 0.122563936 -0.0064876787 -0.018121384
0000e0 91 09 e7 bd c8 98 f4 bc d0 77 11 3e 1a ca 8e 3d
       -0.112811215 -0.029858008 0.14205861 0.069721416
0000f0 f9 46 8a 3b fe b8 39 bd 50 f1 41 bd 3d ec c7 3d
       0.0042198864 -0.045342438 -0.047349274 0.09761856
000100 65 5b 88 3d c5 2e 7e 3d 77 6d f2 3d 6b 74 8f bd
       0.06658057 0.06205632 0.11837285 -0.07004627
000110 51 06 e3 3d b3 81 f0 bd 82 bb fd 3c c4 e5 5f 3d
       0.11085189 -0.11743488 0.0309732 0.05466248
000120 7f 45 d7 bd f2 d6 d2 bc 12 f2 19 3d 5d 17 23 be
       -0.10511302 -0.02573726 0.037584372 -0.15926881
000130 a0 fb 8d 3e bd dc df bd 4b 4a 73 3d 53 06 08 3e
       0.27731037 -0.10930774 0.059397023 0.13283662
000140 c1 ab 84 3c 7f 3f ef bd b5 31 8f 3d ce d5 2a be
       0.01619518 -0.11682033 0.06991903 -0.16683123
000150 24 9f cb 3c 66 dd c6 bd 5f 63 8f 3b f4 58 19 be
       0.024856158 -0.09710197 0.0043758596 -0.14975339
000160 ac 90 05 3e 04 b6 fa bd a3 f0 43 3b bc 20 25 bc
       0.13043469 -0.12241748 0.002989807 -0.010078605
000170 b1 75 fe bd ee 82 9e bc e5 a9 7b 3d 54 ea dd 3d
       -0.124247916 -0.019349542 0.06144132 0.1083571
000180 77 6d 03 be 4c 4c 50 bd 5a 42 2b 3e 33 d1 d9 3c
       -0.12834726 -0.050854012 0.1672453 0.026589012
000190 2e ea ce bd ab 6d 48 3d 7a f5 22 3e 70 b5 fb bd
       -0.1010326 0.048932713 0.15913954 -0.12290466
0001a0 12 7e 94 3d 5e 50 3d 3e 1f ac 9d 3d ff fc 41 3e
       0.072506085 0.18487689 0.07698845 0.18944167
0001b0 06 91 b2 bc 51 32 bc bd 56 be 22 3d ea 30 27 bb
       -0.021797668 -0.091892846 0.0397323 -0.0025511333
0001c0 12 91 ed 3d 3b b1 8d 3d 69 06 6f 3e ff bb a0 3a
       0.115999356 0.0691857 0.23342289 0.0012263058
0001d0 32 83 28 be 0e a2 ae 3c ed fd 79 3d a7 a0 7e be
       -0.16456297 0.021317508 0.061033178 -0.24865972
0001e0 60 d9 23 3e a5 68 d5 3d db f7 85 bd 03 82 38 3e
       0.1600089 0.1042035 -0.06541415 0.18018346
0001f0 57 dc 49 be 4c 95 cf bd fc c9 c7 3d 8f 34 86 3d
       -0.19712959 -0.10135898 0.09755322 0.065529935
000200 3f 91 20 3b df 02 d0 bd 15 ef 4e 3d 35 35 c0 bc
       0.0024500636 -0.101567976 0.050520975 -0.023462871
000210 1e d7 a7 bd 61 2d 66 3d e8 1c 23 3d 69 23 dc bd
       -0.08195327 0.05619562 0.03982249 -0.107489415
000220 4c 56 21 3d 9d 83 1a 3d dd 01 10 3e 25 91 14 3d
       0.03938894 0.037723172 0.14063211 0.036271233
000230 af 9e 1b 3e d4 51 f4 3d 6f 43 b7 bd 5b df 14 be
       0.15197252 0.1192967 -0.08948409 -0.14538328

backBone.3.conv1.bias f4 [4]
000000 93 7e 44 b7 03 da 17 37 a0 4d e6 b7 ba 01 4d b8
       -1.1711981e-05 9.051061e-06 -2.7454284e-05 -4.8877417e-05

backBone.3.bn1.weight f4 [4]
000000 0d c9 6b 3f ac ba 83 3f bf 1a 86 3f 5c 67 5a 3f
       0.92103654 1.0291343 1.0476912 0.85313964

backBone.3.bn1.bias f4 [4]
000000 77 3a d2 3d 74 6d 5e 3c 65 4a 1e 3e 76 6d 82 3e
       0.102650575 0.0135759 0.15458067 0.25474137

backBone.3.bn1.running_mean f4 [4]
000000 7d 71 78 3e 38 ec 92 3f 3f 28 a0 3e 20 1a 14 3f
       0.24262042 1.1478338 0.31280705 0.57852364

backBone.3.bn1.running_var f4 [4]
000000 1e d4 7b 3f 4c 46 9c 3f 14 ee 82 3f 34 19 79 3f
       0.9837054 1.2208953 1.0228906 0.9730408

backBone.3.conv2.weight f4 [4, 4, 3, 3]
000000 84 f3 3d 3e 8f e5 f8 bd 45 72 ff bd e3 52 34 be
       0.18549925 -0.1215316 -0.12472967 -0.17609744
000010 b2 af a3 bd 10 97 cf 3d 9e 7f b9 bc eb 5d 01 3e
       -0.079924956 0.10136235 -0.02264386 0.12633483
000020 62 76 db 3c c5 c8 fe 3b ac 35 ea bd 28 93 49 3d
       0.026789848 0.0077753984 -0.11436018 0.049212605
000030 85 4d 6f 3d c8 74 96 3e 10 64 82 bd 25 81 1c 3d
       0.058423538 0.29385972 -0.06366742 0.0382091
000040 82 27 9c 3d 6d ce 52 3d 30 c0 1b be ac e4 2c 3e
       0.07624723 0.051466394 -0.15210032 0.16884106
000050 51 49 5d 3d 04 eb 03 bc f5 09 23 3d 94 85 1f bd
       0.054024998 -0.008051638 0.039804418 -0.03894575
000060 6d 9f 4a be 96 58 4e 3e 57 97 c4 3d c3 ac 04 3e
       -0.19787379 0.2015098 0.09599178 0.12956528
000070 e7 bf b9 3d d6 d0 6b bd b6 c9 2d 3e 35 12 05 3e
       0.090698056 -0.05757221 0.16971478 0.12995227
000080 f0 a0 c6 3c e5 82 30 bb 98 37 1e 3e f3 73 99 bd
       0.024246663 -0.0026933488 0.15450895 -0.07492819
000090 04 7f ad 3c 7c 01 18 be ca e9 00 3c 5a e9 e5 3d
       0.02117873 -0.14844316 0.00786824 0.11226149
0000a0 57 cd 46 3c 2a 74 c6 3d c2 fc ac bd 52 9c 7c bd
       0.012133918 0.09690125 -0.08446647 -0.061672516
0000b0 46 61 ed 3c c8 12 7a be 9c 13 02 3e 14 0d f7 39
       0.028977048 -0.24421227 0.12702793 0.00047121255
0000c0 56 09 5b be 58 f6 9d bd e4 1d f7 bd 9d 75 0f be
       -0.2139028 -0.07713002 -0.12066248 -0.1400971
0000d0 32 40 1e 3e eb 7c 46 bd 57 ba ae bb 82 42 fe 3d
       0.15454176 -0.048458975 -0.005332272 0.12415029
0000e0 62 6b 5e be a7 0b fb 3d 64 cd 4f bd 71 24 04 3c
       -0.21720651 0.12258082 -0.050732985 0.008065329
0000f0 19 ab d1 3a 33 33 32 bd 5f 77 c2 bc 82 39 2d 3d
       0.0015996426 -0.04350586 -0.023738561 0.04229117
000100 bc af c2 bd 68 14 89 bd 52 e9 d5 3a 90 02 a3 be
       -0.09506175 -0.06693345 0.0016320145 -0.31837893
000110 c2 19 29 be 8a 70 9e bd 83 f6 c1 bb fd 2b 86 3c
       -0.16513732 -0.07736309 -0.005919279 0.016378397
000120 a7 e0 1b 3d 0b e9 c2 bc fb 4f 9b 3d 6e 92 96 3c
       0.038056042 -0.023792764 0.075836144 0.01838037
000130 73 14 41 3e 13 4c 81 3e 06 e3 12 bd c2 3b 34 3d
       0.18855457 0.25253353 -0.035861038 0.044002302
000140 5b f9 c2 3d 38 1f 02 3e e2 bb 31 3e cc e6 46 bd
       0.09520217 0.12707222 0.17356828 -0.04855995
000150 ec dc 1c 3c 6b 5a 17 be 89 76 28 be 90 9a dd 3d
       0.009574156 -0.14780585 -0.16451468 0.10820496
000160 47 4b a5 bc 06 05 fa 3d e4 05 9e bd 5e c8 99 3d
       -0.020177497 0.122079894 -0.07715967 0.0750892
000170 8a b6 af 3c 76 99 39 be ce d2 05 be 80 26 db bd
       0.021449346 -0.18124947 -0.13068697 -0.10700703
000180 fe a7 f5 3d a0 9c 69 bc 2e c6 c0 bd 8e c6 50 3e
       0.119949326 -0.014258534 -0.094128 0.20388243
000190 f9 02 35 bd cb 4b 06 be a2 61 98 bd 0f ee 17 3e
       -0.044192288 -0.1311485 -0.07440497 0.14836906
0001a0 27 ab f9 3d 31 75 a8 3c 51 0f a9 bc 2c 05 59 3d
       0.12190848 0.020563694 -0.020637186 0.052983448
0001b0 ea 8b 2b bd 89 4c 3d 3d 92 8e 6e bd 18 bb 25 bd
       -0.04188148 0.046215568 -0.058241434 -0.04046163
0001c0 54 2d ca bd 83 7e b4 3d 41 4a 98 3d 46 22 25 3d
       -0.09871927 0.08813193 0.07436038 0.04031589
0001d0 0a 0f 33 3e 7a 1f b8 bd 68 53 8e 3d 40 3d e0 bd
       0.17486206 -0.08990379 0.06949502 -0.109491825
0001e0 58 2d c3 bd 58 68 69 3c 6d c7 63 be eb 15 01 be
       -0.09530133 0.014246069 -0.22244044 -0.12606017
0001f0 60 b3 1e be e8 28 e4 bd 4a 33 ff bd 48 75 40 bd
       -0.15498114 -0.11140615 -0.124609545 -0.046986848
000200 eb a3 5d be 83 a9 cf 3d e3 a7 26 be f8 7b df bd
       -0.21644561 0.10139754 -0.16274981 -0.10912317
000210 ff f8 e1 bb c6 41 67 bd 15 1e 02 be 06 f8 71 3d
       -0.0068961377 -0.05645921 -0.12706788 0.059074424
000220 27 87 06 be 87 05 9b bd 15 62 50 3d 5f 47 16 be
       -0.13137494 -0.07569414 0.05087479 -0.14675663
000230 f1 3a ed bc 18 87 30 3c 4f 6e cb bc 07 93 11 3d
       -0.02895877 0.010774396 -0.024832873 0.035540607

backBone.3.conv2.bias f4 [4]
000000 48 94 df b8 25 87 b8 b9 31 48 86 38 08 09 24 b7
       -0.00010661088 -0.00035195905 6.4030646e-05 -9.7772645e-06

backBone.3.bn2.weight f4 [4]
000000 13 a0 55 3f 92 1d 47 3f 7c f1 46 3f 86 8e 32 3f
       0.8344738 0.77779496 0.77712226 0.69748724

backBone.3.bn2.bias f4 [4]
000000 e5 ee 10 3e 74 9e 5a 3e 85 d0 6e 3e 09 60 9e 3e
       0.14153631 0.21349508 0.23321731 0.30932644

backBone.3.bn2.running_mean f4 [4]
000000 2c ad d3 3e 67 60 0c bf 41 fd 76 3e 6c ae 36 bf
       0.41343057 -0.548346 0.24120046 -0.71359897

backBone.3.bn2.running_var f4 [4]
000000 76 81 60 3e 2c 56 c3 3e 90 bf 35 3e d7 43 16 3f
       0.21924385 0.3815168 0.17748857 0.58697265

policyHead.0.weight f4 [6, 4, 3, 3]
000000 df f4 ec 3d 6a bd 9c bd cc 0a 0d bd 45 59 14 bd
       0.11570143 -0.07653315 -0.034434125 -0.036217947
000010 4e 3e 68 3d ff 66 f8 3c 3a 02 c8 bc f3 41 05 bc
       0.056700043 0.03032255 -0.024415124 -0.008133399
000020 4b 7e ad 3c f0 6a 04 be 8a 3d 68 3e 95 d3 a4 3d
       0.021178385 -0.12931418 0.22679725 0.080481686
000030 8e 33 93 3e 9d a9 30 be e7 3b a8 bd c5 ea e7 bb
       0.2875027 -0.17252202 -0.082145505 -0.0070775473
000040 3d 1b 86 bd 70 21 f7 b7 5d 2a bc bd 7a ad 6e bd
       -0.06548164 -2.9460265e-05 -0.09187768 -0.05827091
000050 c6 78 f3 bd 6d 74 6b bc 48 67 6b 3c f3 d9 90 bc
       -0.1188827 -0.01437102 0.014367886 -0.017682051
000060 ab 76 d9 bc cd 18 28 3e 21 d6 b9 bd ae f0 36 3e
       -0.026545843 0.16415711 -0.09074045 0.1786525
000070 c1 d1 a0 bd 19 58 e0 3d 1b 39 d8 bd 3a 07 7a be
       -0.078525074 0.10954303 -0.10557767 -0.24416819
000080 43 e1 31 be c3 7d 5c be f8 4b 1b 3e a6 7e 65 3e
       -0.17371087 -0.2153235 0.15165699 0.22411594
000090 ba 23 93 bc e2 c4 30 bd 14 dd f6 3c c3 94 46 bd
       -0.017961372 -0.043156512 0.030134715 -0.048481714
0000a0 28 5b 1d 3e 15 1d 16 3d 4b 91 08 bc 80 7b 41 bd
       0.15366805 0.03664883 -0.008335422 -0.04723692
0000b0 9e 81 e6 bc 1f b6 b7 bd b7 1d c0 bd bd 27 06 bc
       -0.028137978 -0.08970284 -0.09380668 -0.008188185
0000c0 bf 0e 91 3d 1d 08 9d bd d0 d6 6e 3d 01 d6 db bc
       0.07082891 -0.07667563 0.05831033 -0.026835443
0000d0 c7 27 79 bd 01 22 0c 3c f6 c4 0a bc 09 fd 3d 3d
       -0.06082895 0.008553029 -0.008469811 0.04638389
0000e0 80 d6 91 3c 4f 4e d1 3d 51 12 99 bd 36 f9 22 bd
       0.017802477 0.10220014 -0.07474197 -0.039788447
0000f0 ad b6 37 3d 8e 2c 5a bd e4 61 ba bd c7 df 0c 3e
       0.044851948 -0.053265147 -0.091007024 0.1375724
000100 a1 5c fd bb ec 62 03 be 08 9d df bd 8e 27 8f 3e
       -0.0077319895 -0.12830704 -0.10918623 0.27959865
000110 26 77 98 3e 67 ed d9 bd 9c ba b6 3d f1 7c 20 bd
       0.29778403 -0.10640984 0.08922312 -0.039181653
000120 7a 12 c2 bb 5f e9 08 3e 8b da 17 3d 38 2d b4 3c
       -0.0059226127 0.13370274 0.037073653 0.021994218
000130 76 0a bb bc dd 11 6d bb 99 fc c4 bb f4 8e 1b 3d
       -0.022832137 -0.0036173977 -0.0060115573 0.037978128
000140 d8 82 24 bd c5 82 56 bd 5e 4b 06 bd 7a bf 1d 3d
       -0.040163845 -0.052370805 -0.03278672 0.038512684
000150 08 7c 03 3e d5 a6 92 3e 43 72 cd bd 21 82 9d 3d
       0.12840283 0.28642908 -0.10031559 0.07690836
000160 5f 32 e1 bd 88 c0 30 3d 1c 1a 5e bc d1 64 4d bd
       -0.10995936 0.043152362 -0.01355603 -0.050144974
000170 4a 8c a6 3d 80 0b 8a bd 18 71 ad 3c fb c4 1e bd
       0.08132227 -0.06740475 0.021172091 -0.038762074
000180 89 03 0d bd dd d0 8e bd 13 e8 24 3c 74 55 4a 3e
       -0.0344272 -0.06973431 0.010065096 0.1975916
000190 7a ff 6a be f1 b4 e5 bd f3 4e 3e be 51 72 70 3e
       -0.22949019 -0.112161525 -0.18584804 0.23481108
0001a0 c5 9c 6a bd 8a 81 18 be bf 33 42 3e 9a 82 d9 bd
       -0.057278413 -0.14893165 0.18965052 -0.106206134
0001b0 1f 74 7f 3d 75 b1 00 be 30 69 b0 3c c6 e9 b6 bc
       0.0623666 -0.12567694 0.021534532 -0.022328269
0001c0 94 5c d8 3d f8 a7 2c 3e e6 a1 90 bd 99 43 64 bd
       0.10564533 0.1686095 -0.0706213 -0.05572853
0001d0 f2 51 80 bd 88 5b 29 be 43 d1 2e 3e 22 4b 29 3c
       -0.0626563 -0.16538823 0.17072015 0.010332854
0001e0 44 ba 61 3d 61 36 20 3e 89 ab 32 be a7 e3 c6 bd
       0.055109277 0.15645744 -0.17448248 -0.0971139
0001f0 d9 e7 2b be 9c 7b 9f 3d 97 21 5a bd bd 19 f5 bd
       -0.16787662 0.077872485 -0.05325469 -0.119678
000200 36 7b c6 3d 7f 72 97 bc 44 24 23 3d 9a b6 d2 bd
       0.09691469 -0.018487213 0.039829507 -0.10288735
000210 e4 37 4d 3b c4 11 61 3d 93 10 51 3b 82 77 37 bd
       0.003131383 0.054948583 0.0031900748 -0.044791706
000220 22 dc 3e 3e 42 e7 1d be 49 42 10 3e ba cc 28 be
       0.18638662 -0.15420249 0.14087786 -0.16484347
000230 c9 1b 12 bd aa 22 bc bb f4 54 fc 3d b4 8a bb 3d
       -0.03567103 -0.005741437 0.12320891 0.09157315
000240 48 95 45 3d 6e 6b 83 bd cb 12 ea bb 28 c1 23 bb
       0.04823807 -0.06416975 -0.0071433536 -0.0024986956
000250 9a e6 e8 3d 2d c8 28 bd 08 dc 8c bd 70 ec 25 3d
       0.11372109 -0.041206528 -0.06877905 0.040508687
000260 ca 9e e9 3c 21 ba 4d bd 9d 73 5c 3d f5 8a 9d bd
       0.0285181 -0.050226334 0.053821195 -0.076925196
000270 83 cd c8 3d 5d b2 33 bb 6d 07 0b 3e 05 cd 17 bd
       0.09804823 -0.0027419545 0.13577051 -0.037060756
000280 a9 e6 d6 bc 34 90 00 bc 8c 42 2f bd 62 dd 8a bd
       -0.026233034 -0.007846881 -0.042788073 -0.06780507
000290 d7 b2 41 bc 75 53 c3 bb 84 cf e4 bc c6 a4 60 bd
       -0.011822424 -0.0059608766 -0.027930982 -0.05484464
0002a0 1b 88 56 bc 9f af d4 3a e2 f1 d9 3c 60 09 e4 bd
       -0.0130939735 0.0016226656 0.026604597 -0.11134601
0002b0 1c aa ee 3c a3 6c 2f 3e d9 fd fa bc 9e af f2 3e
       0.029133849 0.17131285 -0.030638622 0.4739961
0002c0 a8 e4 37 be e4 79 8b bc 3c e0 be 3c 9f bb b3 bc
       -0.17958319 -0.017025895 0.023300283 -0.02194005
0002d0 28 2f d0 3d ca d4 9a ba 30 39 02 3d d7 8e 0b 3c
       0.10165244 -0.0011812684 0.03179282 0.008517942
0002e0 a8 f0 9d bd b7 9d a8 bd 6d a5 a7 bc 48 6a 5e 3d
       -0.07711917 -0.08233207 -0.020464623 0.054300576
0002f0 80 84 6b bd 6f 94 02 be 34 61 69 bd d0 b3 ac bd
       -0.05749941 -0.12751935 -0.056977466 -0.08432734
000300 50 62 d3 3d e9 38 b2 bd 30 00 8e bd b6 48 c5 bd
       0.10321486 -0.08702261 -0.069336295 -0.09633009
000310 17 bc c0 bd 58 c8 ef bb 59 3d e4 bc 68 2c 4e 3d
       -0.09410875 -0.007317584 -0.027861284 0.050335318
000320 95 77 7d 3d e5 9e f6 bd 1a 78 ab bd 8a a2 dc bc
       0.06188162 -0.120420255 -0.08372517 -0.026932973
000330 d9 a0 c4 bd c0 64 2c bc ac ae b5 3d 50 1f a3 3e
       -0.09600992 -0.010522068 0.08871207 0.31859827
000340 df c5 4b be 6e 9f 14 3e 4f 2c 25 be 75 8f cc bd
       -0.198997 0.14513943 -0.16130184 -0.099883
000350 ee 9a 7b 3d 0f 33 8e 3e d4 15 84 bd b5 d0 b8 3d
       0.06142705 0.2777333 -0.06449476 0.09024183

policyHead.0.bias f4 [6]
000000 8b 63 09 38 ed 65 7c 38 9a f7 83 38 97 84 13 37
       3.2756052e-05 6.0176408e-05 6.292686e-05 8.792754e-06
000010 c3 e8 b3 b7 56 ec a6 b7
       -2.1446851e-05 -1.9898795e-05

policyHead.1.weight f4 [6]
000000 69 73 f8 3f 24 e4 04 40 61 84 eb 3f ac 06 f3 3f
       1.941022 2.0764246 1.8399774 1.8986411
000010 2a 56 ec 3f 4c aa f6 3f
       1.8463795 1.927072

policyHead.1.bias f4 [6]
000000 c3 ae 37 3f 7c c6 3d 3f a1 8e 37 3f 5d 9f 32 3f
       0.7175104 0.7413099 0.7170201 0.6977442
000010 50 14 1f 3f 6e 40 1a 3f
       0.6214037 0.6025456

policyHead.1.running_mean f4 [6]
000000 e5 54 d9 be 94 76 dd 3e 37 9d 8e 3e 50 e9 84 bd
       -0.42447582 0.4325453 0.2785432 -0.06489813
000010 90 a9 48 3f 06 b3 60 bf
       0.7838373 -0.8777317

policyHead.1.running_var f4 [6]
000000 f9 96 11 3f c0 e6 20 3f e8 3c 06 3f 24 9b e2 3e
       0.5687099 0.62852097 0.52436686 0.44258988
000010 a2 54 05 3f ca 90 10 3f
       0.52082264 0.5647093
