models/AZ-default/main.pt (torch, 26559 bytes, 57 tensors)

startBlock.0.weight f4 [3, 4, 3, 3]
000000 57 2f 1c be 30 ba 0c be 32 e5 08 3e 7f 6c e2 bd
       -0.15252434 -0.137429 0.13368681 -0.1105585
000010 29 69 d2 bd a5 c6 2b be 5b 2b 19 be 92 6b 01 be
       -0.10273964 -0.16774996 -0.14957945 -0.12638691
000020 05 63 43 be 06 58 85 bc 7b 58 8b bd 9f 3a 48 3e
       -0.19080742 -0.016277324 -0.06803986 0.19553612
000030 c7 1d 04 bd ba e6 27 3d 2f 67 1b bd 7e e6 8b bc
       -0.03225496 0.040991522 -0.0379402 -0.01707768
000040 2b e2 68 3d 53 20 33 be 33 6e 2a 3e a7 ca 1e 3e
       0.056856316 -0.174928 0.166436 0.15506993
000050 0d 94 af 3d e7 a9 b6 bd 90 31 81 be f4 a0 8c bd
       0.0857316 -0.08919125 -0.25233126 -0.06866637
000060 65 19 94 bd af c9 b5 bd e9 8e 80 bd f4 e9 7e bb
       -0.07231406 -0.08876359 -0.06277258 -0.003889677
000070 cc 38 57 3c 13 dd ee bb db 9b 8c bc 2e d0 8f bd
       0.0131361 -0.0072895377 -0.017164161 -0.07022129
000080 62 1a 7b ba a7 65 22 bd 85 04 c1 bc 96 94 13 be
       -0.00095788215 -0.039647724 -0.023561725 -0.1441215
000090 df b7 eb bd 69 96 20 3e d7 32 e0 bc 17 3d 62 bd
       -0.1150968 0.15682377 -0.027367992 -0.05523404
0000a0 f3 c4 30 bc 30 54 f0 3d 02 ad 14 3e c1 87 36 3d
       -0.010789144 0.117348075 0.14519122 0.04456306
0000b0 b2 44 66 3d 9e c1 d9 3d b4 71 33 b9 d9 94 74 bc
       0.056217857 0.10632633 -0.00017113128 -0.014928066
0000c0 2a c6 0c bb ce 76 80 bc c9 95 a2 bd 46 40 21 bd
       -0.002148042 -0.01568165 -0.079387255 -0.039367937
0000d0 65 75 96 bd 44 78 52 bd c2 78 65 bd 76 3d 39 be
       -0.0734661 -0.051384225 -0.056023367 -0.18089852
0000e0 08 be a6 be fb e6 99 3d f9 61 9d 3d 45 a9 72 3e
       -0.32566857 0.07514759 0.076847024 0.23697384
0000f0 96 8d 7d bd ad ae a4 3c 39 04 ac 3e 76 ba 07 bd
       -0.061902605 0.020102823 0.33596972 -0.033136807
000100 9b 3c c4 bc 75 fa 69 bd 12 72 c5 bc bb 11 09 3d
       -0.02395468 -0.05712362 -0.024102245 0.033464175
000110 a0 c5 22 3d 5b 3f e9 3c ed 38 b1 3d 28 32 cb 3d
       0.03973925 0.028472593 0.08653436 0.09921676
000120 bf da 0a 3e 77 4c 16 bd 25 b8 4a 3e ba 06 b2 3d
       0.13560008 -0.036694016 0.19796808 0.08692689
000130 57 1d 3c bd b6 66 54 bd 2f 8b df 3d e7 bf 28 3e
       -0.04592642 -0.051855765 0.10915219 0.16479455
000140 a2 9c d4 bc 9a 67 6b 3c 11 62 a1 3d 14 a3 c5 3c
       -0.025953595 0.014367962 0.07880033 0.024125613
000150 55 dd 91 3c 22 ba 24 bd 02 28 19 3b 73 9d 3f bc
       0.017805735 -0.040216573 0.0023369794 -0.011695254
000160 9a 41 9e bc 3a 0e 32 bc 66 41 af 3d df 7c 5e 3e
       -0.01931839 -0.01086765 0.08557396 0.21727322
000170 1a 18 74 3d 9c 91 fb 3b f8 49 b9 be 88 c3 5e bd
       0.059593298 0.00767727 -0.36189246 -0.054385692
000180 d7 4c 03 3e 7b ea e6 bc 5f 6d 4e be e5 19 c3 bc
       0.12822281 -0.02818798 -0.2015891 -0.023816058
000190 1b d3 41 bd bd ec d6 39 c4 b9 6c 3c 6a 05 3c bd
       -0.047320466 0.00040993645 0.014448587 -0.0459036
0001a0 1e 4c 41 bd e5 0a d4 bb 60 8f 09 3d fd d3 1e 3c
       -0.04719173 -0.0064710253 0.033584 0.009694097

startBlock.0.bias f4 [3]
000000 1e 16 85 b6 8f 9b a5 b9 37 8d 64 39
       -3.9662837e-06 -0.00031587153 0.00021796381

startBlock.1.weight f4 [3]
000000 56 9a 81 3f 13 99 7f 3f 64 8d 88 3f
       1.0125225 0.9984295 1.0668149

startBlock.1.bias f4 [3]
000000 87 ef ef bc d7 85 5b 3d 5f a1 87 3d
       -0.02928902 0.053594436 0.06622576

startBlock.1.running_mean f4 [3]
000000 aa 5c cd be 11 f1 b7 3d 87 07 5e 3d
       -0.4010976 0.08981527 0.054206397

startBlock.1.running_var f4 [3]
000000 98 fa 11 3e 16 be a0 3d 3c 2b 77 3d
       0.1425575 0.07848756 0.060343966

backBone.0.conv1.weight f4 [3, 3, 3, 3]
000000 a7 42 31 3e 0f c2 2b be c3 e6 9c bd 5e ff f2 3c
       0.17310582 -0.16773246 -0.07661202 0.029662784
000010 f4 d8 ea bd ce d4 89 3d d0 dd 05 3e 99 b2 0d 3d
       -0.11467162 0.067300424 0.13072896 0.034594152
000020 13 3b 2a 3e 2c 81 ed 3d c9 28 9c bd fd 43 08 3d
       0.16624098 0.11596903 -0.07624967 0.033267964
000030 c6 47 75 bd 0d 95 b5 bd 5e 66 62 3d 73 5a a4 bd
       -0.0598829 -0.0886632 0.055273406 -0.08025064
000040 17 06 7a 3d 3a d9 21 bd 3d 26 af 3d ca 3b fd bd
       0.061040964 -0.039513804 0.08552215 -0.123649195
000050 80 25 53 3e 54 cd f1 3d 1a cc 60 bc fb 9c f7 bd
       0.20619774 0.11806741 -0.013720537 -0.120904885
000060 98 5c 35 3e 16 54 5d be 68 a4 e7 bd a4 ce 3c bd
       0.17711103 -0.21614107 -0.11310655 -0.046095505
000070 35 e5 fd 3d 39 47 09 3e cd 3e 83 3c 1f 3f 5a 3d
       0.123972334 0.13406076 0.016021157 0.053282853
000080 58 bc fe bd e7 f0 3d be 18 79 1d 3d 0d db 28 be
       -0.124382675 -0.18548928 0.038445562 -0.16489811
000090 e7 be 42 be a2 6e ca 3b 63 6a c2 bd 9a 31 a5 3d
       -0.19018136 0.0061777392 -0.09492948 0.08066101
0000a0 f5 0c 31 be e2 85 86 3c 5a f9 4d be e2 0b 0a 3e
       -0.17290099 0.016421262 -0.20114651 0.13481095
0000b0 ef a3 93 3e 20 a8 f4 bd 89 3c 32 bd da 27 17 bd
       0.2883601 -0.1194613 -0.043514762 -0.03690324
0000c0 48 c5 90 3c a9 3b 68 be 41 ca 2c 3d 08 09 d8 3d
       0.017672196 -0.22679009 0.04218507 0.105485976
0000d0 7d 6f e2 bd e3 d2 ec bd f6 a6 5a 3e 0d e8 ce bd
       -0.11056421 -0.11563661 0.21352753 -0.10102854
0000e0 eb fe 7c 3e a1 90 be 3d 17 1f 24 3e ed 04 8a bc
       0.24706618 0.093049295 0.16027485 -0.016848052
0000f0 54 17 18 be 9e d7 39 3d eb f5 9c bd 3d d8 ca bd
       -0.14852649 0.045371644 -0.07664093 -0.099045254
000100 0a 0d 6b bd 1f ec a1 bd 51 30 cb bc 42 b3 23 be
       -0.057385482 -0.07906365 -0.024803312 -0.1598635
000110 a0 9b 7c bd 6c 63 09 bd 90 9c 15 bd 1b e2 d1 bc
       -0.061671853 -0.03354208 -0.036526263 -0.02562051
000120 e8 72 20 3e 0f b6 20 be 7c b8 1f bd fe 8a 07 bb
       0.15668833 -0.1569445 -0.038994297 -0.002068221
000130 dd 70 05 bd bf 57 ee bd c1 de fc bc b0 48 5b be
       -0.032578338 -0.1163783 -0.030867936 -0.21414447
000140 5b 1d e9 bd
       -0.11382552

backBone.0.conv1.bias f4 [3]
000000 32 8e 5f 38 2e c0 a6 39 2d 32 e4 b8
       5.3299773e-05 0.00031805172 -0.00010881233

backBone.0.bn1.weight f4 [3]
000000 b3 e1 76 3f 01 1d 80 3f 95 97 85 3f
       0.9643814 1.0008851 1.0436884

backBone.0.bn1.bias f4 [3]
000000 e7 4a 60 bd f2 25 57 3c 6e 65 4f 3d
       -0.054758932 0.013131605 0.05063384

backBone.0.bn1.running_mean f4 [3]
000000 9d 22 a1 bd 22 dc 95 be 09 cb 90 be
       -0.0786793 -0.2926951 -0.28279904

backBone.0.bn1.running_var f4 [3]
000000 7e e2 91 3d 0e b7 0a 3e ba 01 40 3e
       0.07123278 0.13546392 0.18750659

backBone.0.conv2.weight f4 [3, 3, 3, 3]
000000 fd e7 d0 bd 3e 04 34 bd fe 47 fa bd 82 18 f1 3d
       -0.10200498 -0.04394936 -0.12220763 0.117722526
000010 4b f5 f9 bd c6 c5 47 3e a0 09 a9 3d e1 f7 90 3d
       -0.12204989 0.19509038 0.08253789 0.07078529
000020 28 18 3a be 5b 4f d1 bc 02 dd 13 be 5f 52 1e be
       -0.18173277 -0.025550535 -0.14439777 -0.1546111
000030 f9 e6 6c 3e ba 68 82 3c f9 c6 99 bc 99 d1 42 3e
       0.23134984 0.015919078 -0.018771635 0.19025268
000040 24 bc 2d 3d 5b 9c 40 bd 16 8c dc bd 3c 60 5e be
       0.042415753 -0.047024112 -0.10768907 -0.21716398
000050 cf 2a 27 be f2 80 b6 bd 31 b5 c0 bd 2d c6 4b 3d
       -0.16324924 -0.08911313 -0.094095595 0.049749542
000060 b5 af 33 bd d6 12 9d bd 97 af ed 3d 5f 8e 22 be
       -0.04386874 -0.07669608 0.11605757 -0.15874623
000070 09 5d 93 3d 68 90 fd 39 85 e9 4c bd 2d d8 88 3c
       0.071954794 0.0004836351 -0.05002739 0.016704643
000080 e1 91 71 3d b2 f3 23 3e b9 4c 62 be bd 14 28 3e
       0.05897701 0.16010931 -0.2209958 0.16414161
000090 c1 fb 54 bd 67 c4 0d 3e 4a 4a 27 3d 7e 23 5c 3d
       -0.051997904 0.13844453 0.040842332 0.053744785
0000a0 dc 41 15 3e ab 4a 9b 3d 8d ee 3a be 4e 40 c6 bd
       0.14575905 0.07582601 -0.18255062 -0.09680234
0000b0 d5 f8 08 3e d2 43 19 bd 75 50 2f 3e 08 79 f4 3d
       0.13376172 -0.037418194 0.17120536 0.119371474
0000c0 ca c4 08 be e8 e2 57 bd b4 d2 bd bd 7c 63 77 bb
       -0.13356319 -0.05270663 -0.09268704 -0.0037748506
0000d0 77 70 0c 3e de 6c 55 3e 1c dd 2f bc 64 13 09 3e
       0.13714777 0.20842311 -0.010733869 0.13386303
0000e0 8f 07 31 3e 1d d2 74 3c 34 ca 2b be 1c c7 d5 3d
       0.1728804 0.014942673 -0.16776353 0.10438368
0000f0 db cd 00 3e ae 1e 14 bc 5f b6 15 be 42 61 48 be
       0.12578528 -0.009040518 -0.1462035 -0.19568351
000100 90 a7 80 3d 3e e4 5a 3d 5a 8b 65 3e 90 21 08 be
       0.0628196 0.053440325 0.2241644 -0.13294053
000110 97 dc 13 bd c9 97 19 3e 35 e5 fd bd a5 7a 29 3e
       -0.036099043 0.14999308 -0.123972334 0.16550691
000120 cd f4 3f 3e 6c e2 cf bc 37 b3 b2 3c 08 d1 70 3e
       0.18745728 -0.025376521 0.021813972 0.23517239
000130 75 0e f1 3d 23 d3 c4 bd e1 e6 29 3e 95 c8 81 3b
       0.117703356 -0.09610584 0.1659198 0.003960679
000140 35 56 01 bd
       -0.031576354

backBone.0.conv2.bias f4 [3]
000000 5c 42 86 b7 cf 75 6b 38 ae 7e 91 b9
       -1.6004946e-05 5.6138084e-05 -0.0002775094

backBone.0.bn2.weight f4 [3]
000000 2e 84 7e 3f 8a 27 82 3f 43 c5 82 3f
       0.9942044 1.0168316 1.021645

backBone.0.bn2.bias f4 [3]
000000 96 7e 2b 3d 43 69 00 bd f4 2a 81 3d
       0.04186877 -0.031350385 0.06307021

backBone.0.bn2.running_mean f4 [3]
000000 65 61 0b be 89 ba 42 3e 56 48 e8 3d
       -0.13611372 0.1901647 0.11341922

backBone.0.bn2.running_var f4 [3]
000000 cf dc ca 3d c3 56 9c 3d 09 07 f6 3d
       0.09905397 0.07633736 0.120130606

backBone.1.conv1.weight f4 [3, 3, 3, 3]
000000 44 56 7e 3d c0 39 1a 3e 0b 4f 4e 3e f8 54 07 3e
       0.062093988 0.15061092 0.2014734 0.13216007
000010 9b 61 35 be 71 d3 53 be c0 f0 83 be 5f 9a 0b bc
       -0.17713015 -0.20686127 -0.25769615 -0.008520692
000020 70 46 98 3d fb 85 17 3e a5 d4 3d 3d 10 74 45 bd
       0.0743531 0.14797203 0.04634537 -0.04820639
000030 37 d7 07 be 40 80 a0 3c e7 7d f6 bd 9a 06 eb bd
       -0.13265692 0.019592404 -0.12035733 -0.114758685
000040 32 e6 1e ba 34 68 58 3e 27 92 44 be ba 5b 2a be
       -0.00060615235 0.211335 -0.19196378 -0.16636553
000050 66 fe ed 3d 29 e3 22 be be 6f bf 3d 1c 46 9e bd
       0.11620788 -0.15906967 0.09347485 -0.07728216
000060 6e 9d 18 3d 5a 3d 70 be 0d 18 ec bd 17 b0 ef 3d
       0.03725951 -0.23460904 -0.11528025 0.11703508
000070 48 39 1f 3e 9c 90 28 be 93 87 b7 bd dd cc 3d 3b
       0.15549195 -0.16461414 -0.089614056 0.002896122
000080 02 10 c5 bb d4 f5 87 bc 5a e3 46 3e 95 10 8d bb
       -0.006013871 -0.016596712 0.19422665 -0.0043049552
000090 3f ec 90 3d a1 89 4b bd be 49 58 be d5 9c fd bd
       0.0707631 -0.0496918 -0.2112188 -0.12383429
0000a0 52 c0 c2 bc f3 83 14 3e d8 65 cd 3c f4 2c cc bc
       -0.023773346 0.1450346 0.025072977 -0.02492378
0000b0 58 d2 b0 3d 5d ac 06 3e c8 d9 35 be 11 bd 0e bc
       0.0863387 0.13151689 -0.17758858 -0.008712069
0000c0 37 60 ec bd 2c f6 bd 3b b3 ea 08 3e 80 e4 1c 3d
       -0.11541789 0.0057971682 0.1337078 0.038303852
0000d0 ac 63 46 bd 02 71 19 3e 90 0b 90 3d 61 97 0c 3e
       -0.0484349 0.14984515 0.07033455 0.13729621
0000e0 63 18 20 3e 28 f6 d8 bd 0a 92 38 bc 60 4a 4e 3d
       0.15634303 -0.105938256 -0.011265287 0.0503639
0000f0 91 11 87 3d 67 4a de bd a2 b2 30 be 7d a5 71 3e
       0.065951474 -0.10854035 -0.17255643 0.23598285
000100 ee 9f c2 bd 00 34 90 3d 3e 94 2d be 1f bb 13 3e
       -0.095031604 0.07041168 -0.16951081 0.1442685
000110 93 c3 d2 3d 62 d7 15 3d 68 61 99 3d 00 02 ee bd
       0.10291209 0.03658236 0.07489282 -0.11621475
000120 78 c8 84 3c 7b de 46 bd e9 e4 c7 bd 2d 0b 18 3e
       0.016208872 -0.048552018 -0.09760458 0.14848013
000130 9c 74 50 be 1c 41 2f 3e 99 c6 f0 bd e8 6e 02 3e
       -0.20356983 0.17114681 -0.117566295 0.1273762
000140 24 e0 a3 bd
       -0.08001736

backBone.1.conv1.bias f4 [3]
000000 ee 33 8a 37 9a 27 80 38 30 b3 fc 37
       1.6475064e-05 6.110892e-05 3.0124182e-05

backBone.1.bn1.weight f4 [3]
000000 98 6e 88 3f 95 cd 80 3f a9 1d 62 3f
       1.065875 1.0062739 0.8832651

backBone.1.bn1.bias f4 [3]
000000 e9 33 69 3d 32 a4 92 3d df de 01 be
       0.05693427 0.07160224 -0.12682675

backBone.1.bn1.running_mean f4 [3]
000000 7e 59 d5 be 00 dc a2 3d 5a 8c 34 3e
       -0.4166984 0.07952118 0.17631665

backBone.1.bn1.running_var f4 [3]
000000 10 e3 68 3e ac 69 28 3e 6c 1b 43 3e
       0.22742867 0.1644656 0.1905343

backBone.1.conv2.weight f4 [3, 3, 3, 3]
000000 78 5a fd 3d 94 aa 56 bd e7 ff 15 be 18 3a eb 3d
       0.12370771 -0.05240877 -0.146484 0.1148569
000010 ff d5 51 be f7 c3 8e bd 82 19 a0 3d 32 1a bf 3d
       -0.2049179 -0.06970971 0.07817365 0.09331168
000020 d1 33 79 3d 87 df 48 3b 89 1a 59 be 0d ba a6 3d
       0.06084043 0.003065081 -0.21201529 0.08140955
000030 8a 61 cf bc e4 a7 4c be 54 ad d4 3d 9d 44 4e be
       -0.025315065 -0.1998592 0.10384622 -0.20143361
000040 c9 33 61 3d 95 3d c3 3d 94 09 1d 3d 35 c5 c3 3d
       0.054981027 0.0953323 0.038339213 0.09559099
000050 73 29 d8 bd cd 9c ff bb a7 f1 9c bb 99 fa 33 be
       -0.10554781 -0.0078006745 -0.0047895494 -0.17576064
000060 e6 29 d7 3d e9 6a cd bd c2 3a 30 3d 50 2a 9c 3b
       0.10506038 -0.10030157 0.043024786 0.004765786
000070 7f 7a 5d be 6c b6 bc 3d af 1c f2 3d 5c 7d fb 3d
       -0.2162876 0.09214482 0.11821877 0.1227977
000080 6b c0 2d be dd 9c 34 be 0a 6f 4e 3d 20 b8 93 3b
       -0.16967933 -0.17637964 0.050398864 0.0045080334
000090 c8 f1 aa 3d 3c ba 3d 3d ae 03 19 3e 6c 48 11 be
       0.08346897 0.046320185 0.1494281 -0.14187783
0000a0 67 7e 4b 3d 0f 7c e6 bd 65 de 52 be 1a ec 36 3e
       0.049681094 -0.11254131 -0.2059265 0.17863503
0000b0 76 d7 0c 3d 25 23 80 3c 74 63 11 3e 2e 3e 8b bd
       0.034385167 0.015641758 0.14198095 -0.06798969
0000c0 09 c8 6b 3d 42 15 6a 3d 04 18 a1 3d fe 13 59 be
       0.057563815 0.05714918 0.07865909 -0.21199033
0000d0 54 a3 ed bc bf 12 58 3d 93 30 00 3c 50 b2 a6 bd
       -0.029008545 0.052752253 0.007824081 -0.08139479
0000e0 44 1b 1b 3c 29 ee 83 bd 96 e0 68 be 5f 63 60 3b
       0.00946695 -0.0644191 -0.22741923 0.0034238917
0000f0 c4 8c ce 3d bd 1e 52 3e f3 a6 c0 bd 83 1a 49 be
       0.10085443 0.20519538 -0.09406843 -0.1963902
000100 53 77 de 3d 88 07 fa bd e5 35 1d 3d 5c df d8 bd
       0.10862603 -0.12208468 0.038381476 -0.105894774
000110 cc 81 9b bd 4a 65 43 3d 4b 62 b2 3d 3e 80 ca 3b
       -0.07593116 0.04770402 0.08710154 0.0061798384
000120 db 95 cc bd 86 61 f0 3c 9a 64 2f 3d 96 e9 10 3c
       -0.0998952 0.029343378 0.04282055 0.008844754
000130 d6 22 22 3d 0e fc 62 3d 37 bd a9 bc 3b f5 31 be
       0.039584003 0.05541616 -0.020720107 -0.17378704
000140 3d b0 f3 bc
       -0.029747123

backBone.1.conv2.bias f4 [3]
000000 bf 2d 1e b8 b5 3c 10 38 93 f5 14 ba
       -3.771274e-05 3.4388813e-05 -0.00056823454

backBone.1.bn2.weight f4 [3]
000000 ba 7d 7c 3f 5b 95 5e 3f 89 f7 76 3f
       0.98629344 0.8694665 0.9647146

backBone.1.bn2.bias f4 [3]
000000 2a 87 1b bd 17 7c 0a 3d 40 73 c5 bb
       -0.0379707 0.033809748 -0.0060257018

backBone.1.bn2.running_mean f4 [3]
000000 9b 2d 3e be 90 1a 20 3d 20 e3 f9 bd
       -0.18572085 0.039087832 -0.12201524

backBone.1.bn2.running_var f4 [3]
000000 80 52 e0 3d 27 00 0f 3e 2c ce d3 3d
       0.109532356 0.13964902 0.103420585

backBone.2.conv1.weight f4 [3, 3, 3, 3]
000000 b7 cd a7 bb 35 8c db 3c e8 53 8f 3c 16 7d d2 3d
       -0.0051209587 0.026800254 0.017496064 0.102777645
000010 ff 34 9b bd 6f 88 d0 3c 9e d8 b2 bc b0 14 46 3d
       -0.075784676 0.025455682 -0.021831807 0.048359573
000020 70 e1 6f be c1 35 15 3e 6d a2 eb bd 44 14 30 bc
       -0.23425841 0.14571287 -0.1150559 -0.010747019
000030 4f a6 f7 bd 6d ae a8 bd b8 23 ed bd 1e b2 52 3d
       -0.12092268 -0.08236394 -0.115790784 0.051439397
000040 74 ec 45 be e9 64 90 bd 6e 59 fa bc 68 4b be bb
       -0.19328481 -0.07050497 -0.030560222 -0.005807329
000050 98 f1 10 3c d6 69 e6 bd 91 56 b3 3c 18 71 46 3e
       0.008846663 -0.11250655 0.021891864 0.1937908
000060 91 db 10 3e a6 76 44 3e 6b f2 55 3d 32 41 25 be
       0.14146258 0.19185886 0.05223314 -0.16138151
000070 b4 88 86 3e 31 7e a6 3d 7d 43 cb bd 53 f0 2c be
       0.2627617 0.08129538 -0.09924982 -0.16888551
000080 0a 27 23 bd 71 17 71 bd 00 83 06 3d 8a 14 96 3d
       -0.039832152 -0.058860246 0.032839775 0.07328136
000090 7c 45 1f 3e 8b 04 33 be 43 3b 2a bd a1 5a 14 3d
       0.1555385 -0.17482202 -0.041560423 0.036219243
0000a0 72 ef 9d b9 67 6e 7b bd 5c d8 19 be ab 50 1c be
       -0.00030123774 -0.061384585 -0.15023941 -0.15265147
0000b0 f3 45 94 3d 59 48 0f 3e 35 8c db bd e0 c8 10 3e
       0.07239904 0.13992442 -0.10720102 0.14139128
0000c0 fe f5 11 be a6 f9 7d 3d 21 bc a4 bd 05 54 90 b9
       -0.14253995 0.06200566 -0.08043695 -0.0002752842
0000d0 35 f4 00 be ce b7 55 be e2 c6 61 3e d6 ca a1 3c
       -0.12593158 -0.20870897 0.22048524 0.01975004
0000e0 b4 ec 21 be 2d 6c 57 3d 70 29 99 3d 4f de 12 3e
       -0.15812951 0.0525934 0.07478607 0.14342616
0000f0 a5 ff 37 3e 23 23 0e be 50 58 2d 3e 2b 80 4b be
       0.17968614 -0.13880591 0.1692822 -0.19873111
000100 36 c0 fa 3d f8 bf d3 bc 0a 66 0a be f5 37 36 3e
       0.122436926 -0.025848374 -0.13515487 0.17794783
000110 a0 45 0d bd 97 da 6e 3d b0 dc 1a be e9 c4 a9 3d
       -0.034490228 0.058313932 -0.15123248 0.08289511
000120 ab 7d 63 3e f7 f9 54 bd ae 77 e6 bd 93 3d 15 3d
       0.22215907 -0.051996198 -0.11253296 0.036435675
000130 10 ec 6d bd dc 44 16 3e ba 2c 71 bc ce 7c 1d 3e
       -0.058086455 0.14674705 -0.014720136 0.1537964
000140 79 46 02 be
       -0.12722196

backBone.2.conv1.bias f4 [3]
000000 08 1f 82 b8 22 d7 2e 37 a9 da 7f b8
       -6.204663e-05 1.0421298e-05 -6.100038e-05

backBone.2.bn1.weight f4 [3]
000000 2e 74 79 3f 92 bc 80 3f 79 ed 83 3f
       0.974429 1.0057547 1.0306846

backBone.2.bn1.bias f4 [3]
000000 f1 f0 d5 3c 3d bc 60 bb b9 30 0d bd
       0.026115866 -0.0034291886 -0.034470294

backBone.2.bn1.running_mean f4 [3]
000000 c5 29 9e bd 72 29 da be fc 57 a5 3e
       -0.07722811 -0.42609745 0.3229369

backBone.2.bn1.running_var f4 [3]
000000 71 a1 69 3e dc c3 b5 3e 14 20 6f 3e
       0.22815491 0.3550099 0.2335208

backBone.2.conv2.weight f4 [3, 3, 3, 3]
000000 03 03 bb bd b3 f2 a1 bd 84 d4 03 3d 42 34 f4 3b
       -0.09131434 -0.07907619 0.032185093 0.0074525187
000010 ce cf 31 bd 45 6d 2d be bb d5 0e bd f8 46 df bd
       -0.04341107 -0.16936214 -0.034871798 -0.10902208
000020 90 a5 7e 3e 6b a3 8c 3c b1 e3 9a bc ef 85 d4 bd
       0.24867845 0.017167768 -0.0189074 -0.10377108
000030 63 e5 43 bc d0 ca 83 3d 2d 92 81 bc 5b 4f 11 be
       -0.0119565455 0.06435168 -0.015816772 -0.14190428
000040 59 51 91 3d e3 4d 04 be 29 19 49 be d3 83 16 be
       0.07095594 -0.12920336 -0.19638504 -0.14698724
000050 48 cf 01 3e 85 4a db 3d a4 ec 70 3e ac 1f 20 be
       0.12676728 0.10707573 0.23527771 -0.15637082
000060 73 85 f9 3c ee 9d 97 3d b9 22 38 3e cc 34 ad 3c
       0.030459141 0.074031696 0.17981996 0.02114334
000070 fd c4 01 3e c7 c4 55 bd 93 62 8a 3d f2 08 91 3d
       0.12672801 -0.052189615 0.06757083 0.07081784
000080 e8 22 80 3d 7c ce e2 bd 29 1f 7e bd 0f 47 1c be
       0.06256658 -0.1107454 -0.062041435 -0.15261482
000090 8c 35 d2 3c e5 c3 2e bd bf 72 93 bc c5 a7 e8 bd
       0.025660299 -0.04266729 -0.017999051 -0.113601245
0000a0 45 98 87 3d fb 75 b1 bd 74 10 d0 3d b1 fd ab bd
       0.0662084 -0.08665081 0.10159388 -0.08397997
0000b0 08 52 8e bd 60 2f 02 3d eb 2f 35 be c7 ac 60 3e
       -0.0694924 0.03178346 -0.1769406 0.2194091
0000c0 b4 c2 28 bd 4c 47 23 bd ed f7 1f 3e 75 29 f7 bd
       -0.04120131 -0.039862916 0.1562192 -0.12068454
0000d0 7d 96 a9 3c ec 00 ef 3d 21 8f 8f 3c 1d e1 2a 3e
       0.020701641 0.11670098 0.017524304 0.16687436
0000e0 ea 30 9b 3d a2 bc 4d 3e 8c 0e f3 bd 09 37 08 bd
       0.07577689 0.20091489 -0.11868009 -0.03325561
0000f0 13 ef a3 3d 75 56 ce 3d c0 33 76 3e 22 a3 1f be
       0.08004584 0.10075084 0.24043179 -0.15589574
000100 27 fd 79 be b5 1c 3a be ec e3 97 3d 02 15 09 be
       -0.24412976 -0.18175013 0.074165195 -0.1338692
000110 cb 84 71 3d b5 3b d6 bd a0 b8 2f be 0c 60 ff 3b
       0.058964532 -0.10460607 -0.17160273 0.007793432
000120 e8 1f 9b bd 9a b6 90 bd 28 86 f2 bd 24 fb 19 be
       -0.07574445 -0.070660785 -0.118419945 -0.15037209
000130 60 c7 2c 3c ab cf bb bd 41 1c 1c be ab 2c 6c bd
       0.010545582 -0.09170469 -0.15245153 -0.057659786
000140 11 fb d7 bd
       -0.10545934

backBone.2.conv2.bias f4 [3]
000000 4f 2a 4c b9 7f 97 35 38 50 f3 af b5
       -0.00019470717 4.3294855e-05 -1.3109329e-06

backBone.2.bn2.weight f4 [3]
000000 bd 18 86 3f 5e 61 7f 3f 1d b4 78 3f
       1.04763 0.99757946 0.9714983

backBone.2.bn2.bias f4 [3]
000000 ca 05 82 bd 8c 77 0c 3d 2a 69 92 3d
       -0.063487604 0.034293696 0.07148965

backBone.2.bn2.running_mean f4 [3]
000000 66 09 83 bd 63 1c 94 bc e9 5c 3f be
       -0.06398277 -0.018079942 -0.18687786

backBone.2.bn2.running_var f4 [3]
000000 d4 15 bf 3d b2 f6 88 3d 71 f6 ae 3d
       0.09330335 0.066876784 0.08543099

policyHead.0.weight f4 [6, 3, 3, 3]
000000 62 86 cd bd 26 bd 11 bd f5 f3 5b 3e 4d 48 c2 3d
       -0.10035397 -0.035580777 0.21479781 0.094864465
000010 a4 39 85 bd 5e 45 9b bc 12 44 f8 3d 44 ff 22 be
       -0.06505135 -0.018953975 0.121223584 -0.15917689
000020 17 89 25 3e 34 0a b8 bb 53 08 61 be c0 55 7c 3d
       0.16165577 -0.0056164507 -0.21975832 0.061605215
000030 d3 0c f0 3d ee 95 45 3e 4f 57 70 bd 39 e9 07 bd
       0.11721196 0.19295475 -0.058677014 -0.033181403
000040 fd 23 94 bd 2d bf c2 3d bc c8 3d bb 05 83 08 3e
       -0.07233427 0.0950912 -0.0028958758 0.1333123
000050 42 6f 74 bd c4 98 dc bd 7c 4e 8b bc 92 d3 03 be
       -0.059676416 -0.10771325 -0.017005198 -0.12873676
000060 d4 9c 26 3e af f0 9d bd cb c8 15 bd 87 62 96 3d
       0.16270763 -0.077119224 -0.036568444 0.07343011
000070 e1 58 13 3e 1e ce 9a 3b af 1a d0 bd 73 05 2a be
       0.14389373 0.004724278 -0.101613395 -0.16603641
000080 17 2d 0a 3b cb 1b 0d 3d ef 7a 79 ba 93 f8 6c 3d
       0.0021084005 0.034450334 -0.0009516915 0.057854246
000090 62 01 8b be 99 c1 99 bd 19 51 03 bd 05 b9 c9 bd
       -0.27149493 -0.07507629 -0.032059763 -0.09849743
0000a0 df f6 59 bd 5e d9 aa be 4d de 93 be be c0 42 3e
       -0.05321395 -0.33368963 -0.2888054 0.19018838
0000b0 9a c9 03 be 23 33 91 bd eb 35 ab bd 44 47 b9 bd
       -0.12869874 -0.07089832 -0.083598934 -0.09046796
0000c0 d5 ba e5 3c d5 d3 f6 bd 81 ad 4d bc 65 6e 04 3d
       0.02804319 -0.120521225 -0.012553574 0.032331843
0000d0 16 7b bc bd 56 bb 65 bd 35 68 3c 3e 24 d1 70 bd
       -0.09203164 -0.05608686 0.18399127 -0.058793202
0000e0 67 cf e0 bd 42 53 8a 3d a1 4c 1a be e1 09 d4 3d
       -0.10977059 0.067541614 -0.15068294 0.10353447
0000f0 01 a2 a8 bd 6c 9f 2a 3d c4 82 eb bc 23 06 db 3d
       -0.08234025 0.041655943 -0.028748877 0.1069453
000100 19 81 18 3e 03 1c 12 be 5e f5 75 bd 4e f6 63 be
       0.14892997 -0.14268498 -0.060048454 -0.22261927
000110 af 1a 31 3d 7f b9 b3 bc d0 66 97 bc 90 f3 c1 3d
       0.043238338 -0.021939037 -0.018481642 0.09470284
000120 2c a2 c3 3d c7 fa 80 be 9e db 3b 3e ec 36 f2 3d
       0.09552416 -0.25191328 0.18345496 0.11826882
000130 ae de 06 be 89 63 51 bd d2 f4 f3 bd 36 e4 33 3e
       -0.13170883 -0.051120315 -0.1191193 0.17567524
000140 08 00 cf ba 68 47 b5 bd d7 9e 80 bd ed 70 9c 3d
       -0.0015792856 -0.0885151 -0.06280296 0.076387264
000150 a5 fb 64 be e9 61 72 bd ef fe 7d 3d 5e 0a dd 3d
       -0.2236162 -0.059175406 0.0620107 0.10792993
000160 11 ed 84 bd b4 6a 94 bd 0b 0e 95 3c 4d 94 db bd
       -0.06490529 -0.072469145 0.018195173 -0.107216455
000170 7f 79 0e be 9e cc f1 bd a8 32 33 3d 34 7e f6 3d
       -0.13913535 -0.11806606 0.04374948 0.1203579
000180 e0 c8 d3 3d 5a e3 54 3e f6 08 58 be ba bf 12 3e
       0.10341048 0.20789853 -0.21097168 0.1433095
000190 b6 43 97 3d 70 cd 48 bd 75 ef e8 3b e1 e2 8f 3e
       0.07385962 -0.049024045 0.0071086236 0.28102782
0001a0 1a 80 90 bd 62 61 13 be 71 e5 e8 3d 17 2e 58 3c
       -0.070556834 -0.14392617 0.113718875 0.013194582
0001b0 6b 5e 10 3d 9c f9 f7 bc 61 0c ae bd 1d 0e f5 3d
       0.035246294 -0.03027039 -0.08498455 0.119655825
0001c0 e2 12 43 3d d7 0c d0 bd 5b f8 b7 3d 2b 6f 90 3d
       0.04762543 -0.10158699 0.08982917 0.070524536
0001d0 82 bf 61 3e 72 44 3d 3d 1f 2d 1b 3c ec 74 36 be
       0.2204571 0.046207853 0.009471207 -0.1781804
0001e0 c0 60 0e be 7a 21 8d bc e9 c4 0a 3e 97 a1 5e bd
       -0.13904095 -0.017227877 0.13551678 -0.054353323
0001f0 ed c9 64 be 28 16 a1 bd 72 71 a8 3c 02 d9 34 3e
       -0.22342654 -0.07865554 0.020561907 0.17660907
000200 26 8d ae 3d a7 6c 54 3d cb 8f b4 bd 86 16 79 3e
       0.08523016 0.05186143 -0.08816489 0.24324998
000210 16 5f 7e bd c4 ed 7f 3e d7 a1 64 bd 4f 2c 68 bb
       -0.0621024 0.24993044 -0.055818405 -0.00354268
000220 34 01 30 3e 6b 23 21 be 22 29 66 bd 51 79 d4 3d
       0.17187959 -0.15736167 -0.05619157 0.10374702
000230 8d 35 4f be 85 82 1a be 31 78 0a be 61 60 43 be
       -0.20235272 -0.15088852 -0.13522412 -0.19079734
000240 da f5 52 be 34 ea 2f bd 6d 07 8b 3c 52 0d 1f bd
       -0.20601597 -0.042947963 0.016971314 -0.038831063
000250 0d a4 be 3c f9 58 1e bd 7c ef 24 be 7c c7 6e 3e
       0.023271585 -0.03865907 -0.16106981 0.23318285
000260 b3 17 a3 3d bd 13 59 bd 18 d2 15 3d 0b e6 ad bd
       0.07963505 -0.05299734 0.036577314 -0.08491143
000270 1a f0 1b 3e 94 91 da 3d 6c e7 4f bd 87 c3 4a bd
       0.1522831 0.10672298 -0.05075781 -0.049502876
000280 21 3f db bc dc ef 38 3d
       -0.0267635 0.045150623

policyHead.0.bias f4 [6]
000000 61 64 bc b6 c7 16 09 37 0c 4a cb 36 a8 32 ea 37
       -5.6145223e-06 8.17114e-06 6.0584916e-06 2.7918562e-05
000010 9f d5 f6 36 ec b8 b0 36
       7.35624e-06 5.2667365e-06

policyHead.1.weight f4 [6]
000000 f0 86 c8 3f 0c e4 c4 3f 13 d4 c4 3f c8 99 c6 3f
       1.566618 1.5382094 1.537722 1.551568
000010 f0 1e bb 3f e6 f6 bf 3f
       1.4618816 1.4997222

policyHead.1.bias f4 [6]
000000 d8 dd de 3e 7a 44 db 3e 56 43 fa 3e e2 ae c3 3e
       0.43528628 0.4282568 0.48879498 0.38219362
000010 17 ee dd 3e 17 e7 c0 3e
       0.4334571 0.37676308

policyHead.1.running_mean f4 [6]
000000 27 95 90 3c f9 a2 94 bf a2 e7 86 be b0 f2 31 3e
       0.017649246 -1.1612235 -0.26348597 0.17377734
000010 cb be 8b 3e c1 cc 07 be
       0.27294 -0.13261701

policyHead.1.running_var f4 [6]
000000 c0 aa 6d 3e 6c 09 8d 3e ee a9 96 3e dc f4 9b 3e
       0.23209667 0.2754625 0.2942652 0.3046025
000010 2b 9b 79 3e 28 a1 48 3e
       0.24375598 0.19592726

policyHead.4.weight f4 [9, 54]
000000 8f 67 a6 3d 71 11 20 be 86 2f be 3e 80 99 65 3e
       0.08125221 -0.15631653 0.37145633 0.22421837
000010 13 3c 2c be 71 2f 8e bd e2 7e 16 be ee 2a 34 be
       -0.16819791 -0.069426425 -0.1469684 -0.17594501
000020 06 47 0f be de 98 76 3e 8a 1c 36 be 92 b4 86 3d
       -0.13991937 0.24081752 -0.17784324 0.0657741
000030 21 17 21 3d 30 40 2c 3c 00 c5 83 3c f0 a7 97 bd
       0.039328698 0.01051335 0.016085148 -0.074050784
000040 0c 8e 30 3e 20 a8 2f 3e 89 01 22 3d bc a3 8b bd
       0.17241687 0.17153978 0.039552245 -0.06818339
000050 49 7f e7 bd 0b 8f fa bd 1a 47 97 3d fa bf 6e 3e
       -0.113035746 -0.122343145 0.073866084 0.23315421
000060 2b 1c e0 bd 98 d6 68 3d 94 8e c0 bd 90 48 5d 3e
       -0.109428726 0.056845278 -0.094021946 0.21609712
000070 27 66 f9 bd 0a a7 41 be 49 58 32 bc 1f 0f a1 be
       -0.12177687 -0.18911377 -0.010885307 -0.3145685
000080 4e aa c9 bd c4 33 3e 3e d7 1a 3e be b4 b6 da be
       -0.09846936 0.18574435 -0.18564926 -0.42717516
000090 eb 30 f2 bc c4 20 be bc dd 9a 8b 3d 3b b8 7f be
       -0.029564342 -0.023208983 0.06816647 -0.24972622
0000a0 dd dd 86 be c1 e5 4b 3e ee 2b 01 3e ac bc 04 be
       -0.26341143 0.19911863 0.12614414 -0.12962598
0000b0 4b 2d 2c be ae 31 a0 bd ea 9f a8 be bc 9f 7a bd
       -0.16814153 -0.07821976 -0.32934505 -0.06118749
0000c0 3e 8a 1d be ab 44 0f 3e 4a 2b cf bc 22 a8 6b bd
       -0.15384766 0.13991039 -0.025289197 -0.05753339
0000d0 3c e8 04 3c 30 af 97 3d 4f 6b c4 bd 88 c4 21 bb
       0.00811201 0.07406461 -0.0959078 -0.0024683792
0000e0 1d fe 0c 3e 42 5a c0 3e 74 1d 0f be 59 3d 36 be
       0.13768812 0.3756886 -0.13976079 -0.1779684
0000f0 d2 75 41 be 24 1d b2 bc 6a a0 49 3e cd 55 0a be
       -0.18892601 -0.021742411 0.196901 -0.13509293
000100 23 f3 48 be 76 02 9d be 7d ed 99 be 21 2d cc 3e
       -0.19624 -0.3066594 -0.30064002 0.3987818
000110 3e 0c 52 be 15 95 15 be 96 5a ec bd f9 0c e6 bd
       -0.20512483 -0.14607652 -0.115407154 -0.11232943
000120 5d 04 87 3e 47 b0 93 bd f3 08 6a 3e 98 79 2b bb
       0.26370516 -0.072113566 0.22854976 -0.0026165005
000130 9f 5c 75 be ef eb 94 3e dc 0d 3c bd d3 09 12 3d
       -0.23961113 0.29086253 -0.045911655 0.0356539
000140 f8 37 01 be 0f bf eb bd 19 9a 89 3c 8f 01 59 bd
       -0.12619007 -0.11511051 0.016797112 -0.052980002
000150 df 9d 51 be f6 c5 54 bd 2c c0 9d be 0d b9 97 bd
       -0.2047038 -0.051946603 -0.30810678 -0.074083425
000160 6a 91 fe bd 45 56 88 be e6 3a 99 bc 79 b5 a2 3b
       -0.12430079 -0.26628318 -0.018704843 0.004965481
000170 06 be 89 3e 3f 05 6b be d9 41 8a be 04 b8 df bc
       0.2690279 -0.2295122 -0.27003363 -0.027309425
000180 13 18 5d be 02 d3 33 bc 7b 4b e8 bd 46 6e 46 be
       -0.21591215 -0.010975601 -0.11342522 -0.19378003
000190 90 a0 30 3e 6d f8 2a bd 67 62 0d be 95 cb c0 3e
       0.1724875 -0.041740824 -0.13807069 0.3765532
0001a0 66 cc 89 bd 79 c3 88 be d8 cc 9c bd bc ed 8d be
       -0.06728439 -0.26711634 -0.07656258 -0.2772044
0001b0 ed 38 4a 3e d1 a6 5c 3c af 93 c3 be 74 72 a2 bb
       0.19748278 0.0134675065 -0.3819861 -0.0049574915
0001c0 66 82 22 be 36 c6 be 3d 7c f5 dd bc d2 7b 2e be
       -0.15870056 0.093151495 -0.027094595 -0.17039421
0001d0 87 6f 4f 3e cb ab 91 be 3e 46 93 3e e8 6b 96 be
       0.20257388 -0.2845138 0.28764528 -0.293792
0001e0 19 39 0d 3e e5 64 81 3e 0d 45 2e 3e 52 85 c1 3e
       0.13791312 0.2527229 0.17018528 0.37797028
0001f0 c5 d3 bc 3d 47 34 fc 3d b5 b8 30 be 49 3a 46 bd
       0.09220079 0.123146586 -0.1725796 -0.04839543
000200 65 17 84 3e ff f8 09 be 97 4c 9f 3e 70 26 62 be
       0.257991 -0.1347389 0.3111312 -0.22084975
000210 9c cb 37 be e5 a5 93 3e 47 90 2e be 25 9e 0c be
       -0.17948765 0.28837505 -0.17047225 -0.13732202
000220 01 ff 31 be c7 1e 06 be 7b 2f a6 bb 2c 88 f4 be
       -0.17382433 -0.13097678 -0.005071578 -0.4776014
000230 b5 7b 9a bd 4e 0e 50 be 68 cb d5 bb c1 45 0f bf
       -0.075431265 -0.20317957 -0.006524492 -0.5596581
000240 32 bc 29 be 37 d1 f7 3d c2 28 c3 3b 41 87 27 be
       -0.16575697 0.121004514 0.0059557864 -0.16360189
000250 a6 ab 12 3e 17 f0 8b be 1a 9a f6 bd e2 6b 1c be
       0.14323291 -0.27331612 -0.12041111 -0.15275529
000260 d1 95 08 3d cb 2f 3e 3e 8c a6 23 3e e5 81 f8 3c
       0.033346 0.18572919 0.15981501 0.030335376
000270 83 67 fe 3d 82 20 9c be 41 0d 1c bc ac 35 df 3d
       0.12422087 -0.30493551 -0.009524644 0.10898909
000280 ef ef af bd 4f 16 30 bc 50 76 2d be b5 4d b0 3d
       -0.085906856 -0.010747506 -0.16939664 0.086085714
000290 80 4e b8 3b 53 7e 60 be 04 a2 99 be 5b b3 81 be
       0.0056245923 -0.21923189 -0.3000642 -0.2533215
0002a0 5c b9 52 be 1f e0 85 3d 95 a9 a6 3e 1d 63 9d be
       -0.20578521 0.06536888 0.32551256 -0.3073968
0002b0 01 1a c0 be 88 80 a3 be e5 09 62 3e 43 0e 96 be
       -0.3751984 -0.31934 0.22074087 -0.29307756
0002c0 91 d7 f5 bd e4 fd 11 be d4 ae 4f be c8 c7 2e be
       -0.12004007 -0.14257008 -0.20281535 -0.17068398
0002d0 86 9c 8c be 91 8c 42 be ef 54 66 be 2d dd 88 be
       -0.27463168 -0.18998934 -0.22493337 -0.26731244
0002e0 c4 d5 58 be 60 0a d7 bc 71 09 0b 3d dd 4c a2 bd
       -0.21175295 -0.026250064 0.03394455 -0.07924817
0002f0 7d 8b 5b be 18 c4 8a 3e 11 62 da 3d e2 62 eb bd
       -0.2143993 0.27102733 0.10663236 -0.1149347
000300 7c 43 0f be 4e 77 80 3e 1f df d2 3e 5c f4 5a bd
       -0.13990587 0.25091022 0.41185853 -0.053455696
000310 3f f7 90 be 62 3c 04 3f da 34 8c be 06 a6 25 3e
       -0.28313634 0.51654637 -0.27384073 0.16176614
000320 05 3e 09 3e 21 89 86 3d 4c 19 6c be 0b 8b a0 3e
       0.13402565 0.06569124 -0.23056525 0.3135608
000330 65 81 1e 3e bd ae b7 3e 14 0f 0d bb 4b 7c 79 3e
       0.15479048 0.35875502 -0.002152388 0.2436382
000340 18 a9 bf be eb 84 b2 bd 99 fd 65 3e c6 f1 a6 be
       -0.37433696 -0.08716758 0.22460021 -0.32606333
000350 4b a5 9c 3e 88 ad 5d bd 2c 48 a2 3d d6 56 df bd
       0.3059486 -0.05412057 0.07923922 -0.109052345
000360 09 2a e8 bd 2d 11 89 3e e3 30 02 bc 7e 01 92 bd
       -0.113361426 0.26770917 -0.007946226 -0.07129191
000370 97 d5 88 bd 31 48 9e bd 6a ba 8c 3e 9f 8a 8f 3e
       -0.06681364 -0.07728613 0.27485973 0.28035447
000380 af db bc bd d5 7c 90 bd 49 10 f7 3d 87 fa 32 be
       -0.09221589 -0.0705506 0.12063653 -0.17478381
000390 83 fc 1d 3e 81 da af be b4 03 c5 3d 6f 32 02 3e
       0.15428357 -0.34346393 0.09619847 0.12714551
0003a0 e4 ff c0 bd c6 78 9a 3d 0f 5f 9e 3e 08 72 a6 be
       -0.09423807 0.07542567 0.309319 -0.32508874
0003b0 52 87 1c 3e b2 04 b4 3d ee 86 ba be ce 3c 35 3d
       0.15285996 0.08789958 -0.36431068 0.04424744
0003c0 d7 81 40 be 51 18 92 be 16 c7 9e 3e e4 08 e0 bd
       -0.1879953 -0.28534177 0.31011266 -0.10939196
0003d0 0e 2b 8f 3d 9f 88 3a be a4 d2 9b 3e e8 17 6e 3e
       0.06990634 -0.1821618 0.30434144 0.23251307
0003e0 6e 45 b8 be 71 00 91 bd 72 23 8e be 41 36 e5 be
       -0.3599047 -0.07080162 -0.27761418 -0.44767955
0003f0 d4 29 a2 3d 13 0d 8a bd 87 a9 7d be c2 e7 47 be
       0.07918134 -0.06740775 -0.24771701 -0.19522002

policyHead.4.bias f4 [9]
000000 f1 f8 be 3d b4 8b b1 bd a5 af 46 bd 3d a2 dd bd
       0.093248256 -0.086692244 -0.04850735 -0.1082196
000010 f6 df 4d 3e 14 c5 e3 3d e1 34 64 3d 23 7d 1f 3d
       0.20104966 0.11121574 0.05571449 0.0389377
000020 03 7b 04 be
       -0.1293755

valueHead.0.weight f4 [3, 3, 3, 3]
000000 89 37 68 bd e9 14 80 3d 70 75 16 3d 0b d2 79 3e
       -0.056693587 0.06253988 0.03673309 0.24396531
000010 a3 c8 ba bb 37 da a8 bd b1 2b 48 bd 10 75 37 be
       -0.0057001873 -0.08244746 -0.048869792 -0.1791575
000020 43 8d 05 3e 24 8e e2 bd ec 7c 24 3c 3a 38 09 3e
       0.13042168 -0.110622674 0.010039549 0.13400355
000030 0b b4 c1 bd 3e a0 33 bd d1 53 09 3e 6b f0 fb 3d
       -0.094581686 -0.04385399 0.1341088 0.123017155
000040 57 36 b1 bd bd a1 1a be 5b f2 71 be 33 c5 9e 3c
       -0.08652943 -0.15100761 -0.23627608 0.019381141
000050 4f ca 74 bd 4b cc 28 3e 2c ef e9 3d a6 f2 b4 3d
       -0.05976325 0.16484182 0.114225715 0.08835344
000060 bd 79 72 be 37 e5 b5 3d 83 64 88 bd 61 51 59 be
       -0.23679252 0.0888161 -0.06659796 -0.2122245
000070 6a 26 88 be 95 4a e9 bd e2 11 3e 3e 05 37 4f bc
       -0.26591808 -0.113911785 0.18561509 -0.012647395
000080 69 fc 89 bd 03 6c b1 3d bb c7 e7 3d 01 da 58 3e
       -0.067375965 0.0866318 0.113173924 0.21176912
000090 42 d6 7e bd 2b b5 a3 3c 7f 25 3b bd ff 41 47 be
       -0.06221605 0.019983849 -0.045690056 -0.1945877
0000a0 2c e5 95 bd ab 07 81 3d 76 4b 8b 3b e7 fd fc 3d
       -0.07319102 0.06300291 0.004250939 0.123531155
0000b0 94 60 1c 3e 20 96 b2 bd bc 7d 02 3e e5 ff af 3d
       0.15271217 -0.0872004 0.12743276 0.0859373
0000c0 40 15 0d bd ec ad 7c bd 87 80 16 3e f4 78 8e be
       -0.034444094 -0.061689302 0.14697467 -0.27826655
0000d0 9c 96 a4 bd 34 d3 06 bd 50 11 63 3d 58 71 78 3d
       -0.08036539 -0.032916263 0.055436432 0.060654968
0000e0 a5 c8 99 bd 54 0c ad bd a0 bf 34 3e f5 eb b7 3b
       -0.07508973 -0.08449617 0.17651224 0.005612845
0000f0 08 0e ce bd c9 43 18 bc 85 c6 d7 3d 42 71 b1 3d
       -0.1006127 -0.009293505 0.105359115 0.0866418
000100 3f 45 70 3d 6d bd a4 bd 99 a4 bf 3d 39 14 51 3e
       0.05865979 -0.080439426 0.093575664 0.2041787
000110 1c 76 12 be b4 0b 1c be 6f b7 e4 3d c2 40 a9 bd
       -0.14302868 -0.1523884 0.111678 -0.08264305
000120 2f 3e a0 bd b7 eb 01 3e f4 69 66 be a0 24 49 be
       -0.078243606 0.12687574 -0.22501355 -0.19642878
000130 71 77 a5 be 86 2a aa 3d 9a 90 a8 3d d0 b0 ed bb
       -0.3231769 0.08308892 0.082307056 -0.0072537437
000140 5f 50 df bc
       -0.027260004

valueHead.0.bias f4 [3]
000000 1b 5a 26 36 a4 11 f2 37 2d 00 5b b7
       2.4788376e-06 2.8856863e-05 -1.3053458e-05

valueHead.1.weight f4 [3]
000000 45 cf 7f 3f 64 a0 84 3f 42 8a 75 3f
       0.99925643 1.0361447 0.9591409

valueHead.1.bias f4 [3]
000000 d9 10 07 be b4 fe 40 3d 67 33 a8 bd
       -0.1319002 0.047117904 -0.08212929

valueHead.1.running_mean f4 [3]
000000 5a b8 82 3d e9 c5 ab be b8 c1 dd bd
       0.063828185 -0.3354943 -0.108279645

valueHead.1.running_var f4 [3]
000000 0e 4a c5 3e b2 96 1b 3f 92 a8 fa 3e
       0.38533062 0.6077682 0.48956734

valueHead.4.weight f4 [1, 27]
000000 24 b9 02 3d d6 b1 32 be e3 7c 08 3e fc 4b f0 3d
       0.031914845 -0.17450652 0.1332889 0.11733243
000010 e0 2d 94 bd 0e 02 35 3e b7 97 71 3d 5e 03 f8 bc
       -0.072353125 0.17676565 0.058982577 -0.030275043
000020 60 fc d5 3d 77 35 8b 3d 7f 7e 3d be a9 88 17 3e
       0.10448527 0.06797307 -0.18505286 0.14798225
000030 36 1b 76 be 45 c2 0c be a4 9c 1f be 7a c8 87 bd
       -0.24033818 -0.13745983 -0.15587097 -0.06630035
000040 9e 6c 36 bd 30 a8 f4 3d 79 03 67 3d 52 01 cf 3c
       -0.04453718 0.11946142 0.056399796 0.025269184
000050 25 fc fd bd 23 9e 0d 3e e2 ec 50 bd a3 13 68 3e
       -0.124016084 0.13829856 -0.05100716 0.22663741
000060 b7 67 6a be 66 bb 29 bd 7b 7f 9a bd
       -0.22891127 -0.041438483 -0.07543846
