models/alphazero/main.pt (torch, 67532 bytes, 93 tensors)

startBlock.0.weight f4 [6, 4, 3, 3]
00000000: 3dd6 9c3d ade0 32be 8f63 1f3d 8fb2 0e3e
00000010: c137 c5bd 1f2d 25be fb5c c5bc cd67 e13d
00000020: 7afe b33d 9892 b4bd 8b81 8fbc 2bee e0bd
00000030: 13d3 07bd 4b31 cdbd 162a dcbc 1d2d ebbd
00000040: 4f41 b4bd 13ff f3bb 17b9 90bd 1a31 fbbd
00000050: 7436 9cbc f4bf a1bd ecac 81bd a052 a53d
00000060: cbc7 003e 6d5d 2dbd 0c18 103d f464 52be
00000070: a575 dfbd dfa2 bd3d 5810 283b d8de 0abe
00000080: 4bef f33d bdda 9ebd 0462 d0bc 24fd 41be
00000090: 8e69 31be 62f1 c3bc 52b7 a6bb 3767 afbd
000000a0: 3b7f a3bd 9611 373b 4c8a 103e fd2f c4bc
000000b0: 562e 3f3d 97b0 99bd 12bb a4bd 2c7b d0bc
000000c0: 59dc 31be c505 3b3c a15d f3bd 4a58 a2bc
000000d0: 87f2 dabc 548c b83d 1380 f8bd a7b0 afbd
000000e0: e597 dabd a999 463e f7a5 a0bd 6ebb 0b3e
000000f0: 8334 ccbb 802d 873d eed2 443e f388 803d
00000100: 6ef8 c63d dcbf c33d 49e5 c83d e817 fb3d
00000110: bf28 88bb f32f 1c3e 1bdd 9fbd 1342 83bc
00000120: e869 87b9 5fa2 83bd 3852 913d 09c8 54bc
00000130: ac41 2dbd 6af5 ce3d f1c1 0f3d 465d 883d
00000140: 07d1 a0bd 59ee 323d 66d8 143e 67d1 e63d
00000150: 0821 89bd 2a30 a53c 3714 0dbd 476d 22bb
00000160: 526d b1bd ae1a 493b f82a 763d b018 2d3e
00000170: b7e6 383e eed6 953c d1d1 0a3e dcc7 ffbd
00000180: 7e3f a7bd 4ecf 95bc c8b8 34bd c361 d63d
00000190: dc90 19bd 9926 51bd 2f5f 8a3c 02de ecb8
000001a0: 0716 e1bd d188 7b3d 36c4 fcbd a202 a53d
000001b0: c6a3 bbbd 7e02 1f3e 8c16 f73c 74ca 303e
000001c0: 0fa1 803d 04be 9bbd 46d4 8dbd ac53 f03d
000001d0: 45f2 2dbd de50 3b3c 7886 1bbe 03e8 6cbc
000001e0: c961 54bd 913d 3bbd b17c 1bbe 7632 4c3d
000001f0: 0d1e babd d46b f63d c72b 233d 0333 50bd
00000200: 63ac 1bbe b563 0d3e fa3d 1f3e 5be1 0cbe
00000210: ecd1 4abc 6cd2 39be 8d7f 4b3d 6b02 4b3c
00000220: 13ac 08be 2b3a 263d 6264 eb3d ddb5 1dbe
00000230: 728e e7bd c725 1b3b 9e8f 14be da5e 88bd
00000240: 2476 fbbd cb21 113e 7019 943a 87f3 0e3e
00000250: 1144 2ebe e307 373c 896a 22be 3904 40bc
00000260: e2e3 293d 17cb c53c fb8e 123d 4d61 0e3e
00000270: f790 c63d b44d 8c3c c617 403d 7f55 7fbb
00000280: eb6d 00bd 8a64 efba 1d47 463e 941d 1b3e
00000290: 2077 83bd bb2d e43d 2585 0fbe 76a8 d1bd
000002a0: 2c30 2c3e f691 c0bd f0d9 a8bb 69c9 053e
000002b0: 2cd4 b13d 72fa 0abd 0bc9 98bd d5e4 a3bd
000002c0: 34e0 333e a0c5 043c 2ceb 64bd 8159 2a3d
000002d0: 2c95 d7bd d566 c43b f467 7ebd d86b a2bd
000002e0: 8b49 d43d 5c15 2d3e 6015 f0bd 4042 b5bd
000002f0: a143 063e 8047 0c3d d00d e7bd 3ad4 dfbd
00000300: 7999 5f3c 1d3e b73d 8827 043a 6655 2fbe
00000310: b7ce bf3d d408 8a3d dea1 9c3c 1499 6ebe
00000320: 0dfd 023e ddee 9abd 3ce3 15bd fcab 153e
00000330: 68d7 053e f621 183d e830 eebd 6e55 193e
00000340: 80ae 003e ee0b eabd 4b59 db3d 9971 1abe
00000350: 84e0 75bd 3285 0dbe 8b01 a2bd 388f 40be
0.0765805 -0.1746852 0.038913306 0.13935302 -0.09629775 -0.16130494 -0.024092188 0.110061266
0.08788772 -0.08817023 -0.017517826 -0.10982927 -0.03316028 -0.100191675 -0.026875537 -0.11483214
-0.08801519 -0.0074461787 -0.07066553 -0.12265225 -0.019068934 -0.0789794 -0.0633181 0.080724
0.12576215 -0.042325426 0.035179183 -0.20546323 -0.10911111 0.09259581 0.0025644507 -0.1356157
0.11910876 -0.07756565 -0.025437362 -0.18944222 -0.17325422 -0.023918811 -0.0050877715 -0.085646085
-0.07983252 0.0027934066 0.14115256 -0.023948664 0.04667505 -0.07504385 -0.08043493 -0.025449358
-0.17369212 0.01141495 -0.11883093 -0.01981749 -0.026726974 0.090111405 -0.12133803 -0.08578616
-0.10673503 0.19394554 -0.07844155 0.13645718 -0.006231846 0.06600475 0.19221088 0.06276121
0.09715353 0.09558079 0.09809358 0.12260419 -0.004155248 0.15252666 -0.078058444 -0.016022718
-0.00025828113 -0.06427454 0.0709576 -0.012987145 -0.042298958 0.10105403 0.035097066 0.066584155
-0.07852369 0.043684337 0.14535674 0.11270409 -0.06695753 0.020164568 -0.034443107 -0.0024784373
-0.08663429 0.0030686068 0.060099572 0.16903949 0.1805676 0.018290963 0.13556601 -0.12489292
-0.08166407 -0.018287327 -0.044121534 0.10467865 -0.037491664 -0.0510622 0.01689109 -0.00011294709
-0.109905295 0.061409775 -0.12342112 0.08057143 -0.09162097 0.15528294 0.030162118 0.1726473
0.062807195 -0.07604602 -0.069252536 0.11734709 -0.042467374 0.011432854 -0.15188015 -0.014459613
-0.051851068 -0.04571301 -0.15184285 0.04985281 -0.09087763 0.12032285 0.03983667 -0.0508299
-0.15202479 0.13807566 0.15550986 -0.13757841 -0.012379151 -0.18146676 0.04968219 0.012390713
-0.13346891 0.040582817 0.11493756 -0.15401407 -0.11306466 0.002367364 -0.1450791 -0.066587165
-0.12278393 0.14173047 0.0011299085 0.13960086 -0.17018153 0.011171314 -0.15860952 -0.011719757
0.04147709 0.024144692 0.035780888 0.13904305 0.096956186 0.017126895 0.046897672 -0.0038960872
-0.031354826 -0.0018264216 0.19363065 0.15148002 -0.06419206 0.11141535 -0.14015634 -0.102372095
0.16815251 -0.0940284 -0.0051529333 0.13065113 0.08683047 -0.03393025 -0.07460221 -0.080026306
0.17565995 0.008103758 -0.05588834 0.041589264 -0.10526499 0.005993704 -0.062110856 -0.07930726
0.1036559 0.16902679 -0.11722827 -0.08850527 0.13111736 0.034247875 -0.112819314 -0.10929151
0.013647431 0.08947394 0.0005041291 -0.1712242 0.093655996 0.06739965 0.019120153 -0.23300582
0.12791844 -0.07565091 -0.03659366 0.14616388 0.13070452 0.037141763 -0.11630422 0.14973995
0.12566566 -0.11428057 0.10710391 -0.15082397 -0.060028568 -0.13820341 -0.079104505 -0.18804634

startBlock.0.bias f4 [6]
00000000: c647 2aba 0a31 90ba a370 b83b 9c3d a73a
00000010: b57c 2538 209e 88ba
-0.00064956804 -0.0011000943 0.0056286617 0.001275945 3.9455208e-05 -0.0010423101

startBlock.1.weight f4 [6]
00000000: f6be 813f 7306 7d3f a347 7a3f c220 733f
00000010: 5705 6a3f c9e5 623f
1.0136402 0.98837966 0.9776556 0.9497186 0.914144 0.88631874

startBlock.1.bias f4 [6]
00000000: ae5a 97bc fa9b cf3c 4e19 a63d 9778 2cbb
00000010: 4498 263d 8cba e63b
-0.018475857 0.02534293 0.08110295 -0.0026316994 0.040672556 0.007041281

startBlock.1.running_mean f4 [6]
00000000: f639 60be cfb8 83bc c4c4 0a3e 70be 04bd
00000010: d46d 853d c449 6abd
-0.2189711 -0.016079335 0.13551623 -0.032408178 0.06515089 -0.057199255

startBlock.1.running_var f4 [6]
00000000: e225 8e3d 631d 6e3d b476 303d 936b 7c3d
00000010: 8106 843d 12fe 6e3d
0.06940819 0.058133494 0.043081954 0.06162603 0.06446553 0.05834777

backBone.0.conv1.weight f4 [6, 6, 3, 3]
00000000: da9a 123c ecec 8cbd 2c59 b5bd 175c d8bd
00000010: e0e4 a83d 2641 3bbd 6528 b93d d506 b0bd
00000020: e179 85bd cab8 923c 8ea1 01be e722 d23d
00000030: 8b0f e53d 387b 543d 8ff6 ef3d fc10 f53d
00000040: 8f7a 183e 05d7 573d 3e46 3ebd 5243 d13d
00000050: bd43 97bd b4fb cebd a6fa ea3d 01c5 c33d
00000060: 94fa eabd 9d98 8cbd 9283 0fbe ab27 5e3d
00000070: d068 973d 1885 09be c529 d03d 01f3 123e
00000080: 2fc5 c0bd 4d22 db3b b336 b4bc b7e3 4d3c
00000090: 1dda 843b beb6 a5bd f5b3 59bd 6b21 d73d
000000a0: a08e 0cbe d5ab f9bc e40f e0bc f299 a0bd
000000b0: c4a3 903d 049c e5bc 0996 babc abca f0bd
000000c0: 9a4d 7abc 6f71 84bd 4ddc aebc f5df e2bd
000000d0: e98f f43b e80f d33c 6ae5 bf3c 6841 953d
000000e0: d518 ca3d 3b2e 00be a621 d7bd da69 1dbe
000000f0: 8af4 74bd bcf5 12bd 3ce0 8dbd d6ad c83d
00000100: 2f2f c33d cf7a 923c d537 d73b 00b4 44bd
00000110: 26fb 553d a183 15be 3894 133c b7e6 26bd
00000120: 0554 cf3d 46ad e1bd 9698 12be 0f58 f3bd
00000130: f021 71ba 2b3d 923d 401e 3b3c 467c 18bd
00000140: 487b df3d f214 08bd ba84 083d 56e7 10bd
00000150: 6df4 90bc 191b af3c 932f 87bd 4b43 bf3d
00000160: 8d5e 6ebd 7493 773d 4a42 9e3d 56a7 ff3d
00000170: 3892 c5bd 76a5 d23c c822 00be 9a5c 8b3d
00000180: 35c6 1abe 00e2 0e3c 7b03 97bd 143e a0bc
00000190: eb43 123e 4a3c 25bc ad93 bb3d 46d0 29bc
000001a0: 9742 963d 1a01 ce3d 6fa3 083d 1e12 063d
000001b0: fd5a cebd 246a df3d b686 e6bd 7153 b9bc
000001c0: 5e5e d13d fe0e 4fbd 1985 a1bd ff2a 29be
000001d0: 6ace 8f3d 35cc 94bd 3629 0dbc 5d95 f83c
000001e0: 4ed0 073d 08ad fb3d 1878 c0bd 8fa2 4a3d
000001f0: 2754 063d 0192 c4bd c98d 7f3c e2a0 b03d
00000200: fd6f c73d 49df babd b677 ed3d 461b 853d
00000210: 0394 a23d e77f 95bc aa40 e93d 2c60 eebc
00000220: 9a9b ff3d 2fb2 dd3d 4373 153e 7b34 ac3d
00000230: bd9f f9bd 9836 583d abe1 283c 690b de3d
00000240: 3157 93bd 4f3b 283e 9894 39bd db62 52bd
00000250: 553b b5bd ddbb 5ebd b831 073d 1b60 c93d
00000260: cd8c b73d f542 63bc e191 eb3d 7469 c3bc
00000270: 49ea 293e f962 1bbd c22a 843d d507 163d
00000280: df59 11be 7065 8e3a 1967 e03c 395f 713d
00000290: 7d7f 043d 36c0 543d 5a3b 8f3d a250 0c3e
000002a0: 1d01 1bbc 8268 a53d f310 47bd 3a16 0d3d
000002b0: c998 52bd 0262 c6bd fe5c e9bd faa3 1abe
000002c0: dc5c 983d 885b 973d cbe9 e83d 8351 f4bd
000002d0: ae56 2cbd 704e 82bd eb6d dfbd 1e43 1cbe
000002e0: 346d edbc f6f7 173e 1ea6 acbc 6424 d43c
000002f0: 7565 d73b e808 bfbd 70f3 19be 2993 9dbd
00000300: 461e 7c3d 4cfc ce3d d5f1 0b3d 1a4b c03d
00000310: 5cca fa3d eb04 523d 6da7 6fbd cb94 073e
00000320: 89d4 3cbd 8653 dfbd bf67 043d 4f92 983d
00000330: c66d e53c fc03 2a3d bd75 21be c6e9 63bd
00000340: 833c ffbd c590 563d 476b 993d 649e c73d
00000350: 39c5 11be e147 ea3c 836a bfbd b7d6 f33d
00000360: cf21 b4bd 0c7d 113c b833 3b3e c376 33be
00000370: b302 ef3c dd84 853d fe90 e6bb 988b 733d
00000380: a5e9 31bd 2d8f ac3d 23b0 1ebb 4be8 de3d
00000390: 6703 8f3d da66 6abd 8621 ae3c 26e4 343c
000003a0: 5c53 073e 6bf7 dabd 99f1 01bd f1c1 5f3d
000003b0: 3106 eb3d a30e 8e3d 1ad7 6e3d aca2 fdbd
000003c0: 29c6 303d 235a 153d a595 a63d b4f6 d4bc
000003d0: 8504 a23c 12df 163e 027f ecbd 5475 6fbd
000003e0: 8d0c 083e 5765 183d 285e 983d b463 d2bd
000003f0: 2d39 6f3b 12ee 9abc b814 f7bd b571 333d
0.008948052 -0.06881127 -0.08854899 -0.1056444 0.082467794 -0.045716427 0.09040908 -0.08595053
-0.06517387 0.01791038 -0.12659284 0.10260563 0.11184605 0.051875323 0.11716949 0.1196613
0.14890502 0.052695293 -0.046453707 0.102179185 -0.07385967 -0.10106602 0.11473589 0.0955906
-0.11473575 -0.06865046 -0.14015034 0.05423705 0.07393038 -0.13429677 0.10164217 0.14350511
-0.0941261 0.0066874386 -0.021998739 0.0125664985 0.0040543214 -0.08091496 -0.053150136 0.10504421
-0.13726282 -0.030477444 -0.027351327 -0.07841863 0.07062486 -0.028028496 -0.02277662 -0.11757406
-0.015277291 -0.06466948 -0.021345282 -0.11077873 0.0074634445 0.02576442 0.023424823 0.07287866
0.098680176 -0.12517636 -0.10504465 -0.1537241 -0.059803523 -0.03587888 -0.06927535 0.097987816
0.09530484 0.017880825 0.006567935 -0.048023224 0.052241467 -0.14600994 0.009007506 -0.04074737
0.10123447 -0.110193774 -0.1431602 -0.1188203 -0.00091984775 0.07140573 0.011420786 -0.03722789
0.10912186 -0.0332231 0.033329703 -0.03537687 -0.017694676 0.021375226 -0.06600871 0.09339007
-0.05819564 0.060443357 0.077274874 0.12483089 -0.0964703 0.025713664 -0.12513268 0.06804772
-0.15114672 0.008720875 -0.07373711 -0.019560851 0.14283721 -0.010085175 0.09159026 -0.010364598
0.0733692 0.10058804 0.033358987 0.03273212 -0.100759484 0.109089166 -0.11256163 -0.022622796
0.10223077 -0.050551407 -0.078867145 -0.16520308 0.07021792 -0.07265512 -0.0086157825 0.03034466
0.03315764 0.122888625 -0.09397906 0.049471434 0.032795098 -0.095981605 0.015597769 0.08624436
0.09738157 -0.091246195 0.11595099 0.064993426 0.07938387 -0.018249465 0.11389287 -0.029098593
0.124808505 0.108250014 0.1459475 0.08408447 -0.12188671 0.05278644 0.01030771 0.1084202
-0.07194365 0.16428874 -0.045307726 -0.051363807 -0.08849207 -0.05437838 0.0330064 0.09832784
0.089624025 -0.013870944 0.115024336 -0.023853995 0.16593279 -0.037936185 0.06453468 0.036628563
-0.1419444 0.0010863971 0.02739291 0.058928702 0.032348145 0.05194112 0.06993742 0.13702634
-0.009460715 0.08076574 -0.04860015 0.034445025 -0.05141524 -0.09686662 -0.1139469 -0.15101615
0.074395865 0.07390505 0.113727175 -0.119296096 -0.04207485 -0.06362617 -0.10909637 -0.15259978
-0.028982736 0.14840683 -0.021075305 0.025896259 0.006573374 -0.093278706 -0.1503427 -0.07694084
0.06155231 0.101067156 0.034166176 0.093893245 0.12245628 0.05127422 -0.05850928 0.13240354
-0.046101127 -0.10904603 0.032325502 0.07449781 0.028006446 0.041507706 -0.1576757 -0.055642866
-0.124627136 0.052384157 0.07491165 0.097470075 -0.1423539 0.028598728 -0.093464874 0.11906188
-0.08795511 0.008879911 0.18281448 -0.17525773 0.029176092 0.06519482 -0.0070363274 0.0594593
-0.04343571 0.08425746 -0.0024213872 0.1088415 0.06983071 -0.057226993 0.02125622 0.011040723
0.13215393 -0.106917225 -0.031724546 0.054628316 0.1147579 0.069363855 0.058310606 -0.12384543
0.04315773 0.036462914 0.08134011 -0.025996543 0.019777546 0.14733532 -0.11547662 -0.058461502
0.13286038 0.03720602 0.07439834 -0.10272923 0.0036502585 -0.018912349 -0.12064499 0.04380961

backBone.0.conv1.bias f4 [6]
00000000: 0905 bf39 e7ee 0cba b483 1f3a 558d b1ba
00000010: 8773 e839 24c8 dfba
0.0003643411 -0.00053761754 0.0006084994 -0.0013546149 0.00044336563 -0.0017073196

backBone.0.bn1.weight f4 [6]
00000000: 8ff0 7e3f d981 7f3f 14a7 7b3f ef25 803f
00000010: bbee 7e3f 7811 813f
0.99585813 0.99807507 0.98301816 1.0011576 0.99583024 1.0083456

backBone.0.bn1.bias f4 [6]
00000000: fa37 56bc 30d1 ccba 8ece 6a3d 0880 e83c
00000010: 0f73 753d 1590 52bd
-0.013074869 -0.0015626308 0.057325892 0.028381363 0.05992418 -0.05140694

backBone.0.bn1.running_mean f4 [6]
00000000: f1f0 09be c8c6 5bbd e812 a23e 26cd 12bc
00000010: 2226 383d af27 82bd
-0.13470818 -0.05365637 0.3165505 -0.008960044 0.04495824 -0.06355225

backBone.0.bn1.running_var f4 [6]
00000000: 4986 c93d 2e7b bb3d be85 ea3d bb38 d53d
00000010: 67fd a93d bce8 f13d
0.09840066 0.09154354 0.114512905 0.10411211 0.08300286 0.11811969

backBone.0.conv2.weight f4 [6, 6, 3, 3]
00000000: b414 4ebd 4bfb bcbd 48ac 8c3d d3c9 9cbd
00000010: 0ec6 a1bc da49 55bc 546e 913c 8dcc 8dbd
00000020: 791a ee3b 889d 65bd 6f55 8dbd e682 813d
00000030: 8809 c63d d766 0dbe 47fb 013e 33fc ffbc
00000040: fb91 7c3d 5261 36be 0dae 853d 558b 263e
00000050: a75f 883d cec7 d83d f866 dfbd 77f0 903c
00000060: 9554 d6bb 04c1 a8bd 0db5 81bd 4ec5 8cbd
00000070: 9fae 1f3d ea0b c6bd 291e 20be bf6a 893d
00000080: 5457 833d 4976 e8bd 1441 1abd df02 e1bd
00000090: 7910 8f3d d420 72bd 321d b33c 8445 92bd
000000a0: 9bcc 9f3d 06bc 8a3d ae6e 9bbd 1804 f4bd
000000b0: bde2 d13d 6522 babd 1427 153b 54bc 24ba
000000c0: 7f8e 743d f40b 253b 2bcc 953d b577 c3bd
000000d0: 7f8b 963c 3949 c2bd b174 5c3d a3fd ecbd
000000e0: a231 dc3d 5985 67bd 3fbc d43d b43b 81bd
000000f0: 88a4 093e 996f 0d3e 2ba1 28bd 1afe 223e
00000100: ceac df3c 8d96 143e 4329 f2bd f363 f0bd
00000110: e8d1 13bd 3972 65bc 4149 173e 9d6d 6abb
00000120: 406f 8dbc 11db ecbb c5f2 9fbd dd05 973d
00000130: 6e95 84bd 790c a1bd c179 7e3d 0e65 4c3d
00000140: d88a 153e f5a3 943c c672 eebd 0ef5 0cbd
00000150: 176b 023d e398 0e3c 7899 80bd abb9 11be
00000160: 3b5f cfbd df58 9b3d a0d7 47bc 69d5 f8bd
00000170: bf7c d4bd 8b6a fcbc 4429 8cbc 0279 c93c
00000180: 83c5 8f3d 4ca9 503d f537 a83d 976b 17be
00000190: dd2f db3d 78c3 ee3d bf4f 0e3d 3f48 a2bd
000001a0: df4d 5dbd 99c1 a23d 3849 2b3d 8139 a5bd
000001b0: eefc 273e 375c 023e 9bc6 db3d 534c b93d
000001c0: 2c9d 05be 59cc bcbd d795 afbc 2af0 4abd
000001d0: c059 9ebd 36d7 ae3d d166 e0bd 826a c63c
000001e0: 15d1 503d 0303 bf3d 602e adbd cc38 de3d
000001f0: 8854 36bb ca94 663d e478 5d3d 6025 c93c
00000200: 8319 8f3b bd0f 723c 528f 34bd 97ed 903d
00000210: 3e4a 383d f0a1 463d 4e3b 4a3d 276c 663d
00000220: 4cf8 94bd 17f6 ae3d 0eed febd 190a b8bd
00000230: d949 343d 8779 05bd 24e2 9dbd 0eb2 e3bd
00000240: 9554 523c 0afd dabd c5bf 82bd f76e d03d
00000250: ea03 0f3e 4cdb 463b 7bc8 b6bd 7294 d53d
00000260: 49fa bf3d fd76 36bc 8066 c43d 501a 863d
00000270: 234c c43d 10eb 33be 647c 7cbc ad51 5e3d
00000280: d517 6d3a ca5e 3fbd 6f06 7e3b d70f ea3d
00000290: f467 083c 573f af3d 5188 7ebd ce5e b8bc
000002a0: ff2c 513a 17e0 ac3d 2977 843d 2d94 863d
000002b0: c75b dfb9 588f a93d 633b ae3d ad80 953d
000002c0: e2c3 373d 25cf ff3d 5017 99bd c237 ad3d
000002d0: e232 293d e04e bbbd 8c99 a1bd 565a c03d
000002e0: bd5f 03bd eb09 4fbd a79c cd3d 08f5 0fbe
000002f0: 668e f1bd 682c 703d 401b cabd 5eba b4bd
00000300: 3c22 febd 5c88 bfbc c0b3 89bd 30fe e1bd
00000310: 1800 153c 46d7 003e 2ca0 cc3a 10f8 ae3d
00000320: 070c f23c bb5c e83d 020a d83d 9ffe 683d
00000330: 483b 1cbc 9d9c d93c 745e 25bd b01c d53b
00000340: c7c5 a53d 553b d53d c7a8 173e ec54 e83d
00000350: 6c8a ddbd bb4a f8bc e90b 473d 6a46 973d
00000360: 8238 54bd 91a9 aa3d a443 143d eeda 0a3e
00000370: c2e9 ee3d acbd b8bc a239 e7bd f841 9abd
00000380: 3795 28bd ac1e 0d3e 84a7 093d 5781 223e
00000390: ed25 313d a0ad 673d 1c93 423d 86f2 a13c
000003a0: c630 bf3d 782a 013d f850 c73d 99e9 58bd
000003b0: 7061 1c3e 2960 36bd 0398 a6bc 270d 6fbd
000003c0: ca1e 0e3c 6815 253b d467 eb3d dc7f 2b3e
000003d0: 9df3 9bbd 75fc 1fbe e7bc 503d 4cc2 3dbc
000003e0: a2c1 36bb 7011 e0bd 93be cabd c4ee d6bd
000003f0: 9762 263d 8dfe 33bd 7f02 b23d dfe5 8cbd
-0.050312713 -0.09227618 0.068687975 -0.076556824 -0.01974776 -0.013018096 0.017752804 -0.069237806
0.0072663394 -0.056058437 -0.06901061 0.06323795 0.09669787 -0.13808762 0.12693511 -0.031248188
0.061662655 -0.17810562 0.06527338 0.16264088 0.06658869 0.10584985 -0.109083116 0.017692788
-0.0065408447 -0.0823994 -0.06333361 -0.068735704 0.03898489 -0.09670241 -0.15636505 0.06709813
0.06413141 -0.11350686 -0.03765972 -0.10986876 0.06985564 -0.05911334 0.021864507 -0.07142165
0.07802697 0.06774144 -0.0758947 -0.11914843 0.10248325 -0.090885915 0.0022758888 -0.00062841666
0.059706207 0.0025184127 0.073143326 -0.09544317 0.018377064 -0.09486622 0.053822223 -0.11571815
0.10751654 -0.056523655 0.103874676 -0.063102156 0.1344167 0.13812102 -0.041169327 0.15917245
0.02730408 0.14510556 -0.11824276 -0.11737814 -0.036088854 -0.014004284 0.14774038 -0.00357709
-0.017264962 -0.007228263 -0.078099765 0.07374165 -0.06473814 -0.07863707 0.062127832 0.04990106
0.14603746 0.018144587 -0.11642985 -0.03441339 0.03184041 0.008703443 -0.06279272 -0.14230983
-0.10125586 0.0758531 -0.012197405 -0.1215008 -0.10375356 -0.030812522 -0.01710952 0.024593834
0.07020094 0.050942704 0.08213798 -0.14787136 0.107024886 0.116583765 0.03474402 -0.07923936
-0.05402934 0.07947082 0.041817874 -0.080676086 0.16405079 0.1273049 0.1073124 0.09047761
-0.13048238 -0.09218664 -0.021433754 -0.049545445 -0.07731962 0.08537142 -0.10957111 0.024220709
0.050980646 0.09326746 -0.08456111 0.10850677 -0.002782138 0.05629424 0.05407037 0.024553955
0.004367055 0.01477426 -0.044081993 0.07076567 0.044992678 0.04849428 0.049372964 0.056255486
-0.07273921 0.08543032 -0.12447558 -0.08986301 0.04401574 -0.0325866 -0.077091485 -0.111179456
0.012837549 -0.106927946 -0.063842334 0.10177415 0.13966337 0.0030343113 -0.08924957 0.10428704
0.0937391 -0.011136767 0.09589863 0.065479875 0.095848344 -0.17570138 -0.015410516 0.05427711
0.0009044384 -0.046721257 0.003876116 0.114288025 0.008325566 0.08557003 -0.06214172 -0.022506144
0.0007979422 0.08441179 0.064680405 0.06571231 -0.00042602254 0.08279294 0.08507421 0.072999336
0.044864543 0.124906816 -0.0747515 0.084579006 0.04130829 -0.091459036 -0.07890615 0.0939223
-0.032073725 -0.050546568 0.10039645 -0.14058316 -0.117947385 0.0586361 -0.09868479 -0.08824609
-0.124088734 -0.02338045 -0.06723738 -0.110348105 0.009094261 0.1258212 0.00156117 0.08543408
0.02954675 0.11345812 0.10548784 0.05688345 -0.009535618 0.026563937 -0.04037328 0.006503664
0.08094364 0.10411707 0.14810477 0.113443226 -0.108174175 -0.030309072 0.048595343 0.07386477
-0.051811703 0.083331235 0.03619732 0.13560078 0.116656795 -0.02255138 -0.112902895 -0.07532114
-0.041157927 0.13781232 0.03360702 0.15869652 0.04324906 0.056562066 0.047503576 0.019768964
0.09335475 0.031534642 0.097322404 -0.05295715 0.15271544 -0.0445253 -0.020336157 -0.058362152
0.008674333 0.002518976 0.11494413 0.16747993 -0.07614825 -0.15623648 0.0509614 -0.0115819685
-0.002788641 -0.10940826 -0.098996304 -0.1049476 0.040621366 -0.04394393 0.08691882 -0.06879782

backBone.0.conv2.bias f4 [6]
00000000: 88e3 113a a8ee 18ba ab85 24ba 265e 9f39
00000010: 6c13 3938 6024 1dba
0.0005565216 -0.00058339024 -0.00062760216 0.0003039699 4.4125525e-05 -0.0005994495

backBone.0.bn2.weight f4 [6]
00000000: e7af 703f 7859 683f cefe 683f 81b4 763f
00000010: 6c70 7a3f 7966 833f
0.94018406 0.9076152 0.910138 0.9636918 0.9782779 1.0265647

backBone.0.bn2.bias f4 [6]
00000000: ef3d 2c3c ab95 90bd d5de 7fbd 868e 8cbd
00000010: 6574 1c3d 4a98 25bc
0.010512813 -0.07059797 -0.06246837 -0.06863122 0.03819694 -0.010107109

backBone.0.bn2.running_mean f4 [6]
00000000: 26f4 31be 39cd 8fbc 83e6 393e 985d 853e
00000010: bdc3 f93d caca 8d3e
-0.17378291 -0.017553912 0.1815434 0.2604797 0.12195537 0.27693778

backBone.0.bn2.running_var f4 [6]
00000000: b576 eb3d b03c e73d 1a98 4e3e 4305 de3d
00000010: 40fa 113e f158 dc3d
0.11497251 0.11290872 0.2017521 0.10840847 0.14255619 0.10759152

backBone.1.conv1.weight f4 [6, 6, 3, 3]
00000000: 359b eabc ece0 8bbc 9bc6 f33c de97 98bd
00000010: 88b5 45bd 6592 0dbd 6888 10bd 3135 f3bd
00000020: abd0 22bd 8ca1 94bd c255 d93d 71a9 313b
00000030: 8ac5 1d3d 3f22 dcbc d9a4 af3d d439 22be
00000040: ca23 bfbd 341e bc3d de71 04be 4f0e d73d
00000050: 16f7 0abe 06e8 553d deca fbbd ffb5 a93d
00000060: dde4 b1bc 6e64 b43d 07c1 5bbd 2fe1 0b3d
00000070: 7192 18bd 007a 9abd d443 903c 8eed 89bd
00000080: a977 b33d 02bb 94bd 7066 60bb 93dd 1d3e
00000090: 81e7 de3d f082 1cbd 9b81 923c bea1 bbbd
000000a0: 1361 babd c024 88bd 03e1 8eba a8e0 803a
000000b0: d9e1 7e3d d10e 513b 7947 57bd f787 d63d
000000c0: 34e7 243d 6bae aebd bbe1 d9bd 2421 e5bd
000000d0: 6daf d0bd 397d cdbd f247 14be fbe6 96bc
000000e0: 2c39 ab3d 928a f73b 5c1c a2bd 1f9a 0d3e
000000f0: c277 193c 2f51 1ebd aaa2 70bc b0e2 13be
00000100: cda0 d3bb 3966 ef3d d152 013e 4b61 103d
00000110: 76b8 8cbc 35e0 4a3d b6ac 87bc 96c8 403c
00000120: 704e b13d 52c7 ee3c 6a73 e7bd 0a79 6c3d
00000130: 14ee 6f3d 02dd 39bd f3b6 1fbc d25e a83d
00000140: 91ef 80bd 55d3 ac3d 4031 243e 6af7 be3d
00000150: 916b 25bd 4a6e 6cbc abcd 783c 8248 f03b
00000160: 56d2 77bb ccd3 c5bd 3c41 a83d cb8a a5bc
00000170: 69e6 2bbe 5bdc 17be 49b0 01bd b52a d1bd
00000180: c01e 663c f402 c23d 9829 903d d992 17be
00000190: 84f4 cd3d 7df2 a1bd 809c 5b3d b1e6 ca3b
000001a0: d076 1ebe 0969 14be 2cb9 953c 47b7 5b3b
000001b0: c259 4c3b 08f4 bd3c ab3a 87bc 5810 04bc
000001c0: 9fcb 45be ba77 fd3d 2b30 5a3d 58b6 d23d
000001d0: b59c ae3d 972f 04be ddf1 be3d 9629 babd
000001e0: 444b 42bd 15a5 96bd b832 723d 2d5e a7bd
000001f0: e1e5 d7bd f611 c13c 42c6 5d3d 0057 c9bc
00000200: 2ef9 8dbd 3827 b93d 569b c3bd 8383 20be
00000210: 7053 af3d abda 23bb c395 b7bd 4df0 943b
00000220: fff2 febd 2914 c3bd 9f15 0c3e 3ef9 293d
00000230: 91ad 093e 0c92 4a3d 709e 4bbd fb45 eebd
00000240: a2fe b33d 86e6 163e 31d4 dcbc 5a4d 973c
00000250: 8f05 61bd d77f f13c 8dfd fa3d 2e3e 6c3c
00000260: 7de9 7dbd 5bce b13d 359d 32bd 980a 0a3e
00000270: ddaa 4a3c bf47 aa3d 3e36 b13d a031 0abe
00000280: cc85 da3d e3a2 ac3d 920b 443d 787b d13d
00000290: ac7b bc3d 6b5c 6e3d 0e98 d83c e8dc f63c
000002a0: 1194 d3bd 32c8 7d3d 3db7 abbd 986c b93d
000002b0: 4787 0e3d 95a2 e43d 33c0 1f3e e6e0 ad3c
000002c0: e7d2 aa3d e298 343d be48 5fbd 15d6 2bbd
000002d0: 0d3a d83c 70ba 253e e346 26bd 242c d4bd
000002e0: f19a 3bbd a0a5 abbc 2256 acbd 1f4a 35be
000002f0: 316d b23c 78af eabb da74 70bd bb06 5b3d
00000300: b1e6 233d 6fd1 06be 68fb 86bd 8215 84bd
00000310: 86f8 c2bd 686f d4bd 1a1f e73d 94b6 cabd
00000320: 47f2 c3bc ea57 32be 99ae fcbc e2a1 94bc
00000330: 262b debd cc1b 30bd 44ec 79bd 9a36 d6bc
00000340: acbb de3c ca32 5fbc 80f1 363c f0bf 993d
00000350: d59e c03d eefe 453c b510 6c3c a681 24be
00000360: a94d 31bd 901d a8bd de21 303d f8ca a4bc
00000370: 541e d8bd 1b73 2f3e c008 353d 2265 06be
00000380: 675c f53d af1a e03d 4868 20be f49c 52bd
00000390: e31c 7fbd 63c7 693d f24a 87bd 3cb1 66bd
000003a0: 16e1 623d d6f8 9b3d 0b75 183e 81ac d7bd
000003b0: 06fd 0a3c 9b97 5cbd f1f1 fdbd 8014 f0bc
000003c0: 296a 1cbe efa2 7abd 163d ebbd 9ea2 b2bc
000003d0: 9b5f 593d f5a4 623d a397 11be b272 e73d
000003e0: b45d 063e 74c8 ec3d b343 57be f0fc 9cbd
000003f0: 9fa1 71bd fdc5 ebbd 04c2 e0bd 016c 4e3d
-0.028638462 -0.017075025 0.029757788 -0.07450841 -0.048268825 -0.03456344 -0.035286337 -0.1187538
-0.039749783 -0.07257375 0.1061206 0.0027109052 0.038518466 -0.026871799 0.08576364 -0.15842372
-0.09332998 0.09185448 -0.12934062 0.10500776 -0.13570818 0.052223228 -0.12294553 0.08286666
-0.021715576 0.08808218 -0.053650882 0.0341503 -0.037249032 -0.07542801 0.017610468 -0.06734763
0.08763058 -0.072622314 -0.0034240745 0.15416555 0.108839996 -0.03821081 0.017884066 -0.09161709
-0.09100547 -0.066476345 -0.0010900799 0.0009832578 0.062227104 0.00318997 -0.052558396 0.10475152
0.040259555 -0.08529361 -0.10638758 -0.11187962 -0.1018971 -0.1003365 -0.1448057 -0.018420687
0.08360514 0.0075543607 -0.07915565 0.13828324 0.009366931 -0.03865164 -0.01468722 -0.14441943
-0.006458378 0.11689419 0.12629248 0.035249036 -0.017177802 0.049530227 -0.016561847 0.011766573
0.08657539 0.029147778 -0.1130131 0.05773262 0.05857666 -0.045376785 -0.009748208 0.082212105
-0.06295694 0.08438746 0.16034412 0.09324534 -0.040385786 -0.014430592 0.015185754 0.0073328624
-0.003781458 -0.09659538 0.082155675 -0.020207783 -0.16787113 -0.14830153 -0.03166226 -0.10213224
0.014045417 0.094732195 0.070391834 -0.14802112 0.10056403 -0.07907579 0.053616047 0.0061920513
-0.15475011 -0.14493193 0.018276773 0.003352599 0.003118143 0.023187652 -0.016507467 -0.008060537
-0.19315957 0.12376352 0.053268593 0.102886856 0.08525983 -0.12908779 0.093234755 -0.09089963
-0.04743506 -0.07355706 0.0591304 -0.081722595 -0.10541893 0.023568135 0.05414415 -0.024577618
-0.06932293 0.090406835 -0.09551112 -0.15675168 0.08560836 -0.0025002162 -0.08964112 0.0045452476
-0.124486916 -0.095253296 0.13680123 0.04149746 0.13445117 0.049455687 -0.049711645 -0.116344415
0.08788802 0.14736375 -0.02695665 0.018469501 -0.05493694 0.029479904 0.12255392 0.014419122
-0.06199025 0.08681937 -0.043606956 0.13480604 0.012369839 0.08314466 0.08652924 -0.13495493
0.10670051 0.08429506 0.047862597 0.10228628 0.09203276 0.058193605 0.026439693 0.030134633
-0.10330976 0.0619585 -0.08384559 0.09053916 0.03479698 0.111638226 0.15600662 0.021225404
0.08341008 0.044091113 -0.05451273 -0.04195221 0.026394868 0.16184402 -0.040594947 -0.10359982
-0.04580206 -0.020953 -0.08414866 -0.17704056 0.021780582 -0.007162031 -0.05870519 0.053473216
0.040014926 -0.1316583 -0.06590921 -0.06449415 -0.09520058 -0.103728116 0.11285229 -0.09898105
-0.023919238 -0.17416349 -0.030844973 -0.018143598 -0.10848074 -0.04299526 -0.061016336 -0.026149083
0.027189098 -0.013622949 0.0111659765 0.07507312 0.09405295 0.012084706 0.01440828 -0.16065082
-0.043286953 -0.082087636 0.04300105 -0.020116314 -0.1055266 0.17133753 0.044197798 -0.13124517
0.11980515 0.109425895 -0.1566478 -0.051419213 -0.062283408 0.057074916 -0.066060916 -0.056321368
0.05539044 0.07615821 0.14888398 -0.105309494 0.008483177 -0.05385552 -0.12399662 -0.02930665
-0.15274872 -0.06119054 -0.114862606 -0.021806058 0.053069692 0.055333097 -0.14218001 0.11301173
0.13121682 0.11561671 -0.21021919 -0.076654315 -0.058992025 -0.11512373 -0.109745055 0.05039597

backBone.1.conv1.bias f4 [6]
00000000: dfff d239 8803 c538 8846 123a e0f4 213a
00000010: 3357 b1b9 ddd9 463a
0.0004024496 9.39435e-05 0.0005579968 0.0006178152 -0.0003382504 0.0007585565

backBone.1.bn1.weight f4 [6]
00000000: 29d0 813f 3dbf 773f 67f2 7d3f 7d23 803f
00000010: 103c 823f 0610 7c3f
1.014165 0.9677618 0.99198 1.001083 1.017458 0.9846195

backBone.1.bn1.bias f4 [6]
00000000: ab19 a13d 5179 f43d e264 043c e5f3 5a3a
00000010: 0d6c 683d 5435 5fbd
0.07866224 0.11937202 0.008080693 0.0008352383 0.05674367 -0.054494217

backBone.1.bn1.running_mean f4 [6]
00000000: c095 e9be 75ac 74bd fcc6 e23d 0eda 89be
00000010: 656c 1dbf c157 a9be
-0.45622063 -0.05973478 0.110731095 -0.26924175 -0.6149352 -0.33074763

backBone.1.bn1.running_var f4 [6]
00000000: 298d 223e cf67 0e3e ec91 7a3e 3416 803e
00000010: cb85 b23e d2a5 263e
0.15874161 0.13906787 0.24469727 0.2501694 0.348677 0.16274193

backBone.1.conv2.weight f4 [6, 6, 3, 3]
00000000: 8cd0 efbd d482 41be 4646 c7bd 9466 913d
00000010: c2e3 d3b9 564f cfbd d72c 633d 3560 f23c
00000020: 567e d13d c604 3d3d b0b7 e23b b9ee 0fbd
00000030: c709 bf3d d26b 933d b804 d33d ebdb ad3d
00000040: 3ca4 343d a60e ac3d e0ce 0e3e 10bf 803d
00000050: b97b 8ebd f811 82bd 461d ee3c b933 a13c
00000060: 4d22 74bd d68f 64bc 997c ed3d dafd 87bd
00000070: c63a f73d 971b 8c3d 42af 41bd a7f9 babd
00000080: 3204 8e3d 4949 0f3d c08c 773d 382d 443d
00000090: ac52 53bd 8ad7 1dbd 7bb4 06bd e334 5fbd
000000a0: 4dd4 85bd 6780 ca3d 712b 353e 8f05 a5bd
000000b0: f2fb 02be c338 cf3d d5c1 143e 8a7d 90bc
000000c0: 863b 123d ff19 e13d d976 7cbd dff9 07be
000000d0: 3f33 153d 5943 edbd 377e b8bd 4dc5 dabd
000000e0: ccec 843d f09f ebbc 84e7 12be 4e93 f5bd
000000f0: a34a 753d c78f 1dbd 5175 123e ceaf c13c
00000100: 4d9f 863d fafe 2f3b 2b47 ecbc 8726 9a3c
00000110: 2ecc eb3c c0ba d4bb c0e9 f63d 83ab 21bd
00000120: 9300 063e a4c5 673c 4eb5 18bd b84d ecbd
00000130: 40d4 febc 5a6e 9c3d a473 c6bc c694 e53d
00000140: ada4 543d 8e56 023e 03f1 01be df88 29be
00000150: 061e 6cb9 2adf a9bd 94de b0bd ca5f 663d
00000160: e531 893c a9f0 9ebc e73e 81bc c827 ea38
00000170: d73e 033d e7dd b83d c6e9 c6bd 1985 25bd
00000180: 947d a8bd 2f88 b5bd 6313 00bd 77c9 93bd
00000190: 4c83 82bd 7716 183c 01ee 033e 7b38 0dbe
000001a0: 520c f4bd 16bb 823c f5d6 be3d 90a0 b93d
000001b0: f43d 00be f472 0f3e 4f37 adbd 0820 0e3c
000001c0: 2ad1 babc 0b48 1c3e df2f f4bc 7472 923d
000001d0: 010c 99bd a62a a93c 5213 dabd ec70 8bbd
000001e0: 6806 10be a2eb b13c 6782 003e ea0d 053e
000001f0: 9b11 123d 4b76 eebc c6e4 6d3d 44eb f13d
00000200: edd3 6a3d 3515 0d3e 6fed 4b3c af2c d73d
00000210: 7c74 2bbe e555 87bd f474 a63d cc87 463e
00000220: d964 d1bd 23d5 25bc 99d5 42be 2773 d8bd
00000230: 3e59 583d f735 c9bd 583a b93d 8401 cd3d
00000240: 16c2 d73d fee2 693c 3d60 673b 32cb 4ebe
00000250: aea8 87bc 1d32 73bd 2686 26be e59a d2bc
00000260: 0b38 03bd f9c3 9abd ef63 163e 83b1 c83d
00000270: e731 8c3c 8e71 2c3d 337e 9fbd 53ef 78bd
00000280: 5026 9e3c c2a5 303d 9e8b 413d c1dc 4d3d
00000290: 91c5 5fbc a506 c9bd 0a6c 313c 1d9a 113d
000002a0: 33d5 87bd 1968 00bc 7adf 083e 12f1 923d
000002b0: 7a24 a83c 26b5 193e 9e8f 65bd 2561 e9bd
000002c0: aa73 e13d 24be d23d 4905 22be 2a97 8b3c
000002d0: c0ba 0b3e 0da1 9e3d 33cc 353d 7cff a93d
000002e0: 4c2f fa3d 6f18 013e d94c 273d fdd1 003e
000002f0: e764 9b3d 3b5e 723d 79b3 ebbd b370 1c3d
00000300: 5509 c7ba 99bc a13d eb41 bf3d 1792 cb3c
00000310: f8f8 04bd d209 973c be9b 5b3d 0014 d7bd
00000320: 5d01 09bc ff36 9e3d 10e9 1b3e cfd2 f53d
00000330: c57d f6bd 64b9 85bd 0cd9 803d 1985 99bd
00000340: b64e 243e 183b 1c3d 681c 463d 6839 2ebd
00000350: 9420 21bd 3ecf fb3c 3a19 153e 5e56 5c3d
00000360: 0c3f 4bbd 97d0 bebd 9c05 05be 447b 673d
00000370: c370 12be 6093 d13d b47e a4bd 3549 8e3c
00000380: 4e42 f53d bce2 9abd 5af5 35bb 04e6 05be
00000390: a6d3 9cbd a9e1 96bd 20c2 6cbc 9763 983c
000003a0: 4b55 ab3d 25d6 763d b3b0 74bc 85dc b6bd
000003b0: 2aa7 963d d8c5 243e 36be e1bd 5188 223d
000003c0: c3a6 f7bd 1473 ea3d 1241 73bd c9e0 d53d
000003d0: a791 c83c 059f 963d 0d4b eebd cf27 063c
000003e0: 9f0b b93d 498a a43d 0c3f 4bbd eb07 333d
000003f0: b52d ad3d eae3 2fbd a405 88bd 29c4 d93c
-0.11709699 -0.18897563 -0.097302005 0.07099643 -0.0004041475 -0.10122554 0.055462684 0.02958689
0.10229175 0.04614713 0.00691887 -0.035139773 0.09328037 0.071982995 0.103036344 0.08489212
0.04410194 0.084012315 0.13946104 0.06286442 -0.06957192 -0.063510835 0.029066693 0.019677984
-0.059603024 -0.013950309 0.11596031 -0.06640215 0.12071757 0.068412 -0.04728628 -0.09129649
0.06934394 0.034982 0.060436964 0.047894686 -0.051592514 -0.038535632 -0.032886963 -0.054493796
-0.06534634 0.09887772 0.17692353 -0.08057701 -0.12791422 0.10118248 0.14527066 -0.017637987
0.035701297 0.109912865 -0.06163678 -0.13278912 0.036425825 -0.11585111 -0.090084486 -0.106821634
0.06490478 -0.028762788 -0.14346129 -0.11990987 0.059885632 -0.038467195 0.14302565 0.0236434
0.06573353 0.0026854859 -0.02884253 0.0188172 0.028783884 -0.006491989 0.12056303 -0.039470207
0.13086157 0.014146242 -0.03728228 -0.11538261 -0.031107068 0.076382354 -0.024225064 0.11210017
0.05191486 0.1272833 -0.12689595 -0.16556118 -0.00022517898 -0.08294518 -0.086362034 0.056243695
0.016747424 -0.019401865 -0.015777064 0.00011165399 0.03204235 0.090266995 -0.097125575 -0.040410135
-0.08227077 -0.088638656 -0.03126849 -0.07216161 -0.06372699 0.0092827 0.1288376 -0.13791077
-0.119164124 0.01595835 0.093183435 0.09063828 -0.12523633 0.14008695 -0.08457815 0.008674629
-0.022804815 0.15261857 -0.029807983 0.071507365 -0.07472993 0.02065022 -0.10648216 -0.068086475
-0.14064944 0.021718804 0.12549745 0.12993589 0.03566132 -0.02910914 0.058079503 0.118124515
0.057331014 0.13777621 0.012446745 0.105065696 -0.16743654 -0.0660818 0.08127776 0.1938774
-0.10224313 -0.010121617 -0.19026794 -0.105688386 0.052819483 -0.09824746 0.09044331 0.10010055
0.10535066 0.014275311 0.0035305165 -0.201947 -0.016559925 -0.059373964 -0.16262111 -0.025708625
-0.03203587 -0.0755691 0.14686559 0.09799483 0.017113639 0.04210048 -0.077877425 -0.060775112
0.019305378 0.04312683 0.04725229 0.050259355 -0.013657943 -0.098157205 0.010828981 0.035547365
-0.066324614 -0.007837319 0.133665 0.07174887 0.020525206 0.15010509 -0.056045167 -0.11395482
0.11008389 0.10290173 -0.15822329 0.017039854 0.13645458 0.07745562 0.044384193 0.08300683
0.122160524 0.12606977 0.040844772 0.12580104 0.07587605 0.059171896 -0.11508841 0.038193416
-0.0015185276 0.078973 0.09338745 0.024849935 -0.032463998 0.0184373 0.053615324 -0.105018616
-0.008362141 0.077253334 0.15225625 0.12003099 -0.120357074 -0.06529501 0.062913984 -0.074960895
0.16045651 0.038142294 0.048366934 -0.042535216 -0.03933771 0.03073847 0.14560404 0.053793304
-0.049620673 -0.09317129 -0.12990421 0.05651404 -0.14300828 0.10233188 -0.08031979 0.017368892
0.11975537 -0.075627774 -0.002776465 -0.13076025 -0.07657556 -0.0736726 -0.01445058 0.018602176
0.08365878 0.060262818 -0.0149347065 -0.089287795 0.07356103 0.16091096 -0.11022608 0.039680783
-0.12092354 0.11447731 -0.059388228 0.10443265 0.024483515 0.07354549 -0.116354086 0.008188202
0.0903542 0.08034188 -0.049620673 0.043708723 0.084559835 -0.042941965 -0.06641701 0.026582794

backBone.1.conv2.bias f4 [6]
00000000: 423c 2eb9 5110 a139 0b6c 4239 ca61 1a3a
00000010: aa0f 0b3a c12f 57b9
-0.00016616381 0.0003072047 0.00018541531 0.00058892055 0.00053047633 -0.00020521788

backBone.1.bn2.weight f4 [6]
00000000: 48a3 803f 50b1 723f e96a 5b3f c563 673f
00000010: b590 7e3f 7437 6c3f
1.004983 0.9480181 0.85710007 0.9038661 0.99439555 0.92272115

backBone.1.bn2.bias f4 [6]
00000000: bf9e 48bd 9d9a 4c3c a947 f33b 4bff 04be
00000010: d8cc a1bd 2d9c 6bbd
-0.048979517 0.012488035 0.007424314 -0.12988012 -0.07900399 -0.057521988

backBone.1.bn2.running_mean f4 [6]
00000000: e0bc 0e3e 4fac 32be 7c0d a33a 9ec5 043f
00000010: c23d 22bd add0 b43d
0.13939238 -0.17448543 0.0012439932 0.5186404 -0.039609678 0.08828864

backBone.1.bn2.running_var f4 [6]
00000000: 91f6 d13d b069 e33d 61b3 ef3d b4cb db3d
00000010: 2f33 8e3d 7901 9f3d
0.10252107 0.11104143 0.11704136 0.10732213 0.06943356 0.07763953

backBone.2.conv1.weight f4 [6, 6, 3, 3]
00000000: c7be c7bd 289a 3b3d 3be9 64bd 6c91 60bd
00000010: 82ad d2bc 970a cbbd a29c edbd b76b c2bd
00000020: e26a 293d 0e16 b13d 644a eebd de55 693d
00000030: 3a74 343d cf5a 72bd d409 f33b fcc0 ba3c
00000040: ee93 f1bd f034 13be c1bd 48be 7e6c 02be
00000050: 7114 95bc a705 eabd 5849 1e3e 764f 3bbd
00000060: b200 063e 586e 06bd bed9 64bd 4dcc 0cbe
00000070: 5b74 19bd fcf3 b0bd 00cf 14bd 84a2 033d
00000080: 5cc5 9d3c 02b3 b8bd 0be8 e63d af82 f8bd
00000090: 49c7 efbc dedc 60bc d144 eabc ecfe dd3b
000000a0: 74b9 fa3d 5ece 80bb 0899 e83c 7398 e03d
000000b0: 5ff7 e93d 4f07 9e3d fce0 adbc fac0 adbc
000000c0: 0ce6 0a3d ed21 003e 7660 c33d b25d 9bbd
000000d0: ab73 9fbc 3a8c 8a3d 5826 d2bc 2522 fbbd
000000e0: 0088 a83c e31a b9bd d734 2e3d de4d 8f3a
000000f0: c417 51bd 46b8 923d 3977 31bd 9330 9fbd
00000100: be2f 0ebe e9f3 bf3d 81e6 8bbc 3243 563d
00000110: 216b fdbd 6537 5cbd efc9 af3d f233 0b3d
00000120: 62fb 2fbd f32b 923d 3374 28be 0cd8 f33c
00000130: fd50 babd cb59 353d 954c 3b3d 15aa 07be
00000140: b5b5 02be fefa b03d 992a 8a3d 56da 9fbb
00000150: f998 f63d ce7c 28bd 11d8 93bd 5c96 793d
00000160: 2f20 0cbe fca1 853d fe61 8cbd 3c01 b0bd
00000170: 519d cabd daf1 c23d fb7f e23d b9bb 46bc
00000180: 78f2 27bd 52c4 16bd 5577 1ebd 4213 863c
00000190: a778 57bb eca1 cf3d e85b 653d a430 16be
000001a0: d8c5 b9bd 3bf0 873d 50a6 41be e8d0 64bc
000001b0: 3926 bcbd 858c 69bb f538 2abd 8d27 42bc
000001c0: 1c96 b7bd 13e7 363c 21b6 d8bc 5929 78bd
000001d0: 8669 883d 49b7 0fbd b063 71bb 90e9 193e
000001e0: 6aa8 ca3c dea1 abbd 4d5e f7bd 8106 0fbd
000001f0: 1823 bf3d 21d8 823d 1f36 09be 0e73 2cbe
00000200: 10d0 e23d a90b 273d 06de 823d 851d f73c
00000210: 889d 5abc 9176 013e 5ed9 9dbd ade4 e4bd
00000220: 43c1 15be 2e16 86bd 8002 9b3d 1631 bd3d
00000230: c940 c2bd 90f3 22be ca65 d43c 7d90 ec3b
00000240: f50a 22be 194f d33d 8a22 e83d 62d9 d83c
00000250: b52f 4e3c 87b2 dabd d89d a1bd 77c5 06bd
00000260: 0de8 333c 4dcb 9c3d 83dc 5ebc fabf 073b
00000270: d0f0 273d 3b6c 3e3d d92e 3fbd 3675 933c
00000280: d5ad 65bd 08b8 bf3d f563 b3ba ecd4 fd3d
00000290: 46d3 8e3d c928 083e ad76 e23d b4e3 e23d
000002a0: 84ac 9abd 8a59 e13c d707 d53d 91c2 a3bd
000002b0: b0bc 5abd da13 dabd 3465 06be 2631 fb3d
000002c0: be66 93bd 2c49 64bd c48c 523c 02a6 bf3d
000002d0: e813 07be 705b 9ebd da34 fbbd f912 e4bc
000002e0: 2bd0 df3b 5448 a83d 4b3c 21be 0878 33bd
000002f0: 37bf e3bd 8b25 4abd dad0 f93d c1dd 9ebc
00000300: 5278 b2bd ecc0 c1bd 4b0d e5bd 662f 1dbb
00000310: 3303 fd3d 1657 e8bc c439 bebd 23b2 ddbd
00000320: 5402 20bd b3a9 ae3c fa38 c53d d3d3 763d
00000330: d014 cbbd 7fcc b5bc 402b 983c f603 903b
00000340: 7d51 753d baed c23c 11a0 ec3d 5a5c 1abd
00000350: 4740 8dbd f1df 24bd a239 2b3c 1dc5 cabb
00000360: b883 e63c 0d7b 0fbe dd91 fc3d b75b 073e
00000370: 2a02 903d a18c 593c 5e30 bdbd c10a 21bd
00000380: 7a5b 6f3d c2f0 9c3d d57e 623c 6578 0a3e
00000390: d258 09be 0166 773c dedf b83b d9d5 d2bc
000003a0: b869 b13d 7d41 55bd 3172 033d 7b2a fcbb
000003b0: e687 eebd 312f 01be c19f a03d 938f 2dbe
000003c0: 5bb2 0fbe 4c71 1dbd 1d76 f2bd 8a40 9dbd
000003d0: 4d3b fe3d 03b9 cabc 9b23 c83d 543f e0bd
000003e0: ee26 56bd ad22 913d 2fb6 c2bd 7430 10bd
000003f0: 480a 0e3e a96e 8e3d 545e 213d 595e cbbd
-0.09753185 0.04580131 -0.05588649 -0.054826185 -0.0257175 -0.09914129 -0.11602141 -0.09493201
0.041361697 0.08646785 -0.11635283 0.056966655 0.044056155 -0.059168633 0.007416943 0.0227971
-0.117957935 -0.14375663 -0.19603635 -0.12736699 -0.018198224 -0.11426859 0.15457666 -0.045730077
0.13086203 -0.032820076 -0.055871718 -0.1374981 -0.03746448 -0.08640286 -0.036330223 0.03213741
0.019259147 -0.09018518 0.112747274 -0.12134301 -0.029269831 -0.013724534 -0.028597267 0.006774774
0.122424036 -0.003930851 0.028393283 0.109665774 0.114241354 0.07716238 -0.021225445 -0.021210182
0.033910796 0.12512942 0.09539883 -0.0758623 -0.019464334 0.06765027 -0.02565305 -0.12262372
0.020572662 -0.09038331 0.04253086 0.001093324 -0.051048055 0.071640536 -0.04332659 -0.07772937
-0.138854 0.09372694 -0.017077686 0.052310176 -0.12373949 -0.053763766 0.08583438 0.033985086
-0.042964347 0.07137289 -0.16450576 0.029766105 -0.090974785 0.044275086 0.04572733 -0.13248475
-0.12764628 0.08641623 0.06746406 -0.0048783226 0.12040896 -0.041134648 -0.07218946 0.06093441
-0.13684152 0.06525037 -0.06854628 -0.085939854 -0.09893287 0.09518786 0.110595666 -0.0121297175
-0.04100272 -0.03680832 -0.038688023 0.016366605 -0.003287831 0.10138306 0.05599585 -0.14666992
-0.09070939 0.06637617 -0.189111 -0.013965823 -0.09186978 -0.0035636735 -0.041558225 -0.01185025
-0.08964178 0.011163491 -0.026454033 -0.060586307 0.06660752 -0.035086904 -0.00368331 0.15030503
0.02473851 -0.08380483 -0.12078533 -0.034918312 0.093328655 0.063888796 -0.13399552 -0.16840765
0.11074841 0.040782604 0.06390004 0.030165443 -0.013343222 0.12642886 -0.07707475 -0.11176429
-0.14624505 -0.06547199 0.07568836 0.09237878 -0.09485013 -0.15913224 0.025927443 0.007219373
-0.15824492 0.10317821 0.11334713 0.026470844 0.012584616 -0.10678583 -0.078914344 -0.03290316
0.010980618 0.07655964 -0.013602379 0.0020713792 0.04100114 0.046489935 -0.046675537 0.018000226
-0.056073982 0.09361273 -0.0013686406 0.12394127 0.06973891 0.13296808 0.11057792 0.11078587
-0.07552436 0.027508516 0.10401886 -0.07996095 -0.053402603 -0.10648318 -0.13124543 0.12265234
-0.07197331 -0.055733845 0.012850944 0.09357835 -0.13191187 -0.07732284 -0.1226594 -0.027841078
0.0068302355 0.082169205 -0.15745656 -0.043815643 -0.11120456 -0.04935221 0.121980384 -0.01939285
-0.087143555 -0.09460625 -0.11184176 -0.002398455 0.12354126 -0.028361838 -0.09288362 -0.108249925
-0.03906472 0.021321153 0.09630008 0.060260605 -0.09916079 -0.022192238 0.01857531 0.0043950034
0.059892166 0.023794997 0.11553968 -0.03768573 -0.068970256 -0.04025263 0.010450752 -0.0061880485
0.02813898 -0.14011784 0.12332509 0.1321858 0.07031663 0.013278157 -0.09237741 -0.039316896
0.05843685 0.076631084 0.013824184 0.1352249 -0.13412789 0.015100003 0.0056419214 -0.025736736
0.086627424 -0.052064408 0.032091323 -0.0076954938 -0.11647014 -0.12615658 0.07842971 -0.169493
-0.14032881 -0.038438126 -0.118389346 -0.076783255 0.124136545 -0.024746424 0.09772416 -0.10949579
-0.05228322 0.07086692 -0.09507405 -0.03520246 0.1387111 0.069547005 0.0393966 -0.09930105

backBone.2.conv1.bias f4 [6]
00000000: 1793 58b9 1aad 17ba 2208 23ba 30be fab9
00000010: ccc1 aab9 e3c6 8a39
-0.0002065416 -0.0005785987 -0.00062191684 -0.00047825417 -0.00032569317 0.00026469593

backBone.2.bn1.weight f4 [6]
00000000: dbb9 7d3f bd74 853f a31c 743f 025d 833f
00000010: 430a 793f a9e6 803f
0.9911172 1.0426251 0.95356196 1.0262759 0.97281283 1.0070392

backBone.2.bn1.bias f4 [6]
00000000: ae08 83bd dc3a e1ba 8eca 36bd 3221 003d
00000010: 4b04 97bd d62b 003b
-0.0639814 -0.0017183679 -0.044626765 0.031281658 -0.07373866 0.0019557378

backBone.2.bn1.running_mean f4 [6]
00000000: 6f76 c6be f95f 29bf bbd2 aabe b518 babe
00000010: 87b1 29be 4346 c9be
-0.38762233 -0.6616207 -0.333639 -0.36346975 -0.16571628 -0.39311418

backBone.2.bn1.running_var f4 [6]
00000000: 3086 fd3e 7fe3 dd3e f277 b53e b4ad b93e
00000010: df1b c53e 0b73 923e
0.4951644 0.43337628 0.35443074 0.36265337 0.38497826 0.28603396

backBone.2.conv2.weight f4 [6, 6, 3, 3]
00000000: b9b7 883d 72ff 043e 39fa 523d 69d3 663b
00000010: 8c6e babd fdc6 d83d 61fd 2dbd d5db b83d
00000020: 5857 8e3d 1331 333d 0ff1 8bbc 1fdd ce3d
00000030: 6474 493d b80b 1dbd 750b cb3b 4e6c c53d
00000040: ff03 a3bd 9c3e 07be 5037 00be 17e3 fabd
00000050: 4c01 1d3e ac24 033d 73d8 073e 43e6 cebd
00000060: 82aa 9ebc 0a63 b4bd 9588 afbc a081 27be
00000070: 01e0 a93c 0e1b 75bd e4d5 853d 16b9 66bd
00000080: 7aaa 9b3d 1b31 f0bd e128 09bb 9ffc a33d
00000090: e2a1 1d3d 6b94 69bd 06d7 32be 8ec6 263d
000000a0: 7255 febd 3d3e 3bbd 3999 23be 84c8 afbc
000000b0: f457 88bd d0df 9fbd dd77 23bd 5776 c13d
000000c0: d857 fdbc 09b1 663d b3fa a13d 2a36 f9bb
000000d0: 5fb4 9d3c e370 733d 38e2 003a 1abf b03c
000000e0: 95f0 0fbd 71ba ddbd fd41 edbc 4a96 d2bd
000000f0: dd98 9d3d 1f95 b63d 5487 7c3c d677 a2bc
00000100: d56b 233d 6694 f7bc 8689 6c3b 7400 043e
00000110: e010 26bd 6a3a 963d 2ef7 b33c 0477 01be
00000120: 3d87 273e 9b8d b43c 1ea8 083e bbf6 c03d
00000130: 8d27 38be df66 023e 50e2 563d 6bde c6bd
00000140: 5601 d23c a520 2c3d 15e6 033e 374b 3e3c
00000150: 1049 28bc 2e3d 813d 366d d93d 11e1 28be
00000160: f06c c73d 2d48 a3bc bdb4 17bc 846c e0bb
00000170: e3aa 863c 615d af3d 6b16 873d b8fa 95bd
00000180: 5569 e13c f540 5bbd e9b6 cfbd 5d14 b9bc
00000190: 4622 1fbd af0b 383d 1703 ed3c 9028 313d
000001a0: ec7a 05be 82e5 123d 696a 773d 3d83 083e
000001b0: 185d bd3c 1c27 15bc 0a4a 52bd 953a a0bd
000001c0: 4638 76bc 8338 c9bd 65d1 ae3d e1b4 c1bd
000001d0: 76ec e3bd 25ca 1cbe f594 b53d 2868 a83d
000001e0: e7a8 b03d 3f47 02bd 0263 33bd 07ff ec3d
000001f0: 4147 c03d 5cf7 0dbe 3f96 99bd 6835 2cbd
00000200: 9d5b 053e f0b4 da3b c49a b7bd d40a 6b3d
00000210: 32d3 013d 938e cdbc b76d f43d f3b7 07bc
00000220: c452 803d 45e9 c9bc edfa 903d 5b67 883c
00000230: c5b0 7dbd f682 a0bd a0dd 683d d089 603d
00000240: 8905 7f3d 9b8a 693d 2502 f03d 3962 b03d
00000250: 03eb adbd 1c6b babd 7e81 843d ddbd 573d
00000260: ae95 19bb 0412 b4bb c51f 863d 1631 be3c
00000270: 610d c2bd 4809 ee3d 13d0 a7bd 1ea7 e0bc
00000280: 6742 28be 17f8 babd 7e3e a03c 0f0a 473c
00000290: 3035 b93d 164a bebd 0a09 aabd 239d 4bbd
000002a0: 7cb9 ddbd e7cc 103d f4db d53d d9c0 2f3e
000002b0: 70c2 d43d 2d2b ba3d 123f cfbd 7cc0 febd
000002c0: 07e9 d9bb 2f60 53bd 2897 fdbd d586 8b3c
000002d0: 92ef 933d fcc9 0fbe ac5b a3bb afed 583c
000002e0: b0af c93b 6409 7ebd 468f 47bc e94f 97bc
000002f0: 4498 b13d 4ec8 2b3d 3231 153e 072d 163e
00000300: 0d47 c93d 48b4 bc3a f143 dcbd 7235 91bc
00000310: 2282 d83d c2f0 8cbd 9c72 973d fa2f 073e
00000320: dbe7 ab3d f3e2 2b3d 49d0 bb3d 279f 7dbc
00000330: d371 95bd 0096 cc3d 88cf 563d dadd 8abd
00000340: 677e 4abd 6e93 163e aeec 363c 60de d03c
00000350: d940 3fbe 83c8 2b3d 3b78 6ebd c3c8 d9bd
00000360: 1835 09be c655 3cbc 55e0 6abd 6332 353d
00000370: b951 7dbd b393 e7bd 6b0f 31be e1b5 993d
00000380: f5ba cbbd a3bb 893d 4f4d 093e 3d98 b6bd
00000390: 0d42 22be f25b 1fbe 7718 2d3d 87fc 67bc
000003a0: ad22 cb3c d24c 06be 8a64 d6bc a231 813d
000003b0: 34c6 adbd e74b 8d3c e309 4abd 2c8a 71bc
000003c0: 12b2 ac3d 6cfc 623d 1364 b6bd fca5 363d
000003d0: 6a35 303e 7481 ea3d e31f ba3d 5bfb f8bd
000003e0: 77a8 0b3e 8b31 283d 99c2 a13a 1fab b13d
000003f0: a9bd b6bd 811e 2dbe d109 dd3c 58ce b33c
0.06675667 0.1298807 0.051508162 0.0035221225 -0.091031164 0.10584829 -0.04247797 0.09026305
0.06950253 0.043747973 -0.01708272 0.10100769 0.049183264 -0.038341254 0.006196434 0.09639798
-0.079597466 -0.13207477 -0.125211 -0.12250345 0.15332526 0.032017395 0.13266163 -0.10102513
-0.019368414 -0.08807953 -0.021427432 -0.16358042 0.020736696 -0.059840254 0.06534937 -0.056328855
0.07600875 -0.11728116 -0.0020928907 0.08007168 0.03848446 -0.057026308 -0.17464837 0.0407167
-0.12418641 -0.045713652 -0.15976419 -0.021457918 -0.06657401 -0.07806361 -0.039909232 0.094464
-0.030925676 0.056321178 0.07909145 -0.007605334 0.019251047 0.05943383 0.0004916522 0.0215755
-0.035141546 -0.108265765 -0.02896213 -0.102825716 0.07695172 0.08915161 0.015413124 -0.019832533
0.03989776 -0.03022213 0.0036092713 0.12890798 -0.040543437 0.0733536 0.02196845 -0.12643057
0.16360183 0.022040179 0.13345382 0.0942206 -0.17983837 0.12734555 0.052461922 -0.097103916
0.025635403 0.04202332 0.12880738 0.011614612 -0.010271326 0.06310497 0.106165335 -0.16492106
0.09737575 -0.019931877 -0.0092594 -0.0068488736 0.016438907 0.085627325 0.06596073 -0.073232114
0.027516047 -0.053528745 -0.10142309 -0.022592718 -0.038851045 0.044933017 0.028932137 0.043251574
-0.13035172 0.035863407 0.060404215 0.13331313 0.02311568 -0.009103563 -0.05134014 -0.07823674
-0.015028065 -0.09825232 0.085360326 -0.09458328 -0.11129086 -0.15311487 0.08866302 0.08222991
0.086259656 -0.031806227 -0.043795593 0.1157208 0.093885906 -0.13863891 -0.0749936 -0.04204312
0.13023229 0.0066744015 -0.08965066 0.057383373 0.031695552 -0.025092399 0.11934989 -0.008283603
0.06265786 -0.024647364 0.0707911 0.016650846 -0.06193616 -0.07837479 0.056851983 0.05481893
0.062261138 0.05701695 0.11719159 0.086124845 -0.084920906 -0.09102461 0.06470011 0.052671302
-0.0023435163 -0.0054953117 0.06549028 0.023216765 -0.09475208 0.11622864 -0.08193984 -0.027423438
-0.1643158 -0.09129351 0.019561049 0.012148394 0.09043348 -0.092914745 -0.08302505 -0.049710404
-0.10826394 0.03535166 0.10442343 0.1716341 0.103886485 0.090902664 -0.101194516 -0.12439057
-0.0066500935 -0.0516054 -0.123823464 0.017032066 0.07223429 -0.14041895 -0.0049852934 0.013240262
0.006154977 -0.062020674 -0.012180155 -0.018470721 0.086716205 0.041939072 0.14569548 0.14665614
0.09828005 0.001439699 -0.10755146 -0.01772568 0.10571696 -0.068818584 0.07394907 0.13201895
0.08393832 0.041964483 0.091705866 -0.015479839 -0.07297101 0.09989548 0.05244401 -0.06780596
-0.049436953 0.14704677 0.011164827 0.025496662 -0.18677081 0.04193927 -0.05822013 -0.106339954
-0.1339916 -0.011495059 -0.057342846 0.044237506 -0.061845515 -0.11307468 -0.17291038 0.07505394
-0.099477686 0.06725242 0.13408397 -0.08915756 -0.15845509 -0.15562418 0.04225966 -0.014159328
0.024796808 -0.13115242 -0.026170988 0.06308295 -0.0848507 0.017248107 -0.049325835 -0.014742415
0.08432402 0.05541651 -0.089058064 0.04459189 0.17207876 0.114504725 0.09088113 -0.12157317
0.13638483 0.041062873 0.001234132 0.08675217 -0.089228936 -0.16906168 0.02698222 0.021948978

backBone.2.conv2.bias f4 [6]
00000000: 9cfb afb9 fb5c 413a c13c ad38 d598 ad39
00000010: f355 9a39 e1a9 eeba
-0.00033566065 0.0007376221 8.260599e-05 0.00033111 0.00029437206 -0.0018208587

backBone.2.bn2.weight f4 [6]
00000000: df04 803f 1b9b 723f f3da 843f 81e0 823f
00000010: 2bbf 8a3f 8beb 773f
1.0001487 0.9476792 1.0379318 1.0224763 1.083959 0.96843785

backBone.2.bn2.bias f4 [6]
00000000: 9be7 cdbc ce26 5abd 69f5 77bd fcae 7abd
00000010: 1a37 61be 67fd 47bd
-0.025134852 -0.053259663 -0.060536776 -0.061202034 -0.21993676 -0.048825648

backBone.2.bn2.running_mean f4 [6]
00000000: 6613 d5bd 8f56 343e 644d bfbc b228 053d
00000010: 8bd2 94bd ec49 a3be
-0.104040906 0.17611144 -0.023352332 0.032509513 -0.072667204 -0.31892335

backBone.2.bn2.running_var f4 [6]
00000000: 7e86 903d 80e3 813d cb16 6f3d 7723 b83d
00000010: 0f15 6c3d 7e7f c23d
0.07056902 0.0634222 0.058371346 0.089911394 0.05763727 0.094969735
