models/alphazero/main.pt (torch, 97472 bytes, 117 tensors)

startBlock.0.weight f4 [8, 4, 3, 3]
0	0xbd2e8dc2	-0.04261566
1	0xbe1fa1ae	-0.1558902
2	0xbdd9b06e	-0.106293544
3	0xbe139714	-0.144131
4	0x3e556144	0.20837885
5	0xbc3b7ce8	-0.011443354
6	0x3e053861	0.13009788
7	0x3d927d23	0.07152774
8	0x3d97c57c	0.07410714
9	0x3da52b57	0.08064907
10	0xbd2a7d6f	-0.04162353
11	0xb9872d0c	-0.0002578277
12	0xbeacdddf	-0.33763024
13	0xbdf919d0	-0.121631265
14	0x3c864b22	0.016393248
15	0x3dde4def	0.108547084
16	0x3df04e06	0.11733632
17	0x3d5d4450	0.054020226
18	0xbc8558ff	-0.016277788
19	0xbe4a9696	-0.19784006
20	0xbc543f8f	-0.012954607
21	0x3ebf8e1a	0.37413102
22	0xbe485a0f	-0.19565605
23	0x3e2268f7	0.15860353
24	0xbdb68a61	-0.089131124
25	0x3a9cdd07	0.0011967727
26	0x3e35f280	0.17768288
27	0x3c337238	0.010952525
28	0xbca3d44d	-0.019998694
29	0x3d9f4ed2	0.07778706
30	0x3e747093	0.23871069
31	0xbe3bfdf3	-0.18358593
32	0x3c8657f9	0.01639937
33	0x3dd03ee8	0.101682484
34	0x3d2315d6	0.039815746
35	0x3e573961	0.21017982
36	0x3d885ceb	0.06658348
37	0xbd96b36f	-0.07358443
38	0x3d781c53	0.060573887
39	0x3e874ce2	0.26425844
40	0xbdb29660	-0.08720088
41	0xbe03b8c4	-0.12863451
42	0xbd8761e0	-0.06610465
43	0xbe4f22ef	-0.2022817
44	0xbe441432	-0.19148329
45	0xbddb5beb	-0.10710891
46	0xbc0814cf	-0.008305742
47	0x3e4a5d04	0.19762045
48	0x3d88ff27	0.066892914
49	0x3ddeafe0	0.10873389
50	0x3e1626ae	0.14663193
51	0x3ea75528	0.32682157
52	0xbe4ec6ae	-0.20192978
53	0x3ddc614d	0.10760746
54	0xbc22f805	-0.009946828
55	0x3e473789	0.19454779
56	0xbdd6be77	-0.10485547
57	0xbe89fca6	-0.26950568
58	0xbea8cbf6	-0.3296811
59	0xbdf963d0	-0.12177241
60	0xbd3c2484	-0.04593326
61	0xbcecbe2f	-0.02889928
62	0xbdcc9272	-0.0998887
63	0x3d94ad39	0.07259602
64	0xbe80aee8	-0.25133443
65	0x3d1872f2	0.037218995
66	0xbdc56b5f	-0.0963962
67	0x3df76098	0.12078971
68	0xbd0a4eb1	-0.033766452
69	0xbd186397	-0.03720435
70	0xbdab9e5c	-0.08379814
71	0x3e01e520	0.1268506
72	0xbe0bdcc1	-0.1365843
73	0x3d090627	0.033453133
74	0x3e5021e6	0.20325431
75	0xbe1fc5c3	-0.15602784
76	0x3db36efa	0.087614015
77	0x3d81e4fc	0.063425034
78	0xbd8a35f2	-0.067485705
79	0xbdc04809	-0.093887396
80	0xbe1c4f25	-0.15264566
81	0x3d905a75	0.07048503
82	0xbdc0a87c	-0.09407136
83	0x3e34423f	0.17603396
84	0xbd11babc	-0.035578474
85	0x3e190dd0	0.14946675
86	0xbda38b39	-0.07985539
87	0x3e16e99f	0.14737557
88	0xbe0c3afd	-0.13694377
89	0xbcfce64b	-0.030871531
90	0xbceab36e	-0.028650012
91	0x3e7dc14e	0.24780771
92	0x3ec3cc72	0.38241917
93	0x3e564c47	0.20927535
94	0xbe839735	-0.257013
95	0x3e6c98bf	0.23105143
96	0x3e3b9f07	0.18322383
97	0xbd86ac0f	-0.06575786
98	0xbe0455c0	-0.12923336
99	0xbc521925	-0.012823378
100	0x3e6101f1	0.21973397
101	0x3dcfbc74	0.101433665
102	0x3c5cd14c	0.013477635
103	0xbcdbc6c3	-0.026828175
104	0x3bb868e7	0.0056277397
105	0xbe1f07f6	-0.1553038
106	0x3d76d20c	0.06025891
107	0xbd8195c5	-0.063273944
108	0x3dd37d4d	0.103266336
109	0x3c755d3d	0.014975843
110	0xbe04bb8e	-0.12962171
111	0x3c39020e	0.011291994
112	0x3e245e45	0.16051586
113	0x3e0af51d	0.13570066
114	0xbd64bc2b	-0.055843513
115	0x3e099a04	0.13437659
116	0x3d776a29	0.060403977
117	0xbda962e5	-0.08270816
118	0x3d826dde	0.06368612
119	0x3e19714a	0.14984623
120	0x3dea25cc	0.114329904
121	0xbd898fdb	-0.067168914
122	0xbda18e35	-0.07888452
123	0x3e1ff1df	0.1561961
124	0xbcb01838	-0.021495923
125	0xbdbb3000	-0.09140015
126	0xbe898b4c	-0.26864088
127	0x3e270b84	0.16312987
128	0x3ebfd816	0.37469548
129	0x3e3dc030	0.18530345
130	0x3e4f0bf2	0.202194
131	0xbe4a4a0d	-0.1975481
132	0xbe131f82	-0.14367488
133	0xbe1de2f3	-0.15418606
134	0x3c79c17f	0.015243887
135	0xbd85f1a4	-0.0654023
136	0x3dad9fb1	0.08477724
137	0xbd8698e5	-0.06572131
138	0xbd5f76db	-0.05455671
139	0xbe08063f	-0.13283633
140	0x3d01bf36	0.031676494
141	0xbd1cbfec	-0.03826897
142	0x3d9400ac	0.07226691
143	0x3d65e40f	0.056125697
144	0x3dada944	0.084795505
145	0x3e39d2d0	0.18146825
146	0xbe321e0d	-0.17394276
147	0xbe42272d	-0.18960257
148	0xbd0472f3	-0.032336187
149	0xbdc3dca2	-0.09563567
150	0x3d85365e	0.0650451
151	0x3e2cd21f	0.1687703
152	0xbdc903b0	-0.098151565
153	0xbe3d16aa	-0.18465677
154	0x3cc0afe3	0.02352137
155	0xbce1ee3e	-0.027579423
156	0x3e5ff080	0.21869087
157	0x3e42f908	0.1904031
158	0x3c898e9d	0.016791636
159	0x3a974c7f	0.0011543183
160	0x3dfd665c	0.12373039
161	0xbd8385eb	-0.06422027
162	0xbdb6425b	-0.08899375
163	0x3e7e65bf	0.248435
164	0x3cf6c098	0.030121133
165	0x3d98a9af	0.074542396
166	0xbeb5b9ea	-0.35493404
167	0x3d35bb70	0.044368207
168	0xbe3c5a5b	-0.18393843
169	0x3c968092	0.018371854
170	0xbdd68eaa	-0.1047643
171	0xbd2fb0b9	-0.042893145
172	0xbc7a4867	-0.015276051
173	0xbcc84b39	-0.024449931
174	0xbe13df81	-0.14440729
175	0x3e171999	0.14755858
176	0x3e2a9947	0.16660033
177	0xbd7f3318	-0.062304586
178	0x3e18a6e8	0.1490742
179	0xbe8b99ff	-0.27265927
180	0x3e003292	0.12519291
181	0x3e064382	0.1311169
182	0xbddf8ff6	-0.1091613
183	0xbdb60642	-0.08887912
184	0x3dce3d76	0.100703165
185	0xbdaea117	-0.08526819
186	0xbe2ef3a0	-0.17085123
187	0x3e72f798	0.23727262
188	0xbd893ddd	-0.067012526
189	0xbbdc172a	-0.0067166286
190	0x3ea07228	0.31337094
191	0x3d9e4cbd	0.077294804
192	0xbcc9874b	-0.024600646
193	0xbe17d035	-0.14825518
194	0x3e88f17e	0.26746744
195	0xbca46a00	-0.020070076
196	0x3c4ff10b	0.0126917465
197	0xbe5331c7	-0.20624457
198	0x3d94c2dc	0.07263729
199	0xbe6b2bab	-0.22965877
200	0x3d9d3a27	0.07677107
201	0x3e20e310	0.15711617
202	0x3d0cb952	0.034356423
203	0xbd961627	-0.07328444
204	0xbda1c0cc	-0.07898101
205	0xbdb75858	-0.08952397
206	0xbe297ff2	-0.16552714
207	0xbdf80488	-0.12110239
208	0xbea2efbd	-0.3182353
209	0xbd077ac3	-0.03307606
210	0xbdc0d911	-0.09416402
211	0x3ac6bbff	0.0015162228
212	0xbe740a09	-0.23831953
213	0xbd3a6d98	-0.045514673
214	0xbe01deef	-0.12682699
215	0xbdf12080	-0.11773777
216	0xbd677748	-0.05651024
217	0xbe21c16d	-0.15796442
218	0x3e087035	0.13324054
219	0xbd00b77d	-0.031424988
220	0xbd842e76	-0.06454174
221	0x3d6b1d70	0.05740112
222	0xbdc99e1f	-0.09844612
223	0x3df42020	0.1192019
224	0x3d61f890	0.05516869
225	0xbde812e1	-0.11331726
226	0xbcdec688	-0.027194276
227	0xbc798033	-0.015228319
228	0x3db21c24	0.08696774
229	0x3da4e880	0.08052158
230	0xbe8b6976	-0.27228898
231	0xbe32b58a	-0.17452064
232	0xbdca8492	-0.09888567
233	0x3b11ccf3	0.0022247403
234	0x3e3d7fe4	0.18505818
235	0x3e24a553	0.16078691
236	0x3da06f58	0.07833737
237	0x3e81d793	0.25359783
238	0xbe045ea8	-0.12926733
239	0xbea0110d	-0.3126301
240	0x3e0b29e4	0.13590199
241	0xbe48b479	-0.19600095
242	0xbd9c8adf	-0.07643675
243	0xbd106e17	-0.03526124
244	0xbe01e9ca	-0.1268684
245	0x3e128f0e	0.14312384
246	0x3e62091d	0.22073789
247	0x3e49e921	0.19717838
248	0x3d674b1b	0.05646811
249	0x3cf4b93d	0.029873485
250	0x3dc91cc7	0.09819942
251	0x3e2ef89f	0.17087029
252	0x3e15ab6f	0.14616178
253	0x3dbdf2d8	0.092748344
254	0xbc949517	-0.018137498
255	0x3e32afce	0.17449877

startBlock.0.bias f4 [8]
0	0xbab0c00d	-0.001348497
1	0x3a057899	0.0005091518
2	0x39ed9380	0.0004531406
3	0x3a4cecc4	0.0007817263
4	0xba5e8afa	-0.0008489337
5	0x3aaef53d	0.0013348233
6	0xba3ae0b3	-0.00071288197
7	0xb9a5286d	-0.00031501372

startBlock.1.weight f4 [8]
0	0x3f85459a	1.0411866
1	0x3f6837b7	0.90710014
2	0x3f8fc6a7	1.1232499
3	0x3f911cb2	1.1336882
4	0x3f8e6bd9	1.1126662
5	0x3f99f083	1.2026523
6	0x3f8cbc30	1.099493
7	0x3f73528f	0.9504785

startBlock.1.bias f4 [8]
0	0x3e15d808	0.1463319
1	0xbdffbcd6	-0.124871895
2	0x3e3f56f1	0.1868551
3	0x3e1cc52d	0.15309592
4	0x3d5977f7	0.053092923
5	0xbc790911	-0.0151999155
6	0x3e821f9d	0.25414744
7	0x3d4c7b67	0.049922373

startBlock.1.running_mean f4 [8]
0	0x3da51c6c	0.08062062
1	0xbeabc759	-0.33550528
2	0x3e15cb28	0.14628279
3	0x3e564749	0.2092563
4	0xbdcab569	-0.098978825
5	0xbdb3140b	-0.08744057
6	0xbaca709a	-0.0015444935
7	0x3e7719e6	0.24130973

startBlock.1.running_var f4 [8]
0	0x3dd57643	0.10422947
1	0x3e18ebe9	0.14933743
2	0x3e12d1ac	0.14337796
3	0x3da7a61a	0.08185978
4	0x3d9c3743	0.07627728
5	0x3da4ce0b	0.08047112
6	0x3d6df35f	0.058093425
7	0x3dd0cf84	0.101958305

backBone.0.conv1.weight f4 [8, 8, 3, 3]
0	0xbe3d4e9a	-0.18487015
1	0xbdd71198	-0.105014026
2	0x3e496b27	0.19669782
3	0xbd5d3e04	-0.05401422
4	0xbdb5bfa9	-0.08874447
5	0xbd2484a3	-0.040165555
6	0xbbcc6424	-0.0062375236
7	0xbd02857b	-0.03186558
8	0xbd1a47bf	-0.03766608
9	0x3e08d906	0.13364038
10	0xba9eb286	-0.0012107647
11	0xbc6c302c	-0.014415782
12	0xbe3be0af	-0.18347429
13	0x3da3f761	0.08006168
14	0xbe6e9ea6	-0.23302707
15	0x3ddda952	0.10823311
16	0xbd80e9d9	-0.06294603
17	0x3c03f468	0.008053876
18	0x3d304fae	0.04304474
19	0x3c8996be	0.016795512
20	0x3d4a0867	0.04932442
21	0xbdf7046d	-0.12061391
22	0x3e05b2cc	0.13056487
23	0x3d6ccb49	0.057811055
24	0xbde3a33a	-0.11115117
25	0xbd0e8fb2	-0.034805007
26	0x3d3c1e82	0.045927532
27	0xbe45b55e	-0.19307467
28	0x3c4756a9	0.0121666575
29	0x3d41e393	0.047336172
30	0x3baaaf7b	0.005208907
31	0x3e48ef7b	0.19622605
32	0xbe77a254	-0.24183017
33	0x3db2e889	0.08735759
34	0xbd764b03	-0.06013013
35	0x3e43fbe0	0.19139051
36	0xbddb3489	-0.1070338
37	0x3dd90606	0.10596852
38	0xbd626fe1	-0.055282477
39	0xbe1c556b	-0.1526696
40	0xbdcb2688	-0.09919459
41	0x3dc25805	0.09489445
42	0xbb8aba01	-0.004233599
43	0x3e22c489	0.15895285
44	0xbe0219e6	-0.12705192
45	0xbd8ee1bc	-0.06976649
46	0x3e31b331	0.17353512
47	0x3e7c1660	0.2461791
48	0xbdaf715b	-0.08566543
49	0x3e211a9a	0.15732804
50	0xbd895ca9	-0.06707127
51	0xbe43708d	-0.19085903
52	0x3c0d3c76	0.008620372
53	0xbd018b9f	-0.031627294
54	0xbda47c5e	-0.08031534
55	0x3e7d9ce2	0.24766877
56	0x3dcc59a8	0.09978038
57	0xbc735c38	-0.01485353
58	0x3e59d486	0.21272478
59	0xbda7a8de	-0.08186506
60	0x3e2c79bb	0.16843311
61	0xbe7c0fe0	-0.24615431
62	0xbe0827e5	-0.13296469
63	0xbe20cd8a	-0.15703407
64	0xbddec754	-0.108778626
65	0x3dbb6af5	0.0915126
66	0xbe126025	-0.14294489
67	0x3e5c7397	0.21528469
68	0xbd8a85b5	-0.06763784
69	0x3e292660	0.16518545
70	0xbe47d0d2	-0.19513252
71	0x3d8a2119	0.06744594
72	0xb9586374	-0.00020636414
73	0xbd583dbe	-0.052793257
74	0x3d266cba	0.040631033
75	0x3db55d58	0.088556945
76	0xbd6b807d	-0.057495583
77	0xbd586bf7	-0.05283734
78	0xbe4102cc	-0.18848723
79	0xbd98d324	-0.07462147
80	0x3ddc5341	0.10758067
81	0xbe15545f	-0.14582966
82	0xbdb6eb60	-0.08931613
83	0x3df07820	0.11741662
84	0xbd6fbb87	-0.05852845
85	0xbdec2894	-0.11531177
86	0xbda354d3	-0.07975163
87	0xbde3c704	-0.111219436
88	0x3e0a2b1b	0.13493006
89	0x3e0ec5e3	0.13942675
90	0xbdca63f7	-0.09882348
91	0xbcd82dca	-0.026389021
92	0x3e235bf8	0.15953052
93	0x3e2d9059	0.16949596
94	0xbdc8919d	-0.097933985
95	0xbe0cd000	-0.1375122
96	0x3e438550	0.19093823
97	0xbe17cc8d	-0.14824124
98	0x3d271a9d	0.040796865
99	0xbe435ec7	-0.19079123
100	0xbdfa22b5	-0.12213651
101	0x3e6d2a66	0.23160705
102	0x3cc479c4	0.023983844
103	0x3e3a9c4f	0.1822369
104	0x3e17c641	0.14821722
105	0xbd96a745	-0.07356123
106	0x3d2e6866	0.04258003
107	0xba191831	-0.00058400916
108	0x3e5908a7	0.21194707
109	0x3e468c12	0.1938937
110	0xbd44a1ec	-0.048005983
111	0xbca17372	-0.019708369
112	0x3d955034	0.07290688
113	0x3ddad9cf	0.10686075
114	0xbe199ce9	-0.15001263
115	0x3d8e708f	0.069550626
116	0xbe78b56f	-0.24287961
117	0x3e7cc777	0.24685465
118	0x3e103932	0.14084318
119	0x3d844acf	0.06459581
120	0xbcf03d6c	-0.029326163
121	0xbd94f487	-0.072732024
122	0x3db2cd83	0.087306045
123	0xbe6febb6	-0.2342976
124	0x3e267e87	0.16259204
125	0xbe2042e4	-0.15650517
126	0xbcc4db56	-0.024030369
127	0xbe45c303	-0.19312672
128	0xbdb2370c	-0.087019056
129	0xbd3def8d	-0.04637103
130	0xbe60dc62	-0.2195907
131	0xbe21fe5b	-0.15819685
132	0x3e4cacc9	0.19987787
133	0xbd8568b9	-0.06514115
134	0xbd778745	-0.060431737
135	0xbdcf40da	-0.10119791
136	0x3e290b01	0.16508104
137	0xbbfa8db6	-0.007646288
138	0x3dcc6e24	0.09981945
139	0x3c924d38	0.017859086
140	0x3d1ffa3a	0.039056994
141	0x3b0d659a	0.0021575452
142	0xbddb7cfb	-0.107171975
143	0xbe2b7000	-0.16741943
144	0x3b1ae9de	0.002363793
145	0xbdd0afa1	-0.101897486
146	0x3e61be31	0.22045209
147	0xbe565c80	-0.20933723
148	0x3e210057	0.15722786
149	0x3e84d848	0.2594626
150	0xbdeb2d29	-0.11483223
151	0x3db1bd9a	0.08678742
152	0xbd56cbdb	-0.052440505
153	0xbe89d8fb	-0.26923355
154	0x3d0b69b7	0.034036364
155	0x3e4600ee	0.19336292
156	0x3dffcdd8	0.124904335
157	0x3dfc783c	0.123276204
158	0xbb17c23a	-0.002315654
159	0x3d33c0c3	0.043885004
160	0xbe2922e2	-0.16517213
161	0xbdc445d3	-0.095836304
162	0x3dd4fa11	0.10399259
163	0x3dd3f466	0.1034935
164	0x3e38fd21	0.18065311
165	0xbe223645	-0.15841015
166	0x3d6c7a13	0.057733607
167	0xbe09e303	-0.13465504
168	0xbd2ffbe9	-0.04296485
169	0x3d19d0e2	0.03755272
170	0xbc64ee3f	-0.013972818
171	0xbe3e3434	-0.18574601
172	0x3d0a05f7	0.033697095
173	0xbc978af1	-0.01849887
174	0x3d7df6e2	0.062003024
175	0x3d459a5a	0.048242904
176	0x3d2e07a5	0.04248776
177	0x3d7e0401	0.062015537
178	0x3d0b4c32	0.034008212
179	0x3cc79267	0.024361802
180	0xbcfcf7a6	-0.030879807
181	0x3d3f0a8f	0.04664093
182	0x3cbdfb52	0.023191128
183	0xbdd15d4f	-0.10222875
184	0xbe3ecda1	-0.18633129
185	0xbd14ecc3	-0.036358606
186	0x3e79bb77	0.24387918
187	0xbe519926	-0.20468578
188	0x3d86bcdc	0.06578991
189	0x3de4c0f6	0.11169617
190	0xbb8b7007	-0.004255298
191	0x3de29869	0.11064226
192	0xbd8bf71d	-0.068342425
193	0xbe2341db	-0.1594309
194	0x3d698858	0.057014793
195	0x3da35a7c	0.07976243
196	0xbe55dd12	-0.20885113
197	0x3e0a3a5e	0.13498828
198	0xbe04662e	-0.12929603
199	0xbe2b80f7	-0.16748415
200	0x3bfe148e	0.007753915
201	0xbd288a78	-0.04114768
202	0x3dea6365	0.11444739
203	0x3dbe8f6b	0.093046986
204	0x3e0858bf	0.13315104
205	0x3e4f9dab	0.2027499
206	0xbd4c49e1	-0.049875144
207	0xbe01f74f	-0.12691997
208	0x3d27364f	0.040823277
209	0x3d6f8d22	0.058484204
210	0xbd8489b1	-0.06471575
211	0x3c07f177	0.008297316
212	0xbdf261f5	-0.1183509
213	0xbdad145d	-0.084511496
214	0xbe43522f	-0.1907432
215	0x3e110e8c	0.14165705
216	0xbd0992fc	-0.03358744
217	0xbe43619d	-0.19080205
218	0x3e3f4ca5	0.18681581
219	0xbe58d098	-0.21173322
220	0xbc569a6f	-0.013098343
221	0xbd2eda7a	-0.042688824
222	0x3d861c0b	0.065483175
223	0x3d884c98	0.06655234
224	0xbda48fad	-0.080352165
225	0xbe0fbe83	-0.14037518
226	0xbddf719f	-0.109103434
227	0x3d6a7293	0.057238173
228	0x3cf8ee9c	0.030387215
229	0xbc23fc86	-0.010008937
230	0x3e682447	0.22670089
231	0xbdccb2ea	-0.09995063
232	0x3e097b04	0.13425833
233	0x3e50deba	0.20397463
234	0x3d789625	0.060690064
235	0x3cbae098	0.022812173
236	0x3d0ce846	0.0344012
237	0x3e0110e3	0.12604098
238	0x3e59bfc0	0.21264553
239	0x3e1c1c08	0.15245068
240	0x3db3cf3c	0.08779761
241	0x3a5a3f97	0.00083255157
242	0xbcd7cd11	-0.0263429
243	0x3db16b64	0.08663061
244	0xbe315c4b	-0.17320363
245	0x3db91ccf	0.09038698
246	0x3d3f2ab5	0.046671588
247	0x3deb58f9	0.114915796
248	0x3b4d96c7	0.0031370388
249	0xbe2adb14	-0.16685134
250	0x3ea41577	0.32047626
251	0x3cec569e	0.028849896
252	0x3d9d4228	0.07678634
253	0x3d99d359	0.075110145
254	0x3e453aeb	0.19260757
255	0xbd906cb9	-0.07051987

backBone.0.conv1.bias f4 [8]
0	0x398df3d2	0.00027075276
1	0x3993821c	0.00028134964
2	0xba0c5238	-0.0005352828
3	0x38d08f89	9.9449484e-05
4	0x36a19808	4.8158727e-06
5	0x385cd6f0	5.2652264e-05
6	0xba02787c	-0.000497706
7	0x399d1365	0.00029959824

backBone.0.bn1.weight f4 [8]
0	0x3f758d6e	0.9591893
1	0x3f734794	0.95031095
2	0x3f843d93	1.0331291
3	0x3f80a442	1.0050128
4	0x3f7a7a29	0.9784265
5	0x3f821fa0	1.0165901
6	0x3f81843e	1.0118482
7	0x3f6addb4	0.9174454

backBone.0.bn1.bias f4 [8]
0	0xbd9c6431	-0.076362975
1	0x3e282012	0.16418484
2	0xbd69ce29	-0.057081375
3	0x3d72c62e	0.05927103
4	0x3e46e55a	0.19423428
5	0xbce1671e	-0.02751499
6	0xbdbade7f	-0.09124469
7	0xbccb82cf	-0.024842648

backBone.0.bn1.running_mean f4 [8]
0	0xbde730ec	-0.11288628
1	0xbe4dc47e	-0.20094487
2	0x3cd22807	0.025653852
3	0x3f02fe9b	0.5116975
4	0x3e35fe31	0.17772748
5	0xbe8e4f65	-0.27794948
6	0x3d191343	0.037371885
7	0x3e6be243	0.23035531

backBone.0.bn1.running_var f4 [8]
0	0x3ee1b06a	0.44079906
1	0x3eb02e60	0.3441038
2	0x3efc25e6	0.49247664
3	0x3f08b686	0.5340351
4	0x3f1044dc	0.5635507
5	0x3ee592fc	0.44838703
6	0x3f0400b4	0.5156357
7	0x3ef6fe7b	0.48241028

backBone.0.conv2.weight f4 [8, 8, 3, 3]
0	0xbd190c11	-0.037365023
1	0x3e12aade	0.14322993
2	0x3d1591a9	0.036515865
3	0x3e193caf	0.14964555
4	0x3e018422	0.12648061
5	0xbe30d75f	-0.17269658
6	0xbe90fb16	-0.28316563
7	0xbcaa9d62	-0.020827
8	0xbe411fdd	-0.18859811
9	0xbd982faa	-0.07430966
10	0xbe0012a7	-0.12507115
11	0x3c17753a	0.009244258
12	0xbd881099	-0.06643791
13	0x3e0f0a46	0.13968763
14	0x3dd5ae36	0.10433619
15	0x3df1bd34	0.11803666
16	0xbd5d1449	-0.053974424
17	0x3dce88bb	0.10084673
18	0x3d3e67ac	0.046485588
19	0x3e23bbd7	0.15989624
20	0xbc4e7428	-0.012600936
21	0xbe0d6245	-0.13807018
22	0xbe572a3d	-0.21012206
23	0xbcd0e429	-0.02549942
24	0xbcf6af8e	-0.030113008
25	0xbea3e37b	-0.3200949
26	0x3d975bf4	0.073905855
27	0x3db0ca9f	0.08632397
28	0xbd0845b8	-0.033269614
29	0xba1d7b8c	-0.00060074846
30	0x3e724563	0.23659281
31	0x3dd7ba5a	0.105335906
32	0xbe2fc31e	-0.17164275
33	0xbdd19874	-0.10234156
34	0x3e481b3d	0.1954164
35	0x3d983fca	0.07434042
36	0x3db5beb8	0.08874267
37	0xbe0ae2c9	-0.13563074
38	0x3db03fd8	0.08605927
39	0x3c483527	0.012219704
40	0xbda958e2	-0.08268906
41	0x3e0876ac	0.1332652
42	0xbda7ae11	-0.081874974
43	0xbd9b1f73	-0.07574358
44	0xbd2dd109	-0.04243568
45	0xbe44bba0	-0.19212198
46	0xbe3ae514	-0.18251449
47	0x3d60f619	0.054922197
48	0xbc8d9bed	-0.017286265
49	0x3e0079d6	0.12546477
50	0x3c73e5e3	0.014886352
51	0x3db436f4	0.08799544
52	0xbd98cd21	-0.07461
53	0xbe569bf4	-0.20957929
54	0x3d87661a	0.06611271
55	0xbe03229d	-0.12806173
56	0x3c4a03d9	0.012330019
57	0x3e24490d	0.16043492
58	0xbdb84243	-0.089970134
59	0x3d2dd211	0.042436663
60	0x3d855846	0.065109774
61	0xbe844d51	-0.25840238
62	0x3d0555ae	0.032552414
63	0xbdfea997	-0.124346904
64	0x3e2db1d3	0.16962366
65	0xbd533d05	-0.051571865
66	0x3cd7fef6	0.026366692
67	0xbd2e1489	-0.042500053
68	0xbe25b927	-0.16183911
69	0x3c8e54a6	0.017374348
70	0xbe003d0e	-0.1252329
71	0xbddfbb7f	-0.10924434
72	0xbad7d38a	-0.0016466242
73	0x3e79112b	0.24322955
74	0xbd02f5cc	-0.03197269
75	0x3dff5fb8	0.12469429
76	0xbddef712	-0.10886969
77	0xbdab1f76	-0.0835561
78	0x3e113b31	0.14182736
79	0x3d20464a	0.039129533
80	0x3be1daa6	0.00689252
81	0xbdf3c665	-0.11903075
82	0xbde20acb	-0.11037215
83	0xbe376503	-0.17909627
84	0xbe3692b6	-0.17829403
85	0xbce78c7d	-0.028265232
86	0xbd477c39	-0.048702452
87	0xbda59337	-0.0808472
88	0x3e37670c	0.17910403
89	0x3e4f29de	0.20230815
90	0x3d028b16	0.031870924
91	0x3e11a4bf	0.14223002
92	0x3e7cc245	0.24683483
93	0xbd95b2d2	-0.07309498
94	0x3d532d02	0.051556595
95	0x3dcfd4b9	0.101479955
96	0xbc85dd40	-0.016340852
97	0x3e08a1d7	0.13342987
98	0xbe1d597e	-0.1536617
99	0x3dca4fbe	0.09878491
100	0xbe240224	-0.16016442
101	0x3e853f6e	0.26024956
102	0xbe08822b	-0.13330905
103	0x3e16afa3	0.14715438
104	0xbd85ab3d	-0.06526802
105	0xbd75be4b	-0.05999593
106	0x3c743975	0.014906277
107	0xbe735f66	-0.2376686
108	0xbe3e63b5	-0.18592723
109	0xbe107cca	-0.14110103
110	0x3d0b3675	0.03398748
111	0xbcaab566	-0.02083845
112	0xbd5ed434	-0.05440159
113	0x3d087c12	0.033321448
114	0xbdf7b609	-0.12095267
115	0xbdf120c6	-0.11773829
116	0xbd9d3ca5	-0.07677583
117	0xbe085cfa	-0.13316718
118	0x3e1b6c13	0.15177946
119	0xbdfb646a	-0.12275012
120	0x3de9f820	0.11424279
121	0xbe81d81b	-0.25360188
122	0x3ca44759	0.020053552
123	0x3da4ae2d	0.08041034
124	0xbe334c73	-0.17509632
125	0x3d6c490f	0.05768686
126	0xbe3d0a3d	-0.18460937
127	0xbe348a1d	-0.17630811
128	0x3cbf8875	0.023380497
129	0x3dee1e8c	0.1162692
130	0xbd553afb	-0.0520582
131	0x3dd4c3ce	0.10388909
132	0x3dda6d33	0.10665359
133	0x3d61e78a	0.055152453
134	0xbdc4777c	-0.09593102
135	0xbe22cc72	-0.15898302
136	0x3e0c6ddb	0.13713782
137	0x3b07338b	0.0020630087
138	0xbd19a07a	-0.037506558
139	0xbe2c9b91	-0.16856219
140	0x3e2dd393	0.1697524
141	0x3e1b6871	0.1517656
142	0x3dcbc765	0.09950141
143	0xbcf742c7	-0.03018321
144	0xbd4e728e	-0.050402217
145	0x3e2bc156	0.1677297
146	0xbdc6c9ba	-0.09706445
147	0x3d9ea5ff	0.07746505
148	0x3e0b91d0	0.13629842
149	0xbe63267d	-0.22182651
150	0x3d9d0328	0.07666618
151	0x3e568725	0.20949991
152	0x3d344a03	0.044015896
153	0x3e5fa98c	0.21842021
154	0x3c9b60f0	0.018967122
155	0xbdc37065	-0.09542922
156	0x3d59c46f	0.05316585
157	0xbe3ab44d	-0.18232842
158	0xbe09bd83	-0.13451199
159	0xbdc11f53	-0.09429803
160	0x3b7b0f31	0.0038308615
161	0xbe5dd298	-0.21662366
162	0x3e00608e	0.12536833
163	0x3c388cd3	0.011264044
164	0xbc962eb7	-0.018332822
165	0x3e4a73c3	0.19770722
166	0xbdab6954	-0.08369699
167	0x3e3ac067	0.18237458
168	0xbe1dec63	-0.15422206
169	0x3e1d0ec5	0.15337665
170	0x3d8cd625	0.06876782
171	0x3c506f49	0.012721845
172	0x3e53f225	0.2069784
173	0xbbb7a716	-0.005604635
174	0x3ccb5682	0.024821524
175	0x3e78bee2	0.24291566
176	0x3d5da9e2	0.05411709
177	0x3c1fcb7f	0.009753107
178	0xbd11b739	-0.035575125
179	0x3dc26b0c	0.09493074
180	0xbdb37ec5	-0.08764414
181	0xbdeb9365	-0.11502723
182	0xbe0608ad	-0.13089247
183	0xbcd2c906	-0.025730621
184	0x3cfe1708	0.031016842
185	0x3e83e623	0.25761518
186	0xbd83d936	-0.06437914
187	0xbc53e81e	-0.012933759
188	0xbc8289c0	-0.015934825
189	0x3e1606d6	0.14651045
190	0xbdf07297	-0.11740606
191	0xbe09a1df	-0.13440655
192	0xbb9b4b05	-0.0047391676
193	0x3df33455	0.11875216
194	0xbcd6e0cb	-0.026230237
195	0x3def871c	0.11695692
196	0xbe58f2ed	-0.21186419
197	0x3d7c4d48	0.06159714
198	0x3dfad53a	0.12247701
199	0xbe7b583c	-0.24545377
200	0x3d378eef	0.044814046
201	0xbe2ded73	-0.16985111
202	0x3da15cdf	0.07879042
203	0xbe60f282	-0.2196751
204	0xbe65c8dd	-0.22439905
205	0x3df7e3a2	0.121039644
206	0xbd1c4fb3	-0.038161945
207	0xbe01c49a	-0.12672654
208	0xbb7a45d7	-0.00381886
209	0x3d7b7c6a	0.061397947
210	0xbd4a838a	-0.04944185
211	0x3d8524e0	0.06501174
212	0xbcfa4102	-0.030548576
213	0x3dd900f7	0.10595887
214	0x3e2565fc	0.16152185
215	0xbdcc503a	-0.099762395
216	0xbd16c6d3	-0.036810707
217	0x3d77935e	0.060443275
218	0x3d26b68f	0.040701445
219	0x3df18d58	0.11794537
220	0x3d832aa0	0.064046144
221	0x3c7da271	0.015480624
222	0xbe1e79a8	-0.15476096
223	0xbdec2771	-0.1153096
224	0x3c4b72aa	0.012417475
225	0xbda2106b	-0.07913288
226	0xbe1e705e	-0.15472552
227	0x3d33d557	0.04390463
228	0x3e29a207	0.16565715
229	0xbe021902	-0.12704852
230	0xbd828f2e	-0.063749656
231	0x3da34cad	0.07973609
232	0xbdb0a032	-0.08624305
233	0x3de9a572	0.11408509
234	0x3c6e717c	0.014553424
235	0x3d8f40b3	0.06994762
236	0xbe873339	-0.26406267
237	0x3d97f574	0.07419863
238	0xbe332cc2	-0.17497543
239	0xbe14507a	-0.14483824
240	0xbe11b84e	-0.14230463
241	0xbde71204	-0.11282733
242	0x3e5ff31d	0.21870084
243	0x3c66b973	0.0140823005
244	0xbca4213b	-0.020035377
245	0x3ceb5ac3	0.028729802
246	0x3df24d34	0.118311316
247	0xbe2e714d	-0.17035408
248	0xbe7cfecc	-0.24706572
249	0xbe59f22d	-0.21283789
250	0xbda7bc4d	-0.081902124
251	0xbd0528c1	-0.03250957
252	0xbcb7b01a	-0.022422839
253	0x3d6bc5a3	0.057561528
254	0xbd6f0bb9	-0.05836079
255	0xbe4e3a84	-0.2013951

backBone.0.conv2.bias f4 [8]
0	0xb8803ed2	-6.115217e-05
1	0x3a2dec7c	0.0006634665
2	0xb90d7454	-0.00013490143
3	0xba40c71c	-0.00073538884
4	0x3a25ae67	0.00063202385
5	0x39a71da6	0.00031874812
6	0x382c4782	4.1074592e-05
7	0xb90bfb5c	-0.00013349712

backBone.0.bn2.weight f4 [8]
0	0x3f59725b	0.8494012
1	0x3f870571	1.0548536
2	0x3f5a8ffe	0.85375965
3	0x3f73bc70	0.9520941
4	0x3f898e29	1.0746509
5	0x3f477e6b	0.77927274
6	0x3f53f690	0.827981
7	0x3f7ff16f	0.99977773

backBone.0.bn2.bias f4 [8]
0	0x3e87c295	0.26515642
1	0x3d2c3228	0.04204002
2	0xbbf15fe9	-0.0073661697
3	0x3dfe03cb	0.12403067
4	0x3d1e1d82	0.03860236
5	0x3df25b26	0.118337914
6	0x3deb8082	0.1149912
7	0x3d95c9f0	0.07313907

backBone.0.bn2.running_mean f4 [8]
0	0xbe7ea0a7	-0.24865972
1	0xbe80deb0	-0.25169897
2	0x3e0ba637	0.13637625
3	0xbf035fb3	-0.513179
4	0xbe9dc89a	-0.3081711
5	0x3e04deba	0.12975588
6	0xbedc3fe0	-0.43017483
7	0xbf081374	-0.53154683

backBone.0.bn2.running_var f4 [8]
0	0x3ec41dad	0.3830389
1	0x3ee20c6c	0.44150102
2	0x3e9bb23b	0.30409417
3	0x3f069f8d	0.52587205
4	0x3ece5456	0.40298718
5	0x3ecb7a37	0.3974168
6	0x3ece4c3b	0.40292534
7	0x3eeb0d64	0.45908654

backBone.1.conv1.weight f4 [8, 8, 3, 3]
0	0x3d7bc273	0.061464738
1	0x3c130356	0.008972963
2	0xbd4c2c0b	-0.04984669
3	0x3c13a840	0.009012282
4	0x3d40b02b	0.047043007
5	0xbe0ffbf8	-0.14060962
6	0x3de04c26	0.10952024
7	0x3bbb1005	0.005708697
8	0x3b8bcf54	0.004266659
9	0x3d3f288e	0.046669535
10	0x3dfb7f9f	0.12280201
11	0x3aa9e903	0.001296312
12	0x3d555a9c	0.052088365
13	0xbdde5af0	-0.10857189
14	0xbd2a089b	-0.041512113
15	0x3e0cadcc	0.13738173
16	0x3e1a2b15	0.15055497
17	0x3e0c851c	0.13722652
18	0xbd934b3c	-0.07192084
19	0x3ce21453	0.027597582
20	0xbb15857b	-0.0022815156
21	0xbe50109d	-0.20318837
22	0x3e6b3985	0.2297116
23	0x3d6fb13e	0.05851864
24	0xbe2c8d79	-0.16850843
25	0xbe6f07fd	-0.23342891
26	0xbd61f679	-0.055166695
27	0x3bd23b06	0.0064157275
28	0x3e7a64d7	0.2445253
29	0x3e1766e2	0.1478534
30	0xbda21452	-0.07914032
31	0x3dea1663	0.11430051
32	0x3d0af47c	0.033924565
33	0xbc7a8c76	-0.015292278
34	0x3d61a329	0.055087242
35	0x3b027ebd	0.0019911968
36	0x3ea706b5	0.32622305
37	0xbd8553b2	-0.06510104
38	0x3e14e74a	0.14541355
39	0x3d34de66	0.04415741
40	0xbcd0e146	-0.025498044
41	0x3de0cfdb	0.10977145
42	0x3e07c566	0.13258895
43	0xbde717c8	-0.11283833
44	0xbe110d3c	-0.14165205
45	0xbd0cca02	-0.034372337
46	0x3d7e4a40	0.06208253
47	0x3e3c3aa2	0.18381742
48	0xbd254a22	-0.0403539
49	0xbcbab3f6	-0.02279089
50	0x3dd5ac57	0.10433262
51	0x3e761f63	0.2403541
52	0xbda65b2b	-0.08122858
53	0xbe4431fd	-0.19159694
54	0x3e88d22f	0.26722857
55	0xbdb4fb9e	-0.08837055
56	0x3c2f4aff	0.010699033
57	0x3eb0eb20	0.34554386
58	0x3d109708	0.035300285
59	0xbcc879c2	-0.024472121
60	0x3ae00854	0.0017092326
61	0x3e4957dd	0.19662423
62	0xbd40a8f9	-0.047036145
63	0xbdc6e902	-0.097124115
64	0x3e3f5226	0.18683681
65	0xbdc227e6	-0.09480266
66	0x3dc37ec8	0.09545666
67	0x3b3f1a3b	0.0029159922
68	0x3d2d03a8	0.042239815
69	0xbddd9bd5	-0.10820738
70	0xbd86f8f5	-0.065904535
71	0xbe8aee91	-0.27135137
72	0x3e35a722	0.17739537
73	0x3b7b341b	0.0038330618
74	0xbc013f19	-0.007888579
75	0x3c583be7	0.013197876
76	0x3de80b5c	0.11330292
77	0x3d92f6df	0.07175993
78	0x3e018ffa	0.12652579
79	0xbe2679f7	-0.16257463
80	0x3e3a310f	0.18182777
81	0xbe3fd8ae	-0.18735
82	0xbdb17048	-0.08663994
83	0x3db16c14	0.086631924
84	0x3dfb8d8a	0.12282856
85	0xbd9f211d	-0.07769988
86	0x3bf7ae57	0.0075586247
87	0x3dbe810c	0.093019575
88	0x3e7defa7	0.24798451
89	0xbd1d6e26	-0.038435124
90	0x3cf04d9d	0.029333884
91	0x3dea30e6	0.11435108
92	0x3d4ad227	0.049516823
93	0xbe30448c	-0.17213649
94	0xbe089cff	-0.1334114
95	0x3c902734	0.017596819
96	0xbdf9dc7b	-0.122002564
97	0x3de9e742	0.11421062
98	0x3df04c35	0.11733285
99	0xbe0d490e	-0.137974
100	0xbe9df7cc	-0.30853117
101	0x3e904552	0.28177887
102	0xbded4e51	-0.11587203
103	0xbe120cd3	-0.14262705
104	0xbdc1eee8	-0.09469396
105	0xbd2a0257	-0.041506138
106	0xbad83142	-0.0016494172
107	0xbd64071c	-0.055670843
108	0x3e4143aa	0.18873468
109	0x3da6e62e	0.08149372
110	0xbe05c743	-0.13064294
111	0xbd8f03ca	-0.069831446
112	0x3d9b6150	0.0758692
113	0xbd2448be	-0.040108435
114	0x3e02033e	0.1269655
115	0xbe30da71	-0.17270829
116	0xbd9122a4	-0.07086685
117	0xbcfcc60f	-0.03085616
118	0x3de3da8f	0.11125671
119	0xbe055346	-0.13020048
120	0xbe16400c	-0.1467287
121	0xbe9ba0bc	-0.30396068
122	0xbe001373	-0.1250742
123	0x3d8fb2d0	0.07016528
124	0xbd106d85	-0.035260696
125	0xbe743449	-0.2384807
126	0x3c951553	0.018198645
127	0x3da3cf87	0.07998567
128	0xbd320d3f	-0.043469664
129	0x3e70ef7d	0.23528858
130	0xbe2645e8	-0.16237605
131	0xbe248014	-0.16064483
132	0xbe3e8f00	-0.18609238
133	0x3e0ede9f	0.1395211
134	0xbc969bde	-0.01838487
135	0xbe13ef03	-0.14446644
136	0xbe4d4825	-0.20047052
137	0xbcb54928	-0.02212961
138	0xbe3e9ef0	-0.18615317
139	0xbd846070	-0.064637065
140	0x3e49ddff	0.19713591
141	0xbdaba3c4	-0.08380845
142	0xbcf56043	-0.029953128
143	0xbdc25690	-0.09489167
144	0x3c58d71c	0.01323488
145	0xbd7e0af5	-0.06202217
146	0xbe89969b	-0.26872715
147	0xbe302183	-0.17200284
148	0x3e066926	0.13126048
149	0x3cef1021	0.029182496
150	0x3e1aa4a0	0.15101862
151	0x3d959786	0.073042914
152	0x3e3924e5	0.1808048
153	0x3e3649ac	0.17801541
154	0x3dcf3ae1	0.10118652
155	0xbcc162b4	-0.023606636
156	0x3d0f0387	0.034915473
157	0x3d90bbf9	0.07067103
158	0x3e2e8863	0.17044215
159	0xbd6f4203	-0.058412563
160	0xbd52a01f	-0.051422235
161	0x3d850118	0.06494349
162	0xbe1813a3	-0.14851241
163	0x3ddcfd11	0.10790456
164	0x3d424c9b	0.047436338
165	0x3d30effe	0.043197624
166	0xba84b1ac	-0.0010123751
167	0xbe9eb4df	-0.3099737
168	0x3d695ff3	0.05697627
169	0x3df4d04a	0.119537905
170	0xbebf293c	-0.37336147
171	0xbc0a81d0	-0.008453801
172	0x3e805e17	0.25071785
173	0xbd026308	-0.031832725
174	0xbe9be9c8	-0.30451798
175	0xbdaa2f76	-0.08309834
176	0xbe137935	-0.14401706
177	0xbdf6dfd6	-0.12054412
178	0x3e2e36a2	0.17013028
179	0x3cfe5618	0.031046912
180	0xbcbd3f3a	-0.023101438
181	0x3df03451	0.117287286
182	0xbde50a11	-0.11183561
183	0x3dad07f3	0.08448782
184	0x3b86c932	0.00411334
185	0xbca03951	-0.01955858
186	0x3dff9c9c	0.12481043
187	0x3d2ef2a8	0.042711884
188	0xbe17da4f	-0.14829372
189	0xbe758255	-0.23975499
190	0xbdc64061	-0.09680248
191	0x3d87109e	0.06594966
192	0xbd5ec0f7	-0.054383244
193	0x3b8d2473	0.0043073236
194	0xbd206d86	-0.03916695
195	0x3b71df09	0.003690662
196	0xbdcaf692	-0.09910311
197	0x3d37a469	0.044834528
198	0x3d7b742e	0.061390094
199	0xbdaf905f	-0.085724585
200	0x3e536da7	0.20647298
201	0xbe40c3d5	-0.18824704
202	0x3a8284fa	0.0009957843
203	0x3dedd1b4	0.11612263
204	0x3d5a2930	0.053261936
205	0x3e0ff551	0.14058425
206	0x3cdc9010	0.026924163
207	0xbd3497ee	-0.044090204
208	0x3b93c790	0.0045098737
209	0xbe97b803	-0.29632577
210	0xbc8ada9e	-0.016949948
211	0x3d981cd4	0.074273735
212	0x3da26351	0.07929099
213	0x3e020303	0.12696461
214	0x3b20a723	0.0024513684
215	0xbd83471b	-0.06410047
216	0xbdf29d84	-0.1184645
217	0xbe12743d	-0.14302154
218	0xbd71b78c	-0.059012935
219	0xbe44555b	-0.19173186
220	0x3e0db4f9	0.13838567
221	0xbe2521a3	-0.16126113
222	0xbdbd10fd	-0.09231756
223	0x3c8ec414	0.017427482
224	0xbd74adb4	-0.05973597
225	0x3d7df4ff	0.062001225
226	0x3e355055	0.17706425
227	0xbda532fb	-0.080663644
228	0x3e0ade15	0.1356128
229	0xbe0895a8	-0.1333834
230	0x3e4c389f	0.19943474
231	0xbe3fac12	-0.18717983
232	0xbd852178	-0.06500524
233	0xbbc2ff90	-0.0059508756
234	0x3d8b4f0a	0.06802185
235	0x3afefae3	0.0019453432
236	0x3e3b17ce	0.182708
237	0xbe2e4e78	-0.17022121
238	0xbd2b474c	-0.04181604
239	0xbd847ac1	-0.06468726
240	0xbe066c19	-0.13127173
241	0x3dd32f78	0.10311788
242	0xbd8fd691	-0.07023347
243	0xbe3b7b11	-0.18308665
244	0xbd1b84a7	-0.037968304
245	0x3da08d2c	0.078394264
246	0x3e0b2957	0.13589989
247	0x3c436842	0.0119267125
248	0xbd80a0d1	-0.06280673
249	0xbd9c039a	-0.076178744
250	0xbe5312d5	-0.20612653
251	0x3d840e91	0.06448091
252	0x3e6f0d9e	0.23345038
253	0x3d10d170	0.035355985
254	0xbbed8ee8	-0.007249702
255	0xbd640e27	-0.05567756

backBone.1.conv1.bias f4 [8]
0	0xb989aa11	-0.00026257386
1	0xb9d18070	-0.0003995928
2	0xb9024c4f	-0.00012426193
3	0xb87d1324	-6.0337727e-05
4	0x38d11f0e	9.971681e-05
5	0x38589499	5.1636805e-05
6	0xb9309287	-0.00016839254
7	0x39f31b04	0.000463687

backBone.1.bn1.weight f4 [8]
0	0x3f70a5ce	0.94003
1	0x3f8e87e4	1.113522
2	0x3f744f34	0.95433354
3	0x3f922c9b	1.1419863
4	0x3f62e5d4	0.8863194
5	0x3f829727	1.0202378
6	0x3f44359c	0.766443
7	0x3f84e6ce	1.0382936

backBone.1.bn1.bias f4 [8]
0	0xbb94cbf7	-0.004540916
1	0x3d09fb41	0.03368688
2	0xbd61a61f	-0.055090066
3	0xbbc9dab7	-0.006160106
4	0x3d30c362	0.04315508
5	0x3c8e21a6	0.01735003
6	0x3d6b69c4	0.057473913
7	0xbd1b12fa	-0.037859894

backBone.1.bn1.running_mean f4 [8]
0	0x3f525580	0.8216171
1	0xbf75023e	-0.95706546
2	0xbcaf796c	-0.021420203
3	0xbf1af98f	-0.60537046
4	0xbea48e96	-0.32140034
5	0x3f2cebd6	0.6754736
6	0xbdeaca6d	-0.11464391
7	0x3edced37	0.4314973

backBone.1.bn1.running_var f4 [8]
0	0x3f80b0fa	1.0054009
1	0x3f478dfc	0.77951026
2	0x3f28f4b7	0.65998405
3	0x3f8ed144	1.1157613
4	0x3f165481	0.5872269
5	0x3f419e87	0.7563252
6	0x3f77df79	0.9682537
7	0x3f98a8ca	1.192651

backBone.1.conv2.weight f4 [8, 8, 3, 3]
0	0xbde36fba	-0.111052945
1	0xbd522435	-0.05130406
2	0x3cb2c20b	0.021821043
3	0xbe43ccdc	-0.19121116
4	0x3e1be6c5	0.1522475
5	0xbd4d42e0	-0.050112605
6	0x3e395e90	0.18102479
7	0xbe1ae022	-0.15124562
8	0x3d80f112	0.062959805
9	0xbdc5e2b8	-0.09662384
10	0x3e3e36b2	0.18575552
11	0xbe270577	-0.16310678
12	0xbe987d84	-0.2978326
13	0xbe217276	-0.1576632
14	0x3c7c8ad0	0.015413955
15	0x3d389adf	0.04506957
16	0x3e183e85	0.148676
17	0x3daff68f	0.08591949
18	0xbe97c37d	-0.29641333
19	0xbe1cc53c	-0.15309614
20	0xbc996dd2	-0.018729124
21	0x3dc003b8	0.09375709
22	0x3da7034c	0.08154926
23	0xbe27d151	-0.16388442
24	0xbcd78e51	-0.026312979
25	0x3e2a77e2	0.16647294
26	0xbda82706	-0.08210568
27	0x3deeff0c	0.1166974
28	0x3d2fb9d7	0.04290184
29	0xbe017d46	-0.12645444
30	0xbe26b6dc	-0.16280693
31	0xbca56abc	-0.020192496
32	0xbd426fb7	-0.04746982
33	0xbe9aef6e	-0.30260795
34	0xbcc779ca	-0.024350066
35	0xbcd5577f	-0.026042698
36	0x3d17f143	0.03709532
37	0x3d160fb1	0.03663606
38	0x3d9871f1	0.074436076
39	0x3da43879	0.08018584
40	0xbe548ba5	-0.20756395
41	0xbe66ba7f	-0.2253208
42	0xbe0fd0ac	-0.14044446
43	0xbd0cdd4d	-0.034390736
44	0xbdd207bd	-0.10255382
45	0x3df1842d	0.11792789
46	0x3e20cfb4	0.15704232
47	0xbe27b188	-0.16376317
48	0x3e1040db	0.1408724
49	0xbe091d05	-0.13389976
50	0xbe1ab1a1	-0.15106823
51	0x3dcbeace	0.09956895
52	0x3db46595	0.08808438
53	0x3dda9cfb	0.10674473
54	0x3df090bd	0.11746357
55	0x3a9c28b2	0.0011913984
56	0xbe76f0bd	-0.24115272
57	0xbd1af02c	-0.037826702
58	0xbde07087	-0.10958963
59	0xbe5579ed	-0.20847292
60	0xbc211b05	-0.009833102
61	0xbe58e3e1	-0.21180679
62	0xbe1892f0	-0.14899802
63	0x3d9ca2bf	0.07648229
64	0xbe1150c8	-0.14190972
65	0x3dcad609	0.09904105
66	0x3d38db5c	0.045131072
67	0x3d252730	0.040320575
68	0xbdc83d07	-0.09777265
69	0x3e1e69e4	0.15470082
70	0x3e6a3787	0.22872745
71	0x3d5bb287	0.053637054
72	0xbd3760ad	-0.04476993
73	0x3d226881	0.039650444
74	0x3dcd2e3a	0.10018583
75	0xbdcbbd04	-0.09948161
76	0xbcc01000	-0.02344513
77	0xbd0efff9	-0.034912083
78	0x3c95e871	0.018299313
79	0xbdb6abc5	-0.08919481
80	0x3d776ce9	0.0604066
81	0xbc263fcb	-0.010147045
82	0x3d5e5a6a	0.054285444
83	0xbebd05e1	-0.36918548
84	0x3e5fea1d	0.21866651
85	0xbbb17d7a	-0.0054165693
86	0xbd1303b9	-0.035892222
87	0x3d05d22f	0.03267115
88	0xbe1a41fe	-0.15064237
89	0xbda47106	-0.0802937
90	0xbd9beab1	-0.07613123
91	0x3e0ac28d	0.13550778
92	0xbd92b9a4	-0.071643144
93	0xbe86ca12	-0.26326042
94	0x3d56fea1	0.052488927
95	0x3dbaf4c6	0.09128718
96	0xbe01f6fe	-0.12691876
97	0x3b0eec96	0.0021808497
98	0x3def96d9	0.11698694
99	0x3d7db1ae	0.061937027
100	0xbd08f75e	-0.033439033
101	0x3e16c146	0.14722165
102	0xbc5badf1	-0.01340817
103	0xbd92f6e4	-0.07175997
104	0x3dfe62c1	0.124211796
105	0xbead34f0	-0.3382945
106	0xbd5b148e	-0.0534864
107	0x3d9d4446	0.07679038
108	0xbc843693	-0.016139304
109	0x3e22980b	0.15878312
110	0x3dfdefd0	0.12399256
111	0x3e09699c	0.13419193
112	0xbc03bebf	-0.008041083
113	0x3e8de10a	0.27710754
114	0xbdfd2b81	-0.12361813
115	0x3d956b9d	0.07295916
116	0xbde5b160	-0.11215472
117	0xbe374ca3	-0.17900328
118	0xbdfff8a2	-0.12498595
119	0x3ca300d1	0.01989785
120	0x3c768a72	0.015047656
121	0x3e9a7d13	0.3017355
122	0xbbe96d8e	-0.0071236556
123	0xbc99e060	-0.018783748
124	0xbe4e9d2c	-0.20177144
125	0xbc8fdcb8	-0.017561302
126	0xbdcd20a5	-0.10015992
127	0x3e06e0d1	0.13171698
128	0x3e12a54a	0.14320865
129	0xbc46fd2f	-0.012145325
130	0xbd30c126	-0.04315295
131	0x3cf84049	0.030304091
132	0xbe923f25	-0.285638
133	0xbd68533b	-0.05672
134	0x3d8e7602	0.06956102
135	0xbea020ef	-0.31275126
136	0x3db156d3	0.086591385
137	0x3e125c92	0.14293125
138	0x3e3dab23	0.18522315
139	0xbdcb1795	-0.09916607
140	0x3c501128	0.012699403
141	0x3e1524c5	0.14564808
142	0xbd1bed1c	-0.038067922
143	0x3e2c6dce	0.16838762
144	0x3cec880a	0.028873462
145	0xbd9c61a1	-0.07635809
146	0x3e5379af	0.20651887
147	0xbe1069c2	-0.14102843
148	0xbe1a8fea	-0.15093961
149	0xbd84146a	-0.06449206
150	0xbe0e4851	-0.13894774
151	0x3b7b8515	0.0038378884
152	0x3e5463ac	0.20741147
153	0xbe40ced8	-0.18828905
154	0x3dd76735	0.10517732
155	0x3dafabb4	0.08577672
156	0x3d5f6fd2	0.05455
157	0xbe32b812	-0.1745303
158	0xbcfc052b	-0.030764183
159	0x3dcfb588	0.10142046
160	0xbe81d6b4	-0.25359118
161	0xbdb43570	-0.08799255
162	0xbe70c6d6	-0.2351335
163	0x3d54d7cd	0.051963616
164	0xbe201ad7	-0.15635239
165	0x3e161660	0.14656973
166	0xbe1ce93b	-0.15323345
167	0xbe2660ee	-0.16247913
168	0x3e964ac1	0.29353908
169	0xbe677476	-0.2260302
170	0x3cd7729c	0.026299767
171	0x3da857de	0.08219884
172	0xbe2bc328	-0.16773665
173	0xbd3cf28e	-0.046129756
174	0xbd8b0f13	-0.067899846
175	0x3e3f6c5f	0.18693684
176	0x3e823bbe	0.25436205
177	0xbda0a541	-0.0784402
178	0xbe00bb19	-0.12571372
179	0x3dc2b0fd	0.09506414
180	0x3d310b25	0.04322352
181	0x3c64aa09	0.013956555
182	0xbdf2c454	-0.11853853
183	0x3d6512eb	0.055926245
184	0x3de2798f	0.11058342
185	0x3e2b3dc7	0.16722785
186	0x3c883729	0.016627865
187	0xbde0e458	-0.10981053
188	0x3c6edf97	0.014579675
189	0xbdf5cf07	-0.12002378
190	0xbce860e2	-0.02836651
191	0x3e2ebe00	0.17064667
192	0xbe64eb0f	-0.22355293
193	0x3c72b75c	0.014814224
194	0xbc948ac9	-0.018132584
195	0xbbee9414	-0.007280836
196	0x3d8b7d93	0.06811061
197	0xbd4be926	-0.049782895
198	0xbde4b815	-0.11167923
199	0x3ddf5483	0.10904791
200	0xbe1099e7	-0.14121209
201	0x3da86e4f	0.08224165
202	0x3bbe4aa8	0.0058072396
203	0xbd2576be	-0.040396444
204	0x3d9bfaa0	0.07616162
205	0xbd2e70f6	-0.042588197
206	0x3e01ef25	0.12688883
207	0xbdc758d6	-0.09733741
208	0x3ca0ecd5	0.01964418
209	0x3e16308c	0.14666957
210	0x3ddfd4be	0.10929249
211	0x3d61b293	0.055101942
212	0xbcb3eade	-0.02196258
213	0xbdc65eac	-0.09686026
214	0xbdcab9d9	-0.09898729
215	0xbe00a892	-0.12564304
216	0x3df7b1b0	0.12094438
217	0xbd98fd6c	-0.074702114
218	0xbe0af4bf	-0.13569926
219	0x3d2e125a	0.04249797
220	0x3cc6f94d	0.024288798
221	0x3d78927d	0.060686577
222	0xb9bd59e6	-0.0003611587
223	0x3da81e83	0.08208945
224	0x3e1b1d23	0.15147834
225	0x3e44b22e	0.19208595
226	0xbd22d10f	-0.039750155
227	0xbd47c2a6	-0.048769616
228	0x3d0ed7e0	0.034873843
229	0x3e41a7ea	0.1891171
230	0x3d6610b5	0.056168277
231	0x3de3fe6a	0.1113251
232	0x3e3aba48	0.18235123
233	0xbe276d20	-0.16350222
234	0xbd4039e5	-0.046930213
235	0x3d29ffcb	0.04150371
236	0x3da4df3b	0.0805039
237	0xbdde0cfa	-0.10842319
238	0xbcb3e6fc	-0.021960728
239	0x3c13fa42	0.009031834
240	0xbd653e31	-0.055967513
241	0xbdb09f69	-0.08624155
242	0x3e0df894	0.13864356
243	0xbdd617a0	-0.10453725
244	0xbe0b2b7b	-0.13590805
245	0x3dfcf65d	0.123516776
246	0xbead3fae	-0.33837646
247	0x3e3c3bdd	0.18382211
248	0xbd9b4ac4	-0.0758262
249	0xbe4f238d	-0.20228405
250	0x3e3963d2	0.18104485
251	0xbde3f680	-0.111310005
252	0x3e97334a	0.29531318
253	0xbdef0cca	-0.11672361
254	0xbdc9d75b	-0.09855529
255	0xbb66c850	-0.003521461

backBone.1.conv2.bias f4 [8]
0	0xb9223090	-0.00015467615
1	0xba082a15	-0.0005194259
2	0x37ec8ff0	2.8200418e-05
3	0x3a070633	0.0005150765
4	0xb8f0d533	-0.00011483803
5	0xb9006870	-0.00012245937
6	0x3825ab08	3.949835e-05
7	0x3a227ac6	0.0006198104

backBone.1.bn2.weight f4 [8]
0	0x3f74698f	0.9547357
1	0x3f8d68d8	1.1047621
2	0x3f5afec9	0.8554502
3	0x3f8c3a27	1.0955247
4	0x3f55dc73	0.83539504
5	0x3f5f38e6	0.87196195
6	0x3f44d792	0.76891434
7	0x3f78710c	0.97047496

backBone.1.bn2.bias f4 [8]
0	0x3d295baf	0.041347202
1	0x3e07c4c7	0.13258658
2	0x3d888df1	0.06667698
3	0x3dc320cc	0.0952774
4	0xbde4277c	-0.111403435
5	0x3e114305	0.14185722
6	0x3d8a2c7e	0.067467675
7	0x3cb22f94	0.021751203

backBone.1.bn2.running_mean f4 [8]
0	0xbf12ba8d	-0.57315904
1	0x3d960956	0.073259994
2	0xbe713826	-0.23556575
3	0xbd07d3bd	-0.033160914
4	0xbdd63a36	-0.104603216
5	0xbf35e1c9	-0.71047646
6	0xbe3482b0	-0.17627978
7	0xbeeb0488	-0.45901895

backBone.1.bn2.running_var f4 [8]
0	0x3ef428ea	0.47687465
1	0x3ee233ff	0.44180295
2	0x3ea523e1	0.32253936
3	0x3ea30a74	0.31843913
4	0x3ea7880f	0.32720992
5	0x3ec4d916	0.38446873
6	0x3f053259	0.5202995
7	0x3ea89955	0.32929483

backBone.2.conv1.weight f4 [8, 8, 3, 3]
0	0xbdcc7661	-0.099835165
1	0xbd31d240	-0.0434134
2	0xbe20445c	-0.15651077
3	0x3e503df9	0.2033614
4	0x3daa7fe0	0.083251715
5	0x3d7aa408	0.06119159
6	0x3e611100	0.21979141
7	0x3e5f3fef	0.21801732
8	0x3d2a0469	0.041508112
9	0xbd1c4906	-0.038155578
10	0x3dd5c30f	0.10437595
11	0x390371c2	0.00012535512
12	0xbdd20390	-0.10254586
13	0x3e45f123	0.19330268
14	0x3e414ccf	0.18876956
15	0x3e6cf092	0.23138645
16	0xbd7065b1	-0.05869073
17	0x3e10c699	0.14138259
18	0xbc735507	-0.014851815
19	0x3de3b907	0.111192755
20	0xbca04d19	-0.019568013
21	0x3e611390	0.21980119
22	0x3d891e54	0.06695238
23	0xbcf707c6	-0.030155074
24	0x3e0ffd01	0.14061357
25	0x3d195286	0.037432216
26	0x3e072cfa	0.13200751
27	0x3c9d6ddf	0.01921743
28	0xbd8d98dc	-0.06913921
29	0x3e4461ac	0.19177884
30	0x3d942528	0.072336495
31	0x3e2a4c5e	0.16630694
32	0xbdf7e0be	-0.12103413
33	0x3dc8c76e	0.09803663
34	0x3d77005a	0.06030307
35	0xb9bca455	-0.0003598059
36	0x3dc1573e	0.09440468
37	0xbc7ab43e	-0.015301762
38	0x3e6f40c4	0.2336455
39	0xbe6cb39d	-0.23115392
40	0x3cfeb8ce	0.031093981
41	0x3d675521	0.05647767
42	0x3ce78673	0.028262353
43	0x3e1338f5	0.14377196
44	0xbd213262	-0.03935469
45	0x3e40c454	0.18824893
46	0x3d9a3236	0.07529108
47	0x3e6d70b4	0.23187524
48	0xbe56fbab	-0.20994441
49	0x3e637dbf	0.22215937
50	0x3d0f2d65	0.0349554
51	0xbd06540e	-0.032795005
52	0x3e909080	0.28235245
53	0x3d3fef3f	0.046859022
54	0x3e2056cc	0.1565811
55	0xbdf916bc	-0.12162539
56	0x3a885b97	0.0010403272
57	0xbe027f20	-0.12743807
58	0xbd630748	-0.055426866
59	0x3cbe4529	0.023226338
60	0x3e35a001	0.17736818
61	0xbddd74b4	-0.10813275
62	0x3dc51c56	0.09624545
63	0xbe04cb0f	-0.12968086
64	0xbc688168	-0.014191009
65	0xbd39e347	-0.045382764
66	0x3d4fb9d0	0.050714314
67	0x3e111a51	0.14170195
68	0x3d4af077	0.04954573
69	0x3ccfbf01	0.025359632
70	0x3e14363e	0.14473817
71	0xbda1b0ba	-0.07895036
72	0x3e06a900	0.13150406
73	0xbd0aa9ec	-0.033853456
74	0xbda06114	-0.07831016
75	0x3d6514a6	0.055927895
76	0xbe1e0482	-0.15431407
77	0xbdf1d75c	-0.11808655
78	0x3e31d4c2	0.17366317
79	0x3c33e978	0.010980956
80	0x3dd0ad40	0.10189295
81	0xbd7370cd	-0.059433747
82	0xbc0859a6	-0.008322155
83	0x3dae64ec	0.08515343
84	0xbd547aaa	-0.051874794
85	0xbe4eb1e9	-0.20185055
86	0x3e34a409	0.176407
87	0x3d4df7cf	0.050285157
88	0xbe29879f	-0.16555642
89	0xbc14f378	-0.009091251
90	0xbdee4c21	-0.11635614
91	0x3e0a1497	0.13484417
92	0x3dff346b	0.1246117
93	0x3cdc8f28	0.026923731
94	0xbe1407cc	-0.144561
95	0x3e0f8cc8	0.14018548
96	0xbe5727ed	-0.21011324
97	0x3e772751	0.24136092
98	0x3dcbeaf0	0.0995692
99	0x3e49e7b4	0.19717294
100	0x3d82837f	0.06372737
101	0xba5e8918	-0.00084890565
102	0x3de72ecf	0.11288225
103	0xbe88a4bc	-0.26688182
104	0xbe15d287	-0.14631091
105	0x3e0248e2	0.12723115
106	0xbd66fdef	-0.056394514
107	0xbdf8a3fd	-0.12140653
108	0xbda3651c	-0.079782695
109	0x3caca888	0.021076456
110	0x3e235d90	0.1595366
111	0xbdb804d5	-0.08985297
112	0x3d9f3b91	0.07775033
113	0xbdabc3f2	-0.08386983
114	0xbeb28107	-0.34864065
115	0xbd557822	-0.05211652
116	0xbcea63f0	-0.028612107
117	0xbe6593f4	-0.22419721
118	0x3d7b093e	0.06128811
119	0x3e2937ba	0.16525164
120	0xbe05a63a	-0.13051692
121	0x3d914d50	0.07094824
122	0xbd28c9af	-0.041207965
123	0xbcb5173e	-0.02210581
124	0xbdb03b9b	-0.08605119
125	0x3e1aa6df	0.15102719
126	0xbc8bc892	-0.017063413
127	0xbd1071aa	-0.03526465
128	0xbd78c65e	-0.060736053
129	0x3d6a626f	0.05722278
130	0xbe487ac8	-0.19578087
131	0x3de28f51	0.11062492
132	0x3dda56c0	0.106610775
133	0x3e221d97	0.158316
134	0x3d25a93e	0.040444605
135	0xbe80fe59	-0.25194052
136	0x3e396427	0.18104611
137	0xbe6df7dc	-0.23239082
138	0x3e01b2db	0.12665884
139	0x3d9ac233	0.07556572
140	0xbe6b1368	-0.22956622
141	0xbdf2a8bb	-0.11848589
142	0x3d9530e2	0.07284714
143	0xbd87da77	-0.06633466
144	0xbc01a63a	-0.007913167
145	0x3dccedcb	0.10006293
146	0xbe1728f9	-0.14761724
147	0x3e00d2d4	0.12580425
148	0x3db82ef3	0.0899333
149	0xbcee75b2	-0.029108856
150	0xbd8ab0cc	-0.067720026
151	0xbe3a785c	-0.18209976
152	0x3cb8a0c1	0.022537591
153	0x3df6dad6	0.120534584
154	0xbcb54880	-0.022129297
155	0xbdf94f64	-0.12173346
156	0xbe3f4e08	-0.1868211
157	0x3e703cbc	0.23460668
158	0xbcb8ee88	-0.022574678
159	0xbd1f7121	-0.038926248
160	0x3d13290c	0.035927817
161	0x3e012d8e	0.12615034
162	0x3e31c7a0	0.17361307
163	0xbd5b1041	-0.053482298
164	0x3e54c329	0.20777573
165	0xbe32e558	-0.174703
166	0x3d88f143	0.06686642
167	0x3da6af1d	0.08138869
168	0x3d0aec84	0.033916965
169	0xbdd7b6b0	-0.10532892
170	0x3d878a81	0.066182144
171	0xbe260855	-0.16214116
172	0xbe256c8f	-0.16154693
173	0x3d4ca90f	0.049965914
174	0x3e058ed5	0.13042767
175	0xbda47537	-0.080301695
176	0xbc4fe460	-0.012688726
177	0xbddf4378	-0.109015405
178	0x3ea0438e	0.3130154
179	0xbcd32146	-0.025772702
180	0xbdd6f341	-0.10495616
181	0xbd5522d7	-0.05203518
182	0x3cc5cd36	0.024145704
183	0x3d2e3306	0.04252913
184	0xbbe207cb	-0.0068979017
185	0xbe01402d	-0.12622137
186	0xbdb25606	-0.08707814
187	0x3e8470fc	0.2586745
188	0x3e029a4d	0.12754174
189	0xbdbb8fec	-0.0915831
190	0x3e6fd313	0.23420362
191	0x3dc3faa5	0.09569291
192	0xbe179f27	-0.14806806
193	0xbe2a1046	-0.1660777
194	0x3e3ce006	0.18444833
195	0x3c63b426	0.013897931
196	0xbd99ffb6	-0.07519476
197	0xbbb4165f	-0.005495831
198	0xbe31ffc0	-0.17382717
199	0x3dda2252	0.10651077
200	0x3e6fb98c	0.23410624
201	0x3e14f636	0.14547047
202	0xbd660c6e	-0.056164198
203	0x3e76b38f	0.24091934
204	0xbde1abb4	-0.11019078
205	0xbcaffed3	-0.021483814
206	0xbd78657d	-0.06064366
207	0xbe9200f8	-0.28516364
208	0x3d12815f	0.03576791
209	0xbe1a50f4	-0.15069944
210	0x3e00c5c0	0.12575436
211	0x3c30d740	0.010793507
212	0xbda25479	-0.07926268
213	0xbd4d7856	-0.05016359
214	0x3d51785d	0.051140178
215	0x3e34b906	0.17648706
216	0x3c858792	0.016299997
217	0xbc973d90	-0.018461972
218	0xbddeafbd	-0.10873363
219	0x3e040a2f	0.1289451
220	0x3ceedb2c	0.029157244
221	0xbe157caf	-0.14598344
222	0x3e029596	0.12752375
223	0xbe6c527d	-0.23078342
224	0xbe785272	-0.242502
225	0x3d9cf264	0.0766342
226	0x3d445402	0.04793168
227	0xbe5e381f	-0.21701096
228	0x3de99276	0.11404888
229	0xbd4c269a	-0.0498415
230	0x3d6c3075	0.0576634
231	0x3d9a1a02	0.07524492
232	0xbbba4199	-0.0056840894
233	0x3e02b74d	0.12765236
234	0x3e063572	0.13106325
235	0x3d9ce013	0.07659926
236	0xbdb02f8a	-0.08602817
237	0x3da48eb3	0.0803503
238	0x3d56c83d	0.052437056
239	0x3e0f9059	0.14019908
240	0x3e6e426d	0.23267527
241	0x3cbf1a79	0.023328053
242	0xbe785719	-0.24251975
243	0xbe6077fb	-0.21920769
244	0x3da5a340	0.08087778
245	0xbddd7263	-0.10812833
246	0x3c89f392	0.016839776
247	0xbe058bbf	-0.1304159
248	0x3db0eed2	0.08639301
249	0xbe185300	-0.14875412
250	0xbe827612	-0.25480705
251	0xbdf65302	-0.12027551
252	0x3dd6baae	0.10484825
253	0xbd6bc186	-0.057557605
254	0xbe4a4e85	-0.19756515
255	0xbe06cdbc	-0.13164419

backBone.2.conv1.bias f4 [8]
0	0x3917cb80	0.00014476292
1	0xba030d77	-0.000499926
2	0xb91837d2	-0.00014516644
3	0xb99277a5	-0.00027936432
4	0xb8afffd7	-8.392304e-05
5	0xb93be780	-0.0001791995
6	0xb97af647	-0.00023933603
7	0xb92718d6	-0.00015935613

backBone.2.bn1.weight f4 [8]
0	0x3f7d6b2f	0.98991674
1	0x3f5a5a6f	0.8529424
2	0x3f7a217d	0.9770735
3	0x3f7955f0	0.97396755
4	0x3f85ec03	1.046265
5	0x3f6fb734	0.9363892
6	0x3f863c0d	1.0487076
7	0x3f714353	0.94243354

backBone.2.bn1.bias f4 [8]
0	0xbe3847f9	-0.17996205
1	0xbe047ec1	-0.12938978
2	0x3d833fae	0.0640863
3	0xbde67c84	-0.11254218
4	0xbd2ad987	-0.041711356
5	0xbd6b3cd1	-0.057431046
6	0xbb44da72	-0.003003743
7	0xbd7a2dbf	-0.061078783

backBone.2.bn1.running_mean f4 [8]
0	0x4030a2d1	2.7599375
1	0xbf321b07	-0.6957249
2	0x3f04e294	0.5190823
3	0xbf5f33b4	-0.8718827
4	0xbf8a288c	-1.0793624
5	0x3ddce39a	0.10785599
6	0x3d92030e	0.07129489
7	0xbf255ca9	-0.64594513

backBone.2.bn1.running_var f4 [8]
0	0x3f96ec13	1.1790794
1	0x3fab3554	1.337565
2	0x3f93d9d0	1.1550846
3	0x3fa10220	1.2578773
4	0x3f8ca8ef	1.0989054
5	0x3f9236ee	1.1423013
6	0x3f687163	0.90798014
7	0x3f8198e3	1.0124782
