models/alphazero/main.pt (torch, 97472 bytes, 117 tensors)

startBlock.0.weight f4 [8, 4, 3, 3]
00000000: e7d7 0fbd 6210 313d debb a83d 096b 30be
00000010: ad8c ac3e 4d55 023d bec4 ef3d a229 ae3d
00000020: a88f d73b 7df6 d23c 4d6d a6be 23c8 3bbe
00000030: 88d5 2fbf b32c 9ebe dff0 54be 7f81 fa3c
00000040: b2eb 3e3e 931f 9b3d 0c3b 12be 468f 95bd
00000050: 4906 513c 003b c73e 0380 8bbf 91ed 74bd
00000060: 365b a63c 92e2 d33c 3b1f ad3e 4d0d 403e
00000070: 80b8 813e c4fb 353e 30c8 013f 9ef0 c4bd
00000080: 6694 d13e a588 613d ae0e 163e 14f4 35be
00000090: 6444 653e f5e8 a7bd 605b 083e 4ade fa3d
000000a0: 1684 a9bd aac4 cebd 9980 0dbe f87b 973d
000000b0: 1d1b fbbe aea3 aabe e8d9 6b3c 472f c1be
000000c0: 7ff1 243e 404d 91bd 1cc9 043f 3e86 e03e
000000d0: bf16 fdbe 3d34 163f 84e8 c1be d2eb 213e
000000e0: 9bc8 423e c904 02bf a909 72be 5ef9 87bd
000000f0: 6938 473d 7f4b 30bd 4145 e1bd 0907 e43e
00000100: 5c37 e2be d90b 3abd 3a6f 8fbd 5e0f 0d3e
00000110: 79bf 483e a46c 07be 6c5d 083f 3446 033f
00000120: f3e8 94be c317 f9bd d467 753d 3851 b0bd
00000130: 3534 9dbc 89d5 9fbb 59f9 3cbd f243 b23d
00000140: 8071 bdbd 89f1 303f d85a 58be 82df a83c
00000150: 7f02 8b3e f6ae 853c 8aba b6be f263 903e
00000160: 5574 16bd 8c71 b63e 4bf7 f53c 60bc 983d
00000170: 658e 1a3f 773c 03be 8ec4 92be b133 b53d
00000180: 2923 fa3e 60c9 a3bd d48b 61bd 5c7a 39bd
00000190: 81aa 673f b8ae 113e 1471 883e 60de ec3b
000001a0: 41a5 aa3e e31f dfbe 01bb c33e bd2f 3cbe
000001b0: 799a 2b3e 68a9 f03d ca46 f2be 194a f0bd
000001c0: 711f 233e 5d2e ad3e db66 71be 2930 fa3d
000001d0: 276e 943e 6d4e 6fbe 69a0 af3e 3f5f a73e
000001e0: f5ab af3e 2aff 113f 016f 9fbe 72b6 8d3e
000001f0: 67f5 163d 1c1f 41be c94d 0bbe 1f2a c13e
00000200: 18be b73e 997f 473e 2f4b 493d 46d7 b8be
00000210: a389 b9be ae42 68bc 973c 00be 9de3 803d
00000220: b9fb a93e 81f2 a3be 7cc4 f8bd 4c82 eabe
00000230: eeeb 59be b258 d7be b885 543e c465 32be
00000240: 723b 8d3e 1fda 5e3e 2877 ffbc dbd1 96bc
00000250: 76a7 583e 8e5f 78be e856 07bd 7dd6 e93d
00000260: 991b d4bd b1e0 9bbe c7c7 cd3d ed06 9bbd
00000270: 6f3f 823e c39e 5e3e a493 b63e 4f8d 813e
00000280: 7095 dd3e dd37 12bd 86a8 603d ce6a 513e
00000290: 452f 523b 577f b73d 4fd2 92bf 042f 6d3e
000002a0: 5238 49be 8474 98bd d536 8ebd 3401 e9bd
000002b0: 7799 89bc 8984 9ebd 31f1 143d b974 94be
000002c0: 3b10 de3e 1932 2a3d a262 f63e 6121 08bf
000002d0: 41b2 3f3e 2ad2 06be debb 193d 1b2f b03c
000002e0: c1c9 5d3e b5a1 92be bfc6 82be 31be 303e
000002f0: 53b9 8dbe a186 8abc f27c 473f 0e57 a23e
00000300: 8830 643e b55c 0cbe efff 173f 9fa0 803c
00000310: 6774 2dbe 9e1a e3be af72 d03b 16ea d1bd
00000320: 4ecf e03c 29c2 d83e b674 383c 9d45 c93d
00000330: af72 193e 86cf 1fbc a703 abbe 2ba4 e5bc
00000340: b8b7 5dbf 5e3d a8be 56ad 40bc 2e77 4d3e
00000350: 6462 56bf 48e2 733d 80e2 54be ef85 33be
00000360: 3782 dfbd b733 49be 6c9f 8f3d bfeb cabd
00000370: 7c0c d93c 058e 833d c29f 0dbe e21a 3a3e
00000380: 9e5d 44bd 74ef 22be aedc 71be c922 91be
00000390: 5e94 933e d9c5 9fbd 1055 0dbf 5a19 78be
000003a0: f93d 95be 489b cdbe 619b e93d 110f d73e
000003b0: c463 9f3d 8542 cf3e 0e7a 87be 581b bfbe
000003c0: 7911 a03e 5d63 b1be b36e 15bd d22d 873d
000003d0: 34bd b3bd 77bc 103f 123e 9e3e 5e94 b33e
000003e0: 02bd 8bbd a974 923c 8ad0 6b3e 01dc 503f
000003f0: edfe 8ebd 87d0 99bd 8a4a 05be 57aa 303e
-0.03511801 0.043228514 0.08238958 -0.1722833 0.33701077 0.03181963 0.117074475 0.085040346
0.0065784045 0.0257523 -0.32505265 -0.18338065 -0.686852 -0.30893478 -0.2079501 0.030579327
0.18644598 0.07574382 -0.14280337 -0.07302718 0.012757846 0.389122 -1.0898441 -0.059796873
0.020307165 0.025864873 0.3381289 0.18755074 0.25336075 0.17771822 0.50696087 -0.096162066
0.40933532 0.055061955 0.14654037 -0.1776889 0.2238937 -0.0819873 0.13316107 0.122494295
-0.082771465 -0.100961044 -0.13818587 0.07396692 -0.49044123 -0.33328003 0.014395215 -0.37731382
0.16107748 -0.070948124 0.5186937 0.4385242 -0.49431416 0.5867346 -0.37872708 0.15812615
0.19021837 -0.5078855 -0.23636498 -0.0663936 0.04863778 -0.04304075 -0.10999537 0.44536617
-0.4418286 -0.045421455 -0.07003637 0.13775393 0.19604291 -0.13225037 0.5326755 0.51278996
-0.29083976 -0.12162735 0.05991347 -0.08609241 -0.019189933 -0.0048777503 -0.046136234 0.08704366
-0.09250164 0.69118553 -0.21128404 0.02061439 0.27150342 0.01631878 -0.35689193 0.28201252
-0.036732037 0.35633504 0.030025145 0.07457805 0.60373527 -0.12816034 -0.28665584 0.0884775
0.4885495 -0.079973936 -0.05506499 -0.045282707 0.90494543 0.14226806 0.26648772 0.0072286576
0.33329204 -0.43579015 0.3822861 -0.18377586 0.16758145 0.11751062 -0.47319633 -0.11732883
0.15929963 0.33824435 -0.23574392 0.12216217 0.2899029 -0.23369761 0.3430207 0.32689855
0.3431088 0.57029974 -0.31139377 0.27678257 0.036855128 -0.18859524 -0.13603891 0.37727448
0.35887218 0.19482268 0.049143966 -0.3610174 -0.3623782 -0.014176054 -0.12523113 0.06293414
0.33199862 -0.32020953 -0.121468514 -0.45802534 -0.21281406 -0.42059857 0.20754135 -0.17421633
0.27584416 0.21762894 -0.031184748 -0.018410614 0.21157631 -0.24255201 -0.033041865 0.114178635
-0.10356826 -0.30444863 0.1004787 -0.0756968 0.2543902 0.2174025 0.35659516 0.25303122
0.43278074 -0.035697807 0.054848216 0.20450899 0.0032071632 0.08959835 -1.1470431 0.23162466
-0.1965039 -0.074440986 -0.06944052 -0.113771826 -0.01679681 -0.07740123 0.03636283 -0.28995302
0.43371758 0.041551683 0.48122126 -0.5317593 0.18720342 -0.13166109 0.03753268 0.021506837
0.21658994 -0.28638998 -0.25542256 0.17260052 -0.27680454 -0.0169099 0.77925026 0.31707042
0.22284138 -0.1370724 0.593749 0.01570159 -0.16938935 -0.44356245 0.0063613276 -0.102497265
0.0274426 0.42335632 0.011258295 0.09827731 0.14985155 -0.009754067 -0.33401224 -0.028032383
-0.8660846 -0.3285932 -0.0117600765 0.20064995 -0.8374388 0.05954197 -0.20789528 -0.1753156
-0.109135084 -0.19648634 0.07012829 -0.09908246 0.02649521 0.064235725 -0.13830474 0.18174317
-0.047940843 -0.15911657 -0.23619339 -0.2834685 0.28824133 -0.07801408 -0.5520792 -0.24228421
-0.29148844 -0.40157533 0.11406589 0.42003682 0.07782701 0.40480438 -0.26460308 -0.3732555
0.3126333 -0.3464612 -0.036482524 0.066005364 -0.08776322 0.56537575 0.3090673 0.35074133
-0.0682316 0.017877894 0.2302877 0.815857 -0.06982217 -0.075104766 -0.13016716 0.1725248

startBlock.0.bias f4 [8]
00000000: baa1 cd39 9c56 3039 12b6 8839 0881 9937
00000010: 65cb 833a cb25 633a 8caf 2e3a b896 c6ba
0.00039221143 0.00016816932 0.00026075594 1.8299106e-05 0.0010055123 0.00086649944 0.0006663732 -0.0015151119

startBlock.1.weight f4 [8]
00000000: 3c4f aa3f 14b8 8b3f c7e9 953f b10d 9b3f
00000010: 0a4e be3f 0117 c53f 9583 953f df19 8b3f
1.330543 1.0915551 1.1711968 1.2113553 1.4867566 1.5397645 1.1680781 1.086727

startBlock.1.bias f4 [8]
00000000: ce87 ff3e df27 703e 3817 f23e 2f01 6c3e
00000010: 2cb3 8cbd db15 a13e 5cdf 813f 614c 19bd
0.49908298 0.2345271 0.4728334 0.23047327 -0.06870112 0.31461987 1.0146289 -0.037426356

startBlock.1.running_mean f4 [8]
00000000: 237a b8bd 01b8 82be b60f 0b3e 63d3 333e
00000010: 914c dcbd fa08 58bd 2de1 c0bc 3583 e03e
-0.09007671 -0.2553101 0.13580212 0.17561106 -0.107567914 -0.052742936 -0.023544872 0.43850103

startBlock.1.running_var f4 [8]
00000000: 6408 863e 7388 723e 4a85 753e 4a59 783e
00000010: 8f1a 963e 88ef 973e 3270 2c3e fca1 d33e
0.26178277 0.23684864 0.23976627 0.24252811 0.29317138 0.29674935 0.16839674 0.41334522

backBone.0.conv1.weight f4 [8, 8, 3, 3]
00000000: e37f d1bd 6e87 2cbe b158 3f3e 6216 ba3e
00000010: e9bd 003f e8d8 113e 0e54 3f3e c4cc 3a3e
00000020: a42a 2fbe 99ec 923b 36d8 49be c566 a03e
00000030: 897b e6be 6d38 2e3e c675 023d a4af 9c3b
00000040: 6df6 1b3e dc14 7d3d de42 383d 763c c53d
00000050: e074 e8bb 374a 37be baca 023f 63d0 593e
00000060: 6f9c 04bf 7b55 84bd 3ee2 bcbe 763c a6be
00000070: 5dbb 0f3f 2c16 adbd c8b4 003e 234d 90bd
00000080: e8fc d9be bc51 363e d63a 053d b895 8b3e
00000090: e46b 9b3d 1691 c83e e48b 4cbe 4e61 c93d
000000a0: 9359 9cbd 13f7 733e d296 513e f880 aebb
000000b0: b790 833d 4c7d 81be 9a9d 49bd 818e 9b3e
000000c0: ee2d 82be 1d61 003e 4191 0bbe 6a25 3ebe
000000d0: 2269 e53d c255 fb3c 172d 4d3e 8754 6d3e
000000e0: bd64 873c 1bdc ba3c 8bd8 7bbd dc63 efbe
000000f0: d6a8 273f 9e17 80be 2796 b5be a1db a53d
00000100: 4052 af3d 32a4 433e 314b 02bf 7a04 a63e
00000110: a1f7 32be 6520 073e a99f afbe 8794 523e
00000120: 6cf8 09be e880 50bd cfcd b4be ba08 763e
00000130: 8f37 10bf b20c 93be ec9b 64be af6b adbe
00000140: 4fe2 173f 776f 11be 5b6e e2be cafa 2d3f
00000150: 46aa c4bd 3265 dbbd 715b 61be 4c78 6abb
00000160: 7d88 b43e 46c8 953d 30fe a6be b866 30be
00000170: eff9 103e f64a d03d 65cd 93be 6051 363d
00000180: 01b9 943d 0fb4 57be 773a b13e 89be 37be
00000190: 2ec6 b0bc 4db9 603e bfa2 d03e 0894 db3e
000001a0: d1d6 b3bd 1b07 5cbe 4da5 b43e a20e 0f3e
000001b0: b03a 59bd f4ae b53e d08d e2bc f2fd adbe
000001c0: b3fb e1bd 113f 59be aa7b de3d 344b c23e
000001d0: e70b 98bd 21c8 603e 9f30 a13e 3b7b 55bd
000001e0: 5a94 59be 1792 883c 4bfa 2c3e aa9f b2be
000001f0: 4733 b83d 0240 f9be 374f b7be 86d4 62be
00000200: 38d8 3fbe 9d92 3bbd 009c 51be 50df 84be
00000210: db24 ea3d 7a96 a4be d859 793d 66fe d1be
00000220: ed57 b7bd f1a8 babd d191 33bc 1a87 05bf
00000230: 2e2c c5bc 767c d03c 06b3 1abe 44cd 4d3e
00000240: e094 c13e 8b0c 0e3e ee53 0f3f ab82 b2be
00000250: 1700 ddbd c45f fd3d 3aba 13bb a435 103e
00000260: bfac 84bd 36e5 21bf 2be5 773e 9d45 5a3e
00000270: 4f19 a83e e81f b63e 5fc9 7b3e ee86 7d3e
00000280: c2f9 c6be a41e 65bc 1125 41bd 35f8 1e3e
00000290: b417 413d 94c8 43be 3c7b 8abd 505a 79be
000002a0: 235e dcbe ff0f eb3e 1e04 013e 8e86 babe
000002b0: 95ee 883c 212d 1bbf 3541 343e d845 0b3e
000002c0: af8c 423d 7739 cb3d 7142 07be 47eb 5abe
000002d0: 46fc d5bd 1eb9 8d3e 9436 85bd f489 1c3d
000002e0: 4f6b 3abe 0049 563d 5f83 c43d 5898 ffbe
000002f0: e8b3 e8bd d712 1c3d 5b1a 2cbe ec9b 3b3e
00000300: 84af adbe 8c28 27be 4acb 24be 49b4 4d3e
00000310: 79a4 5dbd 46f9 863e 0799 5a3d 0acf c7be
00000320: bd4e 8fbd 94ab 24bf 5c39 443e c6ef 9d3e
00000330: 8d77 aa3d ae7b a73e e993 97be 3159 a9be
00000340: 711b 303e 15c5 ae3e dae5 8fbe 63fa 87bd
00000350: c4d9 24be 2fca 8abe 8da5 80bd e1a0 083e
00000360: 8e30 2bbe ab6d 96be 8fb0 423e a2b7 11bf
00000370: 63b9 89bd 1bec 423e 4f66 de3d 7310 983c
00000380: 778d 56be 3960 a63e e300 f5bd 15a9 8fbe
00000390: d819 af3d 70e1 10bf f0e4 263e 3e6e 9e3d
000003a0: abed 92bd 6ac2 a33e d495 1ebe c801 9e3e
000003b0: 867f 953d 6fc0 87be 1fa5 a83e 4c2c 803d
000003c0: 4374 b43e cc83 bc3d 37d1 27be 4c3c ffbe
000003d0: df5a 8bbd d50e 023f eccb 5d3e b5d6 f03d
000003e0: b90d aebc d874 263e 46fd ab3e 8044 efbd
000003f0: f2a3 823e e8ab 9abd 0e01 bb39 b5b8 683d
-0.102294706 -0.16848537 0.18686177 0.36345202 0.5028978 0.142429 0.18684408 0.18242174
-0.1710611 0.004483771 -0.19711384 0.31328407 -0.45016125 0.17013712 0.0318506 0.00478168
0.15230723 0.06178747 0.044985645 0.09630673 -0.0070940107 -0.17899404 0.51090586 0.212709
-0.518012 -0.064616166 -0.3689136 -0.32468003 0.5614527 -0.084514946 0.12568963 -0.07045963
-0.42575765 0.17804617 0.032526813 0.27262664 0.07588938 0.39173192 -0.19975239 0.098330125
-0.076342724 0.2382472 0.2046769 -0.005325433 0.064240865 -0.25290906 -0.049222566 0.3038216
-0.25425667 0.12537046 -0.13629629 -0.1856896 0.11201693 0.030680541 0.20036732 0.23176776
0.016527528 0.022810033 -0.06148581 -0.46755874 0.65492 -0.25018018 -0.3546612 0.080985315
0.0856061 0.19105604 -0.50895983 0.3242529 -0.17477275 0.13195951 -0.343015 0.20564471
-0.13473672 -0.050904185 -0.3531327 0.24026766 -0.56334776 -0.28720623 -0.22325104 -0.3387122
0.59329695 -0.14202677 -0.4422482 0.679608 -0.096027896 -0.10712661 -0.22007538 -0.003577727
0.35260382 0.0731359 -0.32615805 -0.17226684 0.14157842 0.10170548 -0.2886764 0.0445112
0.07261849 -0.2106478 0.34614918 -0.17943777 -0.021578874 0.21945687 0.40749165 0.42886376
-0.08781207 -0.21487086 0.35282364 0.13970426 -0.053034484 0.3548504 -0.027655512 -0.33982807
-0.11034336 -0.21215464 0.10863431 0.37948 -0.07424145 0.21951343 0.31482407 -0.052119475
-0.21247998 0.016671224 0.16892354 -0.3488744 0.089941554 -0.48681647 -0.35802624 -0.22151384
-0.18734825 -0.04579412 -0.20469666 -0.25951624 0.11432811 -0.32146055 0.060876697 -0.41014403
-0.089523174 -0.09114254 -0.010960058 -0.52159274 -0.024068918 0.025449973 -0.15107355 0.20097834
0.37808895 0.13871972 0.5598744 -0.34865317 -0.10791033 0.123717815 -0.002254142 0.14082962
-0.06478261 -0.63240373 0.24208514 0.21315618 0.3283181 0.35571218 0.24588536 0.24758503
-0.38862425 -0.013984356 -0.04715449 0.15524371 0.047141746 -0.19119483 -0.06761786 -0.24350858
-0.4304057 0.45910642 0.12599227 -0.36430782 0.016715327 -0.60615736 0.17603 0.13600862
0.047497448 0.0992307 -0.13208939 -0.21378814 -0.10448508 0.27680296 -0.065045506 0.0382175
-0.18204997 0.052315712 0.095953695 -0.49920917 -0.113624394 0.038103905 -0.16806929 0.18321198
-0.3392297 -0.16324061 -0.16093174 0.20088305 -0.05411193 0.26362056 0.053368594 -0.39025146
-0.0699744 -0.6432431 0.19162506 0.30846995 0.08323584 0.32711548 -0.29605034 -0.3307586
0.17197968 0.34134737 -0.2810505 -0.06639554 -0.16098696 -0.2710738 -0.06281576 0.1334262
-0.16717741 -0.29380545 0.19012664 -0.56920826 -0.06724813 0.1903538 0.108593576 0.018562531
-0.20952402 0.32495287 -0.1196306 -0.28058687 0.08549851 -0.5659399 0.1629827 0.07735871
-0.07174238 0.31984264 -0.15486842 0.30860734 0.07299714 -0.26514003 0.32938477 0.06258449
0.3524495 0.09204826 -0.16388403 -0.4985069 -0.06804442 0.5080388 0.21659821 0.11759702
-0.021246778 0.1625551 0.3359167 -0.11682987 0.25515705 -0.0755232 0.00035668205 0.056816775

backBone.0.conv1.bias f4 [8]
00000000: b5a1 2638 880e 1ab7 30cd 8f36 ce9e aeb9
00000010: 08ac 5f36 06e7 05b8 4f5c c1b8 0e7c f8b8
3.9728086e-05 -9.182499e-06 4.285619e-06 -0.00033306185 3.3329725e-06 -3.192483e-05 -9.220151e-05 -0.000118486685

backBone.0.bn1.weight f4 [8]
00000000: db31 553f 819c 8f3f 7096 7e3f 2524 803f
00000010: 3fb3 123f 7071 623f 4ff2 533f 05ef 533f
0.832792 1.1219636 0.994483 1.001103 0.5730476 0.8845434 0.8279161 0.8278659

backBone.0.bn1.bias f4 [8]
00000000: 65c1 42be 5f18 a83e 579a a9bd 8207 9a3e
00000010: 345a a33e f922 9bbe 4274 1f3e 6a68 adbe
-0.19019087 0.32831094 -0.08281391 0.30083853 0.31904757 -0.3030012 0.15571693 -0.33868724

backBone.0.bn1.running_mean f4 [8]
00000000: 300b 623f 6bf8 14c0 9b6e f9be faf4 8d3e
00000010: 0815 4d3f 72e3 d7be 26eb 0b3f 09df 843e
0.8829832 -2.3276622 -0.48717198 0.27725965 0.80110216 -0.42165715 0.54655683 0.25951412

backBone.0.bn1.running_var f4 [8]
00000000: 26c5 2740 fc4c 8840 800b 7a40 7f47 8c40
00000010: 2938 7740 7fe4 7540 1883 5c40 2861 3340
2.621408 4.2593975 3.906952 4.3837276 3.8628027 3.8420713 3.4455013 2.802805

backBone.0.conv2.weight f4 [8, 8, 3, 3]
00000000: 875e 86be 9efe 20be 39cc 723e 79fe 0bbd
00000010: e850 9c3e ce89 17be 38b9 b6be 67d2 833e
00000020: bae4 acbe ac18 c53d 0ee4 dcbe 728a 133e
00000030: c878 e4bd 03fb b1bd e632 623e eca2 1d3e
00000040: 8722 423e 7b69 cb3d ef79 3fbd 20b4 263e
00000050: db5d e53c 7381 44be 636c 41be f751 9cbd
00000060: 431b 64be 5f9e 40be 6ea2 df3e 58da 073f
00000070: f056 b4bd 48e7 8abe 4ad7 dd3e c619 80be
00000080: 6816 2fbf 0a84 703d 2afb 933e 1713 4a3e
00000090: 3372 e33d 2088 2f3d ec00 033d f955 783e
000000a0: 6a41 323e 2bba d13d 2fb0 8d3e 85ad eb3d
000000b0: 7e64 93be 9f57 eabd 8892 f7bd 889b 62be
000000c0: 1169 15be ee48 55be 42b6 443e 9dc6 be3d
000000d0: 11d0 85be 36e6 27be 845a 9c3c 39aa a6be
000000e0: 5195 a73d 6f03 a73e 91cc d5be f7f7 d5be
000000f0: 2a47 8e3e a585 28be 5477 093e 2200 ebbb
00000100: f48c 283e 226c bcbd 79fd 54bd e883 44bd
00000110: a580 34bf 33d7 513e 4401 65be acc9 7d3d
00000120: 5d1f 92be 6ba2 2abd 1fee 003e 28cd c23e
00000130: 3c64 25be 2323 bfbe 05c5 fb3e f0c3 be3e
00000140: 985a 033e 93a4 b1bc a9bf d5bb 2830 d8be
00000150: f39b 26bf e8b5 19be a3a7 c63b f409 d4be
00000160: dee7 91bc 87f3 843d 7508 be3d 03fd 14bd
00000170: 7363 0d3f 90be febd 791b be3a 7a32 0c3e
00000180: 2580 393d b908 613c 6580 2abe eaa1 943e
00000190: 8499 f8be a7db e23e cf19 bebe e800 6abe
000001a0: 578f 5ebe 3d21 68be 67c6 7e3e 9f4c 11bf
000001b0: e089 4dbd abdd 86be a891 333e 2007 d53c
000001c0: 9ca6 76be 23cc 93bd b6fa 1ebf 0a84 dabe
000001d0: 24f9 3b3d 8772 8d3d 0f0c 473d 2f6c 6a3c
000001e0: aab0 053e e98b 0dbd 40d7 bf3c f6eb 8d3e
000001f0: 3564 3dbf f816 dd3d 6ecc 28be 39e8 95bd
00000200: 4852 da3d 43be 013e d784 2f3e c268 0cbe
00000210: 4124 15be c7b5 463e 69d1 123d c78f 42be
00000220: df5c 933e 5ad9 fa3d 3a70 f73d 5c35 38bd
00000230: e1c9 6f3e a90f 0c3e 171d c03c f58d 4dbd
00000240: cd91 0f3e 0ab2 683e 5b69 73be 43b8 173e
00000250: 64b6 f63d dc08 8cbc 5743 ec3d 9bd4 d7bd
00000260: 00dd a9bd 9dd9 ccbd 4de2 943d 5a13 8fbe
00000270: 8324 16bf 3dc1 4cbf 5757 63bd 2dec ad3d
00000280: c24c 4cbc 0a01 62be 1e69 003f 0ef4 803e
00000290: 649e 05be 0857 d83c 21d1 6a3d 9a6d 4ebd
000002a0: e667 e2be 517b b73e 9f57 c13d b6c7 56be
000002b0: ff8f b53e c668 61be 08e7 02be 3e74 373b
000002c0: 0d5d e53b 9971 f0bd a712 e5bd e14c d83c
000002d0: 0ff6 103e ea20 a53e babd 02be e922 33bb
000002e0: c6bc 4bbe bd51 8e3e 9479 f2be 70dc cf3c
000002f0: f868 873e 7d54 edbc 3944 4cbe 3edd e8bd
00000300: 4de2 96bc 5e8b 873e ed12 2fbe bb4a c2bc
00000310: a94b 44be 2315 173e b70f 3d3d d2a2 523e
00000320: 3666 08be ec9a 083d 9803 4f3e 8f8c 69be
00000330: 8d9b bdbe e057 743d c278 5dbe acf6 a0be
00000340: cdbf f43d 2fc3 8c3e ea0b 0ebd 1fd0 1e3f
00000350: 7da4 243e ef1f b43e 1a4f 243e a075 013f
00000360: a728 483d 51c8 41be c77c b93d 7019 ac3d
00000370: babb 9a3d 615a f93d b18a 97be 56d3 363e
00000380: 42b0 b4be 3a63 0fbe f409 c7be c682 963e
00000390: cff6 7fbd d725 c33d a82d c5be 834d a8bd
000003a0: 8717 a23d afff edbe 6731 c03d d491 083c
000003b0: 0ea0 24bf 8691 4f3e 6353 b33b 1273 b83d
000003c0: 2ee5 23bf 02f8 283d e5e5 2e3f ac7a 39bd
000003d0: 5a76 9abd c04b a9bd b911 81bd 98fc 4a3d
000003e0: 2a01 e1be 3703 69be 97d2 3cbd 5c89 cdbe
000003f0: 1e3a 4e3e 0c48 67bd edc2 ae3d af2f 87be
-0.26243994 -0.15722129 0.23710717 -0.03417823 0.30530477 -0.14798662 -0.35688186 0.25746462
-0.33768255 0.096238464 -0.43142742 0.14408281 -0.1115585 -0.08690455 0.22089729 0.15394181
0.18958484 0.09932228 -0.046747144 0.1627965 0.027998855 -0.19190006 -0.18889003 -0.07632821
-0.22276025 -0.18810414 0.43678612 0.5306754 -0.088056445 -0.2712958 0.43328315 -0.25019664
-0.68393564 0.058719672 0.2890256 0.19733845 0.11105766 0.04285443 0.0319833 0.24251546
0.17407766 0.10240587 0.2767348 0.115077056 -0.28787607 -0.11442494 -0.120884955 -0.22129643
-0.14590861 -0.20828602 0.19210151 0.09315226 -0.26135305 -0.16396412 0.01908613 -0.32551745
0.08182777 0.32619807 -0.41757634 -0.41790745 0.2778867 -0.16457231 0.13424426 -0.0071716467
0.1646002 -0.09200312 -0.051999543 -0.047977358 -0.70508796 0.20492248 -0.22363764 0.061959907
-0.28539553 -0.0416588 0.12590836 0.38047147 -0.16151518 -0.37331495 0.4917375 0.37258863
0.12827528 -0.02168492 -0.006523092 -0.4222424 -0.6508171 -0.15010798 0.0060624643 -0.41413844
-0.017810758 0.06491762 0.09278957 -0.036374103 0.5522987 -0.12438691 0.0014504037 0.1369113
0.045288224 0.01373499 -0.16650541 0.2902978 -0.48554623 0.44308206 -0.37129065 -0.22851908
-0.21734367 -0.2266893 0.24880372 -0.5675754 -0.050180316 -0.26340994 0.17536032 0.026004374
-0.24086994 -0.0721667 -0.62101305 -0.42678863 0.045891896 0.0690661 0.048595484 0.01430802
0.13055673 -0.034557257 0.023418069 0.27719086 -0.7398103 0.107953966 -0.16484234 -0.073196836
0.10660225 0.12670235 0.17140518 -0.13711837 -0.14564611 0.1940528 0.03584424 -0.19000159
0.28781793 0.12248488 0.120819524 -0.044972762 0.23416854 0.13677849 0.023451371 -0.05018421
0.14020462 0.22724167 -0.23770659 0.14816384 0.12046507 -0.017094068 0.115362816 -0.10538598
-0.082941055 -0.10002444 0.07269726 -0.27944452 -0.5864946 -0.7998236 -0.055503216 0.084923126
-0.012469472 -0.22070709 0.50160396 0.251862 -0.13048702 0.026408687 0.057328347 -0.050397493
-0.44219893 0.3583627 0.094405405 -0.20974621 0.35461423 -0.22012624 -0.12783444 0.002799287
0.006999618 -0.11740417 -0.11185198 0.026403846 0.14156364 0.32251674 -0.12767687 -0.002733404
-0.1989623 0.27796736 -0.47358382 0.025373667 0.26447272 -0.028970951 -0.199479 -0.113703236
-0.018418455 0.26473516 -0.17097063 -0.023717275 -0.19169487 0.14754157 0.046157565 0.20569924
-0.1332024 0.03335087 0.20216215 -0.22807525 -0.37032738 0.059654117 -0.21628097 -0.31438196
0.119506456 0.27492663 -0.03467933 0.6203632 0.16078372 0.35180613 0.160458 0.50570107
0.048866894 -0.18924071 0.090570025 0.08403289 0.07555337 0.121754415 -0.29598 0.17854056
-0.35290724 -0.14002696 -0.3887478 0.29396647 -0.062491234 0.09528702 -0.38511395 -0.08217909
0.07914644 -0.46484134 0.09384423 0.008335549 -0.64306724 0.20270357 0.005472587 0.09006323
-0.64021575 0.041252144 0.6831954 -0.045283005 -0.07542105 -0.08266401 -0.063022085 0.0495573
-0.439462 -0.22755133 -0.04609927 -0.4014386 0.20139357 -0.056465194 0.08533273 -0.26403567

backBone.0.conv2.bias f4 [8]
00000000: 58b0 ec36 7a38 4d38 b127 c438 b264 94b7
00000010: be29 a038 b8ad 9239 000f b4b5 bcd9 d638
7.053877e-06 4.8928407e-05 9.3534014e-05 -1.7689865e-05 7.6371696e-05 0.0002797672 -1.3415411e-06 0.000102448714

backBone.0.bn2.weight f4 [8]
00000000: d1c0 fc3e e3c6 693f b460 0c3f 9efc 4e3f
00000010: e1d5 f63e 9d46 db3e 3f80 2d3f 88ee 2f3f
0.49365857 0.913191 0.5483506 0.80854213 0.48210052 0.4282731 0.67773813 0.68723345

backBone.0.bn2.bias f4 [8]
00000000: 54e6 acbd dff5 b6be 3957 253e 56d4 a43e
00000010: 54c7 103e 7c23 f73e 0598 bf3e 7516 163e
-0.08442369 -0.3573446 0.16146554 0.3219325 0.14138538 0.4826926 0.3742067 0.14657004

backBone.0.bn2.running_mean f4 [8]
00000000: 5aeb 8dbe cde5 a8bf 2088 22bf fd71 88bf
00000010: a6fd a0bf d43b 433f 0970 98bf 3d59 b3bf
-0.27718621 -1.319513 -0.6348896 -1.0659786 -1.2577407 0.76263165 -1.190919 -1.4011608

backBone.0.bn2.running_var f4 [8]
00000000: 1fc4 f53f a13b df3f a134 b73f 241d bd3f
00000010: b964 1d40 2226 9f3f bb8f c63f 2b26 de3f
1.9200476 1.7440072 1.4312936 1.4774518 2.4592726 1.2433512 1.5512613 1.7355398

backBone.1.conv1.weight f4 [8, 8, 3, 3]
00000000: c555 603d ec71 79be 58a8 083e 4781 cfbb
00000010: 2ed6 4b3d 27ab 4cbd 6353 9f3e 737f 0a3e
00000020: 5fbf 10bf feaf 93be fcfe 0b3f 75b1 a53d
00000030: e15b 733a a045 033e 8292 36bd 89e4 03be
00000040: 873d 083f dcb9 303e 7e7e 77be 0057 273f
00000050: 8e19 31bf 5287 b13b 5f9d f13e 4bf2 da3d
00000060: 54e6 7bbe 8e01 b6be fa20 403b aa03 0bbe
00000070: 3618 f13e 7c94 213e 79ff 963d 4b7c af3e
00000080: 4965 91be 833f 94bc 5ab9 d2bd 6f73 31be
00000090: f284 423e 06e9 9abd a5b4 9d3a 5d99 093d
000000a0: cadd e9bd 75a8 433e 021e a73d d8bc 603d
000000b0: 74bc 093d 8219 4bbc 7d47 5abe e1e2 7cbe
000000c0: c26a 0dbf 49e8 f43d c62f a3be 7c55 083f
000000d0: 34ec 96be ba1a 143d b754 813e 6f04 0e3e
000000e0: bdf4 423b d83a 1e3e 40c2 453e 48e7 acbc
000000f0: 77fe 8ebd ab22 2e3e 335a 233e 2aac 56be
00000100: 408d 6c3e 6f0b 0ebf d096 fa3d 0031 703d
00000110: 0b8c 07be 9494 38be 8c91 34be c561 a73d
00000120: e648 693e 7446 6bbe 2038 13be 2d77 29bd
00000130: 9d84 3f3e 5478 91bd 0600 283e 4f39 afbe
00000140: 59ee 103e b3ec 3abe 957e 80bd c962 733b
00000150: 3a48 563d d433 093e 67d4 913e 1521 383e
00000160: c2d8 0e3e 6b7b 04bf d40f b53e 8c74 32be
00000170: 7a3e 89bd d9ab a33c 8615 b6be f6fb 97be
00000180: 7466 e5bd 827d 163e 9188 06be d891 003e
00000190: f843 05be 81c7 0b3c 756a 3cbe 2612 86bd
000001a0: bb3a 3abe 284b 79be d64a a1bd 6bee f43d
000001b0: ea8c a03d 9ecc a33e c5bc 35be fcf2 f73d
000001c0: d6e5 843e 51ea 1dbd 03c3 b0be 10b8 98be
000001d0: efcd 27be b1ca 5fbd e87a 913c 5d04 c7bd
000001e0: a04e 9fbe 4964 8fbe 6915 683e 1097 0b3f
000001f0: 5e73 7fbe fbfb 96bd f963 6abe 7b8b 463e
00000200: cd85 81be 62e3 f53b d1e4 79bf 47ef a8be
00000210: 62ee 0ebf 8b82 cebb 1039 aabe e448 653a
00000220: 3a7b f0be 662f a3be eaf9 013e 6d1a d63e
00000230: fdfb a43e 6512 23be 9bfc 98bd f826 a7bc
00000240: 1186 a6bd 2202 d53a 21c9 693d 4432 e6be
00000250: dd3f 233e 5525 09be 08cd c83c 15b9 a63e
00000260: 6fb3 133e dcf2 073f b9a5 543e 379f 38be
00000270: 9c89 243f 7345 3a3e 253c 913e f33c d5be
00000280: ebd4 11bd a08d 203f e3e4 44bb 9cbb 463e
00000290: db95 313e ad00 6b3d 021c c0bd d5a9 09bf
000002a0: 40f0 de3d bbcf 183e 1252 e53c dc84 37be
000002b0: d179 013f 26a4 533e 4b26 9ebe e233 f4be
000002c0: b826 623e 4851 4dbe 191e 513e 3d48 eabe
000002d0: 1361 883e ccf2 d83c ee25 153e 7795 af3d
000002e0: bd64 23be 333f 0f3e d91d a4bd e368 983e
000002f0: d41d 83be 8cd1 06be b063 d73b 6509 e83e
00000300: 9c2c 86ba 7275 06be e2eb 153f 082f bdbe
00000310: ae8d 2fbe 11a0 b63d e228 243e bfa6 27be
00000320: 0e90 e73d a45e dbbd 2dad 0c3e 996d 303e
00000330: efa3 2bbe 6d95 fc3d 0743 ec3c 6ca3 46bc
00000340: ed67 82be 8933 67be c0ea 053c afda 423d
00000350: 7bff 72bd 708a 7d3e 08fc c93d 6b12 d23c
00000360: b051 cbbd 2b7e 23be 4ed2 b2be b94d 81be
00000370: a18e 9e3e 98f9 06be b963 043e 33b6 1bbd
00000380: f6a6 f2be 0e9a 263e 36ca 7c3e 823e f8bc
00000390: 7cd1 8c3e f19b c4bd 22d3 f53e 4d4c 10be
000003a0: be90 d2bc e3e1 203d 48f2 393e 0000 e2bd
000003b0: a0ae b6bc abec 0dbe 819d 053e 9af8 18be
000003c0: 4647 b3be 31e5 08be 5f54 06be d543 d9be
000003d0: cb9f 80bd 556f f83e 0919 bc3e ff32 b03d
000003e0: 8f47 62be 1875 f2bd 6d2c eebe 50b8 523e
000003f0: e1cd ca3b 0760 8abe bb80 16be 09ad 2f3e
0.054769296 -0.24359864 0.13345468 -0.0063325497 0.049764805 -0.04996791 0.31118307 0.1352518
-0.5654201 -0.2884521 0.5468595 0.08090488 0.00092834054 0.12819529 -0.044573314 -0.12880148
0.53218883 0.172584 -0.24169347 0.65367126 -0.6917962 0.0054177428 0.47190377 0.10690745
-0.24599582 -0.3554806 0.002931653 -0.13575616 0.47088784 0.15779299 0.07372946 0.34274516
-0.28397587 -0.018096691 -0.10289259 -0.1732919 0.18996027 -0.07563977 0.0012031986 0.033593524
-0.11419256 0.1910723 0.081600204 0.054867595 0.03362699 -0.012396218 -0.21316333 -0.24695922
-0.55241024 0.119583674 -0.31872386 0.5325544 -0.29477084 0.0361583 0.25259945 0.13868879
0.0029747926 0.15452135 0.19312382 -0.021106377 -0.06982129 0.17005412 0.15952377 -0.20964113
0.23100758 -0.55486196 0.122357965 0.05864048 -0.13237016 -0.18025428 -0.17633647 0.08172945
0.22781715 -0.22976094 -0.14376879 -0.04137342 0.18702932 -0.07103029 0.16406259 -0.3422341
0.14153422 -0.18254356 -0.062741436 0.0037137738 0.052314974 0.13398677 0.28482363 0.1798137
0.13949874 -0.5175082 0.35363638 -0.17427272 -0.067013696 0.019979404 -0.35563296 -0.29684418
-0.11201182 0.14696315 -0.13138033 0.12555635 -0.1301421 0.008531452 -0.18399985 -0.0654643
-0.18186466 -0.24345076 -0.07875602 0.11959537 0.07839377 0.31992048 -0.17747791 0.121068925
0.259566 -0.03855354 -0.34523782 -0.2982793 -0.16387151 -0.05463666 0.017758802 -0.09717629
-0.31114674 -0.280062 0.22664417 0.5452738 -0.24946353 -0.0737228 -0.22889699 0.19389145
-0.25297394 0.007503913 -0.9761477 -0.32995054 -0.55832493 -0.006302183 -0.3324666 0.0008746518
-0.46969014 -0.318721 0.12692991 0.41817036 0.32223502 -0.15924986 -0.07470056 -0.020404324
-0.0813104 0.0016251246 0.057076577 -0.44960225 0.1594233 -0.13393147 0.024511829 0.3256308
0.14423917 0.5310495 0.20766343 -0.18029486 0.64272475 0.18190555 0.283662 -0.41648063
-0.035603445 0.627161 -0.0030043654 0.19407505 0.17342322 0.05737369 -0.09380342 -0.5377477
0.10885668 0.14922993 0.027993236 -0.17921776 0.505765 0.20668086 -0.3088859 -0.47695833
0.22085083 -0.20050538 0.20421638 -0.45758238 0.26636562 0.026482962 0.1456525 0.0857343
-0.15956397 0.13988952 -0.080135055 0.29767522 -0.25608695 -0.13165873 0.006573163 0.45319667
-0.0010236683 -0.1313074 0.58563054 -0.36949944 -0.1714389 0.08917249 0.1603122 -0.16372202
0.11306773 -0.10711411 0.13737936 0.17229308 -0.16761754 0.12333188 0.028840555 -0.012123924
-0.25469914 -0.22578253 0.008173645 0.047571834 -0.059325676 0.24759841 0.09862524 0.025643548
-0.0992769 -0.15966098 -0.34926075 -0.2525461 0.30968192 -0.1318115 0.12928666 -0.038015556
-0.47393006 0.16269705 0.24686512 -0.030303244 0.27503574 -0.09600056 0.48012644 -0.14091606
-0.025703784 0.039277922 0.18158829 -0.11035156 -0.022300065 -0.13859813 0.13048364 -0.14938584
-0.35015315 -0.1336868 -0.13118123 -0.42434564 -0.06280478 0.4852244 0.3673785 0.08603477
-0.2209761 -0.1183874 -0.4651827 0.20578122 0.0061890935 -0.27026388 -0.14697544 0.17155851

backBone.1.conv1.bias f4 [8]
00000000: ccff 44b9 1a18 8db9 b002 3fb8 ecca 9e38
00000010: 5647 67b8 bcb1 8fb9 6fda ad38 c1a6 c1b7
-0.00018787308 -0.00026911573 -4.554045e-05 7.571824e-05 -5.514113e-05 -0.00027407508 8.289969e-05 -2.3085044e-05

backBone.1.bn1.weight f4 [8]
00000000: eb07 603f 48b2 603f 381d 5a3f 2964 943f
00000010: adfd 323f b78d 5a3f 5777 483f 6ac1 5d3f
0.8751208 0.87772036 0.85200834 1.1593066 0.6991833 0.8537249 0.783071 0.8662325

backBone.1.bn1.bias f4 [8]
00000000: 8720 f63d d870 6ebd 6faa 09be 64f6 3abe
00000010: 7857 afbe 58e2 6abe a073 96be 3d59 b8be
0.12017923 -0.058213085 -0.13443922 -0.18258053 -0.3424642 -0.22937906 -0.2938509 -0.36005583

backBone.1.bn1.running_mean f4 [8]
00000000: f8fc 2b3f c9f4 92c0 5468 ac3f 3aa7 f5bd
00000010: 96a8 fdbe 72ae febe c49b 8a3f 829e 3abe
0.67182875 -4.592381 1.3469338 -0.119947866 -0.49542683 -0.49742466 1.0828786 -0.18224528

backBone.1.bn1.running_var f4 [8]
00000000: 50c5 6440 ad96 9b40 a3a9 a540 e436 be40
00000010: a945 8540 1eee 9040 5372 9740 f36e 8940
3.574543 4.862143 5.1769576 5.9442005 4.1647534 4.529067 4.7327056 4.2947936

backBone.1.conv2.weight f4 [8, 8, 3, 3]
00000000: 87ae 74be d8f4 f7bc 899f 1ebe c85e 1cbe
00000010: c89c 443e b7c5 3ebd 5a8c 973e 633a 02be
00000020: 7a95 11be 1d76 86bd 7671 4cbd b6ed 7dbe
00000030: f3b1 45bd 2554 c4bc 9624 9c3d 790d 143e
00000040: bc77 cc3e aa92 013f eb1a dcbe a45a 0c3e
00000050: b1bd ebbd 7d28 d63e 11c4 a1be b1c7 5fbe
00000060: 6735 133e bd28 0e3d 1a1e e2be d3f5 72bd
00000070: 16a0 ce3d 52e3 28be 1cc9 06be 5d72 5b3f
00000080: 0a07 02be 62a4 00be d89e 4cbd 4ff5 5c3d
00000090: e5e1 8a3e 1971 0bbe 20d9 09be 29ca 613c
000000a0: c1c3 3bbe 854d dcbd 39f4 3b3e 42b6 53be
000000b0: 4fe8 cdbe bf00 0f3f 1645 a33d 99f0 c0be
000000c0: 01c8 22bc 8ac9 36be ac36 ea3c 66fa be3e
000000d0: 287f c03d d4c0 2ebe c402 353f a586 c63b
000000e0: 7c64 82be 64fa 563d 830b a0be 1fdf fbbe
000000f0: 00ae 4e3d 2fc4 85bd bbb0 17be 2c01 04bd
00000100: 3957 35be 9528 01bd f5ea 1ebd eee9 103e
00000110: afe7 41bc 0247 963e ada3 6d3a c941 19bd
00000120: 2422 a5be 1e81 a6be 5353 fbbd fb0e 8e3d
00000130: 71f9 92bd eaec a7be 6e1d 47be 28de aebc
00000140: 0142 cd3d fe83 dabe 9203 cfbe 810c 26bf
00000150: 8e39 043e 56ba 0cbc efd5 1d3e 5b60 013d
00000160: 9441 ec3d 3dc4 303e 4e41 71be 810e 94be
00000170: 6f21 30bf e649 f4be ed7e 12be 7a5c e03e
00000180: 99e8 c2be dfe6 b73d 8529 2f3e 9aa3 db3c
00000190: 4686 72bd e5bf c33d c52d c6be 69c4 8abe
000001a0: e560 93bd a072 383c d29a 833d e924 86be
000001b0: 6a6b c5be 6313 9dbd b546 7dbd b864 683e
000001c0: 32ae 94be 9da4 843d 8406 a0be c6ee af3e
000001d0: 691b fabe 24ed 1ebe a155 d03d 35b2 e43d
000001e0: 59a6 86b9 c330 7f3e 16e1 c33d ab19 b7be
000001f0: b987 d0be d9f9 543e e0ca aabd 989b 703d
00000200: 4a76 b5bc bc04 d33d f20e 61bc 2ed8 c7bc
00000210: f9df 92be 9d43 433e 9cca 6d3e d76d a8bd
00000220: 49c4 ba3e cd31 e63e 0a88 bebd 7790 f2bd
00000230: 08c4 cb3e 450c 043e 0063 03be 0ca4 c93e
00000240: 4abb c4be a3e0 d63d 3ec8 583e cdf9 31be
00000250: c8a6 11bd 923f 07be e0f5 8e3c dfff b7be
00000260: 63c5 d53e 00b9 a9bc 384f 483d 638c 293e
00000270: 9a0a 9fbe 6bed 37be fbba a23d 9bcf b93d
00000280: adad 8abe 5adc 90be 483e bfbe 000e 95bd
00000290: c809 b23d ce42 c03e b0bd 78be 5613 903d
000002a0: df8e c33e 0bd3 0fbf b648 1abd 66dc 76bd
000002b0: df11 1ebe d34c f73d 3b12 ee3c bc0b 64bd
000002c0: 890f c93e ed17 92be e263 2dbe f2ae f7bc
000002d0: 682e 9dbe 87d2 c8be 1ba8 163d aa1d 88bd
000002e0: d4b5 e93e d563 673e ebbe 38be 5d96 a93d
000002f0: 06a7 14bd 0183 26bd e3bc e8bd 514b e13d
00000300: 3cf8 afbe c3b7 d53e b317 973d f524 ca3e
00000310: 5a0f 0dbe af52 06be 3056 a23c d3bf 423d
00000320: 31e2 9fbe 6ed6 b73e 1a89 a73d 32a5 c93e
00000330: d5e1 3a3e ee26 d83d 207d 8f3d 5afb d4be
00000340: 9b11 87be b911 953e af69 e1be 0663 92bc
00000350: d241 0fbd 05d4 97be 6794 d9bd ae12 9abe
00000360: 1a80 6f3e ddcc 18be 6eac 68be 1fb2 353e
00000370: 1212 b0be 54b9 0abe 0fc0 923d 122d 863c
00000380: 4232 123f 8a5b 8d3d f65f ec3d 5bee fd3d
00000390: ff45 a93e 211e 9c3e 027a e83d 3a9b 6fbe
000003a0: 8948 d03e 1b11 26be 2b43 94bd 3000 1c3e
000003b0: ab92 74bd 8ae0 fdbd 28e7 36be f428 c4bc
000003c0: 97c6 51be 14dc acbd 6ee7 ec3d c667 8abe
000003d0: 1cb9 993d 923c 19be a8de 14bf a5cd 8a3d
000003e0: 2ab6 99be 1e40 6c3b 6910 cd3e c8f1 75bd
000003f0: b355 ed3e 5bee d3be 839c e2be 44d2 983e
-0.23894702 -0.030268118 -0.15490545 -0.15270531 0.19200432 -0.046575274 0.29599267 -0.12717585
-0.14217177 -0.06565497 -0.049912892 -0.24797711 -0.04826541 -0.023965904 0.07624166 0.14458264
0.399351 0.50614417 -0.42989287 0.13706452 -0.1151079 0.41827765 -0.315949 -0.2185352
0.1437584 0.03470682 -0.4416359 -0.059316467 0.10089128 -0.16492966 -0.13162655 0.8572138
-0.12697998 -0.12562707 -0.049956173 0.053944882 0.2712547 -0.13617362 -0.13461733 0.013781109
-0.18336393 -0.10756973 0.18354882 -0.20674995 -0.402163 0.55860513 0.079721615 -0.3768356
-0.00993538 -0.17850319 0.028590523 0.37300414 0.09399253 -0.17065746 0.70707345 0.0060585313
-0.25467288 0.052484885 -0.31258783 -0.49193665 0.050458908 -0.0653156 -0.14813511 -0.03222768
-0.17709054 -0.031532843 -0.03879829 0.14151737 -0.011835023 0.2935105 0.0009065222 -0.037416253
-0.3225261 -0.32520384 -0.12271752 0.06936451 -0.071764834 -0.3279794 -0.1944482 -0.021346167
0.10022355 -0.42678827 -0.4043241 -0.6486283 0.1291258 -0.008589348 0.1541364 0.031586032
0.115359455 0.17262359 -0.23560068 -0.28917316 -0.68801016 -0.4771263 -0.14306231 0.43820554
-0.38068083 0.08979582 0.17105682 0.02681141 -0.059210084 0.09558085 -0.38706794 -0.27102974
-0.071962155 0.0112577975 0.06426014 -0.26200035 -0.38558513 -0.07669713 -0.06183501 0.22694671
-0.2903915 0.0647671 -0.3125497 0.34361857 -0.48849037 -0.1552015 0.101725824 0.11166803
-0.0002568241 0.24920945 0.09564416 -0.3576177 -0.40728548 0.20798434 -0.083394766 0.058742136
-0.022151131 0.103036374 -0.013736473 -0.024395075 -0.28686503 0.19068761 0.2322182 -0.08224075
0.3647788 0.4495987 -0.09303291 -0.11843961 0.39797997 0.12895305 -0.12830734 0.3938297
-0.3842414 0.10492065 0.21170136 -0.17380448 -0.035559446 -0.13207844 0.017451227 -0.35937402
0.41752157 -0.020718098 0.048903674 0.1655746 -0.31062776 -0.17961662 0.0794582 0.09072801
-0.2708563 -0.28293115 -0.37352204 -0.07278061 0.08693272 0.37550968 -0.2429111 0.07034938
0.3819494 -0.561814 -0.037667 -0.060268782 -0.15436505 0.120752 0.029061427 -0.055675253
0.39269665 -0.2853388 -0.16932634 -0.030234788 -0.30699468 -0.3922312 0.03678141 -0.06646283
0.45646536 0.22596677 -0.1804158 0.08280633 -0.0362921 -0.04065228 -0.11364152 0.110006936
-0.34369075 0.41741762 0.07377567 0.3948132 -0.13775387 -0.13117479 0.019816488 0.04754622
-0.31227258 0.35905784 0.08180447 0.39383847 0.1825021 0.105543 0.070062876 -0.41598016
-0.2638062 0.29115084 -0.44025943 -0.017869484 -0.03497488 -0.29653946 -0.106240086 -0.30092376
0.2338871 -0.14921899 -0.22722027 0.17743729 -0.34388787 -0.1354726 0.071655385 0.016378913
0.5710794 0.06902225 0.115417406 0.12398978 0.33061215 0.30491737 0.11351396 -0.23399058
0.4068034 -0.16217463 -0.07239374 0.15234447 -0.059710186 -0.12396343 -0.17861617 -0.02394531
-0.20485912 -0.08440414 0.11567579 -0.27032298 0.0750601 -0.14964512 -0.58152246 0.06777505
-0.30021793 0.003604896 0.40051582 -0.060045034 0.46354446 -0.41392788 -0.44260034 0.2984792

backBone.1.conv2.bias f4 [8]
00000000: 00c8 acb8 8a39 7db7 329c f338 409e 3139
00000010: e066 fe36 383d 5339 c27b e238 8069 3639
-8.238852e-05 -1.5093372e-05 0.000116162366 0.00016938988 7.581766e-06 0.00020145334 0.000107995715 0.00017396174

backBone.1.bn2.weight f4 [8]
00000000: 144a 5b3f 70dd 4e3f ce86 e83e 7378 1a3f
00000010: a8d6 243f 76bb 983e 5e6a 123f 7757 593f
0.8565991 0.80806637 0.45415348 0.6034004 0.6439004 0.2983052 0.57193553 0.84899086

backBone.1.bn2.bias f4 [8]
00000000: aa66 56be c480 febd 3a65 c33d 3779 e63c
00000010: 1abf b7bc ed1d 5b3e ac62 78bc 5958 953d
-0.209376 -0.12426904 0.09540792 0.028133972 -0.022429992 0.21398135 -0.015160244 0.072922416

backBone.1.bn2.running_mean f4 [8]
00000000: 8f8d 7b3d 3cd0 7abf d8d3 d9be b1f2 a5bd
00000010: 14eb bbbe ffa6 29bf 2752 a5be 5a2c 3dbf
0.061414298 -0.9797399 -0.42544436 -0.0810293 -0.36702788 -0.6627044 -0.3228924 -0.738958

backBone.1.bn2.running_var f4 [8]
00000000: 8e97 893f 4fac 5d3f 86cb 423f 38a8 533f
00000010: 4c26 893f c28b 233f 245e 6d3f fab2 563f
1.0749376 0.8659105 0.760918 0.82678556 1.0714812 0.6388513 0.9272177 0.83866847

backBone.2.conv1.weight f4 [8, 8, 3, 3]
00000000: 62b8 e03d 706a 6d3d 0f5c 243d 2717 2a3e
00000010: c3f7 4f3e 55ec 77be 9f60 02be fef1 92bc
00000020: 6e34 9ebe 17ca 13bb 54e7 093e 8545 acbe
00000030: 1440 db3c cfe4 433e 7ddc d7bd 7f29 5e3e
00000040: 3dc0 35be 642a 8f3e 2035 eb3d 475a 04be
00000050: 40fc 973d bab1 b13e a735 bdbe d17d afbe
00000060: 719d ec3e f93a cf3e 29cc 00be ee34 863a
00000070: c947 4cbe f68e 05be beac d5be 6c8f cf3e
00000080: e11b 46be 50d9 b43e 7280 d33d 16e6 01be
00000090: ebff cab9 6eed 073e a834 0d3d 741f afbe
000000a0: 4c7e 22bf d810 48be a2cf a6be e482 9e3e
000000b0: 83ce 89bc 14ae b13e 5c60 203e 3ab0 c63e
000000c0: 34f3 003d f9e5 073e c2db 0abe 1a32 6e3e
000000d0: 98f0 543e b33b b43e 859a e33b 6881 3ebe
000000e0: a9c6 7a3d b7b5 a2bd ee4e 2b3e c3b1 dcbd
000000f0: 413c 823d 5306 d7bd 578b 883e 7990 443e
00000100: cc15 81bc 160e 043e 6cbf db3e 35b1 383d
00000110: a51a 713e 327f 793e b389 ab3e 347c c9be
00000120: 2908 313e 9375 21be 5d49 893e 4db1 c4bd
00000130: 3100 17bf f4a7 91bd 7b5a 553e 27cb 273d
00000140: 30e4 96bd cd8f abbe 3e6c a63e 798d 66be
00000150: 0159 90be feb2 853d 01c5 b0be 49f7 e3be
00000160: 41fc ec3d d6a3 223d 5cdb 413e 66ae b43e
00000170: 005d 873e 4a3a 90be b541 ebbe 1de3 853e
00000180: 1d55 d7bd 4e47 603c 23f2 633d 2fb7 943e
00000190: c372 b33d f10d 4d3e 1064 e2bd 4537 c9be
000001a0: 1737 35be da7c 663d 7385 ddbd 3415 aabe
000001b0: 2c44 a13e 968f 1a3d 3414 05be c5f9 79be
000001c0: a2ce 083e ca57 073e 6197 2ebf f777 c3be
000001d0: ba24 b6bd ff43 49be 5f22 5a3d c1ae 0abd
000001e0: bc28 a9be 0ce0 c0be 4d9f 72be 2362 21be
000001f0: 0095 5dbe 60fe 9c3c 83e2 a43b d6d7 b8be
00000200: 0e8d 3dbe 43b8 903e b6dd fb3c 41c5 063e
00000210: 9e61 fcbd f97b a23e 83fa 003e e5f3 843e
00000220: 89ed 22be ce0b 993e bd34 e33d c28c c3be
00000230: b731 98bd 0003 403e b926 e83c 780b c6bd
00000240: 706b e93d 96ab 0f3c c49f aabd 5836 efbc
00000250: bcb0 a43d a11b 5f3d 60a0 63bd 64c4 03bf
00000260: e519 1d3e 7fdd 543e 2265 ec3d 4226 2c3e
00000270: d6e5 bcbe 022f a13e cf0b 033e 28c3 843d
00000280: ec3a 093e 5177 9e3e 4cf6 d13e 94dc a7bd
00000290: 63c5 84be 15e4 d63d 9f70 61be d6e1 543e
000002a0: c8b0 6abe b4be 68be 380b 843e 3ed7 0ebf
000002b0: 04ce c4be 1109 91be b458 cbbd 8370 80bc
000002c0: 4d0d 063e 6090 9fbd 5987 c83e f5aa de3e
000002d0: 69ec 683e e2f0 323e 256f d5bb db9f 2b3d
000002e0: cbba 6cbd 985d 8fbe 7e9a ac3d 1368 0b3f
000002f0: b1a0 683e d00d fc3d 9f30 8c3e a49d 86bd
00000300: 0164 eabe c113 f7bd 0588 973d 7176 a83d
00000310: 6b33 a9be 997e 503e 189f 13be 50c8 7fbd
00000320: b19a 813e e452 9e3c 5af1 1f3e df7a cfbc
00000330: 6ab4 03be b5ca 2dbf fed5 8b3e 6413 a8be
00000340: d5fa 543e c822 233e 1a35 ee3c c80f 0fbe
00000350: dd8b acbe 0989 dabe 6052 57be d127 0b3d
00000360: cccd aa3d 04ba 1ebd c475 b0bd 7585 1b3d
00000370: 9968 34bd c3ac 39be ff30 0dbe 7c9d 74be
00000380: bf0d acbe a871 853d accc 303f c5a7 bebe
00000390: efce 50bd d464 05bd ec07 80bc daca 4abe
000003a0: 7252 273e be60 cfbd 1487 2e3e 99a2 2bbd
000003b0: c5b9 01be c2a6 3e3d 0310 12be 54a8 8fbe
000003c0: 2ad7 be3e d5ad c1be bb20 cebe aee9 23be
000003d0: 8e6f 14bd 36e8 743d fa07 83bd f5e5 9d3d
000003e0: 615e 82bd 2d2f 02bd 47b3 e9bd 209f 62be
000003f0: 1925 1c3e d5de aebe 811b 37bd 0d68 8dbd
0.10972668 0.057962835 0.040126856 0.16610394 0.20309357 -0.24211247 -0.1273217 -0.017937656
-0.30899376 -0.0022550875 0.13467151 -0.3364679 0.026763953 0.19130252 -0.10540102 0.21695517
-0.17749114 0.2796203 0.11484742 -0.12925063 0.0742116 0.34705907 -0.36954996 -0.34275678
0.46213868 0.4047468 -0.12577881 0.0010239163 -0.19949259 -0.13042817 -0.41733354 0.4053911
-0.19346572 0.35322046 0.103272334 -0.12685427 -0.00038719116 0.13274166 0.034474045 -0.34203684
-0.63473964 -0.19537675 -0.32580286 0.30959237 -0.016822105 0.34703124 0.15661758 0.38806325
0.031481937 0.13271321 -0.13560393 0.232613 0.20794904 0.35201797 0.0069459104 -0.18604052
0.061224613 -0.079448156 0.16729328 -0.10776093 0.06359149 -0.10499253 0.26668808 0.19195737
-0.015757464 0.12895998 0.4291948 0.045090873 0.2354532 0.24364927 0.33503494 -0.39352572
0.17288269 -0.15767507 0.26813784 -0.0960413 -0.5898467 -0.07112113 0.20835297 0.040965226
-0.07367742 -0.3350815 0.32504457 -0.22514905 -0.28192905 0.06528281 -0.34525302 -0.445246
0.11571551 0.039707027 0.18931335 0.35289305 0.2643814 -0.2816947 -0.45948568 0.26149836
-0.10514281 0.013688875 0.05565084 0.29046008 0.087621234 0.2002485 -0.11054242 -0.3929998
-0.17696796 0.05627141 -0.10816469 -0.33219302 0.31497324 0.03773459 -0.12995988 -0.24411686
0.13360074 0.13217083 -0.68199736 -0.38177463 -0.08893724 -0.19654845 0.053255435 -0.033858065
-0.3303889 -0.37670934 -0.23693581 -0.15760092 -0.2163887 0.019164264 0.005031885 -0.3610217
-0.1851084 0.2826558 0.030745368 0.13161184 -0.123233065 0.3173521 0.12595563 0.25967327
-0.15910925 0.2989182 0.110940434 -0.38193327 -0.07431357 0.18751144 0.028338777 -0.09670156
0.11397445 0.008768937 -0.08331254 -0.029200718 0.08041522 0.05446971 -0.055572867 -0.51471543
0.15341909 0.20787619 0.11542727 0.16811469 -0.368941 0.31481177 0.12797473 0.064825356
0.13401383 0.30950406 0.41008222 -0.08196369 -0.25931844 0.10492722 -0.22015618 0.20789275
-0.22918999 -0.22728997 0.2578981 -0.55797184 -0.38438427 -0.2832723 -0.09929028 -0.01567865
0.13091011 -0.07791209 0.39165762 0.43489805 0.22746433 0.17474702 -0.0065134936 0.041900497
-0.057795327 -0.28001094 0.084279045 0.5445568 0.22717549 0.12307322 0.27380845 -0.06573036
-0.45779422 -0.12064315 0.073989905 0.08225716 -0.3304704 0.20360793 -0.14416158 -0.062446892
0.25313333 0.019326635 0.15619412 -0.025327144 -0.12861791 -0.6788743 0.273117 -0.32827294
0.2079881 0.15931237 0.029078055 -0.13970864 -0.33700457 -0.42682675 -0.21027517 0.03397352
0.08340034 -0.038751617 -0.08616212 0.03796907 -0.044045065 -0.1813231 -0.13788222 -0.238882
-0.33604237 0.06515819 0.69062304 -0.37237373 -0.050978597 -0.03256686 -0.015628777 -0.19803944
0.16340044 -0.10125874 0.17043716 -0.041903112 -0.12668522 0.04654575 -0.1426392 -0.28058112
0.37273532 -0.37827936 -0.40259346 -0.1600711 -0.0362392 0.059791766 -0.06398006 0.077098764
-0.063656576 -0.03178327 -0.114111476 -0.22131014 0.15248527 -0.34154382 -0.044703964 -0.06904612

backBone.2.conv1.bias f4 [8]
00000000: e7bb 9839 f836 85b7 9007 7138 1b15 fa39
00000010: 1c69 c037 e61e 4739 a0f3 ddb5 7f2b c4b8
0.00029131697 -1.5880432e-05 5.746592e-05 0.0004769944 2.2937129e-05 0.0001898963 -1.6536687e-06 -9.35411e-05

backBone.2.bn1.weight f4 [8]
00000000: f31a 2a3f 97df 2f3f 2a79 1b3f 58ae 6d3f
00000010: c3f2 813f 5c31 803f c253 243f bdd9 933f
0.6644737 0.68700546 0.60731757 0.9284415 1.015221 1.0015063 0.64190304 1.1550823

backBone.2.bn1.bias f4 [8]
00000000: e25e 4bbe a442 aabd 91b7 58be aed0 58be
00000010: 646e a8be 8fd2 a3be 8633 ff3d 5053 22be
-0.19860414 -0.08313492 -0.21163775 -0.21173355 -0.3289672 -0.3199658 0.12460999 -0.15852094

backBone.2.bn1.running_mean f4 [8]
00000000: 160b 0140 c788 6ac0 4bea 60bf 5a0f 8bbf
00000010: acf5 0bc0 0a85 c03e 9850 3dc0 8f71 eabf
2.0163016 -3.6645982 -0.878575 -1.086406 -2.1868696 0.376015 -2.958044 -1.8315905

backBone.2.bn1.running_var f4 [8]
00000000: 0d95 d540 27e8 9640 89c9 9f40 e1fa bb40
00000010: 6407 cd40 a916 7540 bf9b d540 c397 c040
6.6744447 4.715839 4.9933515 5.874375 6.407152 3.829508 6.675262 6.0185256

backBone.2.conv2.weight f4 [8, 8, 3, 3]
00000000: a86c 47be e693 d23e 5d08 443e 7e31 79be
00000010: 998d c9be 7b6c b7be f523 16be 7ada 9cbd
00000020: a0f4 81bd d198 b4be caa2 f83b e2c3 03bf
00000030: 801c e93d 927e 553e 33b7 e5bd f8d4 91be
00000040: 3fb8 e43e ded1 c5bc bd34 153c 8b29 163e
00000050: 0325 e2be f73f 8abd a089 7d3d 1765 283e
00000060: db5e ebbd 1c5b 5dbe 354d 723e 3e26 f33e
00000070: 39c5 ba3d a60c 8b3e 6864 853c cf99 ebbe
00000080: 7fef b7be 5572 2abe 5a04 bcbe d146 12bf
00000090: b139 f6be 3154 003d 1a2d 463e da8d e0bd
000000a0: 373e c13c 9518 74be 61c2 a9bd 0f6e 823e
000000b0: bcca 57be b47f 023e 3553 28be 8d8f f93d
000000c0: 7198 703e 2c9a 853e 0371 04bf 4808 cfbe
000000d0: 6ebf a3be 78c7 68be 5ec7 5bbe 1763 913c
000000e0: 31b9 3b3d 2d7b 92be 32a3 1ebc 9345 9a3e
000000f0: 23ad 3a3d 7db0 72bd 4f96 493c 6ca5 40be
00000100: f04d 113e 23d4 433d 2253 96bb 6525 5d3e
00000110: 8b22 18be ef17 90be ea54 063d a149 a8be
00000120: 5525 0ebe d7b8 18bb 9b07 673d 9fd9 b6be
00000130: bd9d 55be 7bdf 713e 7b2c cbbc d3ef 1a3e
00000140: 4bdc cd3d 73c6 a13e 1543 613c 20bb 0a3e
00000150: 57cf a93e a81b 89be 6970 0d3e a04e f43e
00000160: 5065 26be 25ee d43e 9ab3 e1bc b3b6 37be
00000170: 7a55 6f3e 697b 85bc 1d0b 00bf 3fc1 d33d
00000180: 64c5 b93c 5dd0 22be 0f51 1b3e 635f 4abe
00000190: a33e 98be b367 c1bc e913 3cbd 0740 96be
000001a0: 4734 143d 86d5 4abe 5761 1cbf 4207 823e
000001b0: c12a 5dbe dfbd fcbd 2a59 8bbe 67c0 a3be
000001c0: d602 d73c 4fca ca3d e0c2 633e 84b5 fb3e
000001d0: 2e75 ab3e e4b4 8a3c c89f 64be a6c4 c2be
000001e0: 37dc 753c 5249 08be e4a7 2b3d e621 12be
000001f0: 975b 1abe 1c05 153f 7bf2 adbe c54f 3dbe
00000200: a17f e1be 8c71 163e d292 50be abe9 3b3d
00000210: 0c0a 11be 6106 e33e 5251 3ebd f463 81bd
00000220: d074 91bd 6df5 90be 84b7 933d 80e2 893e
00000230: 0137 e33e 7416 013d 170c 023e 538f c4bd
00000240: 0adc 60bd 6e5c 97be e1ec 1dbe a679 d33e
00000250: b819 27be 57f9 07bf 7c89 7c3e 4cdd b13d
00000260: 6ba1 e53b b873 d13d 8e07 ba3e 78dc 40bd
00000270: 2311 133e 76a9 173e ff97 b1bd 2e0d 4abe
00000280: 1dcc 7ebe 3837 933d 1f77 4dbe d2e2 a8bc
00000290: 134f 163d f7e6 b3bc d3fc 5a3e add3 c8bd
000002a0: 74ec b03d 05da b53e 0bd2 9cbd fcc1 17bd
000002b0: 04de 3abe 5a0d a6bd 9106 e63d 1482 853d
000002c0: 78a2 d7bc 76fd 143f e71d 49be 6d65 84bd
000002d0: 726d ad3d fb04 0f3d 9ade 113d 4659 13bf
000002e0: 9ca3 a2be 0f1b 7bbe 2bf3 173f efff c3bd
000002f0: 5773 0abd 8b50 0bbe 1318 70be 4d87 b63e
00000300: 3995 11be 72aa 85be e24d 543e 0b28 f7be
00000310: e2e9 8d3c 1eb8 553e 3175 383d 126e cc3d
00000320: f825 7ebd 4158 253b b02f 15be 74eb 4fbe
00000330: 04be 02bc 42ff 9bbe 1ca9 c8be c1b6 b63e
00000340: a46f 86bc 3181 6f3e 5642 403d 4ed5 2ebf
00000350: 3566 55be 814d 3d3e f136 b93e c08d 28be
00000360: 711f 8e3e 8db5 2b3e a7d6 603d cb65 d43d
00000370: 885a 0d3e 4f7a 04bd 34b2 b2be 034c d2bd
00000380: 7cc7 bbbe 08ee 593e b342 d73d b93c e23d
00000390: 23f1 7b3e da1e bcbe 78a5 07be 16d5 a2bb
000003a0: 247f adbd cac4 b2be c28a a2be f5c6 52bd
000003b0: aacc 013e c59b 563d 174c fc3e cc51 81bd
000003c0: 61d8 a13e 7444 bd3e b8ac 85be eb67 41bd
000003d0: 618c c53e 7493 d5bd e9c7 74bd 3d9e 813c
000003e0: e8f3 8e3d f4ba a33d f57b a73d 46a0 eebd
000003f0: 2578 853b 43fc 53bd 0b24 af3e 7bf1 823b
-0.19475043 0.41128463 0.19143815 -0.24335286 -0.39365843 -0.35824952 -0.14662154 -0.076588586
-0.06345487 -0.3527284 0.0075877653 -0.5147077 0.11382389 0.20849064 -0.11216583 -0.28482795
0.4467182 -0.024147924 0.009106812 0.14664285 -0.44168863 -0.067504816 0.061898828 0.16444813
-0.114927016 -0.21616787 0.23662265 0.47490114 0.091196485 0.27158087 0.016283229 -0.46015784
-0.3592491 -0.16645177 -0.3672207 -0.5713931 -0.4809089 0.03133029 0.19353142 -0.10964556
0.023589237 -0.23837502 -0.08289028 0.25474593 -0.21073431 0.12744027 -0.16437991 0.12185583
0.23495652 0.26094186 -0.5173494 -0.40436006 -0.31981987 -0.22732341 -0.21462771 0.017747445
0.04583091 -0.286096 -0.0096824635 0.30131206 0.045575272 -0.059250344 0.012303903 -0.18813103
0.14189887 0.04780973 -0.004587547 0.21596296 -0.14856927 -0.2814326 0.032795824 -0.32868674
-0.13881429 -0.0023303533 0.056403738 -0.35712907 -0.20860954 0.23620407 -0.024801483 0.15130548
0.10051783 0.31596717 0.013748904 0.13547945 0.33166 -0.26778913 0.13812412 0.47716236
-0.16249585 0.4158794 -0.027551461 -0.17940788 0.2337245 -0.016294198 -0.5001696 0.10339593
0.022677131 -0.15899797 0.1516764 -0.1976295 -0.29735288 -0.023609018 -0.045917425 -0.29345724
0.036182668 -0.19808015 -0.6108603 0.25396162 -0.2159834 -0.123409025 -0.27216464 -0.3198273
0.02624647 0.099018686 0.22242308 0.49161923 0.33487839 0.016931958 -0.22326577 -0.38040656
0.015006117 -0.1330922 0.04190816 -0.14270744 -0.15074001 0.5821092 -0.3397406 -0.18487461
-0.44042686 0.14691752 -0.20368508 0.04587714 -0.14163989 0.44340804 -0.04646427 -0.06317893
-0.07102358 -0.28312245 0.07212737 0.26930618 0.44377902 0.031515554 0.12699924 -0.095976494
-0.054897346 -0.29562706 -0.15422393 0.41303748 -0.16318405 -0.5311484 0.24661821 0.08684787
0.007007768 0.1022715 0.3633389 -0.047085255 0.14362006 0.14810738 -0.08671569 -0.1973159
-0.2488255 0.071882665 -0.20064972 -0.020615969 0.036696505 -0.021960719 0.21385507 -0.09805999
0.0863885 0.35517898 -0.0765725 -0.037050232 -0.18248755 -0.08108015 0.11231721 0.06518951
-0.026322588 0.5819925 -0.19640313 -0.06464658 0.08468141 0.03491686 0.03561268 -0.57558095
-0.3176545 -0.24522041 0.5935542 -0.095703 -0.033801403 -0.13604943 -0.23446684 0.356501
-0.1421708 -0.26106602 0.20732835 -0.48272738 0.017323438 0.20871016 0.045033637 0.09981932
-0.06204793 0.0025229605 -0.14568973 -0.20304662 -0.007979874 -0.30468184 -0.3919152 0.35686305
-0.016410656 0.23389126 0.046938263 -0.6829423 -0.2083977 0.18486597 0.3617473 -0.16460323
0.27758363 0.16768475 0.05489221 0.10370978 0.13804066 -0.032343205 -0.34901583 -0.10268404
-0.36675632 0.21282208 0.10510769 0.11046738 0.24603705 -0.36742288 -0.13246715 -0.0049692495
-0.08471516 -0.34915763 -0.3174649 -0.05145927 0.1267573 0.052394647 0.49276802 -0.0631443
0.31610397 0.36966288 -0.26108336 -0.047218245 0.38583663 -0.10428515 -0.05976096 0.015822524
0.06980115 0.07994643 0.0817794 -0.116516635 0.0040731602 -0.051754247 0.34207186 0.003996072

backBone.2.conv2.bias f4 [8]
00000000: 56ff 9d38 747a 85b8 44ae a039 bc18 c837
00000010: d0a5 c438 c083 5bb8 e631 8f38 5d26 8e38
7.5339034e-05 -6.364743e-05 0.00030647416 2.3853376e-05 9.376893e-05 -5.233637e-05 6.828066e-05 6.7782334e-05

backBone.2.bn2.weight f4 [8]
00000000: d3d6 133f 604a 3e3f c032 ea3e d952 033f
00000010: 10b7 153e a2fb cc3e 14a0 3c3f c200 443f
0.5774967 0.7433224 0.45741844 0.5129829 0.14620614 0.4003573 0.7368176 0.76563656

backBone.2.bn2.bias f4 [8]
00000000: 8a48 2ebd 4f29 abbd c833 79bb 1180 193c
00000010: a3ae d5bd 8e37 183e a8fc abbd 68a0 173e
-0.042549647 -0.08357488 -0.0038025249 0.009368912 -0.104337 0.14864942 -0.083978 0.14807284

backBone.2.bn2.running_mean f4 [8]
00000000: 0068 3dbf 4426 aebe 04c4 19bf 6f53 153f
00000010: 1b8e cabd d236 363e 5eed 793f 4499 9dbe
-0.73986816 -0.3401357 -0.6006472 0.58330435 -0.09890386 0.1779435 0.9762782 -0.30780995

backBone.2.bn2.running_var f4 [8]
00000000: da2b 913f 5e1f 913f 45bd 523f 41a7 2c3f
00000010: db79 163f f3be 5b3f a708 8b3f 21f8 543f
1.1341507 1.1337698 0.8232005 0.6744271 0.58779687 0.8583824 1.0862015 0.83191115
