models/alphazero_3/main.pt (torch, 67532 bytes, 93 tensors)

startBlock.0.weight f4 [6, 4, 3, 3]
0.07865746 0.04106857 0.12174956 0.065643564 0.004408124 0.20405738 -0.08015554 0.17879249
0.06515764 -0.20794441 0.13220035 0.23355858 -0.01967815 -0.1465315 0.13381122 -0.023857946
-0.12053225 0.08836497 -0.3389573 0.0028205172 0.33724588 0.13844922 -0.15284447 0.208846
0.054315917 0.12840433 -0.21958493 0.048688766 -0.028822992 -0.13523166 0.14790983 -0.06541271
-0.041466665 -0.017280232 0.026685825 0.013389033 -0.04739995 0.09569035 0.060556557 -0.070406504
0.07616967 0.13492033 0.011229648 0.018916469 -0.10276164 -0.053638253 -0.036400195 0.024373269
0.084112205 0.11890517 -0.005755939 -0.021247646 0.1722909 0.008216535 0.14633873 0.24695212
0.03956568 -0.412657 0.29433212 -0.07890852 -0.23970474 -0.2610288 -0.022982255 -0.14568916
0.01204422 0.08655558 -0.050406013 -0.036113266 0.035155613 0.1072837 -0.13063517 0.045365337
0.021115968 0.08198471 -0.26776922 0.0075676288 -0.1529089 -0.1875783 0.113032766 0.078655615
-0.024908781 -0.06294034 0.104184635 -0.0011969723 -0.09289091 0.07698316 -0.006303558 -0.048417244
-0.24900712 0.17103986 0.0070165293 -0.32317156 -0.10068716 0.14721563 0.23043956 0.15960129
-0.05286271 0.1969079 -0.30073908 -0.027732475 0.10686728 0.113561735 -0.03221154 0.12524283
-0.108170904 0.060073774 0.0047619576 -0.10328786 -0.04894584 0.014949338 -0.21815655 -0.046737943
-0.05287842 0.012143671 0.10736793 -0.0036894786 -0.09858544 0.04696068 -0.01297346 -0.01936703
-0.16551979 -0.18676208 0.17991754 -0.04560827 -0.0020613642 0.12227428 -0.23782207 0.28813833
0.097304516 -0.12346406 -0.005591606 -0.26632977 -0.34872457 -0.22845972 -0.1673828 -0.006856532
0.034386583 0.17802797 0.070290305 0.095846966 -0.17810087 0.0032497635 0.02305972 -0.16424385
0.015078864 -0.04735556 0.047765173 -0.10867695 -0.043262843 -0.014394909 0.11103709 0.06228462
-0.21142149 -0.10136457 -0.089688 -0.07481677 0.10612671 0.15622674 0.0430288 0.0033725095
0.07350158 -0.24250928 0.19585314 -0.0067116534 0.10801703 -0.044729445 0.22801521 0.099422455
-0.026230901 -0.4873792 0.04675767 0.09530424 -0.20233658 -0.17055164 0.12805112 0.16097096
-0.143674 0.005404573 0.08068681 0.06856741 -0.10530605 -0.040626217 -0.043115474 0.0053757494
0.16956598 -0.018995745 -0.11158179 -0.07601992 0.06939707 0.17897893 -0.08142562 -0.06492148
0.20668845 -0.25732794 0.090061605 0.09534718 0.027885532 -0.21691121 -0.51569414 0.012477505
0.0062812963 -0.07310112 -0.073631465 0.26033294 -0.033592 -0.29194784 -0.072202034 0.06256669
-0.17010646 0.05432832 -0.15758905 0.112696774 0.056674317 -0.039113548 -0.03594527 0.18496926
00000000: 2a17 a13d 8437 283d d557 f93d 2270 863d
00000010: 0672 903b 6bf4 503e 9628 a4bd 6115 373e
00000020: 5e71 853d 61ef 54be 875f 073e fb29 6f3e
00000030: 1234 a1bc 5b0c 16be cf05 093e bd71 c3bc
00000040: 9dd9 f6bd b2f8 b43d d08b adbe 6dd8 383b
00000050: 7eab ac3e a2c5 0d3e 4383 1cbe badb 553e
00000060: 5e7a 5e3d 6d7c 033e dfda 60be df6d 473d
00000070: 321e ecbc 2b7a 0abe ad75 173e 19f7 85bd
00000080: f3d8 29bd 468f 8dbc 3b9c da3c ad5d 5b3c
00000090: 7326 42bd 4df9 c33d 270a 783d 4931 90bd
000000a0: d8fe 9b3d 8e28 0a3e 8ffc 373c b6f6 9a3c
000000b0: b274 d2bd c9b3 5bbd 5f18 15bd 73aa c73c
000000c0: 0543 ac3d 8e84 f33d 519c bcbb 8b0f aebc
000000d0: 076d 303e a59e 063c d2d9 153e 04e1 7c3e
000000e0: 9f0f 223d c747 d3be b3b2 963e ca9a a1bd
000000f0: 2975 75be 91a5 85be 4845 bcbc 8a2f 15be
00000100: 1f55 453c 0d44 b13d 8976 4ebd 81eb 13bd
00000110: 55ff 0f3d 8eb7 db3d 3ac5 05be 01d1 393d
00000120: 65fb ac3c 9ae7 a73d 0c19 89be dff9 f73b
00000130: 2794 1cbe 8714 40be b97d e73d 3216 a13d
00000140: 800d ccbc dde6 80bd c15e d53d bae3 9cba
00000150: 973d bebd 59a9 9d3d 148e cebb 2951 46bd
00000160: b9fb 7ebe 1325 2f3e eaea e53b be76 a5be
00000170: 1235 cebd b2bf 163e 59f8 6b3e 856e 233e
00000180: 9286 58bd 39a2 493e 79fa 99be 372f e3bc
00000190: 3cdd da3d 0e93 e83d 3ff0 03bd a83f 003e
000001a0: b588 ddbd eb0f 763d 320a 9c3b 9688 d3bd
000001b0: 6f7b 48bd 11ee 743c 6e64 5fbe 4970 3fbd
000001c0: 0b97 58bd 3ff6 463c b8e3 db3d 2ecb 71bb
000001d0: 2ae7 c9bd d859 403d a38e 54bc 9ba7 9ebc
000001e0: 057e 29be 8f3e 3fbe 4e3c 383e bdcf 3abd
000001f0: f417 07bb f06a fa3d a187 73be de86 933e
00000200: 9747 c73d bada fcbd ca39 b7bb 605c 88be
00000210: 078c b2be 58f1 69be 6666 2bbe c2ac e0bb
00000220: f2d8 0c3d f74c 363e 5df4 8f3d 6a4b c43d
00000230: 1360 36be fcf9 543b bde7 bc3c 8a2f 28be
00000240: 570d 773c e7f7 41bd 6aa5 433d 0592 debd
00000250: 6134 31bd a0d8 6bbc 6a67 e33d 281e 7f3d
00000260: e07e 58be 3a98 cfbd 58ae b7bd 8939 99bd
00000270: f658 d93d e7f9 1f3e f83e 303d 5205 5d3b
00000280: ff87 963d 5a54 78be ba8d 483e 6eed dbbb
00000290: 0838 dd3d 3936 37bd d27c 693e 009e cb3d
000002a0: 30e2 d6bc c489 f9be f884 3f3d df2e c33d
000002b0: 5231 4fbe 17a5 2ebe d51f 033e 92d5 243e
000002c0: 471f 13be d818 b13b 203f a53d 126d 8c3d
000002d0: b3aa d7bd ad67 26bd da99 30bd 0e27 b03b
000002e0: b4a2 2d3e f79c 9bbc fe84 e4bd 55b0 9bbd
000002f0: 0d20 8e3d 4146 373e 7ac2 a6bd 8ef5 84bd
00000300: 23a6 533e 7dc0 83be 3872 b83d 6245 c33d
00000310: 3370 e43c f91d 5ebe 8804 04bf 736e 4c3c
00000320: 55d3 cd3b 0ab6 95bd 18cc 96bd 5c4a 853e
00000330: c497 09bd 307a 95be a9de 93bd f722 803d
00000340: 6330 2ebe 5f87 5e3d 065f 21be 91cd e63d
00000350: 5423 683d 8735 20bd 593b 13bd 9568 3d3e

startBlock.0.bias f4 [6]
-0.0013355202 0.0002456662 -0.0006961664 0.00082013465 0.00084012514 -0.001476825
00000000: 9f0c afba c2cc 8039 f07e 36ba 4efe 563a
00000010: d83b 5c3a 0692 c1ba

startBlock.1.weight f4 [6]
0.92934483 1.1501487 1.058393 1.0291375 0.9606047 0.9737936
00000000: 8be9 6d3f 1338 933f 6c79 873f c7ba 833f
00000010: 31ea 753f 8a4a 793f

startBlock.1.bias f4 [6]
0.06825001 0.15310572 -0.018993936 0.039122686 0.22324534 0.05465775
00000000: a9c6 8b3d bfc7 1c3e 2c99 9bbc 1c3f 203d
00000010: 6d9a 643e cee0 5f3d

startBlock.1.running_mean f4 [6]
0.26982403 0.016181435 -0.0654869 -0.41135648 -0.0340935 -0.25362659
00000000: 6026 8a3e ee8e 843c ff1d 86bd 519d d2be
00000010: a0a5 0bbd 58db 81be

startBlock.1.running_var f4 [6]
0.13625671 0.111815736 0.09556408 0.19251671 0.093502 0.14255606
00000000: e186 0b3e a6ff e43d 1ab7 c33d 1a23 453e
00000010: fa7d bf3d 37fa 113e

backBone.0.conv1.weight f4 [6, 6, 3, 3]
-0.14804651 -0.052605115 0.15714289 -0.1566676 0.025509462 0.11459616 0.056054674 0.0866796
0.13234463 -0.1986998 0.14705549 0.2128404 -0.07685931 -0.051884007 0.12810872 0.1592876
-0.15589586 -0.14487682 -0.0019491852 -0.104982115 0.14217183 -0.18781395 0.027925448 -0.08595053
-0.23229542 0.28861082 0.006907716 0.12486358 -0.037899833 -0.07195422 0.07438944 0.13152833
-0.0418817 -0.030155567 0.127286 0.16106308 0.3456677 0.22142616 0.05934008 -0.014691158
-0.07602367 0.12721555 -0.08841651 0.012120146 0.03673034 0.008922599 0.058514662 -0.10432721
-0.10659474 -0.03655664 0.10509633 -0.1109674 -0.17780794 0.07400424 0.053520534 -0.13201897
0.19527432 0.015160914 -0.06648961 -0.07922626 -0.13741398 0.082991004 0.019115835 0.17081511
-0.025503013 0.054824017 0.05629773 0.11842405 0.30811352 0.04142119 -0.18485078 0.0892941
0.10655766 -0.08216903 -0.06228452 -0.1918094 0.06534231 -0.0029847745 -0.037288163 -0.22187348
0.19781935 0.12826897 -0.158468 -0.1304613 0.03763742 0.14669515 0.09521941 -0.122070216
-0.13010909 -0.11951855 0.081903465 0.0660512 -0.058986362 -0.24421798 0.08269583 0.038298428
0.22764143 -0.2216934 -0.13625558 -0.006303293 0.101062566 -0.008729873 -0.12809375 0.043848462
-0.20488076 0.16072012 0.11641668 0.17385417 -0.116686 -0.22881812 -0.027611153 0.042746063
0.10682708 0.051410493 -0.06413643 -0.109514594 -0.15352997 0.1581505 0.03969278 0.08484926
-0.0080171125 -0.10897331 0.3249138 -0.06974345 -0.009532387 -0.0852672 0.0016328042 0.1361551
-0.16474466 0.07392404 0.023123963 0.34658143 0.018683478 -0.3028683 -0.07251755 0.19225383
0.18851006 -0.08162269 0.14219822 -0.20610796 0.15880898 0.07441957 0.11003851 -0.13802715
0.08809018 0.11366927 0.16822354 -0.03872892 0.17803071 0.035362042 -0.055964977 -0.18326293
-0.035420258 0.15074873 0.120954305 0.18236035 -0.009316552 -0.019070508 0.13603246 -0.013928616
0.12042156 0.060278546 -0.062293984 -0.2915753 0.088195205 -0.10379878 -0.018472953 0.09679556
0.06507575 0.17738262 0.2963877 0.06972771 0.09918735 -0.23935881 0.041372214 -0.09863261
-0.26084626 0.13337947 0.03811863 0.059971917 -0.07801314 -0.21030931 -0.19866881 0.037312098
-0.13357076 0.17282057 0.1810435 -0.09185619 -0.011329659 0.09905748 -0.05638796 -0.069663145
0.1310043 -0.18663467 -0.0996066 0.017958699 -0.20214519 -0.16877988 0.30362898 -0.19555975
0.08448781 -0.09447899 -0.008984336 -0.009141757 -0.063147396 0.10448389 0.08020646 0.113516964
0.07411967 -0.1290591 -0.18895476 0.08737484 -0.002129999 -0.24486531 0.09688819 -0.057167735
0.27258593 -0.14353938 -0.08939285 -0.25518814 -0.023306113 -0.008337765 -0.16050729 0.072061606
-0.37351394 0.00020136547 -0.09077062 -0.2071319 0.027732892 0.03431702 -0.135908 0.14318582
0.09479922 -0.009847731 -0.12759928 -0.043256763 0.17352211 0.074118465 -0.13607839 -0.12184095
0.20221215 0.05674225 -0.12967356 0.032840393 -0.03571142 0.2508828 -0.18693742 -0.04394646
0.06626368 0.073527224 -0.119931094 0.06943573 -0.0839225 0.20518291 -0.0499338 -0.020551268
00000000: 8199 17be 7678 57bd 11ea 203e 796d 20be
00000010: 38f9 d03c 64b1 ea3d 9699 653d 1385 b13d
00000020: 5a85 073e f677 4bbe b795 163e d5f2 593e
00000030: 6a68 9dbd 5384 54bd ef2e 033e 4a1c 233e
00000040: 2aa3 1fbe 975a 14be cd7b ffba dd00 d7bd
00000050: 7e95 113e 4d52 40be e9c3 e43c d506 b0bd
00000060: dade 6dbe ccc4 933e 1f5a e23b 7ab8 ff3d
00000070: db3c 1bbd bc5c 93bd 7e59 983d 5daf 063e
00000080: 258c 2bbd cf08 f7bc 4357 023e b8ed 243e
00000090: 5bfb b03e 8abd 623e 950e 733d 2fb3 70bc
000000a0: 4cb2 9bbd cb44 023e b713 b5bd 9493 463c
000000b0: 8e72 163d 1830 123c 12ad 6f3d 81a9 d5bd
000000c0: 584e dabd 6abc 15bd bf3c d73d e042 e3bd
000000d0: 4913 36be 898f 973d 5938 5b3d fb2f 07be
000000e0: fef5 473e 7b65 783c b42b 88bd 6141 a2bd
000000f0: 40b6 0cbe 30f7 a93d d098 9c3c 28ea 2e3e
00000100: b2eb d0bc 268f 603d 7398 663d 4f88 f23d
00000110: 0ec1 9d3e 44a9 293d 8649 3dbe d3df b63d
00000120: e73a da3d 3d48 a8bd 0e1e 7fbd af69 44be
00000130: 30d2 853d 359c 43bb 79bb 18bd cd32 63be
00000140: 2891 4a3e f158 033e 6f45 22be a697 05be
00000150: b229 1a3d 4137 163e 6502 c33d f3ff f9bd
00000160: 513b 05be 24c6 f4bd 01bd a73d da45 873d
00000170: af9b 71bd 4714 7abe 6e5c a93d d0de 1c3d
00000180: d61a 693e 9803 63be 9586 0bbe db8b cebb
00000190: e4f9 ce3d be07 0fbc 022b 03be 729a 333d
000001a0: 43cc 51be d193 243e de6b ee3d d406 323e
000001b0: 12f9 eebd 4c4f 6abe c930 e2bc 7f16 2f3d
000001c0: 28c8 da3d cf93 523d f659 83bd 3049 e0bd
000001d0: f636 1dbe 34f2 213e e594 223d 73c5 ad3d
000001e0: 355a 03bc 662d dfbd 1a5b a63e a7d5 8ebd
000001f0: bb2d 1cbc 92a0 aebd d103 d63a 3e6c 0b3e
00000200: d3b2 28be 7d65 973d 776e bd3c 1f73 b13e
00000210: 180e 993c 8e11 9bbe 1584 94bd 30de 443e
00000220: c808 413e cc29 a7bd 699c 113e f70d 53be
00000230: d29e 223e 4a69 983d df5b e13d fd56 0dbe
00000240: a068 b43d 6fcb e83d cb42 2c3e 37a2 1ebd
00000250: af4d 363e cad7 103d 883b 65bd 47a9 3bbe
00000260: d514 11bd e05d 1a3e e4b6 f73d acbc 3a3e
00000270: 74a4 18bc c139 9cbc 184c 0b3e da34 64bc
00000280: 949f f63d a3e6 763d fa27 7fbd 5c49 95be
00000290: b09f b43d 7494 d4bd 9754 97bc c03c c63d
000002a0: 6f46 853d caa3 353e 21c0 973e 67cd 8e3d
000002b0: bd22 cb3d 7a1a 75be e975 293d e5ff c9bd
000002c0: a48d 85be a194 083e 4822 1c3d 1da5 753d
000002d0: 5ac5 9fbd 535b 57be d66f 4bbe 92d4 183d
000002e0: c6c6 08be e0f7 303e 7863 393e 191f bcbd
000002f0: 09a0 39bc a6de ca3d 10f7 66bd 8dab 8ebd
00000300: fe25 063e 291d 3fbe 8cfe cbbd 1f1e 933c
00000310: 26ff 4ebe a2d4 2cbe 4275 9b3e d140 48be
00000320: f207 ad3d 337e c1bd 0933 13bc 4fc7 15bc
00000330: 6c53 81bd a6fb d53d 4943 a43d 957b e83d
00000340: 0ecc 973d 1228 04be 5b7d 41be 95f1 b23d
00000350: 7497 0bbb f9bd 7abe 516d c63d b728 6abd
00000360: 6290 8b3e fdfb 12be 9913 b7bd 05a8 82be
00000370: 76ec bebc 1f9b 08bc 065c 24be 0995 933d
00000380: 383d bfbe a225 5339 f2e5 b9bd 631a 54be
00000390: 1730 e33c 0190 0c3d 772b 0bbe 4e9f 123e
000003a0: 1826 c23d 6158 21bc 63a9 02be 012e 31bd
000003b0: c8af 313e 6ccb 973d 2258 0bbe bf87 f9bd
000003c0: b410 4f3e 906a 683d 25c9 04be a683 063d
000003d0: 2346 12bd b673 803e 866c 3fbe 3401 34bd
000003e0: 41b5 873d 7195 963d 6f9e f5bd 5234 8e3d
000003f0: 8fdf abbd 781b 523e 6287 4cbd 225b a8bc

backBone.0.conv1.bias f4 [6]
0.00090473786 0.00066742866 0.000310168 -0.00074306276 0.00087221386 0.0010360498
00000000: ee2b 6d3a 61f6 2e3a 0b9e a239 19ca 42ba
00000010: 48a5 643a 10cc 873a

backBone.0.bn1.weight f4 [6]
0.9853903 1.0138137 1.0164295 0.994656 0.9422325 1.0007052
00000000: 8a42 7c3f a6c4 813f 5d1a 823f c7a1 7e3f
00000010: 2636 713f 1c17 803f

backBone.0.bn1.bias f4 [6]
0.17528935 0.09326988 0.0086590815 0.12345612 0.04904474 0.058498107
00000000: 0d7f 333e 4704 bf3d d2de 0d3c 90d6 fc3d
00000010: 23e3 483d b69b 6f3d

backBone.0.bn1.running_mean f4 [6]
0.22597025 0.005878131 0.3659266 -0.29645008 -0.25092095 -0.5865408
00000000: bf64 673e 569d c03b bb5a bb3e 4ec8 97be
00000010: b678 80be 8a27 16bf

backBone.0.bn1.running_var f4 [6]
0.21762548 0.27872813 0.34937924 0.3863381 0.20787355 0.23179023
00000000: 37d9 5e3e 74b5 8e3e d6e1 b23e 1cce c53e
00000010: cedc 543e 6b5a 6d3e

backBone.0.conv2.weight f4 [6, 6, 3, 3]
0.12206238 -0.15534647 -0.06396449 -0.2637473 -0.014517934 0.13557969 -0.061625693 0.16071749
-0.22426492 0.16368234 0.24935834 -0.17319003 0.13958865 0.18585151 0.21035536 0.051769838
0.040026404 -0.13938718 0.1754596 0.15283078 0.04081403 0.013560766 0.050481606 -0.029461127
0.007180712 -0.0017471322 -0.122958735 -0.02837579 -0.18934381 0.17663564 0.1545614 -0.058148604
0.2765021 -0.06682185 0.13927083 -0.14799564 -0.1271586 -0.042500205 0.14268339 0.01198875
-0.072064355 0.14183213 -0.1642323 0.07310964 -0.19865236 0.02383414 0.024098821 -0.028324999
-0.038780887 0.08886629 0.016474802 0.07331201 0.1086693 -0.24306495 0.015218131 0.06918684
0.07835849 -0.048330426 -0.06364186 0.008501761 -0.09129107 0.05996442 -0.14263888 0.008647879
0.041053716 0.04151812 -0.045913823 0.2167721 -0.0024394277 0.014914254 -0.10991404 -0.22469993
-0.13766488 -0.036909476 0.14219394 -0.041521516 -0.100419424 -0.21391979 0.25735575 -0.18637347
-0.09084593 -0.06301858 -0.037399273 -0.10258017 -0.07344527 -0.0055956226 0.20983706 0.18915607
0.26697844 -0.20575996 -0.029972343 -0.19002882 -0.14349894 0.13911031 -0.129502 -0.0049640303
0.09014642 0.12524986 -0.1626758 -0.100881785 -0.21163735 0.1019473 -0.071205534 -0.3012225
0.022100272 -0.093820006 0.2596372 0.138012 0.018121671 0.11500841 -0.061757106 0.11883192
0.10063036 -0.095308974 -0.14673987 -0.07994452 0.20945105 -0.0021809023 0.10464394 -0.2402487
0.22220124 0.10724725 0.1494751 0.1449784 -0.047718327 0.14076369 0.14666592 0.22528768
-0.16624175 0.03803367 0.0028592378 -0.13500364 -0.005200077 -0.04428956 0.15552339 0.14944291
0.18926862 -0.21079403 -0.08773842 0.13119277 -0.2130038 0.074941665 0.080533236 -0.10550449
-0.080889754 -0.093257315 0.09209469 0.090308234 -0.10672965 0.20331016 0.11108862 -0.048875123
-0.2591196 -0.05051796 -0.049599595 -0.2672862 0.1777681 -0.12374843 -0.1173026 -0.17637266
-0.054073915 0.0063409447 0.021561515 0.10903576 -0.03372201 -0.16158408 -0.09973955 0.13635811
-0.09667509 0.057068724 -0.16088079 -0.059013665 -0.014084754 -0.045209695 -0.19484314 0.21417677
0.23099342 -0.25631404 -0.09677628 -0.0712228 -0.14735055 -0.17525363 -0.022607526 0.13675141
0.01516306 -0.024614593 -0.13940524 0.01869975 0.21914585 0.07625141 -0.051551126 -0.014347694
0.028308976 -0.03656517 0.08726689 0.05752543 -0.0174267 0.26984528 0.12383424 -0.016765406
-0.1338739 0.12919162 -0.06549975 0.095418714 -0.18498124 -0.06553378 0.21681836 0.1701625
0.19246015 0.15123348 0.09737248 0.123478 0.005564088 0.13890907 -0.35928828 0.085436955
-0.26630837 0.015113257 -0.029766206 -0.036910992 -0.15066329 -0.22939892 0.24592592 0.002962185
-0.047604002 -0.16521284 0.037382465 0.13836639 0.12671787 -0.1664951 0.18365605 -0.08416491
0.020373793 0.012279243 -0.042232882 -0.09944169 -0.28890902 0.0040426217 -0.07857606 0.1462479
-0.40155968 0.04447202 -0.12855352 0.03797662 0.08812377 0.29066953 -0.07639879 0.20870899
-0.048349995 -0.0692662 0.10901304 -0.087538384 -0.07313875 0.12023981 0.11038279 0.096822
00000000: d7fb f93d 2513 1fbe d1ff 82bd e309 87be
00000010: a1dc 6dbc 67d5 0a3e 396b 7cbd 2093 243e
00000020: b4a5 65be 589c 273e cb57 7f3e ba58 31be
00000030: 54f0 0e3e dc4f 3e3e 6567 573e 9c0c 543d
00000040: baf2 233d 83bb 0ebe aeab 333e ac7f 1c3e
00000050: 9d2c 273d fa2d 5e3c cdc5 4e3d 7658 f1bc
00000060: 2e4c eb3b 0700 e5ba cad1 fbbd 5874 e8bc
00000070: 58e3 41be f9df 343e 5845 1e3e 3b2d 6ebd
00000080: af91 8d3e e5d9 88bd 039d 0e3e 2b8c 17be
00000090: dd35 02be b214 2ebd 981b 123e 766c 443c
000000a0: 7a96 93bd 713c 113e 832c 28be 82ba 953d
000000b0: 866b 4bbe d03f c33c e46a c53c d409 e8bc
000000c0: b5d8 1ebd 88ff b53d 2af6 863c 9b24 963d
000000d0: 038e de3d 05e6 78be 7855 793c d4b1 8d3d
000000e0: 6a7a a03d 20f6 45bd aa56 82bd f84a 0b3c
000000f0: d0f6 babd 409d 753d ed0f 12be d5af 0d3c
00000100: f127 283d e70e 2a3d 2210 3cbd 81f9 5d3e
00000110: cede 1fbb ea5a 743c 9d1a e1bd bd17 66be
00000120: 06f8 0cbe 642e 17bd 4a9b 113e 7712 2abd
00000130: b3a8 cdbd ca0d 5bbe 22c4 833e b0d8 3ebe
00000140: 6e0d babd e30f 81bd fb2f 19bd 8d15 d2bd
00000150: 796a 96bd 7c5b b7bb 87df 563e 21b2 413e
00000160: 66b1 883e bdb2 52be 8f88 f5bc ea96 42be
00000170: 63f1 12be ef72 0e3e 2c9c 04be 4ea9 a2bb
00000180: b09e b83d 8041 003e 7c94 26be 1c9b cebd
00000190: 76b7 58be bfc9 d03d 35d4 91bd d639 9abe
000001a0: a10b b53c b424 c0bd 2bef 843e 0553 0d3e
000001b0: e673 943c 8789 eb3d 05f5 7cbd 265e f33d
000001c0: 4a17 ce3d 5a31 c3bd fa42 16be f4b9 a3bd
000001d0: 567a 563e 78ed 0ebb 904f d63d c103 76be
000001e0: b988 633e 72a4 db3d 0010 193e 3875 143e
000001f0: 4b74 43bd 5b24 103e 972f 163e d0b1 663e
00000200: 473b 2abe 32c9 1b3d 0d62 3b3b 653e 0abe
00000210: 6865 aabb f868 35bd 8641 1f3e 9007 193e
00000220: a2cf 413e 64da 57be 33b0 b3bd 6657 063e
00000230: ab1d 5abe 047b 993d 9cee a43d bd12 d8bd
00000240: 87a9 a5bd b1fd bebd 249c bc3d 86f3 b83d
00000250: 1395 dabd 8a30 503e 6e82 e33d 4831 48bd
00000260: 53ab 84be eceb 4ebd f228 4bbd bdd9 88be
00000270: d708 363e d16f fdbd 583c f0bd 099b 34be
00000280: 9c7c 5dbd b3c7 cf3b c6a1 b03c 244e df3d
00000290: 1720 0abd 4c76 25be 4044 ccbd 76a1 0b3e
000002a0: 97fd c5bd e5c0 693d efbd 24be 50b8 71bd
000002b0: bdc3 66bc cd2d 39bd f684 47be 2851 5b3e
000002c0: 8a89 6c3e 983b 83be a432 c6bd 42dd 91bd
000002d0: 10e3 16be b075 33be 6b33 b9bc 9008 0c3e
000002e0: 7c6e 783c 8ba4 c9bc 3fc0 0ebe 3830 993c
000002f0: c567 603e b329 9c3d 4627 53bd 9712 6bbc
00000300: 3ae8 e73c 5cc5 15bd fcb8 b23d c99f 6b3d
00000310: 70c2 8ebc 2929 8a3e ce9c fd3d 9b57 89bc
00000320: 3d16 09be cf4a 043e bc24 86bd e36a c33d
00000330: b96b 3dbe 9336 86bd a205 5e3e 143f 2e3e
00000340: 4614 453e f3dc 1a3e 396b c73d 09e2 fc3d
00000350: f452 b63b 2e3e 0e3e a2f4 b7be 92f9 ae3d
00000360: 9259 88be 989d 773c 42d8 f3bc fb2f 17bd
00000370: 7a47 1abe 8de7 6abe 01d4 7b3e 3821 423b
00000380: 6afc 42bd 8e2d 29be 5b1e 193d ebaf 0d3e
00000390: 54c2 013e b17d 2abe 5510 3c3e a75e acbd
000003a0: f1e6 a63c e12e 493c 63fc 2cbd 16a8 cbbd
000003b0: e2eb 93be f877 843b 7cec a0bd 02c2 153e
000003c0: 3b99 cdbe 4b28 363d 89a3 03be 5f8d 1b3d
000003d0: 3c7a b43d a3d2 943e f876 9cbd cfb7 553e
000003e0: a50a 46bd 70db 8dbd 3b42 df3d 5347 b3bd
000003f0: c5c9 95bd 4a40 f63d 5f10 e23d 9d4a c63d

backBone.0.conv2.bias f4 [6]
0.00028923582 -0.00015369148 0.00090093777 0.00033072487 0.0010087643 0.00066731893
00000000: 93a4 9739 3e28 21b9 e92c 6c3a 2465 ad39
00000010: 8338 843a 04ef 2e3a

backBone.0.bn2.weight f4 [6]
0.83924013 0.93528116 0.75792205 0.8909872 1.020116 0.91063464
00000000: 71d8 563f 966e 6f3f 2e07 423f bd17 643f
00000010: 2993 823f 5a1f 693f

backBone.0.bn2.bias f4 [6]
0.14321199 0.050833613 0.0489382 -0.06580015 0.19063616 0.08700727
00000000: 2aa6 123e e836 503d 6c73 483d 3bc2 86bd
00000010: 2036 433e de30 b23d

backBone.0.bn2.running_mean f4 [6]
0.25109795 -0.36665794 0.17256802 0.11281924 -0.29390562 0.19243798
00000000: e98f 803e 97ba bbbe acb5 303e c60d e73d
00000010: cc7a 96be 760e 453e

backBone.0.bn2.running_var f4 [6]
0.2598592 0.31539452 0.34196094 0.29628104 0.4632677 0.2741937
00000000: 440c 853e 647b a13e 8115 af3e 26b2 973e
00000010: 6d31 ed3e 1e63 8c3e

backBone.1.conv1.weight f4 [6, 6, 3, 3]
-0.072893515 0.15382594 -0.05139106 -0.24294028 0.17649585 -0.047853485 -0.1019831 -0.25681585
0.017063497 -0.13922477 -0.15292482 0.062659636 0.1872344 0.18281442 0.05567459 -0.11436828
-0.1462191 -0.3034241 0.048487052 0.016854312 0.3553733 -0.31162873 0.038897183 -0.048520174
-0.17326729 -0.037203826 -0.07940085 0.026249811 0.0048062233 0.21552925 -0.03433393 0.115160674
-0.13697648 -0.060711447 -0.051213387 -0.005325043 -0.079013206 0.1410608 0.05116641 0.09140892
-0.104999356 0.032785237 -0.015886797 0.061380073 0.16897549 0.036745492 -0.07106147 0.06849329
0.13029386 0.110581875 0.19899724 0.0018751158 0.032491706 -0.018734785 -0.06810565 -0.17047283
0.12952904 -0.09372992 0.14444883 0.13335623 0.23265715 -0.073215075 -0.094762504 0.14042112
0.014878824 -0.10928775 -0.09586888 -0.25981972 0.18043154 0.009091527 -0.06577412 0.19904801
-0.048176702 0.06640579 0.23176883 0.02071375 0.031616636 0.067536704 0.21207131 0.09990497
-0.15347849 -0.017449185 0.10228097 -0.030834649 0.13832982 0.16528443 -0.12525952 -0.21842292
-0.04777593 0.28242546 0.046696704 -0.08120204 0.04393324 -0.060301717 -0.21728866 0.10076805
0.094088376 -0.03162979 0.16993572 0.020192347 -0.0713183 -0.027323287 0.23517288 0.114689976
0.018744716 0.015914274 0.20174484 -0.18539678 -0.06861698 0.09745674 0.14316489 -0.15194665
0.013421121 0.008762428 -0.06786029 0.056454003 -0.032362208 0.19117276 -0.1121006 0.36419743
0.22538325 -0.13518107 -0.10699168 0.15780304 0.025210131 0.03343114 0.067229375 -0.08755271
-0.0786172 -0.1780527 0.12097026 -0.28428194 -0.10410143 -0.13006918 -0.18946575 0.089599945
-0.29091766 -0.14988972 0.117650464 0.06588562 -0.21688604 0.15084845 -0.14486024 0.2736098
-0.13859086 -0.062231883 0.22890498 0.16450328 -0.06730291 0.13825576 0.020087851 0.049136866
-0.04305517 0.16785546 -0.14620763 -0.10614455 -0.12276399 0.049302924 0.20188858 0.03961757
-0.029412668 0.07113376 0.08421686 -0.03889499 0.10555375 -0.12582459 -0.015554768 0.11308523
0.08711126 0.3107808 0.107274726 -0.120664604 -0.11802751 0.040782847 -0.07517859 -0.016958913
-0.08406213 -0.15058821 0.14212787 0.042071313 0.16767332 0.1174716 -0.024858674 0.11211652
-0.08297542 0.21883973 0.13397199 0.27476722 -0.29647335 -0.20003319 0.12313722 -0.1903558
-0.11157548 -0.06527923 0.19155343 0.21063247 0.042919498 0.014182164 0.111084856 0.023546029
0.18577766 0.058724903 0.12843712 -0.024169512 0.16701286 0.06484297 -0.058722153 0.21818657
0.056423005 -0.118967585 -0.14943422 -0.20860681 0.0063102953 0.071202464 -0.27746823 -0.1169488
0.15021946 0.022546837 0.10057139 -0.13538715 -0.20702103 0.043104988 0.19809294 -0.0063109878
0.12315008 -0.10493081 0.012676843 -0.1221496 -0.10143293 0.012650846 -0.02676698 0.12464487
-0.09095324 0.11666471 0.010169273 -0.15007912 0.08086818 -0.28170693 0.14074324 -0.088488415
-0.13236623 -0.2760085 -0.0930799 0.13364515 0.12371139 -0.1981806 0.10383457 -0.32676262
-0.05793242 -0.16406901 -0.16317184 0.21746153 0.093910836 -0.023595616 -0.19635934 -0.1825642
00000000: 3249 95bd 8c84 1d3e 6f7f 52bd 56c5 78be
00000010: 54bb 343e 0402 44bd 84dc d0bd 5e7d 83be
00000020: bfc8 8b3c f090 0ebe 5398 1cbe b253 803d
00000030: 60ba 3f3e b433 3b3e 0a0b 643d eb39 eabd
00000040: 76ba 15be 675a 9bbe 5c9a 463d 0e12 8a3c
00000050: 7df3 b53e cd8d 9fbe a752 1f3d 17bd 46bd
00000060: fb6c 31be 0a63 18bd ea9c a2bd d809 d73c
00000070: 867d 9d3b b3b3 5c3e bca1 0cbd 5cd9 eb3d
00000080: 9043 0cbe 91ac 78bd 21c5 51bd b37d aebb
00000090: add1 a1bd 3e72 103e df93 513d 9a34 bb3d
000000a0: e709 d7bd d049 063d 0725 82bc ac69 7b3d
000000b0: e907 2d3e 7182 163d ad88 91bd 3646 8c3d
000000c0: c16b 053e c078 e23d efc5 4b3e 72c6 f53a
000000d0: 0616 053d b179 99bc fa7a 8bbd 6e90 2ebe
000000e0: 43a3 043e 79f5 bfbd 65ea 133e 898e 083e
000000f0: ad3d 6e3e c9f1 95bd d812 c2bd 8eca 0f3e
00000100: 50c6 733c 42d2 dfbd e756 c4bd 1707 85be
00000110: 0cc3 383e a1f4 143c 95b4 86bd 3ed3 4b3e
00000120: ef54 45bd c2ff 873d cf54 6d3e e2af a93c
00000130: 7280 013d af50 8a3d 3929 593e fa9a cc3d
00000140: 7729 1dbe 98f1 8ebc af78 d13d f298 fcbc
00000150: 55a6 0d3e 5240 293e 0844 00be 42aa 5fbe
00000160: b2b0 43bd 129a 903e 0b45 3f3d 414d a6bd
00000170: 57f3 333d effe 76bd eb80 5ebe 7b5f ce3d
00000180: 68b1 c03d 3d8e 01bd a103 2e3e 6c6a a53c
00000190: 540f 92bd 16d5 dfbc 29d1 703e 94e2 ea3d
000001a0: 858e 993c a75e 823c 3396 4e3e a7d8 3dbe
000001b0: 0f87 8cbd 6697 c73d d199 123e e797 1bbe
000001c0: 43e4 5b3c 4990 0f3c 56fa 8abd 503c 673d
000001d0: 3c8e 04bd cbc2 433e 0095 e5bd 1678 ba3e
000001e0: deca 663e e86c 0abe 741e dbbd 1f97 213e
000001f0: 7a85 ce3c 17ef 083d 8eaf 893d d64e b3bd
00000200: 0e02 a1bd 7253 36be 41bf f73d 678d 91be
00000210: 2133 d5bd db30 05be 4f03 42be 2d80 b73d
00000220: 29f3 94be b17c 19be baf2 f03d 0aef 863d
00000230: 6017 5ebe 0478 1a3e 3e56 14be 9516 8c3e
00000240: c3ea 0dbe dce6 7ebd 1166 6a3e 8c73 283e
00000250: 1cd6 89bd eb92 0d3e 478f a43c bd43 493d
00000260: 9e5a 30bd 4de2 2b3e 74b7 15be 5062 d9bd
00000270: b06b fbbd ddf1 493d e1bb 4e3e 0846 223d
00000280: d6f2 f0bc 94ae 913d e479 ac3d 5a50 1fbd
00000290: 912c d83d 29d8 00be 6dd9 7ebc 3b99 e73d
000002a0: 6367 b23d a91e 9f3e dab2 db3d 011f f7bd
000002b0: 68b8 f1bd ea0b 273d 3cf7 99bd 6bed 8abc
000002c0: c428 acbd cc33 1abe f889 113e f852 2c3d
000002d0: 8eb2 2b3e f394 f03d 6ba4 cbbc 599d e53d
000002e0: 04ef a9bd 8617 603e f42f 093e 4aae 8c3e
000002f0: 5bcb 97be 80d5 4cbe 5e2f fc3d a1ec 42be
00000300: af81 e4bd 1eb1 85bd 9526 443e 0ab0 573e
00000310: 5bcc 2f3d 4f5c 683c 7580 e33d 9ae3 c03c
00000320: 803c 3e3e 8689 703d 0585 033e 24ff c5bc
00000330: 6b05 2b3e 64cc 843d a486 70bd 4d6c 5f3e
00000340: cf1b 673d 47a5 f3bd 4905 19be 069d 55be
00000350: 98c6 ce3b 99d2 913d 5110 8ebe da82 efbd
00000360: 21d3 193e 25b4 b83c 5ff8 cd3d eea2 0abe
00000370: 52fd 53be db8e 303d e0d8 4a3e 67cc cebb
00000380: 1c36 fc3d f7e5 d6bd 89b2 4f3c 9229 fabd
00000390: 11bc cfbd 7e45 4f3c 6d46 dbbc cf45 ff3d
000003a0: b145 babd e8ed ee3d 069d 263c 57ae 19be
000003b0: 379e a53d e43b 90be ff1e 103e 6a39 b5bd
000003c0: 038b 07be fc50 8dbe ada0 bebd 46da 083e
000003d0: 665c fd3d dbef 4abe 38a7 d43d 6e4d a7be
000003e0: 8c4a 6dbd b501 28be 8516 27be 3cae 5e3e
000003f0: 5354 c03d 984b c1bc 6c12 49be 1cf2 3abe

backBone.1.conv1.bias f4 [6]
-0.00078709214 0.0014894899 -0.00024762464 0.0006189582 -0.0005135231 0.00073240313
00000000: dc54 4eba fd3a c33a 9ed3 81b9 9541 223a
00000010: f49d 06ba befe 3f3a

backBone.1.bn1.weight f4 [6]
0.9732193 1.0353615 0.9602329 0.9654726 1.0600607 0.9437021
00000000: e624 793f ba86 843f d3d1 753f 3629 773f
00000010: 12b0 873f 7696 713f

backBone.1.bn1.bias f4 [6]
0.044520363 -0.060789898 0.112941325 -0.03593724 -0.12173221 0.1115367
00000000: fc5a 363d d4fe 78bd c84d e73d ed32 13bd
00000010: bd4e f9bd 5a6d e43d

backBone.1.bn1.running_mean f4 [6]
0.06756506 0.5755152 0.0008313442 0.5368705 -0.42564717 0.011155671
00000000: 8d5f 8a3d f754 133f 91ee 593a 5870 093f
00000010: 6dee d9be 47c6 363c

backBone.1.bn1.running_var f4 [6]
0.6636499 0.49400026 0.4775564 0.54635787 0.42032954 0.43399897
00000000: f6e4 293f 9aed fc3e 4682 f43e 1cde 0b3f
00000010: 6f35 d73e 1d35 de3e

backBone.1.conv2.weight f4 [6, 6, 3, 3]
-0.44725072 -0.018722584 0.0814544 0.05260212 -0.3134021 -0.08198536 -0.072970964 0.09193136
-0.13674536 -0.09779452 -0.12628682 -0.00381908 -0.2636995 -0.053528387 -0.09502948 0.14527166
-0.20524552 0.12031259 -0.121424094 0.115808554 0.043513432 -0.24753956 0.14230278 -0.02608316
0.17839368 -0.07621195 0.106701076 0.009707194 -0.093325555 0.17994446 -0.14539216 -0.0663738
-0.07243306 0.115663454 -0.068624794 -0.30945203 -0.07751193 0.007987339 -0.08453013 -0.0021856036
-0.13258515 0.08447369 0.117129184 0.14346962 -0.22704954 -0.050095513 -0.063126124 -0.037720602
0.08903288 -0.013736337 0.2315197 -0.21610296 0.05997497 0.04277711 -0.0761058 0.0064164503
-0.056709222 0.03561047 -0.07893544 0.15357059 -0.11968595 -0.081181474 -0.17058228 0.2048518
0.13721585 0.02578457 -0.07079696 -0.38824126 -0.003787337 -0.20054094 0.14260736 -0.10180926
-0.14835207 0.16321456 -0.11481472 0.23167 -0.16693828 -0.028208055 0.015228099 -0.096012324
-0.045292705 0.105282284 0.0026993277 -0.1692962 -0.1580037 -0.09505617 0.119960174 -0.06701642
-0.03449871 0.096773565 -0.17411749 -0.20225805 0.13780195 0.07387817 -0.23516986 -0.15230449
-0.15212975 0.085601196 -0.10557851 0.019150393 -0.024915375 0.30120108 -0.0715631 0.009609325
0.110720515 -0.20846158 0.061404116 -0.092315696 0.023859994 -0.10459336 -0.056183115 -0.014753537
-0.14041814 -0.075100504 -0.0588816 0.25480214 0.02546288 -0.16342734 0.32362676 -0.20677347
-0.040645774 -0.10311825 0.061879244 -0.14287743 0.12516192 0.07127171 0.17519428 -0.04191303
0.05691728 0.078458585 0.086534835 0.024767663 0.08566565 -0.20594272 -0.04164783 0.074029766
-0.27954462 -0.07933441 0.18195964 0.019381652 -0.22528398 -0.089526534 -0.2665539 0.11335434
-0.003508313 0.033566985 -0.40684992 -0.03599788 0.07269018 -0.043999553 -0.14297763 -0.07371102
-0.11800837 0.14056522 -0.13237594 0.1198473 -0.19844492 -0.12581441 0.07604169 0.05546706
0.095369436 0.0021848045 0.19357665 0.076660626 0.016504047 0.18737726 0.057993725 0.062057775
-0.10344752 0.07931811 0.1006402 -0.28579494 -0.09447924 0.14462203 -0.13497646 -0.066414006
0.0022175233 -0.11374854 0.12826313 0.12935388 0.27228412 0.03447543 -0.005886399 -0.027769288
-0.01969811 0.038950782 -0.13192403 0.27064312 -0.10919045 0.05687643 0.049404927 0.082883
-0.13166693 0.07382994 0.09577593 -0.059365038 0.114003964 0.016201261 -0.048020277 0.15664637
0.015779765 0.01137342 0.008813237 0.019350851 0.3604944 -0.128367 -0.21368985 0.007300027
-0.19351391 0.124077424 -0.078228675 -0.114539005 0.15487465 0.20250176 -0.28906888 0.067002095
-0.14013605 -0.12794147 0.024403537 -0.08616811 -0.18272449 0.2288486 -0.02407503 0.13722113
0.008123892 -0.065871246 -0.13602489 -0.083139524 -0.16231875 0.09769141 0.083091214 -0.20256357
0.21953376 -0.07423235 -0.07213913 0.0877849 0.07982715 -0.02641358 -0.25767314 -0.16635202
-0.06781245 0.0935131 -0.30906594 -0.15729424 -0.24321091 0.058203943 0.16926527 -0.16085796
-0.17190474 0.16415651 0.15046407 0.006904146 -0.2345382 -0.10160195 0.09694008 -0.05393903
00000000: 0cfe e4be 1b60 99bc 91d1 a63d 5275 573d
00000010: 3d76 a0be f1e7 a7bd cd71 95bd 8246 bc3d
00000020: fa06 0cbe 7e48 c8bd 5551 01be 8849 7abb
00000030: 9f03 87be 9540 5bbd d19e c2bd 18c2 143e
00000040: e22b 52be 7266 f63d 32ad f8bd 092d ed3d
00000050: 243b 323d 037b 7dbe d2b7 113e 5aac d5bc
00000060: d5ac 363e 0315 9cbd 1886 da3d ec0a 1f3c
00000070: 7821 bfbd 5c43 383e afe1 14be fdee 87bd
00000080: c957 94bd f6e0 ec3d 288b 8cbd 7f70 9ebe
00000090: 93be 9ebd 54dd 023c 221e adbd 583c 0fbb
000000a0: 67c4 07be 8b00 ad3d 6de1 ef3d b3e9 123e
000000b0: ad7f 68be f430 4dbd 4548 81bd eb80 1abd
000000c0: df56 b63d 600e 61bc 8013 6d3e 184a 5dbe
000000d0: 50a8 753d 0d37 2f3d 5cdd 9bbd 1641 d23b
000000e0: ee47 68bd 49dc 113d e7a8 a1bd 9c41 1d3e
000000f0: e81d f5bd 7942 a6bd 1fad 2ebe acc4 513e
00000100: 5082 0c3e 2a3a d33c fffd 90bd 8fc7 c6be
00000110: f934 78bb 9b5a 4dbe aa07 123e 6081 d0bd
00000120: 9be9 17be b821 273e fb23 ebbd e73a 6d3e
00000130: def1 2abe 9414 e7bc 477f 793c 1ca2 c4bd
00000140: d884 39bd 3d9e d73d 34e7 303b fc5b 2dbe
00000150: b9cb 21be cfac c2bd aead f53d e83f 89bd
00000160: 854e 0dbd 3831 c63d db4b 32be bc1c 4fbe
00000170: f41b 0d3e 704d 973d 5ed0 70be b5f5 1bbe
00000180: e7c7 1bbe ae4f af3d 8c39 d8bd 49e1 9c3c
00000190: 541b ccbc 0737 9a3e ad8f 92bd 6e70 1d3c
000001a0: 70c1 e23d f476 55be e282 7b3d 0310 bdbd
000001b0: 0976 c33c 0b35 d6bd 4420 66bd d2b8 71bc
000001c0: c6c9 0fbe 4bce 99bd d52d 71bd 6d75 823e
000001d0: 8897 d03c 7f59 27be 68b2 a53e 6dbc 53be
000001e0: 2f7c 26bd a92f d3bd 1775 7d3d 764e 12be
000001f0: 722a 003e e7f6 913d 2166 333e ffac 2bbd
00000200: 1822 693d e5ae a03d 2d39 b13d 8ee5 ca3c
00000210: 7971 af3d a6e2 52be ea96 2abd eb9c 973d
00000220: 7920 8fbe 147a a2bd a153 3a3e 45c6 9e3c
00000230: d8b0 66be b059 b7bd c179 88be 5226 e83d
00000240: baeb 65bb 897d 093d a24e d0be 8372 13bd
00000250: 97de 943d e038 34bd ba68 12be cef5 96bd
00000260: 5fae f1bd 54f0 0f3e 8f8d 07be 8072 f53d
00000270: 2535 4bbe 7ed5 00be bfbb 9b3d 6e31 633d
00000280: 0d51 c33d f02e 0f3b f538 463e 3f00 9d3d
00000290: 7f33 873c d3df 3f3e d48a 6d3d 4b30 7e3d
000002a0: 4bdc d3bd 8971 a23d 731c ce3d b753 92be
000002b0: 557e c1bd cc17 143e 4537 0abe 1104 88bd
000002c0: de53 113b fff4 e8bd 6957 033e 5875 043e
000002d0: d368 8b3e 1c36 0d3d b2e2 c0bb 6b7c e3bc
000002e0: ee5d a1bc db8a 1f3d 1817 07be bc91 8a3e
000002f0: 3e9f dfbd 42f7 683d d25c 4a3d 90be a93d
00000300: b2d3 06be 2734 973d 2c26 c43d c128 73bd
00000310: e97a e93d 82b8 843c e9b0 44bd e867 203e
00000320: 9144 813c 9557 3a3c 6565 103c ad85 9e3c
00000330: b992 b83e a472 03be 83d1 5abe 1135 ef3b
00000340: 8328 46be 4e1c fe3d 5b36 a0bd 6d93 eabd
00000350: 7697 1e3e 9f5c 4f3e d600 94be 6538 893d
00000360: d37f 0fbe 1703 03be ede9 c73c e878 b0bd
00000370: 211c 3bbe 4a57 6a3e ff38 c5bc b283 0c3e
00000380: 131a 053c 81e7 86bd 1c4a 0bbe 0e45 aabd
00000390: e336 26be 6f12 c83d ba2b aa3d d36c 4fbe
000003a0: 75cd 603e 2107 98bd aebd 93bd 92c8 b33d
000003b0: 6b7c a33d 4b61 d8bc bced 83be 2f58 2abe
000003c0: 41e1 8abd cc83 bf3d e43d 9ebe be11 21be
000003d0: 480c 79be 4267 6e3d e053 2d3e f3b7 24be
000003e0: cc07 30be a518 283e 4113 1a3e 2d3c e23b
000003f0: c82a 70be af14 d0bd 8588 c63d 2cef 5cbd

backBone.1.conv2.bias f4 [6]
0.00030413788 0.0011052506 -0.000676187 -0.00040431958 -0.0012602916 -0.00081417745
00000000: b274 9f39 0ede 903a 2442 31ba dbfa d3b9
00000010: 5e30 a5ba 866e 55ba

backBone.1.bn2.weight f4 [6]
0.92343664 0.76944685 0.8804078 0.8447195 0.73893714 0.8286158
00000000: 5866 6c3f 78fa 443f 6862 613f 8a3f 583f
00000010: fc2a 3d3f 2a20 543f

backBone.1.bn2.bias f4 [6]
-0.017874429 -0.00378218 0.06569273 -0.054789636 0.103490226 -0.28301978
00000000: 656d 92bc 73de 77bb e989 863d 196b 60bd
00000010: aff2 d33d f8e7 90be

backBone.1.bn2.running_mean f4 [6]
-0.55523074 -0.512893 -0.33921912 0.25949657 -0.7740954 -0.35043362
00000000: 9a23 0ebf f54c 03bf 21ae adbe bcdc 843e
00000010: 1e2b 46bf 096c b3be

backBone.1.bn2.running_var f4 [6]
0.31570375 0.37055355 0.29677558 0.47005445 0.35490972 0.24373248
00000000: eca3 a13e 32b9 bd3e f8f2 973e faaa f03e
00000010: bab6 b53e 0295 793e

backBone.2.conv1.weight f4 [6, 6, 3, 3]
0.18211097 -0.072834335 -0.09790457 0.013208262 -0.21436843 0.2506528 -0.14797364 0.15921639
0.08852564 -0.037803516 -0.049864765 -0.04194287 0.28401238 -0.15980889 0.16261157 0.14559193
0.12877923 0.38740554 -0.013099354 0.0985498 0.11242488 0.20508905 -0.024131468 0.06491621
0.028981194 -0.16964588 -0.26549336 -0.03924246 0.18467778 0.102536745 -0.10269991 -0.023915943
-0.041310295 0.089256115 -0.01165034 0.11199776 -0.27026498 -0.039347548 -0.083490625 -0.014476107
-0.026795376 0.09904417 -0.17313129 0.2173121 0.009989344 -0.026162835 -0.10419995 0.22942653
-0.023097027 0.03493467 0.10731702 -0.16777396 -0.018206662 0.16555347 -0.2533048 -0.120849684
-0.027420899 -0.052983 0.15117835 -0.026060114 0.021024894 -0.21759799 -0.08675472 -0.062136866
-0.19894941 -0.12378633 -0.1260298 -0.117932856 -0.08853345 -0.23659602 -0.24480288 0.094541706
-0.15163359 -0.09229582 -0.0054645697 -0.036149576 -0.02409173 0.16605356 0.12368959 0.03074013
0.21737233 -0.071544565 0.18496071 0.25017017 0.06342733 0.14170815 0.24214743 0.07411203
-0.063967876 0.020556161 -0.018640628 0.013664148 -0.106575795 0.14970683 -0.08983037 0.13827577
0.048515845 0.055897865 -0.08008885 0.03822158 0.014911009 0.2182707 0.06905881 0.17573205
-0.13523261 -0.4292784 -0.016060375 -0.009907979 0.16763546 0.1672518 0.15762949 0.20071453
0.15829246 -0.08741326 0.041070662 -0.20989111 0.068551704 -0.13422994 0.10882878 -0.22428349
-0.16997103 0.1468916 0.06459428 0.014747532 -0.0024952474 0.16782787 0.1304316 0.14244512
0.11460933 0.20963225 -0.12567726 -0.026200917 0.12790392 -0.03695811 -0.31418782 0.013167862
-0.06999887 0.023670733 0.13239786 -0.18275054 -0.044677045 -0.12313303 -0.41490456 -0.023077104
-0.1995858 -0.0072048386 -0.006358655 0.14242575 -0.08757751 0.2887548 -0.07073513 0.048709538
0.032462485 -0.05805303 -0.006003773 -0.103647515 -0.010821164 0.06478804 0.030456915 0.07442654
-0.15464427 0.18147479 -0.01437873 -0.05440946 0.18999346 -0.041426707 0.035631116 0.21843828
-0.027263965 0.14339137 -0.03170063 -0.11543031 0.019971687 0.17349233 -0.04245804 0.13796885
-0.17955162 0.20182142 -0.05662141 0.18587378 0.24799332 -0.15950973 0.042943124 0.0012914626
-0.25530413 -0.07162498 -0.08832903 0.06960578 0.12643859 0.1175506 -0.15427849 0.20450331
-0.033118933 0.08394658 0.12720595 -0.0036648293 -0.11343697 0.02643896 0.11303095 0.0034629402
-0.13427977 0.19890107 -0.098210536 -0.12912863 -0.14225994 -0.29694077 0.084114715 -0.015872693
0.17491677 -0.027058555 -0.21493095 0.08504858 0.054925974 -0.121092856 0.14991505 0.0990312
0.103029534 0.121205084 -0.051583268 0.2401877 -0.13984393 0.13577078 -0.11176304 0.18958575
-0.035881776 -0.26649395 0.02091156 -0.051175777 0.1002102 -0.21913669 -0.11850295 -0.11592816
0.2262267 0.10799149 -0.124692105 0.2651841 -0.09981862 -0.016438482 0.061764587 -0.04784066
0.08178524 0.18405098 -0.06972197 -0.08883389 0.0793787 -0.054400917 -0.07928956 -0.083444625
-0.12576379 0.028922148 -0.15696272 0.031090772 0.12341373 -0.07419904 0.06832967 0.14170732
00000000: 4c7b 3a3e 2b2a 95bd 3182 c8bd 7767 583c
00000010: 6683 5bbe 9055 803e 6786 17be 9f09 233e
00000020: ee4c b53d dcd7 1abd ff3e 4cbd 49cc 2bbd
00000030: 126a 913e f1a4 23be a683 263e 0d16 153e
00000040: b4de 033e 055a c63e ac9e 56bc 7ad4 c93d
00000050: 043f e63d dd02 523e 5baf c5bc caf2 843d
00000060: f869 ed3c a6b7 2dbe bfee 87be b4bc 20bd
00000070: 2c1c 3d3e c9fe d13d 5554 d2bd 5eeb c3bc
00000080: fc34 29bd e9cb b63d 11e1 3ebc 155f e53d
00000090: 2c60 8abe e52a 21bd 22fd aabd 322d 6dbc
000000a0: fa81 dbbc abd7 ca3d 5449 31be 1087 5e3e
000000b0: 58aa 233c 7153 d6bc c966 d5bd caee 6a3e
000000c0: fa35 bdbc a817 0f3d 07c9 db3d f0cc 2bbe
000000d0: 2326 95bc d986 293e 2bb1 81be 0a80 f7bd
000000e0: cba1 e0bc b404 59bd 7fce 1a3e 057c d5bc
000000f0: 663c ac3c 02d2 5ebe 75ac b1bd 3a83 7ebd
00000100: 65b9 4bbe b083 fdbd f50d 01be c886 f1bd
00000110: 0751 b5bd 3a46 72be 9bad 7abe 159f c13d
00000120: d645 1bbe 9705 bdbd 2210 b3bb 9411 14bd
00000130: 055c c5bc f209 2a3e f850 fd3d bad2 fb3c
00000140: da96 5e3e f585 92bd 5766 3d3e 4e16 803e
00000150: 30e6 813d f11b 113e 7ff5 773e 0cc8 973d
00000160: 9701 83bd 6565 a83c 3bb4 98bc 97df 5f3c
00000170: 6944 dabd bf4c 193e fcf8 b7bd 2a98 0d3e
00000180: 8db8 463d 29f5 643d 9f05 a4bd 3b8e 1c3d
00000190: 4e4d 743c 5b82 5f3e b56e 8d3d 1af3 333e
000001a0: 6b7a 0abe 61ca dbbe 0c91 83bc 1355 22bc
000001b0: a1a8 2b3e 0e44 2b3e a069 213e 1c88 4d3e
000001c0: 6b17 223e b905 b3bd b639 283d b2ed 56be
000001d0: d664 8c3d 9373 09be a0e1 de3d 92aa 65be
000001e0: e30c 2ebe c06a 163e 024a 843d a29f 713c
000001f0: 4e87 23bb 12db 2b3e dd8f 053e 22dd 113e
00000200: 4cb8 ea3d d6a9 563e 8ab1 00be 4ea3 d6bc
00000210: 3ff9 023e 6361 17bd 3add a0be 04be 573c
00000220: 915b 8fbd 20e9 c13c 4e93 073e f522 3bbe
00000230: 47ff 36bd 2c2d fcbd 5f6e d4be 320c bdbc
00000240: 3860 4cbe 9116 ecbb 445c d0bb 0ed8 113e
00000250: d65b b3bd abd7 933e 94dd 90bd a783 473d
00000260: 62f7 043d 04c9 6dbd 4cbb c4bb 2645 d4bd
00000270: 404b 31bc 98af 843d c880 f93c f16c 983d
00000280: 115b 1ebe 87d4 393e c494 6bbc 74dc 5ebd
00000290: a58d 423e 0daf 29bd eff1 113d 49ae 5f3e
000002a0: ae58 dfbc 30d5 123e 85d8 01bd ba66 ecbd
000002b0: aa9b a33c f9a7 313e 7be8 2dbd b547 0d3e
000002c0: 61dc 37be 46aa 4e3e daeb 67bd b255 3e3e
000002d0: f6f1 7d3e 8556 23be 21e5 2f3d 4b46 a93a
000002e0: 39b7 82be 1eb0 92bd dae5 b4bd 7a8d 8e3d
000002f0: 1e79 013e 5ebe f03d 2efb 1dbe 5169 513e
00000300: b8a7 07bd 2fec ab3d 4742 023e a22d 70bb
00000310: a451 e8bd 8596 d83c c57c e73d 7ff2 623b
00000320: a380 09be b9ac 4b3e 9b22 c9bd 4c3a 04be
00000330: 97ac 11be 9f08 98be 5644 ac3d 7307 82bc
00000340: 621d 333e e7a9 ddbc dc16 5cbe f32d ae3d
00000350: 0ffa 603d 88ff f7bd 5583 193e dfd0 ca3d
00000360: 2601 d33d 5f3a f83d fa48 53bd c4f3 753e
00000370: 3f33 0fbe 7f07 0b3e 05e4 e4bd c422 423e
00000380: c5f8 12bd e571 88be b84e ab3c b19d 51bd
00000390: 013b cd3d 5e65 60be adb1 f2bd be6b edbd
000003a0: f9a7 673e a42a dd3d 935e ffbd 36c6 873e
000003b0: b46d ccbd ffa9 86bc ddfc 7c3d 91f4 43bd
000003c0: 057f a73d dc77 3c3e 64ca 8ebd 8bee b5bd
000003d0: 4d91 a23d 7fd3 5ebd 9162 a2bd 04e5 aabd
000003e0: 39c8 00be 24ee ec3c d6ba 20be 13b2 fe3c
000003f0: 56c0 fc3d abf5 97bd 6df0 8b3d b91b 113e

backBone.2.conv1.bias f4 [6]
-0.00013778225 -0.0005927211 -0.0004629767 -0.00041419928 0.0010595655 0.00072266674
00000000: a479 10b9 d760 1bba aebb f2b9 e328 d9b9
00000010: 1ee1 8a3a 5871 3d3a

backBone.2.bn1.weight f4 [6]
0.99817914 1.0407377 1.0395893 0.9204243 0.96310204 0.9598915
00000000: ab88 7f3f e536 853f 4311 853f eda0 6b3f
00000010: db8d 763f 73bb 753f

backBone.2.bn1.bias f4 [6]
-0.05826297 -0.029071897 0.02425313 -0.11283342 -0.05679841 -0.18122117
00000000: 27a5 6ebd 3028 eebc 80ae c63c 3515 e7bd
00000010: 73a5 68bd 0b92 39be

backBone.2.bn1.running_mean f4 [6]
0.56748885 -0.36683077 0.24792896 0.18646082 0.07141211 -0.65557665
00000000: f346 113f 3ed1 bbbe 17e1 7d3e 96ef 3e3e
00000010: 8340 923d dfd3 27bf

backBone.2.bn1.running_var f4 [6]
0.7958629 0.7879394 0.7600774 0.45688865 0.6289071 0.46368185
00000000: acbd 4b3f 66b6 493f 6f94 423f 4fed e93e
00000010: 0e00 213f b567 ed3e

backBone.2.conv2.weight f4 [6, 6, 3, 3]
0.030159688 0.010300589 -0.1103828 -0.08904597 0.020177454 -0.22001037 -0.07149497 0.04224495
-0.18690135 0.13759936 -0.04302512 0.21967483 -0.064856194 -0.25404897 0.0767301 0.06275678
0.038244944 0.004920767 -0.099569835 -0.2006214 -0.111424595 0.19661017 -0.029910916 -0.29147708
-0.1562313 0.14299347 -0.09632635 0.2271539 0.13945165 0.011929333 -0.037422784 -0.26683062
-0.021684887 0.23608917 -0.10348931 -0.13095295 0.1904969 0.11204425 0.16654116 -0.295952
-0.10131404 -0.13575865 0.14484528 0.04113653 -0.18318576 0.021834945 0.12317358 0.075315945
-0.14841214 0.1512846 0.0059593013 -0.2208247 -0.19606152 -0.26049423 0.006063888 -0.062175624
0.074232705 0.18307045 -0.016249906 -0.42430267 -0.056271378 -0.41599816 -0.0808304 -0.056055922
-0.20566887 0.17049272 -0.050699346 -0.3326591 0.29416767 0.07866702 -0.1634686 -0.045383573
-0.1810075 0.027054451 -0.030274203 -0.11049996 0.0749187 0.06221178 -0.03415248 0.016258532
0.13177869 0.054892533 -0.19197024 -0.08944643 -0.11018911 -0.10040617 -0.2118376 -0.0757371
-0.012643065 -0.026539985 -0.03892671 0.0457281 0.15016764 0.12258162 -0.111313716 0.05513358
-0.124513395 -0.098329484 0.032184154 -0.14685321 -0.07588252 0.109590545 0.21943255 0.18054743
0.09969053 -0.069377095 -0.0027493574 -0.026919346 0.007854583 0.31571212 -0.05480522 0.17044495
-0.043953437 0.06746128 0.006765169 -0.2883193 -0.017145773 0.037415314 -0.20691445 -0.06920088
-0.039635822 0.09333485 -0.08151941 0.18512921 -0.15025146 0.32107782 0.029865338 0.02577566
0.08010366 -0.0020583002 0.22245172 -0.04055341 0.07654548 -0.38070047 -0.054818835 -0.14862384
-0.06939914 0.026609674 -0.115316026 0.097357616 -0.028867336 -0.100779034 -0.0022140201 0.08700499
-0.064106636 0.032674123 0.02679447 -0.16061282 0.14923757 0.19741076 0.28353173 -0.21897806
-0.07519933 0.05479432 -0.15257283 0.003056985 0.17899777 0.1917977 0.030572811 -0.046071377
-0.02996978 -0.040447406 0.03606216 -0.037667193 -0.075821996 0.03807639 -0.06692928 0.15222254
-0.019879397 -0.08704213 -0.04564223 -0.05612153 0.08595722 0.15398654 0.046843305 0.009935578
0.075189136 -0.17373411 -0.01594242 0.29147455 0.18979567 0.21515414 0.20350969 0.15296623
-0.2746636 -0.06882882 -0.025654966 -0.14934936 0.0056397757 -0.0647178 -0.03765047 -0.32244858
0.08927908 -0.090272084 -0.003388003 0.027758734 0.11396196 0.13448684 0.035413958 -0.07837017
0.18186086 -0.022984283 0.4601073 -0.03707024 -0.042681467 -0.095523424 0.1149306 0.058747772
0.13740617 -0.1915033 0.067924716 -0.09333803 0.071404845 -0.06750443 0.3214064 0.21608578
-0.1686374 0.08320408 0.13085136 0.13497415 -0.17984739 0.27583802 -0.21890813 0.0008780899
-0.1886414 0.035634335 0.030415604 -0.24102104 0.05467044 -0.02628648 -0.39030483 0.1156457
-0.055894274 -0.06691622 0.07960265 -0.29782832 -0.10771643 -0.15523376 -0.09767877 -0.1111977
-0.16750985 0.16864069 0.2047499 -0.11664148 -0.039260983 0.11090999 0.11501488 4.5617362e-05
-0.010167171 0.13724679 -0.009223798 0.15618007 0.07655784 0.05816913 0.116457716 -0.036666937
00000000: 7311 f73c cdc3 283c 6110 e2bd bc5d b6bd
00000010: 304b a53c 664a 61be f46b 92bd 0a09 2d3d
00000020: 1163 3fbe d9e6 0c3e 1c3b 30bd 70f2 603e
00000030: 53d3 84bd b512 82be ac24 9d3d a086 803d
00000040: bba6 1c3d 633e a13b 45eb cbbd b26f 4dbe
00000050: 9432 e4bd 2d54 493e bd07 f5bc 7c3c 95be
00000060: 19fb 1fbe e16c 123e c046 c5bd 089b 683e
00000070: 6acc 0e3e 4073 433c a248 19bd 069e 88be
00000080: 81a4 b1bc 5cc1 713e 34f2 d3bd 8818 06be
00000090: 9f11 433e 7577 e53d c489 2a3e 0587 97be
000000a0: bc7d cfbd 5104 0bbe 5252 143e c77e 283d
000000b0: 0c95 3bbe 33df b23c 6e42 fc3d 3f3f 9a3d
000000c0: 5af9 17be 5aea 1a3e 3e46 c33b df1f 62be
000000d0: 5ac4 48be 805f 85be 94b3 c63b deab 7ebd
000000e0: 5107 983d d276 3b3e 861e 85bc 333e d9be
000000f0: d17c 66bd b6fd d4be 698a a5bd e59a 65bd
00000100: dc9a 52be a595 2e3e 1eaa 4fbd 4b52 aabe
00000110: 259d 963e 2d1c a13d 5064 27be 20e4 39bd
00000120: 085a 39be 4ca1 dd3c 9b01 f8bc ce4d e2bd
00000130: fa6e 993d c8d1 7e3d 79e3 0bbd 9d30 853c
00000140: fef0 063e fed6 603d d993 44be b12f b7bd
00000150: d4aa e1bd c0a1 cdbd f5eb 58be 0d1c 9bbd
00000160: dc24 4fbc 626a d9bc 9d71 1fbd 634d 3b3d
00000170: 8cc5 193e 130c fb3d 72f8 e3bd c0d3 613d
00000180: e100 ffbd f860 c9bd 88d3 033d b060 16be
00000190: 4b68 9bbd 0271 e03d edb2 603e 6de1 383e
000001a0: 8c2a cc3d 9415 8ebd 902e 34bb f685 dcbc
000001b0: 82b0 003c 05a5 a13e 707b 60bd 1f89 2e3e
000001c0: 8508 34bd 2429 8a3d 5aae dd3b 969e 93be
000001d0: 4b75 8cbc cd40 193d 62e1 53be 31b9 8dbd
000001e0: 2c59 22bd 5826 bf3d a6f3 a6bd 8392 3d3e
000001f0: 85db 19be 5064 a43e 27a8 f43c 7a27 d33c
00000200: 630d a43d 8ce4 06bb 62ca 633e 551b 26bd
00000210: e0c3 9c3d 2ceb c2be b789 60bd d930 18be
00000220: 2321 8ebd 88fc d93c cf2a ecbd 6e63 c73d
00000230: 317b ecbc 3d65 cebd 1819 11bb ac2f b23d
00000240: 574a 83bd 4dd5 053d 1480 db3c b077 24be
00000250: bcd1 183e 0c26 4a3e 122b 913e c93b 60be
00000260: 1b02 9abd 0270 603d 0d3c 1cbe b357 483b
00000270: 314b 373e 9e66 443e d573 fa3c 57b5 3cbd
00000280: 2f83 f5bc 2eac 25bd eab5 133d ea48 1abd
00000290: 9048 9bbd fdf5 1b3d 3812 89bd 3ae0 1b3e
000002a0: 1eda a2bc 2543 b2bd 59f3 3abd b0df 65bd
000002b0: 570a b03d a6ae 1d3e c4de 3f3d d6c8 223c
000002c0: c3fc 993d 5be7 31be ae99 82bc 273c 953e
000002d0: cc59 423e 5e51 5c3e d864 503e 2ea3 1c3e
000002e0: b5a0 8cbe 20f6 8cbd 5d2a d2bc 0aef 18be
000002f0: decd b83b c48a 84bd 6137 1abd fb17 a5be
00000300: f3d7 b63d 92e0 b8bd 4209 5ebb 4966 e33c
00000310: e364 e93d ebb6 093e 3a0e 113d 8a80 a0bd
00000320: bc39 3a3e 8949 bcbc 2f93 eb3e f7d6 17bd
00000330: c3d2 2ebd c9a1 c3bd bc60 eb3d 81a1 703d
00000340: 34b4 0c3e 7119 44be 1d1c 8b3d 0228 bfbd
00000350: b43c 923d c33f 8abd 618f a43e 9745 5d3e
00000360: 48af 2cbe e766 aa3d e6fd 053e aa36 0a3e
00000370: ea29 38be a43a 8d3e 7429 60be 9e2f 663a
00000380: 362b 41be 4ff5 113d 252a f93c 38ce 76be
00000390: 1cee 5f3d be56 d7bc 09d6 c7be a7d7 ec3d
000003a0: 65f1 64bd 5f0b 89bd b706 a33d f47c 98be
000003b0: 6f9a dcbd 99f5 1ebe cf0b c8bd 9fbb e3bd
000003c0: b487 2bbe 25b0 2c3e f5a9 513e bae1 eebd
000003d0: 20d0 20bd c724 e33d ec8c eb3d 4555 3f38
000003e0: 3594 26bc 6c8a 0c3e 6a1f 17bc abed 1f3e
000003f0: 5bca 9c3d c142 6e3d 6281 ee3d 1230 16bd

backBone.2.conv2.bias f4 [6]
0.0005878601 0.0005047478 0.0006221413 0.0012569986 0.0005533309 -0.00050983514
00000000: a01a 1a3a 0d51 043a 3217 233a e0c1 a43a
00000010: 680d 113a 75a6 05ba

backBone.2.bn2.weight f4 [6]
1.0707835 0.8150229 0.8396936 0.7587757 0.59610736 0.8988056
00000000: 6f0f 893f 57a5 503f 29f6 563f 203f 423f
00000010: 7e9a 183f 2018 663f

backBone.2.bn2.bias f4 [6]
-0.30536166 -0.001608372 -0.13731363 -0.11631655 -0.08066815 -0.17700276
00000000: 5d58 9cbe 02d0 d2ba f29b 0cbe 5f37 eebd
00000010: 5835 a5bd 3640 35be

backBone.2.bn2.running_mean f4 [6]
-0.43888304 -0.43336728 0.08894683 0.3230557 -0.4007633 -0.3843426
00000000: 47b5 e0be 51e2 ddbe c129 b63d 8f67 a53e
00000010: d930 cdbe 8ec8 c4be

backBone.2.bn2.running_var f4 [6]
0.3299218 0.30521473 0.2455442 0.21034415 0.22854921 0.32263634
00000000: 83eb a83e 1b45 9c3e f06f 7b3e 7564 573e
00000010: ce08 6a3e 9730 a53e
