src/interface/game/static/models/AZ-03-05-24-EIPC51-A/model_quantized.onnx (onnx, 681548 bytes, 41 tensors)

policyHead.4.bias f4 [81]
-0.0848826 -0.048597462 -0.0811224 -0.049306408 -0.024016742 -0.028373256 -0.02057782 -0.057523344
-0.08195988 -0.09705514 0.030759437 -0.0045107966 0.017131528 0.006334166 -0.017007984 -0.03173905
-0.026415985 -0.025503045 -0.007096455 -0.041025184 -0.020540798 -0.020123234 0.037608292 0.010444832
0.0031344544 -0.038231507 -0.0129281515 -0.011729387 0.030577777 0.057230085 0.012157939 0.058552
0.026017513 -0.014519694 0.0027168791 -0.013093542 -0.025083855 0.004874303 0.00040264512 0.059788313
-0.007151258 -0.047893487 0.027130084 0.0067267264 -0.048345964 -0.0021888409 -0.0024672255 0.034771297
0.024762878 -0.003971779 0.051420778 -0.004540807 0.03393499 -0.033619795 -0.03748684 0.015687272
0.066199444 -0.0044272444 -0.02234952 0.000735159 0.035871286 0.012069186 0.021712074 0.017130539
-0.007285887 0.037679616 -0.015101585 0.03305743 0.027287202 -0.011239442 -0.08293805 -0.04339845
-0.04181158 9.920994e-05 -0.013799177 -0.026802137 0.028911723 -0.009718048 0.024554392 -0.029447697
-0.064364195
00000000: eed6 adbd 220e 47bd 8023 a6bd 84f5 49bd
00000010: c2be c4bc 086f e8bc d192 a8bc 999d 6bbd
00000020: 95da a7bd d8c4 c6bd 37fb fb3c 4ecf 93bb
00000030: 6b57 8c3c d68e cf3b 5454 8bbc ce00 02bd
00000040: 5666 d8bc c3eb d0bc 6189 e8bb 060a 28bd
00000050: 2d45 a8bc 7bd9 a4bc 270b 1a3d cd20 2b3c
00000060: 6b6b 4d3b a498 1cbd 99d0 53bc 9d2c 40bc
00000070: 3f7e fa3c 186a 6a3d 1832 473c 39d4 6f3d
00000080: ae22 d53c 03e4 6dbc ab0d 323b 4c86 56bc
00000090: a87c cdbc 9eb8 9f3b 1d1a d339 97e4 743d
000000a0: 1a55 eabb f62b 44bd e93f de3c df6b dc3b
000000b0: 6b06 46bd a872 0fbb 2db1 21bb 596c 0e3d
000000c0: 85db ca3c b225 82bb 989e 523d 0dcb 94bb
000000d0: 6bff 0a3d e9b4 09bd cd8b 19bd 9882 803c
000000e0: 9393 873d 6b12 91bb 5716 b7bc afb7 403a
000000f0: c5ed 123d d6bd 453c 85dd b13c 5855 8c3c
00000100: 73be eebb f155 1a3d a36c 77bc 3a67 073d
00000110: 6989 df3c a325 38bc 6ddb a9bd 93c2 31bd
00000120: 9f42 2bbd ee0e d038 f115 62bc 2890 dbbc
00000130: 47d8 ec3c 7338 1fbc 4b26 c93c 4c3c f1bc
00000140: 60d1 83bd

onnx::Conv_210 f4 [64]
0.20583121 0.5888218 -0.09342756 -0.47974128 0.27408847 0.46140757 0.3719834 0.087629445
0.24549147 0.35848522 0.031171098 0.6951551 -0.19853412 -0.3623691 -0.2591396 0.021046542
-0.002147749 0.2610636 0.53662515 0.38374773 0.27105165 0.4968554 -0.018848963 0.2870446
0.09992903 -0.21960086 0.33802924 -0.020816624 0.07670066 -0.13165495 0.011054713 0.33691472
0.1314991 0.52468455 0.25284788 0.23814493 -0.19343604 0.31585258 0.40765762 0.015962273
0.062989324 0.13429126 -0.46471956 0.27160084 -0.106859714 0.29738486 0.052890718 0.30022344
-0.48789644 0.05233212 0.05409415 0.54017127 0.20030639 -0.21766187 -0.45526057 0.31583315
-0.072886944 0.0054977536 0.04398398 -0.17436305 0.47158387 0.11627877 -0.6866481 -0.25777888
00000000: 6bc5 523e 07bd 163f f356 bfbd a6a0 f5be
00000010: 5355 8c3e 9d3d ec3e 9c74 be3e 1177 b33d
00000020: 1e62 7b3e 608b b73e 885a ff3c aff5 313f
00000030: 874c 4bbe 7188 b9be f2ad 84be cc69 ac3c
00000040: 40c1 0cbb 21aa 853e 4460 093f 957a c43e
00000050: 48c7 8a3e d563 fe3e 2469 9abc 83f7 923e
00000060: 97a7 cc3d 0cdf 60be 2b12 ad3e a087 aabc
00000070: 3c15 9d3d 8ed0 06be d41e 353c 1680 ac3e
00000080: b3a7 063e ba51 063f 4775 813e 44dc 733e
00000090: 1914 46be 6eb7 a13e 80b8 d03e 50c3 823c
000000a0: 8c00 813d a683 093e b9ef edbe 440f 8b3e
000000b0: 44d9 dabd d442 983e f0a3 583d e3b6 993e
000000c0: 90cd f9be 345a 563d d491 5d3d aa48 0a3f
000000d0: 1e1d 4d3e c1e2 5ebe ea17 e9be e2b4 a13e
000000e0: c045 95bd 8026 b43b 8c28 343d 3a8c 32be
000000f0: 7173 f13e 9023 ee3d 2bc8 2fbf 98fb 83be

onnx::Conv_213 f4 [64]
-0.65196586 0.16682972 0.19168702 0.86525786 0.7496031 0.29232317 0.007466316 -0.37795478
0.62190586 -0.47156692 -0.2578441 0.5322234 -0.05321733 0.41326103 1.1203724 0.14315169
0.63728213 0.68722016 0.44161323 0.39530155 0.8006466 0.6259451 0.7101007 -0.43888286
0.06938016 1.7072515 1.0958736 0.6235315 0.32504827 0.57387996 0.65238357 0.57036644
0.0076197833 0.4454735 -0.20139863 0.5233154 1.171637 0.47962558 -0.27579626 0.9342999
0.2180414 0.8046508 0.065359265 0.40565532 -0.19270849 0.17876548 -0.3610072 0.6578385
0.55682015 1.6487502 0.006841913 0.21982518 0.2577458 -0.4945974 -0.43077004 0.29309112
0.50924164 -0.104168475 0.27916402 0.44229835 0.45225665 0.29441622 1.0315531 0.04191652
00000000: 3ce7 26bf 69d5 2a3e 9a49 443e 8a81 5d3f
00000010: fde5 3f3f 62ab 953e 00a8 f43b 4a83 c1be
00000020: 3935 1f3f 3871 f1be 2404 84be cb3f 083f
00000030: 6afa 59bd f396 d33e 5d68 8f3f 5b96 123e
00000040: ec24 233f a9ed 2f3f 211b e23e f764 ca3e
00000050: 2df7 4c3f f03d 203f 29c9 353f 41b5 e0be
00000060: 2f17 8e3d 3887 da3f 9645 8c3f c39f 1f3f
00000070: ba6c a63e cce9 123f 9c02 273f 8903 123f
00000080: 60af f93b 1a15 e43e 713b 4ebe 00f8 053f
00000090: 34f8 953f 7c91 f53e 2b35 8dbe 472e 6f3f
000000a0: 3f46 5f3e 98fd 4d3f 14db 853d 0eb2 cf3e
000000b0: 6055 45be 4c0e 373e f0d5 b8be 1b68 283f
000000c0: c48b 0e3f 3f0a d33f 2032 e03b da19 613e
000000d0: 42f7 833e df3b fdbe e48d dcbe 0a10 963e
000000e0: a95d 023f 4856 d5bd 96ee 8e3e ee74 e23e
000000f0: 2f8e e73e b9bd 963e ef09 843f a8b0 2b3d

onnx::Conv_216 f4 [64]
0.3694634 0.12992409 0.24477343 -0.32581332 0.29984072 0.12056464 0.5733132 0.4353038
0.63084954 -0.0054649115 0.32210907 0.20957594 0.2847397 0.6108774 0.0020214915 -0.13999309
0.49534902 -0.090225875 0.016622901 -0.17229739 0.8489005 0.12305066 0.23410779 0.5646148
0.21888351 0.7940005 -0.27379212 0.609457 -0.3549225 0.68757147 0.5378854 -0.0096844435
-0.27764428 0.45496464 0.3811039 -0.2654115 -0.4765547 0.27910346 0.0006787479 0.7176986
0.7636055 -0.047112882 0.97290933 0.32602996 -0.56017786 0.2107864 0.3595588 0.4805518
0.5285115 0.026866987 0.7636283 -0.61505026 0.31259722 0.7722556 -0.055202395 0.37234148
-0.42937705 0.29234856 0.5889473 0.47072393 0.44366944 0.29765043 0.7938239 -0.83592963
00000000: 4f2a bd3e d20a 053e e3a5 7a3e 01d1 a6be
00000010: b984 993e 98ea f63d a7c4 123f 24e0 de3e
00000020: 5b7f 213f 0013 b3bb 7beb a43e 139b 563e
00000030: 67c9 913e 7662 1c3f 007b 043b 595a 0fbe
00000040: 639e fd3e 58c8 b8bd c02c 883c ba6e 30be
00000050: 8b51 593f fc01 fc3d f4b9 6f3e 988a 103f
00000060: 0023 603e 9e43 4b3f 7b2e 8cbe 6005 1c3f
00000070: 67b8 b5be af04 303f dcb2 093f 80ab 1ebc
00000080: 6427 8ebe 20f1 e83e 0d20 c33e 04e4 87be
00000090: fafe f3be a6e6 8e3e 00ee 313a 18bb 373f
000000a0: a67b 433f 70f9 40bd 9610 793f 66ed a63e
000000b0: d167 0fbf 64d8 573e 1718 b83e e30a f63e
000000c0: 884c 073f 2818 dc3c 257d 433f ef73 1dbf
000000d0: be0c a03e 8bb2 453f e81b 62bd 8ba3 be3e
000000e0: 4fd7 dbbe b6ae 953e 40c5 163f ba02 f13e
000000f0: a428 e33e a365 983e 0b38 4b3f 7cff 55bf

onnx::Conv_219 f4 [64]
-0.018244833 0.10519798 -0.27520886 0.16593993 0.7234472 0.08767693 0.1914506 0.027278468
-0.095611416 -0.27512914 0.09741387 0.5865967 0.8138245 0.29981518 0.40259862 0.24944678
1.1643091 0.78078645 0.24782899 0.70582783 -0.77895963 -0.04349403 -0.20684658 0.15886499
0.5487213 0.31647837 0.87429136 0.4287942 0.22801873 0.07700431 0.12520404 0.58358973
-0.08860888 0.18742512 0.13550262 -0.8309242 -0.0081909 0.7807488 -0.35824242 0.850303
-1.0083599 -0.42328757 0.12319198 -0.43258354 -0.112298876 0.6667726 -0.7989465 0.43956384
-0.19897693 -0.16270182 0.3912642 -0.20675829 -0.036069185 0.94314295 0.91994804 0.41140363
-0.68746555 0.31932476 -0.16726905 -0.059640527 0.32362625 0.13074318 0.40986022 -0.38917422
00000000: 3076 95bc 0a72 d73d 2de8 8cbe 28ec 293e
00000010: d633 393f f68f b33d a00b 443e 1877 df3c
00000020: ebcf c3bd badd 8cbe ec80 c73d 342b 163f
00000030: cd56 503f 6081 993e 6821 ce3e fa6e 7f3e
00000040: 1508 953f 9fe1 473f e2c6 7d3e 22b1 343f
00000050: e669 47bf cc26 32bd 97cf 53be 81ad 223e
00000060: 0079 0c3f 7409 a23e 8fd1 5f3f ea8a db3e
00000070: be7d 693e 70b4 9d3d 7d35 003e 2366 153f
00000080: 9378 b5bd 5fec 3f3e 33c1 0a3e 73b7 54bf
00000090: 2033 06bc 27df 473f 8d6b b7be 75ad 593f
000000a0: f011 81bf 26b9 d8be 144c fc3d 977b ddbe
000000b0: f4fc e5bd 9cb1 2a3f c287 4cbf 830e e13e
000000c0: 9cc0 4bbe 4e9b 26be c853 c83e 72b8 53be
000000d0: 48bd 13bd d171 713f b781 6b3f 7fa3 d23e
000000e0: befd 2fbf 897e a33e 9448 2bbe a049 74bd
000000f0: 57b2 a53e 8ae1 053e 33d9 d13e d841 c7be

onnx::Conv_222 f4 [64]
0.44460726 -0.41463614 0.17780995 -0.35380498 0.33528897 -0.097975224 0.66775745 -0.3441897
0.67299765 0.2718205 0.5002123 -0.029029801 0.14137043 0.6078543 0.5059634 -0.00661394
-0.06576055 0.27954143 0.6059311 0.35354778 -0.20211062 -0.03454428 0.18458667 -0.69986427
-0.5205036 -0.07432282 0.15890178 -0.31771472 0.5412228 0.30732316 0.19358817 0.71857446
0.0836885 -0.61548316 0.65190256 0.00068870187 -0.46123627 0.44476148 -0.2134282 0.21134046
0.0996207 0.025436461 0.5515598 0.7405447 0.29979664 -0.3574878 -0.10784956 0.14504407
-0.14485103 0.41059682 -0.49459505 0.22363564 -0.017946675 0.3150698 0.76652825 -0.4862467
-0.1293883 0.32985398 -0.36889595 -0.49646902 0.5180288 0.2868813 0.7806781 0.032606572
00000000: 90a3 e33e 304b d4be d013 363e ed25 b5be
00000010: ffaa ab3e 3ca7 c8bd 27f2 2a3f a239 b0be
00000020: 9349 2c3f 0e2c 8b3e ea0d 003f e8cf edbc
00000030: 69c3 103e 579c 1b3f d186 013f c0b9 d8bb
00000040: 78ad 86bd 0e20 8f3e 4d1e 1b3f 3704 b53e
00000050: 16f6 4ebe 4e7e 0dbd 4a04 3d3e 4e2a 33bf
00000060: b93f 05bf 9036 98bd 26b7 223e 81ab a2be
00000070: 948d 0a3f 7659 9d3e fa3b 463e 7ff4 373f
00000080: e064 ab3d 4e90 1dbf 16e3 263f 008a 343a
00000090: 2927 ecbe c7b7 e33e ec8c 5abe a269 583e
000000a0: f005 cc3d 2060 d03c 0633 0d3f 5694 3d3f
000000b0: f27e 993e a408 b7be 3be0 dcbd 6f86 143e
000000c0: d453 14be bf39 d23e 903b fdbe be00 653e
000000d0: e804 93bc d450 a13e 323b 443f 54f5 f8be
000000e0: 5e7e 04be 9fe2 a83e eedf bcbe 3031 febe
000000f0: 899d 043f 1be2 923e 85da 473f 788e 053d

onnx::Conv_225 f4 [64]
-0.41345048 0.251735 -0.25457928 0.20277041 -0.10280328 0.47564355 -0.08412457 0.7701308
0.14806944 -0.5929243 1.113797 -0.6837032 -0.41781706 1.0487633 0.3132099 0.120463416
0.50639987 0.72748995 0.18216977 0.44346154 -0.03363241 -0.042886585 0.6134192 -0.4112532
0.8335022 0.42078853 -0.060680017 0.20784 -0.13706264 0.5614842 -0.53293407 0.8795653
0.3041153 0.42934483 0.112220235 -0.54940754 0.24637589 0.18997397 0.4828981 0.92314285
-0.36267138 -0.1301757 0.14927793 0.86686635 -0.23052037 0.5674473 -0.6603627 -0.6456719
-0.25940225 0.89526206 0.35958385 -0.3585788 -0.3465883 0.18580522 -0.17904599 0.12749529
-0.3623602 -0.345004 -0.97590923 0.7433089 0.11379318 -0.24256337 0.36048615 -0.06829039
00000000: c8af d3be 69e3 803e 3758 82be 0ca3 4f3e
00000010: 878a d2bd 8d87 f33e 8149 acbd 4b27 453f
00000020: 849f 173e e3c9 17bf e690 8e3f 2c07 2fbf
00000030: 1eec d5be e03d 863f 0c5d a03e 86b5 f63d
00000040: 6ca3 013f c83c 3a3f b68a 3a3e 640d e33e
00000050: 23c2 09bd d8a9 2fbd 0a09 1d3f c88f d2be
00000060: 6660 553f 9871 d73e 9c8b 78bd 02d4 543e
00000070: 265a 0cbe 6ebd 0f3f 5e6e 08bf 312b 613f
00000080: 00b5 9b3e 16d3 db3e b9d3 e53d f9a5 0cbf
00000090: f649 7c3e 8988 423e 6b3e f73e 1753 6c3f
000000a0: 10b0 b9be c74c 05be 50dc 183e f4ea 5d3f
000000b0: 880d 6cbe 3a44 113f 880d 29bf c14a 25bf
000000c0: 5fd0 84be e52f 653f 601b b83e a497 b7be
000000d0: 0674 b1be b943 3e3e d557 37be 208e 023e
000000e0: 4787 b9be 5da4 b0be 30d5 79bf 7e49 3e3f
000000f0: 660c e93d 8862 78be a491 b83e d5db 8bbd

onnx::Conv_228 f4 [64]
-0.6477382 -0.39990827 0.17748335 -0.122271344 0.5221101 -0.06820011 0.23915386 0.31060642
-0.08162008 -0.08383222 -0.20572759 0.06004536 0.4504646 0.055359602 0.0046878904 -0.56646055
-0.9766346 -0.6879434 -0.5093466 0.40209746 -0.18906178 0.22532415 -0.8278234 0.25855443
-0.10418899 -0.12659937 0.0029783845 -0.43161032 -0.5160072 0.1613196 -0.26705086 -0.21764398
0.2596979 -0.91716284 0.104994416 0.24471666 -0.4422844 0.17703938 -0.018120468 -0.17181772
0.53711426 -0.33381692 -0.49407434 0.18084505 0.58228576 -0.23796917 -0.025729597 0.15336594
-0.89552116 0.20540057 -0.04254198 -0.47537643 -0.9819883 -0.70947945 0.62969416 -0.28380847
0.610116 0.7226194 -0.23918979 0.03530383 -0.22682911 -0.35551456 -0.33230817 -0.19955648
00000000: 2cd2 25bf c7c0 ccbe 32be 353e 6669 fabd
00000010: 02a9 053f 80ac 8bbd c0e4 743e ce07 9f3e
00000020: 6e28 a7bd 3ab0 abbd 41aa 52be 20f2 753d
00000030: 4ca3 e63e c0c0 623d e09c 993b 8f03 11bf
00000040: ba04 7abf 0f1d 30bf 8a64 02bf b8df cd3e
00000050: 6999 41be 60bb 663e 3cec 53bf 3f61 843e
00000060: 0a61 d5bd 44a3 01be 0031 433b 07fc dcbe
00000070: 0c19 04bf f730 253e e4ba 88be 10de 5ebe
00000080: 20f7 843e 2fcb 6abf 5007 d73d 0197 7a3e
00000090: 1a73 e2be d049 353e 6071 94bc fcf0 2fbe
000000a0: 5280 093f 0dea aabe 50f7 fcbe 722f 393e
000000b0: ae10 153f 31ae 73be e0c6 d2bc f60b 1d3e
000000c0: e040 65bf 8754 523e 8040 2ebd 8a64 f3be
000000d0: 9663 7bbf 72a0 35bf a333 213f 584f 91be
000000e0: 9030 1c3f 96fd 383f 2bee 74be c09a 103d
000000f0: e445 68be 0106 b6be 4c24 aabe 8958 4cbe

onnx::Conv_231 f4 [64]
0.69899285 -0.7793771 -0.37099206 -0.0020523816 -0.17521822 -0.30419743 0.3977407 -0.4571492
0.025365114 0.4355524 -0.23840845 0.035450816 0.51767564 0.14135414 -0.4784479 0.15228242
0.74911827 -0.5675899 -0.40139097 0.58440185 0.18392226 -0.61792934 0.5212008 1.0550723
-0.7431395 -0.6237737 0.14286804 0.48953876 -0.9030848 -0.59178364 -0.17512017 -0.14370663
-0.23019671 -0.35760906 -0.54198897 0.39833084 0.9302285 -0.28400213 -0.6616149 -0.5758985
0.7540247 0.823024 0.62891394 0.8470061 -0.22269093 0.59373546 -0.38430434 0.32907778
0.6403296 -0.18430129 -0.3346451 0.14907008 -1.3381051 0.5696776 -0.5473755 -0.54527485
-0.19372867 -0.25847 0.24738003 -1.1354103 -0.23725961 0.08928737 -0.29639813 -0.059402555
00000000: 32f1 323f 4285 47bf acf2 bdbe 4081 06bb
00000010: 686c 33be c4bf 9bbe aba4 cb3e 760f eabe
00000020: 80ca cf3c b900 df3e 5821 74be e034 113d
00000030: 6486 043f 24bf 103e 20f7 f4be ecef 1b3e
00000040: 37c6 3f3f 924d 11bf 1e83 cdbe 5c9b 153f
00000050: 1e56 3c3e 9e30 1ebf 6a6d 053f 9c0c 873f
00000060: 643e 3ebf a2af 1fbf 004c 123e d3a4 fa3e
00000070: 9130 67bf 227f 17bf b452 33be d527 13be
00000080: b0b8 6bbe 8918 b7be cabf 0abf 05f2 cb3e
00000090: 7423 6e3f ba68 91be 985f 29bf 166e 13bf
000000a0: c307 413f b3b1 523f 8100 213f 64d5 583f
000000b0: 1709 64be 0cff 173f 8ac3 c4be e27c a83e
000000c0: a4ec 233f 7ab9 3cbe 9a56 abbe d4a5 183e
000000d0: 0747 abbf 64d6 113f cd20 0cbf 2297 0bbf
000000e0: cf60 46be 2e56 84be 3151 7d3e 2055 91bf
000000f0: 2ff4 72be 4cdc b63d 7fc1 97be 1850 73bd

onnx::Conv_234 f4 [64]
-0.044822752 -0.34215656 0.20797497 -0.3544267 -0.62909347 -0.21434602 0.7035829 -0.38856003
-0.06079687 0.36667135 0.3362919 0.83530957 -0.58648956 0.08331458 0.31405768 -0.9232464
-0.01773125 0.15086803 -0.24310055 -0.7427886 -0.5365454 -0.19730444 0.3319267 -0.03007026
0.5634674 0.5235651 -0.034865856 -0.5054578 -0.24024078 0.39849067 -0.025378142 0.028126866
0.4351954 0.0665953 -0.42201105 -0.23580866 -1.0959083 -0.2916677 0.21726876 -0.6556958
-0.5533385 -0.44400498 0.41867554 0.5076707 0.44246602 -0.053720087 -0.54762197 -0.48253056
-0.10961126 -0.5853218 -0.5636753 -0.19897778 0.43331182 0.22608791 0.7232212 -0.14986357
0.13629048 -0.63979495 0.16855982 -0.455638 -0.8068335 -0.2856187 0.27319667 0.39155287
00000000: 1098 37bd 252f afbe 64f7 543e 6b77 b5be
00000010: 450c 21bf 867d 5bbe 021e 343f 57f1 c6be
00000020: 2406 79bd 59bc bb3e 742e ac3e d9d6 553f
00000030: 2e24 16bf d6a0 aa3d 2bcc a03e e059 6cbf
00000040: 2041 91bc 267d 1a3e 5aef 78be 6527 3ebf
00000050: 0a5b 09bf 2d0a 4abe 4cf2 a93e e855 f6bc
00000060: 663f 103f 5d08 063f 80cf 0ebd af65 01bf
00000070: ae01 76be f806 cc3e d2e5 cfbc 506a e63c
00000080: eed1 de3e 1e63 883d d511 d8be d377 71be
00000090: b946 8cbf 7855 95be b47b 5e3e aedb 27bf
000000a0: 98a7 0dbf 9f54 e3be a45c d63e b5f6 013f
000000b0: e88a e23e 9809 5cbd f430 0cbf 3f0e f7be
000000c0: de7b e0bd a6d7 15bf 064d 10bf d5c0 4bbe
000000d0: 0cdb dd3e 9783 673e 0625 393f d675 19be
000000e0: bb8f 0b3e 9ac9 23bf f29a 2c3e 6249 e9be
000000f0: a48c 4ebf 9d3c 92be 6fe0 8b3e 9e79 c83e

onnx::Conv_237 f4 [64]
-0.62642074 0.3426954 -0.11381027 0.85498816 0.8041793 0.0060075223 -0.2681368 -0.24803442
-0.10536187 0.08917175 -1.099109 -0.22561668 0.37717623 0.18573684 0.38093418 -0.33588845
-0.4565083 0.31906897 0.09028497 -0.51300013 -0.8469055 0.3818596 -0.38410875 -0.78518534
0.48141468 -0.07521603 -0.13815492 0.09972602 -0.09777632 -0.16759664 0.44187707 -0.15102692
0.34353817 -0.11602494 0.3073954 -0.34789035 0.79986805 -0.052051812 0.57273465 0.37450898
-0.29995537 0.47998303 0.2513774 0.6473559 0.19901617 0.868788 -0.8020124 -0.62091786
0.020308062 -0.5626307 -1.2537329 -0.246194 0.2115159 0.3052116 0.19703645 0.4944802
-0.15246063 -0.8596056 0.5246229 -0.012089342 -0.6050987 -0.09221649 0.28798637 0.43091208
00000000: 1c5d 20bf c575 af3e 5c15 e9bd 81e0 5a3f
00000010: b2de 4d3f c0da c43b 3a49 89be bcfc 7dbe
00000020: f7c7 d7bd ae9f b63d 9baf 8cbf 0f08 67be
00000030: 3e1d c13e cc31 3e3e ce09 c33e 92f9 abbe
00000040: 75bb e9be 025d a33e 54e7 b83d fa53 03bf
00000050: cdce 58bf 1a83 c33e e7a9 c4be e801 49bf
00000060: fc7b f63e dd0a 9abd 7c78 0dbe 283d cc3d
00000070: f43e c8bd 749e 2bbe b63d e23e cda6 1abe
00000080: 3ce4 af3e 7c9e edbd ee62 9d3e af1e b2be
00000090: 27c4 4c3f 4834 55bd bd9e 123f a4bf bf3e
000000a0: c093 99be 56c0 f53e 8ab4 803e 1eb9 253f
000000b0: e5ca 4b3e e468 5e3f af50 4dbf 79f4 1ebf
000000c0: 185d a63c 9108 10bf 527a a0bf 481a 7cbe
000000d0: a097 583e b244 9c3e ecc3 493e 822c fd3e
000000e0: a41e 1cbe 1d0f 5cbf b04d 063f 6012 46bc
000000f0: c0e7 1abf 00dc bcbd f372 933e 82a0 dc3e

onnx::Conv_240 f4 [64]
-0.24623418 -0.41072983 -1.1007801 -0.75496244 -0.30830854 0.046165377 0.27889323 -0.449331
-0.18601432 0.021882325 -0.009789228 -0.066314444 0.5594705 -0.036513988 -0.44348088 -0.3220862
-0.20706531 -0.0553599 -0.61144406 -0.24997683 0.012700215 0.0695872 -0.6125771 -0.42619336
-0.53729963 0.074062526 0.23817623 -0.06280232 0.346452 -0.0731446 0.18472195 -0.38233963
-0.5521781 0.108054996 0.21702911 0.17931879 0.115608156 0.08727877 0.25967127 0.038496584
0.7644658 -0.24003008 0.101282716 0.1814113 -0.6003303 0.37216115 0.09183939 0.04953985
-0.60995936 0.23018068 -0.1518949 -0.16098604 0.51486194 -0.020314693 0.055106014 -0.09901479
0.26261625 -0.12038137 0.06215185 -0.035556167 -0.59430635 0.12791345 0.4038059 0.33054876
00000000: d024 7cbe 2e4b d2be 5de6 8cbf 3845 41bf
00000010: 9eda 9dbe e817 3d3d 18cb 8e3e b60e e6be
00000020: 8a7a 3ebe 9042 b33c 0063 20bc decf 87bd
00000030: 7539 0f3f b18f 15bd ed0f e3be 7be8 a4be
00000040: ee08 54be 10c1 62bd 9987 1cbf edf9 7fbe
00000050: 9014 503c bc83 8e3d dad1 1cbf 0436 dabe
00000060: 788c 09bf 18ae 973d 78e4 733e 819e 80bd
00000070: 2862 b13e d6cc 95bd c027 3d3e 05c2 c3be
00000080: 8b5b 0dbf f04b dd3d e13c 5e3e 589f 373e
00000090: f8c3 ec3d 36bf b23d a2f3 843e 98ae 1d3d
000000a0: 08b4 433f 72ca 75be 506d cf3d e2c3 393e
000000b0: 3faf 19bf e88b be3e 4a16 bc3d 4cea 4a3d
000000c0: 4c26 1cbf 7cb4 6b3e 568a 1bbe 86d9 24be
000000d0: fecd 033f 006b a6bc d8b6 613d 44c8 cabd
000000e0: a375 863e 828a f6bd f092 7e3d 58a3 11bd
000000f0: 7624 18bf befb 023e a6bf ce3e b03d a93e

onnx::Conv_243 f4 [64]
0.30598253 0.028819129 -0.5850728 -0.7807108 -0.067479685 0.8034158 -0.62533975 -0.22722273
-0.42331338 0.2769819 0.48147905 0.44125396 -0.39024082 0.48167375 0.6484985 -0.13140705
0.1197478 -0.34201217 0.12054807 0.46213332 0.24583137 0.14098686 0.13327207 0.007985145
0.35755748 0.5209492 0.6733472 0.38230824 0.117099375 -0.2936046 0.10285503 0.927597
-0.9097383 0.37862265 0.65895766 -0.22928163 0.6005457 0.36195815 0.23067564 0.5011071
0.2165655 0.2777987 -0.73868585 0.02437137 -0.34686968 0.7194739 -0.22998497 -0.9365057
0.040593624 -0.6905402 0.31207305 -0.18310456 -0.1641332 0.16228032 -0.20804472 0.34022012
0.46333408 0.3211063 -0.6903116 -0.55820036 -0.7724414 -0.07272078 0.427053 -0.015317336
00000000: bea9 9c3e 1816 ec3c 55c7 15bf aadc 47bf
00000010: ca32 8abd a8ac 4d3f 4416 20bf 13ad 68be
00000020: 88bc d8be 92d0 8d3e 6c84 f63e 0aec e13e
00000030: a5cd c7be f19d f63e ff03 263f 928f 06be
00000040: 563e f53d 381c afbe e8e1 f63d bd9c ec3e
00000050: 38bb 7b3e dc5e 103e 7978 083e 20d4 023c
00000060: c611 b73e ed5c 053f 7b60 2c3f e8bd c33e
00000070: ccd1 ef3d 5853 96be a8a5 d23d ff76 6d3f
00000080: 9ce4 68bf d4da c13e 73b1 283f cec8 6abe
00000090: 5dbd 193f 9452 b93e 3c36 6c3e 8e48 003f
000000a0: 59c3 5d3e a23b 8e3e 841a 3dbf 78a6 c73c
000000b0: e798 b1be 712f 383f 2e81 6bbe d6be 6fbf
000000c0: 8045 263d 3ec7 30bf 0ac8 9f3e c37f 3bbe
000000d0: 8912 28be d02c 263e ad09 55be 5531 ae3e
000000e0: 203a ed3e 0c68 a43e 43b8 30bf 38e6 0ebf
000000f0: b8be 45bf a2ee 94bd b1a6 da3e 90f5 7abc

onnx::Conv_246 f4 [64]
0.21402736 -0.41081032 -0.19018233 0.0331942 -0.035144538 0.18675318 -0.7604268 0.07902636
0.20591378 -0.7415161 0.03230509 0.47881907 0.2049022 0.10155188 0.3844577 0.35390842
0.92702156 0.99978054 0.009154439 0.37120336 -0.42814854 0.80799496 -0.28094548 -0.15504979
0.06750253 0.6204926 0.16624919 0.21908271 -0.30004895 -0.10484154 -0.110612616 0.12484303
0.31037378 0.48936006 0.06195174 -0.020129874 -0.5022867 0.2549243 0.34309185 -0.051847726
0.44718418 0.77369004 -0.82800794 0.45137638 -0.43486735 -0.45570308 0.034150884 -0.29634398
-0.16708976 0.13319775 -0.3202397 -0.034470826 -0.2006974 0.39160287 0.08962156 -0.72741425
-0.24346124 0.1995979 0.427751 0.07047093 0.46306074 -0.107025355 0.5331299 0.25100267
00000000: fd29 5b3e bb55 d2be 28bf 42be a4f6 073d
00000010: b8f3 0fbd 3a3c 3f3e 55ab 42bf 92d8 a13d
00000020: 10db 523e 00d4 3dbf 5852 043d c627 f53e
00000030: e2d1 513e 6ffa cf3d a4d7 c43e 7c33 b53e
00000040: 4951 6d3f 9ef1 7f3f 80fc 153c 5e0e be3e
00000050: 4936 dbbe c2d8 4e3f 16d8 8fbe 5fc5 1ebe
00000060: c43e 8a3d 9ad8 1e3f 3a3d 2a3e 3857 603e
00000070: 04a0 99be 29b7 d6bd de88 e2bd b4ad ff3d
00000080: 50e9 9e3e 678d fa3e 1cc1 7d3d 68e7 a4bc
00000090: dc95 00bf 7085 823e bca9 af3e 485e 54bd
000000a0: 53f5 e43e 8d10 463f 54f8 53bf ce1a e73e
000000b0: efa6 debe ea51 e9be cce1 0b3d 66ba 97be
000000c0: 9419 2bbe fe64 083e 75f6 a3be 4831 0dbd
000000d0: 9f83 4dbe 2c80 c83e 828b b73d d237 3abf
000000e0: e74d 79be 6463 4c3e 2e02 db3e 1053 903d
000000f0: 4c16 ed3e 1c30 dbbd 337b 083f 6c83 803e

onnx::Conv_249 f4 [64]
1.134265 0.34014308 -0.7904989 -0.594965 0.28145346 -0.37179434 -1.0084558 -0.03646797
-0.23615262 -1.1460527 0.3030077 -0.41320962 0.23332591 0.419276 0.24920459 -0.14845268
0.7493626 -0.17517248 0.34949252 0.23758239 -0.067689374 0.352469 -0.77727586 1.0949177
-0.20948437 -0.19863191 -0.041847423 -0.02009708 -0.39323983 -0.14803113 0.49646646 -0.45569944
0.5642166 0.4664509 -0.42114887 0.5794883 -0.35961902 0.31609863 -0.6873003 0.037842542
0.34492886 0.5203389 -0.46401495 -0.18389675 0.48446798 -0.032980993 0.2149986 0.8527679
0.09312999 0.13596337 0.14737311 -0.38344142 0.08950859 -0.39137137 0.083768874 -0.6422813
0.59615934 -0.50171584 0.6558403 0.050201297 -0.21747708 -0.04644984 0.82252836 0.36896318
00000000: 982f 913f 3c27 ae3e 235e 4abf a04f 18bf
00000010: ab1a 903e d45b bebe 1415 81bf 705f 15bd
00000020: fed1 71be dbb1 92bf d323 9b3e 3690 d3be
00000030: fdec 6e3e 58ab d63e 7d2f 7f3e fb03 18be
00000040: 3ad6 3f3f 6a60 33be aff0 b23e cc48 733e
00000050: baa0 8abd d176 b43e 8dfb 46bf 4326 8c3f
00000060: 1283 56be 2a66 4bbe 3468 2bbd a2a2 a4bc
00000070: bb56 c9be 7995 17be da30 fe3e 7051 e9be
00000080: 8070 103f a7d2 ee3e d3a0 d7be 5859 143f
00000090: fc1f b8be aed7 a13e eaf2 2fbf c800 1b3d
000000a0: 849a b03e ee34 053f 5e93 edbe 6e4f 3cbe
000000b0: 300c f83e 1417 07bd 9828 5c3e ff4e 5a3f
000000c0: f0ba be3d fb39 0b3e fae8 163e 6f52 c4be
000000d0: 4850 b73d d461 c8be 048f ab3d 8c6c 24bf
000000e0: e69d 183f 7370 00bf 26e5 273f e09f 4d3d
000000f0: 50b2 5ebe 3042 3ebd 3891 523f bee8 bc3e

onnx::Conv_252 f4 [64]
0.6800916 -0.36602885 0.22564815 0.9644218 0.81880665 0.5334974 -0.20778129 -1.2139981
0.757144 -0.07843016 0.5754968 0.16871399 0.72709864 0.9424373 0.61957645 -0.09321584
-0.18610592 0.5823799 0.1796504 0.6559386 0.8345552 1.134654 -0.13427591 0.22130862
0.45387232 0.23684725 0.95718586 0.015157506 0.23682672 0.48987678 0.44236755 0.05936484
0.5411138 0.0050723404 0.33986747 0.13476138 -0.19307312 0.6663216 -0.12503299 0.23759504
0.4662535 0.3425225 -0.25190163 0.8559066 -0.5898198 -0.41792837 -0.03382182 0.6969744
0.7115613 0.3433185 0.45624793 -0.092739016 0.91934437 0.228439 -0.32251978 -0.33793014
0.24719268 0.46383047 0.2548454 0.27126908 0.7929678 0.37333867 -0.1766446 0.366816
00000000: 7c1a 2e3f 2268 bbbe 4f10 673e 59e4 763f
00000010: 509d 513f 4993 083f 9ec4 54be 4a64 9bbf
00000020: 30d4 413f fe9f a0bd c253 133f 5cc3 2c3e
00000030: 2323 3a3f 9243 713f 909c 1e3f f2e7 bebd
00000040: 8d92 3ebe d916 153f 46f6 373e 98eb 273f
00000050: 69a5 553f 583c 913f a07f 09be ba9e 623e
00000060: f461 e83e 1688 723e 220a 753f 3057 783c
00000070: b482 723e 21d1 fa3e 007e e23e 8c28 733d
00000080: 6f86 0a3f e035 a63b 1c03 ae3e e3fe 093e
00000090: f6b4 45be 0d94 2a3f a608 00be 1d4c 733e
000000a0: c7b8 ee3e 1c5f af3e 40f9 80be b21c 5b3f
000000b0: 6efe 16bf b5fa d5be c088 0abd ea6c 323f
000000c0: e228 363f 71c7 af3e 5499 e93e f4ed bdbd
000000d0: 275a 6b3f eaeb 693e 5021 a5be 2e05 adbe
000000e0: 1420 7d3e 307b ed3e 197b 823e c8e3 8a3e
000000f0: f0ff 4a3f 3f26 bf3e 52e2 34be 4fcf bb3e

onnx::Conv_255 f4 [64]
0.5002103 0.79812 0.4839034 -0.14292084 -0.121249855 0.32891825 0.023269951 0.56602144
-0.13154525 0.19803523 0.51450557 0.19216597 -0.09907624 -0.39421156 -0.7762393 0.1328316
-0.8364836 0.15411882 0.7142338 -0.4343204 0.05631271 -0.67876303 -0.3962194 0.6055447
0.03444168 -0.843361 -0.05909864 -0.25100058 -0.028973073 0.092199236 -0.13054988 -0.2643937
-0.17428343 -0.2852345 0.5218701 -0.61978924 -0.33951277 -0.27900976 -0.78606486 -0.872224
0.24612239 0.090030655 -0.2739695 -1.0707338 0.1539658 0.08558134 -0.5753426 -0.56505406
-0.5115292 0.6198569 -0.046091676 -0.6040802 -0.3848031 0.08030993 -0.12389846 -0.08904494
0.61542386 0.5857831 -0.07133004 0.10903162 0.32686624 -0.2798783 -0.024028659 0.2555625
00000000: c80d 003f 9851 4c3f 30c2 f73e d759 12be
00000010: d851 f8bd f967 a83e a0a0 be3c c8e6 103f
00000020: ccb3 06be bfc9 4a3e a3b6 033f 28c7 443e
00000030: 7ce8 cabd 19d6 c9be 9eb7 46bf 0205 083e
00000040: ca23 56bf 53d1 1d3e 07d8 363f 3e5f debe
00000050: 28a8 663d 6ac3 2dbf 45dd cabe fa04 1b3f
00000060: b812 0d3d 82e6 57bf 6a11 72bd 2683 80be
00000070: f058 edbc f4d2 bc3d deae 05be 9c5e 87be
00000080: 5b77 32be 420a 92be 4799 053f 82aa 1ebf
00000090: 9ed4 adbe 5eda 8ebe 8c3b 49bf 124a 5fbf
000000a0: 8207 7c3e fe61 b83d bb45 8cbe ce0d 89bf
000000b0: 36a9 1d3e 4545 af3d a749 13bf 62a7 10bf
000000c0: 94f3 02bf f1ae 1e3f a0ca 3cbd 00a5 1abf
000000d0: e904 c5be 8879 a43d 7abe fdbd 325d b6bd
000000e0: 6b8c 1d3f e2f5 153f 7c15 92bd f84b df3d
000000f0: 035b a73e 354c 8fbe c0d7 c4bc 17d9 823e

onnx::Conv_258 f4 [64]
0.38179404 -0.20538047 -0.06124565 1.0605508 -0.13340491 -0.06355794 -0.44192776 -0.1939274
0.264903 0.5095179 1.1317462 0.14944921 0.18964998 0.7089114 1.1931493 0.1634093
-0.05453235 0.7199874 0.12571318 0.30425438 0.3024854 0.5166959 -0.18112561 0.3624285
0.3654178 0.03524423 0.339135 0.42609054 0.48124516 0.4002769 1.1399287 -0.024635296
0.6577956 0.29493406 0.28043962 0.27599037 -0.10028618 0.9294522 0.05877748 -0.07813327
0.5346335 0.37282512 0.0702848 0.34452933 0.03928151 0.09806073 -0.16580798 0.21311402
0.34778947 0.46694484 0.15058146 0.15261836 0.50807077 0.05980454 0.2788861 0.31644928
0.9219501 1.0978255 0.18325163 0.38006276 0.77221584 0.374721 -0.964202 0.81700015
00000000: 827a c33e 424f 52be b8dc 7abd 21c0 873f
00000010: 4c9b 08be aa2a 82bd 5b44 e2be e894 46be
00000020: 5ea1 873e c46f 023f 0fdd 903f 3709 193e
00000030: 9b33 423e 387b 353f 1eb9 983f c454 273e
00000040: 505d 5fbd 1851 383f f5ba 003e 3bc7 9b3e
00000050: 5edf 9a3e 2f46 043f fe78 39be 3a90 b93e
00000060: 0b18 bb3e 415c 103d 1aa3 ad3e 8a28 da3e
00000070: c465 f63e 18f1 cc3e 2fe9 913f f6cf c9bc
00000080: 4b65 283f 9901 973e c895 8f3e 9c4e 8d3e
00000090: d762 cdbd 94f0 6d3f a8c0 703d 5604 a0bd
000000a0: bedd 083f efe2 be3e 7af1 8f3d 2666 b03e
000000b0: a6e5 203d 10d4 c83d 91c9 29be 903a 5a3e
000000c0: 7611 b23e 6513 ef3e 0732 1a3e fd47 1c3e
000000d0: ed10 023f 9bf5 743d 29ca 8e3e a405 a23e
000000e0: ec04 6c3f 8c85 8c3f 51a6 3b3e 9697 c23e
000000f0: f0af 453f 6edb bf3e f1d5 76bf ec26 513f

onnx::Conv_261 f4 [6]
0.46682906 -0.0161618 -0.020094484 0.4023796 0.8754773 0.67768675
00000000: 3804 ef3e c065 84bc 309d a4bc b304 ce3e
00000010: 481f 603f e17c 2d3f

onnx::Conv_264 f4 [3]
-0.97368616 0.1190151 -0.0764312
00000000: 7f43 79bf 30be f33d f687 9cbd

onnx::Conv_209_quantized u1 [64, 4, 3, 3]
137 99 140 133 126 137 111 113
121 144 151 87 110 119 129 135
105 136 145 129 107 88 131 113
109 127 129 105 98 140 92 86
117 154 93 165 137 125 135 117
137 151 141 129 130 137 134 134
131 85 59 102 87 99 84 119
130 116 76 97 113 141 142 138
137 113 133 104 99 135 102 110
151 131 112 118 116 121 124 120
128 106 102 144 116 99 143 101
87 147 117 142 128 127 129 143
132 122 100 110 128 174 148 157
109 145 136 134 127 147 130 131
125 133 133 126 110 114 106 140
131 156 147 105 135 132 146 132
116 114 154 143 134 117 95 143
132 148 116 119 145 159 117 96
117 114 124 110 140 130 126 100
115 107 88 152 114 166 147 116
120 140 116 146 139 132 124 114
134 122 138 104 117 76 88 98
105 93 138 132 113 114 133 132
136 138 109 140 155 110 99 75
95 89 72 132 65 84 129 105
121 144 113 97 135 136 104 136
172 114 124 148 125 103 68 128
119 115 139 108 151 133 140 136
135 118 79 83 116 82 70 91
58 92 133 164 140 131 117 116
116 83 113 133 71 145 143 188
144 134 181 144 137 155 138 143
00000000: 8963 8c85 7e89 6f71 7990 9757 6e77 8187
00000010: 6988 9181 6b58 8371 6d7f 8169 628c 5c56
00000020: 759a 5da5 897d 8775 8997 8d81 8289 8686
00000030: 8355 3b66 5763 5477 8274 4c61 718d 8e8a
00000040: 8971 8568 6387 666e 9783 7076 7479 7c78
00000050: 806a 6690 7463 8f65 5793 758e 807f 818f
00000060: 847a 646e 80ae 949d 6d91 8886 7f93 8283
00000070: 7d85 857e 6e72 6a8c 839c 9369 8784 9284
00000080: 7472 9a8f 8675 5f8f 8494 7477 919f 7560
00000090: 7572 7c6e 8c82 7e64 736b 5898 72a6 9374
000000a0: 788c 7492 8b84 7c72 867a 8a68 754c 5862
000000b0: 695d 8a84 7172 8584 888a 6d8c 9b6e 634b
000000c0: 5f59 4884 4154 8169 7990 7161 8788 6888
000000d0: ac72 7c94 7d67 4480 7773 8b6c 9785 8c88
000000e0: 8776 4f53 7452 465b 3a5c 85a4 8c83 7574
000000f0: 7453 7185 4791 8fbc 9086 b590 899b 8a8f

onnx::Conv_212_quantized u1 [64, 64, 3, 3]
110 117 97 124 101 120 123 112
119 96 85 119 64 96 103 154
113 86 123 151 61 138 114 136
93 98 134 115 117 90 143 60
173 135 93 81 100 95 108 95
159 131 123 145 97 131 132 121
173 123 92 143 124 106 113 105
98 137 94 99 97 85 103 112
111 103 124 171 100 89 76 126
104 97 109 134 123 105 90 132
138 99 131 84 113 141 109 86
124 122 127 114 142 121 85 151
107 106 105 108 117 69 112 166
116 140 98 110 78 89 73 103
133 92 90 132 125 132 99 78
81 95 77 106 108 118 148 104
130 123 94 101 94 85 132 147
148 81 98 93 133 72 85 118
93 109 61 120 122 102 144 110
89 90 111 121 92 62 125 122
123 108 122 134 84 108 159 101
149 121 92 134 84 80 119 126
124 77 119 123 84 143 74 120
148 109 108 113 101 100 119 106
118 112 123 107 154 127 158 141
111 131 174 145 144 109 75 78
136 73 124 81 119 102 145 136
109 95 117 114 133 118 136 124
109 136 99 39 129 97 119 82
106 122 104 94 102 138 109 107
138 123 118 108 113 113 99 113
133 112 147 108 97 101 136 91
00000000: 6e75 617c 6578 7b70 7760 5577 4060 679a
00000010: 7156 7b97 3d8a 7288 5d62 8673 755a 8f3c
00000020: ad87 5d51 645f 6c5f 9f83 7b91 6183 8479
00000030: ad7b 5c8f 7c6a 7169 6289 5e63 6155 6770
00000040: 6f67 7cab 6459 4c7e 6861 6d86 7b69 5a84
00000050: 8a63 8354 718d 6d56 7c7a 7f72 8e79 5597
00000060: 6b6a 696c 7545 70a6 748c 626e 4e59 4967
00000070: 855c 5a84 7d84 634e 515f 4d6a 6c76 9468
00000080: 827b 5e65 5e55 8493 9451 625d 8548 5576
00000090: 5d6d 3d78 7a66 906e 595a 6f79 5c3e 7d7a
000000a0: 7b6c 7a86 546c 9f65 9579 5c86 5450 777e
000000b0: 7c4d 777b 548f 4a78 946d 6c71 6564 776a
000000c0: 7670 7b6b 9a7f 9e8d 6f83 ae91 906d 4b4e
000000d0: 8849 7c51 7766 9188 6d5f 7572 8576 887c
000000e0: 6d88 6327 8161 7752 6a7a 685e 668a 6d6b
000000f0: 8a7b 766c 7171 6371 8570 936c 6165 885b

onnx::Conv_215_quantized u1 [64, 64, 3, 3]
116 132 113 115 152 141 135 127
163 155 113 143 109 103 146 115
99 153 122 142 151 111 178 155
120 151 115 119 80 108 126 129
140 95 121 125 137 118 126 167
141 127 133 115 132 128 109 124
159 139 161 133 126 92 117 123
90 119 128 113 121 114 146 103
121 114 112 130 118 100 121 141
110 68 139 111 99 120 111 116
132 101 132 117 149 111 125 114
110 122 126 112 96 132 138 123
112 128 152 129 129 85 165 135
128 125 124 74 120 119 85 108
112 109 78 163 149 125 115 135
142 147 93 139 113 103 123 127
114 131 119 134 115 86 81 126
128 130 84 128 131 110 112 132
135 136 111 138 151 103 104 129
131 143 104 93 133 132 137 142
114 118 126 127 146 130 145 87
63 97 160 107 134 146 136 106
83 125 162 110 112 86 87 99
105 107 107 104 115 98 112 112
88 121 130 130 98 142 131 95
113 107 112 154 111 96 124 95
105 127 86 109 144 101 128 151
127 139 145 143 135 138 106 112
106 113 121 114 137 141 149 115
121 143 131 140 137 142 138 97
130 101 82 120 133 99 115 118
139 120 128 146 108 117 96 120
00000000: 7484 7173 988d 877f a39b 718f 6d67 9273
00000010: 6399 7a8e 976f b29b 7897 7377 506c 7e81
00000020: 8c5f 797d 8976 7ea7 8d7f 8573 8480 6d7c
00000030: 9f8b a185 7e5c 757b 5a77 8071 7972 9267
00000040: 7972 7082 7664 798d 6e44 8b6f 6378 6f74
00000050: 8465 8475 956f 7d72 6e7a 7e70 6084 8a7b
00000060: 7080 9881 8155 a587 807d 7c4a 7877 556c
00000070: 706d 4ea3 957d 7387 8e93 5d8b 7167 7b7f
00000080: 7283 7786 7356 517e 8082 5480 836e 7084
00000090: 8788 6f8a 9767 6881 838f 685d 8584 898e
000000a0: 7276 7e7f 9282 9157 3f61 a06b 8692 886a
000000b0: 537d a26e 7056 5763 696b 6b68 7362 7070
000000c0: 5879 8282 628e 835f 716b 709a 6f60 7c5f
000000d0: 697f 566d 9065 8097 7f8b 918f 878a 6a70
000000e0: 6a71 7972 898d 9573 798f 838c 898e 8a61
000000f0: 8265 5278 8563 7376 8b78 8092 6c75 6078

onnx::Conv_218_quantized u1 [64, 64, 3, 3]
80 126 145 132 74 67 104 113
102 163 84 168 66 127 94 126
130 140 80 52 120 120 109 140
152 128 101 120 140 158 138 66
126 103 119 104 52 71 103 114
130 65 141 68 124 97 93 86
85 139 153 76 142 173 110 94
95 82 159 192 136 115 140 98
138 98 108 100 153 105 49 136
80 142 90 111 135 109 146 129
135 81 149 72 146 114 65 102
89 114 132 97 122 91 109 118
77 137 133 111 125 158 135 87
121 177 145 59 88 188 114 93
160 88 111 121 89 108 122 129
140 121 146 119 96 99 52 84
86 84 185 148 142 123 35 128
67 135 121 102 90 55 92 44
91 133 160 109 69 103 112 142
164 158 129 117 68 91 74 68
142 130 122 181 107 129 126 119
151 56 125 102 108 138 153 115
102 96 52 128 67 101 123 79
148 131 166 205 120 110 71 55
126 158 97 124 90 112 169 95
96 102 85 149 186 186 106 62
132 59 140 236 96 177 75 142
124 99 92 88 50 93 125 103
121 152 117 110 107 177 88 138
116 71 104 106 124 83 115 108
132 4 58 78 61 115 122 71
142 129 123 121 113 90 141 141
00000000: 507e 9184 4a43 6871 66a3 54a8 427f 5e7e
00000010: 828c 5034 7878 6d8c 9880 6578 8c9e 8a42
00000020: 7e67 7768 3447 6772 8241 8d44 7c61 5d56
00000030: 558b 994c 8ead 6e5e 5f52 9fc0 8873 8c62
00000040: 8a62 6c64 9969 3188 508e 5a6f 876d 9281
00000050: 8751 9548 9272 4166 5972 8461 7a5b 6d76
00000060: 4d89 856f 7d9e 8757 79b1 913b 58bc 725d
00000070: a058 6f79 596c 7a81 8c79 9277 6063 3454
00000080: 5654 b994 8e7b 2380 4387 7966 5a37 5c2c
00000090: 5b85 a06d 4567 708e a49e 8175 445b 4a44
000000a0: 8e82 7ab5 6b81 7e77 9738 7d66 6c8a 9973
000000b0: 6660 3480 4365 7b4f 9483 a6cd 786e 4737
000000c0: 7e9e 617c 5a70 a95f 6066 5595 baba 6a3e
000000d0: 843b 8cec 60b1 4b8e 7c63 5c58 325d 7d67
000000e0: 7998 756e 6bb1 588a 7447 686a 7c53 736c
000000f0: 8404 3a4e 3d73 7a47 8e81 7b79 715a 8d8d

onnx::Conv_221_quantized u1 [64, 64, 3, 3]
160 112 97 87 153 97 117 143
135 144 175 171 164 118 69 113
99 136 107 148 163 138 95 167
157 108 108 172 184 145 138 163
183 147 136 110 147 128 126 106
65 159 160 141 109 73 133 151
146 175 150 149 111 103 121 172
105 115 100 105 88 71 100 119
103 180 121 142 115 156 90 132
133 119 124 111 142 116 106 124
117 118 138 100 125 95 61 65
123 101 169 92 69 159 106 117
71 104 120 134 145 122 126 78
94 154 133 129 158 162 123 121
125 51 125 107 131 57 102 119
110 81 99 121 118 115 77 119
75 147 146 129 148 140 173 147
110 164 140 136 118 150 113 87
69 167 150 105 148 150 121 118
91 137 82 114 134 129 120 99
139 124 143 179 144 153 131 168
99 168 156 83 136 97 128 102
111 159 106 136 134 105 101 49
72 125 104 143 207 98 85 147
86 152 123 118 138 120 92 150
104 108 127 140 147 100 108 106
65 160 125 157 171 131 142 129
198 131 110 121 124 102 161 139
150 161 169 148 138 106 72 149
134 116 125 110 127 120 133 142
115 153 114 138 105 79 131 110
82 104 104 130 132 183 132 146
00000000: a070 6157 9961 758f 8790 afab a476 4571
00000010: 6388 6b94 a38a 5fa7 9d6c 6cac b891 8aa3
00000020: b793 886e 9380 7e6a 419f a08d 6d49 8597
00000030: 92af 9695 6f67 79ac 6973 6469 5847 6477
00000040: 67b4 798e 739c 5a84 8577 7c6f 8e74 6a7c
00000050: 7576 8a64 7d5f 3d41 7b65 a95c 459f 6a75
00000060: 4768 7886 917a 7e4e 5e9a 8581 9ea2 7b79
00000070: 7d33 7d6b 8339 6677 6e51 6379 7673 4d77
00000080: 4b93 9281 948c ad93 6ea4 8c88 7696 7157
00000090: 45a7 9669 9496 7976 5b89 5272 8681 7863
000000a0: 8b7c 8fb3 9099 83a8 63a8 9c53 8861 8066
000000b0: 6f9f 6a88 8669 6531 487d 688f cf62 5593
000000c0: 5698 7b76 8a78 5c96 686c 7f8c 9364 6c6a
000000d0: 41a0 7d9d ab83 8e81 c683 6e79 7c66 a18b
000000e0: 96a1 a994 8a6a 4895 8674 7d6e 7f78 858e
000000f0: 7399 728a 694f 836e 5268 6882 84b7 8492

onnx::Conv_224_quantized u1 [64, 64, 3, 3]
116 150 99 128 148 75 132 153
124 130 110 160 144 128 127 111
89 99 103 162 141 145 134 174
124 133 135 92 81 116 107 103
127 95 93 100 147 155 149 146
161 143 163 142 109 124 175 74
117 114 107 97 134 90 148 138
141 142 180 131 147 133 134 91
109 133 138 179 134 134 134 126
170 154 102 133 108 113 145 145
91 151 134 131 133 106 145 123
113 83 107 126 106 138 155 128
140 176 105 137 100 107 124 141
131 183 183 115 162 92 58 129
89 104 141 195 145 162 85 151
110 177 120 164 144 123 80 115
72 116 130 124 114 150 125 107
130 154 126 140 110 132 120 103
107 146 91 119 144 110 105 147
103 159 139 136 123 136 154 105
150 72 146 106 126 144 120 76
109 159 102 129 111 137 145 94
167 91 153 126 120 117 123 112
130 92 158 101 90 110 153 144
109 128 163 118 139 150 97 177
110 100 122 112 144 95 80 153
115 110 86 75 115 74 136 86
164 146 147 94 120 138 117 90
129 117 109 115 213 141 122 142
83 104 102 107 160 156 134 72
83 129 109 132 138 132 146 135
151 162 145 132 101 154 78 130
00000000: 7496 6380 944b 8499 7c82 6ea0 9080 7f6f
00000010: 5963 67a2 8d91 86ae 7c85 875c 5174 6b67
00000020: 7f5f 5d64 939b 9592 a18f a38e 6d7c af4a
00000030: 7572 6b61 865a 948a 8d8e b483 9385 865b
00000040: 6d85 8ab3 8686 867e aa9a 6685 6c71 9191
00000050: 5b97 8683 856a 917b 7153 6b7e 6a8a 9b80
00000060: 8cb0 6989 646b 7c8d 83b7 b773 a25c 3a81
00000070: 5968 8dc3 91a2 5597 6eb1 78a4 907b 5073
00000080: 4874 827c 7296 7d6b 829a 7e8c 6e84 7867
00000090: 6b92 5b77 906e 6993 679f 8b88 7b88 9a69
000000a0: 9648 926a 7e90 784c 6d9f 6681 6f89 915e
000000b0: a75b 997e 7875 7b70 825c 9e65 5a6e 9990
000000c0: 6d80 a376 8b96 61b1 6e64 7a70 905f 5099
000000d0: 736e 564b 734a 8856 a492 935e 788a 755a
000000e0: 8175 6d73 d58d 7a8e 5368 666b a09c 8648
000000f0: 5381 6d84 8a84 9287 97a2 9184 659a 4e82

onnx::Conv_227_quantized u1 [64, 64, 3, 3]
152 167 116 101 169 155 124 122
160 140 148 103 112 99 147 116
138 109 91 92 146 178 145 105
161 138 148 128 146 157 132 94
134 139 159 134 112 142 173 99
109 151 93 96 157 118 135 130
127 108 116 119 150 146 127 157
132 152 128 101 95 131 142 115
94 141 120 144 157 127 140 72
125 163 81 159 86 79 127 130
118 203 124 174 122 111 89 130
111 109 172 152 119 159 121 142
135 181 153 136 82 144 146 153
126 136 65 129 142 135 130 113
101 143 140 133 163 199 173 188
110 107 134 142 142 116 140 117
141 129 128 98 120 132 119 129
118 117 166 138 158 126 162 165
143 122 145 151 121 109 160 167
128 116 145 155 155 132 155 104
143 133 132 155 145 139 114 134
136 157 153 161 154 167 170 126
168 117 134 122 162 135 171 160
152 146 134 122 110 157 120 112
123 113 143 139 111 114 136 162
133 136 119 121 118 131 108 136
108 141 147 131 108 158 134 129
124 123 154 120 134 128 116 100
134 147 108 114 135 125 122 158
147 113 116 118 147 131 139 171
108 157 169 169 116 101 144 145
134 191 113 139 135 119 152 133
00000000: 98a7 7465 a99b 7c7a a08c 9467 7063 9374
00000010: 8a6d 5b5c 92b2 9169 a18a 9480 929d 845e
00000020: 868b 9f86 708e ad63 6d97 5d60 9d76 8782
00000030: 7f6c 7477 9692 7f9d 8498 8065 5f83 8e73
00000040: 5e8d 7890 9d7f 8c48 7da3 519f 564f 7f82
00000050: 76cb 7cae 7a6f 5982 6f6d ac98 779f 798e
00000060: 87b5 9988 5290 9299 7e88 4181 8e87 8271
00000070: 658f 8c85 a3c7 adbc 6e6b 868e 8e74 8c75
00000080: 8d81 8062 7884 7781 7675 a68a 9e7e a2a5
00000090: 8f7a 9197 796d a0a7 8074 919b 9b84 9b68
000000a0: 8f85 849b 918b 7286 889d 99a1 9aa7 aa7e
000000b0: a875 867a a287 aba0 9892 867a 6e9d 7870
000000c0: 7b71 8f8b 6f72 88a2 8588 7779 7683 6c88
000000d0: 6c8d 9383 6c9e 8681 7c7b 9a78 8680 7464
000000e0: 8693 6c72 877d 7a9e 9371 7476 9383 8bab
000000f0: 6c9d a9a9 7465 9091 86bf 718b 8777 9885

onnx::Conv_230_quantized u1 [64, 64, 3, 3]
116 111 81 123 126 128 96 150
121 115 139 151 128 141 123 96
132 109 94 91 140 111 73 127
110 128 127 130 154 90 122 127
96 138 132 90 137 121 127 119
94 137 105 125 91 84 97 91
78 90 70 114 125 98 109 138
145 100 112 124 110 64 131 90
104 114 111 122 134 62 100 101
139 125 124 127 96 145 122 157
160 108 105 115 116 139 164 128
155 152 100 114 129 135 91 101
113 122 105 87 115 136 156 118
140 103 178 105 64 103 111 120
132 106 110 135 113 105 125 129
136 136 137 123 121 100 110 101
136 118 107 99 122 108 103 117
135 104 92 82 108 110 116 120
103 99 141 107 165 111 149 112
110 108 122 103 112 98 142 96
116 101 93 98 139 87 115 108
94 88 142 110 120 117 97 101
109 113 67 100 102 144 133 123
110 114 125 130 102 111 114 127
110 133 114 131 96 124 110 99
111 84 113 103 120 86 104 89
121 124 90 140 107 114 114 137
96 109 115 81 101 127 141 109
102 103 138 107 90 104 105 109
127 97 114 141 118 130 109 99
97 152 125 101 141 101 134 110
82 83 80 106 113 148 143 122
00000000: 746f 517b 7e80 6096 7973 8b97 808d 7b60
00000010: 846d 5e5b 8c6f 497f 6e80 7f82 9a5a 7a7f
00000020: 608a 845a 8979 7f77 5e89 697d 5b54 615b
00000030: 4e5a 4672 7d62 6d8a 9164 707c 6e40 835a
00000040: 6872 6f7a 863e 6465 8b7d 7c7f 6091 7a9d
00000050: a06c 6973 748b a480 9b98 6472 8187 5b65
00000060: 717a 6957 7388 9c76 8c67 b269 4067 6f78
00000070: 846a 6e87 7169 7d81 8888 897b 7964 6e65
00000080: 8876 6b63 7a6c 6775 8768 5c52 6c6e 7478
00000090: 6763 8d6b a56f 9570 6e6c 7a67 7062 8e60
000000a0: 7465 5d62 8b57 736c 5e58 8e6e 7875 6165
000000b0: 6d71 4364 6690 857b 6e72 7d82 666f 727f
000000c0: 6e85 7283 607c 6e63 6f54 7167 7856 6859
000000d0: 797c 5a8c 6b72 7289 606d 7351 657f 8d6d
000000e0: 6667 8a6b 5a68 696d 7f61 728d 7682 6d63
000000f0: 6198 7d65 8d65 866e 5253 506a 7194 8f7a

onnx::Conv_233_quantized u1 [64, 64, 3, 3]
138 115 130 70 106 151 156 110
142 127 132 99 125 156 183 126
139 113 50 154 91 106 169 86
143 104 138 216 139 98 122 154
129 110 146 63 119 77 141 79
125 125 130 124 147 133 135 150
125 158 108 102 150 136 132 94
125 127 126 113 181 80 101 131
108 127 90 155 125 134 139 131
110 113 140 113 78 106 68 78
136 163 164 116 123 175 67 132
148 124 101 86 89 109 131 181
111 104 139 132 124 193 138 135
140 75 158 139 96 109 123 85
162 155 71 109 224 136 49 78
135 100 85 181 173 140 124 123
110 145 132 110 165 43 166 104
134 137 107 98 128 92 185 166
159 90 149 149 141 158 114 181
73 179 178 140 164 158 124 159
139 109 126 123 164 120 147 153
139 87 166 95 142 134 122 68
181 90 142 57 133 166 165 119
205 162 146 78 169 75 103 108
148 61 95 105 154 146 108 119
102 162 98 99 128 77 204 102
109 152 83 141 137 122 123 111
111 90 185 138 150 122 83 98
114 99 107 175 120 86 187 75
136 146 114 155 107 92 144 105
68 128 127 122 78 165 119 105
89 74 46 138 106 148 165 141
00000000: 8a73 8246 6a97 9c6e 8e7f 8463 7d9c b77e
00000010: 8b71 329a 5b6a a956 8f68 8ad8 8b62 7a9a
00000020: 816e 923f 774d 8d4f 7d7d 827c 9385 8796
00000030: 7d9e 6c66 9688 845e 7d7f 7e71 b550 6583
00000040: 6c7f 5a9b 7d86 8b83 6e71 8c71 4e6a 444e
00000050: 88a3 a474 7baf 4384 947c 6556 596d 83b5
00000060: 6f68 8b84 7cc1 8a87 8c4b 9e8b 606d 7b55
00000070: a29b 476d e088 314e 8764 55b5 ad8c 7c7b
00000080: 6e91 846e a52b a668 8689 6b62 805c b9a6
00000090: 9f5a 9595 8d9e 72b5 49b3 b28c a49e 7c9f
000000a0: 8b6d 7e7b a478 9399 8b57 a65f 8e86 7a44
000000b0: b55a 8e39 85a6 a577 cda2 924e a94b 676c
000000c0: 943d 5f69 9a92 6c77 66a2 6263 804d cc66
000000d0: 6d98 538d 897a 7b6f 6f5a b98a 967a 5362
000000e0: 7263 6baf 7856 bb4b 8892 729b 6b5c 9069
000000f0: 4480 7f7a 4ea5 7769 594a 2e8a 6a94 a58d

onnx::Conv_236_quantized u1 [64, 64, 3, 3]
122 149 112 57 104 139 0 116
131 89 99 93 95 127 112 158
76 128 81 121 166 51 153 81
141 155 181 140 138 137 64 132
146 161 99 129 50 127 68 72
170 113 127 121 186 156 93 161
132 70 110 56 97 101 87 86
163 133 158 107 102 120 167 127
120 82 78 118 97 126 81 122
73 73 184 110 102 74 122 152
96 103 138 172 81 141 179 140
142 195 53 93 100 123 99 82
141 106 128 75 90 135 82 60
93 132 87 112 119 106 159 120
95 116 107 85 91 151 129 73
133 105 107 140 107 96 115 72
112 128 108 158 111 135 115 132
132 41 99 129 165 115 146 102
122 125 134 111 146 137 119 135
53 105 75 131 146 120 134 80
110 133 138 153 95 74 57 141
100 177 137 88 191 191 108 117
155 181 74 131 210 108 207 97
97 138 102 108 89 96 136 79
82 91 144 100 139 103 71 124
110 64 117 122 121 108 113 15
164 102 118 187 150 158 116 113
104 150 121 132 126 77 119 109
93 134 150 87 107 149 118 154
140 163 153 130 88 171 112 63
104 54 150 129 217 166 192 122
84 130 92 86 109 164 140 83
00000000: 7a95 7039 688b 0074 8359 635d 5f7f 709e
00000010: 4c80 5179 a633 9951 8d9b b58c 8a89 4084
00000020: 92a1 6381 327f 4448 aa71 7f79 ba9c 5da1
00000030: 8446 6e38 6165 5756 a385 9e6b 6678 a77f
00000040: 7852 4e76 617e 517a 4949 b86e 664a 7a98
00000050: 6067 8aac 518d b38c 8ec3 355d 647b 6352
00000060: 8d6a 804b 5a87 523c 5d84 5770 776a 9f78
00000070: 5f74 6b55 5b97 8149 8569 6b8c 6b60 7348
00000080: 7080 6c9e 6f87 7384 8429 6381 a573 9266
00000090: 7a7d 866f 9289 7787 3569 4b83 9278 8650
000000a0: 6e85 8a99 5f4a 398d 64b1 8958 bfbf 6c75
000000b0: 9bb5 4a83 d26c cf61 618a 666c 5960 884f
000000c0: 525b 9064 8b67 477c 6e40 757a 796c 710f
000000d0: a466 76bb 969e 7471 6896 7984 7e4d 776d
000000e0: 5d86 9657 6b95 769a 8ca3 9982 58ab 703f
000000f0: 6836 9681 d9a6 c07a 5482 5c56 6da4 8c53

onnx::Conv_239_quantized u1 [64, 64, 3, 3]
166 157 153 167 145 157 147 153
134 187 155 142 146 140 164 115
130 140 139 164 167 148 133 123
153 145 144 167 171 140 180 161
151 145 148 117 150 141 148 145
154 163 142 156 165 178 153 162
153 162 133 154 147 136 188 142
142 130 144 129 149 144 155 136
149 150 154 143 183 126 131 154
135 158 137 145 115 155 116 143
140 169 151 158 135 158 137 146
117 146 175 178 194 151 143 164
108 140 170 169 164 160 149 141
161 150 152 160 159 158 153 157
146 130 170 142 128 135 150 162
117 168 137 158 144 136 141 160
139 154 146 153 136 140 125 171
160 132 129 154 151 130 137 171
176 171 151 157 129 125 129 134
128 162 129 130 147 168 160 157
153 154 176 128 149 155 139 144
132 152 112 155 128 117 143 160
132 159 140 139 176 153 144 142
127 136 155 123 151 106 125 145
153 148 160 128 140 163 169 162
178 143 158 150 121 180 148 150
144 133 142 150 135 167 162 151
162 152 158 142 157 158 153 155
167 117 150 155 144 133 180 145
160 160 132 130 163 172 180 157
150 153 150 146 129 163 147 152
176 161 124 155 161 148 153 137
00000000: a69d 99a7 919d 9399 86bb 9b8e 928c a473
00000010: 828c 8ba4 a794 857b 9991 90a7 ab8c b4a1
00000020: 9791 9475 968d 9491 9aa3 8e9c a5b2 99a2
00000030: 99a2 859a 9388 bc8e 8e82 9081 9590 9b88
00000040: 9596 9a8f b77e 839a 879e 8991 739b 748f
00000050: 8ca9 979e 879e 8992 7592 afb2 c297 8fa4
00000060: 6c8c aaa9 a4a0 958d a196 98a0 9f9e 999d
00000070: 9282 aa8e 8087 96a2 75a8 899e 9088 8da0
00000080: 8b9a 9299 888c 7dab a084 819a 9782 89ab
00000090: b0ab 979d 817d 8186 80a2 8182 93a8 a09d
000000a0: 999a b080 959b 8b90 8498 709b 8075 8fa0
000000b0: 849f 8c8b b099 908e 7f88 9b7b 976a 7d91
000000c0: 9994 a080 8ca3 a9a2 b28f 9e96 79b4 9496
000000d0: 9085 8e96 87a7 a297 a298 9e8e 9d9e 999b
000000e0: a775 969b 9085 b491 a0a0 8482 a3ac b49d
000000f0: 9699 9692 81a3 9398 b0a1 7c9b a194 9989

onnx::Conv_242_quantized u1 [64, 64, 3, 3]
62 52 73 65 45 64 62 69
60 59 64 56 56 56 60 66
38 62 57 82 62 62 82 57
67 52 49 81 70 57 51 58
61 77 48 55 64 98 76 57
67 68 68 50 64 70 68 72
72 49 50 55 57 54 60 67
61 65 45 72 50 58 66 64
55 57 62 63 66 72 58 63
46 75 58 65 57 68 61 53
55 55 54 63 51 56 88 55
71 68 78 62 64 40 54 64
79 64 67 57 72 69 66 57
40 41 64 75 53 63 70 56
67 70 63 57 60 78 61 77
77 76 61 65 67 57 53 50
81 51 56 70 60 51 64 78
76 74 38 53 56 77 56 54
66 78 77 71 67 58 71 57
50 77 75 68 71 58 47 87
71 64 74 84 71 59 66 78
73 43 76 68 59 84 68 67
74 65 58 72 64 59 65 65
60 51 54 50 75 79 56 48
56 67 61 45 66 74 54 63
67 58 71 56 62 68 58 69
94 57 74 56 54 61 63 59
48 80 53 61 69 61 54 74
62 67 73 48 80 79 77 60
57 53 73 63 46 74 59 61
55 52 55 63 84 61 57 53
47 53 57 48 79 65 88 76
00000000: 3e34 4941 2d40 3e45 3c3b 4038 3838 3c42
00000010: 263e 3952 3e3e 5239 4334 3151 4639 333a
00000020: 3d4d 3037 4062 4c39 4344 4432 4046 4448
00000030: 4831 3237 3936 3c43 3d41 2d48 323a 4240
00000040: 3739 3e3f 4248 3a3f 2e4b 3a41 3944 3d35
00000050: 3737 363f 3338 5837 4744 4e3e 4028 3640
00000060: 4f40 4339 4845 4239 2829 404b 353f 4638
00000070: 4346 3f39 3c4e 3d4d 4d4c 3d41 4339 3532
00000080: 5133 3846 3c33 404e 4c4a 2635 384d 3836
00000090: 424e 4d47 433a 4739 324d 4b44 473a 2f57
000000a0: 4740 4a54 473b 424e 492b 4c44 3b54 4443
000000b0: 4a41 3a48 403b 4141 3c33 3632 4b4f 3830
000000c0: 3843 3d2d 424a 363f 433a 4738 3e44 3a45
000000d0: 5e39 4a38 363d 3f3b 3050 353d 453d 364a
000000e0: 3e43 4930 504f 4d3c 3935 493f 2e4a 3b3d
000000f0: 3734 373f 543d 3935 2f35 3930 4f41 584c
