models/alphazero/alphazero_2026_02_05_21_21_17/main.pt (torch, 67532 bytes, 93 tensors)

startBlock.0.weight f4 [6, 4, 3, 3]
00000000: 2d0d b73d e3cb 10be 3ae2 9b3d 6261 933d
00000010: 1163 513d 2d42 e23d c7ca 5dbc 76a7 0fbe
00000020: 42dc 27bc 13e1 8b3d 7f1d adbb 9f05 06be
00000030: 5136 113d d8a1 56bc 2c13 793d 2ae7 9c3d
00000040: d438 08be bd6f e63d 571e eabd 149e f43d
00000050: 5da2 8abd c95b 633d 5158 7bbd b0a3 cebc
00000060: 9ec1 00be 4900 ab3d 8737 ffbd fd2c e1bd
00000070: fe91 90bd 4ff4 d83d 4258 8bbc cfc2 02be
00000080: ee74 1d3e 2148 863d 042c 1cbe edd2 233e
00000090: 729c febd 6476 153e 490f 15be d623 17be
000000a0: a7e3 d2bd be62 b93d d386 133e 04d2 8dbd
000000b0: 23c6 6bbd db5a 333e 5268 cfbd 0c7b 243d
000000c0: c1ea 19be 0152 373d a802 143e 04fb 92bd
000000d0: 4633 fabd 095a c23c 7b13 09be d821 f13d
000000e0: d720 613d ed2b 9bbb 9087 9bbd 9573 f83d
000000f0: 3253 95bc e5cd 2c3e b8bb b8bd 3cc0 1e3e
00000100: ed3c c73d d78e 083d 7759 d73d daeb 03be
00000110: 9c8d e43c dea9 8fbd d79c cf3d 175d b23d
00000120: 6b00 843d 7720 03bd ab9d 4b3d 28c9 19bd
00000130: b37d a1bd 3fd2 bbbd 7c82 443d e826 9fbd
00000140: c435 2bbd 3012 163e 0364 b63d 02f2 8abd
00000150: e61b 793d 65c5 463d bad9 8abd bd22 fa3b
00000160: 3ac9 133e 72c6 783d e46b 123e f2d5 bdbd
00000170: 68f2 afbd 2008 43bd 4032 313e 32d6 a1bc
00000180: 2a0f 1e3e f3b0 b0bc 5fdd 23be 631c 1d3e
00000190: ffb2 92bd 8caa eb3d 1dcc 303d 77b1 4aba
000001a0: 2043 0c3e a60d 3c3c 424c 003c 262e 00bc
000001b0: 4127 f8bd d459 cfbd 5edc dc3c 62ed 93bc
000001c0: 92a5 9d3d 20f5 a43b 2a65 f9bd 41b8 a4bd
000001d0: d005 f63d d374 a0bc 16e6 2fbe d083 b5bd
000001e0: 792e b0bd 22eb 853c 67e1 1e3e 2878 50bd
000001f0: d519 5d3c bc03 26bd 94b3 343d f158 3a3e
00000200: b539 1bbd 7acc 0b3e 325a 21be f100 e6bd
00000210: ea28 0a3e f713 1a3e b589 90bd 8612 303e
00000220: e8e1 b0bd e0bb 0c3e 2c15 1fbe 3035 043e
00000230: 5e9b 87bd 531c 44bc 57fe 06be 709c d1bd
00000240: 2912 a5bb 8311 a53d 89d8 eb3d 5ec6 073d
00000250: ca05 aa3c 190c f5bd fbab 09be f08e 9abd
00000260: 1f0e 263c cf9c e1bc e814 21be 6c3c 1f3c
00000270: 1cc1 08be f3de 043d ef18 893d 7c97 1f3e
00000280: b094 a2bd 0319 c53d 0ffd 28be 23e5 74bc
00000290: 4539 03be 0e0e 3ebc 5226 bb3c a65d 6dbd
000002a0: c14a ab3d ad49 4abd e9ff a2bd 1830 3bbe
000002b0: 1b8a 5d3d 64c5 ffbd 3415 323c ad90 ee3d
000002c0: eda6 d7bc 9520 ff3d 2dc3 97bd f025 07be
000002d0: bdb6 b73d 1c5c 5c3c fc97 95bd e6c1 143e
000002e0: 492d 16be e32b 24bd 7a09 653d bef9 e33d
000002f0: 20c1 a73c 90ce 763b 584e fbbd 9e69 a93c
00000300: bc51 efbd dd20 ecbd 874d c1bd 75d0 07be
00000310: 6143 7f3d 285f 0a3e 0e7d 443c 2dfe ac3d
00000320: 4c08 70bc da89 e6bd ef6a 0cbe 4cbc 5cbd
00000330: 7501 0f3e 165d bcb7 ad42 873d b55b f33d
00000340: 40cb b83d 384b 90bd 3950 95bd e61a ad3d
00000350: 864a e8bc f464 e33d aabf 05be 3f00 91bd
0.0893806 -0.14140277 0.07611509 0.07196309 0.051119868 0.11047778 -0.013537115 -0.14028725
-0.010245385 0.06830039 -0.005283057 -0.13088082 0.03545219 -0.01310011 0.0608093 0.076612785
-0.13302928 0.11251781 -0.11431568 0.119442135 -0.067692496 0.055507455 -0.061363522 -0.025224537
-0.12573859 0.08349664 -0.12461763 -0.10994909 -0.07059096 0.10593473 -0.017009858 -0.12769626
0.15376636 0.06556726 -0.15251166 0.1599843 -0.12432183 0.14595944 -0.14556612 -0.14759764
-0.102973275 0.09052037 0.144069 -0.06924823 -0.057562005 0.17515127 -0.101273194 0.04015641
-0.15030958 0.04475594 0.14454138 -0.07176784 -0.12216811 0.023724573 -0.13386337 0.11774033
0.05496296 -0.004735461 -0.07594216 0.121314205 -0.018228147 0.16875418 -0.090201795 0.15503019
0.097284175 0.033339348 0.10515111 -0.12882939 0.027899556 -0.070148215 0.10137337 0.08709162
0.06445392 -0.032013383 0.04971091 -0.037545353 -0.07885303 -0.09170961 0.047976002 -0.07771093
-0.04179932 0.14655375 0.089057945 -0.067844406 0.06081762 0.048528094 -0.06779809 0.0076335357
0.1443223 0.060736127 0.1429897 -0.092693225 -0.08591157 -0.04761517 0.17304325 -0.019755457
0.15435472 -0.021568751 -0.16002415 0.1534286 -0.07163047 0.115071386 0.043163408 -0.0007732133
0.13697481 0.011477863 0.007830681 -0.007823503 -0.12116862 -0.10124555 0.026960548 -0.018057529
0.07697596 0.005034104 -0.12177499 -0.08042956 0.120128274 -0.019586956 -0.17177615 -0.08863032
-0.08602614 0.016347472 0.15515672 -0.05089584 0.013494928 -0.040530905 0.04411657 0.18197991
-0.03789683 0.1365222 -0.15757063 -0.11230648 0.1349217 0.15046678 -0.070575155 0.17194566
-0.08636838 0.13743544 -0.1553542 0.12910914 -0.06621431 -0.011969644 -0.1318296 -0.10234916
-0.0050375652 0.08059981 0.1151591 0.033148162 0.020754714 -0.11965198 -0.13444512 -0.075467944
0.010135203 -0.027540592 -0.15730631 0.009718996 -0.13354915 0.032439183 0.06694209 0.1558513
-0.07938516 0.09623911 -0.16502784 -0.014947209 -0.12814815 -0.011600031 0.022845421 -0.05795064
0.083638676 -0.04938667 -0.07958967 -0.18280065 0.054086786 -0.12488821 0.010869313 0.116486885
-0.026324714 0.124573864 -0.07410274 -0.13198066 0.089704014 0.013449695 -0.07304379 0.14527091
-0.14665712 -0.040080916 0.05591724 0.11131619 0.020477831 0.0037659742 -0.12270802 0.020680245
-0.116855115 -0.11529706 -0.09438615 -0.13263114 0.062320117 0.13512862 0.011992706 0.08446918
-0.014650416 -0.11256762 -0.13712667 -0.05389051 0.139654 -2.2454693e-05 0.06604514 0.11882726
0.09023142 -0.07045597 -0.07290692 0.08452396 -0.028355848 0.1110324 -0.13061395 -0.07080125

startBlock.0.bias f4 [6]
00000000: da6f 0dba 0ed7 76b8 4fa1 42bb 04f1 583a
00000010: 5310 b4b9 707b 8abb
-0.00053953903 -5.8851256e-05 -0.0029698198 0.000827566 -0.00034344438 -0.0042261407

startBlock.1.weight f4 [6]
00000000: e026 733f 31c9 753f 9706 7b3f 224b 733f
00000010: 5693 6e3f 21f0 7b3f
0.94981194 0.9601012 0.9805693 0.9503652 0.93193567 0.9841328

startBlock.1.bias f4 [6]
00000000: 1b54 30bc c166 c63c 36f4 883d 06a7 aa3c
00000010: f4f2 353d e370 57bc
-0.01076224 0.024218919 0.066872045 0.020831596 0.04442115 -0.013149473

startBlock.1.running_mean f4 [6]
00000000: f796 18bd 8b1e a038 ae3f 013d a32d f2bc
00000010: 28d5 26be 4d89 17bd
-0.037253346 7.6350836e-05 0.03155487 -0.029562777 -0.1629225 -0.036996175

startBlock.1.running_var f4 [6]
00000000: 52df 1e3d 4993 4e3d 44a0 393d beda 243d
00000010: d9b8 4c3d 353c 3b3d
0.038787194 0.05043343 0.045318857 0.04024767 0.049980972 0.045711715

backBone.0.conv1.weight f4 [6, 6, 3, 3]
00000000: 94a2 d93d 0af0 b33d 5f98 7d3d 24d7 c13c
00000010: f8c0 e83b c5d6 fabd 32ea 5fbd a182 b53d
00000020: e171 f8bd 55cb d63d 37aa 053c 9f06 f73d
00000030: b273 0fbe 58f2 b73b 2aeb 623d 7cef 40bd
00000040: 1bc3 ffbd 82a1 eabc a320 9abc 54de a23d
00000050: b9cf 153d 6f0a 953c 88c8 f2bd bd09 c83d
00000060: d873 033e 0243 2dbc d277 f8bd 45de 2f3d
00000070: ada6 a93d aa3f 21bd 4b60 a43d acaf 29bd
00000080: cb0e 28bd 2d74 193e 74d7 4cbd 6b58 4fbd
00000090: f432 32bd 2d9f 66bd d0d2 29bd 40e8 ccbd
000000a0: c7b0 023e 8b05 ba3d c61d b83d 2e79 fe3d
000000b0: 4441 a23c 6550 cfbd 862c bdba d11a d93d
000000c0: 7383 48bd 946e c93d e312 d63d 9160 0d3e
000000d0: c37e db3d 7458 adbd e153 00be 9a32 97bd
000000e0: d026 a63d b94d fe3d 89ca 9e3d ed26 d0bd
000000f0: db8d f83d cdd7 bd3d 84b6 77bd 42da 1b3e
00000100: f73f 3e3d 82ba 08be 7f83 a93d ef3d 5b3d
00000110: 8395 8c3d a113 a53d d410 14be 8d25 8cbc
00000120: 8a84 2cbc 2610 83bd 590d 103c 2645 80bd
00000130: 6d15 58bd be77 023e 91b5 b2bc 3e9e f33d
00000140: d65a c0bc 970a e03d 230a ba3c a623 c9bd
00000150: 04c4 b9bd 7284 bcbd 0f8e fc3b 7029 213e
00000160: bd26 24be aa9d b23d c74c 803d 2cb8 0a3e
00000170: 8652 bcbd b0bd f73c 24be 91bd 8069 13bd
00000180: 0ffa dabd 0ca5 debd b725 53bd 0d26 a53d
00000190: c862 a33d 78e9 f03d 6a0c 91bd c224 233d
000001a0: 739c 60bd 2196 063c a561 df3d f419 cdbc
000001b0: e174 0d3c e58b d7bd c9d0 ec3c 2534 9a3c
000001c0: c5c5 163d ed6f b3bd ecb2 803d 83b6 c73d
000001d0: a49f 07bb 40a6 18bd 5caf a93d f965 503c
000001e0: bc81 86bd 641f 833d 3168 84bb ef1c e1bd
000001f0: 44cf 443d 023e acbd f351 c33d 60f9 773c
00000200: 7e78 d4bd 005d 9c3c e27d 16bc a997 bfbd
00000210: 74e0 a63c 220d 13be 42d5 6bbd 825a da3d
00000220: df12 86bd 27a1 2cbd 105f 3d3d ab15 613d
00000230: b4bd 793c d71b da3d f57f b3bc 7ecb c1bd
00000240: 13a7 c43c 3ed3 233c a651 23bc e262 c7bd
00000250: 4104 9fbd bc54 afbd 2d6f 5fbd e26f 00be
00000260: 2694 54bd 9376 713d 96f5 03be ca68 0d3d
00000270: 4a39 00be 47c2 12be 0bf2 063c ceb3 52bd
00000280: aa53 6abd abca dabd 0c63 783d 7327 d0bd
00000290: feb8 f63d b529 ddbd 947d 53bb cf4d f0bd
000002a0: f3e8 0bbd d1c8 e33d 61ad 25be f9e7 393d
000002b0: 8b6b a13d a791 8ebd 517b c4bd 7638 18be
000002c0: c652 143e d704 4a3d 048b 40bd c615 f13b
000002d0: d5dc 603c f521 a73d 4379 95bd e775 db3d
000002e0: e1be aa3c b9f6 d93d 6a9b 19be cf19 8f3d
000002f0: cc5a 9bbd c232 283e a751 e6bb aec8 e73d
00000300: 1ce9 fe3d 267c 66bd 2ce6 8d3d ce49 60bd
00000310: b338 9f3c 2bc8 323d d52a 563d 49b8 0bbd
00000320: ddfb 48bd d4c8 e9bd ef13 fd3d 92c8 b83d
00000330: 1cac d5bd 56b2 38bd cce0 f73d a578 903d
00000340: 7d8d fcbd a944 913c 56f0 fc3d c04f adbc
00000350: 8f2e 24bd 4fb9 cabd ae18 7fbd d3b2 823c
00000360: 2f2b a13c 3356 2cbe d470 b6bc 995d 6c3d
00000370: 758a 67bd ea9b ad3d 7925 443d 65bf 3cbd
00000380: ae0d aabd d88f d03d e787 15bd 6eb9 7f3d
00000390: 092b 2fbd 276a 0c3e 97f3 7b3d d1eb 97bd
000003a0: 0d43 af3d 9590 96bc 1b91 843d e679 843d
000003b0: 1db0 1dbd d455 d43d a253 be3d 2e13 033d
000003c0: c0d0 bfbd a6be 0fbe b7cb 8bbd b6d0 e03d
000003d0: 7909 07bd 22d4 64bd 23be 34bd ff36 39bd
000003e0: 9ac4 b13d e39f 0ebe 4e90 713d ae8d 963d
000003f0: edad 973d 044a 96bd 2744 1fbe d849 02be
0.106267124 0.08786018 0.06191289 0.023662157 0.007103082 -0.12247995 -0.054666705 0.08862806
-0.12131096 0.10488001 0.008158258 0.1206181 -0.14008978 0.0056136064 0.05540005 -0.04710339
-0.12488385 -0.028641466 -0.01881439 0.07952562 0.036575053 0.018193452 -0.118546546 0.097674824
0.1283716 -0.010575058 -0.12132229 0.042936582 0.08283744 -0.039367355 0.08026179 -0.0414273
-0.041029733 0.14985724 -0.05001016 -0.05062143 -0.043505624 -0.056304146 -0.041460812 -0.10005236
0.12762748 0.090830885 0.08990054 0.12425457 0.019806512 -0.10122756 -0.0014432825 0.10600818
-0.048953485 0.09835544 0.10452821 0.13806368 0.10717537 -0.08464137 -0.12531997 -0.07382698
0.08112872 0.12417168 0.07753474 -0.101636745 0.12136432 0.09269676 -0.060476795 0.15219977
0.04644772 -0.13352397 0.08277034 0.05352586 0.068644546 0.080603845 -0.14459544 -0.01710775
-0.010529647 -0.063995644 0.008792245 -0.06263189 -0.05275481 0.1274099 -0.021815093 0.11895417
-0.023480814 0.1093952 0.022709912 -0.098212525 -0.0907059 -0.092049494 0.0077073644 0.15738463
-0.16030402 0.08721478 0.06264644 0.13546818 -0.091954276 0.030241817 -0.071163446 -0.035989285
-0.10692226 -0.10871324 -0.05154964 0.08063898 0.079778254 0.11763281 -0.07082446 0.039829977
-0.0548367 0.008214504 0.10907296 -0.02503679 0.008633823 -0.1052473 0.02890815 0.018823693
0.0368097 -0.087615825 0.06284127 0.09751608 -0.0020694518 -0.037267923 0.082854 0.012719625
-0.065677136 0.06402472 -0.004040741 -0.10991847 0.048049226 -0.084102646 0.09537115 0.015135139
-0.103745446 0.019087315 -0.009185286 -0.09355099 0.0203707 -0.14360479 -0.057576425 0.10661794
-0.06546568 -0.042145874 0.046233237 0.054952305 0.015242983 0.10649841 -0.0219116 -0.09462641
0.024005448 0.0099990945 -0.009968197 -0.09735657 -0.07764483 -0.08561084 -0.054549385 -0.1254268
-0.051899098 0.05895097 -0.12886652 0.034523763 -0.12521854 -0.14331923 0.0082364185 -0.051441006
-0.057208695 -0.10683187 0.060641333 -0.10163774 0.12047003 -0.107989706 -0.0032270895 -0.11733591
-0.034157705 0.11122287 -0.1617942 0.045387242 0.0788184 -0.06961375 -0.09593833 -0.14865288
0.144847 0.049321022 -0.047007576 0.007357332 0.013724525 0.08160774 -0.072985195 0.107158475
0.020842971 0.10642762 -0.15000692 0.069873445 -0.075856775 0.16425613 -0.0070287767 0.113175735
0.12446806 -0.05627074 0.069286674 -0.054757886 0.019436216 0.043647926 0.05228694 -0.034111295
-0.04906832 -0.11415258 0.12357318 0.09022631 -0.10433218 -0.04509195 0.121034235 0.07054261
-0.12331674 0.017732935 0.12350528 -0.021156192 -0.040083464 -0.09898626 -0.062279396 0.01595441
0.019673912 -0.16829757 -0.022270598 0.05770645 -0.056528527 0.08477004 0.0478873 -0.046080966
-0.083033904 0.10183686 -0.03650656 0.0624327 -0.04276565 0.13712369 0.061511602 -0.07418025
0.08557711 -0.018379489 0.06472989 0.06468563 -0.038498033 0.10367933 0.092932954 0.032000713
-0.09365988 -0.1403757 -0.06825965 0.109773085 -0.03296802 -0.055866368 -0.04412664 -0.045218464
0.08680077 -0.1392818 0.05897551 0.07351242 0.074062206 -0.07338336 -0.15553342 -0.12723482

backBone.0.conv1.bias f4 [6]
00000000: 25ac 34ba 7bc8 6f39 1a58 c5b9 e156 b7ba
00000010: f1bb 4ab9 f6b0 4cba
-0.00068921066 0.00022867501 -0.0003764041 -0.0013987684 -0.00019334235 -0.00078083517

backBone.0.bn1.weight f4 [6]
00000000: 91fd 7c3f 4acb 7d3f 5f3a 863f 1689 813f
00000010: 1ac8 773f 2571 7b3f
0.9882441 0.9913832 1.0486563 1.011996 0.96789706 0.9821952

backBone.0.bn1.bias f4 [6]
00000000: bf46 cabc 033c e33c f2f7 e63b 55d2 a8bc
00000010: 8490 373d b637 803d
-0.024691937 0.027738577 0.0070486004 -0.020608107 0.044815555 0.06260626

backBone.0.bn1.running_mean f4 [6]
00000000: 36f3 5a3e 28c3 ee3d 20b9 c1be 80d2 0f3d
00000010: 0709 27be b5f4 9c3d
0.2138184 0.11658317 -0.37836552 0.035112858 -0.16312037 0.07663862

backBone.0.bn1.running_var f4 [6]
00000000: 9bb8 e43d 82b6 e53d 5c45 b53d 1cb0 d63d
00000010: f064 f83d 17c1 a23d
0.11168023 0.11216451 0.0885112 0.10482809 0.12128627 0.07946985

backBone.0.conv2.weight f4 [6, 6, 3, 3]
00000000: b797 18bd 759b 85bd 4b1f cb3d 810b 9cba
00000010: 5b62 8ebd 2ce8 2fbe f592 223e dc76 ea3c
00000020: ad64 2dbe ee05 9bbd 32c6 09bd 5f8d 073d
00000030: 2e34 c4bd 4105 f93c 869f 8a3d 6fa0 28bd
00000040: 5c26 69bd c335 60bd ee95 443d 4ad7 083e
00000050: 09f5 e0bd 0a53 87bd 57ab 2abd e1c5 f6bd
00000060: 6185 393d a61e 3b3d 050d ad3d 30f7 e33c
00000070: 85cc 583d 4055 8cbd cb25 c4bc 4a0c 0c3e
00000080: 11b1 34bd 60d7 95bd 62de 64bd 54be edbd
00000090: 9e30 ef3d 6c17 df3d ce86 17bd 2a8d 963d
000000a0: 511b b53d c4a1 b93c 70aa 84bd a974 cfbd
000000b0: 84ca d1bd 16ac 26be 6a6b 6a3d 1ad4 16be
000000c0: 4851 273c 8e41 f13d e068 0dbd 82bc ba3a
000000d0: 242d 01be 7384 c3bd 07a0 2a3d e743 87bd
000000e0: 9c96 323c 8f2d 39bd 52be 553d a12e 063e
000000f0: a7bf 65bd 9030 d3bd 17d5 7abd 7344 af3c
00000100: 9fe0 aa3d 0e16 5fbd 3817 0d3e f5e6 05bd
00000110: d4b7 093d 2556 a23d 2a75 a73d ea97 dbbd
00000120: 3c1b f13c 9394 123e 7bf7 ff3c e429 bcbd
00000130: 4413 c93d 56ac 09bd bf8f 4fbc 7421 06be
00000140: df2c b5bd b594 6a3d ae2c d33c 7073 e33d
00000150: 6b51 ffbc 9b36 be3d 7ff9 2c3e 65da 3bbd
00000160: 1b79 43bd 0dee eebd 6099 92bc 6cdd 853d
00000170: 2a7c 8b3c a894 c9bd b4c1 623b e877 03bd
00000180: 118f d2bd f903 1d3d 27b7 d6bc f94c ed3d
00000190: 6db3 b8bd f025 c73c 7a86 0dbe f536 c9bd
000001a0: b62b bfbd c519 e9bc 93e3 3fbd bf50 003c
000001b0: 993a 173b f00d 0c3e 5f9f 8e3d d829 18bd
000001c0: 5fac c4bd 0653 83bc f0d3 3dbd d9c7 b3bc
000001d0: 96a2 1c3d f054 a1bd 68d1 13bc 9a86 8b3d
000001e0: df7e 21bd 2f8b 11be 7820 aabd 10cd 9b3d
000001f0: 0ada 353d 1ec4 693d 0027 14bd ef60 0cbd
00000200: b330 b73d 704e 793d 1568 8d3d 5604 963c
00000210: 536c 7a3c 8244 843c ac0b 0b3d 6226 b1bb
00000220: 124b 2a3d ab2c e33d 5455 ba3c ce2e 20be
00000230: 03d1 be3d 0a09 583d 1986 7e3d f550 ca3d
00000240: 3e05 7b3d 2f8b 18bd 4701 95bd 8189 94bd
00000250: 2f76 b33d 6806 e13d 5ffa ea3d 46c8 6d3d
00000260: bb6b ddbd 22d1 833c a38a 933d 06ba d13d
00000270: e38d 593d ace7 ebbd 8e5b 08be 142f 443d
00000280: 70d3 a4bd f885 9e3d 6dd2 71bd 3f33 133d
00000290: 9876 bbbd 518a 04be 08b6 913c fbb1 f93d
000002a0: 87e2 80bd 7e76 b3bd 5d86 0dbe 928e 88bd
000002b0: 5bfa b7bd 3583 083e 33aa 8cbd 5580 e23d
000002c0: 8a12 85bd 5ebb 61bd f73f f43d 97b8 36bd
000002d0: 0b2b e33b 941f 2ebd d177 043e 3240 0abe
000002e0: a129 88bd f431 3b3d e48e ae3d 2eb5 ea3d
000002f0: 3ad7 903c c443 05be c3af cebd cb4e 793b
00000300: b30d abbd 379b 933d 75d8 debd ff35 a73d
00000310: 408b b83d 04bd 02bd 46cf 133d 6dad d7bd
00000320: 4a69 19bd 35ae 19bd d383 9e3d 6a3b 1d3e
00000330: 66ca 153c ed58 953d 392b 283b 0982 e5bd
00000340: fc2a fb3b fbdb 9e3d e801 8abc 7e5a a5bd
00000350: 67dd ac3c abb8 df3d 9542 82bb 58ab 49bd
00000360: 5f45 73bd 5060 2dbd b0af efbc 5c10 0abd
00000370: 3da2 26bd 7afe 19bd c1ed b73d 03eb a73d
00000380: 494e 6e3d 6cd9 083d c5ac 51bd 9f94 c43d
00000390: cbee 143e aaf9 83bd 61eb 06bc 61aa 873c
000003a0: 23a2 a6bd 9b1f ea3d fc73 b1bd c9c5 f4bd
000003b0: 96b9 aebd 2e3b dabc bc65 e73d 90aa 193d
000003c0: 43d5 a7bd ad1d 783d c041 eabc 320e efbd
000003d0: 4a12 68bc 56c2 ffbd 06ea 32be 3e63 f23d
000003e0: 1413 d23d 94ff 293d 5c4e 083d 5cb9 49bc
000003f0: d284 e4bd dd80 13be 54a7 47be 84b8 303d
-0.03725406 -0.06523792 0.09918078 -0.0011905284 -0.069523536 -0.1717841 0.15876372 0.02862113
-0.16932936 -0.075694904 -0.03363628 0.033093806 -0.09580265 0.030398013 0.06768708 -0.041168626
-0.056921348 -0.05473877 0.047994547 0.13363376 -0.10984237 -0.06607635 -0.04166731 -0.12049461
0.045293216 0.045683526 0.08449749 0.02782783 0.05292942 -0.06852198 -0.023943802 0.13676563
-0.044114176 -0.0731647 -0.055876143 -0.11608568 0.11679195 0.10893139 -0.036993794 0.07351144
0.08843101 0.022660144 -0.06477821 -0.10129673 -0.10243705 -0.16276583 0.057231344 -0.14729348
0.01021225 0.11780082 -0.034523845 0.0014246854 -0.12614876 -0.09546747 0.04165652 -0.06604748
0.010900166 -0.045209464 0.052183457 0.13103725 -0.056090977 -0.10311997 -0.061238375 0.021394944
0.08343624 -0.054464392 0.13778389 -0.03269096 0.033622578 0.07926587 0.08176644 -0.10722335
0.029431932 0.14314489 0.031245938 -0.091876775 0.09818128 -0.033611618 -0.012668549 -0.13098699
-0.08846449 0.057270724 0.02577814 0.11106002 -0.031166753 0.09287759 0.1689205 -0.045862574
-0.047722917 -0.11666498 -0.0178954 0.065363735 0.01702698 -0.09842807 0.003460032 -0.032096773
-0.10281194 0.038333867 -0.02621038 0.11586947 -0.09018598 0.024310082 -0.1382083 -0.09824935
-0.09334509 -0.02845467 -0.04684789 0.007831751 0.0023075698 0.13677192 0.069639914 -0.03714928
-0.0960319 -0.0160308 -0.046344697 -0.02194588 0.03824099 -0.07877529 -0.009022094 0.068127826
-0.039427634 -0.1421325 -0.08306974 0.07607472 0.04439739 0.057071798 -0.036170006 -0.03427213
0.089448355 0.06086582 0.06904618 0.018312614 0.015284616 0.016145948 0.033946678 -0.005406187
0.0415755 0.11092504 0.022745766 -0.15642855 0.093172096 0.052742995 0.062139604 0.098787226
0.061284296 -0.03724211 -0.07275634 -0.07252789 0.08762776 0.1098755 0.11473536 0.058052324
-0.108115636 0.016090933 0.07204177 0.10240559 0.05311383 -0.11518797 -0.13316175 0.04789646
-0.08048141 0.07740396 -0.05903857 0.035937544 -0.09153479 -0.12943389 0.017786995 0.1219215
-0.06293207 -0.08762835 -0.13820787 -0.06667818 -0.089832984 0.13331302 -0.068684004 0.11059634
-0.06497677 -0.055110328 0.11926263 -0.044609632 0.0069326214 -0.042510584 0.12936331 -0.13501051
-0.06648565 0.045701936 0.08523348 0.114603385 0.017680753 -0.13014132 -0.10092118 0.003804135
-0.08352222 0.07207339 -0.1088113 0.08164596 0.09010935 -0.03191854 0.036086343 -0.10531125
-0.037453927 -0.037519652 0.07739987 0.15354696 0.009142494 0.07292352 0.0025660528 -0.11206443
0.0076650362 0.07756802 -0.016846612 -0.08073901 0.021101667 0.109238945 -0.0039752224 -0.04923567
-0.05939233 -0.04232818 -0.029258579 -0.033707008 -0.040682066 -0.037596203 0.08980895 0.08199122
0.058180127 0.033410475 -0.051190156 0.0959866 0.14544217 -0.06444104 -0.00823483 0.016560735
-0.08136394 0.114318095 -0.086647004 -0.11951787 -0.085314915 -0.026639547 0.11298701 0.037516177
-0.08194973 0.060575176 -0.028595805 -0.116726294 -0.014164517 -0.124882385 -0.17472085 0.11835335
0.10257545 0.041503504 0.033277854 -0.0123122595 -0.11158146 -0.14404626 -0.19497424 0.043144718

backBone.0.conv2.bias f4 [6]
00000000: e7fd 83b8 c1ce 8338 e5b8 1bb9 8aeb 96b9
00000010: 5e99 be39 f1cc 5a39
-6.29386e-05 6.285078e-05 -0.0001485083 -0.0002878572 0.00036353891 0.00020866447

backBone.0.bn2.weight f4 [6]
00000000: 8f4f 7a3f c0b1 7a3f 2bde 6d3f 1ba9 753f
00000010: b73e 763f 2f49 7b3f
0.97777647 0.97927475 0.92917126 0.9596116 0.96189445 0.98158544

backBone.0.bn2.bias f4 [6]
00000000: a8fb ffbc 4cc3 9abc 4ca8 39bc 82ca cfbc
00000010: 65a4 c0bb 5044 09bd
-0.031247929 -0.018891953 -0.011331629 -0.025365118 -0.0058789724 -0.033512414

backBone.0.bn2.running_mean f4 [6]
00000000: de78 7ebe 653c a9bd 8561 173e 66b2 8dbd
00000010: 109f 33be 93b7 a5bd
-0.24850795 -0.082634725 0.14783294 -0.069187924 -0.17541146 -0.08091655

backBone.0.bn2.running_var f4 [6]
00000000: f87b 183e b8a8 ea3d e372 e13d 5edc e33d
00000010: da1d 113e 6565 c03d
0.1489104 0.11457962 0.11008241 0.11126016 0.14171544 0.093943395

backBone.1.conv1.weight f4 [6, 6, 3, 3]
00000000: 98c3 bc3c 603c 05ba e929 083e 4567 2b3d
00000010: a1ac 35be 7846 d93d 006a 543d ec67 01be
00000020: d8fe de3b 17ce 46bd cf2e c23c f112 bc3d
00000030: f658 443c a452 ce3d 8715 293e 744b 453d
00000040: f440 ac3d ace3 8fbc 73c8 e2bd b6fd 9d3d
00000050: 4281 e33c 0d0e b03d 8d93 7e3c d51d 513d
00000060: 5410 ddbc a45e d83d c3eb e1bd ccd8 8c3d
00000070: 669e aa3d b7b1 d43c cade b13c 5d56 c6bd
00000080: fcbe 8a3d c199 083e 5700 bd3d ec1b bebc
00000090: 344a 603d 6bd7 93bd 1535 e73c 1557 db3d
000000a0: 50f7 98bc 0f11 f5bd e921 c1bd 02b1 c53d
000000b0: 6eea c2bb 6d41 a0bb 61bf a5bd 5e2e 0cbd
000000c0: e5fb b53d f503 18be 3a6c 0f3d a9e0 abbd
000000d0: 2c98 bfbd fbe7 85bd 7bd7 1e3e fa88 22be
000000e0: 5e72 d7bd ea15 f33d 56da 2dbd ce82 d13d
000000f0: 2223 133c 9f27 8abb e528 e9bd 362d f03c
00000100: 4256 fd3c dbe0 ec3d b822 f9bd 73d2 a53c
00000110: ebc9 b63d 4575 0abe 31c3 32be d62e f6bd
00000120: 77af c23d 2df6 703d 9e1d 4e3d 0f36 c5bd
00000130: e321 fa3d d2ff e83d c9b4 113e 713d 2d3c
00000140: f0df fcbd 5b65 babd 309e 14be 578c 40bd
00000150: 07f1 ac3d 519d f6bc 6d2e 4f3d 9405 73bc
00000160: cec2 60bd 2e0c 673b 712b bc3d 8377 a13d
00000170: ed32 2abd fff9 3dbc c8b9 c6ba 8903 e93d
00000180: 12f3 50bd 12bc b4bd 77a2 1abd b5fe 173d
00000190: 9b17 bb3d 8bd8 ad3d be83 c8bd c64c 863c
000001a0: 4840 3cbd c036 e6bc 805c 95bd 572b febd
000001b0: af82 9d3d d9f9 273c fa08 c0bc b5cf 24bd
000001c0: f178 fe3d 4e31 ba3d 456b dc3c 7baf fa3d
000001d0: 0b63 493d f43d 1fbc 9798 483d 2422 a7bc
000001e0: 3e6f 0ebc 05fe 4dbd fb04 0e3e 5736 11bd
000001f0: 0056 113d 1a4e 333d 4986 f7bd f294 bb3d
00000200: 9c1b e6bc 473c 08bd 0139 5dbd 3fbb 03be
00000210: 70ff cbbd bdb3 043e a598 423d f9b9 003d
00000220: a74d 7f3d 8c39 6f3d f7a9 be3c 7638 ecbd
00000230: b16a fdbd d75f ddbd 1098 14be ac46 903d
00000240: ceb2 e63d 1a87 77bd 288f 623d 12aa fc3d
00000250: efe9 353c 7261 e1bd 9168 a8bd 16ba 0b3d
00000260: e2bd 90bd 0e80 183d a790 573d 1a8b 8a3d
00000270: b399 d53d 717d 55bc 42ba c6bd 7909 ea3d
00000280: bd55 d03d a2b5 34be dacb 583d 9266 d4bc
00000290: 34c6 933c 40d6 a33b e409 403d 4380 f03d
000002a0: 84b0 ed3d b44c 153e 90d8 a8bc c386 8b3c
000002b0: c16a 9cbd c5f7 0ebe b0c5 72bd 8294 5fbc
000002c0: cbd4 123c f820 6f3d 5856 c0bc 4375 0e3e
000002d0: 06e7 873d 4a43 313e 0683 033e 8c20 32bc
000002e0: 30fa b23d 503c 9e3d 290b 88bd 73fd b9bd
000002f0: 3b79 9d3d ffe0 a1bc a6da 01bd 5e2f 043e
00000300: 6666 d83d 9298 433d b890 b3bc f887 2cbe
00000310: b9ad a8bc 8aca 113e fb51 a6bc 319d 9ebd
00000320: 2ea0 42bd c1c3 0c3d 61b0 a93b d006 593c
00000330: f12a b93c 954c 50bd 4106 933d 7e36 90bc
00000340: dc80 d73c c5ee eb3d 878d 4abc 149f 02be
00000350: 7aea a13d 8b00 313d d35a cbbc b43b 9a3c
00000360: 52b2 4d3d 3506 fe3d d102 7abd 96cc 003e
00000370: 4655 a9bd 6479 dcbc 7250 26bd 6a34 1b3d
00000380: b2e2 43bd a46b eb3c 4f0c a4bc 5f83 2f3d
00000390: ff90 a73c 5be1 bbbd 6eaa 913d 76a7 3fbd
000003a0: 20c7 bd3d 5170 083e 805d b73d 81cc 7a3d
000003b0: ba36 21bd 3c45 b2bd 94db d93d 06a3 b03d
000003c0: fcdc f6bc 900a 9d3d 1dcd fbbc c8cc bbbd
000003d0: 07d2 123d 6a4b cb3d ffb2 b63d 186a bd3d
000003e0: 2763 0fbe 5545 cb3d 0b82 a2bc 188a 7cbd
000003f0: 82c0 b43d 95a6 8c3d f280 933d dba7 36bd
0.023042485 -0.0005082544 0.13297237 0.041846532 -0.17741634 0.10609144 0.051858902 -0.126373
0.006805282 -0.048536386 0.02370396 0.091833 0.011984101 0.10074356 0.16512118 0.04816766
0.08410826 -0.017564617 -0.11073389 0.07714407 0.027771596 0.0859643 0.015538109 0.05105384
-0.026985325 0.10564926 -0.11031296 0.06877288 0.08330993 0.025963647 0.02171268 -0.09684441
0.06774709 0.13339902 0.092285804 -0.023206674 0.054758266 -0.07218822 0.028223554 0.10709969
-0.018672615 -0.11966144 -0.09430296 0.09652902 -0.0059483564 -0.004890612 -0.08093143 -0.034223907
0.08885936 -0.1484526 0.035015322 -0.0839246 -0.09355196 -0.065383874 0.15511887 -0.15872565
-0.10519861 0.11869414 -0.04244455 0.10230027 0.008980544 -0.004216149 -0.11384753 0.029318433
0.03092492 0.11566325 -0.12164825 0.020241952 0.089252315 -0.13521297 -0.17457272 -0.12020652
0.095061235 0.05882852 0.050321214 -0.096294515 0.12213495 0.11376919 0.1422912 0.010573731
-0.123474 -0.09101363 -0.14513469 -0.04700884 0.0844441 -0.030104311 0.050581384 -0.014832873
-0.05487328 0.0035255062 0.09187973 0.07884123 -0.041552473 -0.011595248 -0.0015161568 0.113776274
-0.05101306 -0.08824934 -0.037752595 0.037108142 0.09135362 0.08488568 -0.09790753 0.01639403
-0.04595974 -0.028102279 -0.072930336 -0.1241061 0.076909415 0.010252439 -0.02344178 -0.040237147
0.124254115 0.090914354 0.026906619 0.122405015 0.04916672 -0.009719361 0.048973646 -0.020402022
-0.008693514 -0.05029108 0.13869087 -0.035452213 0.035482407 0.043775655 -0.1208616 0.091592684
-0.028089337 -0.03326061 -0.05400944 -0.12864397 -0.0996083 0.1295919 0.047508854 0.031427357
0.062329914 0.05840449 0.023274405 -0.115342066 -0.123738654 -0.108092956 -0.14511132 0.070447296
0.11264573 -0.060431577 0.055312306 0.12337126 0.011103137 -0.11004914 -0.082230695 0.034113012
-0.07067467 0.037231497 0.052628186 0.06764813 0.104297064 -0.013030396 -0.097034946 0.11427588
0.10172603 -0.17647412 0.052928783 -0.025927816 0.018038847 0.004999906 0.046884432 0.11743214
0.11605933 0.14580041 -0.020611078 0.017032033 -0.07637549 -0.13961704 -0.05927056 -0.013646247
0.008961867 0.05838105 -0.023478672 0.1391192 0.06635861 0.17310825 0.1284295 -0.010872018
0.08739126 0.077263474 -0.06642754 -0.09081545 0.076891385 -0.019760607 -0.03170266 0.12908694
0.10566406 0.047752924 -0.021919593 -0.16848743 -0.02059065 0.14237419 -0.020302763 -0.07744826
-0.04751604 0.034366373 0.0051784967 0.013246253 0.022603484 -0.050854284 0.07178927 -0.017604109
0.026306562 0.11520151 -0.012362844 -0.12755996 0.07906051 0.04321341 -0.024823582 0.018827297
0.050218888 0.12403528 -0.061037842 0.12578043 -0.08268218 -0.026913352 -0.040604062 0.037891783
-0.047823615 0.02873785 -0.0200254 0.042849895 0.020454882 -0.091738425 0.07112585 -0.046790563
0.09266496 0.13324095 0.089533806 0.061230186 -0.039358832 -0.08704612 0.10637584 0.08624844
-0.03013467 0.0766803 -0.030737454 -0.09169918 0.03584483 0.099264935 0.089208595 0.092487514
-0.14002667 0.099253334 -0.0198374 -0.061655134 0.088257805 0.068677105 0.07202329 -0.044593673

backBone.1.conv1.bias f4 [6]
00000000: b923 d739 fcb2 f939 784a 5fb9 b897 a537
00000010: a162 e139 d163 8dba
0.0004103461 0.00047626335 -0.00021294679 1.9740182e-05 0.00042988828 -0.0010787194

backBone.1.bn1.weight f4 [6]
00000000: 20c2 703f 58ef 833f 1c30 863f efcc 783f
00000010: 1213 813f 7434 793f
0.9404621 1.0307417 1.0483432 0.97187704 1.0083945 0.9734566

backBone.1.bn1.bias f4 [6]
00000000: a348 b73a 9ef7 4fbd 08fc 3d3d 8cb2 22bd
00000010: eb57 0e3d 6efc 4cbd
0.001398344 -0.050773256 0.046382934 -0.039721057 0.034751814 -0.050045423

backBone.1.bn1.running_mean f4 [6]
00000000: 8975 483e cbd6 ffbd 774b 153e 32bd 003f
00000010: 800b 103f 66aa e93e
0.19576086 -0.124921404 0.14579569 0.5028869 0.5626755 0.45637816

backBone.1.bn1.running_var f4 [6]
00000000: 6df2 473e 84af 863e edca 3d3e 9999 7d3e
00000010: f720 473e c501 883e
0.19526072 0.26305783 0.18534441 0.24765624 0.19446169 0.2656385

backBone.1.conv2.weight f4 [6, 6, 3, 3]
00000000: b980 8fbd a79c fb3d a148 f93d dcc9 0a3d
00000010: 9673 2c3c 3dd7 87bd ed81 2c3d 6883 e03d
00000020: 3a95 05be 93c5 973d 882d 193e 93cb 0cbe
00000030: 151d 9ebd a610 97bd dd76 a6bd 9eb7 033e
00000040: 19ee 03be d2f9 b23d 656c 4cbc 9f9d 583a
00000050: 1e82 36bd 995f 143e a472 fdbb 1e5a bdbd
00000060: 8a36 fdbc 374e f23d d578 96bd 4f33 3dbd
00000070: f7c7 c93d 350f 4ebd f91e b3bd 2eea cbbd
00000080: 4707 13bd 550b 873d ac01 45bc 8d94 b2bd
00000090: 4024 1e3d 2c9b b63c 5c96 cd3d c111 023e
000000a0: 317f 383e 53e2 c43d dca6 0fbd d589 debd
000000b0: 0784 5d39 04e1 653d 9c91 acbd 2ace 0fbe
000000c0: 81f8 a8bc 2ed3 88bd 52cb 043d e9e0 cbbd
000000d0: dc18 abbd d961 ab3d 8371 0c3d 6bfb 2939
000000e0: 7c2b 823c 9f55 c9bd 3e08 c0bb e673 29bd
000000f0: 79c7 7fbc 326b ae3d 8d68 c7bc 6c04 81be
00000100: 14dd fb3d 2906 96bd da2c c6bb d392 cbbd
00000110: e4e2 0dbe 1f57 bfbd 7d7c 1bbd d85c 06be
00000120: 665b e83d b6a5 a03d 487e d33d 8db5 09be
00000130: 5c1a a13d 2973 a1bc 1ac4 223e 40e5 193d
00000140: e71d 843c 3e88 ef3d 5242 8bbb 4b64 063e
00000150: e083 253d ea49 81bd 22ad dbbd 0fc1 e5bc
00000160: b6e6 0fbe 3b15 2abd cc3c 703d 05a5 2abd
00000170: d816 1abc af4a 453d 7a87 cfbd bd70 7cbd
00000180: 2eb1 bcbd 4ffe 82bd 50df 8abd c592 46bd
00000190: e44b 9dbd 023f 1abe 7bef 19bd c992 aebd
000001a0: fb45 543d 75bb e33d 1b6a 6c3d 0724 503d
000001b0: 9e6d b4bd b2e8 67bd 67fd 6a3d c837 1f3d
000001c0: 3132 803d 5c8a 4b3c 3f72 eabd 2ba2 bcbd
000001d0: e61e 0cbd 0bee 92bd af94 113b 0a4e a13d
000001e0: f62b e7bd fa44 1a3d 84a7 39bd 84d8 e63d
000001f0: 49d1 9f3d 7a7e 47bd 2d01 fcbd d68b 39bb
00000200: e7fb cc3d b44d 8c3d b933 1dbe 4061 83bb
00000210: 4756 3e3e f0a9 d137 ae72 9cbd 2ce0 fa3c
00000220: f5fb 013e 4347 ba3d 13fa 893d 73f8 ab3d
00000230: c7cb f1bd feb2 edbc 13e6 fd3d 8974 93bd
00000240: 0bd6 64bc 358d 8fbd 3650 d93d 9ebd 37be
00000250: 77f3 65bd 55e3 a83d 1854 8fbd 225a 8fbd
00000260: 8005 023d 99c7 22bd 3a5c 173e 03ed 043e
00000270: 8ed6 8abd 2509 533d 2a88 43bd 0271 f13d
00000280: 4d55 d83d 4c6b aebd db1b dbbd 1758 ea3b
00000290: 371c 05bd b09a d33d d234 5abd 79ef debd
000002a0: d61b 68bd 8661 0f3e c3ab 0b3e f4c2 8c3d
000002b0: 38d5 c13b 2e82 2f3c aff1 d4bc c639 d1bd
000002c0: 4423 893d a5d9 493c 9c78 a7bb 3e7d 143d
000002d0: cc64 013d b4e9 17bd 6086 a9bd 5762 adbd
000002e0: f98c 433c ab77 febd 899c af3d b907 c6bd
000002f0: b9a5 06bc e9e3 d6bd 07fa 8e3d 6bcc 76bc
00000300: ef22 cabc 3a59 ef3d 2fce a4bb 7bc5 d3bd
00000310: eed8 6bbd b5aa a03d a017 a0bd ec8d 12be
00000320: 4178 16bb 48fe 1d3d 4195 3bbc 1951 ad3c
00000330: fbc8 6c3d cc8f 77bd 7352 d03c ae09 81bd
00000340: 127c f13d b090 8abd 815c c3bc 4a9f 753d
00000350: 9ef4 0fbe 4a79 023e e3e8 db3d bfde 93bd
00000360: 644b b63b 0a6d 2fbd 755d a03d 05bb febd
00000370: 9495 48bd 4f9c 693d b344 a1bd b963 b23d
00000380: 950c 9e3d b28b 3a3d 03d0 53bd db28 2a3c
00000390: 3371 af3d 4786 c13c be23 323e d35f ae3d
000003a0: 7cde 76bd b6ac 9fbd e210 9dbd 5f91 a4bd
000003b0: c19b c33c ade0 afbc a439 80bd 2355 82bd
000003c0: f323 cd3d 6790 b93d b550 093e 6eb1 be3d
000003d0: 3660 f0bd 5003 543d 1f5b 75bb 967f e2bd
000003e0: e945 4f3d ce67 46bc 0010 4f3d cd48 bebc
000003f0: 0c2d dcbc a323 a43d b59e c0bd 6a66 e43d
-0.07006974 0.122857384 0.12172056 0.033883914 0.010525605 -0.0663285 0.042116094 0.10962564
-0.13045207 0.07410731 0.14958775 -0.13749532 -0.07720391 -0.07376222 -0.0812814 0.12863013
-0.12883796 0.08739056 -0.012477015 0.00082632335 -0.044557683 0.14489593 -0.0077346135 -0.09245704
-0.030909795 0.118313245 -0.07347266 -0.04619151 0.098525934 -0.05030747 -0.08746142 -0.099567756
-0.035895612 0.06593958 -0.012024324 -0.0871974 0.03860879 0.022290789 0.100384444 0.12702085
0.1801727 0.096134804 -0.03507124 -0.10866133 0.00021125386 0.056122795 -0.0842621 -0.14043489
-0.020626308 -0.06680904 0.032420464 -0.099550076 -0.08354351 0.08368272 0.03428794 0.00016210756
0.015889876 -0.09830784 -0.0058603575 -0.041370295 -0.015611523 0.0851654 -0.024341846 -0.25198686
0.12298027 -0.07325394 -0.006047827 -0.09940114 -0.13856083 -0.09342789 -0.03796052 -0.13121355
0.11345558 0.07844107 0.103268206 -0.13448162 0.07866356 -0.019708233 0.1589512 0.037572145
0.01612754 0.11695908 -0.0042498494 0.13124196 0.04040897 -0.06312926 -0.10726382 -0.02804616
-0.14052853 -0.041524153 0.05865173 -0.04166128 -0.00940486 0.048166927 -0.10133262 -0.061630953
-0.09213482 -0.06396162 -0.06780875 -0.048479814 -0.076804906 -0.15063098 -0.037581902 -0.08524091
0.05182455 0.11119739 0.057718378 0.05081561 -0.0880997 -0.0566184 0.05737057 0.038871557
0.06259573 0.012423124 -0.11447572 -0.092106186 -0.034209155 -0.07174309 0.0022213866 0.07876213
-0.11287682 0.037663437 -0.04532577 0.11271766 0.0780359 -0.0487046 -0.12304912 -0.0028312108
0.10008984 0.06850758 -0.15351762 -0.004009396 0.185876 2.4993875e-05 -0.07639061 0.030624472
0.1269377 0.09095623 0.06737151 0.08396997 -0.118064456 -0.029016014 0.12397399 -0.07199962
-0.013967047 -0.07009355 0.10611002 -0.17943427 -0.05614039 0.08246485 -0.069984615 -0.06999613
0.031743526 -0.039741132 0.14781275 0.12981038 -0.06779204 0.051522393 -0.047737278 0.11789133
0.10563145 -0.08516559 -0.106986724 0.0071516144 -0.03249761 0.10332239 -0.05327303 -0.108855195
-0.05666717 0.14002046 0.1363974 0.06873122 0.0059153102 0.01071219 -0.02599415 -0.102160975
0.066961795 0.012319957 -0.0051108133 0.036252253 0.031590268 -0.03708811 -0.08277583 -0.084660225
0.011935466 -0.124251686 0.085747786 -0.09669442 -0.008218222 -0.10492689 0.06981283 -0.0150633855
-0.02467486 0.116869405 -0.005029462 -0.10340401 -0.057579927 0.0784506 -0.07817006 -0.14311951
-0.002295986 0.03857258 -0.011449159 0.021156834 0.057808857 -0.06043987 0.02542994 -0.063006744
0.11791243 -0.06765878 -0.02384782 0.059966363 -0.14058158 0.1274158 0.10737779 -0.0722022
0.0055631865 -0.042828597 0.078303255 -0.12438015 -0.048970774 0.057033833 -0.078744315 0.08710427
0.077172436 0.04554338 -0.051712047 0.010385717 0.08566513 0.023623599 0.17396447 0.08514371
-0.06027077 -0.07796614 -0.07669236 -0.0803554 0.02387798 -0.021469438 -0.06260994 -0.06363895
0.100166224 0.09060746 0.13409694 0.09311186 -0.11737101 0.05176097 -0.0037438346 -0.11059491
0.05060378 -0.01210971 0.05055237 -0.023228073 -0.026876949 0.0801461 -0.09405271 0.111523464

backBone.1.conv2.bias f4 [6]
00000000: ffae 8bba b2ef 3c38 5f66 8738 40f8 603a
00000010: 8924 33b9 e350 d4b9
-0.0010657011 4.5045927e-05 6.45637e-05 0.0008581914 -0.0001708438 -0.00040496056

backBone.1.bn2.weight f4 [6]
00000000: 29c7 783f 7d14 773f b63a 633f ec78 7a3f
00000010: 673e 703f 377f 7f3f
0.97178894 0.9651564 0.8876146 0.9784076 0.9384522 0.9980349

backBone.1.bn2.bias f4 [6]
00000000: ccfc c3bd 49c0 a5bd b2c1 d1bb c78b 61bd
00000010: 71e1 9abd 1cc5 10bd
-0.095697016 -0.08093316 -0.006401264 -0.055064943 -0.07562531 -0.03534423

backBone.1.bn2.running_mean f4 [6]
00000000: 852a 02bc ec73 85be 7f92 e33b 50c7 0cbe
00000010: ee8b b4bd 08b0 d6be
-0.007944708 -0.26065004 0.006944954 -0.13747907 -0.08815752 -0.41931176

backBone.1.bn2.running_var f4 [6]
00000000: ae74 d73d 785a 0d3e bab1 1c3e 0657 d93d
00000010: b7e9 9b3d d036 0a3e
0.10520302 0.13804042 0.15302172 0.106123015 0.07612937 0.13497472

backBone.2.conv1.weight f4 [6, 6, 3, 3]
00000000: 3981 b7bd ee06 23bc 76fa 833c d224 9ebc
00000010: 34bd 49bb 2469 083e 8290 a8bd a76b d73b
00000020: b727 4fbb eac6 19be f627 c63d 0a90 393c
00000030: 13fa 2b3d 4949 9fbd 97d0 b4bd 1cab c0bc
00000040: 7da6 e83c 9439 cc3c d4f1 3bbd ccca e1bd
00000050: fcf9 e5bc e48f 52bd 38b4 adbd 794d 063d
00000060: e2c5 803d 575d 233d 2801 bfbd f83c 12bd
00000070: c90a 01bb 0f3f b5bc 0d1c 98bd 879b 483c
00000080: 8e6f 4bbc fe9d 1cbd 6155 a1bd 2ba8 163d
00000090: e712 1e3c 4f83 513d 0341 9cbd 7c67 ae3d
000000a0: 1fb0 dfbd 1a18 bd3d 1560 943d 94ac 2c3d
000000b0: 3999 a03d bc22 e7bd 3d10 0d3e 91f2 f4bb
000000c0: 2770 d23d 6d94 783d e805 4abd 2a4e 483e
000000d0: 5e40 2ebd cb0d 90bd e72a 083d fa84 4d3d
000000e0: 64e0 f13d b185 debd 3f49 f0bd efd4 4f3b
000000f0: da83 983d 6a20 a7bc c291 743d ba6b 973d
00000100: fc19 60bd 39a8 da3d 0782 97bd 728a 44bc
00000110: c8e6 1b3c 7cbd f0bc b935 54bc bd4e d13c
00000120: d068 183d c1c5 51bc 8aec 0ebe e748 033e
00000130: b7d3 88bd f6ac b2bd 967a 8ebd 4e99 92bd
00000140: adf7 3d3d 09a2 86bd 9098 873d 4c03 753d
00000150: f319 3d3d 9366 a5bd c7fd e53d 13c1 073e
00000160: ff94 9f3d 8494 8e3d 3e16 b23d 103e e83d
00000170: 854b 7e3c 6044 bebd dddf 9d3d cff3 e6bd
00000180: 9dd7 fabc 6a5d 59bd 2167 053d 5384 90bd
00000190: 5581 3d3d b71d cdbb c941 313e 3da0 cf3d
000001a0: 7897 fabd 88a8 ac3d e979 423d 16ec da3d
000001b0: 9b64 8e3c 8a8a 633d b263 b43d 37bb cfbd
000001c0: cbee 95bd 3454 0ebe f840 b53d c3e0 b03d
000001d0: 62bb 48bc 31d5 d2bd 05fa d43d ece3 843d
000001e0: b21f 93bd 72a7 133c de0e b93d 994e a23d
000001f0: fe1f eebc 3377 a63d fa47 e8bd 1080 c93c
00000200: 9606 28bd 0fbc 15bd 1736 ab3d 113c efbd
00000210: 78e5 223c 4d9a c6bc 5515 e43d 801a 9fbd
00000220: 1638 76bd 2abb b63d ce75 913d 305a 5abd
00000230: 6e1e 18bd e37f 5a3d 87be f4bd 6ef7 f2bc
00000240: af18 e1bd f555 4bbe 53f9 f23d 5eb9 93bd
00000250: f563 ba3d dd45 fd3b a702 77bd 2cbc bcbd
00000260: 4512 943d e4fc 033e 3fa1 1c3d 06b6 ae3d
00000270: c56e bdbd a9ee 03be d618 45bd 747e 21be
00000280: 37f3 e03d bd89 10bd 4747 103d 00e2 8dbd
00000290: 9792 d3bd f8bd 073d 0534 883d 558f fc3d
000002a0: 4df7 2cbd c511 cebd 28da ea3c 5a67 b63d
000002b0: c869 ccbd d431 d13c 2c10 ffbb 3c7a 10be
000002c0: 73c0 fdbc 105d 72bc 189f 0fbc 4ff9 9e3d
000002d0: 1cad eb3d 0725 fbbd 10d4 ecbd 25a9 843d
000002e0: 3e52 85bc 053a c23c 723b 8f3d 9b84 d93d
000002f0: e691 ce3b c365 bdbc 49a5 963d 9f5b 43bd
00000300: 296b 773d 7715 863d 0bec 5b3c e91a 8dbd
00000310: b9e3 f1bd 2af8 c13c ced2 cebd 0bc6 acbd
00000320: 63eb 433d 65bf 1c3d eeca 1cbe 68dd 15bd
00000330: 32dd c83d f3e0 9abd 98ab 08be 541b 62bd
00000340: 8aa6 ae3d 277c f7bc e338 b0bc 366e 163e
00000350: 07d2 f6bd 846b febd a43c 7e3d fefe 143d
00000360: 4dbd c5bd 457c 1bbc 7520 453e 5806 0cbd
00000370: efb5 1b3d e390 35be c213 d83d 9ec9 803d
00000380: 0320 f6bd baf5 573d 0f60 9cbd d814 453d
00000390: 791e 073b 682a 83bd 6b46 b5bb 0631 eabd
000003a0: 7133 b43d e654 76bd 4b44 b4bc f9a4 073e
000003b0: 4946 653d 1e84 4b3d a7ab 713d f97c 4fbd
000003c0: f1ab e73d 44a9 753c 7960 793d b0dd 703d
000003d0: 27d3 74bd f268 1f3e 3bc4 fd3c 749b 2e3c
000003e0: 7103 e33c 3672 783b 4de6 2fbd e96a 3f3d
000003f0: 9fe0 b13a c6f1 823d f32e 163e 761a 9f3c
-0.08960194 -0.009950383 0.01611064 -0.019304667 -0.003078294 0.13321358 -0.08230688 0.0065741125
-0.0031609365 -0.15017286 0.09675591 0.0113258455 0.041986536 -0.0777765 -0.08828848 -0.023519091
0.0283997 0.0249298 -0.045884922 -0.110250086 -0.028073303 -0.051406756 -0.084816396 0.032788727
0.06287743 0.039883938 -0.093263924 -0.035702676 -0.0019690266 -0.022124795 -0.07427225 0.012244112
-0.012416733 -0.03823661 -0.07877613 0.03678147 0.009648061 0.051150616 -0.076295875 0.08515832
-0.10922264 0.09233113 0.07244889 0.04215677 0.07841725 -0.11285922 0.13775726 -0.007475205
0.102752976 0.060688425 -0.04932204 0.19561067 -0.042541854 -0.07033881 0.03324404 0.050175644
0.11810377 -0.10865343 -0.117327206 0.0031712612 0.07447024 -0.020401198 0.059709318 0.07393594
-0.05471228 0.10676617 -0.073978476 -0.011995899 0.009515472 -0.029387228 -0.012952262 0.02555024
0.037209332 -0.012803496 -0.1395742 0.12820779 -0.066810064 -0.08724396 -0.06956975 -0.07158147
0.04637878 -0.065738745 0.06620896 0.059817597 0.046167325 -0.08076205 0.11230045 0.13257246
0.077920906 0.06961921 0.086956486 0.113399625 0.015520935 -0.09290385 0.07708714 -0.112769715
-0.03062039 -0.053067602 0.032569055 -0.07056489 0.04626592 -0.006259646 0.17310251 0.10137985
-0.122359216 0.08430582 0.047479544 0.10689561 0.017381957 0.055552043 0.08808078 -0.1014313
-0.07320937 -0.13899308 0.088502824 0.0863662 -0.012251707 -0.10294569 0.1039925 0.06488785
-0.0718378 0.00901209 0.09036039 0.079251476 -0.02906799 0.08128204 -0.113418534 0.024597198
-0.041021906 -0.0365563 0.08359926 -0.11681379 0.009942405 -0.024243498 0.11136881 -0.07768726
-0.06011208 0.089224175 0.071025476 -0.053308666 -0.037138395 0.05334462 -0.11950403 -0.029659
-0.10991036 -0.19857009 0.11863961 -0.0721309 0.091010965 0.0077292756 -0.060305264 -0.092155784
0.07230047 0.12889439 0.038239714 0.08530812 -0.09249643 -0.1288401 -0.04811939 -0.15770894
0.109838895 -0.035287607 0.035224225 -0.06927872 -0.10330694 0.033140153 0.06650547 0.12332026
-0.042228032 -0.10061983 0.028668478 0.089064315 -0.09981114 0.025536455 -0.0077839103 -0.14109129
-0.030975556 -0.014792696 -0.008765958 0.077623956 0.11507627 -0.12262922 -0.11563885 0.06477574
-0.016274568 0.023709306 0.0699376 0.106209956 0.0063040135 -0.023119813 0.073557444 -0.0476948
0.06040493 0.06547063 0.013422976 -0.06889898 -0.11811013 0.023677904 -0.100988016 -0.08436211
0.047831904 0.038268466 -0.15311787 -0.036588103 0.09807815 -0.07562437 -0.13346708 -0.055201843
0.085278586 -0.030210568 -0.0215115 0.1469048 -0.12051778 -0.12422851 0.06206955 0.036375992
-0.09655247 -0.009490077 0.19250663 -0.034185737 0.038015302 -0.17731051 0.105506435 0.062884554
-0.120178245 0.052724577 -0.07635509 0.04811558 0.0020617528 -0.06404573 -0.005532076 -0.11435132
0.08798874 -0.06013956 -0.02200522 0.13246526 0.055975232 0.049686544 0.05900159 -0.050656293
0.11312092 0.014993969 0.06088302 0.058805168 -0.059771683 0.15567377 0.030977359 0.01065718
0.027711602 0.0037909872 -0.04294424 0.046732817 0.0013570971 0.06393771 0.14666347 0.019421797

backBone.2.conv1.bias f4 [6]
00000000: 04dd 853a 1548 8bb8 9436 4539 a708 4bb8
00000010: c190 1539 be6b bfb9
0.0010212963 -6.641463e-05 0.00018807716 -4.840703e-05 0.00014263672 -0.00036510633

backBone.2.bn1.weight f4 [6]
00000000: a56e 7b3f d5fa 823f fc4b 813f 0571 7b3f
00000010: e9ab 753f 5e2e 833f
0.98215705 1.0232798 1.0101314 0.9821933 0.9596544 1.0248525

backBone.2.bn1.bias f4 [6]
00000000: 7cb3 babc 159a cebd dbad 53bd 370a abbd
00000010: 3f26 893c ec47 9bbc
-0.022790663 -0.100879826 -0.051679473 -0.08351558 0.01674187 -0.018955193

backBone.2.bn1.running_mean f4 [6]
00000000: 4551 08be 4ec3 ac3e 649e 9ebe 5ecf 56be
00000010: eb49 063f c473 9a3e
-0.13312252 0.33742756 -0.30980217 -0.20977542 0.5245654 0.30166447

backBone.2.bn1.running_var f4 [6]
00000000: d774 433e 0a31 823e 10a7 273e d6c3 833e
00000010: f091 833e e78e 893e
0.1908754 0.2542804 0.16372323 0.25735348 0.2569728 0.26866838

backBone.2.conv2.weight f4 [6, 6, 3, 3]
00000000: 85a0 073e 7de3 3bbc 0d84 44bd dc35 543d
00000010: 24fc 07be 4204 aabd 4fc6 953c 802c 5a3d
00000020: 94f3 38be a93b 2d3c c020 123d 63d1 de3d
00000030: 39c9 64bb 1d83 043d 8ae0 26be dc10 7ebd
00000040: 76ae 583c 392f 97bd c031 e43c 0412 f43d
00000050: 5e91 c23c a129 9c3d 72a3 643c 02ed 34bc
00000060: 51c7 893d 6cf4 173e 1b3b c63b 15f9 d83c
00000070: 819d e13c e16c 70bd b513 ed3a a74c 00be
00000080: 5598 9dbb aca7 103c f4d9 a5bd 0c67 cd3d
00000090: de5c 073d f725 c0bd 79cf 293c 83db d73d
000000a0: 956b 21bd 8032 3dbd d5ae d2bd ee60 9a3d
000000b0: e70f a23d 5360 47bd 1e49 8ebd 119d 123e
000000c0: 6221 19bd 0d92 c1bc 5929 43bd c8e4 bc3c
000000d0: 7147 4d3d 1cb3 103d b34f dabd eee6 ffbd
000000e0: 730b 7ebd 6631 82bd e98a a63d 8fa6 893d
000000f0: 30b9 b9bd 3968 83bb 5eb0 313e 0811 043e
00000100: 5304 96bd 5098 d03d c365 723d 6a84 8d3d
00000110: ce10 04bd 7b1b b5bd 0f11 05bd 5562 b3bc
00000120: 7ab0 843d e094 e1bc 10fe b33d e24b c03c
00000130: 82c0 0d3e e33d 943d 9423 1fbe ef13 903d
00000140: 2a5e 3a3e 4aae b0bd 2b54 a0bd f870 2f3d
00000150: d398 77bd 9b72 93bd aa42 93ba 5564 43bd
00000160: 79fa 5c3d 97f3 4e3d 5131 0f3e 1a0f e23b
00000170: 7fe4 843d 328a a43d e3fe 66bd c4b6 7b3d
00000180: f2ce 97bd e533 0cbd 3c69 bb3a db44 b0bc
00000190: a9a9 21bd e0cc ec3c 6e71 d63c 2dec d1bd
000001a0: 410f 6d3d 9324 8bbd 7e9d 023d 74ed 0b3d
000001b0: 1c19 513d b46d 99bc a5e3 f93d 8fd3 113e
000001c0: 0afc 01bb 7a50 e0bd 5303 483d 0475 cc3d
000001d0: b585 493d 5b24 20be e014 fe3d 826d c83a
000001e0: 650a c33d eae1 47bd b34a 533c 601f da3d
000001f0: c62b bf3d acd3 acbd 8ede 073e 2668 8f3d
00000200: 9ca2 113b 9312 91bd 83b5 56bd 5249 083b
00000210: b123 af3d 4a23 5dbd 5ab7 bf3c 4f14 593d
00000220: 13e2 823d 3cdf 42bd fef9 873d 47e4 c9bb
00000230: 5e63 f6bc 4f08 96ba 8990 563d 0bfc 9dbd
00000240: 92f1 e93d 6387 9cbc 03ea 30bd 633a 353e
00000250: 5503 b53d 2e96 bd3d 91ce 24be 992a a6bc
00000260: d3ad 043c 8830 bcbd 7607 73bc 6c8d 5fbd
00000270: 468d e93d 012c 87bc bea5 9bbc 85fd 223c
00000280: 8bf7 ca3d 26c7 c43d 0869 4d3c 866b 02bd
00000290: 3cc9 db3d eaca 28bd 6a02 a03a f0f3 e83d
000002a0: 1d4b 35bd 8e55 0b3e 741a 8d3d 77b7 13bd
000002b0: deec 1c3e fe96 15be 1a9e 10be bce8 b0bc
000002c0: 6fee d6bd b992 013d b5c5 bcbc 3c1f 64bd
000002d0: 0577 513d 7f12 7fbc faf8 d7bd c3a6 1d3d
000002e0: 5b3e ac3d 39fe acbc d304 9c3d 0753 e7bd
000002f0: 2a9d 173e a285 5c3c 20ce 4cbd 8d0f f5bd
00000300: 6f4b 5abd 3d2d 8b3d 433f 1b3e 99e3 553b
00000310: 5b1c 0e3c f430 b83a 00d8 5f3d a2ea 333d
00000320: cf50 a33d 9c30 50bc 1a76 d4bb 36a3 f33d
00000330: 2cfc 6f3d 8cbb a8bd 5576 83bd cbce 6c3c
00000340: f162 e93c b836 d63c 2630 80bd 22cb 4abd
00000350: e51f b3bd 5dce ebbd c996 f93d 428e b03b
00000360: acc5 cabd 5053 0ebd 3bc5 e03c 8f79 bfbd
00000370: b572 4a3c 347d 40bd ae64 8a3c 5587 65bd
00000380: ac79 07be e374 36bd 2bdf 8abd 255a de3d
00000390: 7dc1 5a3d 3748 4e3d 0e0a c03d cbd0 1dbc
000003a0: e423 05bc 6be5 343d f07b 8e3d e1cf 963d
000003b0: 724c 0dbe 1536 06bd fd3c 1abd bd15 0abe
000003c0: 8f1c 1a3d e892 f53d 1be1 0cbe 1d44 64bd
000003d0: 792d 8bbc b3c9 933d b026 16be 3455 88bd
000003e0: d0a1 f2bd 53eb 13be b2c3 0b3e 0746 b7bb
000003f0: c2a2 aa3c 6ac4 ac3d f6bd 963d b83c 473d
0.13244827 -0.011467812 -0.047977496 0.051809177 -0.13279778 -0.08301593 0.018283037 0.053265095
-0.18061668 0.010573306 0.035675764 0.10879781 -0.0034909977 0.032351602 -0.16296592 -0.062027797
0.0132251885 -0.07382054 0.027855754 0.11917499 0.023750957 0.076251276 0.013954984 -0.011042835
0.0672747 0.14839333 0.0060495264 0.026485959 0.027540924 -0.058697585 0.0018087538 -0.1252924
-0.004809419 0.008829039 -0.08098212 0.1002942 0.03304755 -0.09382241 0.010364407 0.105399154
-0.03940924 -0.04619074 -0.10287253 0.07538019 0.079131894 -0.048675846 -0.0694754 0.14317729
-0.037385352 -0.023629213 -0.047646854 0.02305831 0.05011696 0.035327062 -0.10659733 -0.12495218
-0.062022638 -0.06357078 0.08131964 0.06721222 -0.09068525 -0.004010227 0.17352435 0.12897122
-0.073250435 0.10185301 0.05917908 0.069100216 -0.03224259 -0.08843132 -0.03248697 -0.021897474
0.06478973 -0.02753681 0.08788693 0.023473684 0.13842967 0.072383665 -0.15540916 0.07035052
0.18199983 -0.08626993 -0.07828554 0.042832345 -0.06044848 -0.07199594 -0.0011235077 -0.047703106
0.053949807 0.050525274 0.13983656 0.006898773 0.06488895 0.08034171 -0.056395423 0.061453596
-0.074125186 -0.034229178 0.001429833 -0.021517208 -0.03946844 0.028906286 0.026177134 -0.10250125
0.057875875 -0.06794085 0.031888478 0.034162 0.051049337 -0.018729068 0.12201623 0.1424086
-0.0019834065 -0.1095285 0.048831295 0.099832565 0.04919978 -0.15638869 0.12406325 0.0015291425
0.09523467 -0.048799433 0.012896228 0.106505156 0.09334521 -0.08438811 0.13268492 0.070022866
0.0022222167 -0.07083621 -0.052419197 0.0020795655 0.085517295 -0.053988732 0.023402859 0.052997883
0.063907765 -0.047576174 0.06639479 -0.006161246 -0.030076679 -0.0011446568 0.052383933 -0.07714089
0.11423029 -0.019107526 -0.04319192 0.17698054 0.08838526 0.0925716 -0.16094424 -0.020283984
0.008098084 -0.09188944 -0.014833322 -0.05457823 0.11403899 -0.016500475 -0.01899993 0.009948139
0.09910496 0.09608297 0.012537248 -0.031840824 0.10731742 -0.04120914 0.0012207751 0.113746524
-0.044261087 0.13606855 0.06889811 -0.036063638 0.15324733 -0.1460838 -0.14122811 -0.021595351
-0.10494696 0.031634066 -0.023043493 -0.05569385 0.051138896 -0.015568375 -0.105455354 0.038489114
0.08410331 -0.021117317 0.07618108 -0.11295133 0.14806047 0.013459595 -0.050001264 -0.11965857
-0.053294595 0.06795738 0.15160851 0.003263688 0.008673753 0.0014052675 0.054649353 0.043924935
0.079743974 -0.012706902 -0.0064838054 0.118963644 0.0585901 -0.08238897 -0.064190544 0.0144536
0.028489562 0.026149139 -0.062591836 -0.04951013 -0.08746318 -0.1151397 0.12186963 0.005388052
-0.09900984 -0.03474742 0.027437797 -0.09349357 0.01235645 -0.046994403 0.016893711 -0.056037266
-0.13230008 -0.044545066 -0.06780847 0.108570375 0.05340718 0.05036184 0.09376918 -0.0096323
-0.008126233 0.044164103 0.06957233 0.073638685 -0.13798693 -0.03276642 -0.03765582 -0.13484855
0.03762489 0.11990911 -0.13757746 -0.05572902 -0.016989456 0.072162054 -0.14663196 -0.06656876
-0.118472695 -0.14445238 0.1364887 -0.0055930647 0.020829562 0.084359005 0.07360451 0.04864189

backBone.2.conv2.bias f4 [6]
00000000: 844e da39 e699 383a 4e48 0fb9 08ef 51b9
00000010: 8b07 77ba ba64 233a
0.000416387 0.00070419756 -0.00013664478 -0.0002002084 -0.0009423426 0.0006232966

backBone.2.bn2.weight f4 [6]
00000000: 2577 7b3f bab2 7a3f cb9d 7b3f c1fb 833f
00000010: 3ecc 883f 317d 723f
0.98228675 0.97928965 0.9828765 1.0311204 1.068733 0.94722277

backBone.2.bn2.bias f4 [6]
00000000: 2196 a4bd f7b3 32be 84a8 8e3b 329b 4abd
00000010: 816b b9bd 6197 c9bd
-0.08036447 -0.17451464 0.0043535847 -0.049464412 -0.09053708 -0.09843326

backBone.2.bn2.running_mean f4 [6]
00000000: 85f9 8a3c df59 d53d e699 9f3e d6c1 903d
00000010: fa06 2dbe 9bb6 df3d
0.016964683 0.10417532 0.31172103 0.07068221 -0.16897193 0.10923501

backBone.2.bn2.running_var f4 [6]
00000000: cbe3 843d f555 e33d d66e f83d d189 ab3d
00000010: 5468 ba3d 77a1 b43d
0.064887606 0.111003794 0.12130515 0.08375896 0.0910193 0.088198595
