gameserver_django/webgameserver/models/AZ-04-05-24-EIPC51-A/main.pt (torch, 177420 bytes, 45 tensors)

startBlock.0.weight f4 [2, 4, 3, 3]
0	0xbd5e3722	-0.054251797
1	0x3cc5f5d6	0.024165075
2	0xbcbcfcd9	-0.023069786
3	0x3c4b835f	0.012421458
4	0xbd18120a	-0.03712658
5	0x3cefe957	0.02928607
6	0xbd72ce8f	-0.05927902
7	0xbd36f4c4	-0.04466702
8	0xbd8ef33f	-0.06979989
9	0x3da931d7	0.08261459
10	0x3dbcbd6e	0.09215818
11	0x3cd171b4	0.025566913
12	0x3d696f71	0.056991044
13	0x3daa4bd2	0.08315243
14	0x3da053cf	0.07828485
15	0xbc3bf06a	-0.011470893
16	0x3d17f30a	0.037097014
17	0x3d2ebf11	0.042662684
18	0x3e7e3c1a	0.24827614
19	0xbe27c1c9	-0.16382517
20	0x3e1dff7d	0.15429492
21	0xbe6617ac	-0.22469968
22	0x3deab383	0.114600204
23	0x3dba6f73	0.091032885
24	0x3ce8d1df	0.028420387
25	0x3e80b695	0.251393
26	0x3e0aef7d	0.1356792
27	0xbc3618ee	-0.011114342
28	0xbda8e4fd	-0.08246801
29	0xb8ee736b	-0.00011370223
30	0xbcd3c643	-0.025851374
31	0xbd54bdd2	-0.05193884
32	0xbd829f08	-0.06377989
33	0xbb639734	-0.0034727575
34	0x3b99fa69	0.0046990407
35	0xbd56cd3a	-0.052441813
36	0x3da1b687	0.078961425
37	0x3d51dcc4	0.05123593
38	0x3e1c2b3a	0.15250865
39	0x3dcded01	0.100549705
40	0xbdc3c333	-0.09558716
41	0xbb34c6c9	-0.0027584305
42	0x3d6679ee	0.056268625
43	0xbd553e73	-0.05206151
44	0xbcd3ab58	-0.025838539
45	0xbd0704df	-0.03296363
46	0x3c2bbfdb	0.010482754
47	0x3d51200e	0.05105596
48	0x3dbd2fc1	0.09237624
49	0x3da6b8c3	0.08140709
50	0x3e3b2097	0.18274151
51	0x3a9aab48	0.0011800313
52	0xbde7a52b	-0.113108
53	0xbdb10b51	-0.086447366
54	0xbd3aca39	-0.04560301
55	0x3d5a2248	0.05325535
56	0xbe35da64	-0.1775909
57	0xbd63fe2b	-0.055662315
58	0x3dcfa89c	0.101395816
59	0xbd9484a8	-0.07251865
60	0x3cea24c1	0.028581979
61	0x3e1c31c0	0.15253353
62	0xbe659b9b	-0.2242264
63	0xbd285c04	-0.041103378
64	0xbdbec4aa	-0.093148544
65	0xbdbe1a06	-0.09282307
66	0xbd12bd31	-0.03582496
67	0xbba3142f	-0.0049767713
68	0xbdea1ab3	-0.11430874
69	0x3ca15da1	0.019697966
70	0x3cab0228	0.020875052
71	0xbb5cf83c	-0.0033717295

startBlock.0.bias f4 [2]
0	0x3997c4c7	0.00028947575
1	0xb9c10f2e	-0.00036823138

startBlock.1.weight f4 [2]
0	0x3fa12306	1.2588813
1	0x3f86cd67	1.0531434

startBlock.1.bias f4 [2]
0	0x3f23b8fa	0.63954127
1	0x3ed57563	0.4169112

startBlock.1.running_mean f4 [2]
0	0x3e2e36d3	0.17013101
1	0x3bb0179a	0.0053739073

startBlock.1.running_var f4 [2]
0	0x3d28383a	0.041069247
1	0x3cc7a07d	0.024368519

backBone.0.conv1.weight f4 [2, 2, 3, 3]
0	0xbe2c721e	-0.16840407
1	0x3d1c4d9a	0.038159944
2	0x38c9729c	9.6057745e-05
3	0xbda3ed7a	-0.080042794
4	0x3dab3e32	0.08361472
5	0xbdb9f0e6	-0.09079151
6	0x3d70ce2b	0.058790367
7	0x3c1df4df	0.009640901
8	0x3e0ab0e3	0.1354404
9	0xbdd96b76	-0.106162
10	0xbdfc278d	-0.12312231
11	0xbdcee1a0	-0.10101628
12	0x3e35b44e	0.17744562
13	0xbcb3b8d6	-0.021938723
14	0x3e98ccb5	0.2984368
15	0x3e3c8cd6	0.184131
16	0xbe74070b	-0.23830812
17	0x3e1a38f1	0.15060784
18	0xbd61b827	-0.055107262
19	0x3d529b92	0.051417895
20	0xbe305d64	-0.17223126
21	0xbdce806c	-0.10083088
22	0xbe6cfae6	-0.23142585
23	0xbe08d1e9	-0.13361324
24	0x3e1bddd2	0.15221336
25	0xbe198a13	-0.14994077
26	0x3e1ec053	0.15503053
27	0x3e29aa06	0.16568765
28	0x3eaa250f	0.33231398
29	0x3e2c477b	0.16824143
30	0xbdbce738	-0.09223789
31	0x3e87fce4	0.26560128
32	0x3d3a306e	0.045456342
33	0xbdb2fb89	-0.08739383
34	0x3cba2a56	0.022725265
35	0xbdcb9737	-0.09940951

backBone.0.conv1.bias f4 [2]
0	0xb8b1d568	-8.479768e-05
1	0xb89d1e80	-7.4920245e-05

backBone.0.bn1.weight f4 [2]
0	0x3f63d6f7	0.88999885
1	0x3f83f89e	1.0310247

backBone.0.bn1.bias f4 [2]
0	0x3e9fa371	0.31179383
1	0x3e29ba19	0.16574897

backBone.0.bn1.running_mean f4 [2]
0	0x3dbbe2f8	0.0917415
1	0x3c0dee43	0.008662763

backBone.0.bn1.running_var f4 [2]
0	0x3e494764	0.1965614
1	0x3ec4458d	0.38334313

backBone.0.conv2.weight f4 [2, 2, 3, 3]
0	0xbd84f497	-0.06491964
1	0xbd89bf05	-0.06725887
2	0xbe372b04	-0.17887503
3	0x3d40cb85	0.04706909
4	0x3d7b3e65	0.0613388
5	0xbce0a0c0	-0.027420402
6	0x3e0d9038	0.13824546
7	0xbda9b2f2	-0.08286084
8	0x3aa96453	0.0012923576
9	0xbd3383ae	-0.04382675
10	0x3deb5045	0.114899196
11	0xbe3eb849	-0.18624987
12	0xbd8297c7	-0.063766055
13	0xbe31d5cd	-0.17366715
14	0x3e8afbc1	0.27145198
15	0xbd889391	-0.06668771
16	0x3e6ef9da	0.23337498
17	0x3e2d2ba2	0.16911176
18	0xbd860481	-0.06543828
19	0xbb95ec35	-0.004575277
20	0xbdd4c578	-0.10389227
21	0xbbc24b28	-0.0059293695
22	0x3dcbff05	0.099607505
23	0x3e77d2af	0.24201463
24	0xbcd17476	-0.025568228
25	0x3b5765bb	0.0032867033
26	0x3e5537bb	0.2082204
27	0x3dfec13c	0.124392
28	0x3dbdd693	0.092694424
29	0x3b088619	0.0020831882
30	0x3e703a46	0.2345973
31	0xbe5d735f	-0.21626042
32	0x3e67ed63	0.2264915
33	0x3ddaa744	0.10676435
34	0xbdb8e911	-0.09028829
35	0xbdb6e8f2	-0.089311495

backBone.0.conv2.bias f4 [2]
0	0xb93c39cb	-0.00017950607
1	0xb958ae70	-0.00020664348

backBone.0.bn2.weight f4 [2]
0	0x3eef7356	0.46767682
1	0x3f5d0e9b	0.8635041

backBone.0.bn2.bias f4 [2]
0	0x3ea38fa1	0.31945518
1	0x3e9f6618	0.3113258

backBone.0.bn2.running_mean f4 [2]
0	0x3d98b724	0.07456806
1	0x3e85230d	0.26003304

backBone.0.bn2.running_var f4 [2]
0	0x3dcb9da9	0.09942181
1	0x3dd575e9	0.1042288

backBone.1.conv1.weight f4 [2, 2, 3, 3]
0	0xbe2fafbe	-0.17156884
1	0xbe52868e	-0.20559141
2	0xbe644440	-0.2229166
3	0x3d75b6e5	0.059988875
4	0x3b4bb993	0.0031085953
5	0x3cccdc2a	0.025007326
6	0xbca1d2ab	-0.019753775
7	0x3d105028	0.035232693
8	0x3e56352a	0.20918718
9	0xbd844dba	-0.06460138
10	0x3e57fde9	0.21092953
11	0x3e62dab0	0.22153735
12	0x3e236249	0.15955462
13	0x3e481073	0.19537525
14	0x3cf9ace4	0.030477948
15	0xbc35d21b	-0.011097456
16	0x3d38e901	0.045144085
17	0xbd190453	-0.03735764
18	0xbe20fe62	-0.1572204
19	0xbcede6b7	-0.029040677
20	0x3e166cff	0.14690016
21	0xbd08e7ce	-0.03342419
22	0x3d65b41f	0.05607998
23	0xbd89d475	-0.06729976
24	0xbe2223c9	-0.15833963
25	0x3e2f0d76	0.17094979
26	0x3d996e1a	0.07491703
27	0xbe224e51	-0.15850188
28	0x3e3736fa	0.17892066
29	0xbcaf1869	-0.021373944
30	0xbd79e122	-0.06100572
31	0x3c938001	0.018005373
32	0x3e6f496a	0.23367849
33	0xbe4f9ec3	-0.20275407
34	0x3dd83a5d	0.10558007
35	0x3e82c1af	0.25538394

backBone.1.conv1.bias f4 [2]
0	0xb5e5297a	-1.7073901e-06
1	0xb8974606	-7.213284e-05

backBone.1.bn1.weight f4 [2]
0	0x3f732fc0	0.94994736
1	0x3f75e3fd	0.9605101

backBone.1.bn1.bias f4 [2]
0	0x3deda6a0	0.11604047
1	0x3e9b8821	0.30377296

backBone.1.bn1.running_mean f4 [2]
0	0x3eadfcee	0.33982033
1	0x3eb611c9	0.35560444

backBone.1.bn1.running_var f4 [2]
0	0x3e8b537c	0.2721213
1	0x3ea26bfd	0.31723014

backBone.1.conv2.weight f4 [2, 2, 3, 3]
0	0xbdad2268	-0.08453828
1	0x3e305815	0.172211
2	0x3dd9834a	0.106207445
3	0xbd10b279	-0.035326455
4	0x3e363884	0.17794997
5	0xbccc79fc	-0.02496051
6	0xbd3a9238	-0.0455496
7	0xbe232e6d	-0.15935679
8	0xbe98cee0	-0.29845333
9	0x3e941c3e	0.28927797
10	0x3d6de7d5	0.05808242
11	0x3d479a06	0.048730873
12	0x3cf9ce87	0.030493988
13	0x3e895239	0.26820543
14	0xbd8c4a54	-0.068501145
15	0x3daa0f6c	0.08303723
16	0xbc48193c	-0.012213048
17	0xbdd88b73	-0.10573473
18	0x3d4a469e	0.049383752
19	0x3e8f01a3	0.27930936
20	0x3cef31ac	0.02919849
21	0x3d65087f	0.055916306
22	0x3c0c39e8	0.008558728
23	0xbd76cf55	-0.06025632
24	0x3dc3f4e6	0.09568195
25	0x3e31c5c5	0.173606
26	0xbe584bc9	-0.2112266
27	0x3dbb6b6a	0.09151347
28	0xbd3d62c3	-0.046236765
29	0x3d67b4cd	0.05656891
30	0x3e11cf72	0.1423929
31	0x3e679de2	0.22618821
32	0xbd14a300	-0.03628826
33	0xbcae6b95	-0.021291533
34	0x3dd7b2bf	0.1053214
35	0x3e179768	0.1480385

backBone.1.conv2.bias f4 [2]
0	0x37ad4a81	2.06579e-05
1	0x3913a1b7	0.00014079256

backBone.1.bn2.weight f4 [2]
0	0x3f0520fc	0.52003455
1	0x3f2e47b9	0.6807819

backBone.1.bn2.bias f4 [2]
0	0x3e2217a8	0.15829337
1	0x3e8459c7	0.25849745

backBone.1.bn2.running_mean f4 [2]
0	0x3e952f3d	0.29137602
1	0x3efea6cd	0.49736634

backBone.1.bn2.running_var f4 [2]
0	0x3e39e2cb	0.18152921
1	0x3e265c84	0.1624623

policyHead.0.weight f4 [6, 2, 3, 3]
0	0xbd8af7d6	-0.06785552
1	0xbe4f3f44	-0.20238978
2	0xbd893087	-0.06698709
3	0x3a1e8b59	0.0006047986
4	0xbe6285bf	-0.22121333
5	0x3e3afa2f	0.182595
6	0x3da2ad61	0.07943226
7	0x3e2fdba8	0.17173636
8	0x3d535706	0.051596664
9	0x3e820582	0.25394827
10	0x3d1157e8	0.035484225
11	0x3d242d61	0.04008234
12	0x3d746e8b	0.059675734
13	0xbe036656	-0.12832007
14	0xbd5ac4c4	-0.053410307
15	0xbda8915c	-0.0823085
16	0xbd90cd90	-0.07070458
17	0xbd9d4a9d	-0.07680247
18	0xbda98b6a	-0.08278544
19	0x3e7f7ec9	0.24950708
20	0xbd8c438e	-0.068488225
21	0x3e5fef4c	0.21868628
22	0xbe0788ff	-0.13235854
23	0xbd31a8d2	-0.04337389
24	0x3e2130c1	0.15741254
25	0xbd082ac4	-0.03324391
26	0xbe3eefe1	-0.18646194
27	0xbdc51f49	-0.09625108
28	0x3d8a383a	0.067490056
29	0xbdbcd3f9	-0.09220118
30	0xbdc172af	-0.09445702
31	0xbc178cc4	-0.00924987
32	0x3d94f80f	0.07273876
33	0xbda1a36e	-0.078925
34	0xbd14ed79	-0.036359284
35	0x3e760629	0.24025787
36	0xbe767c6f	-0.24070905
37	0x3e05ea4c	0.13077658
38	0x3e0f832c	0.14014882
39	0x3e5af09f	0.21380852
40	0xbe960a37	-0.29304668
41	0xbcf40eba	-0.029792178
42	0x3cc6a401	0.024248125
43	0xbc395db5	-0.011313845
44	0x3de7e374	0.1132268
45	0x3e608ca2	0.21928647
46	0xbd8bbce8	-0.068231404
47	0xbe19c58f	-0.15016769
48	0xbdd7ccb1	-0.10537089
49	0x3e42851b	0.18996088
50	0xbc2f27fe	-0.010690687
51	0xbcdb5bfe	-0.026777264
52	0xbe01615a	-0.12634793
53	0x3d4ed9f8	0.05050084
54	0xbca6dc77	-0.020368798
55	0x3e451e0e	0.19249746
56	0x3e2f1fb8	0.17101943
57	0x3e809bc6	0.25118846
58	0xbeb07eb2	-0.3447166
59	0x3dd0a89b	0.10188409
60	0x3dc8a385	0.09796814
61	0xbdb5e438	-0.0888142
62	0x3dcb2cf8	0.099206865
63	0xbd2fc6a4	-0.042914048
64	0xbdc40710	-0.095716596
65	0xbd3a00e4	-0.045411006
66	0x3da5c8ae	0.08094917
67	0xbb214f5f	-0.002461396
68	0xbe29633a	-0.16541758
69	0xbd686096	-0.056732737
70	0x3d1a0b36	0.037608348
71	0x3df0a08e	0.117493734
72	0xbddf7721	-0.10911394
73	0x3c7073c0	0.014676034
74	0xbda134c2	-0.07871391
75	0x3e43e291	0.19129397
76	0x3c57849a	0.013154173
77	0xbd8c8b68	-0.06862527
78	0xbe633ebb	-0.22191899
79	0x3e8c4035	0.27392736
80	0xbd0b8893	-0.034065794
81	0xbda9e1e6	-0.0829504
82	0x3dfb73f9	0.122779794
83	0x3c6ce915	0.014459868
84	0x3e3f1259	0.18659343
85	0xbe3b6c56	-0.18303046
86	0xbe166dce	-0.14690325
87	0xbd4f1e30	-0.0505659
88	0xbde7ff07	-0.113279395
89	0x3e0c1cd1	0.13682868
90	0xbe5d2699	-0.21596755
91	0x3e9a4f23	0.30138502
92	0xbe0d47fb	-0.1379699
93	0xbe5af98f	-0.21384262
94	0x3cfeec7f	0.03111863
95	0xbdbb0e8d	-0.09133635
96	0x3ea259d5	0.3170916
97	0xbde6de47	-0.11272865
98	0xbdab6bcb	-0.08370169
99	0xbc171d18	-0.009223245
100	0xbdaaa366	-0.08331947
101	0x3ddb3734	0.107038885
102	0x3e6b6f0a	0.22991577
103	0xbdb46e5f	-0.08810114
104	0x3df02130	0.1172508
105	0xbe2b99cb	-0.16757886
106	0x3c0425d5	0.0080656605
107	0x3b93c855	0.0045099654

policyHead.0.bias f4 [6]
0	0xb6c900fe	-5.9903823e-06
1	0xb6f5d7c9	-7.3266897e-06
2	0x3791f5ec	1.7399863e-05
3	0xb6f195b4	-7.1997874e-06
4	0x392a7b16	0.00016258316
5	0x3859ed45	5.1957806e-05

policyHead.1.weight f4 [6]
0	0x3ff2d365	1.8970762
1	0x3fec00f5	1.8437792
2	0x3ff4b404	1.9117436
3	0x3ff9fe18	1.9530668
4	0x3fecd732	1.8503172
5	0x3fe8eed5	1.8197886

policyHead.1.bias f4 [6]
0	0x3f58b7cc	0.8465545
1	0x3f3f1bda	0.74651873
2	0x3f35153c	0.70735526
3	0x3f3f7536	0.74788225
4	0x3f37a45b	0.7173516
5	0x3f409dfb	0.7524106

policyHead.1.running_mean f4 [6]
0	0xbe425374	-0.18977147
1	0x3dcc7fbf	0.09985303
2	0xbc834421	-0.016023697
3	0x3ea94e4a	0.33067542
4	0xbe0fa0f2	-0.1402624
5	0xbddb16a9	-0.106976815

policyHead.1.running_var f4 [6]
0	0x3e6a361a	0.228722
1	0x3e699745	0.22811611
2	0x3e4a07ad	0.1972949
3	0x3e8b7e1c	0.2724465
4	0x3e189fd9	0.14904727
5	0x3e948b8f	0.29012725

policyHead.4.weight f4 [81, 486]
0	0x3ea0f461	0.31436446
1	0xbe8c58bf	-0.27411458
2	0xbe219038	-0.15777671
3	0xbd09fecc	-0.03369026
4	0xbcee9c13	-0.029127156
5	0xbd40436c	-0.0469393
6	0xbd4292bf	-0.04750323
7	0x3cbf960f	0.023386983
8	0x3ca7364a	0.02041163
9	0xbc3b83c6	-0.011444991
10	0x3dc59ecb	0.09649428
11	0xbdeb2174	-0.1148099
12	0xb9777251	-0.00023598342
13	0x3c80f307	0.015740884
14	0x3d57625b	0.052584033
15	0xbc58e160	-0.013237327
16	0xbd10228b	-0.035189193
17	0xbd088c59	-0.03333697
18	0x3d9f0b6a	0.07765849
19	0x3e5a7b1c	0.21336025
20	0x3d89dbe3	0.06731393
21	0x3d9c5f00	0.07635307
22	0x3d3239a2	0.043511994
23	0xbc6e9d25	-0.014563833
24	0xbdb1b235	-0.086765684
25	0x3d8a852c	0.06763682
26	0xbd03a241	-0.03213716
27	0xbaff5df7	-0.001948296
28	0xbd9f2ebb	-0.07772585
29	0x3d1c00c4	0.038086668
30	0xbc4accf5	-0.012377967
31	0x3cdf019e	0.02722245
32	0xbcb07225	-0.021538803
33	0x3b8a7430	0.0042252764
34	0x3d01010d	0.031495143
35	0x3b60da66	0.0034309863
36	0xbd9cea99	-0.076619335
37	0xbda51ad1	-0.080617554
38	0xbc864080	-0.016388178
39	0xbd18858b	-0.03723673
40	0xbcd19a85	-0.025586376
41	0xbccf275e	-0.025287326
42	0x3d0376c4	0.032095686
43	0x3db0590b	0.086107336
44	0xbd083488	-0.033253223
45	0xbd4c6870	-0.049904287
46	0x3cfcdb6c	0.030866347
47	0x3a81bfba	0.0009899058
48	0x3d16a030	0.03677386
49	0xbbcda423	-0.00627567
50	0xbc8b5d58	-0.017012283
51	0x3d2a4167	0.04156628
52	0xbce9d957	-0.028546019
53	0xbc83c531	-0.01608524
54	0xbc8a3370	-0.01687023
55	0x3d47cefa	0.048781373
56	0xbcca0292	-0.024659429
57	0x3c5ce714	0.013482828
58	0x3d2f0bd7	0.0427359
59	0x3c7477d3	0.014921146
60	0x3d670109	0.05639747
61	0xbd354333	-0.04425354
62	0x3d10dc43	0.035366308
63	0xbd21d745	-0.039511938
64	0xbd449e2a	-0.0480024
65	0xbcb41240	-0.021981359
66	0xbdb834a4	-0.089944154
67	0xbd23d304	-0.039996162
68	0xbcdf30c4	-0.027244933
69	0xbd09efde	-0.03367602
70	0x3bfde8a0	0.0077486783
71	0x3c7defc7	0.015499062
72	0xbd7620b2	-0.060089774
73	0xbda8f34f	-0.082495324
74	0xbc9bd774	-0.019023634
75	0xbc9ba596	-0.018999856
76	0xbd4d9cbf	-0.050198313
77	0xbd728844	-0.059211984
78	0x3c942a1e	0.01808649
79	0xbd7160bd	-0.058930147
80	0xbbba0524	-0.0056768823
81	0x3d0f3b8b	0.034968894
82	0xbe155f51	-0.14587142
83	0x3dc0093d	0.09376762
84	0x3d091dfd	0.033475865
85	0xbd68afdc	-0.056808338
86	0xbd013743	-0.031546842
87	0xbd88a9a7	-0.066729836
88	0xbdc69d97	-0.096980266
89	0x3cb658d8	0.02225916
90	0xbdfb8471	-0.122811206
91	0x3e9e5b99	0.30929258
92	0xbdb7d48c	-0.08976087
93	0xbd9d4722	-0.07679583
94	0xbcd0c5b8	-0.025484905
95	0x398fe97a	0.0002744904
96	0xbcf252bc	-0.029580466
97	0x3c6aedb0	0.014338896
98	0x3cd8c05a	0.026458908
99	0x3d9b0892	0.07569994
100	0xbe0ff40f	-0.14057945
101	0xbc9ebfa5	-0.019378493
102	0x3d4c8134	0.049927905
103	0xbb516fe9	-0.0031957573
104	0xbc97b5d3	-0.018519318
105	0x3bced3fb	0.006311891
106	0x3d4611ab	0.048356693
107	0x3bcc3b5d	0.0062326626
108	0x3cd89225	0.026436875
109	0x3da382ba	0.079839185
110	0x3d54f3fa	0.051990487
111	0xbd3b2eaa	-0.0456988
112	0x3cd8a774	0.026447035
113	0x3b6dfea5	0.003631511
114	0x3ce12e2e	0.02748784
115	0x3d5cb624	0.05388464
116	0x3c9a97a6	0.01887114
117	0x3be18504	0.006882312
118	0xbb342440	-0.0027487427
119	0xbc32913d	-0.010898885
120	0xbcbdd5cd	-0.023173237
121	0xbd4a1512	-0.0493365
122	0xbc1d2b5e	-0.009592859
123	0x3bf2ad2f	0.007405899
124	0xbd5f1994	-0.054467753
125	0x3dc903ee	0.09815203
126	0xbd485617	-0.048910227
127	0x3bbbe449	0.005734001
128	0xbd84382c	-0.064560264
129	0xbca90a31	-0.020634742
130	0xbcc6d767	-0.024272634
131	0x3d036e72	0.03208775
132	0xbd340316	-0.043948255
133	0x3ca0665f	0.019580064
134	0x3d5c3494	0.05376108
135	0xba8292dd	-0.0009961982
136	0x3d5ecfc3	0.054397356
137	0xbdac40e7	-0.08410817
138	0x3cccb6c6	0.024989497
139	0xbcf6f223	-0.030144757
140	0x3d85fb80	0.065421104
141	0xbd910204	-0.070804626
142	0x3dd3837e	0.103278145
143	0x3d3697fc	0.044578537
144	0x3db9da20	0.09074807
145	0xbcfdf73e	-0.031001683
146	0xbcbad0bf	-0.022804616
147	0x3d475b39	0.04867098
148	0x3ccc39ee	0.024929967
149	0x3cb0846c	0.021547519
150	0xbc77d6bc	-0.01512688
151	0x3deaf5f9	0.11472697
152	0x3d3bd93f	0.04586148
153	0x3d45de07	0.048307445
154	0xbd0e585e	-0.034752242
155	0xbc80444a	-0.015657563
156	0x3d35f4ca	0.044422902
157	0x3d4833f9	0.04887769
158	0xbc84bd99	-0.016203688
159	0x3c734bea	0.014849642
160	0x3da6f8c1	0.08152915
161	0xbd153e91	-0.03643662
162	0x3e7223c9	0.23646463
163	0xbed09a12	-0.40742546
164	0x3d333b10	0.0437575
165	0x3c2055ee	0.009786112
166	0x3cb652e1	0.022256317
167	0xbc50af4a	-0.012737105
168	0xbc9d15ed	-0.019175494
169	0xbd67e0a3	-0.056610715
170	0x3d5b519c	0.053544626
171	0xbcf4fc48	-0.029905453
172	0x3f0426ef	0.5162191
173	0xbdbc7681	-0.0920229
174	0xbde70f01	-0.11282159
175	0x3c465fa9	0.012107768
176	0x3d385189	0.044999633
177	0x3c23bab6	0.009993246
178	0xbcd47b44	-0.025937684
179	0xbcca8930	-0.02472362
180	0xbdabf742	-0.0839677
181	0xbd7a74c1	-0.0611465
182	0x3da60e89	0.08108241
183	0x3e17dd63	0.14830546
184	0x3d14b4ef	0.036305364
185	0xbcc9984f	-0.02460876
186	0xbca36877	-0.019947274
187	0x3d496f59	0.049178455
188	0x3ce9353d	0.028467769
189	0x3d6fee97	0.058577146
190	0xbb54ae55	-0.0032452543
191	0xbb241ae5	-0.0025040444
192	0xbd4fc138	-0.050721377
193	0x3d59d23b	0.053179007
194	0x3d50c94c	0.05097322
195	0xbc0f3ba5	-0.008742248
196	0xbcaadd97	-0.020857615
197	0xbd5d5cdd	-0.05404364
198	0xbc852604	-0.016253479
199	0xbd199a8d	-0.037500907
200	0xbce13640	-0.027491689
201	0xbb63a1de	-0.0034733932
202	0xbde0a350	-0.109686494
203	0xbd91e1ff	-0.071231835
204	0x3d785121	0.060624246
205	0x3d5cd1cb	0.05391101
206	0x3bdc9891	0.0067320545
207	0x3d4d2beb	0.05009071
208	0x3cb8d43e	0.022562142
209	0xbab47549	-0.0013767864
210	0x3cab0633	0.02087698
211	0x3c841179	0.016121613
212	0x3c91cb66	0.017797183
213	0x3bdb1700	0.0066860914
214	0x39620326	0.00021554212
215	0xbd2c175a	-0.042014457
216	0xbccd1b73	-0.025037503
217	0x3c291e4d	0.010322166
218	0x3c9a8b97	0.01886539
219	0x3cab8265	0.0209362
220	0xbbb8bc59	-0.005637687
221	0xbc13d728	-0.009023465
222	0xbc8bde02	-0.017073635
223	0x3db70ce1	0.08938003
224	0x3bca0f9d	0.006166412
225	0x3bbdba60	0.00579004
226	0x3b365661	0.0027822482
227	0x3beefa14	0.007292995
228	0xbc995015	-0.018714944
229	0x3d1602af	0.036623653
230	0xbcfaf645	-0.030635009
231	0xbd346a42	-0.044046648
232	0xbbd2f661	-0.006438062
233	0x3c093cc9	0.008376309
234	0x3d77b42f	0.06047457
235	0xbc1c3414	-0.009533901
236	0xbd792229	-0.060823593
237	0x3da14c59	0.0787589
238	0xbcee0c54	-0.029058613
239	0xbc0da5ca	-0.008645484
240	0xbd8862df	-0.06659483
241	0xbdadca3a	-0.08485837
242	0x3cfda4ac	0.03096231
243	0x3e612f5d	0.21990724
244	0xbee17579	-0.44034937
245	0x3d96caca	0.07362898
246	0x3d5aec4f	0.053448018
247	0x3d08e5a0	0.033422112
248	0xbcfcefd8	-0.030876085
249	0xbcb1a109	-0.021683233
250	0xbdc98c17	-0.09841173
251	0x3cef2f88	0.02919747
252	0xbe5354ff	-0.20637892
253	0x3ef98a94	0.4873854
254	0xbcaa1ebd	-0.02076661
255	0xbd1ef3f4	-0.03880687

policyHead.4.bias f4 [81]
0	0xbd7ec1aa	-0.06219641
1	0xbc908ffb	-0.01764678
2	0xbc8fc487	-0.017549766
3	0x3c85dcd6	0.016340654
4	0xbd2ae74b	-0.041724484
5	0x3cde4c70	0.027136058
6	0xbd0ec382	-0.03485442
7	0xbd4fec45	-0.050762434
8	0xbd3c31be	-0.045945875
9	0xbccd70a2	-0.025078122
10	0x3d483d12	0.048886366
11	0xbcd2112a	-0.02564295
12	0x3d243d5f	0.04009759
13	0x3c96f7c4	0.01842869
14	0x3c48ea7e	0.012262939
15	0xbbb14706	-0.005410078
16	0xbb299d43	-0.0025881089
17	0xbc4b800c	-0.0124206655
18	0x3d062685	0.03275158
19	0x3ce942f2	0.028474305
20	0xbcd59c79	-0.026075589
21	0x3cc7b4ed	0.024378264
22	0x3bfa3a70	0.007636361
23	0xbc5d53b2	-0.013508724
24	0xbce89bcf	-0.028394608
25	0x3caff82c	0.021480642
26	0x3ba7fa67	0.005126286
27	0xbcde2527	-0.027117325
28	0x3d02b3d3	0.031909775
29	0xbd42aa23	-0.047525536
30	0x3d26cd45	0.040723104
31	0xbd11919c	-0.035539255
32	0xbcd15256	-0.025551956
33	0x3d13339a	0.035937883
34	0x3cec6a03	0.028859144
35	0xbc964f2a	-0.018348295
36	0x3c88edb0	0.0167149
37	0x3cad98dd	0.021191055
38	0x3cc3a272	0.02388117
39	0x3d4e3ff0	0.050353944
40	0x3c094a2d	0.008379501
41	0x3d4abc03	0.04949571
42	0x3ce304a6	0.027712177
43	0xbd22f143	-0.039780866
44	0xbc87ed87	-0.016592754
45	0x3ce99781	0.028514626
46	0x3caa11b9	0.020760404
47	0x3c563286	0.013073569
48	0x3da7bb85	0.081900634
49	0x3d2db08b	0.042404693
50	0x3dc17cbf	0.094476216
51	0xbc63f11d	-0.013912466
52	0xbc42a94a	-0.011881182
53	0x3d198e99	0.037489507
54	0x3b98d5f3	0.0046641766
55	0x3d5a7419	0.053333376
56	0xbd645ce1	-0.05575264
57	0x3da18d7d	0.07888315
58	0x3c526fb9	0.01284402
59	0xbd1154c1	-0.03548122
60	0xbc09bf17	-0.008407376
61	0xbc5c53ea	-0.013447741
62	0xbcfcaa18	-0.030842826
63	0x3c881e83	0.016616112
64	0xbc42f7e7	-0.011899925
65	0xbced3294	-0.028954782
66	0x3cf3539c	0.029702954
67	0xbc2c7dec	-0.010528069
68	0xbce0c26f	-0.027436463
69	0x3cb6343e	0.022241708
70	0xbb0fb39a	-0.002192712
71	0x3c7ec566	0.015549993
72	0xbc021e82	-0.007941844
73	0x3cb15db7	0.021651132
74	0xbd28c626	-0.041204594
75	0xbbe86da3	-0.007093148
76	0xbcbb04c2	-0.022829417
77	0xbaa1a1eb	-0.001233158
78	0xbcf24478	-0.029573664
79	0xbcfd0017	-0.030883832
80	0xbd050893	-0.03247888

valueHead.0.weight f4 [3, 2, 3, 3]
0	0xbaee2469	-0.001816881
1	0xbe811d37	-0.25217602
2	0x3de16a90	0.11006653
3	0xbd1a0c53	-0.03760941
4	0x3e3bc5d6	0.18337187
5	0x3e4ff8e4	0.20309788
6	0xbdae7772	-0.08518876
7	0xbd6ad2f5	-0.05733009
8	0x3db43d80	0.08800793
9	0xbe528637	-0.20559011
10	0xbe11349d	-0.14180227
11	0xbd1c2dad	-0.038129497
12	0x3c4abc57	0.012374005
13	0xbdd45761	-0.10368229
14	0x3de78822	0.11305262
15	0xbea520b4	-0.32251513
16	0xbe6c82bd	-0.23096748
17	0x3df1da2a	0.118091896
18	0x3d8c7e2a	0.068600014
19	0x3d5595b7	0.052144732
20	0xbc40e032	-0.011772202
21	0x3e1d164f	0.15340541
22	0x3e790c15	0.24321015
23	0x3d8ce638	0.06879848
24	0x3dbbaf82	0.09164335
25	0x3eba09cf	0.36335608
26	0x3ea6ebd0	0.32601786
27	0x3e1b8369	0.15186848
28	0xbe8b1bb3	-0.2716957
29	0x3e3467b2	0.17617682
30	0x3cabadb0	0.020956844
31	0x3ccdd1b1	0.025124403
32	0xbdff3ece	-0.12463151
33	0x3e060792	0.13088825
34	0xbd267f40	-0.0406487
35	0x3d9ca234	0.07648125
36	0xbe050e6e	-0.12993786
37	0xbdbc2031	-0.091858275
38	0xbe7e22df	-0.2481799
39	0xbd0d1501	-0.03444386
40	0xbea6f390	-0.32607698
41	0xbe1c865e	-0.15285632
42	0xbc01d78a	-0.007924924
43	0xbdbfcfb3	-0.09365787
44	0x3da6521e	0.08121131
45	0xbe0c084f	-0.13675044
46	0xbe40616e	-0.18787166
47	0x3d683d21	0.056698922
48	0x3dce133f	0.10062265
49	0x3d8f7ad9	0.07005853
50	0x3e105124	0.14093453
51	0xbd51c89d	-0.05121671
52	0x3e00cef1	0.12578942
53	0xbe20b7b1	-0.15695073

valueHead.0.bias f4 [3]
0	0xb7b15ff2	-2.1144722e-05
1	0xb6cc4cd0	-6.088616e-06
2	0x391fb1b2	0.00015229618

valueHead.1.weight f4 [3]
0	0x3f476379	0.7788616
1	0x3f2f37da	0.684446
2	0x3f47a37a	0.7798382

valueHead.1.bias f4 [3]
0	0xbe18bf11	-0.14916636
1	0xbd8f4e05	-0.06997303
2	0xbda2e571	-0.07953919

valueHead.1.running_mean f4 [3]
0	0xbf48492e	-0.78236663
1	0x3feccd97	1.8500241
2	0xbfb004ec	-1.3751502

valueHead.1.running_var f4 [3]
0	0x3f7d6960	0.98988914
1	0x3feb3afe	1.8377378
2	0x3f8f423f	1.1192092

valueHead.4.weight f4 [1, 243]
0	0x3d8e12c3	0.06937172
1	0x3daa7451	0.08322967
2	0x3d9269e3	0.071491025
3	0x3e369f27	0.1783415
4	0x3d368221	0.044557694
5	0xbca0bea1	-0.019622149
6	0x3d5e024f	0.05420142
7	0x3d8cf3d4	0.06882444
8	0xbcebdf5e	-0.028793033
9	0xbd0740c7	-0.03302076
10	0x3d96360d	0.07334528
11	0x3db7ea22	0.08980204
12	0x3d5e1c1d	0.05422603
13	0x3db84490	0.08997452
14	0xbd2fc5ca	-0.042913236
15	0x3e033413	0.12812833
16	0xbda8ac68	-0.08236009
17	0x3c9e4545	0.01932014
18	0xbc755c9f	-0.014975696
19	0x3e16dd27	0.147328
20	0x3d5c6c06	0.053813957
21	0xbd330831	-0.043708984
22	0x3da38ede	0.07986234
23	0x3cd2bd96	0.025725167
24	0x3d853c7b	0.06505676
25	0x3d598591	0.053105894
26	0xbc3a71ea	-0.011379698
27	0x3cac12c5	0.021005044
28	0x3e1ec347	0.1550418
29	0xbc5a6602	-0.013329985
30	0x3cd4913e	0.025948163
31	0x3c7b522f	0.015339418
32	0xbd8c6c55	-0.068566
33	0x3cc32d80	0.023825407
34	0x3c9ccf11	0.019141706
35	0x3c08862b	0.008332769
36	0xbcc0bffc	-0.023529045
37	0x3c4a61d1	0.012352423
38	0x3e031a45	0.1280299
39	0x3dfa00e1	0.12207199
40	0xbc5a8409	-0.013337144
41	0xbd0ddb60	-0.03463304
42	0x3d955e3f	0.07293367
43	0xbdafa696	-0.085766956
44	0xbccba8f9	-0.024860846
45	0x3c67fe20	0.014159709
46	0x3dab268f	0.08356964
47	0x3d040485	0.032230873
48	0x3c43fc52	0.011962013
49	0x3d921c1e	0.07134269
50	0x3c390089	0.0112916315
51	0x3cdada60	0.026715457
52	0xbb579b5e	-0.0032899003
53	0xbc9e8fc0	-0.019355655
54	0xbce39c3a	-0.027784456
55	0x3cf1d668	0.029521182
56	0x3d4548af	0.04816502
57	0x3d31cf50	0.0434106
58	0xbc80ee43	-0.015738612
59	0x3c43a704	0.011941675
60	0xbc6f49dc	-0.014605012
61	0x3c43a50a	0.011941204
62	0x3d3eec7b	0.046612244
63	0x3d470d95	0.048596937
64	0x3c628184	0.013824824
65	0xbd1a67e1	-0.037696723
66	0x3d4803ec	0.048831865
67	0x3beeee0a	0.00729156
68	0x3b17f891	0.0023188929
69	0x3cf4f374	0.029901244
70	0x3b0d07e0	0.0021519586
71	0x3c5b7417	0.013394377
72	0x3b09ec98	0.0021045562
73	0x3d34b0a8	0.044113785
74	0x3de7b2e8	0.113134205
75	0x3d0ccc6f	0.03437465
76	0x3e0bf4fe	0.13667676
77	0x3dbafeee	0.09130655
78	0x3d307371	0.043078844
79	0x3c9518c0	0.018200278
80	0xbda9b007	-0.08285528
81	0xbe0f6dec	-0.14006776
82	0xbda40e2a	-0.08010514
83	0xbe10c63a	-0.14138117
84	0xbdb2d06b	-0.08731159
85	0xbd841d0c	-0.06450853
86	0xbd1f803f	-0.038940664
87	0x3cb0965f	0.021556078
88	0x3d0a73c5	0.033801813
89	0xbd921a15	-0.07133881
90	0x3c9924db	0.018694332
91	0xbd49962a	-0.049215473
92	0x3dc67f5d	0.09692261
93	0xbbe2f1ba	-0.0069257887
94	0x3d1bb75a	0.038016655
95	0xbce43806	-0.027858745
96	0xbc3843f6	-0.011246672
97	0xbd1f03df	-0.03882205
98	0xbe0c0a95	-0.13675912
99	0xbce7e2c1	-0.028306367
100	0xbd6709dd	-0.05640589
101	0xbdab2244	-0.08356145
102	0xbd95bda3	-0.07311561
103	0xbd37f799	-0.044913862
104	0xbd2fcaaa	-0.042917885
105	0xbd86dcbd	-0.06585071
106	0xbc5bc184	-0.013412837
107	0x3d0b9a4e	0.034082703
108	0x3d0039df	0.03130519
109	0x3d8ce347	0.06879287
110	0xbd153e63	-0.03643645
111	0xbd1caaa5	-0.038248677
112	0xbccb85bb	-0.024844041
113	0xbcfbe53b	-0.030748954
114	0xbd8dd977	-0.06926244
115	0xbca3b667	-0.019984437
116	0xbd3d21f7	-0.04617497
117	0xbc4e3723	-0.012586388
118	0x3cda521a	0.026650477
119	0xbdd0defb	-0.1019878
120	0xbd15ea39	-0.036600325
121	0x3badf44f	0.005308665
122	0x3bd88b1d	0.0066083805
123	0x3c308dd1	0.010775999
124	0xbba2124e	-0.0049460297
125	0xbdcd6682	-0.100293174
126	0x3d370091	0.044678275
127	0x3d4c3621	0.04985631
128	0x3c226aa9	0.009913125
129	0xbd7f1bb2	-0.06228227
130	0xbd848cee	-0.06472193
131	0xbd0ee098	-0.034882158
132	0xbcab7316	-0.0209289
133	0x3c95d668	0.018290713
134	0x3d134682	0.035955913
135	0x3dd94940	0.106096745
136	0x3cea7fe8	0.028625444
137	0xbd74016c	-0.05957167
138	0x3d754af4	0.059885934
139	0xbc0ed628	-0.008718051
140	0xbd5ac3d6	-0.05340942
141	0xbd06e283	-0.032930862
142	0xbd0e6133	-0.034760665
143	0x3e28625e	0.16443774
144	0xbcaa8e3e	-0.02081978
145	0xbd1e21dc	-0.03860651
146	0xbe24f8e3	-0.16110568
147	0xbda15519	-0.07877559
148	0xbd5f58f5	-0.054528195
149	0x3cd3464f	0.025790362
150	0xbcbdf475	-0.023187855
151	0xbcbff917	-0.023434205
152	0xbd1d8b4c	-0.038462922
153	0x3d29463f	0.041326758
154	0xbcda3b0d	-0.026639486
155	0xbd08ac94	-0.03336771
156	0x3d1f7e61	0.038938884
157	0x3cddf59f	0.02709466
158	0x3b126ea9	0.002234379
159	0x3dcf7a88	0.10130793
160	0x3d99e61e	0.075145945
161	0x3d6cc886	0.05780842
162	0xbd820ebc	-0.063504666
163	0x3d93b719	0.072126575
164	0x3d1be49c	0.038059816
165	0x3d8597af	0.06523072
166	0x3c648862	0.013948532
167	0x3d09e9df	0.033670302
168	0x3d7208dd	0.059090484
169	0xbcc015ea	-0.02344795
170	0x3d8662fd	0.06561849
171	0x3ba2dd64	0.0049702395
172	0x3d2621fe	0.04055976
173	0x3d526294	0.051363543
174	0xbc51b4ca	-0.012799451
175	0xbccf8c9e	-0.025335606
176	0x3cc73711	0.02431825
177	0xbd0cb759	-0.03435454
178	0xbd99e682	-0.07514669
179	0x3d4ecab0	0.050486267
180	0x3d8a8851	0.067642815
181	0x3dc0365c	0.09385368
182	0x3d92ab79	0.07161612
183	0x3d287c22	0.041134007
184	0x3d313d48	0.043271333
185	0xbd41a4e8	-0.047276407
186	0x3cea94bb	0.028635373
187	0x3d1058e4	0.035241023
188	0xbc3bc6fa	-0.011461014
189	0xbd89b62d	-0.067242004
190	0x3d8e6e9a	0.06954689
191	0xbd722962	-0.059121497
192	0x3ae9e9f5	0.0017846214
193	0x3c523693	0.012830394
194	0xbc4694e3	-0.012120458
195	0xbbd7820d	-0.0065767826
196	0xbd981f0c	-0.07427797
197	0xbd0fdf46	-0.03512504
198	0xbdf3d0ae	-0.11905037
199	0xbd2a1ea4	-0.041533127
200	0xbd741bd1	-0.05959684
201	0xbdc1cec8	-0.094632685
202	0x3a09e8a8	0.0005260804
203	0xbd40f2f9	-0.047106717
204	0xbc8be67b	-0.017077675
205	0xbcaf7307	-0.021417154
206	0x3d12ec7c	0.03587006
207	0xbdd28831	-0.10279883
208	0xbd8f8602	-0.07007982
209	0xbc4dbb14	-0.01255681
210	0xbe0127f8	-0.12612903
211	0xbc035b51	-0.008017377
212	0x3ac3a81c	0.001492742
213	0xbdb00d5a	-0.085962966
214	0xbd9a9e03	-0.075496696
215	0x3b054caf	0.0020339896
216	0xbde333be	-0.110938534
217	0xbd2c17c1	-0.04201484
218	0x3be72de3	0.0070550307
219	0x3d808c92	0.06276812
220	0xbbc107e5	-0.0058908337
221	0x3a135eba	0.00056217203
222	0x3c43344e	0.011914326
223	0xbd7d2cca	-0.061810292
224	0xbd9616ad	-0.07328544
225	0xbe00a151	-0.12561537
226	0xbd478ce5	-0.048718352
227	0xbd4df121	-0.050278787
228	0x3d90df96	0.07073896
229	0xbd70a0d4	-0.058747128
230	0xbc81530c	-0.01578667
231	0x3be17041	0.006879837
232	0x3db01fca	0.08599813
233	0x3c2c64fa	0.010522122
234	0x3d978aab	0.07399496
235	0xbdbad49d	-0.09122584
236	0xbd83509b	-0.06411859
237	0x3d37a12b	0.044831436
238	0xbca8a0e4	-0.020584531
239	0x3b8834e5	0.004156696
240	0xbdc7c6eb	-0.097547375
241	0xbc767e0f	-0.015044703
242	0x3d0a7b26	0.03380885
