models/Test2/main.pt (torch, 81280 bytes, 117 tensors)

startBlock.0.weight f4 [6, 4, 3, 3]
-0.1295305 0.13501139 -0.16554338 -0.045357578 0.05216118 -0.016363481 -0.17112198 -0.09840463
0.112584524 0.09462516 0.025240043 0.10283457 0.101661265 0.05224597 0.033707287 0.06456737
-0.011544252 0.07210851 -0.17536953 0.21139225 -0.0069410736 -0.013572505 0.073777616 -0.029460546
0.059808232 -0.20910549 -0.08723283 -0.24568321 -0.06494748 -0.061510332 0.015468807 -0.052505713
-0.023384092 0.047022156 -0.003179361 -0.07195568 0.040047918 0.039929144 0.1486049 0.12414872
-0.097919025 0.15178391 -0.14820088 -0.1425335 -0.023431817 0.017237946 -0.10142386 -0.08304986
-0.12343055 -0.050793123 -0.03911925 -0.14606129 -0.02846373 -0.08354587 -0.045366667 -0.058553204
0.24491943 -0.031264573 0.033342138 0.1447854 -0.013401957 -0.16040851 0.08832594 0.006624531
0.09096439 0.064464234 -0.0067038364 0.15731378 -0.077668786 0.031967413 -0.03879181 0.015679728
-0.032829877 -0.09447943 -0.0755079 -0.0042189127 -0.022942133 0.038325634 0.16704276 0.04810594
0.083752505 -0.018871097 0.030168943 0.048974626 0.039975446 0.06071657 0.03979007 0.016772559
0.040057115 0.04522546 0.22347136 0.011094454 0.011375967 0.17697948 0.044270854 0.103607155
-0.3386448 0.21086091 -0.26434934 0.0055879224 -0.026896076 -0.020093113 -0.032495756 -0.0604692
-0.06715701 -0.03191273 -0.090663716 -0.04146724 -0.015097341 -0.07737823 0.061970275 -0.079373285
-0.13210556 0.069396354 0.062479667 -0.031771753 0.015146892 -0.029431768 -0.042471547 -0.06871637
0.019539895 -0.12800623 -0.04280617 0.04684612 -0.05138478 -0.03391913 0.18233228 0.064497255
0.16385895 -0.0073076617 -0.12859263 0.24713966 -0.2312082 0.10521499 -0.101573646 -0.014847724
0.04738565 0.046362173 -0.026277939 0.13704365 0.08977583 -0.0022422601 0.025370944 0.06955836
0.0665335 0.008039722 -0.028703295 -0.027670337 0.15470487 -0.027241068 -0.08312301 0.018782763
-0.07808709 0.10090085 0.13873482 -0.033898547 0.06734962 -0.040802334 0.023519391 0.10441317
0.07936526 0.121141605 0.107925266 0.27570075 0.118016616 0.04035324 0.24886508 -0.083904006
-0.09874801 -0.099074565 -0.12892964 -0.06430711 -0.0855918 -0.008337644 -0.029266218 -0.026692273
-0.07365252 -0.008785633 -0.036645927 -0.08171538 -0.06543929 -0.0664182 -0.064534426 0.065238595
-0.010398402 -0.015854178 -0.031250104 0.18882279 0.10325716 0.030179676 0.025678257 -0.09877858
0.02275458 -0.04008311 -0.11053832 -0.07237876 -0.06568575 -0.073328145 0.03491094 -0.05380773
-0.20458421 0.15240414 -0.2756227 0.052237973 0.18927158 0.16047205 -0.065311156 0.11964755
0.065350935 0.011512237 -0.062300317 0.040150817 0.108042665 0.016298417 0.12368625 0.0673588
00000000: a5a3 04be 6d40 0a3e 3484 29be dec8 39bd
00000010: f6a6 553d b50c 86bc 9a3a 2fbe 5e88 c9bd
00000020: b792 e63d d6ca c13d 35c4 ce3c ee9a d23d
00000030: c833 d03d dfff 553d a710 0a3d e63b 843d
00000040: 1a24 3dbc a0ad 933d 1294 33be 3677 583e
00000050: f271 e3bb 365f 5ebc b818 973d 3e57 f1bc
00000060: 7af9 743d c01f 56be 20a7 b2bd 6194 7bbe
00000070: 2f03 85bd 42f2 7bbd e170 7d3c 3b10 57bd
00000080: ff8f bfbc 4e9a 403d d45c 50bb 805d 93bd
00000090: 4909 243d be8c 233d e22b 183e af41 fe3d
000000a0: c589 c8bd 3e6d 1b3e f9c1 17be 4df4 11be
000000b0: 15f4 bfbc 9836 8d3c 50b7 cfbd 0c16 aabd
000000c0: 28c9 fcbd 730c 50bd 823b 20bd 1791 15be
000000d0: c52c e9bc 191a abbd 66d2 39bd 7cd5 6fbd
000000e0: 29cc 7a3e 480f 00bd c491 083d a042 143e
000000f0: e293 5bbc 2142 24be 3be4 b43d 9812 d93b
00000100: 8a4b ba3d d305 843d dbab dbbb dd16 213e
00000110: d010 9fbd 43f0 023d 29e4 1ebd c672 803c
00000120: 9f78 06bd 6e7e c1bd e3a3 9abd ce3e 8abb
00000130: 24f1 bbbc 57fb 1c3d 420d 2b3e bc0a 453d
00000140: 6f86 ab3d 8f97 9abc dc24 f73c 9e99 483d
00000150: 4bbd 233d f0b1 783d eafa 223d 9b66 893c
00000160: ee12 243d 553e 393d add5 643e 83c5 353c
00000170: 4462 3a3c 1c3a 353e 5b55 353d fd2f d43d
00000180: da62 adbe eceb 573e cc58 87be e41a b73b
00000190: 2955 dcbc 509a a4bc 451a 05bd 8dae 77bd
000001a0: 9d89 89bd ecb6 02bd e6ad b9bd 8dd9 29bd
000001b0: d65a 77bc 7a78 9ebd 8bd4 7d3d 768e a2bd
000001c0: ae46 07be ad1f 8e3d aeea 7f3d 1923 02bd
000001d0: ab2a 783c e41a f1bc a5f6 2dbd 2bbb 8cbd
000001e0: 2112 a03c 1114 03be 8655 2fbd b8e1 3f3d
000001f0: d978 52bd c9ee 0abd 50b5 3a3e 2317 843d
00000200: a4ca 273e 1c75 efbb c9ad 03be 2e12 7d3e
00000210: d8c1 6cbe f57a d73d d805 d0bd de43 73bc
00000220: 7517 423d 43e6 3d3d d544 d7bc 2c55 0c3e
00000230: 64dc b73d e2f2 12bb bad6 cf3c 9d74 8e3d
00000240: b742 883d 0ab9 033c 2c23 ebbc e7ac e2bc
00000250: f46a 1e3e a928 dfbc 663c aabd 4fde 993c
00000260: 20ec 9fbd 1ba5 ce3d 8010 0e3e 34d9 0abd
00000270: 99ee 893d 5920 27bd bdab c03c 92d6 d53d
00000280: 418a a23d 1719 f83d ec07 dd3d a628 8d3e
00000290: b2b2 f13d 7049 253d 7dd6 7e3e ddd5 abbd
000002a0: 663c cabd 9be7 cabd 2206 04be 72b3 83bd
000002b0: c14a afbd 9d9a 08bc b5bf efbc c1a9 dabc
000002c0: 22d7 96bd 9ef1 0fbc 0a1a 16bd 655a a7bd
000002d0: 0905 86bd 4406 88bd a02a 84bd d09b 853d
000002e0: 0f5e 2abc 9fe0 81bc 1c00 00bd c35a 413e
000002f0: 7d78 d33d 5e3b f73c 355b d23c 6d4c cabd
00000300: d067 ba3c 302e 24bd ea61 e2bd 513b 94bd
00000310: 4086 86bd 112d 96bd c6fe 0e3d 7f65 5cbd
00000320: 867e 51be d50f 1c3e 6b1e 8dbe 7cf7 553d
00000330: 69d0 413e c952 243e dbc1 85bd c609 f53d
00000340: b6d6 853d d29d 3c3c 9e2e 7fbd 2f75 243d
00000350: 7945 dd3d 4284 853c 374f fd3d 69f3 893d

startBlock.0.bias f4 [6]
-0.00010708061 -0.0003347546 -0.0049926955 0.00027758838 -0.00062115176 -0.001896109
00000000: 7790 e0b8 0082 afb9 c499 a3bb 4889 9139
00000010: cad4 22ba dc86 f8ba

startBlock.1.weight f4 [6]
0.91797924 0.97869325 1.138258 0.9972432 1.0417185 1.0088112
00000000: b000 6b3f a48b 7a3f 70b2 913f 554b 7f3f
00000010: 0857 853f ba20 813f

startBlock.1.bias f4 [6]
-0.029435834 -0.020961955 0.16324572 0.0069761034 0.078395575 0.06930142
00000000: 6b23 f1bc 68b8 abbc e329 273e cc97 e43b
00000010: dc8d a03d e7ed 8d3d

startBlock.1.running_mean f4 [6]
-0.13208398 -0.003935211 0.08628469 -0.0025737341 0.09999189 0.057971973
00000000: 0641 07be f1f2 80bb 07b6 b03d 18ac 28bb
00000010: 8cc8 cc3d 0574 6d3d

startBlock.1.running_var f4 [6]
0.05167294 0.07147625 0.03125972 0.04162981 0.0934078 0.07870689
00000000: 01a7 533d 2462 923d 310a 003d 0584 2a3d
00000010: 974c bf3d 1431 a13d

backBone.0.conv1.weight f4 [6, 6, 3, 3]
0.027864702 0.04729277 -0.099676445 0.0028881468 0.10933226 0.017563226 -0.1061889 -0.0005786945
0.06454322 0.021902218 -0.154825 0.011620388 0.0013561393 0.12162303 0.13527699 0.086590126
-0.056782834 -0.009501517 -0.107529126 -0.025129683 -0.10681611 0.061375055 0.025509868 0.06254069
-0.15028927 0.082666494 -0.12706384 -0.05511705 0.007382569 0.09735769 0.013099781 0.07580999
0.15245114 -0.04133858 0.060903948 0.018915676 0.05594511 -0.16201447 -0.16972384 -0.08376298
0.09976039 0.13476196 -0.00090196216 -0.08710523 0.11453189 0.03267064 0.17559776 0.041045185
0.10711643 -0.12850909 0.04322955 0.07896611 0.18132977 0.066495925 0.16927813 0.1456904
-0.18621926 -0.042253982 -0.09745627 0.11502863 -0.06006021 0.086085044 0.14899196 0.12735243
-0.0020820256 -0.060408358 -0.07395517 0.1058095 0.08666569 -0.07105744 -0.03669905 0.0029750103
-0.10022325 0.028074836 -0.059662852 -0.025400307 -0.1249169 0.066002585 -0.057004247 0.013153689
-0.21614437 -0.03300118 -0.15148832 -0.09363184 -0.12893082 0.03303446 0.085855015 0.08815674
0.18379547 -0.069346875 0.011007084 -0.12543845 -0.13046351 -0.07012293 -0.06896083 -0.0030222165
0.12130693 0.09637649 -0.005342993 -0.12875734 0.07612118 -0.050779305 0.07923737 0.11431559
0.062000252 0.12474641 0.08063749 -0.09089163 0.09133206 -0.06799034 0.13078532 -0.124009326
-0.06310268 0.110636495 0.080389775 -0.024194887 -0.05659811 -0.030390242 0.092848234 -0.15015629
-0.0053849476 0.0026730308 -0.12396659 -0.024333498 -0.13083611 0.07646182 0.008108195 -0.17254293
-0.036499586 -0.03817781 -0.109650925 0.044930987 -0.016142664 -0.061911926 0.07671036 -0.035826147
0.058511186 0.07303499 -0.053596105 -0.16774961 0.034037553 -0.15639423 -0.1402187 0.12120437
0.017857237 -0.09655539 0.12878422 -0.009787152 -0.13898303 -0.023175031 -0.07412495 -0.08736445
-0.12433631 0.17267725 -0.091047935 0.056691118 0.11743115 -0.08542124 0.12050397 0.09955473
-0.0019191774 -0.090335034 -0.09488195 0.096541494 0.016253628 -0.084092565 0.07419052 -0.021668712
-0.051781137 -0.051895004 -0.12386754 0.073080294 -0.12585767 -0.12444848 0.030095976 -0.04905301
-0.05272555 0.011105276 0.11388858 -0.07245822 0.07519345 -0.0904513 0.028660525 -0.059089754
-0.042482287 0.14017424 -0.009594404 -0.068765126 0.15527132 0.11717823 0.059235178 0.06615434
-0.18676776 0.035055857 -0.07411901 -0.06376492 0.22088248 0.05172701 -0.03393825 0.10571826
0.2058768 -0.03689766 0.097930975 0.02715796 -0.0919824 -0.090181276 0.052115258 0.016693044
-0.036281276 -0.001413137 -0.14064042 -0.13268542 -0.11233759 0.09410146 0.051020954 -0.2020437
0.028900972 -0.08243022 0.039610866 0.042432636 -0.0010138826 -0.13939972 -0.08700369 -0.036632728
0.031146979 0.0006020076 -0.1373817 -0.040571205 -0.07003526 0.069159076 0.00058941654 -0.10145457
-0.012240337 -0.06600797 -0.1398305 0.0013628004 -0.0141752735 0.11050777 0.09444963 -0.08670653
0.11892888 -0.22492132 0.10334543 -0.1396515 -0.07883291 0.043579094 -0.004190766 0.027697237
-0.0038389587 0.023737928 -0.07087919 -0.12644696 -0.14259794 0.021284264 -0.09319031 -0.03356776
00000000: 8444 e43c 10b6 413d 2a23 ccbd 1047 3d3b
00000010: 98e9 df3d c1e0 8f3c 9179 d9bd 88b3 17ba
00000020: 3c2f 843d 486c b33c 728a 1ebe 7163 3e3c
00000030: 7cc0 b13a 7f15 f93d 0d86 0a3e 2a56 b13d
00000040: 1e95 68bd 40ac 1bbc 3b38 dcbd c4dc cdbc
00000050: 68c2 dabd 6964 7b3d 12fa d03c 5515 803d
00000060: 6ee5 19be 0d4d a93d 061d 02be 6ac2 61bd
00000070: 7ae9 f13b 7863 c73d 77a0 563c 4542 9b3d
00000080: 271c 1c3e a552 29bd 6b76 793d 0cf5 9a3c
00000090: b326 653d 1fe7 25be 16cc 2dbe ed8b abbd
000000a0: 2d4f cc3d 0aff 093e a871 6cba 3a64 b2bd
000000b0: b28f ea3d a6d1 053d e6cf 333e ff1e 283d
000000c0: dc5f db3d e397 03be 7811 313d fcb8 a13d
000000d0: 83ae 393e 042f 883d 3f57 2d3e dd2f 153e
000000e0: 43b0 3ebe 8312 2dbd 2797 c7bd 2194 eb3d
000000f0: b201 76bd 5b4d b03d 5991 183e ad68 023e
00000100: 9872 08bb c16e 77bd cf75 97bd a7b2 d83d
00000110: c87d b13d 9086 91bd be51 16bd 64f8 423b
00000120: d941 cdbd 33fd e53c 0961 74bd 4e14 d0bc
00000130: 6fd4 ffbd 5d2c 873d 497d 69bd 9282 573c
00000140: f354 5dbe 3f2c 07bd c11f 1bbe 0dc2 bfbd
00000150: 7106 04be 244f 073d c1d4 af3d 858b b43d
00000160: e134 3c3e bc05 8ebd 0e57 343c f072 00be
00000170: 3a98 05be 9c9c 8fbd 563b 8dbd 6110 46bb
00000180: c56f f83d 0a61 c53d 4614 afbb f7d8 03be
00000190: 6ce5 9b3d f6fd 4fbd 3447 a23d 4b1e ea3d
000001a0: faf3 7d3d 0c7b ff3d 4525 a53d 6425 babd
000001b0: 4e0c bb3d 853e 8bbd 96ec 053e 9af8 fdbd
000001c0: fa3b 81bd 6395 e23d 65a3 a43d 5b34 c6bc
000001d0: 6bd3 67bd f5f4 f8bc 3727 be3d 92c2 19be
000001e0: 3774 b0bb 042e 2f3b 32e2 fdbd 0b57 c7bc
000001f0: e7f9 05be 0498 9c3d 3cd8 043c 18af 30be
00000200: 9780 15bd 5660 1cbd aa90 e0bd 8e09 383d
00000210: 9f3d 84bc 5c97 7dbd 521a 9d3d 70be 12bd
00000220: 6da9 6f3d 5e93 953d 9787 5bbd 8ec6 2bbe
00000230: f66a 0b3d cf25 20be 7e95 0fbe ff39 f83d
00000240: 5749 923c d5be c5bd 03e0 033e 4a5a 20bc
00000250: 9151 0ebe 90d9 bdbc d2ce 97bd 22ec b2bd
00000260: 09a4 febd 4ed2 303e 5777 babd f234 683d
00000270: be7f f03d 55f1 aebd c9ca f63d 5ae3 cb3d
00000280: e88c fbba 9301 b9bd 7851 c2bd 8cb7 c53d
00000290: 5426 853c b938 acbd 33f1 973d 9582 b1bc
000002a0: 7518 54bd db8f 54bd 44ae fdbd 1fab 953d
000002b0: d5e0 00be d8de febd d68b f63c cfeb 48bd
000002c0: bff6 57bd e7f2 353c 6a3e e93d fa64 94bd
000002d0: 06ff 993d 883e b9bd 7ac9 ea3c 1908 72bd
000002e0: e801 2ebd d689 0f3e d931 1dbc bbd4 8cbd
000002f0: 72ff 1e3e 24fb ef3d 96a0 723d ed7b 873d
00000300: 0c40 3fbe bb96 0f3d b5cb 97bd 2f97 82bd
00000310: 042f 623e b4df 533d d602 0bbd d182 d83d
00000320: 5ed1 523e 0022 17bd 0990 c83d 5f7a de3c
00000330: 4561 bcbd f6b0 b8bd cf76 553d dabf 883c
00000340: ad9b 14bd 0239 b9ba 0b04 10be b0de 07be
00000350: 4011 e6bd 44b8 c03d 59fb 503d 8be4 4ebe
00000360: bbc1 ec3c 2dd1 a8bd 013f 223d d8cd 2d3d
00000370: 41e4 84ba cdbe 0ebe fe2e b2bd 330c 16bd
00000380: f327 ff3c 0cd0 1d3a caad 0cbe fe2d 26bd
00000390: a56e 8fbd 46a3 8d3d 1383 1a3a 6ac7 cfbd
000003a0: b28b 48bc 302f 87bd ba2f 0fbe fe9f b23a
000003b0: 683f 68bc e651 e23d cf6e c13d 3193 b1bd
000003c0: fc90 f33d c651 66be c5a6 d33d ce00 0fbe
000003d0: 2673 a1bd fe7f 323d b152 89bb 51e5 e23c
000003e0: 0a97 7bbb 0b76 c23c 1c29 91bd 507b 01be
000003f0: 3205 12be 565c ae3c 90da bebd 597e 09bd

backBone.0.conv1.bias f4 [6]
-1.2600146e-05 -9.9610224e-05 -0.00048298106 -0.00034117664 -1.2449718e-05 -0.0003472664
00000000: 3765 53b7 d5e5 d0b8 9f38 fdb9 f4df b2b9
00000010: 22df 50b7 4f11 b6b9

backBone.0.bn1.weight f4 [6]
0.9302538 1.0013827 0.8722362 1.0256897 1.0448455 1.0557541
00000000: 1d25 6e3f 4f2d 803f df4a 5f3f cd49 833f
00000010: 7fbd 853f f322 873f

backBone.0.bn1.bias f4 [6]
0.0056013195 0.0023806123 -0.07032925 0.116529465 0.010553659 0.06764336
00000000: 468b b73b 0c04 1c3b c808 90bd 00a7 ee3d
00000010: 41e9 2c3c 9a88 8a3d

backBone.0.bn1.running_mean f4 [6]
0.26378983 -0.07830528 -0.43239123 -0.0706834 -0.34003 0.29096633
00000000: 760f 873e 855e a0bd 6262 ddbe 75c2 90bd
00000010: 6a18 aebe 8af9 943e

backBone.0.bn1.running_var f4 [6]
0.21963741 0.20472653 0.24251607 0.20208623 0.25647986 0.2947395
00000000: a1e8 603e d5a3 513e 2256 783e b1ef 4e3e
00000010: 5451 833e 19e8 963e

backBone.0.conv2.weight f4 [6, 6, 3, 3]
0.096858 -0.15366271 -0.056219246 -0.16424645 0.036803223 -0.008460245 -0.036780227 -0.008814313
0.031922508 0.037084747 -0.08361166 -0.015725382 -0.21730639 0.008794422 -0.06051286 0.02929407
-0.24990338 -0.07376332 0.056270886 0.08044608 -0.091137886 -0.048495356 0.08634808 -0.061817832
-0.183306 0.15712424 -0.059194785 -0.0859887 0.048232242 -0.044009496 0.04768051 -0.013367806
0.07364424 0.033598833 -0.062757775 0.12516192 -0.06778403 0.094256565 -0.098399095 0.13927677
-0.10632802 -0.038605884 0.0134454295 0.07101331 -0.021846611 0.096241154 -0.05959305 0.031817436
-0.16865191 -0.03941626 -0.026749743 -0.07111222 0.16149114 0.074174374 -0.0058014914 0.046555754
0.07015471 -0.004531291 -0.06075348 -0.049206704 -0.11637908 0.006208246 0.005517598 0.15454064
-0.08873468 0.056184743 -0.08329968 -0.15109672 -0.07504928 -0.19264689 0.097444795 -0.10296789
-0.12548445 0.028682295 0.038513567 0.04118054 0.010596193 -0.048431046 -0.079464234 -0.020272262
-0.047587033 0.009695842 0.087021425 -0.16140229 0.074529454 0.0029988568 0.02652564 0.006711192
0.116328634 -0.10917734 -0.01706692 0.06511455 0.07749569 -0.1245233 -0.18020739 0.14486414
0.053016335 0.0077206856 -0.08820247 -0.040105656 0.021568218 0.07996248 -0.040691298 -0.0071992986
0.17756954 0.07266023 0.12309104 -0.11934768 0.033274997 -0.033488907 -0.0050011133 -0.030729309
0.09806409 -0.118477546 0.0025857221 -0.050396916 0.026060304 0.0058525708 0.038797557 0.058423642
-0.05666574 0.104343444 -0.019854864 0.011190971 -0.026667967 -0.00048585059 0.028809903 -0.021138445
-0.06416314 0.019806487 -0.019165948 -0.0101364935 0.025260903 0.04372681 0.09487949 -0.059479754
-0.023519538 0.03967289 0.18281364 0.090428986 -0.16254565 0.076310955 -0.069052964 -0.040313456
0.028554093 -0.09351031 -0.099889554 -0.061587855 -0.07747874 0.04342614 0.06068399 0.13419463
-0.22078297 -0.032517888 -0.14219303 0.07620029 -0.11033153 0.0066739186 -0.10915848 0.14244376
-0.031977765 0.18316862 0.046215016 -0.04562064 -0.010472635 -0.08713668 0.08974056 0.017319234
-0.14697118 0.07277642 0.054041844 -0.24729607 0.08956337 0.04530047 0.058616336 -0.024821945
-0.05607053 0.023584759 -0.017184693 -0.025779279 -0.038000677 -0.073623225 -0.047297314 0.071098074
-0.09096076 0.074830785 -0.04244987 0.05807131 0.019589633 -0.17682488 -0.03682053 -0.006647807
-0.10057085 -0.03696061 -0.1566018 -0.035291385 0.041284773 -0.07075184 -0.16727385 -0.106657036
-0.103280745 0.09723091 0.18058342 0.14581414 -0.17714392 0.066139095 -0.17961453 -0.019177109
0.06129975 -0.07896663 -0.065244235 -0.11648773 -0.11820966 0.09540218 -0.1409793 -0.12499811
0.06821566 -0.1650398 -0.077087395 -0.12273773 0.10127791 -0.17615777 -0.086297944 -0.06936055
-0.1147359 -0.0017008141 -0.11251651 -0.06142437 -0.008891054 0.13139695 -0.17331633 -0.03771517
-0.0417742 -0.08061632 -0.06830898 -0.09364696 -0.06357032 0.07017383 0.068043366 0.0035880744
0.00094418105 0.09392254 0.088782 -0.111687034 0.06233142 0.0981268 -0.095712006 -0.041252583
0.103512004 -0.16873825 -0.0013790797 -0.04580239 0.07682716 0.053435944 -0.10594659 0.026058977
00000000: 7d5d c63d c259 1dbe 2746 66bd 3930 28be
00000010: fabe 163d d79c 0abc dda6 16bd e969 10bc
00000020: 2dc1 023d 2de6 173d 973c abbd 84d2 80bc
00000030: 9185 5ebe 7b16 103c 55dc 77bd 1efa ef3c
00000040: ace6 7fbe 3911 97bd 4d7c 663d eac0 a43d
00000050: 80a6 babd 11a3 46bd 43d7 b03d b234 7dbd
00000060: 91b4 3bbe 2de5 203e 3b76 72bd d81a b0bd
00000070: 2c8f 453d 4d43 34bd a34c 433d a404 5bbc
00000080: cbd2 963d ee9e 093d 2687 80bd 722a 003e
00000090: 5bd2 8abd 9609 c13d 7785 c9bd 929e 0e3e
000000a0: 81c2 d9bd 3421 1ebd 384a 5c3c 6d6f 913d
000000b0: aaf7 b2bc 151a c53d d817 74bd 0053 023d
000000c0: 16b3 2cbe f272 21bd 4722 dbbc 49a3 91bd
000000d0: ef5d 253e bce8 973d 701a bebb 3fb1 3e3d
000000e0: 46ad 8f3d 397b 94bb a4d8 78bd f88c 49bd
000000f0: 2858 eebd 8b6e cb3b f7cc b43b e73f 1e3e
00000100: 87ba b5bd f921 663d 0699 aabd 19b9 1abe
00000110: 70b3 99bd 3a45 45be 2391 c73d d4e0 d2bd
00000120: ff7e 00be 22f7 ea3c 67c0 1d3d edac 283d
00000130: a89b 2d3c a25f 46bd 25be a2bd 0412 a6bc
00000140: 9fea 42bd 4fdb 1e3c 4a38 b23d a446 25be
00000150: e6a2 983d 7888 443b 4d4c d93c 8fe9 db3b
00000160: b53d ee3d 5f98 dfbd edcf 8bbc c75a 853d
00000170: 0fb6 9e3d 1206 ffbd 4988 38be 4457 143e
00000180: a827 593d cefd fc3b 7fa3 b4bd d445 24bd
00000190: d5af b03c 5ec3 a33d ebab 26bd 18e8 ebbb
000001a0: cad4 353e e3ce 943d 2817 fc3d 8e6c f4bd
000001b0: 5d4b 083d aa2b 09bd 61e0 a3bb 08bc fbbc
000001c0: d3d5 c83d 5ba4 f2bd 3875 293b ff6c 4ebd
000001d0: 6b7c d53c ecc6 bf3b 30ea 1e3d a14d 6f3d
000001e0: 561a 68bd 04b2 d53d aba6 a2bc 565a 373c
000001f0: c876 dabc c3b9 feb9 bf02 ec3c 882a adbc
00000200: f767 83bd 3741 a23c e801 9dbc 8913 26bc
00000210: f4ef ce3c e21a 333d 2e50 c23d 0ba1 73bd
00000220: 0cac c0bc 0a80 223d 8033 3b3e d532 b93d
00000230: 5e72 26be eb48 9c3d a46b 8dbd b91f 25bd
00000240: 46ea e93c 5582 bfbd e592 ccbd 8c43 7cbd
00000250: 2cad 9ebd 9cdf 313d c78f 783d 516a 093e
00000260: ee14 62be 7a31 05bd 0d9b 11be e60e 9c3d
00000270: 7ff5 e1bd e3b0 da3b 7b8e dfbd c7dc 113e
00000280: 1efb 02bd 8e90 3b3e f54b 3d3d b5dc 3abd
00000290: 6a95 2bbc b774 b2bd e6c9 b73d 11e1 8d3c
000002a0: 9d7f 16be ce0b 953d fb5a 5d3d 2e3b 7dbe
000002b0: 006d b73d fc8c 393d af17 703d 6457 cbbc
000002c0: 36aa 65bd d334 c13c eac6 8cbc 112f d3bc
000002d0: 99a6 1bbd c6c7 96bd d4ba 41bd de9b 913d
000002e0: a349 babd e240 993d eadf 2dbd 2fdc 6d3d
000002f0: 707a a03c 9511 35be 20d1 16bd d9d5 d9bb
00000300: 17f8 cdbd 0264 17bd 395c 20be b38d 10bd
00000310: 391a 293d 57e6 90bd d649 2bbe 016f dabd
00000320: db84 d3bd 0021 c73d dcea 383e 4d50 153e
00000330: 3765 35be ef73 873d dfec 37be 5019 9dbc
00000340: 7215 7b3d 42b9 a1bd c59e 85bd 1e91 eebd
00000350: e817 f2bd 3862 c33d e15c 10be 02ff ffbd
00000360: a7b4 8b3d 3100 29be ffdf 9dbd eb5d fbbd
00000370: cb6a cf3d b462 34be fabc b0bd e70c 8ebd
00000380: a8fa eabd daed deba 0e6f e6bd 1f98 7bbd
00000390: c9ab 11bc ec8c 063e d679 31be 397b 1abd
000003a0: 6c1b 2bbd 2b1a a5bd 94e5 8bbd fac9 bfbd
000003b0: 2831 82bd 4cb7 8f3d 525a 8b3d e625 6b3b
000003c0: eb82 773a 765a c03d 56d3 b53d 2cbc e4bd
000003d0: 3b4f 7f3d b4f6 c83d a804 c4bd 78f8 28bd
000003e0: 1afe d33d b8c9 2cbe 3cc2 b4ba 499b 3bbd
000003f0: 8f57 9d3d a6df 5a3d 87fa d8bd a379 d53c

backBone.0.conv2.bias f4 [6]
-0.00011759489 -0.00011622347 5.0181214e-05 -5.138176e-05 0.00014526836 0.00013362028
00000000: 479d f6b8 00bd f3b8 ab79 5238 bf82 57b8
00000010: 2e53 1839 6c1c 0c39

backBone.0.bn2.weight f4 [6]
0.91097367 0.99608785 0.86559373 0.8698491 1.0765303 1.0682373
00000000: 9235 693f 9dff 7e3f 8d97 5d3f 6eae 5e3f
00000010: bfcb 893f 00bc 883f

backBone.0.bn2.bias f4 [6]
0.05830094 0.1542323 0.20384318 -0.1237005 -0.0074067996 0.08625525
00000000: f7cc 6e3d 12ef 1d3e 44bc 503e b056 fdbd
00000010: bdb4 f2bb 98a6 b03d

backBone.0.bn2.running_mean f4 [6]
-0.21957615 -0.04090812 -0.00096952106 -0.4915689 -0.16904694 0.10326696
00000000: 92d8 60be 468f 27bd 7527 7eba ebae fbbe
00000010: a41a 2dbe a17d d33d

backBone.0.bn2.running_var f4 [6]
0.12588578 0.18692032 0.12374306 0.2861783 0.17086372 0.15179525
00000000: 34e8 003e 0a68 3f3e 006d fd3d f685 923e
00000010: e6f6 2e3e 3770 1b3e

backBone.1.conv1.weight f4 [6, 6, 3, 3]
-0.052742105 0.059832785 0.04911087 -0.033849444 0.1398223 0.08668634 0.008337166 0.070899345
0.030990602 0.04259875 -0.08510664 -0.077041656 -0.13872257 -0.0332614 0.07916763 -0.084909774
-0.15070885 0.025717955 -0.020174872 0.119940005 0.1018278 0.04209165 -0.05888301 0.034005087
-0.013999389 -0.0061692013 0.1338207 -0.039377183 -0.06551019 -0.12083864 0.011527129 -0.13991253
-0.031241465 -0.14887588 0.0590541 0.15508033 0.18256433 0.04462212 0.11281465 0.02801814
0.17129041 0.029811824 -0.11003736 0.0861893 -0.019619973 0.017874928 0.09810225 -0.030061584
-0.10307789 -0.11026188 0.04109356 -0.127904 -0.17274363 -0.046261624 -0.0029990124 -0.16107965
0.10360906 -0.02360904 0.09505928 -0.04726894 -0.12773266 0.07850713 0.036256205 -0.11737529
0.11134994 0.08318302 -0.012968166 -0.02063807 -0.10540814 -0.031789754 -0.04199743 0.02530998
0.041495044 -0.0007915026 0.045011844 -0.060868684 -0.11727974 0.077568024 -0.07735238 -0.15844312
-0.10373767 -0.10115925 0.050526805 0.07625615 0.076303564 -0.12259086 0.079747915 -0.10557008
0.06973905 0.093379624 0.097763404 0.098524265 0.100569464 -0.0059687523 0.23634179 -0.07197199
-0.025137722 -0.03867214 -0.035348836 -0.041631762 0.008412352 0.11518101 0.08312547 -0.07841596
0.10735036 -0.044823032 0.081943735 -0.009640995 -0.047150478 -0.039928723 -0.12554118 -0.0879613
-0.055562645 -0.14040941 0.0045177722 -0.02686402 -0.00080592546 0.041029993 0.05973078 0.0788538
0.19995165 0.085729815 -0.12068556 0.092174895 0.07019071 -0.011646699 -0.012107786 0.11845732
-0.08923465 0.023883894 0.15655088 0.063444406 0.11806925 0.008750779 0.12150079 0.127214
0.027993731 -0.074470095 0.13218714 -0.032176755 0.037400853 0.059588276 0.0758672 0.066209465
-0.07047214 0.09559614 0.07215352 0.08013336 -0.0677217 -0.17033966 0.17929855 0.14479639
-0.04069997 0.09106362 -0.05765632 0.10273306 0.10132453 0.15611222 -0.059377495 0.12911636
0.10404424 0.11571049 -0.11498982 0.14103866 0.04843991 0.013497976 0.022151673 0.044473458
-0.058598038 -0.101058304 -0.10920117 0.059464395 0.04948885 0.037837207 -0.08539226 -0.11228708
-0.14991139 0.11833758 0.007902103 0.07659551 0.021685012 -0.11474205 -0.11783466 0.1183218
0.12547033 -0.14826317 -0.08999149 0.04719948 -0.05456729 -0.08955737 0.02210904 -0.101329416
0.070312925 0.11318208 -0.10116102 0.079474755 -0.11520018 0.11183079 -0.2035067 -0.022594959
-0.08558223 -0.18347086 -0.0036928642 0.036859147 0.0061793677 -0.06932248 0.0126848705 -0.0028812466
0.073251545 -0.01909763 -0.1673948 0.1398851 -0.09949286 0.09341982 -0.030621361 -0.0375787
0.11226017 0.10932876 -0.032467116 0.09318029 -0.043645874 -0.03853064 -0.14116287 -0.012244233
0.04623769 -0.14167918 -0.08850915 0.11881226 0.032716453 0.046687413 -0.13362765 0.055956848
-0.10340764 -0.064737104 -0.04787755 0.12151665 -0.037026778 -0.07423139 0.14594474 0.02181533
-0.14949824 -0.03974213 -0.06498828 -0.096035026 -0.051868618 -0.05807323 -0.036843624 0.042235747
-0.062391974 0.082262404 -0.07369574 0.030378992 -0.043477513 -0.0068667047 0.07017167 0.10003748
00000000: 1b08 58bd 3913 753d 7b28 493d b7a5 0abd
00000010: 942d 0f3e 9c88 b13d 9c98 083c ad33 913d
00000020: 01e0 fd3c 077c 2e3d 644c aebd 04c8 9dbd
00000030: 4a0d 0ebe 1b3d 08bd a322 a23d 2de5 adbd
00000040: 6c53 1abe 76ae d23c c645 a5bc 1ba3 f53d
00000050: 188b d03d 4b68 2c3d 502f 71bd eb48 0b3d
00000060: b15d 65bc 0327 cabb 4b08 093e f849 21bd
00000070: 352a 86bd 407a f7bd 49dc 3c3c 3b45 0fbe
00000080: 1aee ffbc eb72 18be b6e2 713d 61cd 1e3e
00000090: 25f2 3a3e afc5 363d 5e0b e73d 4c86 e53c
000000a0: c166 2f3e ed37 f43c 445b e1bd 0484 b03d
000000b0: 11ba a0bc 716e 923c d5e9 c83d b643 f6bc
000000c0: 801a d3bd fbd0 e1bd b951 283d 44f9 02be
000000d0: b5e3 30be d47c 3dbd 148b 44bb 10f2 24be
000000e0: fd30 d43d bf67 c1bc 71ae c23d 139d 41bd
000000f0: 5acc 02be 59c8 a03d 6381 143d 7562 f0bd
00000100: 700b e43d dc5b aa3d 6e78 54bc 2b11 a9bc
00000110: 39e0 d7bd f935 02bd 7f05 2cbd e056 cf3c
00000120: b5f6 293d d77c 4fba 575e 383d 7151 79bd
00000130: 5c30 f0bd fcdb 9e3d ed6a 9ebd ea3e 22be
00000140: 6a74 d4bd 952c cfbd 32f5 4e3d 2f2c 9c3d
00000150: 0b45 9c3d eb10 fbbd e052 a33d 2035 d8bd
00000160: 59d3 8e3d d13d bf3d 2e38 c83d 17c7 c93d
00000170: 5df7 cd3d 8695 c3bb 9503 723e 0d66 93bd
00000180: a0ed cdbc ae66 1ebd f1c9 10bd 1186 2abd
00000190: f6d3 093c 05e4 eb3d b03d aa3d 8c98 a0bd
000001a0: 81da db3d 5b98 37bd 1ed2 a73d 44f5 1dbc
000001b0: dc20 41bd 4d8c 23bd de8d 00be 0e25 b4bd
000001c0: a895 63bd 7cc7 0fbe d209 943b ef11 dcbc
000001d0: be44 53ba 110f 283d 43a8 743d 1a7e a13d
000001e0: 20c0 4c3e 1d93 af3d fe29 f7bd 31c6 bc3d
000001f0: 26c0 8f3d ccd1 3ebc bc5f 46bc c099 f23d
00000200: a8c0 b6bd 28a8 c33c e04e 203e 24ef 813d
00000210: 4ace f13d 6d5f 0f3c 68d5 f83d 6344 023e
00000220: 1c53 e53c c783 98bd 115c 073e c6cb 03bd
00000230: a331 193d d612 743d 4360 9b3d d498 873d
00000240: b353 90bd e9c7 c33d 3ac5 933d f61c a43d
00000250: adb1 8abd 856d 2ebe 0a9a 373e 8145 143e
00000260: 03b5 26bd 907f ba3d 0929 6cbd b665 d23d
00000270: 3c83 cf3d e2db 1f3e d135 73bd 1437 043e
00000280: 2615 d53d 9ff9 ec3d c87f ebbd 706c 103e
00000290: ed68 463d 9d26 5d3c 6d77 b53c cd29 363d
000002a0: 7f04 70bd a8f7 cebd dda4 dfbd f090 733d
000002b0: d2b4 4a3d 30fb 1a3d 23e2 aebd c5f6 e5bd
000002c0: 5f82 19be f95a f23d d277 013c 1bde 9c3d
000002d0: c4a4 b13c e1fd eabd 4c53 f1bd b352 f23d
000002e0: 4b7b 003e 4dd2 17be 754d b8bd 3e54 413d
000002f0: f381 5fbd db69 b7bd 041e b53c cc85 cfbd
00000300: 3900 903d 02cc e73d 822d cfbd a9c3 a23d
00000310: 12ee ebbd 8b07 e53d 0f64 50be 1019 b9bc
00000320: bc45 afbd c9df 3bbe fb03 72bb 9ef9 163d
00000330: 4b7c ca3b f2f8 8dbd 34d4 4f3c 4cd3 3cbb
00000340: e804 963d a272 9cbc 8b69 2bbe 0a3e 0f3e
00000350: eac2 cbbd e452 bf3d a6d9 fabc 1fec 19bd
00000360: a9e8 e53d c2e7 df3d 3dfc 04bd 4fd5 be3d
00000370: 04c6 32bd 4ed2 1dbd 008d 10be 099c 48bc
00000380: bb63 3d3d 5914 11be 4944 b5bd d853 f33d
00000390: b001 063d 4d3b 3f3d b0d5 08be 0233 653d
000003a0: 62c7 d3bd e394 84bd 401b 44bd b9dd f83d
000003b0: 64a9 17bd a106 98bd 8a72 153e 10b6 b23c
000003c0: 1116 19be a5c8 22bd 9318 85bd 03ae c4bd
000003d0: 3074 54bd 32de 6dbd 57e9 16bd 64ff 2c3d
000003e0: ba8e 7fbd 3179 a83d cbed 96bd 5ddd f83c
000003f0: 7a15 32bd 1802 e1bb 2ab6 8f3d 73e0 cc3d

backBone.1.conv1.bias f4 [6]
2.0825832e-05 -1.7678363e-05 -6.9701055e-06 8.9200694e-05 -3.8402126e-05 -8.148595e-05
00000000: 22b3 ae37 ff4b 94b7 c0e0 e9b6 4211 bb38
00000010: f811 21b8 70e3 aab8

backBone.1.bn1.weight f4 [6]
1.0223327 1.0184268 1.0029398 0.9970586 0.98934776 0.9395225
00000000: ccdb 823f cf5b 823f 5560 803f 3b3f 7f3f
00000010: e545 7d3f 8c84 703f

backBone.1.bn1.bias f4 [6]
-0.00034911933 -0.052164055 0.0973339 0.054978643 -0.03229247 -0.057419814
00000000: 010a b7b9 faa9 55bd ff56 c73d 4931 613d
00000010: 1c45 04bd 0a31 6bbd

backBone.1.bn1.running_mean f4 [6]
-0.005646496 -0.07571536 1.1198003 -0.4662875 -0.1935096 -0.51675147
00000000: 3e06 b9bb a810 9bbd 9e55 8f3f 3cbd eebe
00000010: 6127 46be d349 04bf

backBone.1.bn1.running_var f4 [6]
0.35805562 0.4165252 0.9402651 0.30086896 0.27443856 0.40745863
00000000: 1153 b73e ca42 d53e 37b5 703f 7f0b 9a3e
00000010: 3683 8c3e 6b9e d03e

backBone.1.conv2.weight f4 [6, 6, 3, 3]
0.16098815 0.17133828 0.04723345 0.06627743 0.10564675 0.13922732 0.15546697 -0.09894309
0.2318941 0.112499826 0.05218925 -0.12598306 0.08991517 0.10370376 0.039850585 0.030415457
0.070475124 0.049316194 -0.12314445 0.018440245 0.13108134 0.023711102 -0.03177411 0.07372091
-0.08533656 -0.17082591 -0.06861877 0.09037883 0.034501813 -0.09426511 0.06716106 -0.05309922
0.09011412 0.09368976 -0.076215446 -0.0891495 -0.10596985 0.038840957 -0.0895195 0.064536884
0.022316264 0.115413584 0.057444923 -0.04224888 -0.114302725 0.10203763 0.070850596 0.043940913
0.063039586 -0.02930145 -0.09349276 0.06557699 -0.09152276 0.023427175 -0.060602833 -0.104352675
-0.027656468 -0.039710082 -0.044824205 -0.13894096 -0.046615385 -0.02225294 0.05000552 0.0629876
-0.05766143 0.0047582067 0.06939686 0.21061057 0.025364155 0.007963291 -0.029679619 0.08696137
0.0178452 0.002330625 -0.03761489 0.19917154 -0.0060277386 0.047155045 0.15452361 -0.099361576
-0.04386805 -0.028178154 0.10526016 0.115444764 0.06388586 -0.09406095 -0.03912836 -0.04718068
-0.16639458 -0.10658948 -0.016680544 0.07996052 0.0969679 0.058769863 0.07715517 0.14156456
0.18290523 -0.12465731 0.016504724 -0.07698616 0.024348948 0.05121626 -0.117663905 0.052428037
-0.082777336 -0.10828593 0.08014174 0.1904688 0.1140514 -0.09653892 0.12399103 0.1729543
-0.04331108 -0.019149212 -0.15818241 0.10327207 -0.08944368 -0.024035929 -0.07538011 0.124494545
0.12290483 -0.1061838 -0.07099302 -0.08528268 0.008646506 0.060183685 0.06545076 -0.094841816
-0.006894383 -0.07738248 -0.16864304 -0.035048593 0.112046614 -0.020832634 0.077053845 -0.17338972
0.057408877 -0.060176305 -0.038585532 -0.095392235 0.12337904 -0.15223749 -0.10247159 0.039860386
-0.0075038113 0.020397175 0.034915958 -0.035606626 0.10772285 0.09490095 -0.01689847 0.0141563825
-0.0027106213 0.11594718 -0.0068378258 -0.15489544 0.101453744 0.08437688 -0.029725492 0.06521141
-0.03046332 0.09857216 -0.051296573 -0.08967302 0.049388357 -0.118347056 -0.027255923 0.012880364
0.005622532 -0.17405497 -0.03521366 -0.01591354 0.123248935 0.056266725 -0.07294984 0.0770524
0.10359291 -0.024083976 -0.108851634 -0.11741372 0.11118156 0.07461433 -0.009547124 -0.065713905
-0.044933762 -0.05348118 0.17261218 0.012608592 -0.033902995 -0.042641565 -0.15467896 0.15122016
-0.035330337 0.09765407 0.014055389 0.03844992 -0.011100675 0.15713455 0.0075566014 0.021731896
0.19686592 -0.07549018 0.14088728 -0.15422752 0.016714845 -0.1729255 0.12843603 0.094753124
0.026671574 0.031850465 -0.0082176365 -0.1096244 0.05975296 -0.12093778 0.07083033 -0.14920579
0.014803122 0.013407754 -0.13186972 0.034453545 0.12505485 0.052749407 -0.12394476 -0.0027468125
0.022613361 0.051682167 0.048876986 -0.037946094 -0.22775367 -0.005123459 -0.1801755 -0.057935923
-0.02912604 -0.10251099 -0.098182276 -0.15979198 -0.1565246 -0.15691341 -0.09044284 0.05930728
-0.15877578 -0.07783328 -0.13119611 0.004368077 0.07692597 0.11440491 -0.034403943 -0.21859872
-0.0886889 -0.120621234 0.036184803 0.018604726 0.0015528449 0.044623733 0.08388558 0.04250834
00000000: 14da 243e 4d73 2f3e dd77 413d 76bc 873d
00000010: 535d d83d 9b91 0e3e bc32 1f3e ada2 cabd
00000020: a675 6d3e 4f66 e63d 65c4 553d b401 01be
00000030: 7225 b83d a362 d43d 5e3a 233d d629 f93c
00000040: 4355 903d c7ff 493d 2833 fcbd ff0f 973c
00000050: 303a 063e c93d c23c 9225 02bd fdfa 963d
00000060: efc4 aebd fdec 2ebe ff87 8cbd 8918 b93d
00000070: c651 0d3d 110e c1bd bd8b 893d 917e 59bd
00000080: c08d b83d 6be0 bf3d d816 9cbd 0394 b6bd
00000090: b906 d9bd b217 1f3d 0056 b7bd ea2b 843d
000000a0: 99d0 b63c f55d ec3d 5e4b 6b3d 290d 2dbd
000000b0: 8c17 eabd 1bf9 d03d 1e1a 913d 63fb 333d
000000c0: e61a 813d 9809 f0bc 2279 bfbd 3b4d 863d
000000d0: 4970 bbbd 59ea bf3c ad3a 78bd dbb6 d5bd
000000e0: d18f e2bc 0aa7 22bd 9699 37bd 8a46 0ebe
000000f0: c6ef 3ebd cc4b b6bc 97d2 4c3d a5ff 803d
00000100: 642e 6cbd bbea 9b3b f11f 8e3d 4caa 573e
00000110: 7dc8 cf3c 7778 023c ac22 f3bc ce18 b23d
00000120: 1930 923c 66bd 183b 1212 1abd a0f3 4b3e
00000130: 5684 c5bb a625 413d 703b 1e3e 157e cbbd
00000140: fcae 33bd dfd5 e6bc a492 d73d 4e6e ec3d
00000150: 97d6 823d 07a3 c0bd 0f45 20bd 8740 41bd
00000160: 5763 2abe 964b dabd a3a5 88bc 57c2 a33d
00000170: 1b97 c63d abb8 703d 8803 9e3d 4df6 103e
00000180: 824b 3b3e 554c ffbd ea34 873c ebaa 9dbd
00000190: 7277 c73c 24c8 513d c6f9 f0bd c8be 563d
000001a0: 2a87 a9bd 03c5 ddbd 5a21 a43d 410a 433e
000001b0: c893 e93d 33b6 c5bd 02ef fd3d ef1a 313e
000001c0: f666 31bd cfde 9cbc 92fa 21be 4f80 d33d
000001d0: 402e b7bd ffe6 c4bc e360 9abd fff6 fe3d
000001e0: 87b5 fb3d e476 d9bd ca64 91bd b0a8 aebd
000001f0: 13aa 0d3c 2b83 763d 0c0b 863d 6d3c c2bd
00000200: 47ea e1bb b57a 9ebd c3b0 2cbe 1d8f 0fbd
00000210: b278 e53d 33a9 aabc 68ce 9d3d 138d 31be
00000220: 9225 6b3d 6e7b 76bd dd0b 1ebd 015d c3bd
00000230: 26ae fc3d 25e4 1bbe a0dc d1bd a544 233d
00000240: 88e2 f5bb fa17 a73c 0904 0f3d 41d8 11bd
00000250: cc9d dc3d 6e5b c23d a96e 8abc 2cf0 673c
00000260: aea4 31bb b775 ed3d d70f e0bb e99c 1ebe
00000270: fbc6 cf3d c9cd ac3d e082 f3bc 8f8d 853d
00000280: 368e f9bc 33e0 c93d 5b1c 52bd 7da6 b7bd
00000290: 724b 4a3d f15f f2bd d047 dfbc 2a08 533c
000002a0: 383d b83b 773b 32be 333c 10bd 1d5d 82bc
000002b0: f069 fc3d f077 663d ba66 95bd a6cd 9d3d
000002c0: 8528 d43d c24b c5bc 9bed debd 9b76 f0bd
000002d0: 28b3 e33d 66cf 983d 8a6b 1cbc 0395 86bd
000002e0: 770c 38bd 150f 5bbd 3fc1 303e 4594 4e3c
000002f0: dedd 0abd eca8 2ebd 2964 1ebe 75d9 1a3e
00000300: 8bb6 10bd dbfe c73d 9348 663c aa7d 1d3d
00000310: 9bdf 35bc e1e7 203e 5e9d f73b 1707 b23c
00000320: 3897 493e 989a 9abd c144 103e d2ed 1dbe
00000330: 92ed 883c 6213 31be bc84 033e ed0d c23d
00000340: 587e da3c a275 023d 44a3 06bc c282 e0bd
00000350: 85bf 743d 3aae f7bd 7e0f 913d 67c9 18be
00000360: cb88 723c 32ac 5b3c db08 07be 291f 0d3d
00000370: 610e 003e c30f 583d c0d6 fdbd de03 34bb
00000380: a83f b93c aeb0 533d 3c33 483d 5d6d 1bbd
00000390: 4238 69be b0e2 a7bb ed7f 38be 384e 6dbd
000003a0: bc99 eebc 48f1 d1bd ca13 c9bd 82a0 23be
000003b0: fc47 20be e9ad 20be 183a b9bd 31ec 723d
000003c0: 1e96 22be 0e67 9fbd 4658 06be 1622 8f3b
000003d0: 5d8b 9d3d 1f4d ea3d 26eb 0cbd 58d8 5fbe
000003e0: 87a2 b5bd 4408 f7bd 8436 143d f068 983c
000003f0: d488 cb3a 60c7 363d 34cc ab3d 3a1d 2e3d

backBone.1.conv2.bias f4 [6]
8.077143e-05 3.3310163e-05 -6.5542015e-05 -1.337986e-05 4.0963332e-05 8.5662636e-05
00000000: d563 a938 84b6 0b38 9a73 89b8 107a 60b7
00000010: 0bd0 2b38 c7a5 b338

backBone.1.bn2.weight f4 [6]
0.9904358 0.9299018 0.93521255 1.0337994 0.9918284 0.96757364
00000000: 338d 7d3f 0b0e 6e3f 176a 6f3f 8a53 843f
00000010: 77e8 7d3f e8b2 773f

backBone.1.bn2.bias f4 [6]
0.038546987 0.08051515 0.1001805 -0.030989861 -0.077073835 0.07235948
00000000: 72e3 1d3d 21e5 a43d 6f2b cd3d 73de fdbc
00000010: e3d8 9dbd 3531 943d

backBone.1.bn2.running_mean f4 [6]
0.31895712 0.19613968 -0.05429572 -0.07741254 -0.56011164 -0.18639307
00000000: 594e a33e d7d8 483e 3065 5ebd 778a 9ebd
00000010: 7a63 0fbf d3dd 3ebe

backBone.1.bn2.running_var f4 [6]
0.2599274 0.19306554 0.09861727 0.20376618 0.2651202 0.17857996
00000000: 3415 853e f9b2 453e daf7 c93d 15a8 503e
00000010: d6bd 873e aadd 363e

backBone.2.conv1.weight f4 [6, 6, 3, 3]
-0.118724324 0.052289996 0.06133919 -0.03789082 0.015188965 0.035873987 -0.09046621 -0.14865182
0.037183683 -0.089838885 0.05315546 0.043291926 -0.1141433 0.0081750285 0.030901752 0.07403414
0.12168206 0.10735994 -0.07593434 -0.006177821 0.034875344 0.042573493 -0.005976505 0.11143109
0.0043695685 -0.14426868 0.0036240856 -0.0770282 0.019155765 0.031781424 0.11946536 -0.11547061
-0.025410399 -0.11828972 0.16301028 0.051325925 -0.20322396 0.0557751 0.018214496 -0.083948776
-0.069952615 -0.14204292 0.047981378 -0.059298277 0.12101843 0.0695085 -0.017150007 -0.031068953
0.12946512 -0.09047466 -0.03158463 0.10000661 0.10593911 -0.09486903 -0.17055587 -0.1356848
-0.040891226 0.159668 -0.03627856 -0.08030992 0.0337346 0.112706795 0.1587904 0.046572477
0.13047428 -0.06749524 0.15852731 -0.06385121 0.0943599 -0.10514741 0.13497156 0.16336153
0.093974166 0.031583577 0.10306691 -0.006653484 0.103289 -0.12690641 -0.07998559 0.010752615
-0.008570432 -0.06310457 -0.10093377 0.066678874 -0.020865884 0.17892948 -0.055206098 -0.032701943
-0.087117255 -0.10881377 0.12204559 0.07040112 -0.020959066 -0.04808139 -0.15845253 -0.099694535
-0.10403686 0.06969571 -0.03609304 -0.09180251 -0.034925025 0.10684094 -0.0015485006 0.097890995
0.08958794 -0.008271353 0.15307587 -0.11125047 0.05203832 -0.16068251 -0.035511956 -0.042448923
0.036291055 -0.004782473 -0.0052996236 0.15587737 -0.07914592 0.10151349 0.1456658 0.062144976
-0.06309892 0.15815854 -0.13165471 0.10905186 -0.07340791 -0.10672358 -0.014679389 0.017879432
-0.08305859 0.078303315 -0.16367052 0.05976973 0.08810837 -0.20211169 0.08655507 -0.02306961
0.14237548 0.042659134 0.17207602 0.04170328 -0.09023566 0.017868318 0.0895226 -0.07271274
0.08519062 -0.0012422726 0.09578302 -0.0734062 0.04547364 0.0005129479 -0.11630311 0.031301927
-0.032985937 -0.14697388 0.030109541 0.11263444 0.023191746 0.012448125 0.03171585 -0.084441155
-0.08745815 0.11251528 0.10133501 0.024869308 -0.069976605 -0.0834316 -0.008897101 -0.060009185
-0.11505659 -0.13419873 -0.048792552 0.11407363 0.028796868 -0.055747468 0.016977688 -0.13028753
0.027334316 -0.120192796 0.08167018 -0.14418276 0.15292916 -0.036557425 0.19416657 -0.13036785
0.06709833 0.04277781 0.16794069 -0.0023912212 -0.018539717 0.12722348 -0.05164944 -0.0054490995
-0.05826925 0.0032901326 0.008744953 0.0487029 0.062962726 0.055603907 0.15696964 0.031861145
-0.018856931 0.0932783 -0.08843214 -0.034716994 -0.11982872 0.16996422 0.085508704 -0.1538853
0.02911102 -0.060713917 -0.0031631081 0.024967644 0.018694494 0.005303271 0.029206857 -0.014640384
0.11205874 -0.10514294 0.07625372 0.08104098 0.00046045805 -0.03305796 0.079049215 -0.09724272
-0.08511951 -0.12960903 0.026710855 0.1332995 -0.104482956 0.042902388 0.12536094 -0.026561521
0.02971446 -0.072057866 -0.067338794 0.00127761 0.14329158 0.01206927 -0.04353243 0.024387095
0.09599712 0.0315778 -0.0015549649 -0.053760767 0.0906911 -0.12741545 -0.1212707 -0.07256786
0.090830155 0.008437663 -0.050175466 -0.10578523 0.020030998 0.110089876 -0.022345467 0.023542024
00000000: bd25 f3bd 092e 563d cd3e 7b3d 6833 1bbd
00000010: 23db 783c 9af0 123d 5946 b9bd 2f38 18be
00000020: eb4d 183d 73fd b7bd 8ab9 593d e052 313d
00000030: f6c3 e9bd 8ef0 053c ac25 fd3c 369f 973d
00000040: 7234 f93d 87df db3d 7783 9bbd 526f cabb
00000050: 73d9 0e3d 8b61 2e3d 8fd6 c3bb fc35 e43d
00000060: 992e 8f3b 2bbb 13be 1182 6d3b f6c0 9dbd
00000070: 8dec 9c3c 3d2d 023d 41aa f43d db7b ecbd
00000080: 7829 d0bc e141 f2bd 2bec 263e 223b 523d
00000090: f119 50be 6e74 643d 9136 953c 56ed abbd
000000a0: 5143 8fbd b373 11be 1f88 443d c0e2 72bd
000000b0: 83d8 f73d 795a 8e3d 2c7e 8cbc 5184 febc
000000c0: 8192 043e c74a b9bd e35e 01bd 44d0 cc3d
000000d0: 9bf6 d83d b24a c2bd 33a6 2ebe f5f0 0abe
000000e0: 8f7d 27bd 0280 233e d498 14bd 8779 a4bd
000000f0: 4b2d 0a3d d2d2 e63d f399 223e c8c2 3e3d
00000100: 0d9b 053e f23a 8abd fc54 223e 6cc4 82bd
00000110: c33f c13d 8657 d7bd fc35 0a3e 3f48 273e
00000120: 8775 c03d c85d 013d be14 d33d 7805 dabb
00000130: 2f89 d33d c1f3 01be 7ccf a3bd bc2b 303c
00000140: ff6a 0cbc f83c 81bd 5db6 cebd ef8e 883d
00000150: eeee aabc 4a39 373e ca1f 62bd 79f2 05bd
00000160: 886a b2bd c1d9 debd 0af3 f93d 762e 903d
00000170: 59b2 abbc fef0 44bd 6141 22be a62c ccbd
00000180: 4711 d5bd a0bc 8e3d 4cd6 13bd f402 bcbd
00000190: 8b0d 0fbd 6ccf da3d 0ff7 caba 137b c83d
000001a0: e279 b73d 9284 07bc ecbf 1c3e 49d7 e3bd
000001b0: 2226 553d f589 24be fc74 11bd ecde 2dbd
000001c0: eea5 143d 4bb6 9cbb 77a8 adbb 519e 1f3e
000001d0: 4217 a2bd 4ee6 cf3d 6a29 153e bb8b 7e3d
000001e0: 023a 81bd 50f4 213e 7ed0 06be 9556 df3d
000001f0: e356 96bd e491 dabd d281 70bc e377 923c
00000200: 9f1a aabd 7d5d a03d 3f99 27be 1bd1 743d
00000210: 2972 b43d 5ef6 4ebe c943 b13d 7bfc bcbc
00000220: e1ca 113e 58bb 2e3d b234 303e 0fd1 2a3d
00000230: 79cd b8bd 9460 923c a057 b73d 6bea 94bd
00000240: 6b78 ae3d c0d3 a2ba e329 c43d fd55 96bd
00000250: 9142 3a3d 5a77 063a 5330 eebd 7336 003d
00000260: 431c 07bd 5280 16be 49a8 f63c e3ac e63d
00000270: 9efc bd3c 38f3 4b3c 7be8 013d 7cef acbd
00000280: 421d b3bd 696e e63d bb88 cf3d b8ba cb3c
00000290: e54f 8fbd 30de aabd 25c5 11bc 31cc 75bd
000002a0: caa2 ebbd 646b 09be b3da 47bd 6f9f e93d
000002b0: 69e7 eb3c 7557 64bd cb14 8b3c 186a 05be
000002c0: 37ec df3c a427 f6bd b242 a73d a5a4 13be
000002d0: 7699 1c3e 3dbd 15bd 9ad3 463e 267f 05be
000002e0: d96a 893d c937 2f3d a5f8 2b3e 09b6 1cbb
000002f0: 9be0 97bc df46 023e 5d8e 53bd 5c8e b2bb
00000300: bdab 6ebd 449f 573b fe46 0f3c b17c 473d
00000310: 9af2 803d ecc0 633d a6bc 203e d580 023d
00000320: da79 9abc b108 bf3d e91b b5bd 6833 0ebd
00000330: c368 f5bd 1a0b 2e3e 301f af3d 1c94 1dbe
00000340: 3c7a ee3c 28af 78bd 264c 4fbb f288 cc3c
00000350: 3225 993c 10c7 ad3b 3843 ef3c 39de 6fbc
00000360: 0d7f e53d 2f55 d7bd e92a 9c3d d0f8 a53d
00000370: a269 f139 c967 07bd 8ee4 a13d 3127 c7bd
00000380: 2353 aebd 3bb8 04be b9d0 da3c aa7f 083e
00000390: 29fb d5bd 6aba 2f3d 9e5e 003e 8c97 d9bc
000003a0: bd6b f33c 1393 93bd ece8 89bd 7a75 a73a
000003b0: 07bb 123e 30be 453c 104f 32bd 72c7 c73c
000003c0: 239a c43d b957 013d f7cf cbba 4034 5cbd
000003d0: 41bc b93d 3279 02be c65c f8bd 759e 94bd
000003e0: 2905 ba3d 203e 0a3c ca84 4dbd eda5 d8bd
000003f0: 0c18 a43c cd76 e13d d70d b7bc 34db c03c

backBone.2.conv1.bias f4 [6]
-2.8669938e-06 3.0642772e-05 2.149857e-06 -4.2969834e-05 2.9393323e-07 1.6704425e-05
00000000: 9466 40b6 6d86 0038 4346 1036 823a 34b8
00000010: e0cd 9d34 7b20 8c37

backBone.2.bn1.weight f4 [6]
0.95280427 1.0653291 1.0447091 0.9825425 0.9911651 0.94327724
00000000: fbea 733f b45c 883f 07b9 853f e887 7b3f
00000010: ffbc 7d3f 9e7a 713f

backBone.2.bn1.bias f4 [6]
-0.008714644 0.049726762 0.10161684 -0.031712946 0.0173634 0.0037819315
00000000: dec7 0ebc 4aae 4b3d 7d1c d03d 6fe5 01bd
00000010: b03d 8e3c 48da 773b

backBone.2.bn1.running_mean f4 [6]
-0.08973945 0.5237553 0.19358478 -0.017435454 -0.50586647 0.7748269
00000000: 51c9 b7bd d414 063f 173b 463e ccd4 8ebc
00000010: 7780 01bf 0e5b 463f

backBone.2.bn1.running_var f4 [6]
0.58711267 0.8254604 0.7871474 0.39558363 0.5681344 0.6864798
00000000: 044d 163f 5f51 533f 7e82 493f f089 ca3e
00000010: 4271 113f 24bd 2f3f

backBone.2.conv2.weight f4 [6, 6, 3, 3]
-0.07042056 -0.07454733 -0.12078158 -0.06924397 0.048502974 0.07538369 -0.047425903 0.1542245
0.069664255 -0.07117951 -0.01648518 0.08985616 0.22290206 0.10608871 0.15758957 0.029475136
0.02477189 0.07152784 0.007964067 -0.024401354 -0.023993444 -0.14848419 0.04476681 0.064656414
-0.13454229 3.7531136e-06 0.049722027 0.08750832 -0.016456023 -0.09974976 -0.08058236 -0.07846807
-0.018399108 -0.14701 0.15476975 0.026932392 0.12806834 0.047410958 -0.09889953 -0.16137005
-0.0035251256 0.07289526 -0.13429233 0.06780243 -0.004639819 -0.016227013 0.09252128 -0.021635026
-0.096739285 0.074078925 -0.013137292 0.06405198 0.06805344 -0.06759878 -0.09536904 -0.15678014
-0.029346325 0.0711323 0.023544319 0.08768522 0.07968418 0.034748707 -0.101609476 -0.18373853
0.08853749 0.019413814 -0.13451296 -0.13645895 0.10103677 -0.025642512 0.10710389 0.002404272
0.05829447 0.121420465 0.05059806 -0.041658647 0.10178509 -0.1394434 0.15336429 -0.07666734
0.14738908 0.07859537 -0.055064376 -0.084230535 -0.023097519 0.0320046 0.09761023 0.06793337
0.03919048 -0.023786752 0.098875396 -0.0067716665 0.120600425 0.019719072 0.09009395 -0.016691022
0.025980262 0.063082255 -0.10381612 -0.026646879 -0.08882706 0.061333783 0.20249487 0.10246985
-0.1431885 -0.0395088 -0.028494406 -0.0981009 -0.02696608 -0.22418037 -0.00026322773 0.11246585
-0.010079076 0.09537641 -0.095507585 0.08891229 0.17060588 -0.11745113 -0.101110935 0.11965723
0.030584576 0.018433906 -0.19388548 -0.050308734 0.10770826 0.07015525 0.17439337 -0.1174518
-0.16471729 -0.008331752 -0.17273447 -0.17039478 -0.08187026 0.023013739 0.110420875 0.07305369
0.1623037 -0.040917493 -0.08802331 0.00061389775 0.006828632 0.045721553 -0.048012007 -0.09144609
0.05971111 0.10103459 -0.044478387 -0.04756672 -0.06427407 -0.09233842 -0.053639833 0.109834194
-0.112491064 -0.053830605 -0.08691509 -0.03893428 -0.01739858 -0.08780656 -0.06868762 -0.1284041
0.008130863 0.035803497 0.113006 0.085373834 -0.17772785 0.14881323 0.033834398 0.049492635
0.14755437 0.015398763 -0.09189483 -0.17157374 -0.17509691 0.16405708 -0.12702984 -0.1253884
0.023525884 0.10981606 0.032591313 -0.05912014 -0.039857805 -0.07025575 -0.037959054 0.048534505
0.016464444 0.087566525 -0.11454699 0.04244598 -0.0641027 -0.020317256 -0.12617064 -0.03510761
-0.048060715 0.15032972 0.1171936 -0.11901416 -0.03608784 0.08495686 -0.03613891 -0.1056155
0.02186496 0.09075063 -0.10421475 -0.078748114 -0.18198425 0.01342926 -0.09840634 -0.11927383
0.079421096 0.02209393 0.034294214 -0.008120597 0.07876082 0.090642676 0.100252666 0.07843966
-0.13866086 -0.036127225 -0.07046343 0.006794172 -0.06458822 -0.07925793 0.03752655 0.01742975
0.037139278 0.051561896 0.04868329 0.01049287 -0.0028401953 -0.025740251 0.048979085 0.019567981
-0.09408806 -0.106556654 -0.039251324 -0.081252754 -0.057510555 -0.04367041 -0.103054285 -0.046238493
0.09287079 -0.057293896 -0.018832501 0.14157693 -0.1982999 0.046036016 -0.10212368 0.06763141
0.004311456 -0.024147026 0.021496212 -0.010626154 0.13840507 0.075097635 0.12419371 0.027588995
00000000: a838 90bd 45ac 98bd 555c f7bd c8cf 8dbd
00000010: 0eab 463d c462 9a3d aa41 42bd 07ed 1d3e
00000020: 22ac 8e3d 90c6 91bd ee0b 87bc 8206 b83d
00000030: 7040 643e 0a45 d93d 295f 213e d775 f13c
00000040: 6bee ca3c 307d 923d b87b 023c 59e5 c7bc
00000050: e68d c4bc 3d0c 18be 675d 373d 956a 843d
00000060: 74c5 09be 00de 7b36 53a9 4b3d 9037 b33d
00000070: c8ce 86bc 9a49 ccbd 5d08 a5bd deb3 a0bd
00000080: bab9 96bc ca89 16be f67b 1e3e 52a1 dc3c
00000090: 5924 033e fe31 423d d68b cabd 313e 25be
000000a0: cb05 67bb 1c4a 953d ee83 09be 00dc 8a3d
000000b0: 9f09 98bb 83ee 84bc cc7b bd3d f03b b1bc
000000c0: 3f1f c6bd b1b6 973d cc3d 57bc af2d 833d
000000d0: 9a5f 8b3d 3b71 8abd d850 c3bd f98a 20be
000000e0: b467 f0bc d0ad 913d 04e0 c03c 4f94 b33d
000000f0: 7631 a33d a954 0e3d a118 d0bd f425 3cbe
00000100: 2553 b53d b809 9f3c c4bd 09be e5bb 0bbe
00000110: 5eec ce3d 3f10 d2bc 4959 db3d fe90 1d3b
00000120: 2fc6 6e3d 4bab f83d e93f 4f3d 42a2 2abd
00000130: b474 d03d 40ca 0ebe 870b 1d3e c403 9dbd
00000140: 2aed 163e 9cf6 a03d 2f8b 61bd 0f81 acbd
00000150: 0237 bdbc 4117 033d dfe7 c73d a720 8b3d
00000160: 3286 203d 6fdc c2bc 2f7f ca3d dbe4 ddbb
00000170: 5bfd f63d e489 a13c 2d83 b83d 9cbb 88bc
00000180: 8fd4 d43c 4531 813d 8c9d d4bd 8e4a dabc
00000190: f6ea b5bd 2239 7b3d d15a 4f3e b6db d13d
000001a0: 02a0 12be fbd3 21bd 1a6d e9bc 20e9 c8bd
000001b0: f8e7 dcbc 8a8f 65be d401 8ab9 7f54 e63d
000001c0: b522 25bc b554 c33d 7b99 c3bd a617 b63d
000001d0: 4fb3 2e3e 388a f0bd 4013 cfbd da0e f53d
000001e0: 818c fa3c b402 973c ea89 46be 8810 4ebd
000001f0: 2696 dc3d 8ead 8f3d 2d94 323e 928a f0bd
00000200: a6ab 28be e781 08bc 4ee1 30be f87b 2ebe
00000210: 98ab a7bd 4f87 bc3c 5724 e23d 2c9d 953d
00000220: f132 263e 1a99 27bd 9145 b4bd fbed 203a
00000230: b8c2 df3b 8646 3b3d 3da8 44bd 1648 bbbd
00000240: a393 743d 39eb ce3d f82e 36bd 52d5 42bd
00000250: 20a2 83bd ed1b bdbd 71b5 5bbd c0f0 e03d
00000260: b761 e6bd 7b7d 5cbd 8a00 b2bd 8d79 1fbd
00000270: 7887 8ebc edd3 b3bd 18ac 8cbd 5d7c 03be
00000280: 5037 053c b0a6 123d b16f e73d 7ad8 ae3d
00000290: 4afe 35be 7f62 183e f095 0a3d cab8 4a3d
000002a0: 7e18 173e 184b 7c3c 5b33 bcbd 07b1 2fbe
000002b0: 9b4c 33be 94fe 273e 1c14 02be d165 00be
000002c0: 5bb9 c03c 3ee7 e03d 787e 053d f627 72bd
000002d0: f041 23bd 3fe2 8fbd f47a 1bbd 1ecc 463d
000002e0: 71e0 863c 1456 b33d 9d97 eabd d6db 2d3d
000002f0: 4748 83bd 6070 a6bc e032 01be ffcc 0fbd
00000300: 50db 44bd 09f0 193e 3303 f03d b2bd f3bd
00000310: d8d0 13bd ddfd ad3d 6506 14bd f04c d8bd
00000320: 251e b33c 77db b93d 8b6e d5bd b146 a1bd
00000330: 145a 3abe 6606 5c3c 4389 c9bd d645 f4bd
00000340: 87a7 a23d 54fe b43c 1778 0c3d 410c 05bc
00000350: 5a4d a13d dea2 b93d 4551 cd3d f9a4 a03d
00000360: 1dfd 0dbe 24fa 13bd 214f 90bd a5a1 de3b
00000370: d446 84bd fb51 a2bd 71b5 193d d6c8 8e3c
00000380: 5b1f 183d 9132 533d 2168 473d 49ea 2b3c
00000390: 9222 3abb 38dd d2bc 4b9e 483d 084d a03c
000003a0: 3eb1 c0bd 603a dabd ffc5 20bd d867 a6bd
000003b0: 3090 6bbd bedf 32bd 200e d3bd 9364 3dbd
000003c0: 0a33 be3d 01ad 6abd 9e46 9abc 8bf9 103e
000003d0: 210f 4bbe 4390 3c3d 3826 d1bd 5682 8a3d
000003e0: 1d47 8d3b fccf c5bc d318 b03c 5219 2ebc
000003f0: 0fba 0d3e cacc 993d 4659 fe3d 5102 e23c

backBone.2.conv2.bias f4 [6]
-0.0001199454 5.35568e-05 8.409368e-07 -0.00010454692 5.344195e-05 9.272978e-06
00000000: 328b fbb8 2da2 6038 bdbc 6135 3340 dbb8
00000010: db26 6038 2393 1b37

backBone.2.bn2.weight f4 [6]
1.0248425 1.0186868 0.9381546 0.9529435 0.90883553 1.1190248
00000000: 0a2e 833f 5464 823f e62a 703f 1bf4 733f
00000010: 72a9 683f 343c 8f3f

backBone.2.bn2.bias f4 [6]
0.11005237 -0.025399871 0.00937057 -0.031133965 -0.10388286 0.019128948
00000000: 2363 e13d 6413 d0bc 0587 193c a80c ffbc
00000010: 89c0 d4bd 50b4 9c3c

backBone.2.bn2.running_mean f4 [6]
0.11027764 0.14598055 -0.37765142 -0.0644516 -0.04149519 0.11057533
00000000: 3ed9 e13d ed7b 153e 875b c1be 33ff 83bd
00000010: dcf6 29bd 5275 e23d

backBone.2.bn2.running_var f4 [6]
0.20885664 0.2280434 0.30585495 0.19652225 0.11585286 0.18816775
00000000: 84de 553e 3684 693e 0599 9c3e 213d 493e
00000010: 4444 ed3d 0caf 403e
