models/AZ-04-05-24-EIPC51-A/model_quantized.onnx (onnx, 57303 bytes, 17 tensors)

policyHead.4.bias f4 [81]
0	0xbd825b4f	-0.06365072
1	0xbc97b62a	-0.01851948
2	0xbc956e7f	-0.018241165
3	0x3c958a8b	0.018254539
4	0xbd2eb9b2	-0.04265756
5	0x3ced1a56	0.028943222
6	0xbd13c287	-0.036074188
7	0xbd51c904	-0.051217094
8	0xbd37ef0c	-0.044905707
9	0xbcd7cb69	-0.02634211
10	0x3d54b9e3	0.051935088
11	0xbcd6174a	-0.026134152
12	0x3d2b5909	0.041832957
13	0x3c8f0653	0.01745907
14	0x3c378a4a	0.011202404
15	0xbb6f4ce1	-0.003651433
16	0xbb8be016	-0.0042686565
17	0xbc55b1dc	-0.013042893
18	0x3cfe6939	0.031056033
19	0x3cde3efd	0.027129645
20	0xbcc175ed	-0.023615802
21	0x3ccf5943	0.025311118
22	0x3c128f9c	0.008945372
23	0xbc7855c2	-0.015157165
24	0xbce61949	-0.028088229
25	0x3cb28f0e	0.02179673
26	0x3b9f5930	0.004862927
27	0xbcdec48b	-0.027193328
28	0x3d001fe8	0.03128043
29	0xbd441e39	-0.047880385
30	0x3d299303	0.041399967
31	0xbd17af6d	-0.037032533
32	0xbcd47ec3	-0.025939351
33	0x3d1670a6	0.036728524
34	0x3ced1fcb	0.028945824
35	0xbcb7a1bc	-0.022415988
36	0x3c9722a3	0.018449133
37	0x3c99738c	0.018731855
38	0x3cc8ee54	0.024527706
39	0x3d4b9e4c	0.04971151
40	0x3bdf042e	0.006805918
41	0x3d3c23f9	0.045932744
42	0x3cde8e19	0.027167367
43	0xbd352051	-0.044220272
44	0xbca63574	-0.02028916
45	0x3cdd3927	0.027004791
46	0x3cb2ec29	0.021841126
47	0x3c7731e4	0.015087578
48	0x3da9e545	0.08295683
49	0x3d323d1d	0.043515313
50	0x3dc71120	0.09720063
51	0xbc6e70f1	-0.0145532945
52	0xbc43a50d	-0.011941207
53	0x3d13421c	0.03595172
54	0x3b9a935f	0.004717275
55	0x3d60bb5e	0.054866187
56	0xbd61bdaa	-0.05511252
57	0x3da54c04	0.080711395
58	0x3c7b4546	0.01533634
59	0xbd145206	-0.036211036
60	0xbc124b1c	-0.00892904
61	0xbc516904	-0.012781385
62	0xbd0342c1	-0.032046083
63	0x3c910cb4	0.017706253
64	0xbc75379d	-0.0149668725
65	0xbcd903d5	-0.026491085
66	0x3d026b77	0.031840768
67	0xbc28da93	-0.010306018
68	0xbcceaef1	-0.025229903
69	0x3ccee2bd	0.025254602
70	0xba15fd76	-0.00057216675
71	0x3c731bce	0.014838172
72	0xbbe05736	-0.006846334
73	0x3cc0b90d	0.02352574
74	0xbd1fd129	-0.03901783
75	0xbbd8ea0a	-0.0066196965
76	0xbcb58e60	-0.022162616
77	0x3a56ccde	0.000819398
78	0xbcec0025	-0.028808663
79	0xbd050622	-0.03247655
80	0xbcfaad27	-0.030600144

onnx::Conv_84 f4 [2]
0	0xbefd4fe4	-0.49475014
1	0x3e9ed095	0.3101851

onnx::Conv_87 f4 [2]
0	0x3def4810	0.11683667
1	0x3e066a76	0.13126549

onnx::Conv_90 f4 [2]
0	0x3e3553dd	0.17707773
1	0xbed6e347	-0.41970274

onnx::Conv_93 f4 [2]
0	0xbee44128	-0.4458096
1	0xbd9cbb48	-0.076529086

onnx::Conv_96 f4 [2]
0	0xbe67a25b	-0.22620527
1	0xbf28a969	-0.658835

onnx::Conv_99 f4 [6]
0	0x3fb96540	1.4484024
1	0x3e886f7d	0.2664756
2	0x3f24a2fa	0.6431118
3	0xbeb4572e	-0.35222763
4	0x3faaab94	1.3333611
5	0x3f72b996	0.9481443

onnx::Conv_102 f4 [3]
0	0x3e978732	0.29595333
1	0xbf81f03f	-1.0151442
2	0x3f366fc0	0.71264267

onnx::Conv_83_quantized u1 [2, 4, 3, 3]
0	0x63	99
1	0x8b	139
2	0x73	115
3	0x82	130
4	0x69	105
5	0x91	145
6	0x5b	91
7	0x66	102
8	0x5a	90
9	0xa4	164
10	0xae	174
11	0x8b	139
12	0x96	150
13	0xa6	166
14	0xa3	163
15	0x73	115
16	0x8f	143
17	0x8e	142
18	0xfe	254
19	0x29	41
20	0xd0	208
21	0x0b	11
22	0xb7	183
23	0xab	171
24	0x8f	143
25	0xff	255
26	0xc3	195
27	0x7b	123
28	0x54	84
29	0x80	128
30	0x73	115
31	0x64	100
32	0x5f	95
33	0x7b	123
34	0x82	130
35	0x65	101
36	0xad	173
37	0x9f	159
38	0xd5	213
39	0xb8	184
40	0x43	67
41	0x7b	123
42	0x9f	159
43	0x60	96
44	0x73	115
45	0x61	97
46	0x7d	125
47	0x98	152
48	0xab	171
49	0xa5	165
50	0xe0	224
51	0x7a	122
52	0x3c	60
53	0x41	65
54	0x62	98
55	0x98	152
56	0x14	20
57	0x5b	91
58	0xba	186
59	0x4f	79
60	0x90	144
61	0xd3	211
62	0x00	0
63	0x6c	108
64	0x47	71
65	0x4c	76
66	0x73	115
67	0x82	130
68	0x3c	60
69	0x8b	139
70	0x85	133
71	0x80	128

onnx::Conv_86_quantized u1 [2, 2, 3, 3]
0	0x1b	27
1	0x83	131
2	0x6d	109
3	0x46	70
4	0x95	149
5	0x3f	63
6	0x8b	139
7	0x6f	111
8	0xaf	175
9	0x31	49
10	0x25	37
11	0x40	64
12	0xc6	198
13	0x63	99
14	0xff	255
15	0xcd	205
16	0x00	0
17	0xb6	182
18	0x5c	92
19	0x88	136
20	0x1f	31
21	0x46	70
22	0x0e	14
23	0x36	54
24	0xae	174
25	0x2f	47
26	0xad	173
27	0xb2	178
28	0xf6	246
29	0xb9	185
30	0x48	72
31	0xda	218
32	0x87	135
33	0x4a	74
34	0x73	115
35	0x44	68

onnx::Conv_89_quantized u1 [2, 2, 3, 3]
0	0x60	96
1	0x63	99
2	0x3e	62
3	0x83	131
4	0x86	134
5	0x6b	107
6	0xa0	160
7	0x57	87
8	0x72	114
9	0x6c	108
10	0x9e	158
11	0x3c	60
12	0x5e	94
13	0x45	69
14	0xd0	208
15	0x5c	92
16	0xc4	196
17	0xb3	179
18	0x52	82
19	0x75	117
20	0x3f	63
21	0x73	115
22	0xab	171
23	0xff	255
24	0x62	98
25	0x74	116
26	0xe8	232
27	0xbf	191
28	0xaa	170
29	0x7d	125
30	0xf3	243
31	0x00	0
32	0xfe	254
33	0xb0	176
34	0x3c	60
35	0x45	69

onnx::Conv_92_quantized u1 [2, 2, 3, 3]
0	0x1b	27
1	0x00	0
2	0x02	2
3	0x97	151
4	0x7a	122
5	0x8b	139
6	0x63	99
7	0x86	134
8	0xf2	242
9	0x58	88
10	0xf9	249
11	0xff	255
12	0xd5	213
13	0xe5	229
14	0x87	135
15	0x72	114
16	0x98	152
17	0x64	100
18	0x1b	27
19	0x6a	106
20	0xc1	193
21	0x59	89
22	0x9d	157
23	0x52	82
24	0x19	25
25	0xd4	212
26	0xa3	163
27	0x2a	42
28	0xe3	227
29	0x79	121
30	0x50	80
31	0x7c	124
32	0xee	238
33	0x0a	10
34	0xad	173
35	0xfa	250

onnx::Conv_95_quantized u1 [2, 2, 3, 3]
0	0x59	89
1	0xb5	181
2	0x9c	156
3	0x66	102
4	0xb5	181
5	0x66	102
6	0x5d	93
7	0x34	52
8	0x00	0
9	0xdc	220
10	0x8f	143
11	0x84	132
12	0x77	119
13	0xd0	208
14	0x57	87
15	0x8d	141
16	0x6e	110
17	0x40	64
18	0x92	146
19	0xff	255
20	0x8c	140
21	0x7e	126
22	0x71	113
23	0x55	85
24	0x99	153
25	0xc7	199
26	0x09	9
27	0x96	150
28	0x63	99
29	0x8c	140
30	0xae	174
31	0xe4	228
32	0x57	87
33	0x61	97
34	0xa7	167
35	0xc3	195

onnx::Conv_98_quantized u1 [6, 2, 3, 3]
0	0x6d	109
1	0x38	56
2	0x6d	109
3	0x83	131
4	0x2f	47
5	0xc6	198
6	0x9c	156
7	0xc3	195
8	0x93	147
9	0xe5	229
10	0x90	144
11	0x93	147
12	0x9c	156
13	0x4b	75
14	0x70	112
15	0x64	100
16	0x66	102
17	0x63	99
18	0x63	99
19	0xdf	223
20	0x67	103
21	0xd4	212
22	0x52	82
23	0x74	116
24	0xb9	185
25	0x75	117
26	0x43	67
27	0x60	96
28	0x99	153
29	0x62	98
30	0x62	98
31	0x7d	125
32	0x96	150
33	0x68	104
34	0x79	121
35	0xd8	216
36	0x23	35
37	0xb3	179
38	0xbe	190
39	0xd8	216
40	0x0f	15
41	0x79	121
42	0x89	137
43	0x7b	123
44	0xaf	175
45	0xd8	216
46	0x5e	94
47	0x45	69
48	0x5d	93
49	0xcf	207
50	0x77	119
51	0x7a	122
52	0x55	85
53	0x9a	154
54	0x75	117
55	0xc6	198
56	0xc0	192
57	0xdb	219
58	0x00	0
59	0xa4	164
60	0xa6	166
61	0x65	101
62	0xa6	166
63	0x70	112
64	0x64	100
65	0x77	119
66	0x9b	155
67	0x7d	125
68	0x43	67
69	0x6e	110
70	0x90	144
71	0xae	174
72	0x4f	79
73	0x88	136
74	0x61	97
75	0xd7	215
76	0x84	132
77	0x61	97
78	0x1d	29
79	0xff	255
80	0x75	117
81	0x5e	94
82	0xbb	187
83	0x88	136
84	0xd5	213
85	0x2f	47
86	0x40	64
87	0x71	113
88	0x4d	77
89	0xbf	191
90	0x42	66
91	0xe1	225
92	0x57	87
93	0x42	66
94	0x8d	141
95	0x62	98
96	0xe7	231
97	0x5a	90
98	0x69	105
99	0x7b	123
100	0x69	105
101	0xa6	166
102	0xcd	205
103	0x66	102
104	0xab	171
105	0x4f	79
106	0x86	134
107	0x83	131

policyHead.4.weight_quantized u1 [486, 81]
0	0xb8	184
1	0x4f	79
2	0x41	65
3	0x6e	110
4	0x7a	122
5	0x7e	126
6	0x81	129
7	0x68	104
8	0x66	102
9	0xc8	200
10	0x1f	31
11	0x6f	111
12	0x80	128
13	0x72	114
14	0x7e	126
15	0x7e	126
16	0x76	118
17	0x64	100
18	0x66	102
19	0x4e	78
20	0x61	97
21	0x7c	124
22	0x71	113
23	0x7b	123
24	0x86	134
25	0x75	117
26	0x67	103
27	0x8f	143
28	0x81	129
29	0x85	133
30	0x83	131
31	0x63	99
32	0x72	114
33	0x7b	123
34	0x84	132
35	0x77	119
36	0x73	115
37	0x6c	108
38	0x77	119
39	0x8b	139
40	0x72	114
41	0x74	116
42	0x66	102
43	0x7c	124
44	0x7f	127
45	0x64	100
46	0x63	99
47	0x5d	93
48	0x86	134
49	0x88	136
50	0x77	119
51	0x6f	111
52	0x77	119
53	0x6b	107
54	0x7b	123
55	0x90	144
56	0x6f	111
57	0x85	133
58	0x6c	108
59	0x83	131
60	0x80	128
61	0x75	117
62	0x86	134
63	0x7a	122
64	0x64	100
65	0x73	115
66	0x71	113
67	0x6e	110
68	0x77	119
69	0x6e	110
70	0x7f	127
71	0x7a	122
72	0x6c	108
73	0x6e	110
74	0x6e	110
75	0x65	101
76	0x75	117
77	0x6a	106
78	0x6c	108
79	0x61	97
80	0x66	102
81	0x3d	61
82	0x93	147
83	0x5e	94
84	0x60	96
85	0x85	133
86	0x78	120
87	0x7c	124
88	0x77	119
89	0x7c	124
90	0x74	116
91	0x89	137
92	0x2c	44
93	0x54	84
94	0x74	116
95	0x61	97
96	0x7e	126
97	0x89	137
98	0x7a	122
99	0x27	39
100	0x46	70
101	0x45	69
102	0x79	121
103	0x97	151
104	0x68	104
105	0x7e	126
106	0x6d	109
107	0x81	129
108	0x6f	111
109	0x7f	127
110	0x76	118
111	0x83	131
112	0x80	128
113	0x6f	111
114	0x61	97
115	0x7a	122
116	0x8c	140
117	0x67	103
118	0x82	130
119	0x82	130
120	0x75	117
121	0x7c	124
122	0x7d	125
123	0x76	118
124	0x77	119
125	0x80	128
126	0x6f	111
127	0x8f	143
128	0x7f	127
129	0x8f	143
130	0x77	119
131	0x83	131
132	0x75	117
133	0x7c	124
134	0x7c	124
135	0x7f	127
136	0x90	144
137	0x70	112
138	0x81	129
139	0x69	105
140	0x70	112
141	0x87	135
142	0x72	114
143	0x71	113
144	0x75	117
145	0x72	114
146	0x6c	108
147	0x70	112
148	0x7b	123
149	0x73	115
150	0x7c	124
151	0x7e	126
152	0x7b	123
153	0x66	102
154	0x74	116
155	0x6e	110
156	0x7d	125
157	0x77	119
158	0x7c	124
159	0x73	115
160	0x7d	125
161	0x7a	122
162	0x55	85
163	0x3c	60
164	0x92	146
165	0x44	68
166	0x65	101
167	0x69	105
168	0x72	114
169	0x79	121
170	0x7b	123
171	0xa5	165
172	0x93	147
173	0x88	136
174	0x22	34
175	0x79	121
176	0x61	97
177	0x5c	92
178	0x72	114
179	0x88	136
180	0x65	101
181	0x53	83
182	0x5f	95
183	0x58	88
184	0x83	131
185	0x79	121
186	0x5d	93
187	0x7c	124
188	0x85	133
189	0x78	120
190	0x74	116
191	0x93	147
192	0x72	114
193	0x85	133
194	0x8f	143
195	0x72	114
196	0x76	118
197	0x85	133
198	0x81	129
199	0x6a	106
200	0x73	115
201	0x7f	127
202	0x6e	110
203	0x7d	125
204	0x6f	111
205	0x6d	109
206	0x82	130
207	0x7b	123
208	0x76	118
209	0x7f	127
210	0x8a	138
211	0x6d	109
212	0x80	128
213	0x80	128
214	0x79	121
215	0x80	128
216	0x73	115
217	0x85	133
218	0x6a	106
219	0x7e	126
220	0x6b	107
221	0x6f	111
222	0x69	105
223	0x6e	110
224	0x88	136
225	0x71	113
226	0x71	113
227	0x70	112
228	0x6a	106
229	0x6c	108
230	0x6c	108
231	0x6f	111
232	0x88	136
233	0x7c	124
234	0x70	112
235	0x73	115
236	0x74	116
237	0x6a	106
238	0x79	121
239	0x7a	122
240	0x75	117
241	0x74	116
242	0x6c	108
243	0x6d	109
244	0x64	100
245	0x50	80
246	0x8d	141
247	0x65	101
248	0x57	87
249	0x77	119
250	0x70	112
251	0x90	144
252	0x7e	126
253	0xae	174
254	0x92	146
255	0xb7	183

onnx::Conv_101_quantized u1 [3, 2, 3, 3]
0	0x9d	157
1	0x30	48
2	0xdc	220
3	0x79	121
4	0xe4	228
5	0xff	255
6	0x4d	77
7	0x62	98
8	0xbd	189
9	0x4a	74
10	0x64	100
11	0xa0	160
12	0xd4	212
13	0x97	151
14	0xd2	210
15	0x00	0
16	0x3e	62
17	0xcb	203
18	0xa6	166
19	0x99	153
20	0x77	119
21	0xe2	226
22	0xfe	254
23	0x98	152
24	0xba	186
25	0xfd	253
26	0xeb	235
27	0xdf	223
28	0x57	87
29	0xca	202
30	0xa3	163
31	0xb3	179
32	0x81	129
33	0xc3	195
34	0x75	117
35	0xab	171
36	0x58	88
37	0x52	82
38	0x3e	62
39	0x84	132
40	0x2a	42
41	0x64	100
42	0xbd	189
43	0x96	150
44	0xc3	195
45	0x71	113
46	0x48	72
47	0xa2	162
48	0xdb	219
49	0xc5	197
50	0xd8	216
51	0x7b	123
52	0xda	218
53	0x58	88

valueHead.4.weight_quantized u1 [243, 1]
0	0x97	151
1	0x60	96
2	0x7b	123
3	0xc5	197
4	0x99	153
5	0x52	82
6	0x58	88
7	0x85	133
8	0x55	85
9	0x77	119
10	0x8f	143
11	0xb4	180
12	0xb2	178
13	0xc1	193
14	0x7b	123
15	0xa2	162
16	0x38	56
17	0x89	137
18	0x5a	90
19	0x62	98
20	0x63	99
21	0x38	56
22	0x7d	125
23	0x55	85
24	0x5d	93
25	0x95	149
26	0x81	129
27	0x9a	154
28	0xc9	201
29	0x7b	123
30	0xb4	180
31	0x53	83
32	0x61	97
33	0x72	114
34	0x6f	111
35	0x83	131
36	0x52	82
37	0x54	84
38	0xc1	193
39	0xf9	249
40	0x72	114
41	0x45	69
42	0x98	152
43	0x1c	28
44	0x6d	109
45	0x86	134
46	0x68	104
47	0x88	136
48	0x80	128
49	0x9c	156
50	0x3c	60
51	0xb8	184
52	0x7b	123
53	0x68	104
54	0x3c	60
55	0xa0	160
56	0x70	112
57	0xa8	168
58	0x4e	78
59	0x6f	111
60	0x6a	106
61	0x58	88
62	0x8f	143
63	0x61	97
64	0x78	120
65	0x5f	95
66	0x8f	143
67	0x83	131
68	0x42	66
69	0x5a	90
70	0x6b	107
71	0x6c	108
72	0x67	103
73	0xa7	167
74	0xb0	176
75	0x91	145
76	0xda	218
77	0x7f	127
78	0x44	68
79	0x4f	79
80	0x20	32
81	0x20	32
82	0x75	117
83	0x21	33
84	0x3a	58
85	0x37	55
86	0x58	88
87	0x95	149
88	0x7b	123
89	0x2a	42
90	0x86	134
91	0x5b	91
92	0xa5	165
93	0x57	87
94	0x66	102
95	0x60	96
96	0x88	136
97	0x6f	111
98	0x1e	30
99	0x9e	158
100	0x74	116
101	0x48	72
102	0x59	89
103	0x4f	79
104	0x67	103
105	0x54	84
106	0x61	97
107	0xab	171
108	0xc1	193
109	0xc2	194
110	0x4e	78
111	0x50	80
112	0x60	96
113	0x6a	106
114	0x27	39
115	0x5a	90
116	0x56	86
117	0x88	136
118	0x86	134
119	0x1c	28
120	0x2e	46
121	0x5d	93
122	0x76	118
123	0x52	82
124	0x6c	108
125	0x4f	79
126	0x89	137
127	0xac	172
128	0x50	80
129	0x2e	46
130	0x30	48
131	0x73	115
132	0x6f	111
133	0x8a	138
134	0x80	128
135	0xa8	168
136	0x75	117
137	0x47	71
138	0x89	137
139	0x80	128
140	0x6f	111
141	0x76	118
142	0x32	50
143	0xff	255
144	0x57	87
145	0x44	68
146	0x09	9
147	0x56	86
148	0x50	80
149	0x72	114
150	0x29	41
151	0x40	64
152	0x04	4
153	0x8f	143
154	0x5a	90
155	0x52	82
156	0x95	149
157	0x82	130
158	0x69	105
159	0xb6	182
160	0x98	152
161	0x98	152
162	0x4a	74
163	0x78	120
164	0x8a	138
165	0x9b	155
166	0x72	114
167	0x59	89
168	0x5b	91
169	0x5d	93
170	0x9f	159
171	0x59	89
172	0x73	115
173	0x8d	141
174	0x7b	123
175	0x71	113
176	0x5b	91
177	0x63	99
178	0x44	68
179	0xae	174
180	0x77	119
181	0x8d	141
182	0x9b	155
183	0x82	130
184	0x93	147
185	0x30	48
186	0x78	120
187	0x72	114
188	0x30	48
189	0x4d	77
190	0x91	145
191	0x6f	111
192	0x6a	106
193	0x7b	123
194	0x71	113
195	0x7d	125
196	0x61	97
197	0x4b	75
198	0x36	54
199	0x55	85
200	0x54	84
201	0x31	49
202	0x56	86
203	0x4d	77
204	0x45	69
205	0x70	112
206	0xa3	163
207	0x22	34
208	0x43	67
209	0x6a	106
210	0x2d	45
211	0x51	81
212	0x80	128
213	0x5c	92
214	0x4a	74
215	0xb2	178
216	0x28	40
217	0x48	72
218	0x7e	126
219	0xa6	166
220	0x78	120
221	0x62	98
222	0x62	98
223	0x4a	74
224	0x31	49
225	0x5b	91
226	0x71	113
227	0x70	112
228	0xae	174
229	0x66	102
230	0x77	119
231	0x7a	122
232	0xb4	180
233	0x6f	111
234	0xe5	229
235	0x7d	125
236	0x39	57
237	0x4c	76
238	0x66	102
239	0x5f	95
240	0x00	0
241	0x4d	77
242	0xa6	166
