src/interface/game/static/models/vivalavida9x9/quantized_model.pth (torch, 224339 bytes, 43 tensors)

startBlock.0.weight f4 [32, 4, 3, 3]
0	0xbe1b4f73	-0.15167026
1	0x3dbd607c	0.092469186
2	0x3e1c4b51	0.15263106
3	0xbd3c2770	-0.045936048
4	0xbdc32bfc	-0.09529874
5	0x3e109e95	0.14122994
6	0xbd774100	-0.060364723
7	0xbde5e1ac	-0.11224684
8	0x3db40eb1	0.08791865
9	0x3e60ffc4	0.21972567
10	0x3dac9345	0.08426527
11	0x3e420853	0.18948488
12	0x3c049a1b	0.008093382
13	0x3c5a6a03	0.013330939
14	0xbd13f9ab	-0.036126774
15	0x3cda8c0a	0.026678104
16	0xbcbc4bca	-0.022985358
17	0x3cca1298	0.02466707
18	0x3d36e440	0.04465127
19	0x3e59a8a4	0.21255738
20	0x3e7331a9	0.23749413
21	0x3dd8197e	0.10551737
22	0xbe21878f	-0.15774368
23	0xbda79175	-0.081820406
24	0x3dc35310	0.09537327
25	0x3c98f959	0.018673586
26	0x3d296350	0.041354477
27	0xbdd35f3b	-0.10320898
28	0x3e51759a	0.20455018
29	0xbd3f8b98	-0.046763986
30	0xbe8af3ad	-0.27139035
31	0xbe99cf2f	-0.3004088
32	0xbd8b68d4	-0.06807104
33	0xbe822384	-0.2541772
34	0x3c80c194	0.015717305
35	0xbd59e80a	-0.053199805
36	0x3d89eafc	0.06734273
37	0xbbf9287f	-0.0076037045
38	0x3c12c708	0.008958586
39	0x3ca93a86	0.020657789
40	0x3c191f4c	0.009345841
41	0x3cf2f768	0.029658988
42	0x3d2d075b	0.042243343
43	0x3ce95cfc	0.028486721
44	0x3cd7279c	0.026264004
45	0xbdad46e9	-0.08460791
46	0x3d5bddf3	0.053678464
47	0xbd1c5cc4	-0.038174406
48	0xbcbab9be	-0.022793647
49	0x3b869216	0.0041067703
50	0xbd2b1a32	-0.04177303
51	0xbd4a21f4	-0.049348786
52	0x3cddb16e	0.027062144
53	0x3bfdcc52	0.007745304
54	0xbccd207c	-0.025039904
55	0xbd4a9159	-0.04945502
56	0x3b15e81c	0.0022873944
57	0xbd7b5647	-0.061361577
58	0xbeaa1bb3	-0.33224258
59	0xbd9e94cf	-0.07743227
60	0xbd12f7d5	-0.035880882
61	0xbcca907b	-0.024727097
62	0x3d81d792	0.06339945
63	0xbe00ad25	-0.1256605
64	0x3e301c02	0.17198184
65	0x3d2ef3e2	0.042713054
66	0x3eb38b92	0.3506742
67	0xbeb112c0	-0.34584618
68	0x3e58018d	0.21094342
69	0xbe3f237d	-0.18665881
70	0x3ec137fe	0.3773803
71	0xbe59e5f8	-0.21279132
72	0x3c18e113	0.009331006
73	0xbd847a6f	-0.06468665
74	0xbd377dae	-0.044797592
75	0x3c850b60	0.016240776
76	0xbc4c0956	-0.012453398
77	0xbd85ad8a	-0.065272406
78	0x3d7e30bf	0.062058207
79	0x3d6b76fa	0.05748651
80	0xbcb575c0	-0.022150874
81	0x3e2d7052	0.16937378
82	0xbdae2071	-0.085022815
83	0xbca53a6a	-0.020169456
84	0xbe09a6e7	-0.13442574
85	0x3e4140c3	0.18872361
86	0x3e200972	0.15628603
87	0xbdf1ab56	-0.11800258
88	0x3dd0edfa	0.102016404
89	0xbdbb38e7	-0.09141713
90	0xbe63fe1e	-0.22264907
91	0x3d48cc0f	0.04902273
92	0x3de08da4	0.10964516
93	0xbe9f7b4b	-0.31148753
94	0xbe4ce0c9	-0.20007624
95	0xbd8ee89f	-0.06977963
96	0xbd08e4f8	-0.033421487
97	0x3d0edde0	0.034879565
98	0xbd8ac076	-0.0677499
99	0x3d1d3bb2	0.038387008
100	0xbd40d356	-0.047076546
101	0xbde7ad71	-0.11312378
102	0xbc8a6809	-0.016895311
103	0x3c882e26	0.016623568
104	0x3e7e65df	0.24843548
105	0x3e898179	0.26856592
106	0xbcfd7e40	-0.03094399
107	0x3dfb785e	0.122788176
108	0x3d56f500	0.052479744
109	0xb99cf643	-0.00029938118
110	0x3e3fa240	0.18714237
111	0x3d6cdcda	0.057827808
112	0x3e12a701	0.1432152
113	0x3e323d0e	0.17406103
114	0x3d8b394d	0.06798039
115	0x3d9c374c	0.076277345
116	0x3df7ac5d	0.120934226
117	0x3d83373a	0.06407018
118	0xbd38369b	-0.04497395
119	0xbe8954c5	-0.26822487
120	0xbd86dafe	-0.06584738
121	0xbdbdd6d8	-0.09269494
122	0xbe951adc	-0.29122055
123	0xbca799cd	-0.02045908
124	0xbe01854e	-0.12648508
125	0xbeb3e04b	-0.3513206
126	0x3d43e816	0.047828756
127	0x3e294128	0.16528761
128	0xbe53c28f	-0.20679687
129	0xbdf603c9	-0.12012441
130	0x3e04abeb	0.12956207
131	0x3d985150	0.07437384
132	0x3d47f2e0	0.048815608
133	0xbe5646b9	-0.20925416
134	0x3dbd271e	0.09235977
135	0xbcf9341b	-0.030420354
136	0xbce0b849	-0.027431624
137	0x3d95dbc3	0.07317307
138	0xbc95c805	-0.018283853
139	0x3d70320d	0.058641482
140	0x3de394b4	0.11112347
141	0x3e18f63f	0.14937685
142	0x3d203c7c	0.039120182
143	0x3e5844fa	0.21120062
144	0xbe12ad60	-0.1432395
145	0x3cd4e9c4	0.025990374
146	0xbe294829	-0.16531433
147	0xbcda6ee7	-0.02666421
148	0xbc6baf75	-0.014385094
149	0xbccd4665	-0.02505798
150	0x3ca2e053	0.019882357
151	0xbdbeadc4	-0.09310487
152	0x3cc075ea	0.023493726
153	0x3e496f1b	0.1967129
154	0x3de8a8c9	0.11360318
155	0xbdf4b06c	-0.11947712
156	0xbc59e895	-0.013300081
157	0x3e7cc7ce	0.24685594
158	0x3e061ec5	0.13097675
159	0xbd0f6b8d	-0.035014678
160	0x3e0c7d86	0.13719758
161	0x3e0c1557	0.13680016
162	0x3d9d8086	0.076905295
163	0x3ce045ef	0.027377097
164	0xbd107dfc	-0.035276398
165	0xbd20bb14	-0.03924091
166	0x3e90703a	0.28210622
167	0x3e1a0a8c	0.15043086
168	0x3d5f9b38	0.054591388
169	0x3cb7caaf	0.022435514
170	0xbdd414cb	-0.103555284
171	0x3ca9054f	0.020632414
172	0xbe11a9cf	-0.14224933
173	0xbdeb4ebc	-0.11489627
174	0xbdf527a8	-0.119704545
175	0xbea2d750	-0.31804895
176	0xbe5d8231	-0.21631695
177	0xbe09700c	-0.13421649
178	0x3db86d73	0.09005251
179	0xbe808bf5	-0.2510678
180	0xbc7c2456	-0.015389523
181	0xbced3c28	-0.028959349
182	0xbd409077	-0.047012772
183	0xbcdc1fc7	-0.026870621
184	0x3d815d29	0.06316597
185	0xbda624b4	-0.08112469
186	0x3c65209a	0.013984824
187	0xbd822a3f	-0.06355714
188	0x3cc69242	0.024239663
189	0xbd614878	-0.055000752
190	0x3d44b0b6	0.048020087
191	0xbcfb84a9	-0.030702906
192	0xbd0f4624	-0.034979
193	0xbdc89c4d	-0.09795437
194	0x3e4efec2	0.2021437
195	0x3e5b3a4f	0.21408962
196	0xbcf7839f	-0.030214129
197	0xbd8ddc04	-0.0692673
198	0x3dd7ddd1	0.10540355
199	0x3dfb2c0c	0.12264261
200	0xbcee8dec	-0.029120408
201	0xbc28e16a	-0.010307649
202	0xbed976ce	-0.42473453
203	0xbce1118d	-0.02747419
204	0x3cb10db3	0.021612978
205	0xbc34a481	-0.011025549
206	0xbe0bde5f	-0.13659047
207	0xbe0bc0dd	-0.1364779
208	0x3dcd7c12	0.1003343
209	0xbe946f90	-0.28991365
210	0x3e169992	0.1470702
211	0xbe13cb5c	-0.14433044
212	0x3ede5c42	0.43429762
213	0xbd2f4eda	-0.042799808
214	0x3e0315cc	0.12801284
215	0x3b809ee4	0.0039251912
216	0x3b080e79	0.002076058
217	0x3e23bcdf	0.15990017
218	0x3de452be	0.11148594
219	0xbd1c5787	-0.03816941
220	0x3d26c2c2	0.04071308
221	0xbe028c8b	-0.12748925
222	0xbd822ced	-0.06356225
223	0xbd19d18c	-0.037553355
224	0x3d3325d2	0.04373724
225	0xbdbe967d	-0.09306047
226	0xbd335be9	-0.043788824
227	0x3d42b10b	0.047532123
228	0x3e578734	0.2104767
229	0xbe74a293	-0.23890142
230	0x3d758bcd	0.059947778
231	0xbc9cdc5c	-0.019148044
232	0x3e4082cc	0.18799895
233	0xbe177a3c	-0.14792722
234	0xbd339202	-0.043840416
235	0x3d5321a9	0.051545773
236	0x3e6bb36a	0.2301766
237	0xbcdf8d7a	-0.027289141
238	0x3df4998c	0.11943349
239	0x3da65eb3	0.08123531
240	0xbc8389b0	-0.016056865
241	0xbe8a898e	-0.2705807
242	0x3d1609bb	0.036630373
243	0x3dfff484	0.124978095
244	0x3dc6ed46	0.09713225
245	0xbe8920ce	-0.2678284
246	0xbe13b746	-0.14425382
247	0x3e3fa8be	0.18716714
248	0xbe3734d4	-0.17891246
249	0x3cb960f4	0.022629239
250	0x3bb921ab	0.0056497655
251	0x3e96dac7	0.2946379
252	0xbcadb005	-0.021202097
253	0xbda4236c	-0.08014569
254	0xbd8a2560	-0.0674541
255	0xbdadda58	-0.084889114

startBlock.0.bias f4 [32]
0	0x397d32ea	0.00024146927
1	0xb8d399eb	-0.000100899335
2	0x3953dd6c	0.00020205014
3	0xb8c56e19	-9.414199e-05
4	0xba770e21	-0.00094244076
5	0x377000f3	1.4305336e-05
6	0x391a1cb2	0.00014697274
7	0xb8e5584b	-0.00010936017
8	0x380f6356	3.418637e-05
9	0xb782fed7	-1.5615877e-05
10	0x392793c0	0.00015981402
11	0x3834f3c2	4.314236e-05
12	0xb527db3a	-6.2531365e-07
13	0xb80e1189	-3.387177e-05
14	0x3684e555	3.9606043e-06
15	0xb85d3456	-5.2739248e-05
16	0x389046e2	6.879658e-05
17	0xb724bcd7	-9.819129e-06
18	0xb8e3ef76	-0.000108688066
19	0x3972ee50	0.00023167697
20	0xb9bc69b1	-0.000359369
21	0x387dab5d	6.0479495e-05
22	0xb8dbd305	-0.00010482039
23	0xb8bb0a21	-8.9187415e-05
24	0x379a6c94	1.8408791e-05
25	0xb73b1595	-1.11510935e-05
26	0xb8200c44	-3.8158396e-05
27	0xb7e03b9e	-2.6730642e-05
28	0xb8af6162	-8.362789e-05
29	0xb7b1e8fc	-2.1208536e-05
30	0xb95250fa	-0.00020057327
31	0x396d616e	0.00022638377

startBlock.1.weight f4 [32]
0	0x3f4601f4	0.7734673
1	0x3f98fee3	1.1952785
2	0x3f5a902a	0.85376227
3	0x3f6fbebb	0.93650407
4	0x3f88170a	1.0632031
5	0x3f88dd48	1.069253
6	0x3f6cd0ca	0.92506087
7	0x3f73df9a	0.95263064
8	0x3f80105d	1.0004994
9	0x3f6b0d08	0.9181676
10	0x3f827181	1.0190889
11	0x3f476f53	0.7790424
12	0x3f712fa1	0.942133
13	0x3f56ec7e	0.8395461
14	0x3f7ee101	0.9956208
15	0x3f556c5b	0.8336846
16	0x3f5f85ee	0.87313735
17	0x3f6fd7b3	0.93688506
18	0x3f65e121	0.89796644
19	0x3f840631	1.031439
20	0x3f96b328	1.1773424
21	0x3f7f38e8	0.9969621
22	0x3f811539	1.0084602
23	0x3f80300c	1.0014663
24	0x3f55a339	0.83452183
25	0x3f630ba9	0.88689667
26	0x3f6eff9a	0.9335877
27	0x3f71925f	0.9436397
28	0x3f7ff53b	0.99983567
29	0x3f729a8d	0.94767076
30	0x3f8317f4	1.0241685
31	0x3f6c40a7	0.9228615

startBlock.1.bias f4 [32]
0	0xbc1ccd94	-0.009570498
1	0x3e03dbbe	0.12876794
2	0xbc669c7f	-0.0140753975
3	0x3d884194	0.06653133
4	0x3e10fabe	0.1415815
5	0x3e1414e6	0.14461097
6	0xbd4cf4c5	-0.050038118
7	0xbbd1c9c5	-0.0064022266
8	0x3d5f5324	0.05452265
9	0xbc81b0ef	-0.015831439
10	0x3e0a754f	0.13521312
11	0xbdb3d04f	-0.08779966
12	0xbcd6f5a6	-0.026240181
13	0xbe041ae2	-0.1290088
14	0x3cce20a8	0.025162056
15	0x3d236e8f	0.03990036
16	0xbe388946	-0.18021116
17	0x3cf4c102	0.02987719
18	0xbbc9112b	-0.00613608
19	0x3da06c4f	0.07833158
20	0x3e2cc7cb	0.1687309
21	0x3d77b3b3	0.06047411
22	0xbd13c054	-0.03607209
23	0xbd869a94	-0.06572452
24	0xbcfb8746	-0.030704152
25	0x3d0a8b57	0.03382429
26	0x3da8acb9	0.08236069
27	0xbc8c88eb	-0.017155131
28	0x3e2dc05b	0.16967909
29	0xbc856b11	-0.016286405
30	0x3e4fffa2	0.2031236
31	0x3dec1ae3	0.11528566

startBlock.1.running_mean f4 [32]
0	0x3d3dae0a	0.046308555
1	0xbd3a17d9	-0.0454329
2	0xbd8f5af3	-0.06999769
3	0x3dcbcda9	0.09951336
4	0xbccc9c82	-0.024976972
5	0xbd72e621	-0.0593015
6	0x3d4a4006	0.049377464
7	0xbda3a0a2	-0.07989623
8	0xbde8acef	-0.113611095
9	0xbd9cb1af	-0.07651078
10	0xbe8bd9b6	-0.27314538
11	0x3d03c34f	0.032168683
12	0xbc3601b4	-0.0111088045
13	0x3da75cf2	0.08172025
14	0xbd8e149f	-0.06937527
15	0x3e19d5f2	0.1502302
16	0xbde7ba16	-0.1131479
17	0xbc912613	-0.01771835
18	0x3c232b90	0.009959117
19	0xbd7f57ce	-0.062339596
20	0xbc5e8342	-0.013581099
21	0xbdc637ed	-0.09678636
22	0x3ce03297	0.027367873
23	0x3b317e55	0.0027083356
24	0xbc60850d	-0.013703597
25	0xbe1c3a9d	-0.15256734
26	0x3c3e20fb	0.011604543
27	0xbe66d306	-0.22541437
28	0xbdd62aea	-0.10457404
29	0xbddada3e	-0.10686158
30	0x3d20cad3	0.03925593
31	0xbc818c4b	-0.015813967

startBlock.1.running_var f4 [32]
0	0x3d8ddabc	0.06926486
1	0x3cbf0b24	0.023320742
2	0x3d17db2f	0.037074264
3	0x3d2c53d3	0.04207213
4	0x3d0c2759	0.034217212
5	0x3cf24207	0.0295725
6	0x3d00ca67	0.031443026
7	0x3d37f825	0.044914383
8	0x3d6e2ab4	0.058146194
9	0x3d344c57	0.044018116
10	0x3e06c16a	0.13159719
11	0x3d0cfd34	0.03442116
12	0x3d4c3f2b	0.04986493
13	0x3d99fb16	0.07518594
14	0x3d1d3809	0.038383517
15	0x3dad4b92	0.084616795
16	0x3d69d2ad	0.05708568
17	0x3d69b70b	0.05705933
18	0x3d4d3692	0.05010087
19	0x3ce98480	0.028505564
20	0x3d0d28b9	0.034462664
21	0x3d530804	0.051521316
22	0x3d0ca4ff	0.03433704
23	0x3cccd772	0.025005076
24	0x3d08e751	0.033423726
25	0x3da7d8d3	0.08195653
26	0x3d0fd02a	0.03511063
27	0x3df53d2d	0.11974559
28	0x3d4fc6af	0.05072659
29	0x3d63ee0a	0.055646934
30	0x3d16fa8c	0.036860034
31	0x3d3b5bd3	0.045741867

backBone.0.conv1.weight f4 [32, 32, 3, 3]
0	0xbd70cc4f	-0.058788594
1	0x3d3d5130	0.046220005
2	0xbd007658	-0.03136286
3	0x3a2593d2	0.00063162774
4	0xbd2fa0f7	-0.042878117
5	0xbdf60e19	-0.12014408
6	0x3dc3022f	0.09521901
7	0x3d2e0b51	0.04249126
8	0xbc162ffd	-0.009166715
9	0xbdf8ae55	-0.12142626
10	0x3d8efb56	0.06981532
11	0x3d06e95e	0.0329374
12	0xbde6d194	-0.112704426
13	0xbc7c1385	-0.015385513
14	0xbdfe906d	-0.12429891
15	0xbd1dd43f	-0.03853249
16	0x3dfbb5a0	0.122905016
17	0xbd9d9263	-0.07693937
18	0x3c334c45	0.010943477
19	0xbdb122b5	-0.08649198
20	0x3ccb5a1d	0.024823243
21	0x3d343f99	0.044005964
22	0xbd7edb00	-0.062220573
23	0xbd684c23	-0.056713235
24	0xbcaba8ee	-0.020954575
25	0xbdaece17	-0.08535402
26	0x3d6df0c7	0.05809095
27	0xbbea08c5	-0.0071421587
28	0xbdd104cf	-0.10205995
29	0x3c00068f	0.007814064
30	0x3d815a7a	0.06316085
31	0xbd83e8fc	-0.064409226
32	0xbca9ece8	-0.020742849
33	0xbc11582e	-0.008871121
34	0xbe0328df	-0.1280856
35	0x3d25b57e	0.040456288
36	0xbcbc2e3e	-0.022971269
37	0xbbdb936a	-0.0067009227
38	0x3d80a0a9	0.062806435
39	0xbcc530e3	-0.024071163
40	0x3c7d026e	0.015442474
41	0x3e206cb9	0.15666474
42	0x3e523161	0.20526649
43	0x3d1d6c85	0.03843357
44	0xbe19151e	-0.14949462
45	0x3d2a3bb6	0.04156085
46	0x3b1dff37	0.0024108419
47	0x3e089eca	0.13341823
48	0xbe1878c9	-0.14889826
49	0x3df89ed8	0.12139672
50	0xbd882783	-0.06648161
51	0xbce49b0c	-0.027905963
52	0x3d0c65f3	0.034276914
53	0x3dbc542a	0.091957405
54	0x3e65150f	0.22371314
55	0x3d34f56e	0.044179372
56	0xbd7d197a	-0.061791874
57	0xbd3fb8c2	-0.04680706
58	0x3e27c7a6	0.16384754
59	0xbdfdc016	-0.12390153
60	0x3e0a86fb	0.13528053
61	0x3ce30fbd	0.027717466
62	0x38990b51	7.2977164e-05
63	0x3bd1f4f4	0.0064073745
64	0xbdcf29a3	-0.101153634
65	0xbda62870	-0.081131816
66	0xbda46cc1	-0.08028556
67	0xbe0da6ad	-0.13833113
68	0xbd4ad69f	-0.049521085
69	0xbdad860a	-0.084728315
70	0x3d60f001	0.054916386
71	0xbd9631cd	-0.073337175
72	0x3d626248	0.05526951
73	0x3dd76b96	0.10518567
74	0x3dbe9135	0.0930504
75	0xbba62acc	-0.0050710198
76	0xbd68e298	-0.05685672
77	0x3e271b93	0.16319112
78	0x3dfd02f2	0.123540774
79	0xbd1fb0b0	-0.03898686
80	0xbb3c830f	-0.002876464
81	0x3d807101	0.06271554
82	0xbca7e69a	-0.020495702
83	0x3db4fb95	0.08837048
84	0x39eb6ff6	0.0004490611
85	0x3dc5fe74	0.09667674
86	0x3d02d926	0.03194537
87	0x3d52f3a9	0.051501904
88	0x3ddea9d8	0.10872239
89	0x3ddb944e	0.10721646
90	0x3d94693c	0.07246634
91	0xbd68f14b	-0.05687074
92	0x3d617019	0.055038545
93	0x3d321dac	0.04348533
94	0xbd54465d	-0.051824916
95	0x3cb78ff3	0.022407508
96	0xbcdbc880	-0.026829004
97	0x3d3836a3	0.04497398
98	0x3e01d92e	0.12680504
99	0xbdf4051c	-0.11915037
100	0x3d863252	0.065525666
101	0xbca7c690	-0.020480424
102	0xbd4cee83	-0.05003215
103	0x3d8f46cb	0.069959246
104	0xbdde30c6	-0.108491465
105	0x3dbb612d	0.09149394
106	0xbc1a0a69	-0.009401896
107	0xbda19c4d	-0.0789114
108	0xbda59391	-0.08084787
109	0xbd0416d1	-0.032248322
110	0xbdf7b38a	-0.12094791
111	0xbde5bc28	-0.112175286
112	0x3d35b714	0.04436405
113	0x3cb23c32	0.021757219
114	0x3d975294	0.073887974
115	0x3ddf552b	0.109049164
116	0xbdb1f8b9	-0.08690018
117	0x3d71ff33	0.059081268
118	0xbded628d	-0.11591063
119	0xbd20f582	-0.039296634
120	0xbd52dc69	-0.05147973
121	0xbdfffc53	-0.12499299
122	0xbdb5049d	-0.088387705
123	0xbb8a2268	-0.0042155273
124	0xbe02bc00	-0.12767029
125	0xbdc21a6e	-0.09477697
126	0x3de91efe	0.113828644
127	0x3e066677	0.13125025
128	0x3ca15ed7	0.019698543
129	0xbd796baa	-0.060893692
130	0x3d4f5457	0.050617542
131	0x3bfe62d5	0.0077632465
132	0xbd7dc584	-0.061955944
133	0x3cb3f177	0.021965725
134	0x3dd6cb52	0.10487999
135	0xbc8dcca2	-0.01730949
136	0xbd72b85c	-0.05925785
137	0x3c53db42	0.012930693
138	0xbc95ef33	-0.018302536
139	0x3bc08d08	0.0058761872
140	0xbda727d3	-0.08161893
141	0xbc7e3214	-0.015514869
142	0xbdb43966	-0.088000104
143	0xbe1d0ff3	-0.15338115
144	0xbc98ba71	-0.01864359
145	0x3a1dbdaa	0.0006017337
146	0xbd9effa3	-0.077636026
147	0xbce0ca4e	-0.027440216
148	0xbd26e6fc	-0.040747628
149	0xbde88773	-0.1135396
150	0x3df6d5ec	0.12052521
151	0x3ce7734f	0.028253226
152	0xbcf9697a	-0.030445803
153	0xbd32a041	-0.04360986
154	0xbd92196d	-0.07133756
155	0x3dbb1c4e	0.09136258
156	0x3c76b5a7	0.015057958
157	0xbcac9b1e	-0.02107006
158	0x3d18f7d2	0.037345715
159	0x3d0af8ed	0.0339288
160	0xbcd73014	-0.026268043
161	0x3e006c8c	0.12541407
162	0x3c56bd12	0.013106601
163	0x3d93004d	0.07177792
164	0x3df08f97	0.117461376
165	0xbde32bd8	-0.11092347
166	0x3d4ea303	0.05044843
167	0xbde52894	-0.1118938
168	0xbdb1f618	-0.08689517
169	0xbc9c8c63	-0.01910991
170	0xbd72c4b9	-0.05926964
171	0x3cdad6ad	0.026713694
172	0xbccda6b3	-0.025103902
173	0xbdc7867f	-0.0974245
174	0xbe451d11	-0.19249369
175	0x3ca6c803	0.020359045
176	0xbd009b20	-0.03139794
177	0x3da38a52	0.07985367
178	0x3d9895b5	0.07450429
179	0xbc7e3f10	-0.015517965
180	0xbdc3daf1	-0.09563244
181	0x3cb8e196	0.022568505
182	0xbd157be9	-0.036495123
183	0xbe115392	-0.14192036
184	0xbcfeab92	-0.03108767
185	0x3df3e0f7	0.11908143
186	0x3d864887	0.06556802
187	0xbd8b5864	-0.068039685
188	0xbe411ab4	-0.18857843
189	0xbcf73569	-0.030176835
190	0x3d48a39f	0.048984166
191	0x3d06b680	0.03288889
192	0x3bce62c2	0.006298394
193	0xbdc0ba41	-0.09410525
194	0x3cacf505	0.021112928
195	0x3d261fb2	0.04055757
196	0xbdcbbaaa	-0.09947713
197	0x3d7b91e0	0.061418414
198	0x3d3e1a1a	0.04641161
199	0x3d1817c6	0.037132047
200	0xbdb9a531	-0.09064711
201	0x3d5f8a03	0.054574978
202	0x3d7aae02	0.061201103
203	0x3d9c3487	0.07627206
204	0xbd78b021	-0.060714845
205	0xbe2d85f1	-0.16945626
206	0x3af6ac44	0.001881965
207	0x3bcbdab8	0.0062211417
208	0x3dba6a35	0.09102289
209	0xbe14848b	-0.14503686
210	0x3d1ddf1a	0.038542844
211	0x3d09954a	0.03358964
212	0x3db34daa	0.087550476
213	0x3d2e5fc7	0.04257181
214	0xbd839d5c	-0.06426498
215	0xbe1b096e	-0.15140316
216	0xbe00bba4	-0.12571579
217	0x3c859f62	0.016311351
218	0xbda55550	-0.08072913
219	0x3b15986e	0.002282645
220	0x3dbaaab9	0.09114594
221	0xbe24ef82	-0.1610699
222	0x3de70d03	0.11281779
223	0xbd0f7c9a	-0.03503094
224	0xbbd2c3eb	-0.0064320466
225	0xbda35385	-0.079749145
226	0xbd585b00	-0.05282116
227	0x3d0a5c77	0.033779588
228	0xbdc785f2	-0.09742345
229	0x3cf2af2f	0.02962455
230	0xbcbffde0	-0.023436487
231	0xbd48493d	-0.04889797
232	0x3da42a60	0.08015895
233	0x3d9bd566	0.07609062
234	0x3df84d04	0.121240646
235	0x3cf49a34	0.029858686
236	0xbd40ce4b	-0.047071736
237	0x3d19c2d3	0.037539314
238	0x3be30c7d	0.006928979
239	0xbce752c4	-0.028237708
240	0xbe2db8d4	-0.16965038
241	0x3cf5a430	0.029985517
242	0xbd2a4f8d	-0.04157977
243	0x3db2a09e	0.087220415
244	0xbd219823	-0.03945173
245	0xbd8fa894	-0.070145756
246	0xbda59318	-0.080846965
247	0xbc66d669	-0.014089205
248	0xbd79afe8	-0.060958773
249	0xbd6ea9da	-0.05826745
250	0x3de36acd	0.11104355
251	0x3d2cadf0	0.042158067
252	0x3cd70d1a	0.026251364
253	0xbd91f2c0	-0.07126379
254	0xbd068ad8	-0.032847255
255	0xbe16feb2	-0.14745596

backBone.0.conv1.bias f4 [32]
0	0xb800880d	-3.0644285e-05
1	0xb772d31f	-1.44734795e-05
2	0x379dc0a3	1.8805562e-05
3	0x372dfd44	1.03705715e-05
4	0xb5ceae5c	-1.5398941e-06
5	0x36524ebc	3.1338268e-06
6	0xb55236e9	-7.8311e-07
7	0x37a9e3f6	2.0252523e-05
8	0x38717d3a	5.7575504e-05
9	0xb6f26e32	-7.2249904e-06
10	0xb7c89100	-2.3909379e-05
11	0xb74b259d	-1.21085e-05
12	0x36c8ea4a	5.9877393e-06
13	0x36a461ec	4.8989805e-06
14	0xb738aa2b	-1.1006875e-05
15	0x35e76d09	1.7242575e-06
16	0x35e66b68	1.7167595e-06
17	0x365d946c	3.301796e-06
18	0xb7b75cbe	-2.1858486e-05
19	0x359772ab	1.128375e-06
20	0xb718c3a5	-9.105458e-06
21	0x38e1644a	0.00010747516
22	0x36683535	3.4601665e-06
23	0x3740d7d4	1.1494343e-05
24	0xb7db8431	-2.616839e-05
25	0xb75566cb	-1.2719723e-05
26	0x37b16ab5	2.1149734e-05
27	0x3600c331	1.9187103e-06
28	0xb84ef2e4	-4.9340437e-05
29	0x3728774c	1.0041356e-05
30	0x37818078	1.5437821e-05
31	0x366c21be	3.518638e-06

backBone.0.bn1.weight f4 [32]
0	0x3f8796da	1.0592911
1	0x3f6c1e41	0.92233664
2	0x3f828ce3	1.0199245
3	0x3f79f165	0.97633964
4	0x3f8751fe	1.0571897
5	0x3f5c8747	0.86143917
6	0x3f84644e	1.034311
7	0x3f834953	1.0256752
8	0x3f83485c	1.0256457
9	0x3f664ee0	0.89964104
10	0x3f5efba6	0.87102735
11	0x3f6e9e74	0.9321053
12	0x3f742cfa	0.9538113
13	0x3f5c3281	0.8601456
14	0x3f823bcc	1.0174499
15	0x3f6ea244	0.9321635
16	0x3f689005	0.90844756
17	0x3f6f2ade	0.93424785
18	0x3f62fb97	0.88665146
19	0x3f6a939b	0.9163148
20	0x3f5cb403	0.86212176
21	0x3f823b9e	1.0174444
22	0x3f793d1b	0.97358865
23	0x3f740dbd	0.9533346
24	0x3f8d5117	1.1040372
25	0x3f8f85ae	1.1212671
26	0x3f949fbe	1.161125
27	0x3f6b711e	0.9196948
28	0x3f6a3f5c	0.9150293
29	0x3f5663fa	0.837463
30	0x3f5529b3	0.8326675
31	0x3f44f982	0.7694322

backBone.0.bn1.bias f4 [32]
0	0x3d3d1a5f	0.046167728
1	0xbe147f62	-0.14501718
2	0xbe5b082c	-0.21389836
3	0x3a99f0ca	0.0011744734
4	0x3d5a5200	0.053300858
5	0xbe05d988	-0.13071263
6	0x3d33b613	0.04387481
7	0x3d599344	0.05311896
8	0x3e15d298	0.14631116
9	0xbd5f5e21	-0.054533128
10	0xbde5571f	-0.11198258
11	0xbe126b4c	-0.14298743
12	0xbd85ecc9	-0.06539304
13	0xbe67682e	-0.22598335
14	0xbe0b0fc9	-0.1358024
15	0xbd919aec	-0.07109627
16	0xbdb463fa	-0.088081315
17	0xbe44a874	-0.19204885
18	0xbe4d2543	-0.20033745
19	0xbd9481cf	-0.072513215
20	0xbe40135c	-0.18757385
21	0xbd87113a	-0.065950826
22	0xbde9a0eb	-0.11407646
23	0x3d751cfa	0.059842087
24	0x3d40f154	0.04710515
25	0xbce9d32f	-0.028543083
26	0x3d5b009d	0.05346738
27	0xbd064b50	-0.032786667
28	0x3d07bd7e	0.0331397
29	0xbdd4539b	-0.10367509
30	0xbe10e006	-0.14147958
31	0xbd6e1ce9	-0.05813304

backBone.0.bn1.running_mean f4 [32]
0	0x3d30f4b4	0.043202117
1	0xbf9cea06	-1.2258918
2	0xbfc4b8de	-1.5368917
3	0xbf777f28	-0.966784
4	0x3e621c84	0.2208119
5	0xbcc0d832	-0.02354059
6	0x3f382468	0.7193055
7	0xbf71ebe1	-0.9450055
8	0x3e89d3a2	0.26919276
9	0xbf634947	-0.8878369
10	0x3f219b1b	0.631273
11	0xbe0e7a36	-0.13913807
12	0xbf9c7d91	-1.222582
13	0xbefa6393	-0.48904094
14	0xbf8443af	-1.0333155
15	0xbe249d35	-0.16075595
16	0xbf381ecb	-0.71921986
17	0xbfc9da54	-1.5769753
18	0xbf08e2f2	-0.5347129
19	0xbed11c79	-0.40842035
20	0xbe094a5e	-0.13407275
21	0xc015a1f5	-2.33801
22	0xbf42e450	-0.7612963
23	0xbe205eb2	-0.15661123
24	0x3cb4ee4a	0.022086281
25	0x3ed8364e	0.4222893
26	0x3e62fd45	0.22166927
27	0xbfd8caf6	-1.6936939
28	0xbf252999	-0.645166
29	0xbf65e796	-0.898065
30	0x3f016d92	0.50557816
31	0x3fb6dcb3	1.4286102

backBone.0.bn1.running_var f4 [32]
0	0x3fa3ce77	1.2797383
1	0x3fa5a37b	1.2940515
2	0x3fcef741	1.6169206
3	0x3fb0cfde	1.3813436
4	0x3fa0724f	1.2534884
5	0x3f504562	0.8135587
6	0x3fbe7b54	1.4881387
7	0x3fa03b88	1.2518167
8	0x3fa44f0c	1.2836623
9	0x3f92e239	1.1475288
10	0x3f91aa42	1.1380084
11	0x3f8b6d70	1.0892773
12	0x3faa64af	1.3311976
13	0x3f6bb7b5	0.9207719
14	0x3f72c34c	0.9482925
15	0x3fab97f2	1.3405745
16	0x401ca1cd	2.4473755
17	0x3fb4d90a	1.4128735
18	0x3f783535	0.9695619
19	0x3fd90d6e	1.6957223
20	0x3f79d035	0.97583324
21	0x3fd92fab	1.6967672
22	0x3f938bfd	1.1527096
23	0x3f9cd857	1.2253522
24	0x3f6fc2ba	0.93656504
25	0x3f96c023	1.1777385
26	0x3fa1b054	1.2631936
27	0x3fb973f1	1.4488508
28	0x3f970ec6	1.1801383
29	0x3f7e87f2	0.99426186
30	0x3f868582	1.0509493
31	0x3f953057	1.1655377

backBone.0.conv2.weight f4 [32, 32, 3, 3]
0	0x3dd822f7	0.10553544
1	0x3cd4137d	0.025888199
2	0x3dd67a5b	0.10472556
3	0x3dbb1329	0.09134514
4	0xbd1a9090	-0.03773552
5	0x3c523b12	0.012831466
6	0x3d8dc609	0.06922538
7	0xbc7f38d6	-0.015577516
8	0x3de9a3f7	0.11408227
9	0xbbb53444	-0.005529912
10	0xbe17326c	-0.14765328
11	0x3d05c998	0.032662958
12	0x3d24ee39	0.04026625
13	0x3e3076c1	0.17232801
14	0x3a70d55c	0.00091870665
15	0xbdacbc19	-0.08434314
16	0xbdc840fe	-0.09778021
17	0xbd09b3f2	-0.033618875
18	0xbcec679d	-0.028858
19	0x3e8507ca	0.25982505
20	0xbd940093	-0.07226672
21	0x3ddf7af3	0.109121226
22	0x3db1298d	0.08650503
23	0xbcb8841a	-0.022523928
24	0xbd84caf0	-0.0648402
25	0x3cd70e61	0.026251974
26	0x3ce31d92	0.027724061
27	0xbc8765bd	-0.016528005
28	0x3cd9af5e	0.02657288
29	0xbdeae773	-0.11469927
30	0xbe1b4c52	-0.15165833
31	0x3d937579	0.072001405
32	0xbdc250fb	-0.09488102
33	0x3dee670c	0.116407484
34	0xbd43d1db	-0.047807556
35	0x3d218b54	0.039439514
36	0x3d6ef2ee	0.058337145
37	0x3d741e05	0.05959894
38	0xbd2318e5	-0.039818663
39	0xbdfd7fa6	-0.12377863
40	0xbddc8189	-0.10766894
41	0xbcb385d4	-0.0219144
42	0x3e1a0a22	0.15042928
43	0x3dc33657	0.09531849
44	0xbe1e3f4d	-0.15453835
45	0x3d416029	0.047210846
46	0x3dda72d7	0.10666435
47	0xbd804383	-0.06262877
48	0xbd1b44e8	-0.03790751
49	0xbdd1aff1	-0.10238636
50	0x3c186800	0.009302139
51	0x3d17b54a	0.037038125
52	0xbd5fb608	-0.054616958
53	0x3c1b2b43	0.009470764
54	0x3d8c41cf	0.068484895
55	0x3df2fb80	0.11864376
56	0x3e18c124	0.14917427
57	0x3c802d06	0.015646469
58	0x3dd9a178	0.10626501
59	0x3d85ba35	0.06529657
60	0x3d027f5d	0.031859744
61	0xbcda48c1	-0.02664602
62	0x3d7220a9	0.05911318
63	0xbd419ff0	-0.04727167
64	0x3d6c0755	0.05762418
65	0x3e30d523	0.17268805
66	0xbd52c060	-0.051452994
67	0xbd33e3e3	-0.0439185
68	0x3cf9a54c	0.030474328
69	0xbdd00b59	-0.101584144
70	0x3e0a2baf	0.13493226
71	0x3cd277c0	0.025691867
72	0x3d070dfb	0.032972317
73	0xbe0647c4	-0.13113314
74	0x3e210657	0.15725075
75	0xbdcdd28a	-0.10049923
76	0x3d1f0c44	0.038830057
77	0x3d1bbc03	0.0380211
78	0xbce3eaf8	-0.027822003
79	0xbc0432d5	-0.00806876
80	0x3cfb6556	0.03068797
81	0xbca2b499	-0.019861506
82	0xbc959974	-0.018261649
83	0x3d9077bf	0.0705409
84	0x3deff673	0.11716928
85	0xbbd702b6	-0.0065616025
86	0xbc39b93c	-0.011335667
87	0xbd76fac7	-0.060297754
88	0xbd80b75c	-0.06284973
89	0x3ddf6fae	0.10909973
90	0x3d72810c	0.0592051
91	0x3cbc5475	0.022989491
92	0x3dbe4138	0.09289783
93	0xbe03601d	-0.12829633
94	0x3d2d613b	0.042329054
95	0xbe03d7be	-0.12875268
96	0x3c23d1b2	0.009998726
97	0xbd4a7d0e	-0.049435668
98	0xbdc5e0f7	-0.09662049
99	0xbe0179c6	-0.12644109
100	0x3c5c30e2	0.013439389
101	0x3db92c1f	0.090416186
102	0x3d858ba1	0.06520773
103	0x3d46daf3	0.04854865
104	0xbd1cbaaf	-0.038263973
105	0xbdd5f043	-0.10446217
106	0xbd2288a6	-0.0396811
107	0xbe099255	-0.13434727
108	0x3dad81d3	0.08472028
109	0x3db53c95	0.08849446
110	0xbd4e502c	-0.050369427
111	0x3cc72f69	0.0243146
112	0xbd66d6ab	-0.056357067
113	0x3d4bb45c	0.04973255
114	0x3d8b0a75	0.06789104
115	0x3d9327d3	0.0718533
116	0xbd9f61e1	-0.07782341
117	0xbc5f4f6f	-0.013629778
118	0xbc5c68a4	-0.013452683
119	0xbd9536b3	-0.07285824
120	0xbad99dd3	-0.0016602821
121	0xbdffe9d1	-0.12495769
122	0xbbcaa1f8	-0.006183859
123	0xbc2dcbef	-0.010607704
124	0xbd8e4bc8	-0.06948048
125	0x3d75980c	0.059959456
126	0xbe459dfd	-0.19298549
127	0x3ddac1c1	0.10681487
128	0x3bf3bd6c	0.0074383523
129	0xbc4b6146	-0.0124133285
130	0xbd6c22bf	-0.057650324
131	0xbc2887cc	-0.010286283
132	0x3e2feedf	0.17180966
133	0x3c0fb03e	0.008770047
134	0xbe04b2f3	-0.12958889
135	0xbc5d228c	-0.013497006
136	0x3da8526c	0.08218846
137	0x3c4fd317	0.012684605
138	0x3bcf45ad	0.0063254447
139	0xbc7e640c	-0.015526783
140	0xbe26ee91	-0.16301943
141	0xbe371f88	-0.17883122
142	0x3c77f485	0.015133982
143	0x3d6f415d	0.058411945
144	0xbdd9c3d7	-0.106330566
145	0xbdb772af	-0.08957421
146	0x3c97ae16	0.018515628
147	0xbe25bee0	-0.16186094
148	0xbd728453	-0.059208225
149	0xbdad283d	-0.084549405
150	0x3d8bf8e8	0.068345845
151	0xbdc1729c	-0.09445688
152	0x3cdb547e	0.026773687
153	0xbd27ce63	-0.04096831
154	0x3da23468	0.07920152
155	0x3e2ef8de	0.17087123
156	0x3e189042	0.1489878
157	0x3e042c57	0.1290754
158	0x3e300bf0	0.17192054
159	0x3db531ae	0.08847366
160	0xbdb7c53d	-0.08973167
161	0x3cff6425	0.031175682
162	0xbc47355c	-0.012158718
163	0xbd092b8b	-0.03348879
164	0xbdc27184	-0.09494308
165	0xbd2bdca2	-0.04195846
166	0x3b18626c	0.0023252023
167	0xbdb7b310	-0.089697
168	0xbd76d679	-0.06026313
169	0x3ce826c8	0.028338805
170	0xbd5625fd	-0.052282322
171	0x3af931f9	0.0019012085
172	0x3d6ae834	0.057350352
173	0x3de74d6b	0.11294063
174	0xbe0184f1	-0.1264837
175	0x3d8c5b34	0.06853333
176	0xbda8fe77	-0.0825166
177	0xbdc1b9d2	-0.094592705
178	0x3d244f90	0.04011494
179	0xbd03ba54	-0.03216012
180	0x3c8e8d1a	0.017401267
181	0x3cb4da89	0.022076862
182	0xbb9344e0	-0.0044942945
183	0xbc52418c	-0.01283301
184	0x3d236372	0.03988976
185	0x3c95257a	0.018206347
186	0xbdbc6b24	-0.09200123
187	0xbd470ba1	-0.048595075
188	0xbda6ba21	-0.0814097
189	0xbd53370f	-0.05156618
190	0x3dedc3dd	0.116096236
191	0xbd5c58cc	-0.05379562
192	0xbe22e830	-0.15908885
193	0x3e1aaf40	0.15105915
194	0xbd13210a	-0.03592018
195	0x3d0b80ce	0.034058385
196	0xbb948e91	-0.004533597
197	0xbcf8a8c0	-0.030353904
198	0xbd76a3ce	-0.06021481
199	0x3da2e605	0.07954029
200	0xbd41c50a	-0.04730705
201	0xbdd968ef	-0.106157176
202	0xbd5afdc1	-0.053464655
203	0xbc200df9	-0.009768956
204	0x3e23b09e	0.15985343
205	0xbde23ef1	-0.11047161
206	0xbdff343d	-0.124611355
207	0x3b8207bc	0.003968207
208	0x3d3687d3	0.044563126
209	0x3d846c96	0.064660236
210	0x3c78e4eb	0.015191297
211	0xbd59fa28	-0.053217083
212	0x3cd3380c	0.025783561
213	0x3dadd096	0.0848705
214	0xbd175b21	-0.03695214
215	0x3d4a7971	0.04943222
216	0x3db0479e	0.0860741
217	0xbdda5c41	-0.10662127
218	0x3dd59110	0.10428059
219	0x3c54a346	0.012978381
220	0x3db74707	0.08949094
221	0xbe282f6b	-0.16424339
222	0x3d9cb83a	0.07652326
223	0xbc8bed2d	-0.017080868
224	0x3ccf2b98	0.025289342
225	0x3d1a8893	0.037727904
226	0xbd434238	-0.047670573
227	0xbe0e77e7	-0.13912927
228	0xbddf5c7b	-0.10906311
229	0x3dbdfaf4	0.09276381
230	0x3d1503fb	0.03638075
231	0xbe22909c	-0.15875477
232	0xbd749bbd	-0.059718836
233	0xbdd5d900	-0.1044178
234	0xbdc3793c	-0.09544608
235	0x3dcd589d	0.10026667
236	0x3dc1d49d	0.09464381
237	0x3d7ca099	0.061676595
238	0xbd9d433f	-0.07678842
239	0x3d991442	0.07474567
240	0x3db3cb5d	0.08779023
241	0x3dbdc61f	0.09266304
242	0x3db03e45	0.08605627
243	0x3d8c16c7	0.06840282
244	0x3da87d69	0.08227045
245	0xbd48e251	-0.049043957
246	0xbd68039c	-0.056644067
247	0xbca90f75	-0.020637253
248	0xbd50f745	-0.051017065
249	0xbe310c4e	-0.1728985
250	0xbb2c9437	-0.002633346
251	0x3c8069b4	0.015675403
252	0x3dbec008	0.09313971
253	0xbd5c36bb	-0.053763133
254	0x3d195873	0.037437867
255	0x3d4c9bd4	0.049953297

backBone.0.conv2.bias f4 [32]
0	0x3462b4fe	2.1113735e-07
1	0x38ae3aff	8.3079554e-05
2	0xb808a157	-3.2575186e-05
3	0x37fd727b	3.021326e-05
4	0xb87ee45d	-6.0771e-05
5	0xb6753017	-3.6535837e-06
6	0x36cfa1c8	6.1879146e-06
7	0xb766f034	-1.3764995e-05
8	0xb6fd3ae0	-7.5468415e-06
9	0xb67fbf47	-3.81093e-06
10	0xb883c2ed	-6.2828745e-05
11	0x370bfae2	8.343459e-06
12	0x3608b5f5	2.0371492e-06
13	0x358affe4	1.0356275e-06
14	0x38ab9c88	8.1830716e-05
15	0x3794d6d4	1.7743012e-05
16	0xb75724ef	-1.2823598e-05
17	0xb858d334	-5.169511e-05
18	0xb6f6db66	-7.3569126e-06
19	0xb7b91e65	-2.2067872e-05
20	0x3847c47c	4.7628288e-05
21	0xb5a360d2	-1.2172625e-06
22	0x38457f29	4.7086887e-05
23	0x376727fe	1.3777984e-05
24	0x3797ba84	1.8087456e-05
25	0xb70db902	-8.44733e-06
26	0x37cbb757	2.428486e-05
27	0x37409d8a	1.1480772e-05
28	0x389cc2cc	7.4749434e-05
29	0x3523df78	6.104742e-07
30	0xb79004cd	-1.7168373e-05
31	0x358dd0a3	1.056604e-06

backBone.0.bn2.weight f4 [32]
0	0x3f6e58a9	0.93104035
1	0x3f853540	1.0406876
2	0x3f80a5d3	1.0050606
3	0x3f581d35	0.84419566
4	0x3f8096f2	1.0046065
5	0x3f67d23d	0.90555173
6	0x3f860590	1.0470448
7	0x3f6f519a	0.9348389
8	0x3f8a8a5d	1.0823475
9	0x3f61d80a	0.88220274
10	0x3f66d747	0.9017224
11	0x3f7362fd	0.9507292
12	0x3f516d43	0.81807345
13	0x3f66e8e4	0.9019911
14	0x3f6f647b	0.93512696
15	0x3f82c938	1.0217657
16	0x3f959da6	1.1688735
17	0x3f76b151	0.96364313
18	0x3f6869eb	0.9078662
19	0x3f666926	0.90004194
20	0x3f54de3d	0.8315161
21	0x3f779478	0.9671092
22	0x3f62ba64	0.8856566
23	0x3f739c6f	0.95160574
24	0x3f64be5f	0.89352983
25	0x3f4a892a	0.79115546
26	0x3f7f5ef7	0.9975428
27	0x3f7389ac	0.95131946
28	0x3f6b7be7	0.91985935
29	0x3f86cef6	1.053191
30	0x3f622f27	0.883532
31	0x3f6e4c42	0.9308511

backBone.0.bn2.bias f4 [32]
0	0xbd66f411	-0.056385104
1	0xbe2b3009	-0.16717543
2	0xbd902f18	-0.070402324
3	0xbce6cafa	-0.028172959
4	0x3cb591c4	0.022164233
5	0xbe087fbc	-0.13329977
6	0x3c4cd9c2	0.012503089
7	0xbd7a1bf2	-0.061061807
8	0xbe510d92	-0.20415333
9	0xbe2472fc	-0.16059488
10	0x3d42fc45	0.047603864
11	0xbe2bf275	-0.16791709
12	0x3d8de70f	0.069288366
13	0xbe494b59	-0.19657649
14	0xbe15477f	-0.14578055
15	0xbd8a52b1	-0.067540534
16	0x3da7700b	0.081756674
17	0x3cb4f0d1	0.022087486
18	0xbc8d94dd	-0.017282898
19	0xbd8441dd	-0.06457875
20	0xbd38d892	-0.045128413
21	0xbe7b1258	-0.24518716
22	0xbce2dedc	-0.027694158
23	0xbdc49c86	-0.09600167
24	0xbdaad5cd	-0.083415605
25	0xbdd95837	-0.10612529
26	0xbe2a4cee	-0.16630909
27	0xbe5f82c5	-0.21827228
28	0xbe0b9541	-0.13631155
29	0xbcf4921c	-0.029854827
30	0xbd249e0b	-0.040189784
31	0x3d5df966	0.054192923

backBone.0.bn2.running_mean f4 [32]
0	0x3e6d1e9b	0.23156206
1	0xbee2d7e0	-0.44305325
2	0xbf90b78d	-1.1306015
3	0xbfdc5dd9	-1.721614
4	0xbfcf085c	-1.6174426
5	0xbed82af7	-0.4222028
6	0xbf8bea84	-1.0930943
7	0xbe993af3	-0.29927787
8	0xc0078002	-2.117188
9	0x3da8bcbc	0.08239123
10	0x3e77ecfe	0.24211499
11	0xbe37aed3	-0.17937784
12	0xbf8e1769	-1.1100894
13	0xbfa73ffa	-1.3066399
14	0xbea6fe00	-0.32615662
15	0xbf04d010	-0.5187998
16	0xbe95ff22	-0.29296213
17	0x3e7901be	0.24317071
18	0x3ee5de94	0.44896376
19	0xbf4be5a4	-0.7964728
20	0xbf906f61	-1.128399
21	0xbf227259	-0.6345573
22	0xbdce1b4e	-0.10063802
23	0xbe1e8d27	-0.15483533
24	0x3dd47bfa	0.10375209
25	0xbee1d1e7	-0.44105455
26	0xbfdfe4d5	-1.7491709
27	0xbf1f5f8d	-0.62255174
28	0xbf7fc384	-0.9990771
29	0xbf914d08	-1.1351633
30	0x3e96919c	0.29407966
31	0xbed4f1ec	-0.41590822

backBone.0.bn2.running_var f4 [32]
0	0x3f46b35d	0.77617437
1	0x3f6584b1	0.89655596
2	0x3f896d8e	1.0736558
3	0x3fbc4036	1.4707096
4	0x3fd35ca6	1.6512649
5	0x3f819632	1.0123961
6	0x3fab423f	1.3379592
7	0x3f482a92	0.7818996
8	0x3fafe405	1.3741461
9	0x3f4ef504	0.80842614
10	0x3fd72e89	1.6811076
11	0x3f5c8bb6	0.8615068
12	0x3f758657	0.9590811
13	0x3f4fdf58	0.8120017
14	0x3f4b153d	0.7932928
15	0x3f8b336f	1.0875071
16	0x3f69f991	0.91396433
17	0x3f6e08d7	0.9298224
18	0x3f6d899c	0.927881
19	0x3f65a6c0	0.89707565
20	0x3f691926	0.91054
21	0x3f77ec53	0.9684498
22	0x3fa438e3	1.282986
23	0x3f76dc13	0.96429557
24	0x3fabbe41	1.3417436
25	0x3f39f9cf	0.726468
26	0x3f8357bc	1.026115
27	0x3fac5411	1.3463155
28	0x3f954f38	1.1664801
29	0x3f70b0f1	0.9401999
30	0x3f60517b	0.8762433
31	0x3f80cbe8	1.0062227

backBone.1.conv1.weight f4 [32, 32, 3, 3]
0	0x3de3ae86	0.11117272
1	0x3dfe1fab	0.12408384
2	0x3bcde5ec	0.0062835123
3	0xbca80aba	-0.020512927
4	0xbd1fa74a	-0.0389779
5	0x3e14b83a	0.14523402
6	0x3dacd6d7	0.08439415
7	0xbd7fddfd	-0.062467564
8	0x3c9a22b1	0.01881537
9	0x3d42b5c2	0.04753662
10	0xbafae623	-0.0019142072
11	0xbe638819	-0.22219886
12	0xbd8401ed	-0.0644568
13	0xbe24105b	-0.16021864
14	0x3dc485cd	0.09595833
15	0xbc801162	-0.015633289
16	0xbdf358c7	-0.11882167
17	0x3d153687	0.036428954
18	0x3d92ba31	0.071644194
19	0x3d14e22f	0.036348518
20	0xbd6134d0	-0.054982007
21	0x3d4fac66	0.05070152
22	0x3d0a3e17	0.03375062
23	0x3de866dc	0.11347744
24	0xbd895730	-0.06706083
25	0xbcf4df7a	-0.029891718
26	0xbd188878	-0.03723952
27	0xbda76c0f	-0.081749074
28	0xbca82f83	-0.020530468
29	0x3c95a0b2	0.018265102
30	0xbc870e13	-0.016486203
31	0xbd528054	-0.051391914
32	0x3c4834be	0.012219606
33	0x3d4196da	0.047263004
34	0xbe239cf8	-0.15977848
35	0xbdecfe7f	-0.11571979
36	0xbc557e24	-0.013030563
37	0x3d6a636c	0.057223722
38	0x3e3b65e2	0.18300584
39	0x3c10bb96	0.0088337865
40	0x3bdb1231	0.006685518
41	0xbd9bf4dc	-0.076150626
42	0x3e0a0d63	0.13481669
43	0x3e1ebd98	0.15502012
44	0x3d49bb5f	0.049250957
45	0x3ddfe5c9	0.109325
46	0xbc760cc0	-0.015017688
47	0xbca16151	-0.019699724
48	0x3d2ee650	0.042700112
49	0xbb498d05	-0.003075422
50	0x3dc0d99a	0.09416504
51	0x3e027c4c	0.12742728
52	0xbcfe3d78	-0.03103517
53	0x3a719c63	0.0009216724
54	0xbe1a6dec	-0.15080994
55	0x3d07ed26	0.033185147
56	0x3db058d3	0.08610692
57	0xbcbb5561	-0.02286786
58	0x3d1fd5f2	0.039022394
59	0xbd3b8f59	-0.045791004
60	0xbe0d725c	-0.13813156
61	0xbd75e75a	-0.060035087
62	0x3cd5e1cd	0.026108647
63	0xbe03dbb1	-0.12876774
64	0xbc73f451	-0.014889793
65	0x3d346e5b	0.044050556
66	0xbb97c8e8	-0.004632104
67	0xbcbaa767	-0.022784902
68	0xbde27858	-0.1105811
69	0x3d5b54c7	0.053547647
70	0xbdddfb6d	-0.10838971
71	0xbd3ae6cf	-0.045630272
72	0x3dd5b35e	0.10434602
73	0x3cb86e20	0.02251345
74	0xbd18136e	-0.037127905
75	0x3df6c02b	0.12048372
76	0xbd560e44	-0.0522597
77	0x3de3e136	0.1112694
78	0xbcfb03b6	-0.030641418
79	0xbd71d14e	-0.0590375
80	0x3dd7dce5	0.10540179
81	0x3dd9f523	0.10642459
82	0xbcfff49e	-0.031244572
83	0xbcd1ff20	-0.025634348
84	0xbd3144cf	-0.04327851
85	0x3d94bff5	0.072631754
86	0x3e2f04b0	0.17091632
87	0x3c957355	0.018243471
88	0x3d21694f	0.03940707
89	0x3d2fc207	0.04290965
90	0xbd5f6ad5	-0.054545242
91	0xbd049362	-0.032367118
92	0xbdb44d4b	-0.08803805
93	0xbdc91ca7	-0.09819918
94	0x3d1340fc	0.035950646
95	0x3bec09e0	0.0072033256
96	0x3d2e83db	0.042606216
97	0xbd064061	-0.03277624
98	0x3ce5bda0	0.028044522
99	0xbd153485	-0.03642704
100	0xbd0a4365	-0.03375568
101	0xbded2c13	-0.11580672
102	0xbccab8d6	-0.02474634
103	0xbdd87b9d	-0.10570452
104	0x3c7a4314	0.015274782
105	0x3dc239b6	0.09483664
106	0x3dbd5ca7	0.09246188
107	0x3e0ea515	0.13930161
108	0xbc58cda0	-0.013232619
109	0xbb822f6e	-0.003972939
110	0xbd434cef	-0.04768079
111	0x3c62528e	0.013813628
112	0x3dbaf8f2	0.09129514
113	0xbdd23412	-0.10263838
114	0xbd614127	-0.054993775
115	0x3de387c8	0.111098826
116	0x3d4ef682	0.050528057
117	0x3e5c9b7d	0.21543689
118	0xbbbcb5ed	-0.005758992
119	0x3bf9522f	0.007608674
120	0xbdac7941	-0.08421565
121	0xbdc897e1	-0.097945936
122	0xbd266020	-0.040619016
123	0xbd63d700	-0.05562496
124	0xbd757cf1	-0.059933607
125	0xbd411937	-0.047143187
126	0xbce72461	-0.028215589
127	0xbc04c130	-0.0081027
128	0x3da659e1	0.08122612
129	0xbd819956	-0.06328075
130	0x3d62d4bc	0.05537866
131	0x3d29ca88	0.041452914
132	0x3d25aa84	0.04044582
133	0x3dba2dfd	0.09090803
134	0x3d084bbc	0.03327535
135	0xbd884c14	-0.06655136
136	0x3d2c9fbf	0.042144533
137	0x3b950933	0.004548216
138	0xbdea1cac	-0.1143125
139	0xbdd5ff57	-0.10449093
140	0xbe095d27	-0.13414441
141	0xbd94f555	-0.07273356
142	0xbd79702e	-0.060898
143	0xbd237468	-0.039905936
144	0xbd5c62ab	-0.053805035
145	0xbd3590b6	-0.04432746
146	0x3cb16f5a	0.021659542
147	0x3db43cf7	0.088006906
148	0xbda76fc2	-0.08175613
149	0xbe162dc8	-0.14665902
150	0xbca8cd4d	-0.020605708
151	0xbe6359e4	-0.2220226
152	0xbded3b25	-0.115835465
153	0xbca312b4	-0.01990638
154	0x3e3540ef	0.17700551
155	0xbe1083ed	-0.14112826
156	0x3da02112	0.07818808
157	0x3e1a0d51	0.15044142
158	0x3d9bb644	0.07603124
159	0x3bc8dc39	0.006129768
160	0xbc4ac660	-0.012376398
161	0x3d333437	0.043750968
162	0x3c9d6d6e	0.01921722
163	0x3dbb2768	0.091383755
164	0x3dd5cd35	0.10439531
165	0xbddee3fb	-0.108833276
166	0x3d5e3944	0.05425383
167	0x3d1c521e	0.03816425
168	0x3d1cce88	0.0382829
169	0x3bafed57	0.0053688693
170	0x3c94e70b	0.018176576
171	0x3c984986	0.018589746
172	0x3d00051b	0.03125487
173	0x3cceb479	0.02523254
174	0x3d24d640	0.040243387
175	0x3d94907f	0.07254123
176	0xbc9bfab8	-0.01904045
177	0xbc93cf06	-0.018043052
178	0xbc885309	-0.016641157
179	0x3d40d058	0.047073692
180	0xbaef45bf	-0.0018255039
181	0xbdde3d3f	-0.108515255
182	0x3da798c4	0.081834346
183	0xbd864552	-0.065561906
184	0x3d1b53ff	0.0379219
185	0x3dba6e9d	0.09103129
186	0xbd46f33b	-0.048571806
187	0x3d0723ee	0.03299325
188	0x3d7a7326	0.06114497
189	0xbe00968f	-0.12557434
190	0xbda4d99c	-0.08049318
191	0xbe0228be	-0.12710854
192	0xbd96fe0b	-0.073726736
193	0x3c4db853	0.012556153
194	0x3dd12f81	0.10214139
195	0x3cfe917d	0.031075234
196	0xbc4ae096	-0.012382647
197	0xbd0fcf31	-0.035109702
198	0x3defa665	0.11701659
199	0xbd0f4877	-0.034981217
200	0xbc1e9445	-0.009678905
201	0x3ae5b3fb	0.0017524952
202	0xbc85cfed	-0.016334498
203	0xbcc2a52f	-0.023760406
204	0x3d897412	0.06711592
205	0x3e23ca55	0.15995152
206	0x3cea7ed7	0.028624935
207	0xbd299f65	-0.041411776
208	0xbe12bbcd	-0.14329453
209	0x3de6bc7c	0.11266419
210	0xbd53e39f	-0.05173075
211	0xbcab8012	-0.020935092
212	0xbdb99c8f	-0.09063064
213	0xbcb89e4d	-0.022536421
214	0xbe113179	-0.14179029
215	0x3dbb4ff0	0.09146106
216	0x3d2553ff	0.040363308
217	0x3d8b6503	0.06806376
218	0xbd76875b	-0.06018768
219	0x3d751772	0.059836812
220	0x3e7c472d	0.24636526
221	0x3bc3819d	0.005966379
222	0x3b751c70	0.0037400983
223	0x3d2b1e16	0.04177674
224	0xbcba095b	-0.02270954
225	0x3cd26fe0	0.025688112
226	0x3db79106	0.08963208
227	0xbd1d99f7	-0.03847691
228	0xbd20017c	-0.039063916
229	0x3d96eb75	0.073691286
230	0x3b06378a	0.0020479881
231	0x3cc5ddb3	0.024153566
232	0x3db3a4ef	0.08771693
233	0x3e02f9d4	0.12790614
234	0xbc648c9e	-0.013949541
235	0x3c9a875d	0.018863374
236	0x3d8cfe54	0.06884447
237	0x3d704da5	0.058667798
238	0x3d2417bf	0.04006171
239	0x3c98663e	0.01860344
240	0x3d610475	0.05493589
241	0x3d6682e0	0.056277156
242	0x3d8a2be8	0.06746656
243	0x3c23eebc	0.010005649
244	0x3cf51f3a	0.029922117
245	0xbd743a9a	-0.0596262
246	0x3d0b5a5c	0.03402172
247	0xbe2f81cd	-0.17139359
248	0x3d992ae4	0.07478884
249	0x3e7663ab	0.24061458
250	0xbc40ea3e	-0.011774598
251	0x3dcebb42	0.1009431
252	0xbc48751b	-0.012234951
253	0x3e342cab	0.17595164
254	0xbb429eb0	-0.0029696636
255	0xbd22d4b1	-0.03975362

backBone.1.conv1.bias f4 [32]
0	0x36c043ff	5.7299617e-06
1	0xb788a332	-1.6288457e-05
2	0x35f9df95	1.8617017e-06
3	0xb6df877e	-6.6616913e-06
4	0xb71f5231	-9.496275e-06
5	0xb781c656	-1.5470356e-05
6	0xb623df77	-2.4418966e-06
7	0x3692d438	4.3758446e-06
8	0x36099873	2.0503328e-06
9	0x37468f8d	1.1835143e-05
10	0x3719aafd	9.159322e-06
11	0x3746d7c9	1.1851961e-05
12	0x37249cff	9.811715e-06
13	0x3689c795	4.1061526e-06
14	0x36ad7d60	5.1703973e-06
15	0x36156060	2.2258828e-06
16	0x372110a4	9.600222e-06
17	0x361e5e94	2.3598886e-06
18	0xb6bc7123	-5.6160075e-06
19	0xb6a492f6	-4.9046894e-06
20	0xb70be893	-8.339196e-06
21	0x374964b2	1.2003979e-05
22	0xb71955c6	-9.139481e-06
23	0x3794043c	1.7644947e-05
24	0xb5c0c5d0	-1.4362686e-06
25	0xb6c07905	-5.7361344e-06
26	0xb6db936c	-6.5438708e-06
27	0xb7315ef3	-1.0572129e-05
28	0xb5829de9	-9.731713e-07
29	0x35a1d398	1.2057017e-06
30	0xb66c051d	-3.5169717e-06
31	0xb77c7691	-1.5047976e-05

backBone.1.bn1.weight f4 [32]
0	0x3f6dceca	0.9289366
1	0x3f8b99cb	1.0906309
2	0x3f429f6b	0.760245
3	0x3f6d14ad	0.92609674
4	0x3f606315	0.8765119
5	0x3f75b911	0.95985514
6	0x3f814b80	1.0101166
7	0x3f6ebc51	0.932561
8	0x3f637c2a	0.88861334
9	0x3f86ed7c	1.0541224
10	0x3f7fbb46	0.9989513
11	0x3f7a2d9d	0.9772585
12	0x3f62cc71	0.885932
13	0x3f7e2e1c	0.9928911
14	0x3f5a7077	0.8532786
15	0x3f68a681	0.90879065
16	0x3f6ec144	0.9326365
17	0x3f7be603	0.98397845
18	0x3f6e7246	0.9314312
19	0x3f7aae63	0.97922343
20	0x3f6291e3	0.88503855
21	0x3f8a8760	1.0822563
22	0x3f7cb762	0.9871732
23	0x3f6ee150	0.9331255
24	0x3f6d4305	0.9268039
25	0x3f7c7e48	0.9863019
26	0x3f3c6da3	0.7360479
27	0x3f7f0f44	0.9963267
28	0x3f68db91	0.9096003
29	0x3f6d6f3e	0.9274787
30	0x3f5a2a20	0.8522053
31	0x3f91bdb5	1.1386019

backBone.1.bn1.bias f4 [32]
0	0xbd824ec6	-0.06362681
1	0xbdb26520	-0.08710694
2	0xbe157fa4	-0.14599472
3	0xbe167274	-0.14692098
4	0xbe9d7eaa	-0.307607
5	0xbdef9a21	-0.1169932
6	0x3c683bf1	0.014174447
7	0xbdfd51cf	-0.123691194
8	0xbd8f0367	-0.06983071
9	0xbd808f12	-0.062772885
10	0xbdbfb7e7	-0.093612485
11	0xbdb4d5d0	-0.08829844
12	0xbe265150	-0.16241956
13	0xbdd0f1cb	-0.10202368
14	0xbdd9fb80	-0.10643673
15	0xbd9462da	-0.07245417
16	0xbd006a72	-0.031351514
17	0xbe6215bc	-0.22078604
18	0xbdf2c208	-0.11853415
19	0xbdf3a13d	-0.11895988
20	0xbe347ae0	-0.17624998
21	0xbde14aec	-0.11000618
22	0xbd609542	-0.054829843
23	0xbc2c8fbf	-0.010532319
24	0xbdb0de71	-0.08636177
25	0xbe33630a	-0.17518249
26	0xbe99a3f1	-0.3000789
27	0xbb9462e6	-0.004528391
28	0xbd700e69	-0.058607493
29	0x3d2d1f28	0.04226604
30	0xbe6a2a29	-0.22867645
31	0xbc7a45ad	-0.015275401

backBone.1.bn1.running_mean f4 [32]
0	0x3f745fa9	0.95458466
1	0xbfa92769	-1.3215152
2	0x3eaa22a4	0.33229554
3	0xbe4c3a3f	-0.19944094
4	0x3dfcbcab	0.12340673
5	0xbff3e79c	-1.9055057
6	0xbf30337b	-0.6882855
7	0x3ddb8c3a	0.107201055
8	0xbef0087a	-0.46881467
9	0xbf7c2f7f	-0.98509973
10	0xc04e72a9	-3.2257483
11	0xbef580be	-0.47949785
12	0xc032a93e	-2.7915797
13	0xbfcd7f79	-1.6054527
14	0xc04c430c	-3.1915922
15	0xbfe9d436	-1.8267887
16	0xc01a49ab	-2.4107463
17	0xbfe109dd	-1.7581135
18	0x3ea9d59a	0.33170778
19	0xc01d2d9b	-2.4559085
20	0xbe40d3d1	-0.18830802
21	0xbf0bab25	-0.5455802
22	0xbf552b08	-0.83268785
23	0xbe3adf3f	-0.18249224
24	0xbf134549	-0.57527596
25	0xbf39eaf6	-0.72624147
26	0xbf768180	-0.9629135
27	0xbf78baa3	-0.97159785
28	0x3f1de1cf	0.6167268
29	0xc01575de	-2.335319
30	0xbe7890d0	-0.24273992
31	0xbee0c52d	-0.43900433

backBone.1.bn1.running_var f4 [32]
0	0x401834f3	2.3782318
1	0x401d8a93	2.461583
2	0x4026551f	2.5989454
3	0x400b0a53	2.1725051
4	0x403dc66a	2.9652352
5	0x4056f0c4	3.3584452
6	0x4031d112	2.7783856
7	0x4007f524	2.1243372
8	0x3fd7b7f9	1.6853019
9	0x400e4bad	2.223369
10	0x406014ac	3.5012617
11	0x400b305c	2.1748266
12	0x40256dc0	2.5848236
13	0x3ffc2bc0	1.9700851
14	0x4049f458	3.1555386
15	0x402756fe	2.6146846
16	0x3ff946b2	1.94747
17	0x3feb7713	1.8395714
18	0x407f7f76	3.9921546
19	0x402b8dc8	2.6805286
20	0x40184242	2.379044
21	0x406625aa	3.5960488
22	0x402f79a0	2.7417984
23	0x4018aaa7	2.3854158
24	0x40015471	2.020779
25	0x40390a58	2.8912563
26	0x4017fd90	2.3748512
27	0x40605022	3.504891
28	0x4008dbb4	2.1384096
29	0x403a69e3	2.9127128
30	0x3fe7236a	1.8057683
31	0x403e68cf	2.975147
