gameserver_django/webgameserver/models/AZ-01-05-24-EIPC51-A/main.pt (torch, 188193 bytes, 45 tensors)

startBlock.0.weight f4 [8, 4, 3, 3]
-0.009856267 0.045239937 -0.0036967662 -0.033730958 -0.009887419 0.02457486 -0.033903718 -0.12210994
0.049139492 0.40519822 0.22479656 -0.012957241 0.074234135 -0.00447266 -0.119508915 0.09365914
-0.044537347 0.06846346 0.20307615 0.14126056 -0.13777848 0.017696846 0.073468104 -0.10881828
0.052261967 0.24482648 0.02847181 -0.25862905 -0.36324856 0.15753388 0.10119564 0.28924373
-0.17048769 -0.09608465 -0.067523226 0.09871987 0.016769521 0.09760597 0.058439925 0.0403749
0.07991142 0.06978105 0.056162626 0.009149264 0.03870975 -0.06601997 -0.019782342 -0.19053914
-0.16899616 -0.06658657 -0.12153783 -0.07954062 -0.17422286 -0.17036077 -0.056898076 -0.11672662
-0.112622656 -0.029658282 0.1434796 0.031803373 0.14583467 0.2559618 -0.13629813 -0.06296427
0.2366209 0.14359301 0.32545188 -0.03576177 0.27636352 0.12447154 0.37900093 -0.11285512
-0.021839341 -0.030803006 0.028318869 -0.035463084 0.020769708 0.03165984 -0.024104979 0.03702295
0.028670978 0.04099603 0.012550998 -0.068439 0.018753748 -0.026561383 0.0035963217 0.015803086
-0.048265833 -0.14908414 -0.02878216 0.095359564 0.26975936 0.12473929 -0.045734428 -0.28190306
0.24623069 -0.12119907 0.14318559 -0.05887608 0.05635417 0.03367234 0.24657503 0.099902436
0.00014148864 0.056977093 0.10106844 0.13515498 0.0676758 -0.029514797 -0.016949544 0.0023805066
0.034399785 -0.073061906 0.04141945 0.026978524 -0.008989214 0.103000626 0.010404235 -0.028818801
0.06968163 0.13572153 0.11935672 0.18091838 -0.054837983 -0.12670091 0.018216984 -0.08769523
-0.31432158 0.025550332 -0.11773523 0.1657421 0.0050638565 0.03455556 0.15096636 0.15806465
-0.3456244 0.058293168 -0.30144268 -0.07981335 0.11339257 -0.097117595 0.4049016 -0.09928116
0.008077421 0.02849802 -0.0094827395 0.024376966 0.045116734 0.022887895 0.028530931 0.008411972
-0.0069082924 -0.07834346 -0.06686366 -0.017962664 -0.02411471 -0.10617943 -0.019275635 -0.024219258
0.022828711 -0.0060566943 0.032564346 0.037988123 0.13761441 0.0067840856 -0.31897447 0.0821109
-0.20109957 0.046800416 0.022907773 0.0017417051 0.19292559 -0.24747586 0.33117205 -0.009694497
0.24591538 -0.08008011 0.2556955 -0.16185164 -0.023240004 0.0042988937 0.025554862 0.00065849826
-0.0075811837 -0.05238484 -2.7513708e-05 -0.053582318 -0.009824351 0.07860143 -0.15057126 0.2103136
-0.03272923 0.20398192 0.13922414 0.2875099 -0.07619368 0.1429117 0.105261035 0.1714409
0.2448434 0.049256783 0.08327205 0.1739551 -0.08882491 0.0689051 0.07820411 -0.010409547
-0.077792704 -0.1426202 0.23125766 0.21383509 -0.26105928 -0.19276513 0.049511235 0.0029648817
-0.031500567 0.03356861 0.019476905 0.046250142 -0.0062057422 -0.025476106 0.030371655 0.017655268
0.07658989 -0.113611825 -0.048013266 -0.006753366 -0.15234728 0.06124216 -0.06530689 -0.022048164
-0.07920984 -0.05167227 0.23067698 -0.14807937 0.22832274 0.11022047 -0.15238048 -0.112159446
0.057006314 -0.04190343 -0.23540531 0.10924112 -0.087867714 0.2480536 -0.15047313 0.069861986
0.035979167 0.19690345 0.05947932 0.04494301 -0.040313616 -0.084045485 0.029934293 -0.09689306
00000000: 2e7c 21bc 834d 393d 7245 72bb 7929 0abd
00000010: d7fe 21bc 3851 c93c a0de 0abd c714 fabd
00000020: 7e46 493d 2476 cf3e 1231 663e 9c4a 54bc
00000030: 1108 983d 648f 92bb 17c1 f4bd 5dd0 bf3d
00000040: cb6c 36bd 9236 8c3d 32f3 4f3e 9ca6 103e
00000050: cd15 0dbe faf8 903c 7276 963d 1edc debd
00000060: a510 563d cbb3 7a3e b73d e93c 076b 84be
00000070: b7fb b9be 9050 213e a93f cf3d c117 943e
00000080: 5394 2ebe 07c8 c4bd 9e49 8abd a52d ca3d
00000090: 3c60 893c a4e5 c73d b45e 6f3d 2760 253d
000000a0: 99a8 a33d 5ee9 8e3d c80a 663d cbe6 153c
000000b0: 1d8e 1e3d 7a35 87bd 940e a2bc b11c 43be
000000c0: 540d 2dbe 8a5e 88bd d3e8 f8bd 31e6 a2bd
000000d0: 7a67 32be 0e73 2ebe f50d 69bd 5e0e efbd
000000e0: b5a6 e6bd edf5 f2bc 51ec 123e 4144 023d
000000f0: af55 153e 6d0d 833e bd91 0bbe 69f3 80bd
00000100: c04c 723e 0c0a 133e a1a1 a63e ef7a 12bd
00000110: 857f 8d3e efea fe3d 690c c23e 9620 e7bd
00000120: 6be8 b2bc 9656 fcbc f9fc e73c bd41 11bd
00000130: 3c25 aa3c c0ad 013d ce77 c5bc 60a5 173d
00000140: 66df ea3c 74eb 273d b3a2 4d3c bf29 8cbd
00000150: 76a1 993c 4297 d9bc 44b0 6b3b 7975 813c
00000160: 65b2 45bd 83a9 18be 90c8 ebbc e04b c33d
00000170: e61d 8a3e 5077 ff3d 0654 3bbd 9955 90be
00000180: e623 7c3e 3837 f8bd 3e9f 123e 0b28 71bd
00000190: a1d3 663d 02ec 093d 2a7e 7c3e a699 cc3d
000001a0: 915c 1439 d060 693d f8fc ce3d 1166 0a3e
000001b0: 9c99 8a3d 04c9 f1bc c5d9 8abc 4602 1c3b
000001c0: cae6 0c3d 7ba1 95bd 71a7 293d 1102 dd3c
000001d0: 7f47 13bc fef1 d23d 8676 2a3c 6815 ecbc
000001e0: 3eb5 8e3d 96fa 0a3e 4c71 f43d ab42 393e
000001f0: cb9d 60bd e2bd 01be c93b 953c 8f99 b3bd
00000200: c2ee a0be ee4e d13c 2b1f f1bd 4cb8 293e
00000210: b5ee a53b 228a 0d3d ed96 1a3e b3db 213e
00000220: aef5 b0be d1c4 6e3d b256 9abe 2f75 a3bd
00000230: 5d3a e83d 97e5 c6bd 434f cf3e ec53 cbbd
00000240: 2957 043c ae74 e93c 7e5d 1bbc 34b2 c73c
00000250: 53cc 383d 657f bb3c b3b9 e93c 5ed2 093c
00000260: f55e e2bb 8972 a0bd d1ef 88bd 7026 93bc
00000270: 368c c5bc 9a74 d9bd f0e7 9dbc 7767 c6bc
00000280: 4703 bb3c 3c77 c6bb 3162 053d 6f99 1b3d
00000290: cbea 0c3e 094d de3b 9f50 a3be c229 a83d
000002a0: 0ced 4dbe cbb1 3f3d 15a9 bb3c ed49 e43a
000002b0: 498e 453e 506a 7dbe 628f a93e abd5 1ebc
000002c0: 3ed1 7b3e 0a01 a4bd 85ea 823e 70bc 25be
000002d0: d261 bebc bcdd 8c3b 6e58 d13c 129f 2c3a
000002e0: 946b f8bb 7c91 56bd 3dcd e6b7 2279 5bbd
000002f0: 51f6 20bc c9f9 a03d 5a2f 1abe 735c 573e
00000300: 160f 06bd a3e0 503e c690 0e3e 7f34 933e
00000310: 6f0b 9cbd 7257 123e 1993 d73d 348e 2f3e
00000320: 3ab8 7a3e 7bc1 493d 898a aa3d 4921 323e
00000330: d6e9 b5bd 1e1e 8d3d 7a29 a03d ce8c 2abc
00000340: c851 9fbd 080b 12be cfce 6c3e 96f7 5a3e
00000350: 90a9 85be 3964 45be 4bcc 4a3d 764e 423b
00000360: bd06 01bd 3d7f 093d 088e 9f3c ca70 3d3d
00000370: 8a59 cbbb 44b3 d0bc facd f83c c8a1 903c
00000380: 29db 9c3d 51ad e8bd 8fa9 44bd 574b ddbb
00000390: ed00 1cbe 0fd9 7a3d 9ebf 85bd 5a9e b4bc
000003a0: c538 a2bd 4da6 53bd 9636 6c3e 1ea2 17be
000003b0: 70cd 693e 45bb e13d a109 1cbe dab3 e5bd
000003c0: 747f 693d eea2 2bbd 170e 71be cfb9 df3d
000003d0: fdf3 b3bd c301 7e3e a115 1abe cd13 8f3d
000003e0: e45e 133d 0fa1 493e 96a0 733d 2916 383d
000003f0: e41f 25bd 0a20 acbd c338 f53c de6f c6bd

startBlock.0.bias f4 [8]
-0.0002219686 -5.84191e-05 0.00011043444 0.0003700761 0.0007933192 -0.00016674788 0.0005340791 -0.0008130783
00000000: 3ec0 68b9 0807 75b8 0a99 e738 c606 c239
00000010: c0f6 4f3a 0bd9 2eb9 7101 0c3a c324 55ba

startBlock.1.weight f4 [8]
0.88879204 1.0668538 1.0594832 0.79966754 1.0840366 1.0262347 1.0038533 0.82790524
00000000: e087 633f aa8e 883f 259d 873f 03b7 4c3f
00000010: b6c1 8a3f a95b 833f 447e 803f 99f1 533f

startBlock.1.bias f4 [8]
0.3364969 0.19151878 0.3374713 0.40369934 0.70121217 0.52725774 0.49385256 0.42754453
00000000: 5249 ac3e 801d 443e 0ac9 ac3e aeb1 ce3e
00000010: a482 333f 5dfa 063f 3eda fc3e 1ee7 da3e

startBlock.1.running_mean f4 [8]
0.11434463 0.14238869 0.11504771 -0.002339906 0.012753594 0.20084916 0.015991695 -0.054654
00000000: 842d ea3d 57ce 113e 229e eb3d 1c59 19bb
00000010: 73f4 503c 67ab 4d3e 0401 833c dfdc 5fbd

startBlock.1.running_var f4 [8]
0.056972638 0.07627857 0.048901178 0.050336 0.022637496 0.07326693 0.037378408 0.04905014
00000000: 245c 693d f037 9c3d 9a4c 483d 1f2d 4e3d
00000010: 4572 b93c f90c 963d 1a1a 193d cde8 483d

backBone.0.conv1.weight f4 [8, 8, 3, 3]
-0.112872094 -0.023362104 -0.041630503 0.065206945 -0.015308502 -0.16231559 -0.13010527 0.03156035
-0.015103263 0.07725126 -0.09729979 0.23018506 -0.0810443 0.2872208 0.16445334 -0.01248046
-0.054110486 0.020407539 0.08049094 0.10985847 0.019550495 -0.13775179 -0.080943756 -0.13723935
0.11919795 0.040198635 -0.0003449128 -0.040213306 -0.12635455 0.009739812 -0.055357765 -0.11403397
-0.056738097 -0.14301145 -0.1429436 -0.15539718 -0.043848358 0.09479611 -0.049219705 -0.038659945
-0.1209393 -0.052257564 0.20385048 -0.15153946 -0.013890652 0.05880481 0.10536691 0.001022675
0.16658732 0.046914507 0.0135624 -0.1553322 0.006416084 0.12354322 -0.020046394 -0.072540075
-0.05635565 -0.19858961 -0.16021542 0.016366232 -0.062299702 0.039062906 -0.1142253 -0.052182868
-0.039221793 0.06822431 0.09462746 0.017871147 0.13880861 -0.11349879 -0.03576849 -0.046282347
0.112553574 -0.12852092 -0.002586608 0.027456166 0.17726855 -0.16563927 0.09452442 -0.05943137
-0.04931078 -0.0096725095 -0.09912866 -0.24476762 -0.17791903 0.060749535 0.12283918 0.117694005
-0.03638048 -0.022159912 -0.18154074 0.016512606 -0.018932594 -0.13927212 0.18678269 0.12909436
0.03421536 -0.21436585 -0.03894 0.0039125234 -0.21350166 0.04113964 -0.05670366 -0.06954404
0.18491726 -0.08012281 -0.07203665 -0.09965867 -0.17690763 -0.1333879 0.032484047 -0.09085953
-0.056955196 0.25311843 -0.1329204 -0.12525386 -0.0056253276 -0.16677257 -0.12737708 0.0851496
-0.22028482 0.036211498 -0.13994105 -0.08741646 -0.08259318 -0.015353443 -0.00021229182 -0.014944659
0.121881545 0.048381373 -0.10399179 -0.17407835 0.053754054 -0.12237498 0.22877087 -0.025218945
0.046484653 0.04991577 0.09413248 0.13218716 -0.17364153 0.0029179833 0.04762645 0.06643274
-0.13747503 -0.04536783 0.04096504 -0.109996796 0.15132074 -0.047641337 0.019083483 0.24956782
0.06925337 -0.015386704 0.08258185 0.01846434 0.06004723 0.17342739 0.04488406 -0.08129766
0.021294173 0.041714422 -0.0014543706 -0.0035234746 -0.09831736 0.17791013 0.032886505 -0.041696094
-0.1299888 0.15258636 0.105184816 -0.08717705 -0.033460148 -0.0016226281 -0.09802346 0.284121
-0.17743923 -0.009664105 0.062112886 -0.105363585 -0.09384375 0.019996375 -0.35878745 -0.22674206
-0.011381956 -0.2020477 -0.07894417 0.025280876 0.060907036 0.14981283 -0.007207554 -0.04159215
0.073811494 -0.1740465 -0.06267105 -0.033259954 -0.043336973 -0.1786453 0.07438011 -0.03487421
-0.054150853 0.12504403 -0.017354202 -0.0930466 0.13717107 0.058768056 0.10380197 -0.11481301
-0.18882509 -0.13374007 -0.033554345 -0.19841875 -0.13853702 0.008414811 0.1377213 -0.13559881
0.08161106 0.09723582 0.039413575 0.103016056 -0.08037377 0.047129713 -0.12779762 0.189795
-0.0056553367 0.23976128 0.06862204 -0.031777527 -0.3015151 0.16180095 0.001320898 0.09712191
-0.029322635 0.19976534 0.1272554 -0.034710575 -0.020196436 -0.026559902 0.013165373 -0.08199865
0.04922088 0.057354715 -0.09074319 -0.026490087 -0.10900051 0.046672564 -0.0126066245 0.19093445
-0.071649514 0.13835949 0.11833037 0.032821864 -0.054457348 -0.07524459 -0.027510552 0.09347982
00000000: 7c29 e7bd e261 bfbc bf84 2abd 388b 853d
00000010: 83d0 7abc 0f36 26be 513a 05be 6d45 013d
00000020: ad73 77bc e935 9e3d 1d45 c7bd a2b5 6b3e
00000030: 8efa a5bd 9b0e 933e 7566 283e d87a 4cbc
00000040: f5a2 5dbd b62d a73c 6fd8 a43d 7afd e03d
00000050: 5c28 a03c ce0e 0dbe d7c5 a5bd 7988 0cbe
00000060: 0e1e f43d 53a7 243d 6ad5 b4b9 b5b6 24bd
00000070: 1663 01be bc93 1f3c d3be 62bd a48a e9bd
00000080: 3566 68bd 9871 12be cf5f 12be 7020 1fbe
00000090: 569a 33bd 7724 c23d 9a9a 49bd e459 1ebd
000000a0: 06af f7bd 070c 56bd 2ebe 503e 292d 1bbe
000000b0: 9e95 63bc 50dd 703d 9bca d73d 470b 863a
000000c0: de95 2a3e 6d29 403d d434 5e3c 670f 1fbe
000000d0: 033e d23b 3a04 fd3d 5638 a4bc e48f 94bd
000000e0: 2fd5 66bd 135b 4bbe 830f 24be 7a12 863c
000000f0: f92d 7fbd 6d00 203d f4ee e9bd b4bd 55bd
00000100: 08a7 20bd 30b9 8b3d 0bcc c13d 8366 923c
00000110: d823 0e3e 0e72 e8bd fb81 12bd 8f92 3dbd
00000120: 7d82 e63d fd9a 03be 1584 29bb c1eb e03c
00000130: e385 353e 579d 29be 0596 c13d 4f6e 73bd
00000140: 1afa 49bd 7279 1ebc f803 cbbd 5da4 7abe
00000150: 6830 36be 81d4 783d 1c93 fb3d 8e09 f13d
00000160: b303 15bd b488 b5bc d1e5 39be 7245 873c
00000170: 8718 9bbc 5a9d 0ebe f643 3f3e 5031 043e
00000180: 6825 0c3d b982 5bbe 8d7f 1fbd a034 803b
00000190: 2ea0 5abe 0a82 283d 1942 68bd 1b6d 8ebd
000001a0: f35a 3d3e 6e17 a4bd f387 93bd d819 ccbd
000001b0: 4627 35be d696 08be fe0d 053d 9014 babd
000001c0: da49 69bd bd98 813e 491c 08be 8c42 00be
000001d0: ab54 b8bb 6ec6 2abe 236f 02be ea62 ae3d
000001e0: 5892 61be 8252 143d b54c 0fbe 6707 b3bd
000001f0: 9d26 a9bd 028d 7bbc a79a 5eb9 71da 74bc
00000200: 089d f93d 8c2b 463d a6f9 d4bd 9841 32be
00000210: 362d 5c3d bc9f fabd e942 6a3e f697 cebc
00000220: b166 3e3d 7a74 4c3d 88c8 c03d 125c 073e
00000230: 16cf 31be a33b 3f3b f413 433d e30d 883d
00000240: 41c6 0cbe 9ed3 39bd f5ca 273d 0046 e1bd
00000250: d3f3 1a3e 9023 43bd f754 9c3c b58e 7f3e
00000260: b6d4 8d3d 8418 7cbc ac20 a93d 8742 973c
00000270: 16f4 753d f396 313e 59d8 373d 637f a6bd
00000280: 1e71 ae3c bedc 2a3d 94a0 beba 18ea 66bb
00000290: 9d5a c9bd 132e 363e 00b4 063d 86c9 2abd
000002a0: c91b 05be 993f 1c3e 236b d73d e289 b2bd
000002b0: 820d 09bd 5dae d4ba 86c0 c8bd 4f78 913e
000002c0: a1b2 35be 3256 1ebc 156a 7e3d ddc8 d7bd
000002d0: 2731 c0bd 70cf a33c fdb2 b7be 122f 68be
000002e0: 627b 3abc 98e5 4ebe 7bad a1bd d719 cf3c
000002f0: a879 793d 8968 193e 582d ecbb 885c 2abd
00000300: 7b2a 973d 3f39 32be ae59 80bd 973b 08bd
00000310: 1c82 31bd cbee 36be 9954 983d 42d8 0ebd
00000320: 49cd 5dbd 8b0b 003e 662a 8ebc 378f bebd
00000330: 9376 0c3e c6b6 703d 2196 d43d 1523 ebbd
00000340: 5d5b 41be 28f3 08be 4870 09bd 492e 4bbe
00000350: a6dc 0dbe 47de 093c d006 0d3e 6ada 0abe
00000360: b323 a73d 9323 c73d 2170 213d 15fa d23d
00000370: 019b a4bd 160b 413d 61dd 02be 9f59 423e
00000380: 6750 b9bb fb83 753e b689 8c3d 2729 02bd
00000390: 3060 9abe 26af 253e fb21 ad3a dae7 c63d
000003a0: 0636 f0bc 498f 4c3e 3d4f 023e ad2c 0ebd
000003b0: ff72 a5bc 2794 d9bc 94b3 573c e9ee a7bd
000003c0: d59b 493d c7ec 6a3d 91d7 b9bd bd01 d9bc
000003d0: a93b dfbd bb2b 3f3d 048c 4ebc 5284 433e
000003e0: fbbc 92bd 1cae 0d3e 3157 f23d 3870 063d
000003f0: ab0e 5fbd d619 9abd cf5d e1bc 5972 bf3d

backBone.0.conv1.bias f4 [8]
0.00015211337 1.1370526e-05 8.027284e-06 5.0962764e-05 0.00026797247 -1.2883179e-05 0.00017679148 -8.66635e-05
00000000: 9f80 1f39 0ac4 3e37 ecac 0637 dac0 5538
00000010: a87e 8c39 d524 58b7 1a61 3939 1dbf b5b8

backBone.0.bn1.weight f4 [8]
0.94966555 1.0971066 0.9401408 0.9168486 0.9304371 0.87685394 0.9353703 0.7977575
00000000: 481d 733f fd6d 8c3f 11ad 703f 97b6 6a3f
00000010: 2031 6e3f 8079 603f 6e74 6f3f d639 4c3f

backBone.0.bn1.bias f4 [8]
0.12941873 0.36506346 0.06327893 0.3833848 0.25905058 0.28136635 0.20645122 0.5175235
00000000: 5886 043e 99e9 ba3e 6298 813d 034b c43e
00000010: 47a2 843e 400f 903e f367 533e 6c7c 043f

backBone.0.bn1.running_mean f4 [8]
-0.57619786 -1.0631436 -0.7652348 0.16983826 0.9644506 -0.5776349 -0.40380633 0.5690733
00000000: b481 13bf 1715 88bf 6ee6 43bf 15ea 2d3e
00000010: 3ce6 763f e1df 13bf b4bf cebe caae 113f

backBone.0.bn1.running_var f4 [8]
0.36653027 1.2645961 0.69148004 0.30321997 0.59401774 0.5675927 0.62483925 0.5132569
00000000: dba9 bb3e 49de a13f d604 313f a63f 9b3e
00000010: 8c11 183f c14d 113f 77f5 1f3f ce64 033f

backBone.0.conv2.weight f4 [8, 8, 3, 3]
0.09728135 -0.045699257 -0.1807334 -0.07475591 -0.21549313 0.0055841273 -0.026635401 0.13911164
-0.031075897 0.15773481 0.028975012 0.07035643 0.1022625 0.21453929 0.0034500954 -0.07179596
-0.22084208 0.017600164 0.076389916 -0.29796526 -0.06262134 0.002527729 -0.037015427 0.18846962
0.14098711 -0.06688187 -0.054524433 0.025030944 0.052861538 0.06370226 0.021399327 0.026188446
0.35491756 0.020032102 -0.02688453 0.004585898 -0.06399068 0.05731539 0.1569837 -0.009848651
0.01582751 0.066918164 0.08839021 -0.022444125 0.06362797 0.13548449 -0.060064703 0.17385386
0.22825424 0.14770305 0.2885302 0.0025990354 0.043805234 -0.0052685463 -0.15739116 0.021013716
-0.034114067 -0.09438202 -0.09689391 -0.08556966 0.05104632 -0.16569398 -0.074203365 0.10777381
0.007633508 0.052676305 -0.03903592 0.020048577 0.03229843 -0.21657878 -0.27127808 0.0048901713
0.01684367 0.07858842 -0.14613512 0.005006763 -0.073155046 -0.22223997 0.03790165 -0.08559156
-0.071094856 -0.02558376 0.010532933 -0.19416566 -0.23654684 0.05681522 -0.25220233 0.25341657
0.18550663 0.2401384 0.12619436 -0.1458617 -0.15670149 -0.025331877 0.09084152 0.10728918
0.13339023 0.067119695 0.0128906295 -0.07255358 0.088059895 -0.09096975 -0.08161826 0.0049799075
0.13728106 -0.11894907 -0.14754535 -0.20796984 -0.104079105 0.112767294 -0.03206042 0.04614339
0.019964578 -0.007822526 0.10371581 -0.008771167 -0.081021264 0.12960733 0.21665561 -0.18298908
0.21211709 -0.06882714 0.18053885 0.047578752 -0.059009355 0.17242958 0.13621123 0.0447018
-0.08544213 0.00047547757 -0.010537748 0.12894629 0.1167741 0.053827014 -0.13962981 0.13649184
-0.039650112 0.021392625 -0.04224159 0.084012195 -0.009660195 0.084572084 0.06508001 -0.108418934
0.08946309 0.052519064 0.10210023 0.0557305 -0.024726354 -0.15669197 0.012313881 -0.025989689
0.17119884 0.007669217 0.015223785 -0.1126321 -0.040329706 0.35854137 0.02114228 -0.18817848
0.02367826 -0.11588382 -0.12948678 0.1895616 0.11367433 0.065596 -0.17065765 0.07795043
0.015893394 0.02560704 -9.482801e-05 -0.14940098 -0.08722326 0.045477577 -0.07792602 -0.060455803
0.16994879 -0.010145701 0.19793816 0.001920976 -0.1293955 -0.025501987 0.24775988 -0.068616204
0.07467231 0.16349496 -0.038096968 0.015841557 -0.039711 0.04303344 0.060235247 -0.035287373
0.15341999 0.17103186 0.06474477 -0.009089498 -0.06264497 0.047905855 -0.027100852 0.021621533
-0.033132695 0.0162094 0.0012335624 0.0012983462 0.17741573 -0.09654525 0.10749098 0.026567973
-0.014710601 -0.09296023 -0.049562607 0.060407076 -0.09698405 0.12910934 -0.0934534 -0.079431064
-0.02087813 -0.05191701 0.102400415 -0.03929454 0.13511512 0.048878714 -0.16699553 -0.10355905
-0.060863744 -0.106927365 0.028510103 0.00033134685 -0.06330658 -0.024719777 0.12899202 -0.10833418
-0.0054969867 0.0014744931 0.07467693 -0.1621188 -0.2523715 0.07357108 -0.1028734 -0.16043834
0.09134491 0.075670786 -0.13076098 -0.10144471 -0.002528547 -0.027417758 0.046984784 -0.024057886
0.086151905 -0.25816292 0.026825342 -0.13562232 -0.09904492 0.0072959755 0.052815598 0.077806704
00000000: 723b c73d 252f 3bbd 2d12 39be a019 99bd
00000010: 3baa 5cbe 0efb b63b 7c32 dabc 4873 0e3e
00000020: e192 febc 3c85 213e 015d ed3c 0817 903d
00000030: 006f d13d 30b0 5b3e ff1a 623b c309 93bd
00000040: 6d24 62be 382e 903c 5172 9c3d e78e 98be
00000050: 9e3f 80bd 41a8 253b 7d9d 17bd 2efe 403e
00000060: ed5e 103e 5df9 88bd 0355 5fbd b20d cd3c
00000070: 5785 583d 5576 823d a44d af3c 2789 d63c
00000080: c1b7 b53e 5d1a a43c f23c dcbc 4d45 963b
00000090: 8c0d 83bd 8bc3 6a3d 56c0 203e 3c5c 21bc
000000a0: b2a8 813c 640c 893d ed05 b53d bedc b7bc
000000b0: 624f 823d 72bc 0a3e 6806 76bd bf06 323e
000000c0: 7bbb 693e 783f 173e 3bba 933e 9454 2a3b
000000d0: 1e6d 333d c5a3 acbb 262b 21be f524 ac3c
000000e0: 31bb 0bbd 5c4b c1bd 5070 c6bd 253f afbd
000000f0: f215 513d afab 29be eff7 97bd 84b8 dc3d
00000100: 8222 fa3b 1cc3 573d 21e4 1fbd ea3c a43c
00000110: 5c4b 043d d4c6 5dbe f6e4 8abe bb3d a03b
00000120: bcfb 893c f7f2 a03d 72a4 15be c60f a43b
00000130: 50d2 95bd e092 63be c33e 1b3d a14a afbd
00000140: 2e9a 91bd 0995 d1bc 5392 2c3c 5dd3 46be
00000150: 5639 72be 13b7 683d aa20 81be d1bf 813e
00000160: 73f5 3d3e d7e6 753e 1839 013e c55c 15be
00000170: 5b76 20be cc84 cfbc 1e0b ba3d 6eba db3d
00000180: 7397 083e 0d76 893d 3833 533c f996 94bd
00000190: bf58 b43d 594e babd 7927 a7bd 7e2e a33b
000001a0: 6893 0c3e 929b f3bd 2116 17be 0cf6 54be
000001b0: 6d27 d5bd 8af2 e63d c951 03bd da00 3d3d
000001c0: c18c a33c 0d2a 00bc f468 d43d f1b4 0fbc
000001d0: 7aee a5bd c9b7 043e f8da 5d3e 7d61 3bbe
000001e0: 3935 593e 3ef5 8cbd 2ddf 383e f0e1 423d
000001f0: cbb3 71bd 6191 303e f57a 0b3e 3c19 373d
00000200: 49fc aebd 8549 f939 85a6 2cbc 7f0a 043e
00000210: 4227 ef3d b779 5c3d 1efb 0ebe 84c4 0b3e
00000220: 2868 22bd 963f af3c 8405 2dbd 960e ac3d
00000230: cb45 1ebc 2134 ad3d ab48 853d bf0a debd
00000240: 6d38 b73d 3b1e 573d ed19 d13d aa45 643d
00000250: ec8e cabc dc73 20be 29c0 493c 54e8 d4bc
00000260: c04e 2f3e 0e4e fb3b 2f6d 793c a9ab e6bd
00000270: c330 25bd bc92 b73e 9332 ad3c dcb1 40be
00000280: e9f8 c13c 7f54 edbd 2f98 04be 701c 423e
00000290: 16ce e83d 3257 863d e1c0 2ebe 7aa4 9f3d
000002a0: dd32 823c dbc5 d13c 66de c6b8 92fc 18be
000002b0: 1ca2 b2bd b246 3a3d ad97 9fbd 81a0 77bd
000002c0: 0e07 2e3e 273a 26bc 4db0 4a3e 42c9 fb3a
000002d0: 4180 04be 8be9 d0bc c4b4 7d3e a786 8cbd
000002e0: cced 983d 396b 273e 910b 1cbd 27c6 813c
000002f0: 00a8 22bd d543 303d 3cb9 763d 7e89 10bd
00000300: 211a 1d3e fa22 2f3e e898 843d 1eec 14bc
00000310: 024c 80bd ee38 443d 9b02 debc a41f b13c
00000320: 26b6 07bd 93c9 843c 7caf a13a 452d aa3a
00000330: 78ac 353e 84b9 c5bd 3b24 dc3d 14a5 d93c
00000340: bc04 71bc ef61 bebd 2902 4bbd 696d 773d
00000350: 939f c6bd 3d35 043e 7f64 bfbd c1ac a2bd
00000360: 9d08 abbc eea6 54bd 4fb7 d13d 50f3 20bd
00000370: 9e5b 0a3e 0c35 483d e000 2bbe c416 d4bd
00000380: 434c 79bd bcfc dabd 058e e93c 9fb8 ad39
00000390: e1a6 81bd 2181 cabc 7c16 043e 50de ddbd
000003a0: 1120 b4bb c743 c13a 38f0 983d 7902 26be
000003b0: d636 81be 6fac 963d 4aaf d2bd f349 24be
000003c0: 0a13 bb3d 49f9 9a3d 35e6 05be 3ec2 cfbd
000003d0: fbb5 25bb 359b e0bc 1e73 403d 0b15 c5bc
000003e0: 6970 b03d ee2d 84be d2c0 db3c 94e0 0abe
000003f0: 10d8 cabd 1413 ef3b 2b55 583d 1f59 9f3d

backBone.0.conv2.bias f4 [8]
0.00022617231 -0.0001236222 -4.0857046e-07 1.7106644e-05 9.013189e-05 -0.00045684798 -0.00026811927 -0.0002504272
00000000: ab28 6d39 95a0 01b9 7f59 dbb4 3d80 8f37
00000010: 3105 bd38 1985 efb9 5c92 8cb9 c54b 83b9

backBone.0.bn2.weight f4 [8]
1.0018529 0.8901002 0.6593903 0.9428928 0.8373272 0.9336128 0.75391203 1.2040043
00000000: b73c 803f 9bdd 633f cdcd 283f 6c61 713f
00000010: 135b 563f 4001 6f3f 6100 413f d01c 9a3f

backBone.0.bn2.bias f4 [8]
0.2687272 0.2574898 0.53800786 0.39766318 0.19939679 0.38765478 0.14660229 0.4586823
00000000: 9d96 893e b4d5 833e e2ba 093f 829a cb3e
00000010: ac2e 4c3e b07a c63e e91e 163e 68d8 ea3e

backBone.0.bn2.running_mean f4 [8]
0.4171498 0.1517116 0.47078174 0.21016409 -0.3494226 0.17641695 0.54025286 -0.53409964
00000000: a994 d53e 495a 1b3e 4e0a f13e 4135 573e
00000010: 85e7 b2be a5a6 343e 034e 0a3f c1ba 08bf

backBone.0.bn2.running_var f4 [8]
0.5398145 0.30490744 0.24038197 0.53519124 0.3670006 0.42072108 0.25116986 0.6229297
00000000: 4831 0a3f d41c 9c3e b126 763e 4b02 093f
00000010: 81e7 bb3e c168 d73e 5699 803e 5278 1f3f

backBone.1.conv1.weight f4 [8, 8, 3, 3]
-0.12989157 -0.28301358 0.027928663 -0.12020704 0.016136415 -0.13639459 -0.08906042 0.08751939
0.14149576 0.11940036 -0.030917332 0.18304856 0.18335634 0.06334737 0.07107782 -0.09802231
-0.057459623 -0.022059789 0.032099806 0.09214147 -0.02342467 -0.10139529 -0.08569239 -0.036048412
-0.016687162 -0.016916355 -0.075236514 0.22262365 0.32674217 0.26919118 -0.21160828 -0.19207239
-0.11527214 0.07393759 -0.074781634 -0.025185484 -0.07305144 0.15159076 0.08862481 0.17584743
-0.027518779 -0.009591012 0.0109204855 -0.05019347 0.009924804 -0.39900798 -0.11015503 -0.075595275
0.052397642 -0.21793957 -0.17127793 -0.07451912 -0.16515175 -0.25072232 0.0147532895 -0.08152327
0.110710524 0.11443926 -0.033584576 -0.0511794 0.06992893 -0.013621254 0.0012336225 0.07873088
-0.005097172 0.06469938 -0.13614768 -0.07730101 -0.22889976 -0.081023075 0.023914523 0.040420294
0.16905715 -0.11149692 -0.1682786 -0.07558346 0.015428184 -0.05600216 -0.1962542 -0.3042342
-0.2567292 -0.06238528 0.08346386 -0.0097593395 -0.009756153 0.052394394 0.059091188 0.060814515
-0.00661043 0.13659081 0.124577805 0.17589997 0.019357823 0.16802526 0.062479235 -0.07704812
-0.003922134 0.096647106 -0.10208294 -0.21546808 -0.108687885 -0.19178472 -0.13234627 -0.04964896
-0.16450578 0.15274051 0.09315921 -0.1174395 0.075073585 -0.06764193 0.0039459816 0.03337183
0.12680648 -0.018817004 0.16103482 0.13647982 0.21460505 -0.04391534 0.16518317 0.059216306
-0.04814972 0.095409445 0.11802661 -0.1294812 -0.06412718 0.06297414 -0.29181027 -0.065878674
0.010898972 0.19768606 -0.0190193 -0.08803063 -0.14385118 0.040090874 0.17985073 0.12421327
0.086808994 -0.23367792 0.037373096 0.14719117 -0.16623236 -0.15786462 0.025673198 0.011788049
-0.03179994 0.19104148 -0.03528084 -0.31731564 0.109535545 -0.2218699 0.13111079 -0.04526442
0.034350917 0.10159758 -0.09224282 -0.10583629 -0.019424919 0.14145538 0.05801978 -0.007900587
0.14532754 0.07627421 -0.004824236 0.04462823 0.15530959 -0.16108975 -0.03173372 -0.049210217
-0.10759528 0.15661848 -0.0474487 0.001188625 -0.25643602 -0.06291811 -0.044931266 0.06294845
-0.07792213 -0.17156817 -0.04943176 -0.022117825 -0.12771228 -0.054590426 -0.34983337 0.007508379
0.014384421 0.14207275 0.10518082 0.16535826 0.19956397 0.2616404 -0.062381368 -0.051345434
0.33877108 -0.0064173727 -0.026729828 0.07873787 -0.063430786 -0.10114135 -0.023806604 0.102653764
-0.03689501 0.117955215 0.012365797 -0.21153046 -0.0076837945 0.14022547 0.0051583704 0.00875283
0.025780363 0.020571303 -0.16253027 0.074317165 0.009485986 0.12777044 0.03369565 -0.26572692
-0.1063321 -0.2252819 -0.051655333 0.103787504 0.093643926 -0.12267676 0.06593371 -0.13763104
0.12585066 0.023213305 0.23268798 -0.1252052 -0.062448144 0.11071907 0.048642725 -0.14615312
0.07979027 -0.18789269 0.38675576 0.12468574 0.10596382 -0.020604692 0.14891745 -0.009271057
0.082028024 -0.017255712 0.006555989 0.0059039965 -0.036633365 0.035485417 0.15874863 0.06674273
0.087308206 -0.13033721 0.022272963 -0.09823583 -0.035292417 -0.058564182 -0.042477403 0.118954696
00000000: 4c02 05be 28e7 90be a7ca e43c 1c2f f6bd
00000010: 8430 843c 06ab 0bbe 4f65 b6bd 5e3d b33d
00000020: 44e4 103e 2d88 f43d 5846 fdbc 1571 3b3e
00000030: c4c1 3b3e 44bc 813d 4091 913d ecbf c8bd
00000040: c85a 6bbd bbb6 b4bc 167b 033d abb4 bc3d
00000050: 18e5 bfbc 55a8 cfbd 7e7f afbd 80a7 13bd
00000060: 84b3 88bc 2b94 8abc 9a15 9abd 74f7 633e
00000070: c04a a73e 6dd3 893e d7af 58be a0ae 44be
00000080: cd13 ecbd 976c 973d 1d27 99bd ca51 cebc
00000090: fe9b 95bd 9c3a 1b3e ed80 b53d 5911 343e
000000a0: 106f e1bc 9f23 1dbc d6eb 323c ab97 4dbd
000000b0: a59b 223c c64a ccbe f698 e1bd b2d1 9abd
000000c0: e99e 563d 8d2b 5fbe 7b63 2fbe 7b9d 98bd
000000d0: 8a1d 29be ad5e 80be c8b7 713c acf5 a6bd
000000e0: 33bc e23d 215f ea3d fb8f 09bd 7ea1 51bd
000000f0: e636 8f3d ae2b 5fbc 81b1 a13a a83d a13d
00000100: 2e06 a7bb 1c81 843d 4c6a 0bbe fe4f 9ebd
00000110: b364 6abe 6def a5bd 64e8 c33c c08f 253d
00000120: 511d 2d3e 7f58 e4bd 3a51 2cbe 80cb 9abd
00000130: 7ec6 7c3c 8562 65bd dcf6 48be 96c4 9bbe
00000140: 0272 83be b587 7fbd 1aef aa3d a3e5 1fbc
00000150: 46d8 1fbc 819b 563d 9a09 723d a418 793d
00000160: 4e9c d8bb 76de 0b3e a622 ff3d 1f1f 343e
00000170: 4c94 9e3c d00e 2c3e 3aea 7f3d 68cb 9dbd
00000180: 3f85 80bb ebee c53d dc10 d1bd aaa3 5cbe
00000190: c197 debd 3763 44be c885 07be b55c 4bbd
000001a0: 3474 28be 0268 1c3e 42ca be3d 1f84 f0bd
000001b0: 2ec0 993d da87 8abd 4b4d 813b e6b0 083d
000001c0: 8fd9 013e 1e26 9abc 50e6 243e 5ec1 0b3e
000001d0: 6dc1 5b3e 92e0 33bd c725 293e cc8c 723d
000001e0: a438 45bd 0766 c33d efb7 f13d b896 04be
000001f0: 1c55 83bd 96f8 803d 2868 95be 66eb 86bd
00000200: 9a91 323c 376e 4a3e 5dce 9bbc 6749 b4bd
00000210: b94d 13be 5436 243d ca2a 383e 8763 fe3d
00000220: eac8 b13d 4449 6fbe 8814 193d 48b9 163e
00000230: d138 2abe 43a7 21be 9950 d23c a922 413c
00000240: a740 02bd 61a0 433e a482 10bd 3277 a2be
00000250: 2c54 e03d dd31 63be e841 063e 2f67 39bd
00000260: 8cb3 0c3d 6412 d03d cee9 bcbd b2c0 d8bd
00000270: 0221 9fbc aed9 103e 26a6 6d3d 7771 01bc
00000280: bed0 143e a735 9c3d a014 9ebb 17cc 363d
00000290: 7a09 1f3e b6f4 24be 38fb 01bd a790 49bd
000002a0: ea5a dcbd 9860 203e 9159 42bd a3cb 9b3a
000002b0: 954b 83be 36db 80bd d909 38bd 1eeb 803d
000002c0: a395 9fbd 91af 2fbe f578 4abd 7130 b5bc
000002d0: 02c7 02be 369a 5fbd 5c1d b3be d908 f63b
000002e0: a2ac 6b3c 857b 113e 0b69 d73d ad53 293e
000002f0: 7f5a 4c3e bbf5 853e 9b83 7fbd 974f 52bd
00000300: 6773 ad3e d348 d2bb 83f8 dabc 5241 a13d
00000310: 00e8 81bd 3223 cfbd 1106 c3bc 233c d23d
00000320: 391f 17bd 8192 f13d e999 4a3c 719b 58be
00000330: 57c8 fbbb 4497 0f3e 8c07 a93b 0868 0f3c
00000340: 5731 d33c 2685 a83c 566e 26be 9933 983d
00000350: 1c6b 1b3c 41d6 023e 7304 0a3d 5c0d 88be
00000360: a5c4 d9bd 4cb0 66be 8b94 53bd 8b8e d43d
00000370: 63c8 bf3d f43d fbbd 4108 873d 27ef 0cbe
00000380: ffde 003e d429 be3c c245 6e3e cb35 00be
00000390: a0c9 7fbd aec0 e23d 983d 473d 2aa9 15be
000003a0: 1569 a33d f166 40be da04 c63e 3d5b ff3d
000003b0: 8f03 d93d 2ccb a8bc d17d 183e a2e5 17bc
000003c0: 4ffe a73d da5b 8dbc 9fd3 d63b 5076 c13b
000003d0: de0c 16bd 2859 113d 008f 223e 6ab0 883d
000003e0: a5ce b23d 1e77 05be ca75 b63c de2f c9bd
000003f0: c88e 10bd ffe0 6fbd c9fc 2dbd 859e f33d

backBone.1.conv1.bias f4 [8]
2.7022941e-05 -2.7347365e-05 1.0130267e-05 2.0113357e-05 -9.5119096e-05 -0.00016070931 -3.8969098e-05 -7.881373e-06
00000000: 53af e237 0568 e5b7 2af5 2937 1bb9 a837
00000010: ad7a c7b8 1484 28b9 c072 23b8 3d3a 04b7

backBone.1.bn1.weight f4 [8]
0.9866752 0.8891969 0.73930174 1.006837 0.8995271 1.1812137 0.9497634 0.9514907
00000000: bf96 7c3f 68a2 633f e142 3d3f 09e0 803f
00000010: 6847 663f 0332 973f b223 733f e594 733f

backBone.1.bn1.bias f4 [8]
0.16759637 -0.03719222 0.43279758 0.02892794 0.22355334 -0.032274548 0.0827403 -0.05447952
00000000: 629e 2b3e df56 18bd a597 dd3e 4afa ec3c
00000010: 2beb 643e 5132 04bd bf73 a93d eb25 5fbd

backBone.1.bn1.running_mean f4 [8]
-1.5254892 0.010932602 -0.1629655 2.0290658 0.32229158 0.74250984 1.3085496 0.8110634
00000000: 3b43 c3bf a81e 333c 6ee0 26be 37dc 0140
00000010: 6703 a53e 2015 3e3f 8e7e a73f daa1 4f3f

backBone.1.bn1.running_var f4 [8]
2.4269714 1.5489395 1.2513217 2.234703 1.1195378 0.9903598 1.117978 0.97386247
00000000: 8053 1b40 a643 c63f 4f2b a03f 6005 0f40
00000010: 044d 8f3f 3888 7d3f e719 8f3f 0d4f 793f

backBone.1.conv2.weight f4 [8, 8, 3, 3]
0.023342326 -0.17186345 0.064807795 0.16334715 -0.0006481532 -0.019710887 0.2590848 0.18184818
0.2676821 -0.052379042 0.060055066 0.0319577 0.114494555 -0.1585862 -0.12716484 -0.03612729
0.05580464 -0.03219464 0.13650295 0.16869505 0.011767372 -0.01741366 -0.055424497 0.09904997
0.08368057 -0.19448231 0.008190926 0.22814281 -0.064924516 0.057880126 -0.032022845 0.06263036
-0.16395687 0.059332833 0.17713857 0.182188 -0.13876118 -0.08951947 0.14574505 0.02886524
0.034553718 0.1291615 0.045662392 -0.2033814 -0.0041716527 0.13703923 0.050672214 0.084949024
0.15907648 -0.031500988 0.28390843 0.09052076 -0.07924111 -0.033324502 -0.045810796 -0.064027086
-0.17209187 -0.06827068 0.12336253 -0.015062333 -0.1061537 0.12699461 0.13379379 -0.28867018
-0.009051751 -0.04518197 -0.221559 -0.10147563 0.15666509 -0.06702906 -0.15940946 -0.13199034
-0.19959664 0.037589986 -0.11972515 -0.0065083215 -0.034410127 -0.10974064 0.19637756 0.13001204
-0.1560328 0.1930035 -0.12484259 0.17362235 -0.07236306 0.19019912 0.17837806 -0.1404646
-0.14293629 0.054971203 0.24461263 -0.044076096 0.017218865 -0.03668873 -0.10865602 0.010718468
0.08906838 0.0319744 0.22372238 0.10634894 0.05165366 -0.1288688 0.005610757 -0.024555538
0.021265611 0.15221348 -0.0634888 0.005221017 -0.18234426 -0.16984224 -0.15686412 0.21218368
0.003943284 -0.18993701 -0.058750458 0.15925145 -0.1534297 0.15825732 -0.071798384 0.07763258
-0.101752155 -0.30019423 -0.04610062 0.044730768 -0.16682103 -0.12207879 0.04051455 0.087998055
0.13812485 0.039542135 0.08369637 -0.23780794 0.22151534 -0.116927825 -0.0896803 -0.12261319
-0.08460245 -0.061833993 -0.15386543 -0.039743528 0.04183322 -0.2335275 0.21312247 0.008395173
-0.06431906 0.08155685 -0.075805426 -0.10432218 -0.04180856 -0.008881484 -0.11378028 -0.09665519
-0.0971511 0.078127466 -0.109189086 -0.04805381 -0.13389677 -0.09555525 -0.06919772 -0.0020067256
-0.09983386 -0.035425223 -0.09017802 -0.0065053385 -0.06763342 0.04553785 0.0015267071 -0.11735265
0.02676877 0.0024674449 -0.21024819 0.12374311 -0.084500305 -0.16561967 0.06234414 0.01965047
0.023486879 -0.15092014 -0.19496398 -0.070201576 0.013399186 0.085761085 0.07872425 0.024049891
0.25862604 -0.025606245 0.015750013 0.15614855 -0.009657173 0.0033876412 0.029807832 -0.17099841
-0.032419898 -0.029002188 0.14875676 0.12726904 0.29804236 0.22798112 -0.21736568 0.11448869
0.1334051 0.0284033 0.15238887 0.019850064 -0.06530645 0.024920365 0.094558395 0.030525602
0.060493536 0.04742807 0.06583704 0.03516939 -0.017844135 0.055857044 0.07234263 0.2241125
0.015530308 -0.00055556867 0.11462998 -0.19839823 -0.04858304 0.06745633 -0.32426214 -0.24468157
0.06977985 0.038876887 -0.09735243 0.058241256 0.11936211 0.07167877 0.104609184 -0.20709002
-0.008433371 0.26796603 0.039227318 0.14420031 -0.19392219 0.27852038 0.03950473 -0.25787407
0.038344894 0.0722342 -0.18921088 0.066811904 0.16324295 0.13046159 0.05248661 -0.006995566
-0.16416183 0.007578273 -0.041735373 -0.0031777318 -0.042849287 0.22146985 0.15093817 0.02723269
00000000: 6838 bf3c f9fc 2fbe f3b9 843d 7a44 273e
00000010: d3e8 29ba ba78 a1bc c3a6 843e 6936 3a3e
00000020: a10d 893e 688b 56bd 4dfc 753d 14e6 023d
00000030: 1f7c ea3d 6c64 22be 8037 02be 36fa 13bd
00000040: 6893 643d 87de 03bd 6ec7 0b3e 65be 2c3e
00000050: efcb 403c 18a7 8ebc cc04 63bd b6da ca3d
00000060: b860 ab3d 5f26 47be 3c33 063c 459e 693e
00000070: 25f7 84bd b613 6d3d 632a 03bd 5944 803d
00000080: 4fe4 27be fc06 733d d063 353e 7e8f 3a3e
00000090: 6917 0ebe fc55 b7bd 313e 153e cc76 ec3c
000000a0: 3388 0d3d ea42 043e 7d08 3b3d 3743 50be
000000b0: 5cb2 88bb 0354 0c3e ab8d 4f3d c1f9 ad3d
000000c0: f2e4 223e 2e07 01bd 725c 913e f362 b93d
000000d0: 2a49 a2bd 467f 08bd 1aa4 3bbd a220 83bd
000000e0: da38 30be 80d1 8bbd 7ea5 fc3d 01c8 76bc
000000f0: 1c67 d9bd e00a 023e 3d01 093e 94cc 93be
00000100: cc4d 14bc bb10 39bd 5de0 62be 75d2 cfbd
00000110: d06c 203e 8846 89bd 3c3c 23be 7a28 07be
00000120: 1063 4cbe f5f7 193d 7632 f5bd c243 d5bb
00000130: a2f1 0cbd b3bf e0bd 3317 493e e021 053e
00000140: 10c7 1fbe b6a2 453e 79ad ffbd 0fca 313e
00000150: 1633 94bd 8fc3 423e bda8 363e f4d5 0fbe
00000160: e45d 12be 7c29 613d bc7b 7a3e 2389 34bd
00000170: 940e 8d3c ec46 16bd 0c87 debd 839c 2f3c
00000180: 7c69 b63d 97f7 023d 7b17 653e 79cd d93d
00000190: ca92 533d 2ff6 03be 71da b73b b228 c9bc
000001a0: 3835 ae3c dadd 1b3e 6a06 82bd 1115 ab3b
000001b0: 74b8 3abe 20eb 2dbe fda0 20be ae46 593e
000001c0: aa36 813b d97e 42be 52a4 70bd d012 233e
000001d0: ad1c 1dbe 350e 223e 080b 93bd d5fd 9e3d
000001e0: 6f63 d0bd 0fb3 99be 01d4 3cbd 9c37 373d
000001f0: 22d3 2abe 7204 fabd 96f2 253d 5338 b43d
00000200: 9a70 0d3e eff6 213d 0169 ab3d ed83 73be
00000210: ebd4 623e db77 efbd 4eaa b7bd a01c fbbd
00000220: 0d44 adbd a445 7dbd e68e 1dbe 1cca 22bd
00000230: 4f59 2b3d d521 6fbe c73c 5a3e e88b 093c
00000240: b6b9 83bd 4707 a73d e03f 9bbd dea6 d5bd
00000250: 743f 2bbd a583 11bc a305 e9bd 28f3 c5bd
00000260: 28f7 c6bd 4b01 a03d 879e dfbd 12d4 44bd
00000270: 3c1c 09be 79b2 c3bd 89b7 8dbd 4583 03bb
00000280: b275 ccbd 0a1a 11bd 41af b8bd bc2a d5bb
00000290: 6483 8abd e685 3a3d ca1b c83a 9656 f0bd
000002a0: 2e4a db3c dbb4 213b 4d4b 57be 076d fd3d
000002b0: 7f0e adbd 3498 29be 925c 7f3d 06fa a03c
000002c0: 8e67 c03c cf8a 1abe a3a4 47be d8c5 8fbd
000002d0: 4288 5b3c 82a3 af3d 2e3a a13d 4704 c53c
000002e0: a26a 843e 30c4 d1bc 2c06 813c 68e5 1f3e
000002f0: 1f39 1ebc 3003 5e3b 8e2f f43c 351a 2fbe
00000300: baca 04bd ff95 edbc b153 183e d152 023e
00000310: 0299 983e e273 693e 1c95 5ebe 0c79 ea3d
00000320: 599b 083e 0aae e83c d40b 1c3e 9a9c a23c
00000330: 63bf 85bd cb25 cc3c d5a7 c13d d410 fa3c
00000340: 12c8 773d f043 423d 92d5 863d c70d 103d
00000350: dd2d 92bc 5bca 643d 5f28 943d bf7d 653e
00000360: d572 7e3c 95a3 11ba 1fc3 ea3d e828 4bbe
00000370: 02ff 46bd 8b26 8a3d b005 a6be ce8d 7abe
00000380: bde8 8e3d 5f3d 1f3d b660 c7bd 628e 6e3d
00000390: 1f74 f43d 52cc 923d 573d d63d 680f 54be
000003a0: 1f2c 0abc d832 893e d3ac 203d 3fa9 133e
000003b0: 8a93 46be 399a 8e3e b6cf 213d 1208 84be
000003c0: 890f 1d3d 86ef 933d 7fc0 41be aed4 883d
000003d0: 2929 273e b997 053e 33fc 563d 103b e5bb
000003e0: 0a1a 28be 2953 f83b b6f2 2abd 7e41 50bb
000003f0: bc82 2fbd fec8 623e 898f 1a3e 1717 df3c

backBone.1.conv2.bias f4 [8]
5.435564e-05 -6.274625e-05 0.00012911795 4.209374e-05 -8.162417e-05 -9.670796e-05 0.00011455303 -3.0645348e-05
00000000: edfb 6338 a396 83b8 d663 0739 cf8d 3038
00000010: a52d abb8 b1cf cab8 313c f038 3189 00b8

backBone.1.bn2.weight f4 [8]
1.0404782 0.9318907 0.5068874 0.73859805 0.8397679 0.7664738 0.69732577 0.8016507
00000000: 642e 853f 6490 6e3f 5fc3 013f c314 3d3f
00000010: 07fb 563f a137 443f f183 323f fb38 4d3f

backBone.1.bn2.bias f4 [8]
0.25142324 0.25174314 0.32811645 0.36495772 0.18905258 0.38107345 0.053546477 0.6192661
00000000: 8cba 803e 7ae4 803e e1fe a73e bddb ba3e
00000010: 0097 413e 0f1c c33e 8d53 5b3d 3988 1e3f

backBone.1.bn2.running_mean f4 [8]
0.45748517 -0.33643675 0.06725271 -0.1820485 0.20178796 -0.27312568 0.18131456 -0.5867844
00000000: 7f3b ea3e 7041 acbe cabb 893d ec6a 3abe
00000010: 81a1 4e3e 21d7 8bbe 86aa 393e 8137 16bf

backBone.1.bn2.running_var f4 [8]
0.4447959 0.41125435 0.38836077 0.38203755 0.6905365 0.50159645 0.5605662 1.0983711
00000000: 4abc e33e ee8f d23e 39d7 c63e 6d9a c33e
00000010: 00c7 303f a068 003f 4481 0f3f 6d97 8c3f

policyHead.0.weight f4 [6, 8, 3, 3]
0.044394378 -0.09217965 0.0637267 0.073744714 -0.066410534 -0.117730066 0.093703605 0.023152819
0.058229167 -0.042657033 -0.043476906 0.05614275 0.025401158 -0.11496549 -0.09504794 0.041102502
-0.0708094 -0.055527646 -0.053961784 -0.013440573 -0.05985965 -0.115175456 0.17326243 -0.0821514
-0.017931025 0.21594584 0.05411366 0.012108173 -0.03409503 0.055789314 -0.12960926 0.06708331
0.011554951 0.0071205855 -0.08619044 -0.0476902 0.02487617 0.10904806 0.048614472 0.058149107
0.22452958 -0.053371627 -0.06373954 0.054535866 0.01155448 0.09243833 -0.10856653 0.10610189
0.11805936 0.2750147 -0.023231367 -0.02964196 -0.096805625 -0.046713185 0.12690341 -0.09086635
0.060659923 0.041580603 0.17333269 0.05522743 -0.042170916 0.19968125 -0.09403133 0.02514509
-0.03637321 0.042297926 -0.0377933 0.2495153 -0.08331273 -0.082819484 0.00842033 0.05391061
-0.06604946 -0.1330079 -0.07106196 0.03529342 -0.008734663 0.081040256 -0.027458068 0.0003727202
-0.045196626 0.0509767 0.03142102 0.09549664 0.08899583 -0.081910156 0.058789976 -0.013073291
0.028065544 -0.03366338 -0.20084958 -0.07354161 -0.1304344 0.45500565 -0.04260345 0.1150853
0.0020037687 -0.122078784 -0.05833495 -0.029410595 -0.023518287 -0.062289555 0.029011339 0.06731393
0.08688018 -0.033766363 0.033339016 0.059190802 -0.061516576 0.12107408 -0.04859548 -0.10276288
0.10888705 -0.07150115 0.059266344 -0.10427467 -0.01816791 -0.042601038 0.07239864 -0.016764741
-0.03411313 -0.06718976 0.03606534 -0.14338662 -0.0020986842 -0.041559786 -0.06204745 0.23087066
-0.036977 -0.09796571 0.13408162 0.10405648 -0.018203346 0.15973543 0.012355545 -0.009703745
0.22730225 -0.024722088 -0.037580486 -0.092910424 -0.037563983 0.068505295 0.0801067 0.021904528
0.03728877 -0.008748855 0.029139085 0.08088911 0.022673994 0.040686704 0.11711073 -0.013595201
0.0041774902 0.016486118 -0.04848903 0.011450684 0.054604545 -0.059861798 -0.08318627 -0.053899538
-0.0508398 0.027586583 -0.032152355 -0.1409958 0.007391728 -0.009204127 0.24583249 -0.17692642
-0.14379278 -0.1405325 -0.0023047088 -0.059415743 0.12920003 -0.015117658 0.023906074 -0.058609724
0.09050426 -0.0024071317 0.15354526 -0.11712269 -0.09768631 -0.0714769 0.060371954 -0.008086271
-0.13557187 0.119580396 0.09464207 0.22994877 -0.031073619 -0.07928483 -0.10320731 -0.0064801034
0.05486445 -0.08925435 0.044391077 -0.008469111 0.09841032 0.067761496 0.08790155 0.2274483
0.0006190918 0.14682561 0.082597494 -0.09021513 -0.1342136 -0.048752416 -0.007414047 0.021566667
-0.019535828 -0.048616227 0.0732398 -0.03957734 0.01896316 -0.07132158 0.01563089 0.15355964
-0.0016501645 -0.08482741 0.03944016 -0.076599464 -0.07685815 0.011591579 -0.03366472 -0.035484087
0.010032607 0.017106427 -0.028833402 0.049425855 -0.037036102 -0.047675267 0.064932436 0.0046933894
-0.11338294 -0.07802937 0.00042289146 -0.10763248 -0.10723298 -0.13764761 -0.035537545 0.060582653
-0.08030293 0.06977101 -0.050049905 0.063122466 0.07459408 0.024593785 0.009263811 0.12636569
-0.003246163 0.006755457 -0.18629289 -0.020498525 -0.043854345 0.013225552 0.086417876 0.28093368
00000000: e1d6 353d afc8 bcbd 2583 823d 7807 973d
00000010: 3f02 88bd 761c f1bd ade7 bf3d fbaa bd3c
00000020: b581 6e3d 24b9 2ebd d714 32bd f1f5 653d
00000030: 1716 d03c 0773 ebbd 7fa8 c2bd 195b 283d
00000040: 8504 91bd f570 63bd 0807 5dbd d935 5cbc
00000050: 642f 75bd 1ce1 ebbd b56b 313e fe3e a8bd
00000060: 16e4 92bc e820 5d3e 49a6 5d3d 5c61 463c
00000070: 3ba7 0bbd 5683 643d 4ab8 04be f962 893d
00000080: fa50 3d3c cd53 e93b 9d84 b0bd cd56 43bd
00000090: 1cc9 cb3c 9754 df3d f81f 473d c22d 6e3d
000000a0: 15eb 653e 359c 5abd e089 82bd 0061 5f3d
000000b0: 004f 3d3c 4f50 bd3d 2158 debd f34b d93d
000000c0: 1bc9 f13d bace 8c3e b54f bebc b2d3 f2bc
000000d0: 0742 c6bd 5356 3fbd f8f2 013e 2318 babd
000000e0: 8a76 783d 6c50 2a3d 207e 313e 2836 623d
000000f0: 69bb 2cbd 3e79 4c3e 7f93 c0bd 13fd cd3c
00000100: 13fc 14bd 9740 2d3d 26cd 1abd f080 7f3e
00000110: dd9f aabd 439d a9bd 6cf5 093c 5fd1 5c3d
00000120: f044 87bd 3933 08be ef88 91bd d58f 103d
00000130: d51b 0fbc 6ff8 a53d beef e0bc a969 c339
00000140: 1920 39bd f2cc 503d 54b3 003d be93 c33d
00000150: 7243 b63d 83c0 a7bd c2cd 703d 5b31 56bc
00000160: b6e9 e53c 9de2 09bd 83ab 4dbe fc9c 96bd
00000170: 9890 05be 80f6 e83e f580 2ebd d7b1 eb3d
00000180: a951 033b 7104 fabd a1f0 6ebd 7dee f0bc
00000190: 6ca9 c0bc 5523 7fbd 30a9 ed3c e3db 893d
000001a0: 3cee b13d 994e 0abd 7e8e 083d 0e72 723d
000001b0: cef8 7bbd b0f5 f73d 0e0c 47bd 5875 d2bd
000001c0: 2c00 df3d 326f 92bd 44c1 723d f58d d5bd
000001d0: ded4 94bc 6d7e 2ebd bd45 943d 3656 89bc
000001e0: 36ba 0bbd c99a 89bd 40b9 133d f1d3 12be
000001f0: 148a 09bb 983a 2abd 7825 7ebd 5c69 6c3e
00000200: 3275 17bd 3fa2 c8bd b14c 093e 901b d53d
00000210: 2f1f 95bc af91 233e e96e 4a3c 75fc 1ebc
00000220: ecc1 683e fa85 cabc ffed 19bd d247 bebd
00000230: b1dc 19bd 814c 8c3d fb0e a43d 2071 b33c
00000240: 1cbc 183d 5c57 0fbc 17b5 ee3c 31a9 a53d
00000250: d0be b93c 1aa7 263d c0d7 ef3d 68be 5ebc
00000260: 54e3 883b e50d 873c 6f9c 46bd a69b 3b3c
00000270: 04a9 5f3d a531 75bd 905d aabd c3c5 5cbd
00000280: 653d 50bd 42fd e13c 30b2 03bd 3461 10be
00000290: 4f36 f23b e8cc 16bc 83bb 7b3e 332c 35be
000002a0: 6a3e 13be c0e7 0fbe 990a 17bb ec5d 73bd
000002b0: 034d 043e 0eb0 77bc acd6 c33c c010 70bd
000002c0: 4c5a b93d f8c0 1dbb f83a 1d3e 05de efbd
000002d0: c30f c8bd 7b62 92bd 9548 773d 477c 04bc
000002e0: 5ad3 0abe 91e6 f43d b4d3 c13d b177 6b3e
000002f0: 1a8e febc 1660 a2bd 5b5e d3bd 0c57 d4bb
00000300: 8cb9 603d fcca b6bd 6bd3 353d 07c2 0abc
00000310: 5a8b c93d 8ac6 8a3d ba05 b43d 35e8 683e
00000320: 8c4a 223a 7459 163e e028 a93d b6c2 b8bd
00000330: 4a6f 09be 9db0 47bd 89f1 f2bb 94ac b03c
00000340: 9a09 a0bc cf21 47bd c0fe 953d d91b 22bd
00000350: a158 9b3c 0c11 92bd 5a0c 803c bd3e 1d3e
00000360: 554a d8ba feb9 adbd 018c 213d 2ee0 9cbd
00000370: ce67 9dbd 9bea 3d3c 04e4 09bd c357 11bd
00000380: ce5f 243c c722 8c3c 0734 ecbc c472 4a3d
00000390: 2bb3 17bd 2447 43bd 4cfb 843d 01cb 993b
000003a0: 5135 e8bd ddcd 9fbd 88b7 dd39 6b6e dcbd
000003b0: f79c dbbd 7ff3 0cbe d18f 11bd 8425 783d
000003c0: dd75 a4bd 1ae4 8e3d 2101 4dbd 5a46 813d
000003d0: c8c4 983d e878 c93c 3dc7 173c 0266 013e
000003e0: 94bd 54bb e15c dd3b 90c3 3ebe 86ec a7bc
000003f0: 9da0 33bd fcaf 583c dbfb b03d 8ad6 8f3e

policyHead.0.bias f4 [6]
-5.1375577e-05 -5.2172214e-05 4.08481e-05 2.5110676e-05 3.5661506e-05 4.72439e-05
00000000: 1b7c 57b8 7dd3 5ab8 5054 2b38 c4a4 d237
00000010: 4093 1538 c027 4638

policyHead.1.weight f4 [6]
1.797622 1.9934553 1.852994 1.7306335 1.854306 1.7839177
00000000: 7a18 e63f 8b29 ff3f e82e ed3f 6685 dd3f
00000010: e659 ed3f 6a57 e43f

policyHead.1.bias f4 [6]
0.7311002 0.4039029 0.5052139 0.5028082 0.4103989 0.46578607
00000000: 6229 3b3f 5ccc ce3e b355 013f 0ab8 003f
00000010: ce1f d23e 837b ee3e

policyHead.1.running_mean f4 [6]
1.3741703 0.44480538 0.37519476 0.60523695 0.6977258 -0.083982974
00000000: d0e4 af3f 88bd e33e 8719 c03e cff0 1a3f
00000010: 289e 323f 44ff abbd

policyHead.1.running_var f4 [6]
1.1622938 0.8747785 0.88381183 0.85356456 1.0637928 0.91196394
00000000: 0bc6 943f 7cf1 5f3f 7e41 623f 3583 5a3f
00000010: 5d2a 883f 7876 693f

policyHead.4.weight f4 [81, 486]
0.29332772 -0.12687509 0.27395713 0.0866214 -0.036244884 0.021935003 -0.019136759 0.06865434
0.0054745926 0.223756 0.1282538 -0.15164523 0.029109456 -0.0007425154 0.0037681449 -0.021584086
0.06236036 -0.036627732 -0.18479519 0.29228586 -0.045392 -0.01013812 -0.041299626 0.00910602
-0.017196778 0.02810871 -0.0027732893 0.17503667 -0.1378426 0.017051881 0.030370798 0.0025756694
-0.01982386 0.034986563 -0.018382316 -0.06836906 0.043422632 -0.027208067 -0.029041056 -0.012098332
-0.025003456 -0.04520781 0.032828975 -0.019817688 -0.016648537 0.047908157 0.047886018 -0.03338473
0.014985071 -0.028209865 -0.005381666 -0.00033296377 -0.03302284 -0.021916192 0.049594864 -0.003436551
-0.013288796 -0.004275073 0.050240703 0.0066191 0.05253247 -0.0451477 0.006468264 0.021031968
0.04060637 0.014581084 -0.032956984 0.020485613 -0.0058148205 0.03258378 -0.010708133 -0.008553852
0.025312826 0.08079298 0.042013142 0.044639 0.013126283 0.021799564 0.010028814 -0.0041764295
0.0057959394 0.39765796 -0.08492109 -0.016712895 0.034973603 0.06691957 -0.039910547 -0.023409404
0.1038268 0.029219646 -0.09116746 -0.22990188 0.2580545 -0.008337441 -0.017239189 0.002693053
-0.013390165 0.027685497 0.032742 0.08576447 0.010040294 -0.02363829 -0.0029778383 -0.025194827
-0.020312304 -0.009477632 0.029021306 0.030303461 0.093548484 0.07723796 -0.040981606 0.012034254
0.08292913 0.0058703455 -0.015051097 0.027733041 -0.012086109 -0.037130285 -0.08012436 0.014345011
0.057489462 -0.006105487 -0.0006351646 0.038245205 0.030386364 -0.005534792 -0.033038102 -0.025219698
0.011261293 0.0068850196 0.035376176 -0.004082903 -0.038720418 0.030578747 0.012860328 0.028503852
0.0375913 -0.0071525243 -0.027068973 -0.016201302 0.031925056 -0.0025964708 0.010509335 0.038304947
-0.036339108 -0.025683323 -0.018657958 0.026866715 -0.043589506 0.023857139 -0.0048571485 0.0047955434
0.03719189 -0.00486237 -0.01944946 0.017649703 -0.01385773 0.015547588 -0.019063173 -0.00828577
0.05251034 0.022962412 -0.38132605 -0.077568665 -0.0068927645 -0.02313343 0.06984149 0.07836908
0.014364827 -0.04470708 -0.007455213 0.1758455 0.050702836 0.010717806 -0.097797625 -0.043788604
-0.020067424 0.0079866955 0.029014455 0.007987969 0.051689535 -0.0684207 0.053123012 0.01543118
-0.05794992 -0.0034358199 -0.0040412894 -0.015744304 -0.047218144 -0.018377544 -0.06290012 -0.018221585
-0.058030985 0.0032310167 -0.002596003 0.015519062 -0.011675444 0.031533923 -0.038075916 0.011401091
-0.046562344 0.00033805208 0.025715591 0.01935999 0.06490259 0.0043985774 0.069775164 0.047385953
-0.02988764 -0.022846503 -0.0077314433 0.0077494932 -0.024980713 0.037130456 0.06340828 -0.05527021
0.048798606 0.04183981 -0.05147412 -0.034078278 -0.03159241 -0.01096763 0.017520614 -0.02688711
-0.056477547 -0.0068613174 -0.020453498 -0.0047371956 -0.069215 0.022373524 -0.01389451 -0.04586952
-0.03774308 0.042251714 0.015030595 0.017838387 -0.0076342872 0.013458798 -0.027930865 0.018058423
-0.0059051877 -0.006864546 -0.008834944 0.15861416 0.27413005 -0.08453638 0.10075187 0.023954025
-0.021981087 -0.037354633 -0.024057074 -0.06759889 0.07212122 -0.14865986 -0.010453385 -0.035656977
00000000: 0d2f 963e 8beb 01be 1c44 8c3e 9066 b13d
00000010: 8475 14bd 09b1 b33c b1c4 9cbc a69a 8c3d
00000020: 3664 b33b 4b20 653e f754 033e e348 1bbe
00000030: f476 ee3c 5da5 42ba fbf2 763b 1cd1 b0bc
00000040: 946d 7f3d f606 16bd f33a 3dbe 7ea6 953e
00000050: f6ec 39bd 5b1a 26bc cc29 29bd 6b31 153c
00000060: 42e0 8cbc 3d44 e63c 13c0 35bb d03c 333e
00000070: 9c26 0dbe 63b0 8b3c 2ecc f83c 90cc 283b
00000080: a665 a2bc 124e 0f3d 8396 96bc 1405 8cbd
00000090: eedb 313d 74e3 debc 82e7 edbc 1538 46bc
000000a0: 0cd4 ccbc d32b 39bd ad77 063d b458 a2bc
000000b0: 8362 88bc 583b 443d 2124 443d 6dbe 08bd
000000c0: f183 753c 6018 e7bc b058 b0bb a491 aeb9
000000d0: f542 07bd 9689 b3bc fc23 4b3d c237 61bb
000000e0: 40b9 59bc e915 8cbb 32c9 4d3d 09e5 d83b
000000f0: 4a2c 573d cbec 38bd bbf3 d33b 3c4b ac3c
00000100: dd52 263d 80e5 6e3c e7fd 06bd 72d1 a73c
00000110: 408a bebb 9276 053d 2a71 2fbc 7525 0cbc
00000120: d85c cf3c ca76 a53d f915 2c3d 62d7 363d
00000130: 9f0f 573c 0095 b23c e54f 243c 6eda 88bb
00000140: ddeb bd3b d399 cb3e 1ceb adbd 7be9 88bc
00000150: 7b40 0f3d 210d 893d 3e79 23bd 14c5 bfbc
00000160: 25a3 d43d 0a5e ef3c 01b6 babd 666b 6bbe
00000170: b81f 843e c399 08bc 3339 8dbc ef7d 303b
00000180: 6c62 5bbc b2cc e23c 7a1c 063d 48a5 af3d
00000190: 0c80 243c 16a5 c1bc d627 43bb 6265 cebc
000001a0: fd65 a6bc 1248 1bbc 17be ed3c f73e f83c
000001b0: 5996 bf3d f02e 9e3d 54dc 27bd 522b 453c
000001c0: bfd6 a93d 075c c03b e098 76bc 6730 e33c
000001d0: d104 46bc ed15 18bd 3e18 a4bd 5607 6b3c
000001e0: 127a 6b3d 8910 c8bb 2d81 26ba 01a7 1c3d
000001f0: d3ec f83c 335d b5bb f652 07bd 8a99 cebc
00000200: 4981 383c bb9b e13b 9ce6 103d dfc9 85bb
00000210: 4d99 1ebd 4880 fa3c 20b4 523c e980 e93c
00000220: 56f9 193d b95f eabb c0bf ddbc 98b8 84bc
00000230: d9c3 023d 8d29 2abb 592f 2c3c a6e5 1c3d
00000240: 51d8 14bd d565 d2bc 93d8 98bc 9617 dc3c
00000250: e98a 32bd 0c70 c33c b728 9fbb ef23 9d3b
00000260: 8656 183d 8454 9fbb 7954 9fbc 1c96 903c
00000270: 880b 63bc 4fbb 7e3c 5f2a 9cbc 0ac1 07bc
00000280: 1515 573d ab1b bc3c 2b3d c3be 52dc 9ebd
00000290: b3dc e1bb 5282 bdbc 0e09 8f3d f87f a03d
000002a0: 745a 6b3c c51e 37bd dc4a f4bb d810 343e
000002b0: c7ad 4f3d bd99 2f3c 1f4a c8bd ae5b 33bd
000002c0: 7064 a4bc a1da 023c b9af ed3c f8df 023c
000002d0: 68b8 533d 2720 8cbd 8497 593d 0fd3 7c3c
000002e0: e55c 6dbd 7e2b 61bb cb6c 84bb 33fa 80bc
000002f0: d067 41bd 818c 96bc c7d1 80bd 6f45 95bc
00000300: e6b1 6dbd 77bf 533b b421 2abb aa43 7e3c
00000310: 5d4a 3fbc b729 013d 7ef5 1bbd a4cb 3a3c
00000320: 28b8 3ebd 953c b139 81a9 d23c d798 9e3c
00000330: a6eb 843d f121 903b 48e6 8e3d c617 423d
00000340: edd6 f4bc 9728 bbbc 0c58 fdbb 76ef fd3b
00000350: 5aa4 ccbc 1b16 183d 33dc 813d 0463 62bd
00000360: 0ce1 473d 3860 2b3d 87d6 52bd aa95 0bbd
00000370: 0b67 01bd 93b1 33bc 6487 8f3c 5b42 dcbc
00000380: 0055 67bd e7d4 e0bb 188e a7bc 7a3a 9bbb
00000390: 98c0 8dbd ae48 b73c cda5 63bc aee1 3bbd
000003a0: 7d98 1abd 2210 2d3d e242 763c cf21 923c
000003b0: 0b29 fabb 4a82 5c3c 45cf e4bc 42ef 933c
000003c0: 4e80 c1bb fcef e0bb 71c0 10bc c06b 223e
000003d0: c65a 8c3e 6921 adbd ff56 ce3d 3b3b c43c
000003e0: ae11 b4bc 2c01 19bd 5713 c5bc 4971 8abd
000003f0: 4ab4 933d 4a3a 18be ad44 2bbc 0d0d 12bd
