gameserver_django/game/static/models/AZ-11-05-24-EIPC51-A/model_quantized.onnx (onnx, 369312 bytes, 25 tensors)

policyHead.4.bias f4 [81]
00000000: 0f83 d3bb f24a 02bd d583 c63c b566 15bd
00000010: 94e0 cc3b 0433 f33c 135f e43a 821f 8abd
00000020: 7b20 2b3d de57 97bd ffd8 aa3c 1e6e 2a3d
00000030: cf97 52bc c344 c3bc d4e5 bf3b ef67 7bbd
00000040: e2bc 3ebc 8208 12bd 8357 41bc 64e6 afbc
00000050: 33f3 fcbc 893b 323d 63aa 963c 123a ae3c
00000060: 1e57 13bd 6ab4 a6bc 8254 51bd cdb5 7cbd
00000070: 4b4a 8bbc 1cbe 8e3d 1f6d 5bbd b416 183d
00000080: e744 e83b edf5 253b 17fb 07bd 376d 92bb
00000090: 6108 8abd ea79 313c a12e dc3c e208 5dbc
000000a0: 327d 5d3d 192c 7a3c f23b c53c 1a5b 263b
000000b0: 852d bfba 5f93 45bc 853c 4d3c 3427 1a3c
000000c0: 91e1 bc3b 4425 9cbc 8f35 8dbb daab 133c
000000d0: d253 a03c 1ba9 063d 4f41 b73c 2fbf 34bc
000000e0: e67c 05bb b613 a13c fcbe 303c d343 82bd
000000f0: ea6f 553d f494 983b e48b 1dbc a4dd a83c
00000100: 88f7 2fbd 6c5f fa3c c483 15bd aebf 4c3d
00000110: 0601 a43d b425 aebc 6907 9abc 7a8c e0bc
00000120: 7f4e 2fbd 6674 56bc f74f 99bd 3cb9 5a3d
00000130: eb15 10bd 19d9 d0bc 91d9 9bbc 6e63 82bd
00000140: 6a23 08bd
-0.0064548324 -0.031809755 0.024232784 -0.036474902 0.0062523577 0.029687412 0.0017423354 -0.06744291
0.041779023 -0.07389806 0.020855425 0.041608922 -0.012853577 -0.0238365 0.005856255 -0.061378416
-0.011641713 -0.035652645 -0.01180065 -0.021472163 -0.030877685 0.04351381 0.018391794 0.021267924
-0.035971753 -0.0203497 -0.051105984 -0.061696816 -0.0170032 0.06969854 -0.053570863 0.037131026
0.007088292 0.0025323585 -0.033198442 -0.004468586 -0.067398794 0.010832289 0.026877703 -0.013490887
0.054074474 0.015269303 0.024076436 0.002538389 -0.001458571 -0.012059062 0.012526636 0.009408761
0.0057641943 -0.019060738 -0.004309363 0.009013141 0.019571219 0.032876115 0.022370009 -0.01103191
-0.0020368635 0.01966272 0.010787722 -0.06360593 0.052108683 0.0046564285 -0.009615872 0.020613499
-0.042960674 0.030563079 -0.036502615 0.049987487 0.08008008 -0.021258213 -0.018802362 -0.027410734
-0.04279947 -0.013089275 -0.07485955 0.05339931 -0.035177153 -0.025494145 -0.019024642 -0.06366621
-0.0332369

onnx::Conv_126 f4 [64]
00000000: 519a 033e 09d2 113e add2 403e 882b a23e
00000010: 67cd b93e e935 b33c c85f ca3e b33f 2b3e
00000020: b2c6 cd3d f3c9 a13e aabb f8be 83be 453e
00000030: 3c52 853e bc16 01bf 9020 b53e 3eea c43d
00000040: 296f 373f a734 863e 22bc f83e dc8b 3abe
00000050: 1a5e 72be a48e 7a3d 36bd 0e3f c42c fd3d
00000060: 2045 c23e 5b37 403e 4110 31be d4a5 abbc
00000070: 7d53 d6bd e523 b33e 2e80 293e c3dd 023f
00000080: f9ef f5bc e9e0 a73e 22d2 2c3f b7bc 01be
00000090: dc01 c83e 668b 6e3d f062 1b3e a436 e73e
000000a0: 5f4c aebd fb36 45be 74a6 0bbf 58a0 2abc
000000b0: 7230 f23e d2c9 8b3b c024 d33e 32f3 6c3e
000000c0: d82d 153f bda1 6fbe c950 913e 8003 29bf
000000d0: e0b9 b13e 2c0e e1bc 9f0d da3e f8df 11be
000000e0: b0ef fe3d efd3 b33d f5cf 7e3e f9d5 a43d
000000f0: e881 c13d d4a8 993e 8302 cdbd 7293 903d
0.12851836 0.14240278 0.18830366 0.31673837 0.36289522 0.021876292 0.395262 0.16723518
0.10047664 0.31599388 -0.48580676 0.19310956 0.26039302 -0.50425315 0.35376406 0.09614991
0.7165399 0.26212046 0.48581034 -0.18217415 -0.2366871 0.06117119 0.5575746 0.12362054
0.37943363 0.18771116 -0.17291357 -0.020953096 -0.10465143 0.34988323 0.16552803 0.5111963
-0.030021654 0.3278878 0.6750814 -0.12669645 0.3906392 0.05823841 0.1517446 0.45158875
-0.085106604 -0.19259255 -0.5455086 -0.0104142055 0.47302586 0.004266002 0.41238976 0.23139647
0.58273077 -0.23401542 0.28381947 -0.66020966 0.34712124 -0.027472578 0.42588517 -0.14245594
0.124480605 0.087806575 0.24884017 0.080486245 0.09448606 0.30011618 -0.10010245 0.07059373

onnx::Conv_129 f4 [64]
00000000: 7045 673d b6f4 843e fbbf aa3f f44d 2e3f
00000010: e076 c03c 91f1 a4be 9526 683e bae3 be3f
00000020: 22b2 66be 497f 4d3f b360 a83e 25ed d43e
00000030: ac05 c73e 43ee 813f 9ad1 be3e 7bbe 5f3f
00000040: 725d 963f f042 93bd f659 11bf f739 b83f
00000050: 00b9 c13e 49a6 173f 442d 313f a450 a73d
00000060: add7 13be 5d5d b43f 4332 913f 7bda 233f
00000070: fb3f 7c3f 7a2b 663e 8da2 1dbf daa0 d43e
00000080: 19f2 633e 90df 433d 104b dd3e 9454 213f
00000090: 8a1e f33d 4a5e d63e 3dae 8dbd 5f38 8bbe
000000a0: 58af 23bc 5db6 2f3f c624 c9be 73ea 3f3f
000000b0: d463 b33e 7263 0c3e 5227 073f 585d 81bd
000000c0: c9d5 9e3f 8aca 003e 9c9a aebe 1bba 8e3e
000000d0: 0382 49bf cbb3 523f 6a8c eebe 5741 383f
000000e0: b005 d9bb c3aa 83bf 4ebb 7d3f b10d 23bf
000000f0: a094 50bf 3b4a 433f f6c7 0fbf 3582 483f
0.056462705 0.2596795 1.3339838 0.680877 0.023494184 -0.3221555 0.22670968 1.4913247
-0.2252889 0.80272347 0.32886276 0.41587177 0.38871515 1.0150837 0.37269288 0.87400025
1.1747267 -0.07190502 -0.56777894 1.439269 0.37836456 0.59238106 0.69209695 0.08169678
-0.14437743 1.4090992 1.1343464 0.6400525 0.98535126 0.22477522 -0.6157616 0.4152897
0.22260322 0.047820628 0.4322133 0.6301968 0.11871059 0.41868812 -0.06917999 -0.27191445
-0.009990536 0.6863764 -0.39285868 0.74967116 0.350371 0.1370981 0.52794373 -0.06316632
1.2408992 0.12577263 -0.34102333 0.27876362 -0.7871401 0.8230559 -0.46591502 0.719747
-0.0066229925 -1.0286487 0.9911393 -0.63692766 -0.81476784 0.7628514 -0.5616449 0.7832368

onnx::Conv_132 f4 [64]
00000000: f9e2 0d3f 49c4 f63e 0c59 873f 9506 463f
00000010: 6ca7 2f3f 2ae0 50be eaf6 e43e 65ad a73f
00000020: 2218 5e3f 2934 993f 1447 773f 93e7 413e
00000030: 0a4d 363f 8bb6 d73f 3fa8 3abe 4afe a33e
00000040: 1b09 df3e 7cf7 c23c bc68 8abc 803c 9c3f
00000050: 8aeb 173f 6100 00bf 9b7e d43e 4438 263f
00000060: b842 dc3e c87a f3bb 8855 de3d 6ca2 bc3f
00000070: 8540 733f 4356 6c3f be7b 1ebd c8b3 0e3c
00000080: cabc 563f 162a 6e3c 0809 2e3d 76f3 b3be
00000090: 8669 fb3d 7858 a73c 1d79 b23e 4ed6 0d3f
000000a0: 3d9f 1e3f d9ca 52be d141 453f b952 c53f
000000b0: 6d34 eabe f4d7 2fbd bd89 893f 53e6 823d
000000c0: a126 e7be b98c 1f3f 1e5d ee3f f77b 7c3f
000000d0: b932 44be 9d84 9d3e e0a6 293f 1490 803f
000000e0: 1330 553f 7bb6 9c3f 6808 0c3f b488 633f
000000f0: 17a7 9bbe bdd7 76bd 66dd 173f 1478 21be
0.5542446 0.4819663 1.057405 0.77353793 0.6861484 -0.20398012 0.4471963 1.3099791
0.86755574 1.1969043 0.9659283 0.18935995 0.712113 1.6852583 -0.18228243 0.32029945
0.43561634 0.02379965 -0.016895644 1.2205963 0.5934378 -0.5000058 0.41502842 0.64929605
0.43019652 -0.007430408 0.108561575 1.4737067 0.95020324 0.92319125 -0.03869223 0.008709855
0.8388182 0.014536401 0.04248908 -0.35146683 0.122759864 0.020427927 0.34858027 0.5540513
0.6196173 -0.20585193 0.7705355 1.541587 -0.45743123 -0.04293056 1.0745159 0.06391587
-0.4514666 0.623241 1.8622167 0.98626655 -0.19159974 0.30765238 0.66270256 1.0043969
0.8327648 1.2243189 0.54700327 0.8888047 -0.30400917 -0.060264338 0.593222 -0.15768462

onnx::Conv_135 f4 [64]
00000000: 8d73 2d3d 0c1a 4cbe 1a02 f3be 75a1 06bf
00000010: 5e6b ad3e 7731 203f a083 973f 7fad e43e
00000020: 2155 72be fe47 39bf a4e3 10bf 1bb4 403f
00000030: 68d7 543e d420 913f a56f 1d3f 30c4 6e3e
00000040: 1741 0d3f 98fc 123f a3cc 0dbd a4f8 e1be
00000050: d4f4 b73e ecd5 423f c913 4e3f 6060 5e3f
00000060: a556 a63e b31b 533e 5e4c 923e e371 a33f
00000070: 41d8 523f 5a72 9d3d 57d4 0e3f 5e6e b63e
00000080: c4a3 8c3f fec2 b23e 11b2 b13e 865f 373e
00000090: 2ff3 5abf 0014 1abf 984e 5f3f c301 853f
000000a0: edc2 a53f 287f 933e ebf0 ba3f b43e 943e
000000b0: 0080 523c 5c00 863f 96ee f33e fec0 58be
000000c0: 8f07 4d3f 367a 63bf d242 b03f c27d 1e3f
000000d0: eea9 c93d 0f8c a93f e07d 193d 61f0 babe
000000e0: b1d7 523f 0f23 983f 370f c33f bec6 143f
000000f0: c635 ae3e 8728 803f 9501 c33d 5ee0 bfbe
0.042346526 -0.19931811 -0.4746254 -0.52590114 0.33870977 0.6257548 1.1837044 0.44663617
-0.23665287 -0.72375476 -0.5659735 0.7527482 0.20785296 1.1338143 0.6149848 0.23317027
0.55177444 0.5741668 -0.034618985 -0.4413501 0.35928977 0.7610767 0.8049894 0.86865807
0.3248798 0.20616035 0.2857389 1.276913 0.8236123 0.076878265 0.55792755 0.35631078
1.0987477 0.34914392 0.34706166 0.17907533 -0.8552732 -0.6018677 0.872293 1.0391163
1.2950112 0.2880795 1.4604772 0.2895409 0.0128479 1.046886 0.47642964 -0.2116737
0.8008966 -0.88858354 1.3770392 0.6191064 0.09846865 1.3245867 0.03747356 -0.3651152
0.8236037 1.1885699 1.5239018 0.58115757 0.340254 1.0012368 0.09521786 -0.37475866

onnx::Conv_138 f4 [64]
00000000: 42c0 983e 3d42 743f 8300 c93e 5d51 f73e
00000010: fdcf be3e 3f42 243f 7ec5 943e 754c 7f3e
00000020: 315c ea3e af3f 863f b73c d23e 00c6 dabd
00000030: 3510 2bbf b85a a13e 4e95 283f 1872 e33e
00000040: 18dd 8c3d 06e9 5b3e d9ac ca3e b2bc 1d3f
00000050: ebdd 2f3f 7481 173f 0e32 9c3d 62fa 44be
00000060: d033 aabd 476b 863f a05d 4bbe 4f27 a43e
00000070: ea78 f03e fe9a 933e 8bd7 15be e8a4 87bd
00000080: 4f69 013f 3e08 03be e537 3b3f 2054 ea3c
00000090: 4504 563e d1d7 b0bf 43d2 7a3e 6f00 b43e
000000a0: bf2a 873f 460c 46bf 1fe3 583f 9101 a23f
000000b0: 7a87 323f d66a 0e3f fa87 173f 6cc8 073f
000000c0: e5e4 d03e 29a6 1ebf bf83 243f 1138 103f
000000d0: 9d70 113f d268 f93d b159 663f 3b38 1bbe
000000e0: c6b3 993e a7e5 ab3f d282 233e 746d 073e
000000f0: 962d d53e f27c ef3d c4f6 e13e da66 bf3e
0.2983418 0.9541357 0.39258203 0.48304263 0.37268057 0.64163584 0.29056925 0.2493151
0.4577346 1.0488185 0.41061947 -0.10682297 -0.66821605 0.31514525 0.6585282 0.44422984
0.06878108 0.2147561 0.39584997 0.6161605 0.68697995 0.59181905 0.07626735 -0.19236138
-0.08310664 1.0501488 -0.19859934 0.3206124 0.4696725 0.28829187 -0.14633004 -0.0662325
0.50551313 -0.12796113 0.73132163 0.028604567 0.20900066 -1.3815862 0.24494271 0.3515658
1.055992 -0.7736248 0.8472156 1.2656728 0.6973797 0.5563177 0.5919186 0.53040195
0.40799633 -0.6197229 0.6426353 0.5633555 0.5681246 0.12178196 0.8998061 -0.15158169
0.3001997 1.3429459 0.15967873 0.13225347 0.41636342 0.11693753 0.4413358 0.37383157

onnx::Conv_141 f4 [64]
00000000: be5a 89bd 7cff 78be fb2c ac3f 9981 7e3e
00000010: 33fe 783f 5b9b b63f cdb6 3d3f 7567 a6be
00000020: 6688 2f3f d2e0 913f 2a5d 523e fb0d 693f
00000030: 779a 163f d53f 42bf 1d17 7e3f f861 32bf
00000040: f8b0 0ebf 61db b43f a885 403f c309 a43f
00000050: 6acc c53f f6de 8e3f fed9 7d3f 3fd2 363f
00000060: 68cb 443f 507c a93e 525a 243e 3284 1fbf
00000070: 2d4f 453f fb98 e83e 4b4c 5b3f 4472 e03e
00000080: 1ab5 5dbe b6d5 913f 7961 103f a862 5d3f
00000090: d437 0a3e 975f e4be 0228 e7be 9dd6 2b3f
000000a0: 52f2 333e df83 32bf c4ba c93e 49ae 773f
000000b0: b870 793f ca93 1fbf adb3 543e 99f2 f6be
000000c0: a4e0 933e 47c4 103f a8f1 c03f 9371 093e
000000d0: 159d 583f db85 a73e 7400 5f3f 5958 923e
000000e0: 8e3c c03d 936d 6bbf d2f5 c03f 5249 5ebd
000000f0: 41b4 bd3e 2cc7 fa3e f2ef 6ebf 488c 583f
-0.06706761 -0.2431621 1.3451227 0.24854125 0.9726288 1.4266161 0.74107057 -0.32500806
0.685675 1.1396735 0.20543352 0.9103696 0.58829445 -0.7587865 0.9925402 -0.6968074
-0.5573878 1.4129449 0.75203943 1.2815479 1.5453007 1.1161792 0.99160755 0.7141456
0.76872873 0.33102655 0.1605008 -0.6231109 0.7707394 0.45429215 0.8566329 0.43837178
-0.21651116 1.1393344 0.5639873 0.8647866 0.13497859 -0.4460418 -0.4514771 0.6712435
0.17572907 -0.6973247 0.39400303 0.96750313 0.9743762 -0.62334883 0.20771666 -0.48231962
0.28882325 0.56549495 1.5073748 0.13422231 0.8461469 0.3271931 0.87110066 0.2858303
0.0938655 -0.9196407 1.5075018 -0.054269142 0.37051585 0.4898008 -0.9333488 0.8458905

onnx::Conv_144 f4 [64]
00000000: a8a0 07be 76ea 743f c2e0 5a3f f139 e63e
00000010: 92eb 62be 55f2 cfbe 32bb c33e d128 663f
00000020: f634 403f e7e7 e1be d16c 103f 544f 9abd
00000030: af32 283f a826 d2be 4c05 8bbd 3bcc 5a3f
00000040: c0c9 c3bc dae7 6fbe 9171 733e e257 413f
00000050: 046c 723f dd08 6cbe a939 b7be fbe7 2d3f
00000060: 59e9 f63e cfc2 fb3e ea98 efbe 5227 953f
00000070: 4a9d f23d 9a65 173e 89c8 1d3f 14ce 0fbf
00000080: efe4 583f 4eed 8cbe 63e6 3abe fd37 61bf
00000090: 8034 6fbe 2ed3 753e e8f0 163f 737f 433f
000000a0: 9651 a33f 5dd0 ba3f a31e 383f 74df 29bd
000000b0: 9753 293f 9c1d 213f 5372 c83e 1c68 c33e
000000c0: c8d5 783f b8eb 533e 3b21 2dbf beef 343f
000000d0: dfc4 0e3e dad7 bb3f 5027 ac3c 0c1f 873f
000000e0: 934c d8be 3183 163f 247c 203e 81a8 b53d
000000f0: 4934 253f 66a0 66bf 0303 25bf 0492 49bf
-0.13244879 0.9567026 0.85499203 0.4496608 -0.22160175 -0.40614572 0.38228756 0.8990603
0.7508081 -0.4412224 0.5641604 -0.07534662 0.6570234 -0.41045117 -0.0678812 0.8546788
-0.023899913 -0.23428288 0.23773791 0.75524724 0.9469607 -0.23050256 -0.3578618 0.679321
0.48224905 0.49172065 -0.46796352 1.1652625 0.11846407 0.14784852 0.6163412 -0.56173825
0.84724325 -0.275248 -0.18251948 -0.87976056 -0.23359871 0.2400634 0.58961344 0.7636635
1.2759273 1.4594837 0.7192175 -0.041472867 0.6614317 0.62935805 0.39149722 0.38165367
0.97201204 0.20695388 -0.6762883 0.7067832 0.13942288 1.4675248 0.02101484 1.055635
-0.42245921 0.5879393 0.15672356 0.0887003 0.64532906 -0.900885 -0.6445772 -0.7873843

onnx::Conv_147 f4 [64]
00000000: 57c6 203f 343e 7f3e 3f7a fabe aa07 113f
00000010: c2d0 e73e ac58 fc3e c0c9 b4bd ec51 a7bd
00000020: a8cf 573f c4a9 413f fef7 943e fd06 3f3f
00000030: 3b15 b13f a8bf 66bf f90c f63c 30d0 3a3f
00000040: 629e c13e deba bdbe 09de 41be 3899 d2bd
00000050: c36a 6e3f f898 1bbf ac79 1a3f da42 2d3e
00000060: effa 04bf 3166 abbd 837c 51bf de2c 1e3f
00000070: 0d30 07bf fd75 833f 8b9d f63e def5 643d
00000080: a87a 2d3f 2c14 febe a465 bb3f eebb ff3d
00000090: 7940 ac3d b6ae ea3e 9386 a23f f6d8 403f
000000a0: d281 953f 7d5e 853f 9995 8b3e afec a93d
000000b0: 9b7d 903e a990 283f 1511 9b3e 18fb 1a3e
000000c0: 786a 2b3f 3376 81be cafc 833f ecf5 2e3e
000000d0: ec2c 553f e5ea 673f 5fce bc3e 3aba cbbe
000000e0: 8bb4 b33e 9ed6 103f df2e 983d 866e fdbc
000000f0: fa34 733f 58f3 adbe 6f28 2e3f 4fb1 183f
0.6280264 0.24926072 -0.4892139 0.5665232 0.45276457 0.492864 -0.08827543 -0.08169922
0.84301233 0.75649667 0.29095453 0.7462004 1.3834604 -0.90136194 0.030035483 0.7297392
0.3781615 -0.3705663 -0.18932356 -0.102831304 0.93131655 -0.60780287 0.60341907 0.16920033
-0.51945394 -0.08369101 -0.81830615 0.6178721 -0.52807695 1.0270382 0.4816707 0.05589854
0.67765284 -0.49624765 1.4640393 0.124870166 0.08410735 0.4583642 1.2697319 0.75331056
1.1680243 1.041946 0.2726257 0.08297097 0.2822083 0.65845734 0.3028647 0.15134847
0.66959333 -0.2528549 1.031152 0.17085999 0.8327167 0.90592796 0.368762 -0.39790517
0.3509868 0.5657748 0.07430815 -0.03093649 0.9500271 -0.3397472 0.68030447 0.5964555

onnx::Conv_150 f4 [64]
00000000: 7efc 3bbf bdad f5be 0a6d 463e cd1f db3e
00000010: 5451 b5be ab2e 823f 02dd 19be c010 2cbd
00000020: fae9 233e aafa 8dbe 045b 723e 76d8 243f
00000030: 3c8a 113f 8d42 6bbe 809f f738 0676 343f
00000040: 409b 04bf e3ac 3e3f 0d77 c33e 37e2 c0be
00000050: df7f 253f 69bc 853e 3cef 7fbf 0a20 44bf
00000060: 5de7 03bf 9cb7 e2bc 7d70 1bbf e8be 8f3e
00000070: 5503 493f f0a8 e5be cbd7 a83e f339 dd3e
00000080: 8a58 453f d1a4 093f b535 0f3e bc30 003e
00000090: 743b 1abe 7e25 36bd 80b8 153f 3b26 083e
000000a0: 68a5 d7bd a42f 3e3f 9083 b13f 28bd cc3c
000000b0: e211 b93e ae77 b73e 10fe 503f 7972 b53e
000000c0: 604d 603f de36 0cbe a4d8 2dbf e846 69be
000000d0: a9a8 1bbf 1e06 e63d 61ef 5cbf 6091 4fbe
000000e0: 81d0 64be bb43 e13e 1381 963f ca40 673e
000000f0: 9c0d 253e 7f27 21bf 366f 7d3e cb5b a9be
-0.7343215 -0.47984114 0.19377533 0.427977 -0.3541361 1.0170492 -0.15025714 -0.04200816
0.16007224 -0.27730304 0.23667532 0.64392793 0.56851554 -0.22974606 0.00011807587 0.7049259
-0.5179939 0.74482554 0.38176766 -0.37672588 0.6464824 0.26120308 -0.9997442 -0.7661139
-0.5152491 -0.027675442 -0.6071852 0.28075337 0.7852071 -0.44855452 0.32977137 0.43208274
0.77088225 0.53767115 0.13985331 0.1251859 -0.15061742 -0.04446935 0.5848465 0.13295834
-0.105295956 0.74291444 1.3868275 0.02499254 0.36146456 0.35833496 0.8163767 0.35438898
0.87618065 -0.13692805 -0.6790869 -0.22780955 -0.6080423 0.112316355 -0.86302763 -0.202703
-0.22345163 0.43996987 1.175814 0.22583309 0.16118473 -0.6295089 0.24749455 -0.33077845

onnx::Conv_153 f4 [6]
00000000: 3248 773f 1cb6 8f3e 02dc 5b3e 75c8 043f
00000010: 10c2 8f3d 1c27 253f
0.96594536 0.28068626 0.21470645 0.51868373 0.07019436 0.645128

onnx::Conv_156 f4 [3]
00000000: 4591 f0be 477b cabe 6bcb 4e3c
-0.46985832 -0.39547178 0.012621741

onnx::Conv_125_quantized u1 [64, 4, 3, 3]
00000000: aea1 a270 5174 7891 a37c 7dad b155 5bdd
00000010: 8091 bca6 a75c 53a3 6e62 6c82 6c6f 4d96
00000020: ac9a c169 91c1 b8a4 aa8c c579 59a8 355e
00000030: 7258 9345 6894 a678 7c67 3841 5066 aba8
00000040: e184 a1cb 70b5 7bd6 5e62 896b 8ba9 6263
00000050: 91a1 c2c1 9ebd a062 7f4f b7ae 4563 ad53
00000060: 66d5 b1ae 91c2 55a4 5f95 2e97 5858 8998
00000070: 9998 6c4c 909a 7bd3 a375 d35d 7880 9082
00000080: 6165 8a95 8fbc 9942 7650 af58 a46c 5194
00000090: 9a99 4d83 9ca1 95a6 8174 c19c 6c73 c292
000000a0: 7959 5a91 c33b 686a 557f 7bba c966 7692
000000b0: 675f 8ec2 825c 47ba a8b6 7d61 5e59 b97e
000000c0: 6ab1 74b6 6086 92b2 8bb6 aa7b aa98 6944
000000d0: 5092 6c62 3cc6 3d9c 65aa 7478 b28b 4d7a
000000e0: 5b8a 5d75 7a6e 52c9 7f6a 9fbd b66b 5b58
000000f0: 6069 9da3 3fa2 cb86 90b4 e2ac a075 65a0
174 161 162 112 81 116 120 145
163 124 125 173 177 85 91 221
128 145 188 166 167 92 83 163
110 98 108 130 108 111 77 150
172 154 193 105 145 193 184 164
170 140 197 121 89 168 53 94
114 88 147 69 104 148 166 120
124 103 56 65 80 102 171 168
225 132 161 203 112 181 123 214
94 98 137 107 139 169 98 99
145 161 194 193 158 189 160 98
127 79 183 174 69 99 173 83
102 213 177 174 145 194 85 164
95 149 46 151 88 88 137 152
153 152 108 76 144 154 123 211
163 117 211 93 120 128 144 130
97 101 138 149 143 188 153 66
118 80 175 88 164 108 81 148
154 153 77 131 156 161 149 166
129 116 193 156 108 115 194 146
121 89 90 145 195 59 104 106
85 127 123 186 201 102 118 146
103 95 142 194 130 92 71 186
168 182 125 97 94 89 185 126
106 177 116 182 96 134 146 178
139 182 170 123 170 152 105 68
80 146 108 98 60 198 61 156
101 170 116 120 178 139 77 122
91 138 93 117 122 110 82 201
127 106 159 189 182 107 91 88
96 105 157 163 63 162 203 134
144 180 226 172 160 117 101 160

onnx::Conv_128_quantized u1 [64, 64, 3, 3]
00000000: 7e8e 9a88 7689 a261 7287 9184 939f 4f4e
00000010: 8192 94b2 bb68 db85 7aa4 786b 9d7c 807e
00000020: d264 a87f 4978 aa56 6c7e 816d d676 7370
00000030: 5991 7662 5c81 a26c b1a4 4d22 7049 5454
00000040: 806e 893b 6b9d 6e0d a86d b174 7856 6473
00000050: c599 6092 7299 5b7b 6e5b 854e 6855 7084
00000060: 6a7b 8033 7d85 9b89 658c 79c2 8786 8791
00000070: 7159 7650 90bb 7a68 567e 5886 7b55 9670
00000080: 578b 8b63 7166 88b1 627c 619d 7b4d 647b
00000090: 8984 b49d 987d 7c90 4c78 58a7 81a0 6683
000000a0: 6f60 4f59 c48c 6273 5ebb 8d91 9ba2 6c5a
000000b0: 4486 a355 6997 6f69 737b 9e46 7c53 884b
000000c0: 9888 c291 8d86 9466 8acb 9955 5343 419f
000000d0: 7375 7b79 7d79 4077 99b9 897d cca4 a376
000000e0: 667d 68ae 6db3 837c 7293 7b87 6975 c069
000000f0: 7b46 8c92 8659 76c5 c0c8 6971 7f5c a459
126 142 154 136 118 137 162 97
114 135 145 132 147 159 79 78
129 146 148 178 187 104 219 133
122 164 120 107 157 124 128 126
210 100 168 127 73 120 170 86
108 126 129 109 214 118 115 112
89 145 118 98 92 129 162 108
177 164 77 34 112 73 84 84
128 110 137 59 107 157 110 13
168 109 177 116 120 86 100 115
197 153 96 146 114 153 91 123
110 91 133 78 104 85 112 132
106 123 128 51 125 133 155 137
101 140 121 194 135 134 135 145
113 89 118 80 144 187 122 104
86 126 88 134 123 85 150 112
87 139 139 99 113 102 136 177
98 124 97 157 123 77 100 123
137 132 180 157 152 125 124 144
76 120 88 167 129 160 102 131
111 96 79 89 196 140 98 115
94 187 141 145 155 162 108 90
68 134 163 85 105 151 111 105
115 123 158 70 124 83 136 75
152 136 194 145 141 134 148 102
138 203 153 85 83 67 65 159
115 117 123 121 125 121 64 119
153 185 137 125 204 164 163 118
102 125 104 174 109 179 131 124
114 147 123 135 105 117 192 105
123 70 140 146 134 89 118 197
192 200 105 113 127 92 164 89

onnx::Conv_131_quantized u1 [64, 64, 3, 3]
00000000: 97a7 8367 97b9 7d65 704f a435 7852 9d7e
00000010: 5e8b 6b7b 6962 8a84 938f 4ca2 568c 6385
00000020: 6369 3f7a 5d90 b9ac 8e7e 8b5d 8562 7848
00000030: 7f7c ac4d 7991 598c 919c 996e 8173 6f80
00000040: 7797 5a83 c06d 8691 818b b2a6 7d67 9183
00000050: ab78 9e83 7d84 ac73 b651 4f99 7b6e 4689
00000060: 7e8d 8a52 5b40 847d 4690 7457 5f8d a078
00000070: 70a6 5b85 7f8a 4d87 6458 7d86 784f 7289
00000080: 5973 8b89 7352 b75a 5a69 6664 86a9 8348
00000090: a362 5eb2 8da8 a783 6964 a770 7860 916e
000000a0: 6a58 3f51 6155 579e 6a85 6a91 5481 749b
000000b0: aa71 a49d 76b3 7286 9e76 ab9f ae63 7b66
000000c0: 86a4 61a8 a883 903f 8c7a 7e9b 5787 b27b
000000d0: 5f82 9091 b788 b753 aa7a 819e 7455 9564
000000e0: 8f85 75a9 ab78 4c98 956e 8455 5776 6658
000000f0: 5259 848f 8f7c 8d96 555b 675c 9062 7a85
151 167 131 103 151 185 125 101
112 79 164 53 120 82 157 126
94 139 107 123 105 98 138 132
147 143 76 162 86 140 99 133
99 105 63 122 93 144 185 172
142 126 139 93 133 98 120 72
127 124 172 77 121 145 89 140
145 156 153 110 129 115 111 128
119 151 90 131 192 109 134 145
129 139 178 166 125 103 145 131
171 120 158 131 125 132 172 115
182 81 79 153 123 110 70 137
126 141 138 82 91 64 132 125
70 144 116 87 95 141 160 120
112 166 91 133 127 138 77 135
100 88 125 134 120 79 114 137
89 115 139 137 115 82 183 90
90 105 102 100 134 169 131 72
163 98 94 178 141 168 167 131
105 100 167 112 120 96 145 110
106 88 63 81 97 85 87 158
106 133 106 145 84 129 116 155
170 113 164 157 118 179 114 134
158 118 171 159 174 99 123 102
134 164 97 168 168 131 144 63
140 122 126 155 87 135 178 123
95 130 144 145 183 136 183 83
170 122 129 158 116 85 149 100
143 133 117 169 171 120 76 152
149 110 132 85 87 118 102 88
82 89 132 143 143 124 141 150
85 91 103 92 144 98 122 133

onnx::Conv_134_quantized u1 [64, 64, 3, 3]
00000000: 5d6f 7a9a 708e 9461 7f94 7982 8e8f a167
00000010: 6482 9462 68b1 4163 9290 7d9a 9c27 7478
00000020: 928c 8896 77d6 5376 876f af9c a35c 4dad
00000030: 636e 7189 905f 5787 7dac 7486 7037 647a
00000040: 9b68 6045 8895 3ba3 a77f 859f 778c 846f
00000050: 728d 92d5 62b1 5a98 5f9a 9098 7592 649c
00000060: a07f 9174 695f 3591 9775 547f 716b a9b4
00000070: 7d88 9151 96a6 81c1 5377 9466 5ba9 449e
00000080: 8857 8491 9889 9b74 865e b98e 81ab 65b2
00000090: 968f 7463 ab50 7555 8890 7ecc 77b6 6d6a
000000a0: 8ba0 6ea7 75a9 866b 7d63 8da4 889d 5856
000000b0: 8d95 ab7e 9178 9bb1 9d9d 7a8f 6777 7855
000000c0: 73a8 6a75 a5a6 7892 c160 7485 79b4 8459
000000d0: 6389 818f a1ab 6b6c 87a7 c889 c385 8b5d
000000e0: 768b 6d65 5f9e 578b 905a 9cae 87b2 9e8e
000000f0: 8f5e 47a8 9f88 9966 846b bb66 928b 8772
93 111 122 154 112 142 148 97
127 148 121 130 142 143 161 103
100 130 148 98 104 177 65 99
146 144 125 154 156 39 116 120
146 140 136 150 119 214 83 118
135 111 175 156 163 92 77 173
99 110 113 137 144 95 87 135
125 172 116 134 112 55 100 122
155 104 96 69 136 149 59 163
167 127 133 159 119 140 132 111
114 141 146 213 98 177 90 152
95 154 144 152 117 146 100 156
160 127 145 116 105 95 53 145
151 117 84 127 113 107 169 180
125 136 145 81 150 166 129 193
83 119 148 102 91 169 68 158
136 87 132 145 152 137 155 116
134 94 185 142 129 171 101 178
150 143 116 99 171 80 117 85
136 144 126 204 119 182 109 106
139 160 110 167 117 169 134 107
125 99 141 164 136 157 88 86
141 149 171 126 145 120 155 177
157 157 122 143 103 119 120 85
115 168 106 117 165 166 120 146
193 96 116 133 121 180 132 89
99 137 129 143 161 171 107 108
135 167 200 137 195 133 139 93
118 139 109 101 95 158 87 139
144 90 156 174 135 178 158 142
143 94 71 168 159 136 153 102
132 107 187 102 146 139 135 114

onnx::Conv_137_quantized u1 [64, 64, 3, 3]
00000000: 6f66 7d75 7066 8183 7574 7c8a 856f 4064
00000010: 807d be7c 5bc2 3d8e 8b6a 5589 7e72 6b94
00000020: afa5 6654 5b85 7297 8a72 617b 758a ab75
00000030: 71a4 7297 a464 be8f 6579 8c66 796d 8186
00000040: 7cba a290 a0c7 a897 596e 628c 7e8c 8bb7
00000050: 4c91 ada4 a25c 7964 928c 748f 8c7a 88a7
00000060: 5fa9 6c70 6373 9848 779c 80a4 6aab 876c
00000070: 6b57 6e98 946e 8193 7a7c 717b 8182 8c5a
00000080: 78a4 9682 999b 5674 5faf a79e 5e63 8653
00000090: 8285 65a7 777d 767f 6082 7894 945e 888f
000000a0: 708b a988 846f 7d7d 79a7 789e 4973 6ec0
000000b0: 8197 634c b559 7d52 9275 b375 7577 9632
000000c0: 986d 807f 7068 4572 9f72 6982 9067 934a
000000d0: 6785 a099 a7ab 54a7 827f 7170 9a9a 7065
000000e0: 83a0 b49a 8761 7266 6574 777d 59ac 9188
000000f0: 8e81 6976 5f74 ba48 8277 6558 486e 735f
111 102 125 117 112 102 129 131
117 116 124 138 133 111 64 100
128 125 190 124 91 194 61 142
139 106 85 137 126 114 107 148
175 165 102 84 91 133 114 151
138 114 97 123 117 138 171 117
113 164 114 151 164 100 190 143
101 121 140 102 121 109 129 134
124 186 162 144 160 199 168 151
89 110 98 140 126 140 139 183
76 145 173 164 162 92 121 100
146 140 116 143 140 122 136 167
95 169 108 112 99 115 152 72
119 156 128 164 106 171 135 108
107 87 110 152 148 110 129 147
122 124 113 123 129 130 140 90
120 164 150 130 153 155 86 116
95 175 167 158 94 99 134 83
130 133 101 167 119 125 118 127
96 130 120 148 148 94 136 143
112 139 169 136 132 111 125 125
121 167 120 158 73 115 110 192
129 151 99 76 181 89 125 82
146 117 179 117 117 119 150 50
152 109 128 127 112 104 69 114
159 114 105 130 144 103 147 74
103 133 160 153 167 171 84 167
130 127 113 112 154 154 112 101
131 160 180 154 135 97 114 102
101 116 119 125 89 172 145 136
142 129 105 118 95 116 186 72
130 119 101 88 72 110 115 95

onnx::Conv_140_quantized u1 [64, 64, 3, 3]
00000000: c8b1 7a5c 9a99 8685 8251 5cd7 72a4 8591
00000010: 9f4a a164 8dc8 718e 949a a4db 70a1 b5a0
00000020: 5791 7266 8876 6594 9c85 a0de 7d69 8c6f
00000030: b2a7 8ca0 9570 457f c5a8 a1a0 6ca9 997b
00000040: 555a b581 da8b 68b9 637a 718a 9946 7551
00000050: 6a7a 8ac9 7a88 aa8a 894d 9f68 8774 8553
00000060: 89a0 7271 b571 6489 8769 4590 a27f a575
00000070: 814c aa5c 6090 9765 45c6 76b0 4746 885d
00000080: afa6 409a 7885 9b95 92a1 6b8d 768d 944b
00000090: 876e afdb 9485 7eb1 53a4 8a65 c772 9780
000000a0: 725e 7586 c153 6676 9592 7d99 6ec7 a382
000000b0: 917b 8261 b36a a4c6 6e53 8c6f 5d34 8a87
000000c0: 8ba9 8668 8662 868a ad8b 6787 8b6c 9a48
000000d0: db5c 9561 7a68 7b8f ce95 748e 4e7c 6d7f
000000e0: 4765 6788 9582 9684 7f61 8286 565f 7585
000000f0: b69b 787f 7b95 805f 567f 4ba7 9067 847f
200 177 122 92 154 153 134 133
130 81 92 215 114 164 133 145
159 74 161 100 141 200 113 142
148 154 164 219 112 161 181 160
87 145 114 102 136 118 101 148
156 133 160 222 125 105 140 111
178 167 140 160 149 112 69 127
197 168 161 160 108 169 153 123
85 90 181 129 218 139 104 185
99 122 113 138 153 70 117 81
106 122 138 201 122 136 170 138
137 77 159 104 135 116 133 83
137 160 114 113 181 113 100 137
135 105 69 144 162 127 165 117
129 76 170 92 96 144 151 101
69 198 118 176 71 70 136 93
175 166 64 154 120 133 155 149
146 161 107 141 118 141 148 75
135 110 175 219 148 133 126 177
83 164 138 101 199 114 151 128
114 94 117 134 193 83 102 118
149 146 125 153 110 199 163 130
145 123 130 97 179 106 164 198
110 83 140 111 93 52 138 135
139 169 134 104 134 98 134 138
173 139 103 135 139 108 154 72
219 92 149 97 122 104 123 143
206 149 116 142 78 124 109 127
71 101 103 136 149 130 150 132
127 97 130 134 86 95 117 133
182 155 120 127 123 149 128 95
86 127 75 167 144 103 132 127

onnx::Conv_143_quantized u1 [64, 64, 3, 3]
00000000: 7b8f 6c7f 6583 928e 819c 8279 799f 8484
00000010: 8574 6fa2 9c5a a181 61b2 746f 9c6e 9f8b
00000020: 6b68 aca1 a170 6176 7578 747c 6f6d a670
00000030: 986a 906b 9195 a38c ac63 6f6b 697c 7441
00000040: 975a 9896 8a92 8b9e 7488 9a65 6d6b 72b0
00000050: 9a69 8d8b 766c b368 81b7 5f5b 807e 9646
00000060: 75a1 4786 a69a 8e74 8657 7c42 5e9c 975f
00000070: 868a 7e7d 5e89 7e66 8c4a 6e7b 849c 826c
00000080: 696b aaa6 8e96 a87a 9973 9088 ae9c 916f
00000090: 8097 96c4 8c9e af69 6b77 837e 8863 705a
000000a0: 8a6f 9891 9c84 a690 689f 6b99 85a0 9380
000000b0: 9d68 87c3 978a a885 9b9f 8f67 6f8b ba88
000000c0: 5f6a 7984 8c80 91a7 7c94 9f9e 859d 915f
000000d0: 4d58 739b 7a52 8373 8970 909b 798a 6e62
000000e0: 8ea3 a375 778e 91a6 a55c 747c 896a 947b
000000f0: 878e 548b 9683 7b78 67ab 8399 b082 7c90
123 143 108 127 101 131 146 142
129 156 130 121 121 159 132 132
133 116 111 162 156 90 161 129
97 178 116 111 156 110 159 139
107 104 172 161 161 112 97 118
117 120 116 124 111 109 166 112
152 106 144 107 145 149 163 140
172 99 111 107 105 124 116 65
151 90 152 150 138 146 139 158
116 136 154 101 109 107 114 176
154 105 141 139 118 108 179 104
129 183 95 91 128 126 150 70
117 161 71 134 166 154 142 116
134 87 124 66 94 156 151 95
134 138 126 125 94 137 126 102
140 74 110 123 132 156 130 108
105 107 170 166 142 150 168 122
153 115 144 136 174 156 145 111
128 151 150 196 140 158 175 105
107 119 131 126 136 99 112 90
138 111 152 145 156 132 166 144
104 159 107 153 133 160 147 128
157 104 135 195 151 138 168 133
155 159 143 103 111 139 186 136
95 106 121 132 140 128 145 167
124 148 159 158 133 157 145 95
77 88 115 155 122 82 131 115
137 112 144 155 121 138 110 98
142 163 163 117 119 142 145 166
165 92 116 124 137 106 148 123
135 142 84 139 150 131 123 120
103 171 131 153 176 130 124 144

onnx::Conv_146_quantized u1 [64, 64, 3, 3]
00000000: a574 5d3a 7582 62a0 957e 6450 907c 8298
00000010: 7590 5b66 4a3b 7c50 6b53 9583 785b 8872
00000020: 6d73 6086 9564 5f8a 7b6b 8e6c 7a71 8793
00000030: 7ca6 8190 4d63 8a75 6d77 8b8f 9187 5c6e
00000040: 827b 8ea4 8896 9481 865b 9067 7c6e 7c81
00000050: 6c7a 855a 90af 758b 427d 8e79 5e68 57ac
00000060: 5a6c 6598 5a8e 6d9a 946b 4d4a 8e80 3a90
00000070: 8865 8860 5e83 7f8b 5268 9266 6a77 9450
00000080: a37a 798f 5e82 5fbd a14c 7fac 5974 4bab
00000090: 6f81 8a44 6070 3f5c 444d a06b 9e9b 7f64
000000a0: 7152 5673 797d 3288 6097 3b78 9b7b 8a97
000000b0: 5d73 4578 7d8d 924e 9b75 5350 788b 7a5c
000000c0: a551 8f9b 7e4d 837b 8770 b07f 617f 738c
000000d0: 6aab ac74 797c 5e7c 9094 5a80 915c 836a
000000e0: 9c75 887c 829a 7596 4162 567b 584d 658a
000000f0: 636b 3388 7994 7e9a 3c47 9a51 8a6c 837b
165 116 93 58 117 130 98 160
149 126 100 80 144 124 130 152
117 144 91 102 74 59 124 80
107 83 149 131 120 91 136 114
109 115 96 134 149 100 95 138
123 107 142 108 122 113 135 147
124 166 129 144 77 99 138 117
109 119 139 143 145 135 92 110
130 123 142 164 136 150 148 129
134 91 144 103 124 110 124 129
108 122 133 90 144 175 117 139
66 125 142 121 94 104 87 172
90 108 101 152 90 142 109 154
148 107 77 74 142 128 58 144
136 101 136 96 94 131 127 139
82 104 146 102 106 119 148 80
163 122 121 143 94 130 95 189
161 76 127 172 89 116 75 171
111 129 138 68 96 112 63 92
68 77 160 107 158 155 127 100
113 82 86 115 121 125 50 136
96 151 59 120 155 123 138 151
93 115 69 120 125 141 146 78
155 117 83 80 120 139 122 92
165 81 143 155 126 77 131 123
135 112 176 127 97 127 115 140
106 171 172 116 121 124 94 124
144 148 90 128 145 92 131 106
156 117 136 124 130 154 117 150
65 98 86 123 88 77 101 138
99 107 51 136 121 148 126 154
60 71 154 81 138 108 131 123

onnx::Conv_149_quantized u1 [64, 64, 3, 3]
00000000: b57b 76a3 7a70 8f89 8596 7f81 753b 8d91
00000010: a867 79a5 999d 9079 8072 7394 9870 b05d
00000020: 9a6b a391 9a93 8950 9e6a 739a 838e 978f
00000030: a556 b07f 8f52 9061 9265 7c5e 93b2 8296
00000040: 4ebd a790 8263 8e87 9a92 9780 7ba4 85b5
00000050: 6982 8f72 6183 8c6e 7b6a a479 c66c a455
00000060: 7d7b af9c 7f77 4c60 9b86 8d6d 7981 905b
00000070: b39a 5871 965a 8594 a34b 7278 7b96 5f8a
00000080: 846e 4454 8483 7464 7985 ae79 6388 756c
00000090: 7193 6a7e 789f 7186 7a7d 975e c468 8b42
000000a0: 9985 6b93 6894 8db6 5190 8297 b36c 7e8f
000000b0: 9181 a37e 86a3 a868 9b6f 7a65 8aa1 957b
000000c0: 7f94 97b8 6db7 777b 8c80 6a45 8399 9562
000000d0: af76 848f 9769 bda6 7981 6c6c af7d 7f77
000000e0: bb93 5ea0 89a7 6dac 8189 9373 619c a884
000000f0: 886e 98a3 778b 979c a9b4 7292 968d 6f76
181 123 118 163 122 112 143 137
133 150 127 129 117 59 141 145
168 103 121 165 153 157 144 121
128 114 115 148 152 112 176 93
154 107 163 145 154 147 137 80
158 106 115 154 131 142 151 143
165 86 176 127 143 82 144 97
146 101 124 94 147 178 130 150
78 189 167 144 130 99 142 135
154 146 151 128 123 164 133 181
105 130 143 114 97 131 140 110
123 106 164 121 198 108 164 85
125 123 175 156 127 119 76 96
155 134 141 109 121 129 144 91
179 154 88 113 150 90 133 148
163 75 114 120 123 150 95 138
132 110 68 84 132 131 116 100
121 133 174 121 99 136 117 108
113 147 106 126 120 159 113 134
122 125 151 94 196 104 139 66
153 133 107 147 104 148 141 182
81 144 130 151 179 108 126 143
145 129 163 126 134 163 168 104
155 111 122 101 138 161 149 123
127 148 151 184 109 183 119 123
140 128 106 69 131 153 149 98
175 118 132 143 151 105 189 166
121 129 108 108 175 125 127 119
187 147 94 160 137 167 109 172
129 137 147 115 97 156 168 132
136 110 152 163 119 139 151 156
169 180 114 146 150 141 111 118

onnx::Conv_152_quantized u1 [6, 64, 3, 3]
00000000: 7a6b 7380 3459 5a1a 1f72 5c6b 827d 5e43
00000010: 4032 7b45 4f76 6164 6652 6175 6453 5c54
00000020: 7d52 5a40 4368 6a78 6a59 29a5 7b62 5743
00000030: 653f 834c 3f83 4362 8163 5b40 8784 4255
00000040: 6e44 722d 933d 5573 7f7d 456d 7563 832c
00000050: 776c 6f6a 535b 407c 4955 9f5a 238d 897f
00000060: 7741 553a 5063 5952 6c6e 612e 8675 3788
00000070: 3f5b 7789 9767 6871 5f57 6035 5b45 4863
00000080: 6271 9660 4972 6556 5748 408a 4a48 2670
00000090: 7a94 9453 5216 6754 7388 6040 814c 7d6d
000000a0: 6370 2c7a 7e4b 8a50 8a73 655f 3b89 9c1b
000000b0: 7b77 4d4b 5844 4b71 673c 5f15 7d80 5d6f
000000c0: 5247 6484 2341 686b 6341 405e 765d 4249
000000d0: 5325 3170 7e4c 6043 b71d 7a6c 4788 2592
000000e0: 3a77 3c2b 3c9d 3a57 8557 5a38 5f78 8953
000000f0: 9e58 7f8c 684e 4a40 8639 5711 5764 a95e
122 107 115 128 52 89 90 26
31 114 92 107 130 125 94 67
64 50 123 69 79 118 97 100
102 82 97 117 100 83 92 84
125 82 90 64 67 104 106 120
106 89 41 165 123 98 87 67
101 63 131 76 63 131 67 98
129 99 91 64 135 132 66 85
110 68 114 45 147 61 85 115
127 125 69 109 117 99 131 44
119 108 111 106 83 91 64 124
73 85 159 90 35 141 137 127
119 65 85 58 80 99 89 82
108 110 97 46 134 117 55 136
63 91 119 137 151 103 104 113
95 87 96 53 91 69 72 99
98 113 150 96 73 114 101 86
87 72 64 138 74 72 38 112
122 148 148 83 82 22 103 84
115 136 96 64 129 76 125 109
99 112 44 122 126 75 138 80
138 115 101 95 59 137 156 27
123 119 77 75 88 68 75 113
103 60 95 21 125 128 93 111
82 71 100 132 35 65 104 107
99 65 64 94 118 93 66 73
83 37 49 112 126 76 96 67
183 29 122 108 71 136 37 146
58 119 60 43 60 157 58 87
133 87 90 56 95 120 137 83
158 88 127 140 104 78 74 64
134 57 87 17 87 100 169 94

policyHead.4.weight_quantized u1 [486, 81]
00000000: 96b1 8bb9 95a8 919e 94ae 9a97 6aa3 95a8
00000010: 9c8d b589 8a83 a6a5 9898 9da1 6ab5 8a93
00000020: a3a2 a99e 839c 989e 8b85 8e92 a794 b294
00000030: aa97 9ba0 969e a89a a899 aa95 8c86 b995
00000040: 918f 8b8c a490 91a4 9dac 8fb2 a39c ab9a
00000050: b078 9ab4 8acd a3a5 9fa2 c9d0 70a2 8597
00000060: b684 824a 578a 988f 8890 96a2 86b2 78af
00000070: 92b0 a29b 9791 b5a1 849b 8fab 7f93 aba0
00000080: 9c8f 9f9d a37f 8c95 92b5 a38d 96a0 a193
00000090: 8a9c 938f aaab a9a2 9f98 8693 9188 a792
000000a0: a595 82a5 a68c 78b2 98a0 a25f acc1 8dac
000000b0: 9399 9b9f 836a 806d b380 997b a68c 89c1
000000c0: 6687 9592 9cae 94bd a3a2 9b9a a49d 8f9b
000000d0: a898 8a8d a99c 9e8b 9a98 8db3 ada0 9fad
000000e0: b99b 92b1 8cab b5a5 a3a9 a094 8596 9da0
000000f0: a292 9d90 7f98 a79a 9cb5 9899 b845 bcda
150 177 139 185 149 168 145 158
148 174 154 151 106 163 149 168
156 141 181 137 138 131 166 165
152 152 157 161 106 181 138 147
163 162 169 158 131 156 152 158
139 133 142 146 167 148 178 148
170 151 155 160 150 158 168 154
168 153 170 149 140 134 185 149
145 143 139 140 164 144 145 164
157 172 143 178 163 156 171 154
176 120 154 180 138 205 163 165
159 162 201 208 112 162 133 151
182 132 130 74 87 138 152 143
136 144 150 162 134 178 120 175
146 176 162 155 151 145 181 161
132 155 143 171 127 147 171 160
156 143 159 157 163 127 140 149
146 181 163 141 150 160 161 147
138 156 147 143 170 171 169 162
159 152 134 147 145 136 167 146
165 149 130 165 166 140 120 178
152 160 162 95 172 193 141 172
147 153 155 159 131 106 128 109
179 128 153 123 166 140 137 193
102 135 149 146 156 174 148 189
163 162 155 154 164 157 143 155
168 152 138 141 169 156 158 139
154 152 141 179 173 160 159 173
185 155 146 177 140 171 181 165
163 169 160 148 133 150 157 160
162 146 157 144 127 152 167 154
156 181 152 153 184 69 188 218

onnx::Conv_155_quantized u1 [3, 64, 3, 3]
00000000: 4096 31b5 3dba 6485 4fa5 8961 4890 a7a6
00000010: 677c bf9c 5a61 9874 a57c 74ab 635f 6489
00000020: b87d abdc 9746 962b b681 a7ac 8da0 7ba3
00000030: 5a82 9091 14be 9478 8182 925f 8996 b15c
00000040: 969a b28b 908f ea79 8a6b 8a75 c6a8 9291
00000050: 9c82 a07a 6b53 9f69 9865 8149 9b6d a968
00000060: bb71 758e 53bd 4c9e 4e79 759d 5e63 7b8f
00000070: 8a9a 9392 a580 7f5f 7e6c 63c8 a946 557b
00000080: a6b4 7285 a65e b2b8 497e 65ca 4e84 75c7
00000090: 7468 c877 b567 9e83 4d77 d854 af63 9679
000000a0: b8bf 887d c484 ac7b 9089 6b63 926a 9985
000000b0: 7968 a689 8d9a 8f86 887f b15f 4188 61bf
000000c0: 7551 8ea6 8287 c56c 326a 60c9 8169 99bd
000000d0: 9242 455d 66c5 7198 9158 cf78 8f48 6b91
000000e0: 8a7a 7652 5f6c 7c84 a39e 70ad 9594 6589
000000f0: bb46 5399 75a8 8f64 a077 7fb5 4ba8 45be
64 150 49 181 61 186 100 133
79 165 137 97 72 144 167 166
103 124 191 156 90 97 152 116
165 124 116 171 99 95 100 137
184 125 171 220 151 70 150 43
182 129 167 172 141 160 123 163
90 130 144 145 20 190 148 120
129 130 146 95 137 150 177 92
150 154 178 139 144 143 234 121
138 107 138 117 198 168 146 145
156 130 160 122 107 83 159 105
152 101 129 73 155 109 169 104
187 113 117 142 83 189 76 158
78 121 117 157 94 99 123 143
138 154 147 146 165 128 127 95
126 108 99 200 169 70 85 123
166 180 114 133 166 94 178 184
73 126 101 202 78 132 117 199
116 104 200 119 181 103 158 131
77 119 216 84 175 99 150 121
184 191 136 125 196 132 172 123
144 137 107 99 146 106 153 133
121 104 166 137 141 154 143 134
136 127 177 95 65 136 97 191
117 81 142 166 130 135 197 108
50 106 96 201 129 105 153 189
146 66 69 93 102 197 113 152
145 88 207 120 143 72 107 145
138 122 118 82 95 108 124 132
163 158 112 173 149 148 101 137
187 70 83 153 117 168 143 100
160 119 127 181 75 168 69 190

valueHead.4.weight_quantized u1 [243, 1]
00000000: 93b8 56d5 beb2 cfaf 95b4 af67 80bd 617e
00000010: 5cab 9b45 89e1 3380 94b0 6ad3 a446 df34
00000020: 7f95 739b bb7e eb64 9c6b b6bf c258 a930
00000030: e420 dbbd bb70 6cc3 8a27 ff49 3c70 a15a
00000040: bf9e d928 bb86 c44a 9f4e 50a9 bf7f b781
00000050: a958 4844 9ddc cda5 898b 5ec9 469c ad47
00000060: c46d 7b88 55f2 6468 cba5 abbc acb7 4869
00000070: 4c58 b37b 94b2 a0c0 e700 da86 3754 9f62
00000080: 3247 b4a8 44c2 adb0 8b74 c8a6 84af 9fa9
00000090: 9595 a5bc 8d34 8a8b a03a 55ab 9a8e bd39
000000a0: b876 5b5a 6d5b 2b58 4cb4 4d71 8b79 419f
000000b0: 9287 4e63 8f6d 7a51 6f75 5769 9388 4a34
000000c0: abc3 695b 5e93 7759 aa1c 96ab 5344 444b
000000d0: 6c6d 64cf a88e 6e66 9965 8b46 3482 5b8a
000000e0: 9344 863b cc27 579c 565a 6185 a48e 6b29
000000f0: a269 7b
147 184 86 213 190 178 207 175
149 180 175 103 128 189 97 126
92 171 155 69 137 225 51 128
148 176 106 211 164 70 223 52
127 149 115 155 187 126 235 100
156 107 182 191 194 88 169 48
228 32 219 189 187 112 108 195
138 39 255 73 60 112 161 90
191 158 217 40 187 134 196 74
159 78 80 169 191 127 183 129
169 88 72 68 157 220 205 165
137 139 94 201 70 156 173 71
196 109 123 136 85 242 100 104
203 165 171 188 172 183 72 105
76 88 179 123 148 178 160 192
231 0 218 134 55 84 159 98
50 71 180 168 68 194 173 176
139 116 200 166 132 175 159 169
149 149 165 188 141 52 138 139
160 58 85 171 154 142 189 57
184 118 91 90 109 91 43 88
76 180 77 113 139 121 65 159
146 135 78 99 143 109 122 81
111 117 87 105 147 136 74 52
171 195 105 91 94 147 119 89
170 28 150 171 83 68 68 75
108 109 100 207 168 142 110 102
153 101 139 70 52 130 91 138
147 68 134 59 204 39 87 156
86 90 97 133 164 142 107 41
162 105 123
