models/AZ-01-05-24-EIPC51-A/model_quantized.onnx (onnx, 60299 bytes, 17 tensors)

policyHead.4.bias f4 [81]
0	0xbc6c3c32	-0.014418649
1	0x3c164db1	0.0091737965
2	0x3d1218bc	0.03566812
3	0xbc835972	-0.016033862
4	0xbb488a16	-0.0030599884
5	0xbd0be1ad	-0.034150768
6	0x3ca23381	0.01979995
7	0xbc94f495	-0.018183032
8	0xbd3cf5b9	-0.046132777
9	0xbc8d5858	-0.01725404
10	0xbc108694	-0.008821148
11	0x3ce8aa94	0.02840165
12	0xbc102dc5	-0.008799975
13	0xbc6d655e	-0.0144895
14	0xbd1589bf	-0.036508318
15	0x3db0d277	0.08633893
16	0xbb136476	-0.00224903
17	0xbcc92b0c	-0.02455666
18	0x3c8de8a3	0.017322844
19	0x3cbfd3b6	0.023416381
20	0xbb08aa8b	-0.0020853605
21	0xbcf7b9e3	-0.030240005
22	0xbd12d565	-0.03584804
23	0xbd2dce50	-0.042433083
24	0xbcac519b	-0.021035006
25	0x3bb4bc86	0.005515638
26	0xbcb2ae8a	-0.021811742
27	0xbc15d011	-0.009143845
28	0xbc0e0178	-0.008667342
29	0xbc0bc412	-0.0085306335
30	0x3c317664	0.010831449
31	0x3de8f10e	0.113741025
32	0x3d48c90b	0.049019855
33	0xbcbfcccc	-0.023413084
34	0xbbd1bb0f	-0.006400473
35	0x3a77aac5	0.0009447749
36	0xbbdfc7cc	-0.0068292376
37	0x3c1cccbd	0.009570298
38	0xbcffbe27	-0.031218601
39	0xbd51b2ff	-0.051196095
40	0xbc1892f4	-0.00931238
41	0x3c92ca00	0.017918587
42	0x39062c5a	0.00012795758
43	0xbb783c32	-0.0037877676
44	0x3b704815	0.0036664058
45	0x3d019290	0.031633914
46	0x3cc8b340	0.024499536
47	0xbc57f761	-0.013181538
48	0x3e00c2ea	0.12574354
49	0xbc3118f9	-0.010809177
50	0x3b253ed4	0.002521445
51	0x3d1c1cdc	0.03811346
52	0x3c2e829b	0.010651256
53	0xbccc6941	-0.024952533
54	0xbc6f3c9a	-0.014601851
55	0x3c0d5776	0.008626809
56	0x3a9aa5b0	0.0011798646
57	0x3d3aee40	0.04563737
58	0xbc206b1d	-0.009791163
59	0xbc399a28	-0.011328258
60	0x3c84db97	0.01621799
61	0x3cc83a4b	0.024441859
62	0xbce02c85	-0.027364979
63	0x3cce74b1	0.025202127
64	0xbb9af1fe	-0.0047285547
65	0x3cada024	0.021194525
66	0xbcf72224	-0.030167647
67	0xbc03f578	-0.00805413
68	0xbd0e59d2	-0.034753628
69	0xbc834a06	-0.016026508
70	0x3c97851a	0.018496085
71	0xbca2137c	-0.019784681
72	0xbcf6dcfc	-0.03013467
73	0xbcd7a6df	-0.026324688
74	0xbc35821b	-0.011078383
75	0xbc9f458a	-0.019442338
76	0xbbc3f61a	-0.0059802653
77	0x3aced56e	0.001578016
78	0x3c3b9ab6	0.01145046
79	0x3c3038ef	0.0107557615
80	0xbc86944f	-0.01642814

onnx::Conv_84 f4 [8]
0	0xbdb8767c	-0.09006974
1	0xbeb7a66e	-0.35869163
2	0xbe5a434c	-0.21314734
3	0x3ed3a397	0.41335747
4	0x3f1d7475	0.61505824
5	0xbe707200	-0.23480988
6	0x3ed3c3bc	0.4136027
7	0x3f20f876	0.6287912

onnx::Conv_87 f4 [8]
0	0x3f8448f4	1.0334764
1	0x3fb37dc7	1.4022759
2	0x3f6dae89	0.92844445
3	0x3dce36ec	0.10069069
4	0xbf67a8fe	-0.90492237
5	0x3f742206	0.95364416
6	0x3f2f3a74	0.6844857
7	0xbdee1418	-0.11624926

onnx::Conv_90 f4 [8]
0	0xbe997c75	-0.29977766
1	0x3c50c050	0.012741163
2	0xbdc2d6c8	-0.095136225
3	0x3e01dba0	0.12681437
4	0x3f2eb6c9	0.6824766
5	0x3e08442e	0.13307258
6	0xbf2a9f34	-0.66649175
7	0x3fa2f37e	1.2730558

onnx::Conv_93 f4 [8]
0	0x3f911f92	1.133776
1	0xbd3869b7	-0.045022693
2	0x3f0a5ebe	0.54050815
3	0xbfab38b5	-1.3376681
4	0xbd4ef034	-0.050522044
5	0xbf69ed9e	-0.913782
6	0xbf8bdd8a	-1.0926983
7	0xbf562434	-0.8364899

onnx::Conv_96 f4 [8]
0	0xbeeca65e	-0.46220678
1	0x3f3d93eb	0.7405383
2	0x3e8c0ad4	0.2735201
3	0x3f1521c8	0.5825467
4	0xbc74ecf0	-0.014949068
5	0x3f2d3272	0.676551
6	0xbdebf682	-0.11521627
7	0x3f88b6c9	1.0680782

onnx::Conv_99 f4 [6]
0	0xbfc7b6f1	-1.5602704
1	0xbf0b539f	-0.5442447
2	0xbe6fd824	-0.23422295
3	0xbf21810a	-0.63087523
4	0xbf580c2d	-0.8439358
5	0x3f1f6d00	0.62275696

onnx::Conv_102 f4 [3]
0	0x3f8e9c2c	1.114141
1	0x3dd338a2	0.10313536
2	0x3f6f5202	0.9348451

onnx::Conv_83_quantized u1 [8, 4, 3, 3]
0	0x7b	123
1	0x86	134
2	0x7c	124
3	0x76	118
4	0x7b	123
5	0x82	130
6	0x76	118
7	0x64	100
8	0x87	135
9	0xcf	207
10	0xab	171
11	0x7a	122
12	0x8c	140
13	0x7c	124
14	0x65	101
15	0x90	144
16	0x74	116
17	0x8b	139
18	0xa6	166
19	0x9a	154
20	0x61	97
21	0x81	129
22	0x8c	140
23	0x67	103
24	0x88	136
25	0xaf	175
26	0x83	131
27	0x49	73
28	0x33	51
29	0x9d	157
30	0x92	146
31	0xb8	184
32	0x5a	90
33	0x6a	106
34	0x6f	111
35	0x91	145
36	0x81	129
37	0x92	146
38	0x89	137
39	0x85	133
40	0x8e	142
41	0x8c	140
42	0x89	137
43	0x7f	127
44	0x85	133
45	0x6f	111
46	0x79	121
47	0x55	85
48	0x59	89
49	0x6f	111
50	0x63	99
51	0x6c	108
52	0x58	88
53	0x59	89
54	0x71	113
55	0x64	100
56	0x65	101
57	0x77	119
58	0x9b	155
59	0x84	132
60	0x9c	156
61	0xb3	179
62	0x60	96
63	0x70	112
64	0xaf	175
65	0x9b	155
66	0xc1	193
67	0x75	117
68	0xb7	183
69	0x97	151
70	0xcd	205
71	0x65	101
72	0x77	119
73	0x75	117
74	0x84	132
75	0x74	116
76	0x82	130
77	0x85	133
78	0x77	119
79	0x87	135
80	0x84	132
81	0x88	136
82	0x80	128
83	0x6b	107
84	0x82	130
85	0x76	118
86	0x7e	126
87	0x81	129
88	0x70	112
89	0x56	86
90	0x75	117
91	0x96	150
92	0xc3	195
93	0x9e	158
94	0x71	113
95	0x33	51
96	0xbd	189
97	0x5d	93
98	0xa2	162
99	0x6e	110
100	0x8c	140
101	0x86	134
102	0xbd	189
103	0x97	151
104	0x7d	125
105	0x8c	140
106	0x97	151
107	0xa0	160
108	0x8a	138
109	0x77	119
110	0x7a	122
111	0x7d	125
112	0x84	132
113	0x6f	111
114	0x85	133
115	0x82	130
116	0x7b	123
117	0x91	145
118	0x7f	127
119	0x77	119
120	0x8b	139
121	0x97	151
122	0x94	148
123	0xa0	160
124	0x72	114
125	0x64	100
126	0x81	129
127	0x6c	108
128	0x40	64
129	0x82	130
130	0x66	102
131	0x9d	157
132	0x7e	126
133	0x84	132
134	0x9a	154
135	0x9c	156
136	0x3a	58
137	0x88	136
138	0x43	67
139	0x6e	110
140	0x93	147
141	0x6a	106
142	0xcc	204
143	0x6a	106
144	0x80	128
145	0x88	136
146	0x79	121
147	0x87	135
148	0x8f	143
149	0x86	134
150	0x88	136
151	0x80	128
152	0x7a	122
153	0x5e	94
154	0x63	99
155	0x76	118
156	0x74	116
157	0x53	83
158	0x75	117
159	0x74	116
160	0x86	134
161	0x7b	123
162	0x8a	138
163	0x8c	140
164	0xb3	179
165	0x80	128
166	0x00	0
167	0x9d	157
168	0x2e	46
169	0x8f	143
170	0x86	134
171	0x7e	126
172	0xc9	201
173	0x1c	28
174	0xff	255
175	0x79	121
176	0xdd	221
177	0x5e	94
178	0xe1	225
179	0x3e	62
180	0x78	120
181	0x7e	126
182	0x82	130
183	0x7d	125
184	0x7b	123
185	0x72	114
186	0x7d	125
187	0x72	114
188	0x7b	123
189	0x8d	141
190	0x5e	94
191	0xa8	168
192	0x76	118
193	0xa7	167
194	0x9a	154
195	0xb8	184
196	0x6d	109
197	0x9b	155
198	0x93	147
199	0xa0	160
200	0xb0	176
201	0x87	135
202	0x8e	142
203	0xa1	161
204	0x6b	107
205	0x8b	139
206	0x8d	141
207	0x7b	123
208	0x6d	109
209	0x60	96
210	0xad	173
211	0xa9	169
212	0x47	71
213	0x55	85
214	0x87	135
215	0x7e	126
216	0x74	116
217	0x86	134
218	0x83	131
219	0x8a	138
220	0x7b	123
221	0x76	118
222	0x86	134
223	0x82	130
224	0x93	147
225	0x5d	93
226	0x6f	111
227	0x7b	123
228	0x52	82
229	0x8e	142
230	0x6b	107
231	0x77	119
232	0x67	103
233	0x6e	110
234	0xbe	190
235	0x53	83
236	0xbe	190
237	0x9c	156
238	0x52	82
239	0x5d	93
240	0x8d	141
241	0x71	113
242	0x3a	58
243	0x9c	156
244	0x64	100
245	0xc3	195
246	0x52	82
247	0x91	145
248	0x87	135
249	0xb5	181
250	0x8e	142
251	0x8a	138
252	0x75	117
253	0x6c	108
254	0x83	131
255	0x69	105

onnx::Conv_86_quantized u1 [8, 8, 3, 3]
0	0x57	87
1	0x7c	124
2	0x75	117
3	0xa1	161
4	0x80	128
5	0x42	66
6	0x4f	79
7	0x93	147
8	0x80	128
9	0xa6	166
10	0x5d	93
11	0xe7	231
12	0x64	100
13	0xff	255
14	0xcb	203
15	0x81	129
16	0x6f	111
17	0x8f	143
18	0xa8	168
19	0xb4	180
20	0x8e	142
21	0x4c	76
22	0x64	100
23	0x4c	76
24	0xb8	184
25	0x97	151
26	0x86	134
27	0x75	117
28	0x51	81
29	0x8a	138
30	0x6f	111
31	0x56	86
32	0x6e	110
33	0x4a	74
34	0x4a	74
35	0x45	69
36	0x74	116
37	0xae	174
38	0x71	113
39	0x76	118
40	0x53	83
41	0x70	112
42	0xdc	220
43	0x46	70
44	0x80	128
45	0x9f	159
46	0xb2	178
47	0x86	134
48	0xcc	204
49	0x9a	154
50	0x8c	140
51	0x45	69
52	0x89	137
53	0xba	186
54	0x7e	126
55	0x68	104
56	0x6e	110
57	0x33	51
58	0x43	67
59	0x8d	141
60	0x6c	108
61	0x96	150
62	0x56	86
63	0x70	112
64	0x76	118
65	0xa3	163
66	0xae	174
67	0x8e	142
68	0xc0	192
69	0x56	86
70	0x77	119
71	0x73	115
72	0xa3	163
73	0x64	100
74	0x85	133
75	0x8d	141
76	0xb4	180
77	0x5b	91
78	0x9f	159
79	0x76	118
80	0x79	121
81	0x83	131
82	0x6c	108
83	0x46	70
84	0x58	88
85	0x96	150
86	0xa6	166
87	0xa5	165
88	0x7c	124
89	0x80	128
90	0x57	87
91	0x8a	138
92	0x81	129
93	0x62	98
94	0xb7	183
95	0xa8	168
96	0x8f	143
97	0x4e	78
98	0x7c	124
99	0x87	135
100	0x4e	78
101	0x91	145
102	0x77	119
103	0x74	116
104	0xb6	182
105	0x71	113
106	0x73	115
107	0x6c	108
108	0x58	88
109	0x63	99
110	0x8e	142
111	0x6e	110
112	0x77	119
113	0xc8	200
114	0x63	99
115	0x65	101
116	0x85	133
117	0x5a	90
118	0x65	101
119	0x9c	156
120	0x4c	76
121	0x8f	143
122	0x61	97
123	0x6f	111
124	0x70	112
125	0x82	130
126	0x86	134
127	0x82	130
128	0xa6	166
129	0x93	147
130	0x6b	107
131	0x59	89
132	0x94	148
133	0x66	102
134	0xc2	194
135	0x7f	127
136	0x92	146
137	0x93	147
138	0x9f	159
139	0xa9	169
140	0x59	89
141	0x87	135
142	0x92	146
143	0x97	151
144	0x5c	92
145	0x78	120
146	0x92	146
147	0x65	101
148	0xb4	180
149	0x78	120
150	0x8c	140
151	0xd2	210
152	0x9b	155
153	0x81	129
154	0x9f	159
155	0x8c	140
156	0x98	152
157	0xba	186
158	0x94	148
159	0x6d	109
160	0x8c	140
161	0x93	147
162	0x86	134
163	0x85	133
164	0x68	104
165	0xbc	188
166	0x90	144
167	0x79	121
168	0x5f	95
169	0xb4	180
170	0xa6	166
171	0x6c	108
172	0x7c	124
173	0x86	134
174	0x68	104
175	0xdc	220
176	0x50	80
177	0x83	131
178	0x99	153
179	0x66	102
180	0x6a	106
181	0x8c	140
182	0x19	25
183	0x41	65
184	0x83	131
185	0x49	73
186	0x6e	110
187	0x8e	142
188	0x98	152
189	0xb3	179
190	0x84	132
191	0x79	121
192	0x9c	156
193	0x51	81
194	0x73	115
195	0x7c	124
196	0x79	121
197	0x50	80
198	0x9d	157
199	0x7b	123
200	0x76	118
201	0xac	172
202	0x81	129
203	0x6a	106
204	0xb0	176
205	0x98	152
206	0xa5	165
207	0x63	99
208	0x4d	77
209	0x5e	94
210	0x7c	124
211	0x4a	74
212	0x5c	92
213	0x89	137
214	0xb0	176
215	0x5d	93
216	0xaa	170
217	0xb1	177
218	0x98	152
219	0xb4	180
220	0x62	98
221	0x9b	155
222	0x4d	77
223	0xdb	219
224	0x83	131
225	0xf1	241
226	0xa5	165
227	0x78	120
228	0x00	0
229	0xce	206
230	0x87	135
231	0xb1	177
232	0x79	121
233	0xdf	223
234	0xbf	191
235	0x77	119
236	0x7d	125
237	0x7a	122
238	0x8c	140
239	0x61	97
240	0x9c	156
241	0xa0	160
242	0x5e	94
243	0x7a	122
244	0x55	85
245	0x9b	155
246	0x80	128
247	0xdb	219
248	0x66	102
249	0xc4	196
250	0xbb	187
251	0x95	149
252	0x6e	110
253	0x64	100
254	0x7a	122
255	0xb0	176

onnx::Conv_89_quantized u1 [8, 8, 3, 3]
0	0x98	152
1	0x66	102
2	0x37	55
3	0x5c	92
4	0x2b	43
5	0x78	120
6	0x6d	109
7	0xa6	166
8	0x6b	107
9	0xad	173
10	0x80	128
11	0x8e	142
12	0x99	153
13	0xc0	192
14	0x77	119
15	0x5d	93
16	0x2a	42
17	0x7c	124
18	0x90	144
19	0x0f	15
20	0x60	96
21	0x77	119
22	0x69	105
23	0xb7	183
24	0xa7	167
25	0x5f	95
26	0x63	99
27	0x7f	127
28	0x88	136
29	0x8c	140
30	0x7d	125
31	0x7f	127
32	0xf1	241
33	0x7d	125
34	0x6d	109
35	0x78	120
36	0x60	96
37	0x8a	138
38	0xac	172
39	0x73	115
40	0x7b	123
41	0x8d	141
42	0x95	149
43	0x6e	110
44	0x8c	140
45	0xa5	165
46	0x61	97
47	0xb2	178
48	0xc5	197
49	0xa9	169
50	0xda	218
51	0x77	119
52	0x85	133
53	0x74	116
54	0x40	64
55	0x7d	125
56	0x6a	106
57	0x55	85
58	0x54	84
59	0x58	88
60	0x88	136
61	0x3d	61
62	0x5c	92
63	0x9b	155
64	0x79	121
65	0x88	136
66	0x68	104
67	0x7d	125
68	0x81	129
69	0x2b	43
70	0x18	24
71	0x78	120
72	0x7d	125
73	0x96	150
74	0x3a	58
75	0x78	120
76	0x58	88
77	0x1b	27
78	0x86	134
79	0x53	83
80	0x59	89
81	0x6c	108
82	0x7a	122
83	0x27	39
84	0x15	21
85	0x8d	141
86	0x0f	15
87	0xde	222
88	0xc2	194
89	0xd8	216
90	0xaa	170
91	0x3a	58
92	0x36	54
93	0x6c	108
94	0x9b	155
95	0xa2	162
96	0xad	173
97	0x91	145
98	0x7b	123
99	0x58	88
100	0x9a	154
101	0x51	81
102	0x55	85
103	0x78	120
104	0xae	174
105	0x45	69
106	0x3a	58
107	0x21	33
108	0x4b	75
109	0xa4	164
110	0x69	105
111	0x89	137
112	0x7e	126
113	0x73	115
114	0xa0	160
115	0x72	114
116	0x55	85
117	0xab	171
118	0xcf	207
119	0x2b	43
120	0xcd	205
121	0x5a	90
122	0xc0	192
123	0x89	137
124	0x5e	94
125	0xbd	189
126	0xae	174
127	0x88	136
128	0x53	83
129	0x76	118
130	0x72	114
131	0xab	171
132	0xa6	166
133	0x8c	140
134	0x3d	61
135	0xae	174
136	0x66	102
137	0x7f	127
138	0x65	101
139	0x98	152
140	0x72	114
141	0x99	153
142	0x91	145
143	0x4a	74
144	0x95	149
145	0x88	136
146	0x99	153
147	0x89	137
148	0x6e	110
149	0x40	64
150	0x7a	122
151	0x6d	109
152	0xb0	176
153	0x79	121
154	0x7b	123
155	0x50	80
156	0x68	104
157	0xf0	240
158	0x7d	125
159	0x36	54
160	0x7e	126
161	0x4e	78
162	0x4a	74
163	0xb7	183
164	0x9d	157
165	0x8c	140
166	0x3c	60
167	0x91	145
168	0x7b	123
169	0x7f	127
170	0x76	118
171	0x43	67
172	0x58	88
173	0x86	134
174	0x5b	91
175	0x61	97
176	0xb0	176
177	0x73	115
178	0xba	186
179	0x77	119
180	0x4a	74
181	0x6d	109
182	0xcb	203
183	0x5f	95
184	0x8f	143
185	0xae	174
186	0x69	105
187	0x7b	123
188	0x68	104
189	0x85	133
190	0x8b	139
191	0x6a	106
192	0xaa	170
193	0xb0	176
194	0x8c	140
195	0x73	115
196	0x61	97
197	0x86	134
198	0x6d	109
199	0x7d	125
200	0x6b	107
201	0x7c	124
202	0x76	118
203	0x76	118
204	0xb3	179
205	0x55	85
206	0x9b	155
207	0x7f	127
208	0x71	113
209	0x56	86
210	0x65	101
211	0x8b	139
212	0x55	85
213	0xa2	162
214	0x56	86
215	0x5b	91
216	0x6f	111
217	0x65	101
218	0x98	152
219	0x69	105
220	0xa2	162
221	0x86	134
222	0x3f	63
223	0x54	84
224	0x62	98
225	0x53	83
226	0x7f	127
227	0x76	118
228	0x61	97
229	0x6e	110
230	0xa0	160
231	0x53	83
232	0x74	116
233	0x76	118
234	0x8e	142
235	0x41	65
236	0x23	35
237	0x8e	142
238	0x54	84
239	0x42	66
240	0x94	148
241	0x8f	143
242	0x4b	75
243	0x55	85
244	0x75	117
245	0x6d	109
246	0x85	133
247	0x6e	110
248	0x92	146
249	0x22	34
250	0x7f	127
251	0x4a	74
252	0x56	86
253	0x78	120
254	0x87	135
255	0x8f	143

onnx::Conv_92_quantized u1 [8, 8, 3, 3]
0	0x50	80
1	0x31	49
2	0x71	113
3	0x52	82
4	0x6e	110
5	0x4f	79
6	0x59	89
7	0x7d	125
8	0x88	136
9	0x84	132
10	0x65	101
11	0x91	145
12	0x91	145
13	0x78	120
14	0x7a	122
15	0x57	87
16	0x5f	95
17	0x66	102
18	0x72	114
19	0x7e	126
20	0x66	102
21	0x56	86
22	0x59	89
23	0x64	100
24	0x68	104
25	0x68	104
26	0x5c	92
27	0x99	153
28	0xae	174
29	0xa2	162
30	0x3f	63
31	0x44	68
32	0x53	83
33	0x7a	122
34	0x5c	92
35	0x66	102
36	0x5c	92
37	0x8a	138
38	0x7d	125
39	0x8f	143
40	0x65	101
41	0x69	105
42	0x6d	109
43	0x61	97
44	0x6d	109
45	0x19	25
46	0x54	84
47	0x5b	91
48	0x76	118
49	0x3e	62
50	0x48	72
51	0x5c	92
52	0x49	73
53	0x37	55
54	0x6e	110
55	0x5a	90
56	0x82	130
57	0x83	131
58	0x64	100
59	0x60	96
60	0x79	121
61	0x68	104
62	0x6b	107
63	0x7b	123
64	0x6a	106
65	0x78	120
66	0x4f	79
67	0x5b	91
68	0x3c	60
69	0x5a	90
70	0x70	112
71	0x73	115
72	0x92	146
73	0x51	81
74	0x44	68
75	0x59	89
76	0x6f	111
77	0x5e	94
78	0x3d	61
79	0x24	36
80	0x2f	47
81	0x5d	93
82	0x7e	126
83	0x69	105
84	0x69	105
85	0x77	119
86	0x79	121
87	0x79	121
88	0x69	105
89	0x8b	139
90	0x88	136
91	0x94	148
92	0x6f	111
93	0x92	146
94	0x79	121
95	0x59	89
96	0x6a	106
97	0x81	129
98	0x53	83
99	0x39	57
100	0x52	82
101	0x3f	63
102	0x4c	76
103	0x5f	95
104	0x45	69
105	0x8e	142
106	0x81	129
107	0x50	80
108	0x7c	124
109	0x5b	91
110	0x6c	108
111	0x73	115
112	0x88	136
113	0x67	103
114	0x90	144
115	0x8b	139
116	0x9d	157
117	0x61	97
118	0x91	145
119	0x79	121
120	0x60	96
121	0x81	129
122	0x86	134
123	0x4d	77
124	0x5c	92
125	0x7a	122
126	0x27	39
127	0x5c	92
128	0x6e	110
129	0x99	153
130	0x67	103
131	0x57	87
132	0x4a	74
133	0x74	116
134	0x95	149
135	0x88	136
136	0x7f	127
137	0x35	53
138	0x74	116
139	0x8d	141
140	0x44	68
141	0x46	70
142	0x71	113
143	0x6e	110
144	0x64	100
145	0x94	148
146	0x63	99
147	0x27	39
148	0x83	131
149	0x3b	59
150	0x87	135
151	0x61	97
152	0x72	114
153	0x81	129
154	0x57	87
155	0x54	84
156	0x67	103
157	0x89	137
158	0x77	119
159	0x69	105
160	0x8a	138
161	0x7b	123
162	0x6a	106
163	0x75	117
164	0x8c	140
165	0x48	72
166	0x64	100
167	0x60	96
168	0x54	84
169	0x8d	141
170	0x61	97
171	0x6b	107
172	0x34	52
173	0x5d	93
174	0x61	97
175	0x79	121
176	0x5a	90
177	0x46	70
178	0x60	96
179	0x66	102
180	0x50	80
181	0x5f	95
182	0x20	32
183	0x6d	109
184	0x6e	110
185	0x89	137
186	0x82	130
187	0x8e	142
188	0x96	150
189	0xa3	163
190	0x5e	94
191	0x60	96
192	0xb4	180
193	0x6a	106
194	0x65	101
195	0x7c	124
196	0x5d	93
197	0x55	85
198	0x66	102
199	0x81	129
200	0x63	99
201	0x84	132
202	0x6e	110
203	0x3e	62
204	0x69	105
205	0x89	137
206	0x6c	108
207	0x6d	109
208	0x71	113
209	0x6f	111
210	0x48	72
211	0x7b	123
212	0x6d	109
213	0x86	134
214	0x72	114
215	0x32	50
216	0x54	84
217	0x3a	58
218	0x60	96
219	0x82	130
220	0x7f	127
221	0x50	80
222	0x79	121
223	0x4d	77
224	0x87	135
225	0x70	112
226	0x9e	158
227	0x50	80
228	0x5d	93
229	0x83	131
230	0x76	118
231	0x4b	75
232	0x7c	124
233	0x42	66
234	0xc0	192
235	0x86	134
236	0x82	130
237	0x66	102
238	0x8c	140
239	0x69	105
240	0x7d	125
241	0x67	103
242	0x6c	108
243	0x6c	108
244	0x63	99
245	0x73	115
246	0x8e	142
247	0x7a	122
248	0x7e	126
249	0x4e	78
250	0x70	112
251	0x56	86
252	0x63	99
253	0x5e	94
254	0x62	98
255	0x85	133

onnx::Conv_95_quantized u1 [8, 8, 3, 3]
0	0x8b	139
1	0x34	52
2	0x9e	158
3	0xca	202
4	0x81	129
5	0x78	120
6	0xf4	244
7	0xd2	210
8	0xf8	248
9	0x6a	106
10	0x9c	156
11	0x8f	143
12	0xb4	180
13	0x3a	58
14	0x48	72
15	0x71	113
16	0x9a	154
17	0x73	115
18	0xbe	190
19	0xcc	204
20	0x86	134
21	0x79	121
22	0x68	104
23	0xad	173
24	0xa6	166
25	0x2a	42
26	0x85	133
27	0xe7	231
28	0x64	100
29	0x9b	155
30	0x73	115
31	0x9d	157
32	0x38	56
33	0x9b	155
34	0xd0	208
35	0xd2	210
36	0x43	67
37	0x59	89
38	0xc2	194
39	0x8e	142
40	0x90	144
41	0xbb	187
42	0x95	149
43	0x26	38
44	0x7f	127
45	0xbe	190
46	0x98	152
47	0xa7	167
48	0xc8	200
49	0x73	115
50	0xff	255
51	0xa9	169
52	0x5e	94
53	0x72	114
54	0x6d	109
55	0x64	100
56	0x34	52
57	0x63	99
58	0xb8	184
59	0x7a	122
60	0x52	82
61	0xba	186
62	0xbd	189
63	0x00	0
64	0x7d	125
65	0x6d	109
66	0x1e	30
67	0x54	84
68	0xc7	199
69	0x63	99
70	0x3a	58
71	0x46	70
72	0x2e	46
73	0x91	145
74	0x4f	79
75	0x7e	126
76	0x73	115
77	0x53	83
78	0xd2	210
79	0xb7	183
80	0x40	64
81	0xd1	209
82	0x4d	77
83	0xc9	201
84	0x63	99
85	0xd0	208
86	0xcb	203
87	0x47	71
88	0x46	70
89	0x98	152
90	0xe6	230
91	0x6f	111
92	0x88	136
93	0x72	114
94	0x54	84
95	0x85	133
96	0xa6	166
97	0x8e	142
98	0xde	222
99	0xad	173
100	0x96	150
101	0x4c	76
102	0x83	131
103	0x77	119
104	0x8a	138
105	0xc0	192
106	0x67	103
107	0x83	131
108	0x35	53
109	0x3b	59
110	0x40	64
111	0xd9	217
112	0x83	131
113	0x32	50
114	0x69	105
115	0xc3	195
116	0x41	65
117	0xc3	195
118	0x63	99
119	0xa1	161
120	0x57	87
121	0x04	4
122	0x6e	110
123	0x94	148
124	0x3c	60
125	0x4e	78
126	0x92	146
127	0xa6	166
128	0xba	186
129	0x91	145
130	0xa4	164
131	0x1e	30
132	0xdd	221
133	0x50	80
134	0x5c	92
135	0x4e	78
136	0x5e	94
137	0x67	103
138	0x41	65
139	0x71	113
140	0x92	146
141	0x20	32
142	0xd9	217
143	0x84	132
144	0x72	114
145	0x94	148
146	0x6f	111
147	0x69	105
148	0x77	119
149	0x7f	127
150	0x67	103
151	0x6b	107
152	0x6a	106
153	0x93	147
154	0x68	104
155	0x76	118
156	0x62	98
157	0x6b	107
158	0x71	113
159	0x81	129
160	0x6a	106
161	0x79	121
162	0x6c	108
163	0x7f	127
164	0x71	113
165	0x8c	140
166	0x81	129
167	0x66	102
168	0x87	135
169	0x82	130
170	0x50	80
171	0x9e	158
172	0x6d	109
173	0x5b	91
174	0x8f	143
175	0x86	134
176	0x86	134
177	0x5e	94
178	0x54	84
179	0x71	113
180	0x84	132
181	0x95	149
182	0x93	147
183	0x87	135
184	0xbd	189
185	0x7b	123
186	0x85	133
187	0xa5	165
188	0x7f	127
189	0x82	130
190	0x88	136
191	0x59	89
192	0x79	121
193	0x7a	122
194	0xa4	164
195	0x9f	159
196	0xc6	198
197	0xb6	182
198	0x4f	79
199	0x9c	156
200	0xa0	160
201	0x88	136
202	0xa4	164
203	0x86	134
204	0x72	114
205	0x87	135
206	0x97	151
207	0x88	136
208	0x8f	143
209	0x8c	140
210	0x90	144
211	0x89	137
212	0x7d	125
213	0x8e	142
214	0x92	146
215	0xb5	181
216	0x86	134
217	0x81	129
218	0xa8	168
219	0x3d	61
220	0x70	112
221	0x98	152
222	0x12	18
223	0x2e	46
224	0x99	153
225	0x8e	142
226	0x60	96
227	0x95	149
228	0xaa	170
229	0x99	153
230	0xa5	165
231	0x3a	58
232	0x7e	126
233	0xdc	220
234	0x8e	142
235	0xb2	178
236	0x3f	63
237	0xe0	224
238	0x8e	142
239	0x29	41
240	0x8e	142
241	0x9a	154
242	0x40	64
243	0x98	152
244	0xb9	185
245	0xae	174
246	0x93	147
247	0x7f	127
248	0x49	73
249	0x84	132
250	0x73	115
251	0x80	128
252	0x72	114
253	0xcd	205
254	0xb4	180
255	0x8a	138

onnx::Conv_98_quantized u1 [6, 8, 3, 3]
0	0x5c	92
1	0x32	50
2	0x61	97
3	0x64	100
4	0x3a	58
5	0x2a	42
6	0x6b	107
7	0x55	85
8	0x60	96
9	0x41	65
10	0x41	65
11	0x5f	95
12	0x56	86
13	0x2b	43
14	0x31	49
15	0x5b	91
16	0x38	56
17	0x3d	61
18	0x3e	62
19	0x4a	74
20	0x3c	60
21	0x2b	43
22	0x83	131
23	0x35	53
24	0x49	73
25	0x90	144
26	0x5e	94
27	0x52	82
28	0x44	68
29	0x5f	95
30	0x27	39
31	0x62	98
32	0x52	82
33	0x50	80
34	0x34	52
35	0x3f	63
36	0x56	86
37	0x6f	111
38	0x5d	93
39	0x60	96
40	0x92	146
41	0x3e	62
42	0x3b	59
43	0x5f	95
44	0x52	82
45	0x6a	106
46	0x2d	45
47	0x6e	110
48	0x72	114
49	0xa2	162
50	0x47	71
51	0x45	69
52	0x31	49
53	0x40	64
54	0x75	117
55	0x32	50
56	0x60	96
57	0x5b	91
58	0x83	131
59	0x5f	95
60	0x41	65
61	0x8b	139
62	0x31	49
63	0x56	86
64	0x43	67
65	0x5b	91
66	0x43	67
67	0x9a	154
68	0x35	53
69	0x35	53
70	0x51	81
71	0x5e	94
72	0x34	52
73	0x1a	26
74	0x32	50
75	0x5c	92
76	0x4b	75
77	0x6e	110
78	0x43	67
79	0x4e	78
80	0x3c	60
81	0x62	98
82	0x5a	90
83	0x73	115
84	0x71	113
85	0x2e	46
86	0x65	101
87	0x49	73
88	0x59	89
89	0x41	65
90	0x00	0
91	0x31	49
92	0x1b	27
93	0xff	255
94	0x3d	61
95	0x7b	123
96	0x4f	79
97	0x1f	31
98	0x37	55
99	0x43	67
100	0x45	69
101	0x36	54
102	0x59	89
103	0x68	104
104	0x70	112
105	0x41	65
106	0x5b	91
107	0x65	101
108	0x36	54
109	0x7d	125
110	0x3b	59
111	0x26	38
112	0x78	120
113	0x32	50
114	0x65	101
115	0x25	37
116	0x47	71
117	0x3d	61
118	0x6a	106
119	0x47	71
120	0x41	65
121	0x34	52
122	0x5c	92
123	0x16	22
124	0x4d	77
125	0x3e	62
126	0x36	54
127	0xa8	168
128	0x40	64
129	0x28	40
130	0x82	130
131	0x76	118
132	0x47	71
133	0x8c	140
134	0x53	83
135	0x4a	74
136	0xa6	166
137	0x44	68
138	0x3f	63
139	0x2a	42
140	0x3f	63
141	0x69	105
142	0x6d	109
143	0x57	87
144	0x5b	91
145	0x4b	75
146	0x58	88
147	0x6b	107
148	0x56	86
149	0x5d	93
150	0x78	120
151	0x49	73
152	0x50	80
153	0x54	84
154	0x3d	61
155	0x52	82
156	0x62	98
157	0x38	56
158	0x30	48
159	0x3b	59
160	0x3c	60
161	0x58	88
162	0x42	66
163	0x1b	27
164	0x51	81
165	0x4b	75
166	0xa6	166
167	0x0e	14
168	0x1a	26
169	0x1b	27
170	0x4d	77
171	0x39	57
172	0x7c	124
173	0x49	73
174	0x57	87
175	0x39	57
176	0x6f	111
177	0x4d	77
178	0x85	133
179	0x24	36
180	0x2b	43
181	0x34	52
182	0x64	100
183	0x4b	75
184	0x1d	29
185	0x79	121
186	0x70	112
187	0xa1	161
188	0x43	67
189	0x31	49
190	0x29	41
191	0x4c	76
192	0x62	98
193	0x2e	46
194	0x5e	94
195	0x4b	75
196	0x71	113
197	0x66	102
198	0x6e	110
199	0xa0	160
200	0x4e	78
201	0x83	131
202	0x6c	108
203	0x2e	46
204	0x1e	30
205	0x3c	60
206	0x4b	75
207	0x56	86
208	0x47	71
209	0x3d	61
210	0x68	104
211	0x40	64
212	0x55	85
213	0x34	52
214	0x54	84
215	0x85	133
216	0x4d	77
217	0x31	49
218	0x5b	91
219	0x34	52
220	0x34	52
221	0x52	82
222	0x42	66
223	0x42	66
224	0x51	81
225	0x54	84
226	0x44	68
227	0x5f	95
228	0x41	65
229	0x3e	62
230	0x64	100
231	0x50	80
232	0x27	39
233	0x33	51
234	0x4e	78
235	0x29	41
236	0x29	41
237	0x1f	31
238	0x42	66
239	0x63	99
240	0x33	51
241	0x66	102
242	0x3d	61
243	0x64	100
244	0x67	103
245	0x56	86
246	0x51	81
247	0x79	121
248	0x4d	77
249	0x50	80
250	0x0e	14
251	0x47	71
252	0x3f	63
253	0x53	83
254	0x6c	108
255	0xae	174

policyHead.4.weight_quantized u1 [486, 81]
0	0xb0	176
1	0x66	102
2	0x4c	76
3	0x7f	127
4	0x9b	155
5	0x6a	106
6	0x75	117
7	0x75	117
8	0x72	114
9	0x74	116
10	0xa2	162
11	0x73	115
12	0x66	102
13	0x7d	125
14	0x95	149
15	0x6e	110
16	0x77	119
17	0x67	103
18	0x9c	156
19	0x82	130
20	0x57	87
21	0x71	113
22	0x80	128
23	0x70	112
24	0x7b	123
25	0x7a	122
26	0x79	121
27	0x6d	109
28	0x78	120
29	0x5d	93
30	0x7b	123
31	0x7e	126
32	0x74	116
33	0x78	120
34	0x7a	122
35	0x70	112
36	0x69	105
37	0x60	96
38	0x79	121
39	0x6f	111
40	0x79	121
41	0x7e	126
42	0x7e	126
43	0x76	118
44	0x73	115
45	0x71	113
46	0x7e	126
47	0x7a	122
48	0x70	112
49	0x65	101
50	0x74	116
51	0x7e	126
52	0x7f	127
53	0x74	116
54	0x7e	126
55	0x64	100
56	0x72	114
57	0x7e	126
58	0x76	118
59	0x77	119
60	0x69	105
61	0x69	105
62	0x6f	111
63	0x75	117
64	0x6f	111
65	0x6f	111
66	0x72	114
67	0x71	113
68	0x77	119
69	0x70	112
70	0x7b	123
71	0x79	121
72	0x7f	127
73	0x6d	109
74	0x7c	124
75	0x7d	125
76	0x84	132
77	0x76	118
78	0x73	115
79	0x68	104
80	0x71	113
81	0x5d	93
82	0x71	113
83	0x63	99
84	0x5c	92
85	0x60	96
86	0x7d	125
87	0x7b	123
88	0x72	114
89	0x7f	127
90	0xa4	164
91	0xad	173
92	0x8b	139
93	0x69	105
94	0x68	104
95	0x79	121
96	0x85	133
97	0x79	121
98	0x72	114
99	0x59	89
100	0x84	132
101	0x86	134
102	0x56	86
103	0x83	131
104	0x67	103
105	0x68	104
106	0x7c	124
107	0x67	103
108	0x71	113
109	0x6a	106
110	0x7d	125
111	0x61	97
112	0x7e	126
113	0x75	117
114	0x6c	108
115	0x7e	126
116	0x6d	109
117	0x53	83
118	0x6f	111
119	0x68	104
120	0x6a	106
121	0x6a	106
122	0x70	112
123	0x73	115
124	0x79	121
125	0x6a	106
126	0x64	100
127	0x83	131
128	0x7c	124
129	0x7d	125
130	0x74	116
131	0x6c	108
132	0x69	105
133	0x7c	124
134	0x7c	124
135	0x7b	123
136	0x6b	107
137	0x6e	110
138	0x67	103
139	0x7a	122
140	0x7a	122
141	0x65	101
142	0x7f	127
143	0x79	121
144	0x85	133
145	0x78	120
146	0x84	132
147	0x85	133
148	0x7d	125
149	0x67	103
150	0x80	128
151	0x82	130
152	0x75	117
153	0x87	135
154	0x7f	127
155	0x77	119
156	0x7f	127
157	0x78	120
158	0x7b	123
159	0x80	128
160	0x7f	127
161	0x82	130
162	0xac	172
163	0x70	112
164	0x6e	110
165	0x6d	109
166	0x4d	77
167	0x7f	127
168	0x75	117
169	0x78	120
170	0x78	120
171	0x8f	143
172	0xa0	160
173	0xa5	165
174	0x95	149
175	0x7b	123
176	0x66	102
177	0x6e	110
178	0x83	131
179	0x6f	111
180	0x46	70
181	0x74	116
182	0x83	131
183	0x6f	111
184	0x5c	92
185	0x6e	110
186	0x7c	124
187	0x72	114
188	0x6c	108
189	0x6d	109
190	0x76	118
191	0x79	121
192	0x4e	78
193	0x74	116
194	0x77	119
195	0x69	105
196	0x72	114
197	0x6d	109
198	0x7a	122
199	0x63	99
200	0x73	115
201	0x6a	106
202	0x6c	108
203	0x5e	94
204	0x88	136
205	0x7c	124
206	0x86	134
207	0x71	113
208	0x7b	123
209	0x6e	110
210	0x7d	125
211	0x77	119
212	0x6e	110
213	0x74	116
214	0x7c	124
215	0x86	134
216	0x70	112
217	0x6f	111
218	0x68	104
219	0x7e	126
220	0x76	118
221	0x78	120
222	0x76	118
223	0x67	103
224	0x74	116
225	0x72	114
226	0x68	104
227	0x77	119
228	0x77	119
229	0x85	133
230	0x72	114
231	0x78	120
232	0x7b	123
233	0x79	121
234	0x7b	123
235	0x84	132
236	0x89	137
237	0x75	117
238	0x73	115
239	0x80	128
240	0x7f	127
241	0x6d	109
242	0x7b	123
243	0x87	135
244	0x96	150
245	0x65	101
246	0x7f	127
247	0x56	86
248	0x45	69
249	0x75	117
250	0x83	131
251	0x70	112
252	0x6f	111
253	0x8c	140
254	0x92	146
255	0x98	152

onnx::Conv_101_quantized u1 [3, 8, 3, 3]
0	0x9d	157
1	0xa6	166
2	0xab	171
3	0x77	119
4	0x45	69
5	0x8e	142
6	0x8c	140
7	0x19	25
8	0x41	65
9	0xa1	161
10	0x86	134
11	0x4e	78
12	0x94	148
13	0xa7	167
14	0x43	67
15	0xb8	184
16	0xe3	227
17	0x32	50
18	0x72	114
19	0x76	118
20	0x84	132
21	0x73	115
22	0xcb	203
23	0x75	117
24	0x5f	95
25	0x75	117
26	0x5d	93
27	0x86	134
28	0x9d	157
29	0x72	114
30	0x89	137
31	0xe5	229
32	0x25	37
33	0x7d	125
34	0x9d	157
35	0x72	114
36	0x5e	94
37	0xd4	212
38	0x73	115
39	0x9c	156
40	0xc5	197
41	0x6a	106
42	0x6d	109
43	0x8b	139
44	0x72	114
45	0x9c	156
46	0x89	137
47	0x92	146
48	0x79	121
49	0xb3	179
50	0x5e	94
51	0x80	128
52	0xda	218
53	0x22	34
54	0x9d	157
55	0xd9	217
56	0x8a	138
57	0x96	150
58	0x64	100
59	0xfe	254
60	0x89	137
61	0xc0	192
62	0xbc	188
63	0x63	99
64	0x25	37
65	0x14	20
66	0x6d	109
67	0x09	9
68	0x07	7
69	0x5d	93
70	0x23	35
71	0x00	0
72	0x54	84
73	0x39	57
74	0xc9	201
75	0x49	73
76	0x39	57
77	0xb7	183
78	0x68	104
79	0x95	149
80	0x6b	107
81	0x65	101
82	0xae	174
83	0x36	54
84	0x0b	11
85	0xad	173
86	0x7d	125
87	0x1e	30
88	0x5a	90
89	0x5c	92
90	0xd8	216
91	0xab	171
92	0xa8	168
93	0x6f	111
94	0x6c	108
95	0xbc	188
96	0xa7	167
97	0x8e	142
98	0x91	145
99	0x90	144
100	0xd3	211
101	0xa7	167
102	0xbe	190
103	0xd4	212
104	0xba	186
105	0xe6	230
106	0xd6	214
107	0x88	136
108	0x80	128
109	0x70	112
110	0x1f	31
111	0x39	57
112	0x43	67
113	0x6e	110
114	0x1a	26
115	0x49	73
116	0x22	34
117	0x9e	158
118	0x79	121
119	0x83	131
120	0xba	186
121	0xb3	179
122	0xb5	181
123	0xc1	193
124	0xce	206
125	0xb9	185
126	0x6d	109
127	0x82	130
128	0x44	68
129	0x4a	74
130	0x78	120
131	0x64	100
132	0x5f	95
133	0x72	114
134	0x60	96
135	0xb0	176
136	0xde	222
137	0xc8	200
138	0x5b	91
139	0xa8	168
140	0x8c	140
141	0x6b	107
142	0x93	147
143	0xdf	223
144	0x01	1
145	0x26	38
146	0xc7	199
147	0x5b	91
148	0x65	101
149	0x6f	111
150	0x35	53
151	0x76	118
152	0x2b	43
153	0xb1	177
154	0x78	120
155	0x3d	61
156	0x51	81
157	0x08	8
158	0x84	132
159	0x99	153
160	0x51	81
161	0x7e	126
162	0x9f	159
163	0x82	130
164	0x83	131
165	0x6c	108
166	0xc8	200
167	0x9f	159
168	0x64	100
169	0x8f	143
170	0xdc	220
171	0x9f	159
172	0x7a	122
173	0x96	150
174	0x45	69
175	0xa2	162
176	0x5b	91
177	0x41	65
178	0xff	255
179	0x5c	92
180	0x9b	155
181	0xa2	162
182	0x6b	107
183	0x28	40
184	0x3d	61
185	0x91	145
186	0x71	113
187	0x83	131
188	0xc0	192
189	0x97	151
190	0x80	128
191	0x79	121
192	0x46	70
193	0x85	133
194	0x77	119
195	0x47	71
196	0xee	238
197	0x7d	125
198	0x4d	77
199	0x76	118
200	0x89	137
201	0x36	54
202	0x76	118
203	0x65	101
204	0x9b	155
205	0x7c	124
206	0x99	153
207	0xa2	162
208	0xf0	240
209	0x6f	111
210	0xb9	185
211	0xbd	189
212	0xa2	162
213	0x34	52
214	0x57	87
215	0x26	38

valueHead.4.weight_quantized u1 [243, 1]
0	0xd9	217
1	0xa4	164
2	0xb1	177
3	0xa3	163
4	0xbe	190
5	0xbb	187
6	0xa4	164
7	0xec	236
8	0xc3	195
9	0x9f	159
10	0xad	173
11	0x89	137
12	0x9b	155
13	0x6f	111
14	0xac	172
15	0xa0	160
16	0x7f	127
17	0x88	136
18	0x98	152
19	0x82	130
20	0x89	137
21	0xaa	170
22	0x61	97
23	0x8d	141
24	0x95	149
25	0x90	144
26	0x81	129
27	0x93	147
28	0xb6	182
29	0xaf	175
30	0x60	96
31	0x98	152
32	0x79	121
33	0x95	149
34	0x32	50
35	0x97	151
36	0x8c	140
37	0xc6	198
38	0xab	171
39	0x95	149
40	0x72	114
41	0x72	114
42	0xd3	211
43	0xb8	184
44	0x4a	74
45	0x85	133
46	0x97	151
47	0x83	131
48	0xa5	165
49	0x75	117
50	0xa0	160
51	0xa4	164
52	0x79	121
53	0x8a	138
54	0x9e	158
55	0x83	131
56	0x83	131
57	0xb2	178
58	0x7c	124
59	0x6a	106
60	0xaa	170
61	0x9e	158
62	0xa8	168
63	0xb7	183
64	0x8d	141
65	0x7b	123
66	0xa9	169
67	0x60	96
68	0xce	206
69	0x9f	159
70	0x4f	79
71	0x8c	140
72	0x7a	122
73	0xa0	160
74	0xc2	194
75	0xbc	188
76	0x86	134
77	0xbc	188
78	0xc5	197
79	0x81	129
80	0x7e	126
81	0x7f	127
82	0x83	131
83	0x95	149
84	0x57	87
85	0x80	128
86	0x86	134
87	0x46	70
88	0x94	148
89	0xff	255
90	0x38	56
91	0x53	83
92	0x52	82
93	0x7c	124
94	0x8d	141
95	0x68	104
96	0x2d	45
97	0x8d	141
98	0x5f	95
99	0x44	68
100	0x7b	123
101	0x72	114
102	0xa0	160
103	0x99	153
104	0x5e	94
105	0x5d	93
106	0x58	88
107	0x9e	158
108	0x50	80
109	0x5e	94
110	0x64	100
111	0x80	128
112	0xa9	169
113	0x97	151
114	0x64	100
115	0x7f	127
116	0x5a	90
117	0x83	131
118	0x92	146
119	0x5d	93
120	0x87	135
121	0x58	88
122	0x8a	138
123	0x67	103
124	0x63	99
125	0x73	115
126	0xb4	180
127	0x6e	110
128	0x60	96
129	0x74	116
130	0x5f	95
131	0x6a	106
132	0x5f	95
133	0x6c	108
134	0x44	68
135	0x15	21
136	0x6e	110
137	0x6d	109
138	0x93	147
139	0x75	117
140	0x80	128
141	0x48	72
142	0x73	115
143	0x79	121
144	0x77	119
145	0x85	133
146	0x73	115
147	0x95	149
148	0x7e	126
149	0x80	128
150	0x6a	106
151	0x21	33
152	0x63	99
153	0x6c	108
154	0x49	73
155	0x56	86
156	0x6c	108
157	0x58	88
158	0x65	101
159	0x4d	77
160	0x75	117
161	0x6e	110
162	0x51	81
163	0x7a	122
164	0x56	86
165	0x2f	47
166	0x74	116
167	0xa9	169
168	0x3b	59
169	0xa5	165
170	0x00	0
171	0x7b	123
172	0x68	104
173	0x6c	108
174	0x4e	78
175	0x64	100
176	0x4a	74
177	0x93	147
178	0xb3	179
179	0x44	68
180	0x7c	124
181	0x8e	142
182	0xb9	185
183	0xac	172
184	0x7a	122
185	0x45	69
186	0x8f	143
187	0xbf	191
188	0x7b	123
189	0x7a	122
190	0x64	100
191	0xa5	165
192	0xb1	177
193	0x7f	127
194	0xc9	201
195	0x63	99
196	0x60	96
197	0x5f	95
198	0x64	100
199	0x77	119
200	0x97	151
201	0x70	112
202	0xf5	245
203	0x36	54
204	0xc4	196
205	0x99	153
206	0x79	121
207	0x7e	126
208	0x69	105
209	0x88	136
210	0xcb	203
211	0xa9	169
212	0x57	87
213	0xc0	192
214	0x54	84
215	0x5c	92
216	0xa4	164
217	0x86	134
218	0x87	135
219	0x59	89
220	0x72	114
221	0x49	73
222	0x90	144
223	0x46	70
224	0xaa	170
225	0x7d	125
226	0xf9	249
227	0x8f	143
228	0x39	57
229	0x23	35
230	0x4f	79
231	0x3e	62
232	0x33	51
233	0x95	149
234	0x91	145
235	0x89	137
236	0x4a	74
237	0x8f	143
238	0x7b	123
239	0x4f	79
240	0x78	120
241	0x76	118
242	0x76	118
