models/AZ-01-05-24-EIPC51-A/model.onnx (onnx, 175800 bytes, 17 tensors)

policyHead.4.weight f4 [81, 486]
0	0x3e962f0d	0.29332772
1	0xbe01eb8b	-0.12687509
2	0x3e8c441c	0.27395713
3	0x3db16690	0.0866214
4	0xbd147584	-0.036244884
5	0x3cb3b109	0.021935003
6	0xbc9cc4b1	-0.019136759
7	0x3d8c9aa6	0.06865434
8	0x3bb36436	0.0054745926
9	0x3e65204b	0.223756
10	0x3e0354f7	0.1282538
11	0xbe1b48e3	-0.15164523
12	0x3cee76f4	0.029109456
13	0xba42a55d	-0.0007425154
14	0x3b76f2fb	0.0037681449
15	0xbcb0d11c	-0.021584086
16	0x3d7f6d94	0.06236036
17	0xbd1606f6	-0.036627732
18	0xbe3d3af3	-0.18479519
19	0x3e95a67e	0.29228586
20	0xbd39ecf6	-0.045392
21	0xbc261a5b	-0.01013812
22	0xbd2929cc	-0.041299626
23	0x3c15316b	0.00910602
24	0xbc8ce042	-0.017196778
25	0x3ce6443d	0.02810871
26	0xbb35c013	-0.0027732893
27	0x3e333cd0	0.17503667
28	0xbe0d269c	-0.1378426
29	0x3c8bb063	0.017051881
30	0x3cf8cc2e	0.030370798
31	0x3b28cc90	0.0025756694
32	0xbca265a6	-0.01982386
33	0x3d0f4e12	0.034986563
34	0xbc969683	-0.018382316
35	0xbd8c0514	-0.06836906
36	0x3d31dbee	0.043422632
37	0xbcdee374	-0.027208067
38	0xbcede782	-0.029041056
39	0xbc463815	-0.012098332
40	0xbcccd40c	-0.025003456
41	0xbd392bd3	-0.04520781
42	0x3d0677ad	0.032828975
43	0xbca258b4	-0.019817688
44	0xbc886283	-0.016648537
45	0x3d443b58	0.047908157
46	0x3d442421	0.047886018
47	0xbd08be6d	-0.03338473
48	0x3c7583f1	0.014985071
49	0xbce71860	-0.028209865
50	0xbbb058b0	-0.005381666
51	0xb9ae91a4	-0.00033296377
52	0xbd0742f5	-0.03302284
53	0xbcb38996	-0.021916192
54	0x3d4b23fc	0.049594864
55	0xbb6137c2	-0.003436551
56	0xbc59b940	-0.013288796
57	0xbb8c15e9	-0.004275073
58	0x3d4dc932	0.050240703
59	0x3bd8e509	0.0066191
60	0x3d572c4a	0.05253247
61	0xbd38eccb	-0.0451477
62	0x3bd3f3bb	0.006468264
63	0x3cac4b3c	0.021031968
64	0x3d2652dd	0.04060637
65	0x3c6ee580	0.014581084
66	0xbd06fde7	-0.032956984
67	0x3ca7d172	0.020485613
68	0xbbbe8a40	-0.0058148205
69	0x3d057692	0.03258378
70	0xbc2f712a	-0.010708133
71	0xbc0c2575	-0.008553852
72	0x3ccf5cd8	0.025312826
73	0x3da576ca	0.08079298
74	0x3d2c15f9	0.042013142
75	0x3d36d762	0.044639
76	0x3c570f9f	0.013126283
77	0x3cb29500	0.021799564
78	0x3c244fe5	0.010028814
79	0xbb88da6e	-0.0041764295
80	0x3bbdebdd	0.0057959394
81	0x3ecb99d3	0.39765796
82	0xbdadeb1c	-0.08492109
83	0xbc88e97b	-0.016712895
84	0x3d0f407b	0.034973603
85	0x3d890d21	0.06691957
86	0xbd23793e	-0.039910547
87	0xbcbfc514	-0.023409404
88	0x3dd4a325	0.1038268
89	0x3cef5e0a	0.029219646
90	0xbdbab601	-0.09116746
91	0xbe6b6b66	-0.22990188
92	0x3e841fb8	0.2580545
93	0xbc0899c3	-0.008337441
94	0xbc8d3933	-0.017239189
95	0x3b307def	0.002693053
96	0xbc5b626c	-0.013390165
97	0x3ce2ccb2	0.027685497
98	0x3d061c7a	0.032742
99	0x3dafa548	0.08576447
100	0x3c24800c	0.010040294
101	0xbcc1a516	-0.02363829
102	0xbb4327d6	-0.0029778383
103	0xbcce6562	-0.025194827
104	0xbca665fd	-0.020312304
105	0xbc1b4812	-0.009477632
106	0x3cedbe17	0.029021306
107	0x3cf83ef7	0.030303461
108	0x3dbf9659	0.093548484
109	0x3d9e2ef0	0.07723796
110	0xbd27dc54	-0.040981606
111	0x3c452b52	0.012034254
112	0x3da9d6bf	0.08292913
113	0x3bc05c07	0.0058703455
114	0xbc7698e0	-0.015051097
115	0x3ce33067	0.027733041
116	0xbc4604d1	-0.012086109
117	0xbd1815ed	-0.037130285
118	0xbda4183e	-0.08012436
119	0x3c6b0756	0.014345011
120	0x3d6b7a12	0.057489462
121	0xbbc81089	-0.006105487
122	0xba26812d	-0.0006351646
123	0x3d1ca701	0.038245205
124	0x3cf8ecd3	0.030386364
125	0xbbb55d33	-0.005534792
126	0xbd0752f6	-0.033038102
127	0xbcce998a	-0.025219698
128	0x3c388149	0.011261293
129	0x3be19bbb	0.0068850196
130	0x3d10e69c	0.035376176
131	0xbb85c9df	-0.004082903
132	0xbd1e994d	-0.038720418
133	0x3cfa8048	0.030578747
134	0x3c52b420	0.012860328
135	0x3ce980e9	0.028503852
136	0x3d19f956	0.0375913
137	0xbbea5fb9	-0.0071525243
138	0xbcddbfc0	-0.027068973
139	0xbc84b898	-0.016201302
140	0x3d02c3d9	0.031925056
141	0xbb2a298d	-0.0025964708
142	0x3c2c2f59	0.010509335
143	0x3d1ce5a6	0.038304947
144	0xbd14d851	-0.036339108
145	0xbcd265d5	-0.025683323
146	0xbc98d893	-0.018657958
147	0x3cdc1796	0.026866715
148	0xbd328ae9	-0.043589506
149	0x3cc3700c	0.023857139
150	0xbb9f28b7	-0.0048571485
151	0x3b9d23ef	0.0047955434
152	0x3d185686	0.03719189
153	0xbb9f5484	-0.00486237
154	0xbc9f5479	-0.01944946
155	0x3c90961c	0.017649703
156	0xbc630b88	-0.01385773
157	0x3c7ebb4f	0.015547588
158	0xbc9c2a5f	-0.019063173
159	0xbc07c10a	-0.00828577
160	0x3d571515	0.05251034
161	0x3cbc1bab	0.022962412
162	0xbec33d2b	-0.38132605
163	0xbd9edc52	-0.077568665
164	0xbbe1dcb3	-0.0068927645
165	0xbcbd8252	-0.02313343
166	0x3d8f090e	0.06984149
167	0x3da07ff8	0.07836908
168	0x3c6b5a74	0.014364827
169	0xbd371ec5	-0.04470708
170	0xbbf44adc	-0.007455213
171	0x3e3410d8	0.1758455
172	0x3d4fadc7	0.050702836
173	0x3c2f99bd	0.010717806
174	0xbdc84a1f	-0.097797625
175	0xbd335bae	-0.043788604
176	0xbca46470	-0.020067424
177	0x3c02daa1	0.0079866955
178	0x3cedafb9	0.029014455
179	0x3c02dff8	0.007987969
180	0x3d53b868	0.051689535
181	0xbd8c2027	-0.0684207
182	0x3d599784	0.053123012
183	0x3c7cd30f	0.01543118
184	0xbd6d5ce5	-0.05794992
185	0xbb612b7e	-0.0034358199
186	0xbb846ccb	-0.0040412894
187	0xbc80fa33	-0.015744304
188	0xbd4167d0	-0.047218144
189	0xbc968c81	-0.018377544
190	0xbd80d1c7	-0.06290012
191	0xbc95456f	-0.018221585
192	0xbd6db1e6	-0.058030985
193	0x3b53bf77	0.0032310167
194	0xbb2a21b4	-0.002596003
195	0x3c7e43aa	0.015519062
196	0xbc3f4a5d	-0.011675444
197	0x3d0129b7	0.031533923
198	0xbd1bf57e	-0.038075916
199	0x3c3acba4	0.011401091
200	0xbd3eb828	-0.046562344
201	0x39b13c95	0.00033805208
202	0x3cd2a981	0.025715591
203	0x3c9e98d7	0.01935999
204	0x3d84eba6	0.06490259
205	0x3b9021f1	0.0043985774
206	0x3d8ee648	0.069775164
207	0x3d4217c6	0.047385953
208	0xbcf4d6ed	-0.02988764
209	0xbcbb2897	-0.022846503
210	0xbbfd580c	-0.0077314433
211	0x3bfdef76	0.0077494932
212	0xbccca45a	-0.024980713
213	0x3d18161b	0.037130456
214	0x3d81dc33	0.06340828
215	0xbd626304	-0.05527021
216	0x3d47e10c	0.048798606
217	0x3d2b6038	0.04183981
218	0xbd52d687	-0.05147412
219	0xbd0b95aa	-0.034078278
220	0xbd01670b	-0.03159241
221	0xbc33b193	-0.01096763
222	0x3c8f8764	0.017520614
223	0xbcdc425b	-0.02688711
224	0xbd675500	-0.056477547
225	0xbbe0d4e7	-0.0068613174
226	0xbca78e18	-0.020453498
227	0xbb9b3a7a	-0.0047371956
228	0xbd8dc098	-0.069215
229	0x3cb748ae	0.022373524
230	0xbc63a5cd	-0.01389451
231	0xbd3be1ae	-0.04586952
232	0xbd1a987d	-0.03774308
233	0x3d2d1022	0.042251714
234	0x3c7642e2	0.015030595
235	0x3c9221cf	0.017838387
236	0xbbfa290b	-0.0076342872
237	0x3c5c824a	0.013458798
238	0xbce4cf45	-0.027930865
239	0x3c93ef42	0.018058423
240	0xbbc1804e	-0.0059051877
241	0xbbe0effc	-0.006864546
242	0xbc10c071	-0.008834944
243	0x3e226bc0	0.15861416
244	0x3e8c5ac6	0.27413005
245	0xbdad2169	-0.08453638
246	0x3dce56ff	0.10075187
247	0x3cc43b3b	0.023954025
248	0xbcb411ae	-0.021981087
249	0xbd19012c	-0.037354633
250	0xbcc51357	-0.024057074
251	0xbd8a7149	-0.06759889
252	0x3d93b44a	0.07212122
253	0xbe183a4a	-0.14865986
254	0xbc2b44ad	-0.010453385
255	0xbd120d0d	-0.035656977

policyHead.4.bias f4 [81]
0	0xbc6c3c32	-0.014418649
1	0x3c164db1	0.0091737965
2	0x3d1218bc	0.03566812
3	0xbc835972	-0.016033862
4	0xbb488a16	-0.0030599884
5	0xbd0be1ad	-0.034150768
6	0x3ca23381	0.01979995
7	0xbc94f495	-0.018183032
8	0xbd3cf5b9	-0.046132777
9	0xbc8d5858	-0.01725404
10	0xbc108694	-0.008821148
11	0x3ce8aa94	0.02840165
12	0xbc102dc5	-0.008799975
13	0xbc6d655e	-0.0144895
14	0xbd1589bf	-0.036508318
15	0x3db0d277	0.08633893
16	0xbb136476	-0.00224903
17	0xbcc92b0c	-0.02455666
18	0x3c8de8a3	0.017322844
19	0x3cbfd3b6	0.023416381
20	0xbb08aa8b	-0.0020853605
21	0xbcf7b9e3	-0.030240005
22	0xbd12d565	-0.03584804
23	0xbd2dce50	-0.042433083
24	0xbcac519b	-0.021035006
25	0x3bb4bc86	0.005515638
26	0xbcb2ae8a	-0.021811742
27	0xbc15d011	-0.009143845
28	0xbc0e0178	-0.008667342
29	0xbc0bc412	-0.0085306335
30	0x3c317664	0.010831449
31	0x3de8f10e	0.113741025
32	0x3d48c90b	0.049019855
33	0xbcbfcccc	-0.023413084
34	0xbbd1bb0f	-0.006400473
35	0x3a77aac5	0.0009447749
36	0xbbdfc7cc	-0.0068292376
37	0x3c1cccbd	0.009570298
38	0xbcffbe27	-0.031218601
39	0xbd51b2ff	-0.051196095
40	0xbc1892f4	-0.00931238
41	0x3c92ca00	0.017918587
42	0x39062c5a	0.00012795758
43	0xbb783c32	-0.0037877676
44	0x3b704815	0.0036664058
45	0x3d019290	0.031633914
46	0x3cc8b340	0.024499536
47	0xbc57f761	-0.013181538
48	0x3e00c2ea	0.12574354
49	0xbc3118f9	-0.010809177
50	0x3b253ed4	0.002521445
51	0x3d1c1cdc	0.03811346
52	0x3c2e829b	0.010651256
53	0xbccc6941	-0.024952533
54	0xbc6f3c9a	-0.014601851
55	0x3c0d5776	0.008626809
56	0x3a9aa5b0	0.0011798646
57	0x3d3aee40	0.04563737
58	0xbc206b1d	-0.009791163
59	0xbc399a28	-0.011328258
60	0x3c84db97	0.01621799
61	0x3cc83a4b	0.024441859
62	0xbce02c85	-0.027364979
63	0x3cce74b1	0.025202127
64	0xbb9af1fe	-0.0047285547
65	0x3cada024	0.021194525
66	0xbcf72224	-0.030167647
67	0xbc03f578	-0.00805413
68	0xbd0e59d2	-0.034753628
69	0xbc834a06	-0.016026508
70	0x3c97851a	0.018496085
71	0xbca2137c	-0.019784681
72	0xbcf6dcfc	-0.03013467
73	0xbcd7a6df	-0.026324688
74	0xbc35821b	-0.011078383
75	0xbc9f458a	-0.019442338
76	0xbbc3f61a	-0.0059802653
77	0x3aced56e	0.001578016
78	0x3c3b9ab6	0.01145046
79	0x3c3038ef	0.0107557615
80	0xbc86944f	-0.01642814

valueHead.4.weight f4 [1, 243]
0	0x3e535d4d	0.2064106
1	0x3dab180e	0.083541974
2	0x3de9ff6c	0.11425671
3	0x3da7e2d6	0.081975624
4	0x3e1361ba	0.14392748
5	0x3e0bdd66	0.13658676
6	0x3dac5635	0.0841488
7	0x3e7fb1e8	0.2497021
8	0x3e202671	0.15639664
9	0x3d94bdc0	0.072627544
10	0x3dd98a36	0.10622065
11	0x3cbb929a	0.022897054
12	0x3d81a4b7	0.06330245
13	0xbd144700	-0.036200523
14	0x3dd29d44	0.10283902
15	0x3d9ccd09	0.07656295
16	0x3a455b16	0.00075285265
17	0x3cb0321b	0.021508267
18	0x3d6859d7	0.056726303
19	0x3bf17156	0.007368247
20	0x3cbeab68	0.023275092
21	0x3dc77e84	0.09740928
22	0xbd8b85ab	-0.068126045
23	0x3d03b268	0.032152563
24	0x3d5008e7	0.05078974
25	0x3d2343c1	0.039859537
26	0x3bb8b951	0.005637326
27	0x3d372c9e	0.044720285
28	0x3e01eb2b	0.12687366
29	0x3de30574	0.110850245
30	0xbd9131a7	-0.070895486
31	0x3d6c74ad	0.05772846
32	0xbc65916d	-0.014011723
33	0x3d4f3753	0.05058987
34	0xbe358d1e	-0.17729613
35	0x3d63d82b	0.055626076
36	0x3cfc80f8	0.030823216
37	0x3e25e889	0.16201986
38	0x3dcbd6cd	0.099530794
39	0x3d4fe5df	0.05075633
40	0xbcf84c31	-0.030309768
41	0xbcebab88	-0.028768316
42	0x3e44728d	0.19184323
43	0x3e0659be	0.13120171
44	0xbdfa2fda	-0.12216158
45	0x3c663e33	0.014052915
46	0x3d5fdc8a	0.05465368
47	0x3c05bd2f	0.008162781
48	0x3db1d014	0.08682266
49	0xbcb96330	-0.022630304
50	0x3d99bfca	0.07507284
51	0x3dadeef0	0.08492839
52	0xbc57e137	-0.013176254
53	0x3cc62922	0.024189536
54	0x3d8f1af7	0.06987565
55	0x3c051068	0.008121587
56	0x3c0e120d	0.008671296
57	0x3def2d96	0.11678617
58	0xbbdca59b	-0.006733609
59	0xbd470021	-0.048584107
60	0x3dc73c8b	0.097283445
61	0x3d903593	0.070414685
62	0x3dbfef42	0.09371807
63	0x3e03f5c4	0.12886721
64	0x3d06da95	0.0329233
65	0xbc0c3ce6	-0.008559441
66	0x3dc69e84	0.09698203
67	0xbd90a344	-0.070623904
68	0x3e394a15	0.18094666
69	0x3d976525	0.07392339
70	0xbddf8835	-0.10914651
71	0x3cf2fc6f	0.029661385
72	0xbc3a5502	-0.0113728065
73	0x3d9a6e74	0.075405985
74	0x3e1d0a8c	0.15336055
75	0x3e0e43f4	0.1389311
76	0x3c7fc126	0.015610015
77	0x3e0dd327	0.1385008
78	0x3e22e290	0.15906739
79	0x3b9886b1	0.0046547283
80	0xbb312a9c	-0.0027033454
81	0x3a1ae20c	0.00059083174
82	0x3c1a236e	0.009407861
83	0x3d4ac1ce	0.049501233
84	0xbdbad035	-0.091217436
85	0x3b27e18b	0.0025616612
86	0x3c89d206	0.01682378
87	0xbe064fff	-0.13116454
88	0x3d461f01	0.04836941
89	0x3e95a173	0.29224738
90	0xbe265dca	-0.16246715
91	0xbdcc1d50	-0.099665284
92	0xbdd4cbe6	-0.10390453
93	0xbbc4b5f5	-0.0060031363
94	0x3d01f919	0.0317317
95	0xbd586501	-0.0528307
96	0xbe3fc9e6	-0.18729362
97	0x3d0611b1	0.032731716
98	0xbd950701	-0.072767265
99	0xbe0aa1d9	-0.13538302
100	0xbc0e89a8	-0.008699812
101	0xbcef98d3	-0.029247677
102	0x3d9c46aa	0.076306656
103	0x3d6fd55f	0.058553096
104	0xbd9a6fb4	-0.07540837
105	0xbd9d8443	-0.076912425
106	0xbdb4dc9a	-0.08831139
107	0x3d908150	0.070559144
108	0xbddbac20	-0.107261896
109	0xbd9c1798	-0.07621688
110	0xbd7d04fb	-0.061772328
111	0x3b12b8bc	0.0022387942
112	0x3dc58f1c	0.096464366
113	0x3d634063	0.055481326
114	0xbd7b3d08	-0.0613375
115	0xb7f2c1a1	-2.8938814e-05
116	0xbdaefabc	-0.085439175
117	0x3c25642d	0.010094685
118	0x3d35e490	0.044407427
119	0xbd9d392e	-0.07676922
120	0x3c90f148	0.017693177
121	0xbdb85f7f	-0.090025894
122	0x3ccb8e0d	0.024848009
123	0xbd64559b	-0.055745702
124	0xbd8198ac	-0.06327948
125	0xbce485fc	-0.02789592
126	0x3df74b9f	0.120749705
127	0xbd1fbaec	-0.038996622
128	0xbd919009	-0.07107551
129	0xbcc52d72	-0.024069522
130	0xbd979511	-0.07401479
131	0xbd481728	-0.04885021
132	0xbd953e93	-0.07287326
133	0xbd33cf49	-0.043898854
134	0xbe0aa681	-0.13540079
135	0xbe78e5a9	-0.24306358
136	0xbd1bacd0	-0.038006604
137	0xbd272cd7	-0.040814247
138	0x3d380d9a	0.044934846
139	0xbcbb0f7a	-0.022834528
140	0x3ac19fa0	0.0014772303
141	0xbe00e22a	-0.12586275
142	0xbce9afaf	-0.028526155
143	0xbc715118	-0.014728807
144	0xbc9920cb	-0.018692395
145	0x3c7132c4	0.014721576
146	0xbce87a33	-0.028378582
147	0x3d50e01e	0.050994985
148	0xbb423950	-0.0029636212
149	0x3b1883a6	0.0023271828
150	0xbd467dcf	-0.048459824
151	0xbe5cdd24	-0.21568733
152	0xbd8278a3	-0.06370666
153	0xbd317bd5	-0.043330986
154	0xbdfe049c	-0.12403223
155	0xbdbe425c	-0.09290001
156	0xbd2e826b	-0.042604845
157	0xbdb7b43d	-0.089699246
158	0xbd773d63	-0.060361277
159	0xbde84a27	-0.113422684
160	0xbcc4b320	-0.024011195
161	0xbd1da7a6	-0.03848996
162	0xbdd9e072	-0.10638513
163	0xbc2ae7d5	-0.01043125
164	0xbdbff8cd	-0.09373627
165	0xbe3c9296	-0.18415293
166	0xbccefde5	-0.02526755
167	0x3dc2e6b6	0.09516661
168	0xbe1e25b7	-0.15444075
169	0x3db05300	0.08609581
170	0xbe951446	-0.2911703
171	0xbc22e048	-0.009941168
172	0xbd58b2a5	-0.052904744
173	0xbd30398f	-0.043023642
174	0xbde799df	-0.113086455
175	0xbd7cf720	-0.061759114
176	0xbdf7b970	-0.12095916
177	0x3d3a3425	0.045459885
178	0x3df364a9	0.11884434
179	0xbe0a17a3	-0.13485579
180	0xbbecfa67	-0.0072319987
181	0x3d0865bb	0.033300143
182	0x3e07385e	0.13205096
183	0x3dd38221	0.103275545
184	0xbc3087c1	-0.010774554
185	0xbe080f30	-0.13287044
186	0x3d13759b	0.03600083
187	0x3e169d56	0.14708456
188	0xbc041b2f	-0.008063122
189	0xbc39af28	-0.011333264
190	0xbd80ae36	-0.06283228
191	0x3db0c565	0.086314
192	0x3dec0079	0.11523528
193	0x3945826f	0.00018835974
194	0x3e2cba44	0.1686793
195	0xbd8147a0	-0.063124895
196	0xbd909712	-0.070600644
197	0xbd96a6f8	-0.073560655
198	0xbd80d52b	-0.062906586
199	0xbc99c084	-0.018768556
200	0x3d62ff41	0.05541921
201	0xbd0b4afa	-0.03400705
202	0x3e8a0f79	0.2696493
203	0xbe2a5ec1	-0.16637708
204	0x3e20ab33	0.15690307
205	0x3d74d84b	0.059776586
206	0xbc5eb386	-0.013592606
207	0xbad7a26f	-0.0016451607
208	0xbd4ead5f	-0.05045831
209	0x3ca3479d	0.019931609
210	0x3e31bb30	0.17356563
211	0x3dc49918	0.09599513
212	0xbdbc4d1e	-0.091943964
213	0x3e194ac6	0.1496993
214	0xbdc7f93f	-0.09764337
215	0xbda46a6c	-0.08028111
216	0x3dacf826	0.08445768
217	0x3c7ecddc	0.01555201
218	0x3c8fd8b0	0.01755938
219	0xbdaff0df	-0.085908644
220	0xbcf2d3a5	-0.029641936
221	0xbdfd50ac	-0.123689026
222	0x3d238564	0.039922133
223	0xbe04ce1d	-0.12969251
224	0x3dca489b	0.0987713
225	0xbb79ceb2	-0.0038117585
226	0x3e8f7e40	0.2802601
227	0x3d185631	0.037191574
228	0xbe252599	-0.16127624
229	0xbe584eb4	-0.21123773
230	0xbde32ba6	-0.1109231
231	0xbe189968	-0.1490227
232	0xbe323f65	-0.17406996
233	0x3d510698	0.05103168
234	0x3d27ae30	0.040937603
235	0x3cba9d1a	0.02277999
236	0xbdfa9559	-0.12235517
237	0x3d1a5b7f	0.037684914
238	0xbc036a48	-0.008020945
239	0xbde0b4d4	-0.1097199
240	0xbc8c6c2c	-0.017141424
241	0xbcae6574	-0.021288611
242	0xbcad236f	-0.02113506

onnx::Conv_83 f4 [8, 4, 3, 3]
0	0xbd16508d	-0.036697913
1	0x3e2c7c1c	0.16844219
2	0xbc61833a	-0.013764197
3	0xbe009adb	-0.12559073
4	0xbd16ca2c	-0.0368139
5	0x3dbb643a	0.09149976
6	0xbe01437a	-0.12623397
7	0xbee8c842	-0.45465285
8	0x3e3b5a3e	0.18296143
9	0x3fc11c58	1.5086775
10	0x3f5644c3	0.8369867
11	0xbd459b48	-0.04824379
12	0x3e8d83d8	0.2763965
13	0xbc886c0e	-0.016653087
14	0xbee3d2e7	-0.44496843
15	0x3eb28ba9	0.34872177
16	0xbe29ce5a	-0.16582623
17	0x3e8283a1	0.2549105
18	0x3f4190c0	0.75611496
19	0x3f06a516	0.5259565
20	0xbf03536b	-0.5129916
21	0x3d86f1c1	0.0658908
22	0x3e8c0e01	0.27354434
23	0xbecf71a4	-0.40516388
24	0x3e4741e9	0.19458736
25	0x3f695c46	0.91156423
26	0x3dd91b68	0.106009305
27	0xbf768440	-0.9629555
28	0xbfad1e43	-1.352486
29	0x3f1627f3	0.5865471
30	0x3ec0e9a2	0.37678248
31	0x3f89d947	1.0769433
32	0xbf2280d1	-0.6347781
33	0xbeb72b5c	-0.35775268
34	0xbe80b8c7	-0.25140974
35	0x3ebc3168	0.36756444
36	0x3d84a7da	0.06477328
37	0x3ec1074f	0.3770089
38	0x3e672529	0.22572769
39	0x3e1fb17a	0.15595046
40	0x3e9e0907	0.30866262
41	0x3e8a004a	0.26953346
42	0x3e5e234a	0.21693149
43	0x3d10c03b	0.035339575
44	0x3e191b6f	0.14951871
45	0xbe829027	-0.25500605
46	0xbd9c7d18	-0.07641047
47	0xbf3c6873	-0.73596877
48	0xbf271b21	-0.6527577
49	0xbe83af02	-0.25719458
50	0xbef05b5f	-0.4694471
51	0xbe9d4d4d	-0.30723038
52	0xbf2c4633	-0.67294616
53	0xbf287491	-0.65802866
54	0xbe610bf7	-0.2197722
55	0xbee6d796	-0.45086354
56	0xbedeb9db	-0.4350117
57	0xbdea9ccc	-0.11455688
58	0x3f0ddff4	0.5541985
59	0x3dfb94cf	0.12284242
60	0x3f10341c	0.5632951
61	0x3f7d1954	0.9886677
62	0xbf06c60f	-0.52645963
63	0xbe790a45	-0.24320324
64	0x3f69f96f	0.9139623
65	0x3f0dfca9	0.55463654
66	0x3fa0e7e8	1.2570772
67	0xbe0d7277	-0.13813196
68	0x3f88a2e0	1.0674706
69	0x3ef628a1	0.48077872
70	0x3fbb6186	1.4639137
71	0xbedf2f8c	-0.43590963
72	0xbdd644e3	-0.10462358
73	0xbe171b42	-0.14756492
74	0x3e0aeb9c	0.1356644
75	0xbe2df783	-0.1698895
76	0x3dcbc656	0.09949939
77	0x3e1b4f4c	0.15166968
78	0xbdec7f62	-0.11547734
79	0x3e359e6f	0.17736219
80	0x3e0ca5cc	0.13735121
81	0x3e491bf0	0.19639564
82	0x3d76478c	0.060126826
83	0xbea7ddc9	-0.32786396
84	0x3db7fef1	0.08984173
85	0xbe024c83	-0.127245
86	0x3c8d22e0	0.017228544
87	0x3d9b0be5	0.07570628
88	0xbe6cc58e	-0.23122236
89	0xbf36d5fc	-0.71420264
90	0xbe0d316c	-0.13788384
91	0x3ee9e593	0.45682964
92	0x3fa56a66	1.2923095
93	0x3f18fac1	0.5975762
94	0xbe605a8c	-0.21909541
95	0xbfacdcb2	-1.3504851
96	0x3f96fce8	1.1795931
97	0xbf14a347	-0.5806164
98	0x3f2f9a18	0.68594503
99	0xbe906918	-0.2820518
100	0x3e8a398e	0.26997036
101	0x3e252ea6	0.16131076
102	0x3f9732f5	1.1812426
103	0x3ef50a1b	0.47859272
104	0x3a31af70	0.00067781564
105	0x3e8bc0b2	0.27295452
106	0x3ef7e641	0.48417857
107	0x3f25c0d5	0.64747363
108	0x3e76faab	0.2411906
109	0xbdd76ce2	-0.105188146
110	0xbd776d00	-0.060406685
111	0x3c0b0020	0.0084839165
112	0x3dfb1490	0.12259781
113	0xbe855158	-0.26038623
114	0x3e172876	0.14761528
115	0x3dc4e9d1	0.096149094
116	0xbd0338fd	-0.03203677
117	0x3ebbf297	0.3670852
118	0x3d17e0f7	0.037079778
119	0xbdd25867	-0.10270768
120	0x3e7e4ca2	0.2483392
121	0x3ef7a77a	0.48369962
122	0x3ed9caff	0.42537686
123	0x3f25101f	0.64477724
124	0xbe4820d6	-0.19543776
125	0xbee731ae	-0.4515509
126	0x3d84f6bc	0.06492373
127	0xbea004ff	-0.31253812
128	0xbf8f6330	-1.1202145
129	0x3dba7d37	0.09105914
130	0xbed6d58d	-0.419598
131	0x3f17377a	0.59069026
132	0x3c93d798	0.018047139
133	0x3dfc37a2	0.123152986
134	0x3f09bc64	0.53803086
135	0x3f10364c	0.5633285
136	0xbf9daacd	-1.2317749
137	0x3e54bcde	0.20775172
138	0xbf898329	-1.0743152
139	0xbe91a324	-0.2844478
140	0x3ecee8f8	0.40412116
141	0xbeb13674	-0.34611857
142	0x3fb8b554	1.4430337
143	0xbeb5291f	-0.35382935
144	0x3d6e52c4	0.0581844
145	0x3e523527	0.20528089
146	0xbd8be4be	-0.068307385
147	0x3e33cf51	0.17559554
148	0x3ea6653c	0.3249911
149	0x3e28d37d	0.16486926
150	0x3e52734d	0.20551796
151	0x3d7831b6	0.060594283
152	0xbd4bd40c	-0.04976277
153	0xbf107839	-0.56433445
154	0xbef699bb	-0.48164162
155	0xbe047f1d	-0.12939115
156	0xbe31e018	-0.17370641
157	0xbf43ccf9	-0.7648464
158	0xbe0e2e6a	-0.13884893
159	0xbe32a584	-0.17445952
160	0x3e2863bb	0.16444294
161	0xbd32b3b7	-0.04362842
162	0x3e7033a5	0.23457201
163	0x3e8c1ab7	0.27364132
164	0x3f7dc4bd	0.99128324
165	0x3d4829e2	0.048868068
166	0xc0130d35	-2.297681
167	0x3f176abf	0.59147257
168	0xbfb96b58	-1.4485884
169	0x3eac9ae5	0.33711925
170	0x3e28f906	0.16501245
171	0x3c4d8e1f	0.012546091
172	0x3fb1e1f6	1.3897083
173	0xbfe42df5	-1.7826525
174	0x4018acc2	2.3855443
175	0xbd8f0478	-0.06983274
176	0x3fe2bd9f	1.7714118
177	0xbf13ac0f	-0.57684416
178	0x3febc21c	1.8418612
179	0xbf953b4d	-1.1658722
180	0xbdb47042	-0.08810474
181	0x3c85823e	0.016297456
182	0x3dc66950	0.096880555
183	0x3b239afc	0.0024964204
184	0xbceb7200	-0.028740883
185	0xbe4b5c89	-0.19859518
186	0xb8dabf3c	-0.0001043067
187	0xbe50029a	-0.20313492
188	0xbd188e1f	-0.037244912
189	0x3e989169	0.2979844
190	0xbf1221c6	-0.57082784
191	0x3f4c1ce6	0.79731596
192	0xbdfe1d38	-0.12407917
193	0x3f45f7c7	0.77331203
194	0x3f071e8f	0.52781004
195	0x3f8b843f	1.0899733
196	0xbe93e4fe	-0.28885645
197	0x3f0ab2be	0.5417899
198	0x3ecc50b1	0.39905313
199	0x3f2662e3	0.6499464
200	0x3f6d9fe7	0.92822117
201	0x3e3f37d8	0.18673646
202	0x3ea1a243	0.31569108
203	0x3f28d38b	0.6594779
204	0xbeac6982	-0.33674246
205	0x3e85bf43	0.26122484
206	0x3e97cbfb	0.29647812
207	0xbd21a46a	-0.039463438
208	0xbe96ff8d	-0.29491845
209	0xbf0a6a51	-0.54068476
210	0x3f60707f	0.87671655
211	0x3f4f87d2	0.8106662
212	0xbf7d5cc7	-0.9896969
213	0xbf3b14f1	-0.7307883
214	0x3e4034b8	0.1877011
215	0x3c38286d	0.011240107
216	0xbe2776a6	-0.16353855
217	0x3e327526	0.17427501
218	0x3dcf1621	0.10111643
219	0x3e75e010	0.24011254
220	0xbd03f6c8	-0.03221777
221	0xbe076fab	-0.13226192
222	0x3e217642	0.15767768
223	0x3dbbb7d2	0.0916592
224	0x3ecb9573	0.39762458
225	0xbf16fef6	-0.5898279
226	0xbe7f3f95	-0.24926598
227	0xbd0f9bef	-0.03506082
228	0xbf4a7a33	-0.7909271
229	0x3ea2c9b6	0.31794518
230	0xbead97a8	-0.33904767
231	0xbdea6cd5	-0.11446539
232	0xbed28c42	-0.41122633
233	0xbe8959a6	-0.2682621
234	0x3f994a70	1.1975842
235	0xbf44ce19	-0.7687698
236	0x3f97b9f0	1.1853619
237	0x3f127d18	0.5722213
238	0xbf4a857f	-0.7910995
239	0xbf1510cf	-0.5822877
240	0x3e978754	0.29595435
241	0xbe5ec469	-0.21754612
242	0xbf9c6ed0	-1.2221317
243	0x3f112fe3	0.56713694
244	0xbee98fb8	-0.4561746
245	0x3fa4d685	1.2877966
246	0xbf47fc8c	-0.7811973
247	0x3eb9b348	0.36269593
248	0x3e3f45cb	0.18678968
249	0x3f82d8ef	1.0222453
250	0x3e9e1a25	0.30879322
251	0x3e6eed1f	0.23332642
252	0xbe1a4cfc	-0.1506843
253	0xbea0d7a9	-0.31414536
254	0x3de525c5	0.111888446
255	0xbeb96df5	-0.36216703

onnx::Conv_84 f4 [8]
0	0xbdb8767c	-0.09006974
1	0xbeb7a66e	-0.35869163
2	0xbe5a434c	-0.21314734
3	0x3ed3a397	0.41335747
4	0x3f1d7475	0.61505824
5	0xbe707200	-0.23480988
6	0x3ed3c3bc	0.4136027
7	0x3f20f876	0.6287912

onnx::Conv_86 f4 [8, 8, 3, 3]
0	0xbe354ca5	-0.17705019
1	0xbd1619b1	-0.036645595
2	0xbd85bca9	-0.06530125
3	0x3dd179c7	0.10228305
4	0xbcc4b675	-0.024012784
5	0xbe825bd4	-0.25460684
6	0xbe50fae0	-0.20408201
7	0x3d4ac610	0.049505293
8	0xbcc2134f	-0.023690848
9	0x3df82af2	0.12117566
10	0xbe1c495d	-0.15262361
11	0x3eb8ddaf	0.3610663
12	0xbe022d29	-0.1271254
13	0x3ee6ac24	0.45053208
14	0x3e841358	0.25796008
15	0xbca05f67	-0.019576741
16	0xbdadd41e	-0.08487724
17	0x3d031e0f	0.032011088
18	0x3e01499e	0.12625739
19	0x3e307574	0.17232305
20	0x3cfb38cf	0.030666737
21	0xbe5d4319	-0.21607627
22	0xbe0203d0	-0.12696767
23	0xbe5c7062	-0.21527246
24	0x3e3f75d1	0.18697287
25	0x3d81231a	0.06305523
26	0xba0dd3b9	-0.0005410272
27	0xbd812f2b	-0.06307825
28	0xbe4af496	-0.19819865
29	0x3c7a4fad	0.015277785
30	0xbdb1d5e0	-0.086833715
31	0xbe372a67	-0.17887269
32	0xbdb6450d	-0.08899889
33	0xbe65b5da	-0.22432652
34	0xbe6599f4	-0.2242201
35	0xbe799ad3	-0.24375467
36	0xbd8cdc9c	-0.068780154
37	0x3e1843dc	0.14869636
38	0xbd9e1df9	-0.077205606
39	0xbd786363	-0.060641658
40	0xbe4241db	-0.18970434
41	0xbda7e04a	-0.081970766
42	0x3ea3b755	0.3197581
43	0xbe73688b	-0.23770349
44	0xbcb27e56	-0.021788757
45	0x3dbce8b3	0.09224071
46	0x3e293e89	0.16527762
47	0x3ad242a6	0.0016041591
48	0x3e85ca17	0.26130745
49	0x3d96b631	0.07358969
50	0x3cae4686	0.021273863
51	0xbe79801a	-0.24365273
52	0x3c24e45f	0.010064214
53	0x3e467094	0.19378883
54	0xbd00cc0e	-0.0314446
55	0xbde9087f	-0.113785736
56	0xbdb50a87	-0.088398986
57	0xbe9f7db5	-0.31150594
58	0xbe80ac09	-0.25131252
59	0x3cd24df1	0.025671931
60	0xbdc822e1	-0.097722776
61	0x3d7afa2b	0.061273735
62	0xbe377914	-0.17917281
63	0xbda7a2dc	-0.0818536
64	0xbd7bff81	-0.061522964
65	0x3ddb2b3d	0.107016064
66	0x3e17fe83	0.14843182
67	0x3ce5a478	0.028032526
68	0x3e5ef5a8	0.21773398
69	0xbe364e57	-0.17803322
70	0xbd65cf8f	-0.056106146
71	0xbd94ae4f	-0.07259809
72	0x3de0e28c	0.109807104
73	0xbe0064e1	-0.12538482
74	0xbb256128	-0.0025234912
75	0x3cdb6eba	0.026786197
76	0x3e3117f5	0.17294295
77	0xbe2579cc	-0.16159743
78	0x3dbcdcbc	0.09221789
79	0xbd6d7da7	-0.05798116
80	0xbd450c66	-0.048107527
81	0xbc1a9b7e	-0.009436486
82	0xbdc60fc7	-0.09670978
83	0xbe7486a9	-0.23879494
84	0xbe31be50	-0.17357755
85	0x3d72c21f	0.05926716
86	0x3df56f95	0.11984173
87	0x3deb27da	0.114822105
88	0xbd1160d7	-0.035492744
89	0xbcb11ab4	-0.021619178
90	0xbe355c8f	-0.1771109
91	0x3c83f870	0.016109675
92	0xbc974fae	-0.018470611
93	0xbe0b2279	-0.13587369
94	0x3e3a992c	0.18222493
95	0x3e00f789	0.12594427
96	0x3d08b9f2	0.033380456
97	0xbe56277e	-0.20913503
98	0xbd1b9b34	-0.03798981
99	0x3b7a2783	0.0038170523
100	0xbe554a7a	-0.20829192
101	0x3d246569	0.040135775
102	0xbd62973c	-0.05532001
103	0xbd8af367	-0.067847066
104	0x3e38bc17	0.180405
105	0xbda01663	-0.0781677
106	0xbd8fee5b	-0.070278846
107	0xbdc71edf	-0.09722685
108	0xbe30bba7	-0.17259084
109	0xbe054198	-0.13013303
110	0x3d01ced5	0.03169139
111	0xbdb58a2a	-0.08864243
112	0xbd63988e	-0.05556541
113	0x3e7cde5b	0.24694197
114	0xbe04ca09	-0.12967695
115	0xbdfa42ad	-0.12219749
116	0xbbb3d532	-0.0054880613
117	0xbe269ba3	-0.16270308
118	0xbdfe80b1	-0.1242689
119	0x3daa2190	0.08307183
120	0xbe5c1140	-0.21490955
121	0x3d10b3f9	0.035327885
122	0xbe0bcd8c	-0.13652629
123	0xbdaea90d	-0.08528338
124	0xbda505f8	-0.08057779
125	0xbc7569a1	-0.014978797
126	0xb9592c19	-0.0002071116
127	0xbc6ee0e7	-0.014579988
128	0x3df385c1	0.11890746
129	0x3d4155a0	0.0472008
130	0xbdcfc73e	-0.10145424
131	0xbe2de812	-0.16983059
132	0x3d56cdd2	0.05244238
133	0xbdf48225	-0.119388856
134	0x3e648b89	0.22318853
135	0xbcc98d6b	-0.024603566
136	0x3d39c14d	0.04535036
137	0x3d47774b	0.04869775
138	0x3dbc1442	0.09183551
139	0x3e040e83	0.12896161
140	0xbe2d785b	-0.16940443
141	0x3b3a910d	0.0028467805
142	0x3d3e5159	0.046464298
143	0x3d84bbfd	0.064811684
144	0xbe1f2800	-0.15542603
145	0xbd521759	-0.051291797
146	0x3d3db3dc	0.046314105
147	0xbdfeb057	-0.12435978
148	0x3e2f2f81	0.17107965
149	0xbd5c9e94	-0.05386217
150	0x3cb0bec2	0.021575335
151	0x3e9076af	0.28215548
152	0x3da059c5	0.07829622
153	0xbc8e81bb	-0.017395845
154	0x3dbf3632	0.09336509
155	0x3cab02c6	0.020875346
156	0x3d8b08db	0.067887984
157	0x3e48c756	0.1960729
158	0x3d4fd9d7	0.050744858
159	0xbdbc3cfe	-0.09191321
160	0x3cc53848	0.024074689
161	0x3d412c40	0.04716134
162	0xbad784c8	-0.001644277
163	0xbb828880	-0.003983557
164	0xbde3a562	-0.11115529
165	0x3e4df7e8	0.201141
166	0x3d184acc	0.037180707
167	0xbd411685	-0.047140617
168	0xbe167d47	-0.14696227
169	0x3e30a69a	0.17251053
170	0x3df38c0d	0.11891947
171	0xbdc9d9fe	-0.09856032
172	0xbd1af2d9	-0.037829254
173	0xbaf073c6	-0.001834505
174	0xbde2f72c	-0.110823005
175	0x3ea47703	0.3212205
176	0xbe4d6c57	-0.2006086
177	0xbc330301	-0.010926009
178	0x3d8fd144	0.07022336
179	0xbdf3f604	-0.11912158
180	0xbdd949a9	-0.10609753
181	0x3cb93337	0.022607429
182	0xbecfaf9a	-0.4056366
183	0xbe834034	-0.2563492
184	0xbc52d505	-0.012868171
185	0xbe69e9a6	-0.22843036
186	0xbdb6c9f8	-0.08925241
187	0x3cea24b8	0.028581962
188	0x3d8d0680	0.068860054
189	0x3e2d709a	0.16937485
190	0xbc058215	-0.00814869
191	0xbd409b4c	-0.047023103
192	0x3daae796	0.08344953
193	0xbe497ed3	-0.19677286
194	0xbd911c1e	-0.07085441
195	0xbd1a0585	-0.03760292
196	0xbd48afc6	-0.048995756
197	0xbe4ed1ca	-0.20197216
198	0x3dac38a2	0.08409239
199	0xbd217f35	-0.039427955
200	0xbd7ac394	-0.061221674
201	0x3e10c3c7	0.14137183
202	0xbca0baa6	-0.01962025
203	0xbdd77126	-0.10519628
204	0x3e1ecdea	0.15508237
205	0x3d8812a0	0.066441774
206	0x3df05860	0.11735606
207	0xbe04eb92	-0.12980488
208	0xbe5a9ad0	-0.21348119
209	0xbe1ad50e	-0.15120336
210	0xbd1b6284	-0.03793575
211	0xbe65b61f	-0.22432755
212	0xbe2062bf	-0.15662669
213	0x3c1bdee0	0.009513587
214	0x3e1f70fd	0.15570445
215	0xbe1cfbf0	-0.15330482
216	0x3e0b248a	0.13588157
217	0x3e25c83c	0.16189665
218	0x3d866574	0.065623194
219	0x3e2fa31e	0.17152068
220	0xbe090881	-0.1338215
221	0x3da0b523	0.07847049
222	0xbe59e373	-0.21278171
223	0x3ea1cba2	0.31600672
224	0xbc1a45e4	-0.009416077
225	0x3ecc63f3	0.39920005
226	0x3de9fe85	0.11425499
227	0xbd58b760	-0.052909255
228	0xbf00845a	-0.5020195
229	0x3e89ee65	0.26939693
230	0x3b1021d2	0.0021992815
231	0x3e259684	0.16170698
232	0xbd47f975	-0.048821885
233	0x3eaa4b7f	0.33260724
234	0x3e58f6ca	0.21187893
235	0xbd6cb817	-0.05779275
236	0xbd09bc51	-0.03362686
237	0xbd352217	-0.044221964
238	0x3cb39204	0.021920212
239	0xbe0bcdb6	-0.13652691
240	0x3da7d696	0.08195226
241	0x3dc392e3	0.09549501
242	0xbe1ab66a	-0.15108648
243	0xbd34a834	-0.044105724
244	0xbe39d722	-0.18148473
245	0x3d9f2613	0.07770934
246	0xbcabf303	-0.0209899
247	0x3ea2c44d	0.3179039
248	0xbdf4514e	-0.1192957
249	0x3e6be55c	0.23036712
250	0x3e49bf4f	0.19701885
251	0x3d5fd6a6	0.054648064
252	0xbdb9b1ad	-0.09067092
253	0xbe0049c9	-0.12528147
254	0xbd3b9dcc	-0.045804784
255	0x3e1f60dd	0.15564294

onnx::Conv_87 f4 [8]
0	0x3f8448f4	1.0334764
1	0x3fb37dc7	1.4022759
2	0x3f6dae89	0.92844445
3	0x3dce36ec	0.10069069
4	0xbf67a8fe	-0.90492237
5	0x3f742206	0.95364416
6	0x3f2f3a74	0.6844857
7	0xbdee1418	-0.11624926

onnx::Conv_89 f4 [8, 8, 3, 3]
0	0x3e07d567	0.13265
1	0xbd7f3d24	-0.062314168
2	0xbe7c5b7e	-0.24644276
3	0xbdd0c347	-0.10193496
4	0xbe967236	-0.2938401
5	0x3bf981d1	0.0076143523
6	0xbd14c37f	-0.036319252
7	0x3e423db7	0.18968855
8	0xbd2d908d	-0.042374182
9	0x3e5c3e9b	0.21508257
10	0x3d21d4b0	0.039509475
11	0x3dc47a13	0.09593596
12	0x3e0ec9ec	0.13944215
13	0x3e95c7bc	0.29253948
14	0x3b9a27c7	0.004704449
15	0xbdc87f34	-0.09789887
16	0xbe9a2e35	-0.30113378
17	0x3cc499b1	0.023999067
18	0x3dd55370	0.10416305
19	0xbed0061f	-0.4062967
20	0xbdaee03b	-0.08538862
21	0x3b61e2a7	0.003446737
22	0xbd4ebcef	-0.05047315
23	0x3e839469	0.25699165
24	0x3e44dc1c	0.1922459
25	0xbdbac61a	-0.09119816
26	0xbd9843b9	-0.07434792
27	0x3d0bcd6f	0.034131464
28	0x3d939ee9	0.07208044
29	0x3db1e4fd	0.08686254
30	0x3cef09d6	0.029179495
31	0x3d124470	0.0357098
32	0x3ef7c8f9	0.48395517
33	0x3cdfc41a	0.027315188
34	0xbd1627b4	-0.036658958
35	0x3bcce79c	0.006253196
36	0xbdb2b32e	-0.08725582
37	0x3da00efd	0.07815359
38	0x3e5b321e	0.21405837
39	0xbc5c06b3	-0.013429332
40	0x3cb0cc96	0.02158193
41	0x3dbae00c	0.09124765
42	0x3df6d67e	0.1205263
43	0xbcfab58f	-0.030604152
44	0x3db1afe0	0.086761236
45	0x3e3d2d2f	0.18474267
46	0xbda7bc7b	-0.08190247
47	0x3e72c063	0.23706202
48	0x3e9f5af4	0.3112408
49	0x3e4e3cbc	0.20140356
50	0x3ec96fd5	0.39343134
51	0x3b6841ed	0.0035439685
52	0x3d74a90d	0.059731532
53	0xbbeb680e	-0.007184035
54	0xbe5bc3c4	-0.21461397
55	0x3ceabb23	0.028653687
56	0xbd3e888c	-0.04651694
57	0xbe03c907	-0.12869655
58	0xbe074ae9	-0.1321217
59	0xbdeef612	-0.11668028
60	0x3d8e8d35	0.06960527
61	0xbe675ba0	-0.22593546
62	0xbdcf3843	-0.10118153
63	0x3e167bf3	0.1469572
64	0x3c2a89ca	0.010408828
65	0x3d931a7d	0.071827866
66	0xbd5a05da	-0.053228237
67	0x3cdff336	0.027337652
68	0x3d34648a	0.044041194
69	0xbe97343f	-0.29532048
70	0xbebd646e	-0.36990684
71	0x3bda8008	0.0066680945
72	0x3cde6b98	0.027150914
73	0x3e01b845	0.1266795
74	0xbe7136c2	-0.23556045
75	0x3c043a78	0.008070581
76	0xbdf180b1	-0.11792124
77	0xbeb76ac9	-0.35823658
78	0x3d7a3ec8	0.06109503
79	0xbe0d4783	-0.13796811
80	0xbdeab396	-0.114600345
81	0xbd28eaa0	-0.04123938
82	0x3c8b1650	0.016978413
83	0xbea03f41	-0.3129826
84	0xbec33989	-0.38129833
85	0x3dbb8f99	0.091582485
86	0xbed02539	-0.406534
87	0x3ed125c4	0.40849125
88	0x3e9919c7	0.2990248
89	0x3ec6305c	0.3870877
90	0x3e504c9a	0.20341721
91	0xbe70c338	-0.2351197
92	0xbe8153d6	-0.25259274
93	0xbd2740e2	-0.04083336
94	0x3e15f1ee	0.1464307
95	0x3e31180b	0.17294328
96	0x3e5c2d49	0.2150165
97	0x3ddd941b	0.108192645
98	0x3caa3872	0.020778868
99	0xbdef8462	-0.11695172
100	0x3e115a87	0.1419469
101	0xbe16281d	-0.1466374
102	0xbe06b88e	-0.1315634
103	0x3c0384e7	0.008027292
104	0x3e629964	0.22128826
105	0xbe44570a	-0.19173828
106	0xbe738aaa	-0.23783365
107	0xbeaba3cc	-0.33523405
108	0xbe2bcb98	-0.16776884
109	0x3e3a22df	0.18177365
110	0xbd53adb7	-0.05167934
111	0x3d9854a3	0.07438018
112	0x3d03d0df	0.032181617
113	0xbc4e97b2	-0.012609409
114	0x3e2b3215	0.16718324
115	0xbc67a56a	-0.014138559
116	0xbe05bc4a	-0.13060108
117	0x3e55eec9	0.2089187
118	0x3eb2ceec	0.34923494
119	0xbe9705de	-0.29496664
120	0x3eaf1007	0.34191915
121	0xbde33718	-0.11094493
122	0x3e950030	0.29101706
123	0x3d9d11b1	0.0766939
124	0xbdc2cde8	-0.0951193
125	0x3e8e4edd	0.27794543
126	0x3e60d553	0.21956377
127	0x3d939253	0.072056435
128	0xbe0d085e	-0.13772723
129	0x3a48eae0	0.00076643936
130	0xbc8b2697	-0.016986175
131	0x3e54d775	0.20785315
132	0x3e40bffb	0.18823235
133	0x3db1b236	0.08676569
134	0xbe6679e1	-0.2250743
135	0x3e614be5	0.22001608
136	0xbd82e50c	-0.063913435
137	0x3d0d3e9d	0.03448354
138	0xbd8b7327	-0.06809073
139	0x3e0aac23	0.13542227
140	0xbc7f2015	-0.015571614
141	0x3e0b98b9	0.13632478
142	0x3dd6d854	0.1049048
143	0xbe32f56e	-0.17476436
144	0x3df668af	0.120316856
145	0x3d90a758	0.07063168
146	0x3e0c9b95	0.13731225
147	0x3d997fbc	0.074950665
148	0xbd08353f	-0.033253904
149	0xbe57c9fb	-0.21073143
150	0x3c87aa36	0.016560655
151	0xbd0f2acf	-0.034952935
152	0x3e6bc466	0.23024139
153	0x3c28fcb2	0.0103141535
154	0x3ca7b957	0.02047412
155	0xbe1b1c9c	-0.15147632
156	0xbd5e292f	-0.054238494
157	0x3ef6e223	0.48219404
158	0x3ce8edee	0.028433766
159	0xbe81934c	-0.2530769
160	0x3d026f38	0.031844348
161	0xbe1f9702	-0.15584949
162	0xbe3252c1	-0.1741438
163	0x3e82871c	0.25493705
164	0x3e1c8c0c	0.15287799
165	0x3db4abee	0.088218555
166	0xbe6b059a	-0.22951356
167	0x3dd6b313	0.104833744
168	0x3caf19e9	0.02137466
169	0x3d0d0f32	0.03443832
170	0xb905ba1d	-0.00012753201
171	0xbe4dbf88	-0.20092595
172	0xbdf03d5f	-0.117304556
173	0x3d7a84bd	0.061161745
174	0xbdd6a1dc	-0.10480091
175	0xbda6838f	-0.081305616
176	0x3e6a0bb0	0.22856021
177	0xbc5f8e1a	-0.0136447195
178	0x3e884bb1	0.26620248
179	0x3b294f8b	0.0025834765
180	0xbe323292	-0.17402104
181	0xbd0c7b0c	-0.034297034
182	0x3eaa9a0d	0.33320656
183	0xbdbcfd7c	-0.09228036
184	0x3dcdaba9	0.10042507
185	0x3e612862	0.21988061
186	0xbd51dc90	-0.051235735
187	0x3cae87b5	0.021304945
188	0xbd5ac0ae	-0.05340641
189	0x3d6d0e01	0.057874683
190	0x3da5e80c	0.081009
191	0xbd426275	-0.047457177
192	0x3e534870	0.20633101
193	0x3e6b8987	0.23001681
194	0x3db253b9	0.08707375
195	0xbc484840	-0.012224257
196	0xbdac8b27	-0.08424979
197	0x3d83f28e	0.06442748
198	0xbd1549c7	-0.036447313
199	0x3cee359f	0.029078303
200	0xbd3683eb	-0.0445594
201	0x3cb2952d	0.021799648
202	0x3ad97275	0.0016589897
203	0x3ae4ddee	0.001746116
204	0x3e74542c	0.23860234
205	0xbe04f52b	-0.12984149
206	0x3e140819	0.14456214
207	0x3d125a4f	0.035730656
208	0xbca211f3	-0.01978395
209	0xbe000543	-0.12502007
210	0xbd8882bd	-0.06665561
211	0x3da66134	0.08124009
212	0xbe058fde	-0.13043162
213	0x3e31cdaf	0.17363618
214	0xbe00b321	-0.12568332
215	0xbddac712	-0.10682501
216	0xbcdc6ffb	-0.026908865
217	0xbd8909eb	-0.06691345
218	0x3e07258e	0.1319792
219	0xbd4f710f	-0.05064493
220	0x3e3252b8	0.17414367
221	0x3d8104da	0.062997535
222	0xbe5c6601	-0.21523286
223	0xbe08ad04	-0.1334725
224	0xbda0a781	-0.07844449
225	0xbe0d1f0e	-0.13781378
226	0x3d16824e	0.036745362
227	0x39dfe6b9	0.00042705776
228	0xbda71a33	-0.08159294
229	0xbd027fd4	-0.031860188
230	0x3e2a3df0	0.1662519
231	0xbe0efa5f	-0.13962696
232	0xbbe827ba	-0.007084814
233	0x3af9170f	0.0019004064
234	0x3dc51d80	0.09624767
235	0xbe55f655	-0.2089475
236	0xbea689cb	-0.32527003
237	0x3dc2323d	0.094822384
238	0xbe07c55c	-0.1325888
239	0xbe53be90	-0.20678163
240	0x3df11c90	0.11773026
241	0x3dc7bd14	0.09752861
242	0xbe2c939c	-0.16853184
243	0xbe05e2a7	-0.13074742
244	0xbb5593bf	-0.0032589284
245	0xbd10be0c	-0.035337493
246	0x3d780a21	0.060556535
247	0xbcfe029d	-0.031007105
248	0x3de3677e	0.11103724
249	0xbeaa5c28	-0.33273435
250	0x3d0d9d6b	0.034573954
251	0xbe32fe16	-0.17479739
252	0xbe02b7d9	-0.12765445
253	0x3c1a10eb	0.009403448
254	0x3d8b6920	0.068071604
255	0x3dcd6062	0.10028149

onnx::Conv_90 f4 [8]
0	0xbe997c75	-0.29977766
1	0x3c50c050	0.012741163
2	0xbdc2d6c8	-0.095136225
3	0x3e01dba0	0.12681437
4	0x3f2eb6c9	0.6824766
5	0x3e08442e	0.13307258
6	0xbf2a9f34	-0.66649175
7	0x3fa2f37e	1.2730558

onnx::Conv_92 f4 [8, 8, 3, 3]
0	0xbda87b3c	-0.0822663
1	0xbe378c23	-0.17924552
2	0x3c90e77c	0.017688505
3	0xbd9beb6f	-0.07613265
4	0x3c277182	0.010219933
5	0xbdb0ea99	-0.08638496
6	0xbd670a09	-0.056406055
7	0x3d630aa0	0.055430055
8	0x3db78879	0.08961577
9	0x3d9adf92	0.07562174
10	0xbca0691a	-0.019581366
11	0x3ded6e51	0.11593307
12	0x3dedd484	0.116128
13	0x3d2455b5	0.0401208
14	0x3d386397	0.04501685
15	0xbd7e49bb	-0.062082034
16	0xbd150f97	-0.03639182
17	0xbc64e8a1	-0.013971479
18	0x3ca68bb1	0.020330282
19	0x3d6f0833	0.05835743
20	0xbc73125c	-0.01483592
21	0xbd8384e2	-0.0642183
22	0xbd5e4d4b	-0.05427293
23	0xbcbb0852	-0.022831116
24	0xbc2d2889	-0.010568746
25	0xbc2f8960	-0.010713905
26	0xbd432d6d	-0.047650743
27	0x3e1061b9	0.14099778
28	0x3e53e84c	0.20694083
29	0x3e2e953b	0.17049114
30	0xbe093cde	-0.13402125
31	0xbdf922bb	-0.121648274
32	0xbd9584c5	-0.073007144
33	0x3d3fcecb	0.046828073
34	0xbd41ff55	-0.047362644
35	0xbc82abef	-0.015951125
36	0xbd3d824a	-0.04626683
37	0x3dc4a093	0.096009396
38	0x3d65e8bf	0.056130167
39	0x3de41723	0.111372255
40	0xbc8ec712	-0.017428908
41	0xbbc70c01	-0.006074429
42	0x3be2a359	0.006916445
43	0xbd02360e	-0.03178983
44	0x3bcdf967	0.0062858346
45	0xbe816338	-0.2527101
46	0xbd8ee19b	-0.069766246
47	0xbd441baf	-0.047877964
48	0x3d07eddf	0.033185836
49	0xbe0d5809	-0.13803114
50	0xbdde29cf	-0.10847818
51	0xbd4150ff	-0.047196385
52	0xbdd63794	-0.104598194
53	0xbe229ae3	-0.15879397
54	0x3c19174f	0.009343936
55	0xbd537c88	-0.051632434
56	0x3d8f9a0f	0.07011806
57	0x3d947035	0.07247964
58	0xbcae3fcc	-0.021270655
59	0xbd04c4d3	-0.03241427
60	0x3d356899	0.044289205
61	0xbc0d581e	-0.008626966
62	0x3a4cd0d1	0.00078130985
63	0x3d4c3e13	0.049863886
64	0xbb539171	-0.0032282735
65	0x3d27d798	0.04097709
66	0xbdb0989c	-0.08622858
67	0xbd48887b	-0.048958283
68	0xbe1473bc	-0.14497274
69	0xbd523058	-0.051315635
70	0x3c7827a1	0.015146167
71	0x3cd1b727	0.02560003
72	0x3df75e1a	0.12078495
73	0xbda324f6	-0.07966034
74	0xbdf63a79	-0.120228715
75	0xbd5d30b5	-0.05400153
76	0x3c349935	0.0110228555
77	0xbd23e306	-0.04001143
78	0xbe0f94d7	-0.14021622
79	0xbe5e94a2	-0.21736386
80	0xbe3bd353	-0.18342333
81	0xbd36910e	-0.04457193
82	0x3d744074	0.05963178
83	0xbbe47b14	-0.00697268
84	0xbbe467fc	-0.0069704037
85	0x3d195434	0.037433818
86	0x3d2ced3a	0.042218424
87	0x3d31f84a	0.043449678
88	0xbb9ac294	-0.0047229026
89	0x3dc7dcbb	0.09758898
90	0x3db648da	0.08900614
91	0x3e00b0a8	0.12567389
92	0x3c62990c	0.0138304345
93	0x3df5db92	0.1200477
94	0x3d36d772	0.04463906
95	0xbd6179fd	-0.055047978
96	0xbb37a566	-0.002802217
97	0x3d8d6a76	0.069050714
98	0xbd955ea3	-0.07293441
99	0xbe1da373	-0.15394382
100	0xbd9f08be	-0.07765339
101	0xbe0c4fbf	-0.13702296
102	0xbdc1a6cc	-0.09455642
103	0xbd114b69	-0.035472307
104	0xbdf0b53c	-0.11753318
105	0x3ddf7e27	0.109127335
106	0x3d884ff3	0.06655874
107	0xbdabd6f5	-0.08390609
108	0x3d5bb2ba	0.053637244
109	0xbd45f32b	-0.048327606
110	0x3b38c340	0.002819255
111	0x3cc35236	0.023842912
112	0x3db98bae	0.09059845
113	0xbc5c4463	-0.013444039
114	0x3deba111	0.1150533
115	0x3dc7b329	0.09750969
116	0x3e1d01cf	0.15332721
117	0xbd0083f7	-0.03137585
118	0x3df1b2f9	0.118017145
119	0x3d2d4af6	0.042307816
120	0xbd0ce83b	-0.03440116
121	0x3d8b9ada	0.06816645
122	0x3dacb2e1	0.08432556
123	0xbdbd7596	-0.09250943
124	0xbd3baa07	-0.045816448
125	0x3d384a36	0.044992648
126	0xbe557dbb	-0.20848744
127	0xbd40ca32	-0.04706783
128	0x3bff294a	0.0077869045
129	0x3e10a105	0.14123924
130	0xbc5ea29b	-0.013588573
131	0xbd80cedd	-0.06289456
132	0xbdd27c59	-0.10277624
133	0x3ceaa599	0.028643416
134	0x3e03949a	0.12849656
135	0x3db5c04e	0.0887457
136	0x3d7e0a85	0.06202175
137	0xbe2af601	-0.16695406
138	0x3cdabd74	0.026701666
139	0x3dd75f75	0.10516254
140	0xbdf33bfc	-0.118766755
141	0xbde6fd8f	-0.11278831
142	0x3c964314	0.018342532
143	0x3c09fcea	0.008422116
144	0xbcac2af0	-0.021016568
145	0x3e014a1b	0.12625925
146	0xbcbf037d	-0.023317093
147	0xbe56bf36	-0.20971379
148	0x3d944242	0.072392
149	0xbe162728	-0.14663374
150	0x3db1761e	0.08665107
151	0xbcf510cd	-0.029915238
152	0x3cb9fa9c	0.022702508
153	0x3d8983bd	0.0671458
154	0xbd79b499	-0.060963247
155	0xbd8f4075	-0.06994716
156	0xbc525626	-0.012837922
157	0x3dbf768a	0.093487814
158	0x3d1d0fe9	0.03834525
159	0xbbab1914	-0.0052214954
160	0x3dc4b43f	0.09604692
161	0x3d4e7a4b	0.050409596
162	0xbb50f366	-0.0031883358
163	0x3cf19f0a	0.029494781
164	0x3dd2370b	0.10264405
165	0xbdda09e1	-0.106464155
166	0xbcabcf29	-0.020972805
167	0xbd0536da	-0.032523014
168	0xbd91a1f4	-0.07110968
169	0x3dd3fc93	0.10350909
170	0xbd00721d	-0.031358827
171	0x3a4dee2a	0.00078556186
172	0xbe2d8bc4	-0.16947848
173	0xbd2a5279	-0.04158256
174	0xbcf3430d	-0.029695058
175	0x3d2a677f	0.041602608
176	0xbd52f04f	-0.051498707
177	0xbde838ac	-0.11338934
178	0xbd05d062	-0.032669432
179	0xbc6f7eec	-0.014617663
180	0xbdacdc87	-0.084405
181	0xbd13c75b	-0.036078792
182	0xbe6cc0f0	-0.23120475
183	0x3ba29aaa	0.004962285
184	0x3c1bc1d1	0.009506659
185	0x3dc04c75	0.09389583
186	0x3d8e5d57	0.06951397
187	0x3ddfd0ed	0.10928521
188	0x3e070ea2	0.13189176
189	0x3e31116e	0.17291805
190	0xbd28de82	-0.041227825
191	0xbd0afe91	-0.03393418
192	0x3e654463	0.22389369
193	0xbb8afa18	-0.0042412393
194	0xbc90b7ba	-0.017665733
195	0x3d55259f	0.05203783
196	0xbd2bb5c2	-0.041921385
197	0xbd88e5a7	-0.06684428
198	0xbc80e41f	-0.015733777
199	0x3d8af1b5	0.06784383
200	0xbcc7c0be	-0.024383899
201	0x3d9fa7b0	0.07795656
202	0x3c05e629	0.00817255
203	0xbe0f27d6	-0.1398004
204	0xbba6672c	-0.005078217
205	0x3dbdcc5f	0.09267496
206	0x3b5f6c4d	0.0034091652
207	0x3bbd8df0	0.0057847425
208	0x3c8b93c3	0.017038232
209	0x3c5ebff0	0.013595566
210	0xbddbfd06	-0.1074162
211	0x3d492e0e	0.049116187
212	0x3bcd6e93	0.006269285
213	0x3dacf0ae	0.084443435
214	0x3cb66e68	0.022269443
215	0xbe33d56c	-0.17561883
216	0xbd92aba3	-0.07161643
217	0xbe1b5f65	-0.15173109
218	0xbd0e80b8	-0.034790725
219	0x3d8f2919	0.06990261
220	0x3d812b3b	0.06307074
221	0xbda93735	-0.08262483
222	0x3d35e495	0.044407446
223	0xbdbdd7d0	-0.092696786
224	0x3dad97f7	0.084762506
225	0x3c801405	0.015634546
226	0x3e207b00	0.15671921
227	0xbdacb40b	-0.08432778
228	0xbd2c46f6	-0.04205986
229	0x3d98b8bf	0.074571125
230	0x3d06311d	0.03276168
231	0xbdc9991a	-0.09843655
232	0x3d5c1e8c	0.05374007
233	0xbe019605	-0.12654884
234	0x3e855e7a	0.26048642
235	0x3dabfc9d	0.083977915
236	0x3d922997	0.07136839
237	0xbc635ee1	-0.013877601
238	0x3dcd693c	0.100298375
239	0xbbcc9c3c	-0.0062442105
240	0x3d624aec	0.055247232
241	0xbc3e6a3c	-0.011622008
242	0x3b90b076	0.004415567
243	0x3b824ccb	0.0039764396
244	0xbcca1f68	-0.024673179
245	0x3cc3c9f7	0.023900015
246	0x3ddaf8c9	0.10691983
247	0x3d381ff1	0.044952337
248	0x3d70dbf7	0.058803525
249	0xbdb3c83d	-0.08778427
250	0x3c75c7a2	0.015001209
251	0xbd8780b5	-0.06616346
252	0xbcc2b95c	-0.023770027
253	0xbd218ffa	-0.039443947
254	0xbcea5dea	-0.028609235
255	0x3da414e2	0.080117956

onnx::Conv_93 f4 [8]
0	0x3f911f92	1.133776
1	0xbd3869b7	-0.045022693
2	0x3f0a5ebe	0.54050815
3	0xbfab38b5	-1.3376681
4	0xbd4ef034	-0.050522044
5	0xbf69ed9e	-0.913782
6	0xbf8bdd8a	-1.0926983
7	0xbf562434	-0.8364899

onnx::Conv_95 f4 [8, 8, 3, 3]
0	0x3d1528e9	0.036415968
1	0xbe894730	-0.26812124
2	0x3dcf106c	0.10110554
3	0x3e8279c0	0.25483513
4	0xba848954	-0.0010111728
5	0xbcfbe8ba	-0.030750621
6	0x3ecef27d	0.4041938
7	0x3e9140e6	0.28369826
8	0x3ed5d07f	0.41760632
9	0xbda75a89	-0.08171565
10	0x3dbfe102	0.09369089
11	0x3d4c3681	0.049856666
12	0x3e36e86d	0.17862101
13	0xbe7d586e	-0.24740764
14	0xbe4b2626	-0.19838771
15	0xbd66db65	-0.056361575
16	0x3db24c72	0.08705987
17	0xbd4dba1b	-0.050226312
18	0x3e5a111f	0.21295594
19	0x3e86bf4e	0.2631783
20	0x3c9663ad	0.018358076
21	0xbcde8cd2	-0.027166758
22	0xbdb11584	-0.08646682
23	0x3e1e3c1c	0.15452617
24	0x3e05ae8b	0.13054864
25	0xbe9b585e	-0.30340856
26	0x3c515d05	0.012778525
27	0x3eb63b60	0.35592175
28	0xbdcf6fe4	-0.10128763
29	0x3db8ee0e	0.0902978
30	0xbd4ca112	-0.049958296
31	0x3dc81b6e	0.09770857
32	0xbe82f66d	-0.25578633
33	0x3dbd9245	0.09256414
34	0x3e8d7ddd	0.2763509
35	0x3e918663	0.2842284
36	0xbe5daca9	-0.21647896
37	0xbe0f0275	-0.13965781
38	0x3e68d4d5	0.22737439
39	0x3d3873a8	0.045032173
40	0x3d5ccd3d	0.053906668
41	0x3e4e56b8	0.20150268
42	0x3d91e4c5	0.071237125
43	0xbea27415	-0.3172919
44	0xbbd5421b	-0.0065081245
45	0x3e5aec71	0.21379258
46	0x3da1e678	0.079052866
47	0x3e07b54c	0.13252753
48	0x3e7e20f0	0.24817252
49	0xbd494b62	-0.049144156
50	0x3ee2c681	0.4429207
51	0x3e109bf3	0.1412199
52	0xbdfd2de8	-0.123622715
53	0xbd54f268	-0.05198899
54	0xbd925e27	-0.071468644
55	0xbdcc91db	-0.09988757
56	0xbe8975e6	-0.26847762
57	0xbdda20d5	-0.106507935
58	0x3e451321	0.19245578
59	0xbcc07fe8	-0.02349849
60	0xbe29954c	-0.16560858
61	0x3e4ae087	0.19812213
62	0x3e55bd2a	0.20872942
63	0xbee69434	-0.45034945
64	0xbc675dcc	-0.014121484
65	0xbd905bd1	-0.070487626
66	0xbeb0f918	-0.34565043
67	0xbe221c20	-0.15831041
68	0x3e7a46c2	0.24441054
69	0xbdd62944	-0.104570895
70	0xbe7ea91e	-0.248692
71	0xbe52db9e	-0.2059159
72	0xbe94801b	-0.29003987
73	0x3d5fbc83	0.05462314
74	0xbe3226d2	-0.17397621
75	0xbc1af35e	-0.009457437
76	0xbd4ccf4e	-0.05000239
77	0xbe234b6d	-0.15946741
78	0x3e921afc	0.28536212
79	0x3e417565	0.18892439
80	0xbe682d78	-0.22673595
81	0x3e8f9859	0.2804592
82	0xbe39c434	-0.18141252
83	0x3e812cec	0.25229585
84	0xbdd75a6d	-0.10515294
85	0x3e8d8236	0.27638406
86	0x3e84b6b7	0.2592065
87	0xbe510316	-0.20411333
88	0xbe54b09f	-0.207705
89	0x3da39849	0.079880305
90	0x3eb5fe10	0.35545397
91	0xbd832bc1	-0.0640483
92	0x3cccf95d	0.02502125
93	0xbd5a5f40	-0.053313494
94	0xbe21ae43	-0.15789132
95	0x3c7f2fa8	0.015575327
96	0x3e0488c2	0.12942794
97	0x3d3e4ff2	0.04646296
98	0x3ea67335	0.3250977
99	0x3e1e3f6e	0.15453884
100	0x3d99b8c9	0.07505948
101	0xbe3fc1e8	-0.18726313
102	0x3c0594d4	0.008153159
103	0xbd1227b2	-0.035682388
104	0x3cfd258f	0.030901698
105	0x3e627e94	0.22118598
106	0xbdbcf17d	-0.09225748
107	0x3bf89ad5	0.007586817
108	0xbe87aa23	-0.26496992
109	0xbe7cb9e4	-0.24680287
110	0xbe696a24	-0.22794396
111	0x3e9ddd7e	0.30833048
112	0x3bbbc399	0.005730104
113	0xbe8d504a	-0.27600318
114	0xbdaed78b	-0.08537205
115	0x3e6cf78c	0.23141307
116	0xbe644ddf	-0.2229533
117	0x3e6b7cda	0.22996846
118	0xbdd5ac38	-0.10433239
119	0x3de7090e	0.11281024
120	0xbe176861	-0.14785911
121	0xbedf5864	-0.43622124
122	0xbd893228	-0.0669902
123	0x3d851e85	0.06499962
124	0xbe783b05	-0.24241264
125	0xbe35a764	-0.17739636
126	0x3d7124b8	0.05887291
127	0x3e02f10a	0.12787262
128	0x3e4d87ce	0.20071337
129	0x3d6b5b08	0.05745986
130	0x3df914ce	0.12162171
131	0xbeb0ee02	-0.34556586
132	0x3ea4ced8	0.3218906
133	0xbe2dfd3c	-0.16991132
134	0xbe0571db	-0.13031714
135	0xbe3672f5	-0.1781729
136	0xbdfbc71c	-0.122938365
137	0xbdb804c3	-0.08985283
138	0xbe64f3da	-0.22358647
139	0xbd6c8de6	-0.057752512
140	0x3d78fdff	0.060789105
141	0xbeadbebc	-0.3393458
142	0x3e9e904c	0.30969465
143	0x3c47df7a	0.012199277
144	0xbd564876	-0.052315198
145	0x3d87db1e	0.0663359
146	0xbd7c8cf5	-0.061657865
147	0xbdadc72b	-0.08485254
148	0xbd0b49b3	-0.034005832
149	0xbbecb6be	-0.007223933
150	0xbdbd887b	-0.09254547
151	0xbda101a8	-0.07861644
152	0xbda1d521	-0.07901979
153	0x3d8224b0	0.06354654
154	0xbdb5e29c	-0.08881113
155	0xbd201826	-0.03908553
156	0xbddf0af5	-0.10890762
157	0xbd9f2c99	-0.07772178
158	0xbd668960	-0.056283355
159	0xbad5efe6	-0.0016322106
160	0xbda64d2b	-0.08120187
161	0xbcec0af4	-0.028813817
162	0xbd963787	-0.0733481
163	0xbbad6233	-0.0052912473
164	0xbd615336	-0.055010997
165	0x3d17b656	0.037039123
166	0x3aa2c326	0.0012417778
167	0xbdc37be2	-0.09545113
168	0x3cb25d1d	0.021772915
169	0x3b0386f6	0.0020069457
170	0xbe2f1d23	-0.17100959
171	0x3dce2108	0.10064894
172	0xbd8cc253	-0.06873002
173	0xbe09f170	-0.13471007
174	0x3d4fb417	0.050708856
175	0x3c82ef00	0.015983105
176	0x3c9c7efe	0.019103523
177	0xbdfb6668	-0.12275392
178	0xbe22623c	-0.15857786
179	0xbd69e18b	-0.05709986
180	0x3c328f9b	0.010898496
181	0x3d8edbf8	0.069755495
182	0x3d83232e	0.06403194
183	0x3ca03f5b	0.01956146
184	0x3e576844	0.21035868
185	0xbcaa9e20	-0.020827353
186	0x3c51e381	0.012810589
187	0x3e020e02	0.12700656
188	0xbc00b1a7	-0.007854856
189	0x3b34940a	0.0027554058
190	0x3cc69d07	0.024244798
191	0xbe0e6c4b	-0.13908498
192	0xbcd80496	-0.026369374
193	0xbcc13eca	-0.02358951
194	0x3df7cbdb	0.12099429
195	0x3dd400a2	0.10351683
196	0x3e783c9d	0.24241872
197	0x3e3de227	0.18543302
198	0xbe350aba	-0.17679873
199	0x3dbeb693	0.09312167
200	0x3dde394b	0.108507715
201	0x3cbd413b	0.023102393
202	0x3dfdd8bc	0.123948544
203	0x3c844375	0.016145447
204	0xbd599295	-0.053118307
205	0x3ca60c2d	0.020269478
206	0x3d9d837f	0.076910965
207	0x3ccb655f	0.024828611
208	0x3d4989bf	0.04920363
209	0x3d1e0278	0.038576573
210	0x3d5b571e	0.05354988
211	0x3cea568f	0.028605727
212	0xbc6dcba5	-0.014513885
213	0x3d3a175f	0.045432445
214	0x3d71039a	0.058841325
215	0x3e3aa949	0.1822864
216	0x3c9806cc	0.018557929
217	0xba2e07fc	-0.0006638763
218	0x3e0c43b2	0.13697699
219	0xbe72c400	-0.2370758
220	0xbd6dca4e	-0.05805426
221	0x3da51538	0.08060688
222	0xbec6635b	-0.38747677
223	0xbe95b319	-0.29238203
224	0x3daac4e7	0.083383374
225	0x3d3e488c	0.046455905
226	0xbdee3f0e	-0.116331205
227	0x3d8e8800	0.06959534
228	0x3e120e08	0.14263165
229	0x3daf6a92	0.085652485
230	0x3e0000b2	0.12500265
231	0xbe7d66b1	-0.24746205
232	0xbc251be3	-0.0100774495
233	0x3ea3f203	0.32020578
234	0x3d3fffa2	0.04687465
235	0x3e307291	0.17231204
236	0xbe6d49e2	-0.23172715
237	0x3eaa6714	0.33281767
238	0x3d415b3a	0.04720614
239	0xbe9dc55e	-0.30814642
240	0x3d3badf6	0.0458202
241	0x3db0c68b	0.08631619
242	0xbe678612	-0.22609738
243	0x3da3817e	0.07983683
244	0x3e47bfa6	0.19506702
245	0x3e1fa2ee	0.15589496
246	0x3d8072bb	0.06271883
247	0xbc08f5a3	-0.008359346
248	0xbe48df7d	-0.19616504
249	0x3c145e27	0.009055651
250	0xbd4c4637	-0.04987165
251	0xbb78daea	-0.003797228
252	0xbd51b9f1	-0.05120272
253	0x3e877f94	0.26464522
254	0x3e38b131	0.18036343
255	0x3d054a6d	0.03254168
