models/alphazero/alphazero_2026_02_05_21_22_33/main.pt (torch, 67532 bytes, 93 tensors)

startBlock.0.weight f4 [6, 4, 3, 3]
00000000: 5233 c33d c3bc 0bbe f493 85bd 18bd c43d
00000010: eb03 2dbd 7594 683d e744 f93d 6948 0dbd
00000020: 1c59 153e a470 b2bc 6e54 4bbe 0233 b8bc
00000030: 38cf b53b 6ab4 04be b101 993d 2517 363d
00000040: 3924 07be dc16 e8bb b582 d5bd 0dd1 5e3d
00000050: 4981 27be 882a 133e 6fc9 093d 2e3a a6bd
00000060: e9bd b53c c4aa 0ebe f3cb abbb 0359 3c3d
00000070: 821f 0a3e 1be3 373e ca6f cd3d dba2 8bbd
00000080: 9d5d ffbd 64fc d7bd d539 1bbe 7e4d 5a3a
00000090: 7229 d5bd 078f 553c 79ac 98bd 9fff c2bd
000000a0: af15 62bd eac3 4a3d 6319 223c a1fa 89bd
000000b0: 6cc3 c33d ae70 b23d 0f30 20be 367d 7dbd
000000c0: 3533 303e 2e26 23be 6a30 083e cca1 93bd
000000d0: ebea 053e 803b 833d 699e 133e c883 043e
000000e0: df37 59be 1b1f 11be e3d5 d53d 86bb 0e3e
000000f0: f522 23bd 3ed4 20bd 7672 80bc 19dd 0e3e
00000100: 0b24 c43d 40cc e0bd f5d1 4dbc c7af d53d
00000110: 741c 2fbe 227e 25be 5e22 b53d d4a5 af3c
00000120: 4b9f 3bbd 4a41 293d fac5 9fbc 51c3 f13c
00000130: 24f1 92bd ee66 0cbc 3d9d 4f3d 283e 02bd
00000140: 13fd 463b a166 9cbd cfbe 2ebe a731 ee3c
00000150: ec49 d33d 4ae4 b03d 9d6f f3bd b635 b03d
00000160: 6499 cb3c 75bd 0dbe 9f0b d8bd 7174 debd
00000170: c0d4 3abc 1f76 07bd 293e bebd c56e 0a3e
00000180: a661 093e 03fb 18be 15fa 67bc 8c23 e63d
00000190: 702b a53d 399e 803d c70e 17be 5a21 22be
000001a0: a0b2 1abe 75e3 9cbc 2e18 e5bc d7aa fc3d
000001b0: e32a 753c 46da e03c db51 00be 3f2a d7bd
000001c0: 9c2a 063e 3d02 a4bc 47c2 153d dd37 c9bd
000001d0: 8748 3e3d 7c3a 553d c17c 073d 6488 ce3d
000001e0: 0a63 f3bd 5fa3 0f3e 1240 e23c 9f77 4b3e
000001f0: 601c d83d 30e9 d23d ec82 663d e83d 943d
00000200: 9035 c4bd dbfd c23c 0918 923d ad2f 0abd
00000210: 3eed 343d 2f55 2c3d c758 b23c 446b 0bbe
00000220: 7089 7c3d 8b92 10be 50c9 013e e1db 17be
00000230: 252b 833d 3e02 afbc 298e 143e d47f 2abe
00000240: 0bb9 273e 5ded f13c 82c8 bc3d 97f7 693d
00000250: 8da4 b73d cc01 18be 8b3e 0fbe a5ef cc3d
00000260: 8e68 bc3d d2b6 13be 57a3 d53d b037 fabc
00000270: 8389 0bbe df07 ea3d 1f22 acbd 8022 c93d
00000280: bd27 43bd 0841 a33d 1552 0b3d 076e 2dbe
00000290: f798 353d e254 90bd 7fb8 27be 9968 1dbe
000002a0: 44f8 133e 294b f43d ae14 b5bd 5f54 1f3e
000002b0: 4c1a 0f3e 1033 8f3d a22e dabd 15ef 2b3e
000002c0: d228 ebbd db0b 023e a5d9 133e e5e6 b43d
000002d0: b8ba 11be 4cf4 083e 53bd e33c d94d 713d
000002e0: c115 043e 1c2b 913d 2b97 dcbd 17a8 3cbe
000002f0: 71c1 b73c eb6f 0f3d ccbc acbd 2c97 26bd
00000300: 0a1b 293e 0a49 19bd 9a11 c0bd 983b dcbd
00000310: b372 493e 8daf f5bd be3e cbbd 080e 673c
00000320: 64e1 c8bd 7eef 0ebe aaf9 dc3c 8115 0dbe
00000330: d685 123e 8667 843b a017 34be 01ce bebd
00000340: 5900 24be c6e2 4d3b 9245 e8bd 20ec 0bbe
00000350: 4720 53be 60d9 02be 6238 e83d 5128 eabd
0.09531273 -0.13646226 -0.065223604 0.09606379 -0.042240065 0.056782205 0.12171345 -0.034492884
0.14584774 -0.021782227 -0.19856426 -0.02248526 0.005548384 -0.12959448 0.07471026 0.044455666
-0.13197412 -0.007082803 -0.10425321 0.054398585 -0.16357912 0.14371693 0.033639368 -0.08116566
0.022185283 -0.1393233 -0.0052428185 0.045983326 0.13488582 0.17957728 0.10031088 -0.068181716
-0.12469027 -0.105461866 -0.1515878 0.0008327587 -0.10408296 0.013034589 -0.074547715 -0.09521412
-0.05519646 0.049503244 0.009893748 -0.06737257 0.09558758 0.08712898 -0.15643333 -0.06188699
0.17207034 -0.15932533 0.13299718 -0.07208595 0.13077895 0.06407833 0.14415897 0.12940896
-0.2121272 -0.14172022 0.10441186 0.13938722 -0.03982826 -0.03926491 -0.01567958 0.1395153
0.09577187 -0.109764576 -0.012562265 0.104339175 -0.17100698 -0.16161397 0.08844446 0.021441378
-0.04580621 0.04132203 -0.019503582 0.02951208 -0.071749 -0.008569462 0.050687063 -0.031797558
0.0030363246 -0.076367624 -0.17064975 0.02907641 0.10316834 0.08637293 -0.11886523 0.086039945
0.024853416 -0.13841803 -0.105490915 -0.10862053 -0.011403263 -0.033071633 -0.092892 0.13518818
0.13416156 -0.14939503 -0.014158745 0.11237249 0.08064926 0.062801786 -0.14751731 -0.15833035
-0.15107203 -0.019151429 -0.027965631 0.123372726 0.014963838 0.02744783 -0.12531225 -0.10506105
0.13102192 -0.020020599 0.03656223 -0.09825108 0.046455886 0.05205773 0.03307796 0.10084608
-0.118841246 0.14027165 0.027618442 0.1986985 0.10552287 0.10298383 0.0562772 0.0723837
-0.09580529 0.023802688 0.071334906 -0.033736873 0.044171564 0.042073425 0.021770848 -0.13615137
0.061654508 -0.14118402 0.12674451 -0.14829971 0.064047135 -0.021363374 0.14507355 -0.16650325
0.16379182 0.029532129 0.09217931 0.057120886 0.089669324 -0.14844435 -0.13988702 0.10006646
0.0919963 -0.14425209 0.10431545 -0.030544132 -0.13626675 0.114272825 -0.084049456 0.098210335
-0.04764532 0.07971388 0.034013826 -0.16936503 0.04433533 -0.0704744 -0.16378973 -0.15371932
0.14450175 0.11928398 -0.08841835 0.15559529 0.13974875 0.06992161 -0.10653426 0.16790421
-0.11482395 0.12699835 0.14438494 0.08833102 -0.14231384 0.13374442 0.027800238 0.058912132
0.12898923 0.070883006 -0.107710205 -0.18423496 0.022431107 0.035018843 -0.08434448 -0.040671512
0.16514221 -0.03742317 -0.09378357 -0.10753554 0.1967266 -0.11996374 -0.099240765 0.014102466
-0.09808615 -0.13958547 0.026974518 -0.13777734 0.14308867 0.0040406613 -0.17587137 -0.09316636
-0.16015758 0.0031415685 -0.113413945 -0.13664293 -0.20617782 -0.12778234 0.11338879 -0.11433471

startBlock.0.bias f4 [6]
00000000: 481d 313a 8818 4139 0d5a 5bba ec14 15b9
00000010: c3a6 9a3a 92b5 2a3a
0.00067563774 0.00018415053 -0.00083676056 -0.00014217541 0.0011798966 0.00065120414

startBlock.1.weight f4 [6]
00000000: 5834 803f 8786 753f 00d4 733f c2d6 753f
00000010: d51f 7e3f 221f 753f
1.0015974 0.959084 0.9524536 0.9603082 0.9926732 0.9575063

startBlock.1.bias f4 [6]
00000000: 28e7 563c 3d35 75ba c018 7abc a850 b3bc
00000010: 91cb 68bb 48b1 863c
0.013116635 -0.00093539414 -0.01526469 -0.021889046 -0.0035521726 0.016441956

startBlock.1.running_mean f4 [6]
00000000: 98a0 67bd a7d4 a9bc 8352 1ebe d91c e23d
00000010: 58dc 823d 2427 57be
-0.05654964 -0.020731283 -0.15461163 0.110406585 0.063896835 -0.21011025

startBlock.1.running_var f4 [6]
00000000: fd50 783d b2d7 553d 8be6 313d 366b 2b3d
00000010: 37ce 813d 7ef8 a43d
0.06062411 0.052207656 0.043432754 0.04185029 0.063381605 0.080552086

backBone.0.conv1.weight f4 [6, 6, 3, 3]
00000000: d525 223e 05c9 ef3d f03b ec3c 523f 2d3d
00000010: 2a0e 213d 391c a33d 0f12 ef3d f2bf d1bd
00000020: 8c19 e73d 106a 033d 77f5 c4bd e211 7bbd
00000030: 8c1b febd 6b08 013e e82c e2bc 90d3 d83d
00000040: 0014 fcbc 7ac3 2cbe b7c2 ef3c bf21 14bd
00000050: 2ce5 9b3d 16bd e83d 72fe 1ebe e7f8 2a3e
00000060: 3be2 793c 9bc9 673d 5704 803d 11d9 293d
00000070: 48e9 b9bd 5ca1 c7bb 15cc 86bd 9174 1cbd
00000080: a724 4cbc ca03 2c3d 33ba b03d 500d dd3d
00000090: 5860 eebc 286c a3bd 0acc 873c 8dfc 24bb
000000a0: c571 aabd ce5a 653c f3ad dabd aa2f c63d
000000b0: fe19 88bb 09ce e1bc e5bd 223d fb4f a1bd
000000c0: 1eb6 853d bcb5 b8bd 07d2 183e 03e8 7a3d
000000d0: 5712 d13d a298 b83d 202b c2bc ce4d 8ebb
000000e0: f839 0abd b356 85bc 3e6b 01be aa54 ce3c
000000f0: 0cd8 83bd 1740 663d 613a bebd c709 c6bc
00000100: cf36 673c 0ed1 403d e684 30bd 064f 563c
00000110: 7dc2 6cbd af48 b73d 4d12 863b 4b40 a23d
00000120: 7e06 973d aa13 cabd d709 623d 38b4 f23d
00000130: 2b50 f13b 109c bebd 8f0b 17bd d2c0 133e
00000140: 6ced d73d 04a9 21bd d931 113e 3388 d33c
00000150: 1526 a7bd 96d9 bb3d 06da 3cbd 02d4 ed3d
00000160: c883 60bc 6855 9bbd 1710 8f3d 955c f93c
00000170: 5a4e 14be 4827 e33d beb3 383c d7c6 31bd
00000180: 3767 a53d 82fb 4b3d 1e2b 83bc 1539 da3c
00000190: 8735 19be 9796 f93d a943 a63b 74df 9e3d
000001a0: 9c45 dc3d 41e2 2fbd 95c1 38bd b3e3 6b3d
000001b0: 988f 193d 5baf 5c3d c351 693c 281f 153d
000001c0: b823 d63d 608d db3d 44f9 3d3d c99f 03bc
000001d0: 7850 813d 5791 ccbd 83d3 d4bc 409b 63bb
000001e0: a635 a23d 98da 853d dbf4 fabc d6a1 32bd
000001f0: c8a2 603c e321 74bd a51d 90bd 87cc 393d
00000200: 49c8 c6bc 2a09 9f3d 4548 b4bc 62f3 993d
00000210: 507b d03d eee7 553d 9729 b63c 7a96 783d
00000220: 9ba8 b93d 9b0b c6bd 6bf9 03be df57 193e
00000230: 2033 d3bd 3aa8 fabd 6f3c c6bd 9e96 693d
00000240: cd9d fdbd 9ff4 18be d64a acbd 34d1 ab3d
00000250: f5e1 da3d d493 b33d 366d c4bd 3e60 353c
00000260: c9f6 35bc 4c74 373d e474 c8bc 7cea d13b
00000270: 55ea 943d 50cf 72bd 2546 debd b1dd 173e
00000280: eb0a d0bc 929e 02be 5486 a13b 595f 8a3c
00000290: a703 2d3d 83c0 88bd 0556 4c3b 3571 f1bd
000002a0: e616 c73d 162e e3bd 46e3 87bc aeab f93d
000002b0: 1a08 ed3c 6708 36bd 4432 97bc 9da2 163e
000002c0: c4b2 b3bd 8936 b83d 7c23 e83d ce64 613d
000002d0: 792e 67bc 68b4 6abd 7840 15be c430 6b3d
000002e0: 8ec6 483d 97b9 863d 6ab4 7bbd e6a2 493d
000002f0: 66f9 b9bc ffc7 fa3d dc5e 50bc 558b fcbb
00000300: d5fc c43d 9e9f fdbd 28e5 463d 8588 2d3d
00000310: 2b40 f03d bcec 9bbd 8606 063e c8b6 453d
00000320: 3870 773d 9806 d7bb 9c2f 75bd 2487 413d
00000330: b17b 05bd ef02 11bd af26 9e3d a7cf 49bd
00000340: f768 09bd 0b39 9a3d 9125 12be e8a3 f33d
00000350: db66 0e3e 2e3a 9a3b 6eb2 a8bc e8ba e23d
00000360: 27c5 7e3c 01c8 9c3d 7693 c03b d06e 05be
00000370: 4bbd c1bc 0ea6 4c3c 7057 8b3d 806f babc
00000380: ca16 f5bd 658c 203e 34bb e1bd ba9e b4bd
00000390: a02d ea3d e8c1 73bd 2aa4 d33c 3481 3cbd
000003a0: 2a68 44bc 7c12 13bc f993 8ebd d05b a0bc
000003b0: ea9f 48bc c738 c03c e997 9abc d68b a7bd
000003c0: 9b9b e93d 4559 96bd 4123 8c3d 5700 58bd
000003d0: 72d2 d53d 35b1 bfbd 1f9e b6bd 838b 31be
000003e0: 5634 d23c 6041 ab3d dcac bd3c ae18 11be
000003f0: cc44 2bbc 92c2 d53c aa32 a93d 14e8 cdbd
0.15834744 0.11708263 0.028837174 0.042296715 0.03932015 0.079643674 0.11673366 -0.10241689
0.112841696 0.03208357 -0.09617131 -0.06129635 -0.12407598 0.12600867 -0.027609304 0.10587227
-0.030771255 -0.16871443 0.029267652 -0.036164995 0.076120704 0.1136419 -0.1552675 0.16696511
0.015251691 0.05658875 0.06250828 0.041466776 -0.09077698 -0.0060922336 -0.06581894 -0.038197104
-0.0124599105 0.0419958 0.08629265 0.10793555 -0.029098675 -0.079796135 0.016576786 -0.0025174946
-0.08322481 0.0139987 -0.106777094 0.0967706 -0.004153489 -0.027564066 0.03973188 -0.07876583
0.06528877 -0.09019038 0.14923869 0.06125642 0.10208576 0.090134874 -0.023702204 -0.004342771
-0.03374669 -0.016276693 -0.12638566 0.025186855 -0.06437692 0.056213465 -0.09288479 -0.024174584
0.0141121885 0.04707437 -0.04309549 0.013080364 -0.057802666 0.0894941 0.004091537 0.07922419
0.07374285 -0.09867032 0.055185165 0.1185078 0.007364293 -0.0930711 -0.036876258 0.14429024
0.105433315 -0.039467826 0.14179172 0.02582178 -0.081615604 0.091723606 -0.04610636 0.11612703
-0.013703294 -0.07584649 0.06985491 0.030439654 -0.14483014 0.11091477 0.011273323 -0.04340252
0.08076327 0.049800403 -0.01601177 0.026638547 -0.14961825 0.12186926 0.0050739837 0.07757464
0.107554644 -0.042940382 -0.04510649 0.057590198 0.037490457 0.05387817 0.014240685 0.036406666
0.104560316 0.107203245 0.046380296 -0.008033701 0.06314176 -0.09988659 -0.025979763 -0.0034729987
0.07920389 0.06535834 -0.030634334 -0.04361137 0.013710685 -0.05960263 -0.07036904 0.045361068
-0.024265425 0.0776542 -0.022007117 0.07517125 0.1017977 0.05222314 0.022236628 0.06069038
0.09065362 -0.09670182 -0.12888114 0.14974926 -0.10312486 -0.12239118 -0.096794955 0.057028405
-0.12383614 -0.14937066 -0.08412711 0.08389512 0.10687629 0.0876843 -0.09591143 0.011070309
-0.011106201 0.044788644 -0.0244698 0.0064061265 0.07271258 -0.05927974 -0.10853223 0.14830662
-0.025395831 -0.12755802 0.0049293432 0.016891168 0.04223981 -0.06677344 0.0031179201 -0.11789171
0.097211644 -0.110927746 -0.016587865 0.121909484 0.028934527 -0.044441607 -0.018456586 0.1471047
-0.08774331 0.08994777 0.11334893 0.055027775 -0.014110201 -0.057300955 -0.14575374 0.057419553
0.04901748 0.06578367 -0.061451353 0.049227618 -0.02270193 0.122451775 -0.012717929 -0.0077070394
0.096185364 -0.1238396 0.048558384 0.042366523 0.11730989 -0.07613513 0.13088426 0.048270017
0.060409755 -0.0065620653 -0.059859857 0.04724802 -0.032588664 -0.03540319 0.07722222 -0.0492703
-0.033547368 0.07530411 -0.14272143 0.11896497 0.13906424 0.0047066426 -0.020592894 0.11070806
0.0155499345 0.07655335 0.0058769537 -0.13030553 -0.023649832 0.012490762 0.06803787 -0.022758245
-0.11967237 0.15678556 -0.11022034 -0.08819337 0.114344835 -0.059511095 0.025835115 -0.046021655
-0.011987725 -0.008976575 -0.06961817 -0.01957503 -0.012245158 0.023464574 -0.018871265 -0.081809685
0.114066325 -0.073412456 0.06842662 -0.0527347 0.1044053 -0.093599714 -0.08916878 -0.17338376
0.025659721 0.08362079 0.023153715 -0.14169571 -0.010453414 0.026093755 0.082616165 -0.10054031

backBone.0.conv1.bias f4 [6]
00000000: 0294 0cb9 acdc 19ba 060e 053a c4b5 37bb
00000010: e492 3d39 c31a 37ba
-0.00013406578 -0.00058693695 0.0005075637 -0.0028031925 0.00018079166 -0.0006984884

backBone.0.bn1.weight f4 [6]
00000000: 8e1e 813f a032 813f 85e3 7b3f 3369 7b3f
00000010: ddf0 823f 5a05 7c3f
1.008745 1.0093575 0.9839404 0.98207396 1.0229756 0.98445666

backBone.0.bn1.bias f4 [6]
00000000: fc6f 583c 8830 003d b8a7 58bc 1e08 19bb
00000010: a28a e13b 93ad 3dbd
0.013210293 0.031296283 -0.013223581 -0.0023350785 0.0068829814 -0.04630811

backBone.0.bn1.running_mean f4 [6]
00000000: 8456 653e c79f 023e e232 bb3d 8590 6a3e
00000010: cfc5 d1bd 9026 523e
0.22396284 0.12756263 0.091405645 0.22906692 -0.10242807 0.20522523

backBone.0.bn1.running_var f4 [6]
00000000: df9c e43d b32c 793d a9bd b53d c494 963d
00000010: cffc aa3d e674 133e
0.11162733 0.060833644 0.088740654 0.073525935 0.08349001 0.14400062

backBone.0.conv2.weight f4 [6, 6, 3, 3]
00000000: bc21 d1bd 44c3 a73d e4b1 dc3d 6ecc 93bd
00000010: c539 c93c 4726 043e 8c75 c83d 1a61 95b8
00000020: d6cb 503d 2c39 e33c 710b 7abc b3e9 5dbd
00000030: 97dc be3d 4040 cabd d752 b4bd 0f2d b03d
00000040: 1596 803d eddf f2bd 867b c83d ee6f 893d
00000050: 3bf1 103e d3d9 ccbd bc4d 643b 9952 2e3d
00000060: 4ff1 8abc eccc 5a3d d48d b2bb 5ff1 2dbd
00000070: ca94 f93d 14f7 753d e356 df3d 933c 27bd
00000080: 7e0a 0a3e ad5e 5cbb d638 0bbc 3096 04bd
00000090: d500 3fbd 3333 8bbd 90e8 e5bd 2b81 09bd
000000a0: 4f84 063e 5286 9abd 55b2 073d 9732 1b3d
000000b0: a3a5 bcbd 3240 a3bd c8b1 cb3d 3555 64bd
000000c0: 777d 0f3e 2510 b23d 1983 083d fe7b 533d
000000d0: e3a3 cfbd fe3d 15b9 31a2 1b3e 640f a63d
000000e0: 0a59 053b b9a7 f33d 5e0a c83c e836 0c3e
000000f0: 0a25 0c3e 4604 0b3e 39b3 a13d baef 853d
00000100: 1db6 b2bd 81c8 6a3d 769b cb3d f1ee f9bc
00000110: b0fd f4bc d2b0 65bb 5d56 b13d b079 77bd
00000120: 006f 29be 2652 3fbd 9fdb bd3c fb0d 803c
00000130: 6398 943b 9e0e 7fbd fdbe 7a3c 81d1 73bd
00000140: 0f55 8f3d da3a c8bd eff9 e53d c36f df3d
00000150: adab a2bd 7ae1 a73d 0b41 afbd 9d25 79bd
00000160: 24c8 b9bd c399 c5bd ce48 e63c db95 2c3d
00000170: c4f7 b73b 0dec 7abd a1e9 233e 46e4 403c
00000180: 636f 973d 814b 8b3d 300c 0f3d 775e 913d
00000190: 45a4 c93d 4a05 d33d 61f9 16bd 045b 693d
000001a0: df91 613b 9fb5 84bd 5218 8cbd 63fc 753d
000001b0: 3282 83bc 4491 c73d baae be3d 5f0d 00be
000001c0: 1731 c3bc 078a e2bd b0e7 043d 4648 a3bd
000001d0: 9256 96bd 6052 d5bd 7e61 463d a751 9ebc
000001e0: 9cb5 643c e830 dd3d 1342 723d 0743 fe3b
000001f0: 4b56 143e adc3 06bc 8d09 d13d e44a 1e3d
00000200: 2e22 cb3d 7672 583d 9302 983d 7b1f f0bd
00000210: 79de 0cbe f901 b9bd 7b90 dc3d e177 073e
00000220: 1f96 8d3d 461e 543d 561e 8bbd eada e8bd
00000230: 3896 cd3d 2311 a83c 0d46 f13d 9b84 db3d
00000240: 767f 833d 1420 83bb 1c68 0abd 2b4c 85bd
00000250: 2a33 a13c 31db f13c c7e6 bd3d d2e4 cd3d
00000260: 8b2a ffbc ec28 613b 3e12 2ebd 4509 a43d
00000270: b1a6 2ebd c3e5 08be 3c21 01be 2dd5 4ebd
00000280: ecca 523c 89e5 823d 28b9 a83d 80a1 733d
00000290: 6989 8e3b e724 ad3c 6b9e 85bd 2490 14be
000002a0: e326 293d 0425 0fbe b384 d63d d08f 7e3d
000002b0: 9d5a e53c 9dff 9cbd ce6a 0c3e e01a fabd
000002c0: fa40 373d f5e7 d5bd 2391 603a 47d5 373d
000002d0: aaf8 d2bb 712a e63c c849 adbd 1ed5 d4b9
000002e0: 48a9 0f3d 04a0 a13b ea4c 823d ce4a 5d3d
000002f0: 2a09 a8bd d97d ac3d 1899 d5ba 5362 143d
00000300: 365e f1bd b50e f3bc 39a6 eabd 3467 62bc
00000310: 9113 c83c 3677 b03d 4db1 8a3d 1ca0 b13d
00000320: 00fb cb3b 9364 48bd 2127 1cbd 2908 e1bd
00000330: 355f 15be 4173 bf3d 094e 6ebd 9a1a 243d
00000340: ca15 cf3d c652 45bd 01da 26be 52fe 92bc
00000350: daac efbd eff6 713d 2222 f63a d9a3 803d
00000360: 5a8f e7bc e049 0dbe 8f54 063e aa4b 783d
00000370: 6dd2 a53d 5256 babd 8e2d 6ebd 5f3d 87bb
00000380: 9af2 f2bd 04d1 5bbd 9f6c 65bd f3fa 88bd
00000390: 9e49 7abd e9b5 80bb 1b52 023e 9d70 183d
000003a0: b443 bb3c 7651 c73d 6261 203e 6b03 59bd
000003b0: d47e 01be 7942 e03c e38f 15bd bd25 e43d
000003c0: f615 ba3c 74a5 95bd 4f6c 8f3d 2b52 e73c
000003d0: 8dee bf3d 1c6f d9bd b019 e2bd 8d54 6cbd
000003e0: f7da 87bd ddba 84bd 499d 1bbe 5df7 7b3d
000003f0: 697c a13d ea90 be3d c563 6ebd 247c b83d
-0.102115124 0.08191541 0.107761174 -0.07216726 0.02456368 0.12905227 0.09788045 -7.12296e-05
0.050975643 0.027737223 -0.015261517 -0.05417795 0.09319418 -0.09875536 -0.08804863 0.08602344
0.06278626 -0.11859117 0.09789185 0.06710802 0.14154522 -0.10002484 0.0034836372 0.04255924
-0.016960768 0.053418085 -0.005449036 -0.042466518 0.121865824 0.060050085 0.10905244 -0.040829252
0.13480565 -0.0033625767 -0.008497437 -0.032369792 -0.046631653 -0.06796875 -0.112259984 -0.03357045
0.13136409 -0.07545151 0.033129055 0.037890043 -0.0921128 -0.07971229 0.099460185 -0.055745322
0.14012705 0.086944856 0.03332815 0.05163192 -0.10138681 -0.00014232841 0.1519859 0.08108404
0.002034726 0.11897225 0.024419006 0.1369282 0.13686004 0.13575849 0.07895512 0.06539865
-0.087261416 0.05732012 0.09941761 -0.030509444 -0.029906124 -0.003504802 0.086590506 -0.060418785
-0.1654625 -0.046709202 0.023176013 0.015631666 0.0045347675 -0.0622698 0.015304324 -0.05952597
0.069986455 -0.0977685 0.11229312 0.10909989 -0.07942901 0.08197303 -0.08557328 -0.060826886
-0.09071377 -0.09648468 0.028110888 0.0421351 0.0056142528 -0.06126027 0.16007091 0.011773175
0.07394292 0.068015106 0.034923732 0.07098096 0.09845785 0.10303743 -0.03685892 0.056971565
0.0034419221 -0.06479954 -0.06840576 0.060055148 -0.016053293 0.09744504 0.0931067 -0.125051
-0.023827119 -0.11061483 0.032447517 -0.079727694 -0.07340731 -0.104161024 0.04843282 -0.019326044
0.013959315 0.10800344 0.059145045 0.007759455 0.14486043 -0.008225364 0.102069 0.03864564
0.09918629 0.052843533 0.07422366 -0.117247544 -0.13756742 -0.090335794 0.10769745 0.13229324
0.06913399 0.051786683 -0.067928955 -0.113698795 0.100384176 0.020515984 0.11780939 0.10718652
0.064207956 -0.0040016267 -0.033790693 -0.065086685 0.019677717 0.029523464 0.09272533 0.1005341
-0.031148216 0.0034356667 -0.042497866 0.080095805 -0.042639438 -0.13368897 -0.12610334 -0.05049627
0.012865763 0.063914366 0.08238441 0.05948019 0.0043498767 0.02113576 -0.065243565 -0.1450811
0.04129685 -0.13978964 0.10474529 0.06214887 0.02799731 -0.07665942 0.13712618 -0.12212157
0.0447397 -0.10444633 0.0008566549 0.04488113 -0.0064383345 0.02809641 -0.08461338 -0.00040594576
0.03507355 0.0049324054 0.063623264 0.054026417 -0.08204873 0.08422441 -0.0016296236 0.03622658
-0.117855474 -0.029670099 -0.11457486 -0.013818551 0.024423392 0.08616488 0.06772099 0.086731166
0.00622499 -0.04892404 -0.038123254 -0.109878846 -0.145871 0.09348155 -0.05817989 0.04006443
0.10111578 -0.048174642 -0.162941 -0.017943535 -0.11702891 0.059073385 0.0018778483 0.062812515
-0.028266598 -0.13797712 0.13118194 0.060619034 0.08096776 -0.090984955 -0.058148913 -0.004127189
-0.11862679 -0.05366613 -0.056011792 -0.0668849 -0.061105363 -0.0039279354 0.12726633 0.03721677
0.022859432 0.09732334 0.15662149 -0.052981775 -0.12646037 0.027375447 -0.036514174 0.111400105
0.02271555 -0.07306948 0.0700308 0.028237423 0.09371672 -0.106168956 -0.11040056 -0.05769782
-0.06633561 -0.06480954 -0.15196718 0.0615152 0.078850575 0.09304984 -0.058200616 0.09008053

backBone.0.conv2.bias f4 [6]
00000000: 8c4b ab39 d129 1f3a 3884 eeb7 2f6c 0aba
00000010: a1ec 5a3a 7418 aa3a
0.00032671948 0.00060716 -2.843338e-05 -0.0005280403 0.00083513005 0.0012977258

backBone.0.bn2.weight f4 [6]
00000000: 1795 6d3f 1e50 723f 524b 7f3f 597c 803f
00000010: 819b 723f 681b 763f
0.9280562 0.946535 0.99724305 1.0037948 0.9476853 0.9613557

backBone.0.bn2.bias f4 [6]
00000000: d4bc 43bc 389c 2d3d 2af3 85bc bfaf febc
00000010: 5d9f b3bb 56fc cf3c
-0.011946876 0.04238531 -0.016351301 -0.031089662 -0.005481644 0.025388878

backBone.0.bn2.running_mean f4 [6]
00000000: 1312 773e a5c5 cb3e 992b 2b3e 47d9 01be
00000010: 3ed9 083c cf1e 56be
0.24127989 0.39799228 0.1671585 -0.12680541 0.008352576 -0.2091019

backBone.0.bn2.running_var f4 [6]
00000000: 9e3b c53d b47a d03d 7862 e53d d663 b93d
00000010: 8900 c83d e8b5 d83d
0.09630512 0.10179654 0.11200422 0.09052245 0.09765727 0.10581571

backBone.1.conv1.weight f4 [6, 6, 3, 3]
00000000: 9e9f 393b ec84 103d 8184 4c3d 4086 abbd
00000010: a47b 54bb 6164 f0bd b0fd c6bd afa1 bbbd
00000020: 7754 d43d de52 053c 1288 e3bd cb4c d1bb
00000030: 275d cd3d a8af 07bc b1c3 70bd 716e 843d
00000040: 0dd8 e7bd 3e96 373d 576d 0f3d bbe0 933c
00000050: e9c6 b73d 6f60 63bc 9f18 6cbd 7231 bf3d
00000060: a158 29bb 0bb2 1abe 1bee 3e3d 919b d83d
00000070: a78a 2e3d 55d3 693d 71f8 c73d 25be 2c3d
00000080: ae72 f5bd 5c72 14bd a82f 393c f587 adbc
00000090: 2e40 02be a4d9 dc3b 21f7 4b3c 88fe ce3c
000000a0: 470d 3c3c ea45 d5bc 0b4f 033d 8972 683d
000000b0: 5474 23bc 61ba d53c 8a5c d13d aef0 c4bd
000000c0: 716e 473d 4a44 f93c 3344 b53a 0d11 14be
000000d0: d891 c33d b3d7 ad3d 120c c6bd 04df 44bd
000000e0: 3ac8 0cbd e7af 2cbd 1ef8 893d 581a 16be
000000f0: 61d1 1d3e b95c 933c 2d9a e03d 0286 063d
00000100: 8a2f ddbd b641 21bd 5803 893c c7ee 5cbd
00000110: efad 51bd 4dc1 b5bc d546 04bd 07c0 2e3c
00000120: b8a8 0abd dbc0 30be 3cf9 92bd 9ae6 33bd
00000130: 4893 f23c 10b5 0abe 9f17 f6bb 9075 adbd
00000140: f113 a03d 0af2 2fbd c457 5abd 3d20 963b
00000150: 6a8e b3bd d32a bcbd d73a 823d b9ba 963d
00000160: 6995 31bb 5452 eabd 364d 043e 36ae 80bd
00000170: db3a d2bd 94f3 213d e51d 06be 414c b7bd
00000180: dac3 7c3d f6a5 2c3d a2eb f83c 55a5 acbd
00000190: 4720 d03d f204 8bbd c040 893d b786 aabc
000001a0: 5fba 333e 94ab 4c3c d19f 023e 84c1 76bd
000001b0: 83e4 a6bd ad56 a0bd e35c 24bd e0a0 b2bd
000001c0: 361c 27bc efe5 f93d 095a af3d 8b2f 17be
000001d0: 5f73 a53d 7327 a83d e59b 79bc 548c c2bd
000001e0: 289f babd 458c 06bd e7a1 81bc 0165 32bd
000001f0: 5f53 e7bb b8b1 583d d823 b7bd 4aec 453d
00000200: f80b 24be b93f ccbd 86b4 6abd 66f3 bdbd
00000210: d927 0c3e 1c68 dcbd aef5 f73d a059 e1bd
00000220: 5b6a b53d 2417 173e 60d4 56bd 2fcf 733c
00000230: bae9 513b a4be bd3d 6767 e9bd ceab 813d
00000240: 8faf dfbd 4f0b c7ba d8fc ecbd 4465 d23d
00000250: 02e6 e2bd 89da baba 5101 723d aa15 e03d
00000260: 1fd0 09be 978c a53c d522 9ebc 1b86 b03b
00000270: d6ed 2bbe e93a f3bc 8867 54bd 8fbe c73d
00000280: 2564 9d3d 779b e23d a23d 97bd c9ca e23d
00000290: 015f 93bd 0bea dcbb 9b87 b7bc 78af 823d
000002a0: 11b9 193d 8b56 e2bd 3d3c 083d 05ed 8d3d
000002b0: e6c5 72bd 05a9 643d 2009 683d 820b 56bd
000002c0: 0cfa 3dbe 75f3 c1bc fe3a 3f3d 5d41 4b3d
000002d0: bff5 f4bb 6b43 873d f30a cf3c ee5f f2bd
000002e0: 9918 333c 8b83 c33d 042b 7f3d 5684 993d
000002f0: 05b0 dbbd d267 de3d 8f23 003d 46de fbbd
00000300: fcd9 eebd 56ca 8f3c 4967 debd 3c09 7a3d
00000310: 4ee7 783c c526 b1bc 052c 113e 766b cdbd
00000320: 9714 00bd 6c00 233c 2d1c bcbd f311 80bd
00000330: c875 d8bd 1298 d2bc e0d7 09bd 2aad 443d
00000340: 7f7e ba3d f9e0 12bc 3229 c03b 21fb a63d
00000350: 6818 403d e059 2fbe 2850 2f3d 45ac 7b3d
00000360: 4418 e2bd 9863 243d e01c b83d 1a22 08be
00000370: 5f16 dcbc 6b41 b6bc d0ee c23d 642c d43d
00000380: 9417 8b3c fb92 6bbc a25b b13d 17a4 f13d
00000390: 7d65 e4bd 4c15 d53c e171 b8bd 3c69 ccbd
000003a0: 7852 393d 1aa0 893d 346b bf3d 3704 793d
000003b0: 07c5 0d3e 96cd 52bb 0008 4b3d d92b 14bd
000003c0: b72c 113e 9fd3 d33c d8ba a53d b075 dbbd
000003d0: 0cb4 1e3d a3cb 9f3c b3fd 173e 3538 9f3d
000003e0: 4aaf a33c 4efd 14bc cad3 833d 1736 d8bc
000003f0: 70fc f6bd bb48 4f3d 4f65 ec3d 1dfe e23d
0.00283239 0.035283014 0.049931053 -0.083752155 -0.0032422328 -0.11737896 -0.09716356 -0.09161698
0.10367673 0.008137433 -0.11109938 -0.0063873283 0.10027533 -0.008281626 -0.058780376 0.064663775
-0.11320505 0.044821016 0.035016384 0.018051496 0.08973486 -0.013877972 -0.057640668 0.09335603
-0.002584018 -0.1510698 0.046613794 0.10576547 0.042612698 0.057086308 0.09764183 0.042173523
-0.11984764 -0.036241874 0.011302866 -0.021182993 -0.12719795 0.006739812 0.012449057 0.025267854
0.011477775 -0.026034314 0.032057803 0.056749854 -0.009976465 0.026089849 0.102227286 -0.096162185
0.04868931 0.03042807 0.0013829529 -0.1445963 0.09549302 0.08488407 -0.09670271 -0.048064247
-0.03437064 -0.04215994 0.06736778 -0.14658487 0.15411903 0.01798855 0.10966907 0.032842644
-0.10800083 -0.039369307 0.016725227 -0.053938653 -0.051191267 -0.0221869 -0.032294113 0.0106659
-0.03385231 -0.17261069 -0.07176444 -0.04392109 0.029611245 -0.13545632 -0.00751014 -0.08469689
0.078163035 -0.042955436 -0.053306356 0.00458148 -0.08767398 -0.091878556 0.06358879 0.07359833
-0.0027097112 -0.11441484 0.12920079 -0.06283228 -0.10265132 0.039538935 -0.13097341 -0.08950091
0.061710216 0.04215046 0.030385796 -0.08429972 0.101624064 -0.067880526 0.06701803 -0.02081619
0.17551564 0.012492079 0.12756278 -0.060243145 -0.08149054 -0.07829032 -0.040127646 -0.08722091
-0.010199597 0.122020595 0.08562095 -0.1476423 0.08078646 0.08210649 -0.015234922 -0.09499422
-0.09112388 -0.032848615 -0.015824271 -0.043553356 -0.007059499 0.05290386 -0.089423835 0.048321046
-0.1602019 -0.09973092 -0.057301067 -0.0927494 0.13687076 -0.10762045 0.121074066 -0.11003423
0.08858176 0.14754921 -0.05244863 0.014880939 0.003203018 0.092648774 -0.113966756 0.06331597
-0.10922157 -0.0015185865 -0.115716636 0.10273221 -0.11079027 -0.0014255802 0.059083287 0.10941632
-0.13458298 0.02020864 -0.019303719 0.0053870804 -0.16789946 -0.029691176 -0.051856548 0.09753143
0.07685117 0.11064809 -0.073848024 0.110738344 -0.07195855 -0.0067417673 -0.022403529 0.06381124
0.03753001 -0.11051663 0.033260573 0.069299735 -0.059270762 0.055825252 0.056649327 -0.05225707
-0.18552417 -0.02367566 0.04668712 0.049622882 -0.0074755843 0.06604656 0.025273776 -0.118347034
0.0109311575 0.09546574 0.062296882 0.07495944 -0.107269324 0.10859646 0.03128391 -0.12298255
-0.11662671 0.017552536 -0.10859544 0.061043963 0.015191866 -0.021624932 0.14176948 -0.10030262
-0.031269636 0.009948831 -0.091850616 -0.062534235 -0.1056934 -0.025707278 -0.03365314 0.048016705
0.091061585 -0.0089647705 0.005864286 0.08153368 0.046898276 -0.17124128 0.042801052 0.061443586
-0.110397846 0.040134043 0.089898825 -0.13294259 -0.026866136 -0.02224799 0.09518206 0.10360029
0.016979016 -0.014378305 0.08660056 0.11798876 -0.1115217 0.026011132 -0.09006096 -0.09981009
0.045244664 0.0671999 0.09346619 0.060795035 0.13844691 -0.0032165996 0.049568176 -0.03617463
0.14177214 0.025857745 0.08092278 -0.107158065 0.038745925 0.019506281 0.14842872 0.077743925
0.019981045 -0.009093596 0.0643688 -0.02639298 -0.120598674 0.05060647 0.115427606 0.110836245

backBone.1.conv1.bias f4 [6]
00000000: 9955 223a fdff a6b9 e782 3a39 e15a c439
00000010: d185 8d37 6e7e 5dba
0.00061925646 -0.00031852713 0.00017787107 0.00037451743 1.6870823e-05 -0.00084493204

backBone.1.bn1.weight f4 [6]
00000000: a810 843f b328 823f 6a6e 7a3f e5a5 7f3f
00000010: 607b 7f3f f4a5 783f
1.0317583 1.016867 0.9782473 0.9986251 0.9979763 0.97128224

backBone.1.bn1.bias f4 [6]
00000000: 09ca 2dbd 6ca7 f6bb c450 5b3d 88e2 2bbb
00000010: 3db1 f33c ca0c a1bd
-0.042429004 -0.0075272825 0.05354382 -0.0026227552 0.0297476 -0.078637674

backBone.1.bn1.running_mean f4 [6]
00000000: 43b8 073b e612 e1be bccf bebe 86dc 06be
00000010: 0cab c83e 6512 18be
0.0020709194 -0.4395973 -0.37267864 -0.1317006 0.39192998 -0.14850767

backBone.1.bn1.running_var f4 [6]
00000000: 7e17 1e3e ef23 913e ad6f 913e 2a19 533e
00000010: b8cc 823e 5e63 6b3e
0.15438649 0.28347728 0.28405514 0.20615068 0.25546813 0.22987124

backBone.1.conv2.weight f4 [6, 6, 3, 3]
00000000: 41d0 dd3b 0d30 acbd d8ff b63c 82fb 843d
00000010: f392 21bd 7bae c83d 1194 ce3d a58e b43c
00000020: a417 e3bd e582 9cbd 7fe3 eb3d 8326 5f3d
00000030: e321 c83d 6967 6bbd 7e38 c4bd c2ed 813d
00000040: 21f7 063d e844 b1bd 7abf 9fbd b14d ad3d
00000050: 4536 0dbe 757a 2f3b d8a0 af3d f67d d43d
00000060: a4fe 993d 5e5b 613d 532f f93d dc34 34bd
00000070: 4e20 90bc 43a7 82bd fe8c 9d3d add5 08be
00000080: b04e 89bc c99f 36bd 22fc 0abc ccf8 9e3d
00000090: 0d30 a03d 609e 30bd fb89 643d 8190 e9bd
000000a0: 90dd 13bd c1b7 f3bd af16 a53d f807 a73d
000000b0: a2eb c03d dc24 c6bd 2a0f 0e3d 83d7 cdbd
000000c0: 5e04 f5bd 3216 cdbd 547c b7bd fa46 9739
000000d0: 16d6 043e e0dc 27ba 08e7 b33c 46c2 df3d
000000e0: 8df5 a0bd 4f23 083e 1ee0 f1bd db06 083e
000000f0: 70bc 2abd 5a3e 0ebe 7a45 973d bd4a 40bd
00000100: 67c5 8f3c 91c7 79bd bc2d 14bd acce 553d
00000110: 88a0 5e3a 1887 1cbc 676c 52bc db5c 7fbb
00000120: db12 2dbc 1585 b43d bea7 c1bd eeca e73d
00000130: f872 9a3d 87b5 5cbd f165 a33d 022a 9abd
00000140: fcda 05bd 782c ac3d 6ed9 913d 5621 a4bd
00000150: e1f5 ecbd 3d2c 04be bb4d 9dbd 71f0 1cbe
00000160: cff0 a33d 5360 6cbd 7dab bf3d ff0e cf3b
00000170: efd9 8ebd 7678 b0bd 9477 44bd 74e4 c93d
00000180: a4b4 c5bd dd8c 093d f884 8e3d d03a 98bd
00000190: fba8 b6bd 989f a4bd 5be3 003d f0fa 253d
000001a0: ec7a 513d 34d7 ae3d 1839 9bbd e5ce 91bd
000001b0: 51ef b9bd beac 0a3d 79d6 983d f47a c7bc
000001c0: 83bf dbbc 37c9 d13c 78d7 e2bd c978 2ebd
000001d0: 323a 95bc 7483 abbd 4f5b 813d 0a79 013e
000001e0: b6cb 06be 49b7 54bd 6c94 afbd 5ed9 a8b8
000001f0: db33 01be 922e ec3d cfeb c13d 6af9 62bd
00000200: de30 923d b165 1e3e b87a acbc 8333 61bd
00000210: 656c 2c3d 921e edbd bee2 debc 46c2 8cbb
00000220: f4ab b2bd 5a0b 7b3d 7c8e 663a 1919 193e
00000230: 9dba 68bd 4f51 c83d 2327 d13d 20e6 5ebd
00000240: ead8 873d 214b 45bd f0c4 473c c2bd 1bbe
00000250: 7279 0b3d 043c b7bd 4924 443c 5a69 893d
00000260: 8761 32be 6dc4 dabc edce 8f3d 72c3 a2bc
00000270: 0e84 27bd d84c 093e 2969 2e3d fde4 f1bd
00000280: c290 c4bd 5177 3c3d ac99 d6bd 6b0e 3d3d
00000290: 36ae fd3d 1cf9 dcbd b2fb 80bc 7d93 80bd
000002a0: 053b 6e3d 6d24 af3d f17a 20bc 8cdb 81bb
000002b0: 845c 30be 341e 673d 57aa 813a 9462 c2bc
000002c0: f330 04bc 951d 2abd 68e2 d4bc ce4b cabb
000002d0: a628 da3c 3736 8f3d d51a 91bd a218 2c3d
000002e0: 2d2e 15be 7d51 32be 5ea0 37bd 3a7d 94bd
000002f0: 216f 4dbc 72da dc3d 25ac dabd 5012 5d3d
00000300: 577c 1ebd ad7a fabc 1583 033d eb30 3a3c
00000310: a537 6ebc b26d 03bc fe56 d8ba e95d e83d
00000320: ecb2 d0bc c052 bd3c 2120 8ebd 3def 0c3e
00000330: 04ea 57bd 9585 4d3d 23ec 743d 91fb d33d
00000340: 2132 83bc 009f d33c 9448 eebc 4191 cb3d
00000350: f70b 94bc c3ce 523d 6665 c3bd 2420 1dbd
00000360: e1b7 e03d 2349 8bbd 3351 79bd e80f 92bd
00000370: d340 373d cc97 10be 33b4 a0bd cdfd 563d
00000380: 30c0 033d 924d ff3c 1873 cc3d 8b8c 453d
00000390: 975a 55bc 1fde e83d a9eb 023e a9e2 7bbc
000003a0: ab66 073b 2cd2 fe3a 59ea 143d a5b7 7ebb
000003b0: ec12 a43c 6494 743d 3d32 6d3d b0d1 963d
000003c0: 5f67 503d d8a2 dd3c d363 62bb bd71 c0bc
000003d0: 2c1f 43bd a1ca 3d3d e9ec a73c 1405 c2bc
000003e0: c9d0 a2bd 9ca4 edbd 53c0 92bd bd7c 00be
000003f0: d013 01be 5352 edbd 5342 263d 5444 953d
0.0067692106 -0.084076025 0.022338793 0.06493284 -0.039446782 0.097989045 0.10086835 0.022040674
-0.110884935 -0.07642154 0.11518001 0.054480087 0.097720884 -0.057471666 -0.095810875 0.06344177
0.032950524 -0.08655721 -0.07800193 0.08462084 -0.13790233 0.002677587 0.085756004 0.10375588
0.07519272 0.055018775 0.121672295 -0.043995723 -0.01759353 -0.06379559 0.07692908 -0.13362761
-0.016761154 -0.044585977 -0.008482965 0.07762298 0.07821665 -0.04311979 0.05579565 -0.11404515
-0.03609997 -0.11900283 0.08060967 0.08155817 0.094199434 -0.09674999 0.03468243 -0.10050871
-0.119637236 -0.10013999 -0.089592606 0.00028853846 0.12972292 -0.00064034574 0.02196075 0.109257266
-0.07859335 0.13294719 -0.11810325 0.13283865 -0.041683614 -0.13890973 0.073862985 -0.046946276
0.017550183 -0.060981337 -0.03617643 0.05219905 0.0008492549 -0.009553693 -0.012843228 -0.0038965258
-0.0105635775 0.08814446 -0.094558224 0.11318003 0.0754146 -0.053884055 0.07978428 -0.075275436
-0.032679543 0.08406919 0.071215495 -0.08014171 -0.11570335 -0.129075 -0.076808415 -0.15326096
0.08004915 -0.05770905 0.09358881 0.0063189263 -0.06975161 -0.08616726 -0.0479656 0.09858027
-0.09653595 0.033581603 0.069589555 -0.074330926 -0.08918949 -0.080382526 0.031466823 0.040522516
0.051142618 0.085371405 -0.07579249 -0.0711954 -0.09078849 0.033856146 0.074627824 -0.02435062
-0.026824718 0.025608642 -0.11076254 -0.04259566 -0.018216226 -0.08374682 0.06316244 0.12643829
-0.13163647 -0.051932607 -0.08573231 -8.051352e-05 -0.12617438 0.1153232 0.09468805 -0.05541364
0.07138227 0.1546848 -0.02105461 -0.054980766 0.04209556 -0.115780964 -0.027207728 -0.00429562
-0.08724204 0.061290123 0.00087950355 0.1495098 -0.056818593 0.097811334 0.10212543 -0.054418683
0.0663317 -0.04816735 0.01219295 -0.15209106 0.034051366 -0.08946994 0.011971542 0.06709547
-0.17420016 -0.026704991 0.0702189 -0.019868586 -0.04089742 0.1340822 0.042580757 -0.11811254
-0.09597923 0.046012226 -0.10478529 0.04615633 0.12386744 -0.10789701 -0.015745018 -0.06278131
0.058161754 0.085518695 -0.0097949365 -0.0039629396 -0.17222792 0.05642529 0.0009892684 -0.023728646
-0.008068311 -0.041532118 -0.025986865 -0.0061735874 0.02663071 0.069927625 -0.07085196 0.04201568
-0.14568396 -0.17413898 -0.044830672 -0.072504476 -0.012538702 0.10783853 -0.10677365 0.053972542
-0.0386928 -0.030576074 0.03210743 0.011364202 -0.014539634 -0.008021759 -0.0016505418 0.11346037
-0.025475942 0.023110747 -0.06939722 0.13763137 -0.05271341 0.050176222 0.05979551 0.10350717
-0.016015114 0.025832653 -0.029087342 0.09939814 -0.018072112 0.051466715 -0.095408246 -0.03836073
0.10972572 -0.06801059 -0.060868453 -0.0713194 0.044739556 -0.14120406 -0.0784687 0.052488137
0.032165706 0.031164918 0.0998289 0.048229735 -0.013022087 0.11370491 0.1278521 -0.015373864
0.002066056 0.0019441298 0.036356304 -0.0038866785 0.020028554 0.05971183 0.05790924 0.073642135
0.050879832 0.027055189 -0.0034544363 -0.023491735 -0.04763715 0.04633582 0.02049871 -0.023684062
-0.07949979 -0.11603662 -0.07165589 -0.12547584 -0.12605214 -0.11587968 0.040590595 0.07288423

backBone.1.conv2.bias f4 [6]
00000000: 7ab4 b03a 7e74 fab9 5354 23b8 b80b bd39
00000010: 67b3 8f39 a908 9139
0.001348152 -0.0004777051 -3.894076e-05 0.0003605762 0.0002740875 0.00027663007

backBone.1.bn2.weight f4 [6]
00000000: 92a4 7d3f e872 793f acbd 7b3f 95f7 6e3f
00000010: b053 7d3f 6dea 843f
0.9907924 0.9744096 0.9833629 0.9334653 0.9895582 1.0384041

backBone.1.bn2.bias f4 [6]
00000000: 2101 7abd 69f1 00be 7800 26bd b193 6fbd
00000010: 7630 e8bc 4e2f 75bd
-0.061036233 -0.1259209 -0.04052779 -0.05849046 -0.02834342 -0.059859566

backBone.1.bn2.running_mean f4 [6]
00000000: e783 bebc d9c0 cfbd d043 92bd ca33 adbd
00000010: 5925 a93c 515e 38bd
-0.023256255 -0.10144205 -0.071418405 -0.084571436 0.020647692 -0.045011822

backBone.1.bn2.running_var f4 [6]
00000000: adf9 c33d 35e9 8c3d 9485 9c3d f4b7 a13d
00000010: 31e9 bd3d 3666 9e3d
0.09569106 0.06880418 0.076426655 0.078964144 0.09272993 0.07734339

backBone.2.conv1.weight f4 [6, 6, 3, 3]
00000000: ed39 d23c 26e4 30be b877 c93d 0488 d2bd
00000010: 59cf f03d de7d ddbd 8640 a4bd 1f9b dbbd
00000020: 1438 b33d 2fcc 003e 7255 8f3d 582d 1b3e
00000030: aeed 9b3d c1ca e6bd 547f b43d e59e 86bc
00000040: d0f9 ae3d c853 ac3d 2248 cbbd eea4 cc3d
00000050: cb22 723d 03c1 81bd b15d 93bd c986 cc3d
00000060: 9b66 0c3c 27da 9dbd 8023 f4bd 68a2 9b3d
00000070: d8bc f3bc b831 1b3d bb12 65bd 685a 063e
00000080: 2b0a d83d 9ec1 9d3d 449c 0fbe 23a1 c83d
00000090: bd89 bd3d 99ce a2bd 13a6 c1bd cc82 cbbd
000000a0: 09f5 9f3d 7232 e0bd eb4f ee3c 2d51 02bd
000000b0: b372 6b3d 27d4 723c 737e 0ebe 70d0 4f3c
000000c0: 1cf1 703d 8185 95bb b7fb ebbd 8224 d33d
000000d0: 2bef cdbd 6728 253c d2cf 173e 68df 873c
000000e0: 01bd 813c 691c 883d 65e0 afbd 1fbd 01bc
000000f0: 4a27 16be 1821 cabd b444 c13d 2f20 463d
00000100: 6c31 bf3d 6b3d c83b 17a5 1fbb b7cd d6bd
00000110: 401c 94bb 0578 a6bd df50 843c 4b56 aabd
00000120: e2fa 2739 f8f9 43bd 9504 403d 1773 febc
00000130: 1964 d33d e401 343e 05ba 6abd 97a8 b3bc
00000140: b46e ef3d fe65 a83d 9521 ca3c 39dd 453d
00000150: ecd1 c93b 1799 983b 2fdd aebd 9d48 e33c
00000160: ad36 483d 7f3a 38bd 83d5 2f3d 0d79 923c
00000170: ccc5 8d3c 335d bebc 374d d63b f4ea c03c
00000180: 8b24 c1bd f9cb 23be 8f61 2cbb 2671 02bd
00000190: 4b3b 9fbd e2e4 cb3d 2331 943d a976 64bd
000001a0: d4c7 76bc 5ec9 b43d 77af aa3d b047 e1bd
000001b0: 5e6f e5bd 4c37 8a3d d25c 0b3c 4ed9 113d
000001c0: 9c68 40bd 4af1 46bd e32d d33b 0edc e93c
000001d0: 6d48 9fbd 8222 abbc 883f 8dbd b45b 9ebd
000001e0: 7525 6b3b 23cd 88bd 5c70 6abd efce 8bbc
000001f0: d829 423d 4b48 a2bd 4537 843d 5228 3cbd
00000200: ecc0 f63c bd2f 20be 58ee 5fbd 3882 eb3d
00000210: 5b1c 893d 8837 2b3e b5d3 7a3d 42c4 c0bd
00000220: 226e a83d 800d 60bd b07d 82bb 0b52 16be
00000230: a4b6 a13d 2af7 edbd ae2e 99bc bfa7 3bbd
00000240: 8cbf 803b 53a7 0cbe 5209 823b 7a26 183d
00000250: 3808 bfbc 55aa f83d c77c 57bd 54db 833d
00000260: 27ee 5ebd 4c32 ca3d 7749 1e3c f19e 1b3e
00000270: 7fd4 573d e784 483d 4b2d eabd e901 be3d
00000280: 4fcf ffbc 648f 0f3e 2c7e f93d 1bc4 833d
00000290: 185b bdbd 876a 6c3d 3469 b4bd 3e23 343c
000002a0: 004f e53c 7849 983d 1d5f 42bd e91a 3dbc
000002b0: 35b5 93bd 0a57 e3bd 8c89 123e 5302 c63d
000002c0: f73c 36bd d610 8ebd 02f6 ffbd 1180 0b3e
000002d0: 5254 ac3d c081 453d 9bc4 033e 789e 143e
000002e0: 9044 97bd afb3 de3c 912a 2ebd f183 19be
000002f0: ab91 0ebc 3400 8b3c 4ab3 a3bd 8a45 953c
00000300: a251 c33c d527 953d e500 dd3d 92da 7a3d
00000310: f601 57bd 4658 173e 44a4 a5bd d9c9 11bd
00000320: b6f8 31be ec10 b3bd 8f95 45bc dff5 863c
00000330: 0875 02bd 22e0 413d a4be f6bd 7da2 91bd
00000340: 5427 933d 386c e63c 928b 963c a434 05bc
00000350: fb17 c83a f302 06bd 03ab 1f3e 0fc3 2b3d
00000360: 92d4 143d ed79 f23d bb14 25bd 971c a63d
00000370: d35b 9c3d 27cd e13d 8b60 84bd 2e16 0fbd
00000380: 0a3d 093e 9740 a33d d95c e9bc 43e6 ecbd
00000390: 990b 063d ca25 50bc 2ce5 90bd 7373 7bbc
000003a0: 911e e6bd 8150 c5bd 405f bc3d a40b 36be
000003b0: 86e9 1ebd 9295 993d 0027 22bc 8866 22be
000003c0: 2b67 a13d a2e8 163e b9da 323d bd95 ad3d
000003d0: 5100 8b3c 91f8 ed3d 7a8b ef3d 5849 6cbc
000003e0: 6884 033e 7751 023e 5cb0 b73d 5679 113e
000003f0: 8bb7 03be 4a16 453a e9e2 22be 4ec5 1f3e
0.025662387 -0.17274532 0.09837288 -0.10279849 0.117582984 -0.10815023 -0.08020119 -0.107229464
0.087509304 0.1257789 0.06998719 0.15154016 0.07613693 -0.11269141 0.088133484 -0.016433189
0.08543742 0.084144175 -0.099258676 0.09992395 0.059115212 -0.06335642 -0.071956046 0.09986646
0.008569385 -0.07707625 -0.119208336 0.07599336 -0.029753134 0.037889212 -0.055926066 0.13120425
0.105488144 0.07702945 -0.14024454 0.097963594 0.09254787 -0.079495616 -0.09455504 -0.09937057
0.078104086 -0.10947122 0.029090842 -0.031815697 0.057482433 0.014821089 -0.13915424 0.012683973
0.05882369 -0.004563034 -0.1152262 0.10309698 -0.10055383 0.010080433 0.14825371 0.01658602
0.015837194 0.06646044 -0.08587722 -0.007918625 -0.14663425 -0.098695934 0.09436932 0.048370536
0.09335598 0.006110837 -0.0024359876 -0.10488456 -0.004519969 -0.08128361 0.016151844 -0.0831724
0.00016019822 -0.04784581 0.04687937 -0.031060738 0.103218265 0.17578846 -0.05730631 -0.021930976
0.11691037 0.082225785 0.024674216 0.048306677 0.006159058 0.0046569216 -0.08538281 0.027744586
0.048880268 -0.04497766 0.04292823 0.017879987 0.017306231 -0.0232378 0.0065399664 0.023549534
-0.09430798 -0.15995778 -0.0026303267 -0.031846188 -0.07774981 0.09955765 0.072359346 -0.055777226
-0.015062291 0.0882747 0.083342485 -0.110000014 -0.11202882 0.06748828 0.008506017 0.03560763
-0.046974763 -0.048569955 0.006444679 0.028547313 -0.07777486 -0.020890478 -0.06896883 -0.07732335
0.003588048 -0.06679752 -0.05723606 -0.017066447 0.047403187 -0.07923945 0.06455854 -0.04593689
0.03012129 -0.1564321 -0.05467066 0.11499447 0.066948615 0.16720402 0.061237056 -0.09412433
0.08224131 -0.054700375 -0.0039822683 -0.14679734 0.07896164 -0.116194084 -0.018699016 -0.045814272
0.003929084 -0.13735704 0.003968396 0.03714607 -0.023319349 0.12141863 -0.05260923 0.06438318
-0.05442634 0.098728746 0.00966107 0.1519735 0.052692886 0.04895487 -0.1143442 0.09277708
-0.031226782 0.14019543 0.121822685 0.064338885 -0.092458904 0.05771878 -0.088091284 0.0109947305
0.027991772 0.07435888 -0.04745399 -0.01154206 -0.07212297 -0.11100586 0.14310282 0.09668412
-0.044491734 -0.06936805 -0.12498094 0.13623072 0.0841452 0.048219442 0.12867968 0.14513576
-0.07386124 0.02718529 -0.042521063 -0.14991738 -0.008701722 0.01696787 -0.07993181 0.018221635
0.023842636 0.07282988 0.10791186 0.0612436 -0.052492104 0.14779767 -0.08087972 -0.035592888
-0.17380032 -0.08743462 -0.012059583 0.016474662 -0.03184989 0.04733289 -0.120480806 -0.0711107
0.071852356 0.028127775 0.0183771 -0.008130226 0.0015265936 -0.032717656 0.1559258 0.04193407
0.036335535 0.11839662 -0.040302973 0.08110922 0.076347016 0.11025458 -0.064637266 -0.03493326
0.13402191 0.07971304 -0.028486656 -0.115673564 0.032725904 -0.012704322 -0.07074961 -0.015347349
-0.11236299 -0.096344955 0.09197855 -0.17777878 -0.038796924 0.074992314 -0.009896994 -0.15859425
0.07881006 0.1473718 0.04366562 0.08475826 0.016967924 0.11619676 0.11696525 -0.014421783
0.12843478 0.12726389 0.08969185 0.14206442 -0.12862985 0.0007518275 -0.15906872 0.1560261

backBone.2.conv1.bias f4 [6]
00000000: 5b02 2739 1796 2639 a121 a139 5497 66ba
00000010: 9a1d 8d38 7c30 10b9
0.00015927239 0.00015886906 0.00030733368 -0.00087963534 6.728918e-05 -0.00013750972

backBone.2.bn1.weight f4 [6]
00000000: d59f 7e3f fc93 823f 6c12 773f ee5a 813f
00000010: 3575 783f 6ada 813f
0.99462634 1.0201411 0.96512485 1.0105875 0.97053844 1.014478

backBone.2.bn1.bias f4 [6]
00000000: 76c6 45bd bfdb 95bd 85fb 93bb 0e5b c4bc
00000010: 123c c8bc 5427 83bb
-0.04828497 -0.07317304 -0.0045160674 -0.0239692 -0.024442706 -0.004002491

backBone.2.bn1.running_mean f4 [6]
00000000: 448f 3fbd 80b1 f53d 5db9 ebbd 6c5c 3d3e
00000010: a58c 383f 34ce d63e
-0.046767488 0.11996746 -0.115099646 0.18492287 0.72089607 0.41954195

backBone.2.bn1.running_var f4 [6]
00000000: d3f9 a93e 7499 b23e b53e 683e c855 923e
00000010: 042a e73e d613 e83e
0.33198413 0.348827 0.22680171 0.2858107 0.45149243 0.45327634

backBone.2.conv2.weight f4 [6, 6, 3, 3]
00000000: def6 cf3d 89ea a03d 6f09 aa3d a4c1 343d
00000010: a967 1dbc 3c33 fabc f8fe a63d 7f38 e23d
00000020: 91ac ef3c cc30 1c3e 5767 243d f7df 47bc
00000030: 0c63 e4bd 4927 483d 8d62 c7bd 19bc 13be
00000040: 2db2 d7bd e822 733c 44d2 cc3c ea27 6fbd
00000050: 6641 243d a40c b83d 9fec 893c 61cb e73d
00000060: 794f 173e 46c6 e53d 0196 953c 21cb f7bd
00000070: f676 a7bc b5e2 05bd ca74 8abd 8d02 cc3d
00000080: bc9d 13bd db8f e83d d757 353d 0e5f 0cbe
00000090: 872d 62bd c678 a7bd 4d13 f1bd b347 633b
000000a0: 2f7f ce3d ccde 32bd 7849 05be 1361 7e3b
000000b0: 40de 00be 787f d93d 82df 26bd 78fa f8bc
000000c0: 52e7 b2bd 8201 3abd 18ee ec3c 9363 14bc
000000d0: 865d 0bbe b72b 9abd 2970 b93c b5c0 10bb
000000e0: 3a96 3abc c9ed df3d 69e4 343d 8cff 66bd
000000f0: 61cf dcbc 52f9 e13d 772a 603d dcca 94bd
00000100: 53c2 b53d 2d56 0f3e 1df6 0b3d cf47 043d
00000110: 0d02 583d 5aea e73c 5ebe d93c e6fa 5d3d
00000120: 0255 2abd fe81 00be f476 50bd 66b6 a83c
00000130: 8f84 dabd 0bb2 863d d84d e1bd 65a9 d33d
00000140: 2f18 13be 5c03 e3bd 614e f83d 6b6c d7bd
00000150: 616a dcbd ae7b 80bd fc2a a5bd aace cfbd
00000160: f0da 563c 25ea 35bc 998e 4fbd fcbe 95bd
00000170: ad20 48be e178 ffbd 9f2f bf3c 5a09 cf3d
00000180: c81c 2e3d 07d5 f0bd 5717 663c a916 dcbb
00000190: 4ba9 b5bd 2315 d53c 02ea 2f3d d108 ed3d
000001a0: 4604 b1bd a266 68bc 2fc4 bfbc 0672 cdbd
000001b0: e618 9fbd b9a5 113e 11cd a43d 2764 883c
000001c0: d6f5 ffbd a523 debd 7b86 f83c 0a6c b23d
000001d0: c282 89bc 710c 5d3d dcd5 8bbd 319e 22be
000001e0: 1830 813d 2bb4 3b3d 07f8 093e d455 febd
000001f0: bdff 81bd 472f 563d 675c 343c f5d4 a13d
00000200: 05ab 803d 35b0 b03d 7914 483d 2fc4 22bc
00000210: 8adf 1d3d 254d 3b3c d66e 1a3d e3b4 85bc
00000220: b40b eabd 52b8 e3bc 5ebb 90bd b818 8dbd
00000230: 040b 1fbe 9009 d6bd af5c c3bd e3fd 7c3c
00000240: fb83 01be e2f1 433d fb62 10be d6af dd3d
00000250: 1ee7 af3c ee0f 0e3c 8492 db3d 1c2f a1bc
00000260: 5dd7 ba3d 547a 1cbd 83af 183d 0696 173e
00000270: edfa 3f3d bc22 6dbd f32d 6dbc 3739 4e3d
00000280: fb55 d73d 0611 60be 1faa e3bd 7943 923d
00000290: cbd8 7abd d862 1fbd 820d acbd da59 e8bd
000002a0: 5c64 a8bd b49a d1bd 3306 5ebc a015 d6bd
000002b0: 7fff d23c 1b48 c0bd 31f2 bdbd 52c1 71bb
000002c0: 9520 c0bc 21ca d7b8 068c 62bd 95bf 80bc
000002d0: 9b6a 96bc 8c83 e43c 7991 ecbd 6cdb aa3c
000002e0: 5013 a4ba 45cf 18be 8ee9 cbbc 9ed6 e2bd
000002f0: 6e76 743d 03bb db3b 174f 753d 5521 393d
00000300: 4b21 323d c834 cfbd b089 b93d ac66 153d
00000310: b014 f33d 655b 7e3d 6cc7 1ebe d5bb b6bd
00000320: ae18 2b3d ac15 7dbd bc74 c23d 4c20 c53a
00000330: 7355 2c3d 39d8 bebc f49a e03c df7c a53d
00000340: de43 68bd d682 34bc e46a 043e 61c5 03be
00000350: 76ec 643d f9a5 75bd 0f3b d4bc d3e4 b43c
00000360: a0d4 a03d c122 bdbc 07db 073e 402a d4bd
00000370: 16c3 00bd fdb0 dc3d 8485 1cbb 3f7c de3d
00000380: 3d29 0ebe d070 fa3d 95a3 1ebe 255e 723d
00000390: 1ed1 c63d 1bd6 5f3d d478 d3bd 6fa5 bf3d
000003a0: 1acb a83c f302 863d da24 59bc 394b 193d
000003b0: d6c7 8b3d 52af a8bd 68b0 fb3d 308a 5a3c
000003c0: 7ee8 80bd bbcb e63d c07e e437 a3b4 603d
000003d0: 9033 7cbd 41a6 2bbe 2ca5 cbbd a046 eabd
000003e0: cee0 e8bc 24a3 bfbb beee 063e f907 a7bd
000003f0: 85d8 ec3c 4505 c2bd 1852 a4bd 7781 cdbd
0.10154508 0.07857234 0.083025806 0.044129983 -0.009607234 -0.030542009 0.081541 0.11045932
0.02925709 0.1525299 0.040137615 -0.0121993935 -0.11151704 0.04886559 -0.09735594 -0.14427222
-0.10532031 0.014839865 0.025002606 -0.058387674 0.04010143 0.08986786 0.016836463 0.11318088
0.1477641 0.11219458 0.018260004 -0.12099291 -0.020442467 -0.032686908 -0.06760557 0.09961424
-0.0360391 0.11355563 0.044273224 -0.13708135 -0.0552192 -0.081773326 -0.117712595 0.0034680187
0.10082852 -0.043669507 -0.13016307 0.0038815185 -0.12584782 0.10620016 -0.040740497 -0.03039287
-0.08735527 -0.045411594 0.028922126 -0.0090569435 -0.13609895 -0.07527869 0.02263649 -0.0022087519
-0.011388356 0.10934026 0.04416314 -0.056396052 -0.026954355 0.11033882 0.054727998 -0.07265255
0.08874955 0.13997717 0.03417026 0.032295045 0.05273633 0.02830999 0.026580032 0.054194354
-0.041584976 -0.12549588 -0.050894693 0.020594787 -0.10669815 0.06576928 -0.11001176 0.10335044
-0.14364694 -0.11084625 0.121243246 -0.10518726 -0.10762478 -0.0627359 -0.08064839 -0.1014684
0.013113722 -0.011103188 -0.0506731 -0.07311818 -0.19543715 -0.12474228 0.023338137 0.101092055
0.042507917 -0.11759382 0.014043651 -0.0067165685 -0.08870181 0.026011055 0.042947777 0.11573947
-0.08643393 -0.014184626 -0.023408977 -0.10031514 -0.07768421 0.14223374 0.08046926 0.016649319
-0.12498061 -0.108466424 0.030337563 0.08712013 -0.016785983 0.053966943 -0.068279 -0.15880658
0.06308001 0.04582612 0.13473521 -0.12418714 -0.06347606 0.05229118 0.011008359 0.079019465
0.062826194 0.08627359 0.04884765 -0.009934469 0.03854326 0.011431967 0.037703358 -0.016321605
-0.114280134 -0.027797852 -0.070669875 -0.0688948 -0.15531546 -0.10451043 -0.09539162 0.015441391
-0.12648003 0.0478381 -0.14100258 0.10824554 0.02147251 0.00867079 0.10721305 -0.019675784
0.091231085 -0.0382026 0.037276756 0.14803323 0.04687016 -0.057894453 -0.014476287 0.050347533
0.10514446 -0.21881494 -0.111164324 0.07141776 -0.061241906 -0.038912624 -0.08401014 -0.11345263
-0.08222267 -0.102345854 -0.013551283 -0.104533434 0.025756596 -0.09388753 -0.0927471 -0.003688891
-0.023453036 -0.00010289648 -0.055309318 -0.015716353 -0.01836138 0.027894758 -0.11551184 0.020856582
-0.0012517963 -0.14922817 -0.024891641 -0.11076091 0.059683256 0.006705643 0.05988988 0.045197804
0.043488782 -0.10117489 0.09059465 0.03647487 0.1186918 0.06209888 -0.15505761 -0.08922545
0.041771583 -0.061788246 0.094949216 0.0015039532 0.04207368 -0.023296462 0.027417637 0.08080458
-0.05670535 -0.011017522 0.129314 -0.12868263 0.05588957 -0.059972737 -0.025907068 0.022081768
0.07853055 -0.023087861 0.13267146 -0.10359621 -0.03143605 0.10775945 -0.0023883292 0.10863542
-0.13882919 0.122285485 -0.15492089 0.059171814 0.09707855 0.054647546 -0.103257805 0.09357726
0.020604659 0.06543531 -0.013253415 0.037425254 0.06825225 -0.08236565 0.12289506 0.0133386105
-0.06294344 0.11269327 2.723874e-05 0.05485977 -0.06157261 -0.1676264 -0.099436134 -0.11439252
-0.028427508 -0.0058483053 0.1317701 -0.081558175 0.028911838 -0.09473661 -0.08023471 -0.10034459

backBone.2.conv2.bias f4 [6]
00000000: da27 2bba a3aa 8339 6232 0338 38c4 32ba
00000010: b67e 1aba 3fe0 61b8
-0.00065290707 0.000251134 3.1279757e-05 -0.00068194 -0.0005893515 -5.3853026e-05

backBone.2.bn2.weight f4 [6]
00000000: 4e2c 6e3f b81c 803f ed11 813f 9aec 7e3f
00000010: 95f6 813f 835b 803f
0.93036354 1.0008764 1.0083596 0.99579775 1.0153376 1.0027927

backBone.2.bn2.bias f4 [6]
00000000: 2c98 6dbd 2b5e a8bd 28c6 dfbd e246 cdbd
00000010: 9bca 12be c576 b5bd
-0.05800645 -0.08221086 -0.10926467 -0.100232854 -0.143351 -0.08860544

backBone.2.bn2.running_mean f4 [6]
00000000: 1e6a 8dbd e084 42be 7215 31bd 309f 90be
00000010: 3f64 e7bc 1b13 f6bc
-0.06905006 -0.18996 -0.043233342 -0.2824645 -0.028246043 -0.030038407

backBone.2.bn2.running_var f4 [6]
00000000: 2e81 b83d 044f ee3d 056a c93d 4400 ac3d
00000010: 520d b23d 364d c33d
0.09009014 0.11636165 0.09834675 0.08398488 0.08693947 0.09536211
