models/AZ-05-05-24-EIPC51-A/main.pt (torch, 62649 bytes, 69 tensors)

startBlock.0.weight f4 [8, 4, 3, 3]
0	0x3c36919a	0.011143113
1	0x3ba3f636	0.005003716
2	0xbc6d76f8	-0.014493696
3	0xbc08f95b	-0.008360232
4	0x3d60ae81	0.05485392
5	0xbc8fc808	-0.017551437
6	0xbd3a4866	-0.0454792
7	0xbd34c563	-0.044133555
8	0x3cca84a4	0.024721451
9	0xbdd16d52	-0.10225929
10	0xbde2e305	-0.11078457
11	0x3c08bc11	0.00834562
12	0xbbeba6ac	-0.0071914997
13	0xbdab31e9	-0.08359129
14	0xbcbc329b	-0.02297335
15	0x3df86cae	0.12130104
16	0x3d26774c	0.040641114
17	0xbd3345d9	-0.043767784
18	0x3e9c5758	0.30535388
19	0x3d981520	0.07425904
20	0xbc82beb7	-0.01596008
21	0x3e02f5ea	0.12789121
22	0xbdd53db3	-0.10412159
23	0xbd9f0974	-0.07765475
24	0xbd8c9019	-0.06863422
25	0x3de8743e	0.113502964
26	0xbc8e2908	-0.01735355
27	0x3e88e246	0.26735133
28	0x3e59cb0e	0.21268865
29	0xbce4ab3a	-0.027913678
30	0xbc812c59	-0.015768217
31	0x3d03bfed	0.032165457
32	0x3bce3411	0.006292828
33	0xbdc7aef6	-0.09750168
34	0x3ded0ef8	0.11575121
35	0xbda047ea	-0.078262165
36	0xbdc2ade9	-0.09505827
37	0xbd1c155d	-0.03810631
38	0x3e0beb84	0.13664061
39	0x3c488fbd	0.012241301
40	0xbdd70168	-0.10498315
41	0xbd2f41b5	-0.042787272
42	0x3cb13184	0.021630056
43	0x3da4da1b	0.08049413
44	0x3d97c9d5	0.07411543
45	0x3d41d2ee	0.0473203
46	0x3c1db738	0.009626202
47	0x3e89bfa4	0.26904023
48	0x3d214826	0.039375447
49	0x3e11a941	0.14224721
50	0x3e33b962	0.17551187
51	0x3d2aadba	0.041669585
52	0xbd6c00d9	-0.057617996
53	0x3ced8d94	0.028998174
54	0x3c3beeb3	0.011470485
55	0xbd10f608	-0.035390884
56	0x3e28e384	0.1649304
57	0xbd99b5c7	-0.075053744
58	0x3dbba414	0.09162155
59	0xbcee45db	-0.029086044
60	0xbe123e3d	-0.14281555
61	0xbe320642	-0.173852
62	0xbe2ceea7	-0.16887914
63	0xbce7c413	-0.028291738
64	0x3cbc423d	0.022980804
65	0x3ce5c951	0.028050097
66	0xbe0ee9f7	-0.13956438
67	0xbe0d780e	-0.13815328
68	0xbcd9b948	-0.026577607
69	0x3d93926f	0.07205664
70	0xbd2fad31	-0.042889778
71	0xbce98bdc	-0.028509073
72	0xbbe84fff	-0.0070896144
73	0xbd533a6a	-0.05156938
74	0xbd821243	-0.063511394
75	0x3d10bf82	0.035338886
76	0x3c60ff38	0.013732724
77	0x3d69fcf4	0.057126
78	0x3ca2be5e	0.019866165
79	0x3bf4d243	0.007471354
80	0x3d5ac8c7	0.053414132
81	0xbcd98345	-0.026551852
82	0x3dd62a18	0.104572475
83	0x3df3569a	0.11881752
84	0xbcb62e5c	-0.022238903
85	0x3d649154	0.05580266
86	0xb9ef42de	-0.00045635452
87	0xbc94b6f4	-0.018153645
88	0x3cd33270	0.025780886
89	0xbcc3a4ba	-0.023882259
90	0x3e8303ff	0.25588986
91	0xbdb2a88f	-0.08723556
92	0x3cbb24b3	0.022844648
93	0xbd0aa9d0	-0.033853352
94	0x3e44a84b	0.19204824
95	0xbca40535	-0.020022014
96	0x3e1c07ee	0.152374
97	0xbdeaf174	-0.11471835
98	0x3e003b35	0.12522586
99	0xbd01986c	-0.0316395
100	0xbda8470a	-0.082166746
101	0x3dcf785c	0.101303786
102	0xbdc21874	-0.0947732
103	0x3eb0c5cb	0.34525904
104	0xbdbdd195	-0.0926849
105	0x3e18d955	0.14926656
106	0xbda937f8	-0.08262628
107	0x3d5a9dcc	0.053373143
108	0x3b8f3cbc	0.004371254
109	0x3d5a5b23	0.05330957
110	0xbc56d0ce	-0.013111306
111	0xbd9db574	-0.07700625
112	0x3db09a1a	0.086231425
113	0xbda85818	-0.082199275
114	0x3d9c5873	0.07634058
115	0x3d6d415d	0.057923663
116	0xbd22a27e	-0.039705746
117	0x3dae2db5	0.08504812
118	0x3dc4ef12	0.096159115
119	0xbde66a9a	-0.112508014
120	0x3d197efd	0.03747462
121	0x3e4ef504	0.20210654
122	0x3e2ae64f	0.16689418
123	0xbd851ba6	-0.06499414
124	0x3df0c7ca	0.11756857
125	0xbdb8425d	-0.08997033
126	0xbd8c4a5f	-0.06850123
127	0xbdc4ee2a	-0.09615739
128	0xbde383f9	-0.11109156
129	0xbdda7c6c	-0.10668263
130	0xbd5deae2	-0.05417908
131	0x3e5dd999	0.21665038
132	0x3df3297b	0.11873146
133	0xbde217b0	-0.11039674
134	0xbd5acdb1	-0.05341882
135	0xbbbc8d0e	-0.0057541197
136	0xbe1e08de	-0.1543307
137	0x3ca5529b	0.02018099
138	0xbdfdef60	-0.12399173
139	0xbe338aea	-0.1753346
140	0x3db03652	0.08604111
141	0x3e35714a	0.17718998
142	0xbd2977f4	-0.04137416
143	0xbe5d05b9	-0.21584214
144	0xbd584010	-0.05279547
145	0xbb5ced92	-0.003371094
146	0xbd916708	-0.0709973
147	0x3d281df8	0.041044205
148	0x3dc5d3c6	0.09659533
149	0x3d5df44a	0.05418805
150	0xbd870b19	-0.065939136
151	0x3c8a565a	0.016886879
152	0xbd69102c	-0.05690019
153	0xbc611c2b	-0.013739626
154	0x3ce042fb	0.027375689
155	0x3ddcf259	0.10788412
156	0x3e06c3f7	0.13160692
157	0x3e49fe88	0.19726002
158	0x3d40f8f4	0.04711242
159	0x3e252d8e	0.16130659
160	0x3d2d7e3a	0.042356707
161	0x3de38f52	0.111113206
162	0x3d75ca23	0.060007226
163	0x3e119fa7	0.14221059
164	0xbe3e7e47	-0.18602858
165	0x3dcc3f1c	0.09972975
166	0x3e681029	0.22662415
167	0xbc45d5f7	-0.012074939
168	0xbe2051ed	-0.15656252
169	0x3dcd091f	0.10011505
170	0x3dbf3977	0.093371324
171	0xbd93b942	-0.072130695
172	0x3d832b44	0.06404737
173	0x3d1c2df8	0.038129777
174	0xbd2c6c66	-0.042095564
175	0x3cbbd710	0.022929698
176	0xbe2849ab	-0.16434352
177	0xbe0d8a05	-0.13822182
178	0xbe6de8cf	-0.2323334
179	0x3cf43143	0.029808646
180	0xbd745f27	-0.059661057
181	0xbdab01d9	-0.08349962
182	0xbb4cde5c	-0.0031260466
183	0x3c3a2031	0.011360214
184	0xbc7b7aa1	-0.015349061
185	0xbd7c2d66	-0.061566733
186	0xbd7f86f5	-0.062384564
187	0xbd9d29bf	-0.07673978
188	0xbd177739	-0.036978934
189	0x3ca5df96	0.020248216
190	0x3e31c98a	0.17362037
191	0x3d23c79b	0.03998528
192	0x3e035e23	0.12828879
193	0x3e2f234a	0.17103305
194	0x3dce94e8	0.10086995
195	0x3e593d5f	0.21214817
196	0x3e666641	0.22499944
197	0x3e170992	0.14749745
198	0xbc340323	-0.010987076
199	0xbd47b934	-0.048760608
200	0x3e08a206	0.13343057
201	0x3d9cd5c8	0.07657963
202	0xbcebee7a	-0.028800238
203	0x3da1d9c2	0.07902862
204	0x3e154ed8	0.14580858
205	0x3d36c22a	0.044618763
206	0xbd6bbe87	-0.057554748
207	0xbd3a4d89	-0.0454841
208	0xbd219548	-0.039449006
209	0x3d743a22	0.059625752
210	0xbe844d14	-0.25840056
211	0x3da5d0f5	0.08096496
212	0xbd5e0da4	-0.054212227
213	0xbe65068a	-0.22365776
214	0xbd9fc3d7	-0.07801025
215	0xbc725d1f	-0.01479271
216	0xbcc247a9	-0.02371581
217	0x3d4f03d7	0.05054077
218	0xbe096d1f	-0.13420533
219	0x3deff9f0	0.11717594
220	0x3daa0a16	0.08302705
221	0x3cc9c9e8	0.02463241
222	0xbcde8b3e	-0.027166005
223	0xbd15ed4d	-0.03660326
224	0x3d0a6851	0.03379089
225	0xbd01167c	-0.031515583
226	0xbe652eba	-0.22381106
227	0x3d267976	0.040643178
228	0xbe1db73b	-0.15401928
229	0xbe2cb67a	-0.16866484
230	0xbd9adf88	-0.075621665
231	0x3b9e2bb1	0.0048269858
232	0x3c006417	0.007836363
233	0xbb8a06a6	-0.0042122183
234	0xbe1f91c0	-0.15582943
235	0xbd89c5e5	-0.067271985
236	0xbe2d1c14	-0.16905242
237	0x3d3eaddf	0.046552535
238	0xbd957c0e	-0.07299052
239	0x3cb2ee34	0.0218421
240	0x3dd77855	0.105209984
241	0xbd16dd23	-0.036831986
242	0xbde29af5	-0.11064712
243	0xbdfa2d48	-0.12215668
244	0x3e02e214	0.12781554
245	0x3dc414d7	0.095742874
246	0x3d5faccc	0.05460815
247	0xbe1a863c	-0.15090269
248	0x3e995112	0.29944664
249	0xbd3db75f	-0.046317454
250	0x3d52da1e	0.051477544
251	0x3d5b7537	0.05357858
252	0xbcda94cf	-0.026682286
253	0x3db7b8ea	0.089708164
254	0x3c063fc3	0.008193913
255	0x3b9046be	0.0044029644

startBlock.0.bias f4 [8]
0	0x39b6a607	0.00034837445
1	0xb7c39072	-2.3313074e-05
2	0xb6d7a946	-6.4272053e-06
3	0x384083a2	4.589896e-05
4	0x3852af3b	5.0231098e-05
5	0x38fba720	0.00011999742
6	0xb7ec752d	-2.8187957e-05
7	0x37ad6edc	2.067483e-05

startBlock.1.weight f4 [8]
0	0x3f8dac79	1.106826
1	0x3f73245a	0.94977343
2	0x3f99d905	1.2019354
3	0x3f7e3e1a	0.9931351
4	0x3f80abd7	1.0052441
5	0x3f7f24a1	0.99665266
6	0x3f854ecb	1.0414671
7	0x3f94b586	1.1617897

startBlock.1.bias f4 [8]
0	0x3e598c27	0.2124487
1	0x3ddbcf5f	0.10732912
2	0x3e93b932	0.2885223
3	0x3e16056f	0.1465051
4	0x3e09c846	0.13455305
5	0x3e3dee70	0.18547988
6	0x3e1821b4	0.14856607
7	0x3e793510	0.24336648

startBlock.1.running_mean f4 [8]
0	0x3d34f894	0.044182375
1	0xbbe1252f	-0.0068708877
2	0x3dd56a31	0.10420645
3	0xbc75d343	-0.015003982
4	0x3db56b99	0.08858413
5	0x3d3b4245	0.045717496
6	0xbd71aa38	-0.059000224
7	0x3d4d0185	0.050050277

startBlock.1.running_var f4 [8]
0	0x3d25a086	0.04043629
1	0x3d0d6968	0.03452435
2	0x3d1a33f7	0.037647214
3	0x3d447d8c	0.047971293
4	0x3d275a45	0.040857572
5	0x3caa85cb	0.02081575
6	0x3ccd6be2	0.025075857
7	0x3d05b23d	0.032640684

backBone.0.conv1.weight f4 [8, 8, 3, 3]
0	0xbcfe8cd3	-0.03107301
1	0x3d5f33dd	0.05449282
2	0x3e32ddcd	0.17467423
3	0x3c6c74fe	0.01443219
4	0x3dc4a156	0.09601085
5	0xbdbc0b36	-0.09181826
6	0x3e05300c	0.1300661
7	0x3c53bc78	0.012923352
8	0x3d487b3c	0.04894565
9	0x3daf0296	0.08545415
10	0x3d2ddaae	0.042444877
11	0x3d928720	0.07154679
12	0x3dd127e2	0.10212685
13	0xbd6f769e	-0.05846273
14	0xbd57345b	-0.052540164
15	0x3d452c00	0.048137665
16	0x3dc7da77	0.09758466
17	0x3d4cff6a	0.05004827
18	0x3d6dedf5	0.05808826
19	0xbdae3472	-0.08506097
20	0xbe3ac851	-0.18240477
21	0x3dce47f1	0.100723155
22	0xbd531832	-0.051536746
23	0x3d1638b4	0.03667517
24	0x3db61685	0.08891014
25	0x3d956bd4	0.07295957
26	0x3cf4fe86	0.029906522
27	0x3da4c3ce	0.08045159
28	0xbdaf9fd1	-0.085754044
29	0xbdbb4085	-0.091431655
30	0x3ce62efa	0.028098572
31	0x3dbf8bf0	0.09352863
32	0xbd9a85e3	-0.07545068
33	0x3c930f7f	0.017951725
34	0xbda2f0ab	-0.0795606
35	0xbdce668c	-0.10078153
36	0xbe1a6c34	-0.15080339
37	0x3cdf027b	0.027222862
38	0xbd6b912f	-0.057511505
39	0x3d8acf1f	0.067777865
40	0x3dc7ba3a	0.09752317
41	0xbca66711	-0.020312818
42	0x3ccf4886	0.025303137
43	0xbdcb54ad	-0.0992826
44	0x3d2f1690	0.042746127
45	0x3cdce3c7	0.026964081
46	0x3dc99e07	0.098445944
47	0x3dc38069	0.09545977
48	0xbd1a5a9d	-0.03768407
49	0x3c5227c5	0.012826865
50	0xbafe9e8d	-0.0019425914
51	0x3d4622ee	0.048373155
52	0x3dcb7d4c	0.09936008
53	0x3d901145	0.07034544
54	0x3db63a14	0.08897796
55	0x3dd14918	0.1021902
56	0x3dcd5b81	0.100272186
57	0xbdf4e2bb	-0.11957308
58	0xbc350a64	-0.011049841
59	0x3d443420	0.047901273
60	0x3dbae044	0.091248065
61	0xbe0b7e8f	-0.13622497
62	0x3c53edfb	0.012935157
63	0x3c62bff7	0.013839713
64	0x3d19092b	0.03736226
65	0x3dcc0973	0.0996274
66	0x3dfb1d01	0.122613914
67	0xbdba7b9f	-0.0910561
68	0xbdc4729e	-0.09592174
69	0x3dcda89a	0.10041924
70	0x3e0e56a2	0.13900235
71	0xbd081d14	-0.033230856
72	0xbd63852d	-0.05554693
73	0xbdab3ea1	-0.08361555
74	0xbd6e98a4	-0.05825104
75	0xbdbac613	-0.09119811
76	0xbd5fe3a1	-0.054660443
77	0xbd0a4c94	-0.033764437
78	0xbc8450f8	-0.01615189
79	0xbd923dbf	-0.071406834
80	0x3d4391ce	0.047746472
81	0x3de0fc30	0.10985601
82	0xbc902a8a	-0.01759841
83	0xbdd1dd37	-0.102472715
84	0xbd0a8269	-0.033815775
85	0xbd998e25	-0.07497815
86	0x3d9159cb	0.07097205
87	0x3c76f236	0.015072396
88	0x3c7db5b0	0.015485212
89	0x3d97c6f4	0.07410994
90	0xbde60d6f	-0.11233031
91	0xbd0bfa39	-0.034174178
92	0x3e09d05a	0.13458386
93	0x3e1f08f4	0.15530759
94	0xbcfda56c	-0.030962668
95	0xbb7a5978	-0.00382003
96	0x3c5e6567	0.013573981
97	0x3d66bf31	0.056334678
98	0x3de3efbc	0.1112971
99	0x3debc58d	0.11512289
100	0x3d684958	0.05671057
101	0x3cf012b6	0.029305797
102	0x3d043c76	0.032284223
103	0xbd08acf5	-0.03336807
104	0xbc5bd902	-0.013418438
105	0xbd0f3c9f	-0.034969922
106	0xbe18b385	-0.14912231
107	0x3c7c4a02	0.015398504
108	0x3dc451e3	0.09585931
109	0xbb5b2a09	-0.0033441803
110	0x3d7b3236	0.06132718
111	0x3d834189	0.06408984
112	0xbc7109c9	-0.014711806
113	0x3de597b4	0.11210576
114	0x3d8f8c23	0.07009151
115	0xbe088bc6	-0.1333457
116	0xbe152b9c	-0.14567417
117	0xbca83573	-0.0205333
118	0xbdac7689	-0.08421046
119	0xbde5072b	-0.11183008
120	0x3dd379eb	0.103259884
121	0x3c30f333	0.010800171
122	0x3dc7e2aa	0.097600296
123	0x3de47b60	0.111563444
124	0x3d1e0e57	0.038587894
125	0x3d74dec2	0.05978275
126	0xbd5920a5	-0.053009648
127	0xbdddf4a6	-0.108376786
128	0x3aa4523c	0.0012536715
129	0x3cd7212c	0.026260935
130	0xbdc09b51	-0.09404624
131	0xbcca9e73	-0.024733758
132	0x3db88e0f	0.090114705
133	0x3cc0d074	0.023536898
134	0xbdd8b9fc	-0.10582349
135	0x3b89de2e	0.004207394
136	0x3dde5911	0.10856832
137	0x3cc3aea9	0.023886995
138	0xbd3b1991	-0.04567868
139	0x3dc4e4cd	0.09613953
140	0xbc096798	-0.008386515
141	0xbdbecd8a	-0.09316547
142	0x3e1281c0	0.14307308
143	0xbd7287fd	-0.05921172
144	0x3da99484	0.0828028
145	0xbce49048	-0.02790083
146	0x3d09a408	0.033603698
147	0xbc8109b0	-0.01575169
148	0x3da87b94	0.08226696
149	0xbd0691c9	-0.032853875
150	0xbda0806d	-0.07836995
151	0x3d6f57ca	0.05843333
152	0xbdc39e28	-0.0955165
153	0xbd9bf806	-0.07615666
154	0xbd3207c0	-0.043464422
155	0xbc4ae753	-0.012384254
156	0x3da2c4be	0.07947682
157	0x3dd32356	0.10309474
158	0x3db0bb19	0.08629436
159	0xbc9c4955	-0.019077936
160	0x3bbcb385	0.005758705
161	0xbd4f09e6	-0.05054655
162	0x3c99ca19	0.018773125
163	0x3dfc8485	0.123299636
164	0xbe2baf35	-0.16766055
165	0xbe0a6390	-0.13514543
166	0x3d79ea5f	0.06101453
167	0xbcb69651	-0.022288473
168	0xbd9c1fdb	-0.076232634
169	0xbdd08369	-0.101813145
170	0x3dc9513f	0.098299496
171	0x3ddeb0e0	0.1087358
172	0xbdd509de	-0.10402273
173	0xbca10bfd	-0.019659037
174	0x3ddfe35f	0.109320395
175	0xbdca2f1f	-0.09872269
176	0xbdddd20f	-0.10831081
177	0x3d56e005	0.052459735
178	0xbdb334a1	-0.087502725
179	0x3c9f6bd5	0.019460598
180	0x3cd38006	0.025817882
181	0xbd10fd74	-0.03539796
182	0x3db4f826	0.08836393
183	0xbd339858	-0.04384646
184	0xbd9322a7	-0.07184344
185	0xbd09553c	-0.03352855
186	0x3d46849a	0.048466302
187	0xbd0a873e	-0.033820383
188	0xbd806aca	-0.062703684
189	0xbde049f6	-0.10951607
190	0x3d804a9a	0.06264229
191	0x3c347b7d	0.01101577
192	0xba9f29cb	-0.0012143193
193	0x3d83cf6d	0.06436048
194	0xbca2407c	-0.01980614
195	0x3d3f3313	0.046679568
196	0xbd86ea39	-0.06587643
197	0xbd799ef5	-0.06094261
198	0x3d0141d4	0.03155692
199	0xbde8625b	-0.11346885
200	0xbdc06ebb	-0.0939612
201	0x3e04bf61	0.1296363
202	0xbd4aebac	-0.04954116
203	0xbda26b67	-0.079306416
204	0xbd379ce9	-0.044827376
205	0xbd1b24fc	-0.037877068
206	0x3c9fc2f3	0.019502139
207	0xbd5a5b7d	-0.053309906
208	0x3de5aae4	0.112142354
209	0x3d4de8cc	0.05027084
210	0x3e0afe23	0.13573508
211	0xbd7e17ef	-0.062034544
212	0x3d3ac82b	0.04560105
213	0x3b80b08c	0.003927296
214	0x3c901c5a	0.017591644
215	0x3d967a70	0.07347572
216	0x3b9069f0	0.00440716
217	0x3c3b4759	0.011430585
218	0xbd0fb9ec	-0.03508942
219	0x3d8c3798	0.06846541
220	0xbdae1488	-0.0850001
221	0x3d46509a	0.04841671
222	0xbd07abb1	-0.033122722
223	0x3ceeba96	0.029141705
224	0x3d506480	0.050877094
225	0x3da879a2	0.082263246
226	0xbc9c2f9d	-0.019065673
227	0xbd835395	-0.064124264
228	0xbdd11e8c	-0.102109045
229	0xbdaf4b2a	-0.08559258
230	0xbd464856	-0.04840883
231	0xbda9cf4f	-0.08291494
232	0xbdb982df	-0.09058165
233	0x3d82e0ce	0.06390534
234	0xbd6011ab	-0.05470435
235	0x3d2f9eb2	0.042875953
236	0xbd5e5a5e	-0.0542854
237	0xbd480c84	-0.04884006
238	0x3b8c6010	0.0042839125
239	0x3d9787e8	0.07398969
240	0xbe35b1d3	-0.17743616
241	0x3c6e73d8	0.0145539865
242	0xbc55c250	-0.013046816
243	0x3d929ae1	0.07158447
244	0xbd959e82	-0.073056236
245	0x3cf71cc7	0.03016509
246	0x3d91c197	0.071170025
247	0x3d9093ca	0.070594385
248	0x3c1906aa	0.009339968
249	0x3db7aeb7	0.08968871
250	0xbdcded47	-0.10055023
251	0xbdf3bbd2	-0.11901058
252	0x3cf72ba5	0.030172179
253	0x3d1291d5	0.035783608
254	0x3dc45b2a	0.09587701
255	0x3c85597e	0.016278025

backBone.0.conv1.bias f4 [8]
0	0xb6af0d6d	-5.2169694e-06
1	0x37d2ad96	2.5114783e-05
2	0x37734450	1.4499834e-05
3	0x382c2b6e	4.1048443e-05
4	0xb65a778e	-3.2554121e-06
5	0xb55d7446	-8.2498116e-07
6	0xb7a43ad2	-1.9577714e-05
7	0xb6461d24	-2.9521261e-06

backBone.0.bn1.weight f4 [8]
0	0x3f7f2523	0.9966604
1	0x3f82f160	1.0229912
2	0x3f7314b0	0.9495344
3	0x3f814d77	1.0101765
4	0x3f8565d3	1.0421699
5	0x3f7f6043	0.9975626
6	0x3f8404f2	1.0314009
7	0x3f68b28f	0.9089746

backBone.0.bn1.bias f4 [8]
0	0x3d2163d1	0.039401833
1	0x3df6dc0e	0.12053691
2	0x3da5dfd9	0.08099336
3	0x3e0c2eff	0.13689803
4	0x3d61a92e	0.055092983
5	0x3d59cb5e	0.05317246
6	0x3d9cf0b9	0.07663102
7	0x3e284ea9	0.16436256

backBone.0.bn1.running_mean f4 [8]
0	0x3f011670	0.5042486
1	0x3dc59af6	0.09648697
2	0xbe0fa372	-0.14027193
3	0xbec56be3	-0.38558874
4	0x3c3dc7a7	0.011583245
5	0xbc738f5d	-0.014865723
6	0xbd90b0e5	-0.0706499
7	0x3e8e891c	0.2783898

backBone.0.bn1.running_var f4 [8]
0	0x3ece8d0b	0.40341982
1	0x3e339288	0.17536366
2	0x3e4b6ff7	0.1986693
3	0x3eb8e800	0.36114502
4	0x3e75e2f7	0.24012361
5	0x3e37c4a3	0.17946105
6	0x3ec581b9	0.38575533
7	0x3eadef54	0.33971655

backBone.0.conv2.weight f4 [8, 8, 3, 3]
0	0x3d3d89b7	0.046273913
1	0xbc25530d	-0.010090602
2	0xbca3c61e	-0.01999193
3	0x3d809b17	0.06279581
4	0x3e187108	0.14886868
5	0x3c3e5298	0.011616372
6	0x3d9f5602	0.077800766
7	0x3d5189d6	0.05115684
8	0xbc60aad3	-0.013712603
9	0x3e28b966	0.16476974
10	0xbb955e14	-0.004558334
11	0xbdc95d37	-0.098322324
12	0x3d4c9509	0.04994682
13	0xbdb908bc	-0.09034869
14	0xbda9803b	-0.08276411
15	0x3d2657f3	0.04061122
16	0xbc6a58e3	-0.014303419
17	0xbdf653af	-0.1202768
18	0xbd85151d	-0.06498168
19	0x3d23a0ac	0.03994815
20	0x3c417b3a	0.011809165
21	0x3d8c24be	0.068429455
22	0xbd64ef6e	-0.0558924
23	0xbe3d446c	-0.18483132
24	0xbd847e91	-0.06469453
25	0x3e09eac9	0.1346847
26	0x3ccb7efa	0.02484082
27	0x3dde4b9a	0.108542636
28	0x3ca35b5f	0.01994103
29	0xbe08b70b	-0.13351075
30	0xbcbf4e64	-0.02335281
31	0xbd8ccf7c	-0.06875512
32	0x3dadab75	0.084799685
33	0x3e18ea3e	0.14933106
34	0x3dab7165	0.08371238
35	0xbd6376b1	-0.055533115
36	0x3dc5d672	0.09660043
37	0x3df092e9	0.11746771
38	0x3af355fc	0.0018565054
39	0x3d94c6b6	0.072644636
40	0xbde8b8f9	-0.11363406
41	0x3d6193d2	0.055072613
42	0x3d38be42	0.04510332
43	0xbde493d4	-0.111610085
44	0xbdb99aa6	-0.090627
45	0xbc669640	-0.014073908
46	0xbb2cad1c	-0.0026348298
47	0xbd619c30	-0.055080593
48	0x3d296b00	0.04136181
49	0x3d81b0a9	0.063325234
50	0x3d86b462	0.06577374
51	0xbba7fb2a	-0.0051263766
52	0x3e669cb0	0.22520709
53	0xbcc306b9	-0.023806917
54	0xbd806232	-0.06268729
55	0xbd248e6f	-0.040174898
56	0xbdcde6ec	-0.100538105
57	0x3c9e6f96	0.019340318
58	0xbb193379	-0.0023376627
59	0xb9f614b7	-0.0004693621
60	0xbd9fc25e	-0.078007445
61	0xbd865633	-0.0655941
62	0x3b08a085	0.002084763
63	0x3d8e958f	0.0696212
64	0x3d44da67	0.048059847
65	0x3db35c3a	0.08757825
66	0x3c491b51	0.012274579
67	0x3a27a2f6	0.00063948275
68	0x3c6aafb1	0.014324115
69	0xbc0faa4f	-0.008768632
70	0x3cf93fc4	0.030425914
71	0x3d4d50e5	0.050125975
72	0xbd3bce3f	-0.04585099
73	0xbda458b1	-0.08024729
74	0x3d6452e0	0.0557431
75	0xbd9a23f9	-0.075263925
76	0xbb221549	-0.0024731925
77	0xbd94ebc3	-0.072715305
78	0xbdde0999	-0.10841674
79	0xbd808759	-0.062758155
80	0x3c3375fb	0.010953422
81	0x3d51f0fc	0.05125521
82	0x3c494269	0.0122839
83	0xbb97aa57	-0.0046284604
84	0xbd58b611	-0.052908007
85	0x3e296ff6	0.16546616
86	0x3e02bb50	0.12766767
87	0xbddcd39a	-0.10782547
88	0x3d990c13	0.07473006
89	0xbdc634a7	-0.096780114
90	0x3d815fe7	0.0631712
91	0x3a9387c7	0.0011255675
92	0xbd967ba7	-0.073478036
93	0xbdac1fdd	-0.08404515
94	0x3d74f902	0.059807785
95	0xbd6906ef	-0.056891378
96	0xbcd6dc82	-0.026228193
97	0xbd3a58ec	-0.04549496
98	0x3d1f0d7a	0.03883121
99	0x3bf2639f	0.0073971297
100	0x3ce46456	0.027879875
101	0xbcd61fdc	-0.026138239
102	0x3e322a80	0.17399025
103	0x3dc5c94d	0.09657536
104	0x3bf59430	0.007494472
105	0x3e171014	0.14752227
106	0xbccbb92f	-0.024868576
107	0x3e1068b7	0.14102446
108	0xbd9c4c0f	-0.076316945
109	0xbde1eaf7	-0.11031144
110	0xbe1f52f6	-0.15558991
111	0xbbfb2e3c	-0.0076654237
112	0x3d6851e8	0.056718737
113	0xbd3c1db9	-0.045926783
114	0xbc53aa9c	-0.012919094
115	0x3cc7a1b2	0.024369095
116	0x3d1f7f04	0.03893949
117	0x3c29de1a	0.010367895
118	0x3e02ed08	0.12785733
119	0x3ca11e65	0.019667814
120	0xbcb5c8d8	-0.022190496
121	0xbde0ab75	-0.10970203
122	0xbd3bbb7f	-0.045833107
123	0xbe1dde62	-0.15416864
124	0xbdbb2ee2	-0.091398016
125	0x3b0fd834	0.0021948935
126	0xbc85755c	-0.016291313
127	0x3e143a5d	0.14475389
128	0x3db85e32	0.09002341
129	0xbcd2f221	-0.025750222
130	0xbd0e687d	-0.034767617
131	0x3e21a1cd	0.15784378
132	0xbdebb2e6	-0.115087315
133	0x3dcf65ed	0.10126863
134	0x3dae7945	0.08519224
135	0xbd84f06a	-0.06491168
136	0x3d29604c	0.0413516
137	0xbd276934	-0.040871814
138	0x3da423e9	0.08014662
139	0xbcdc2bcd	-0.026876355
140	0xbbfce6cd	-0.0077179433
141	0xbb9efd1c	-0.0048519503
142	0x3d59a7af	0.05313843
143	0x3e015241	0.12629034
144	0x3cc56b95	0.02409915
145	0x3d851768	0.06498605
146	0x3c15cbf9	0.009142869
147	0xbcdd57da	-0.02701943
148	0xbd52fdcb	-0.051511567
149	0xbe1083cc	-0.14112777
150	0xbc69d368	-0.014271595
151	0xbdcb541f	-0.09928154
152	0x3dcbe271	0.099553
153	0x3c5afe04	0.013366226
154	0xbda5b8bd	-0.08091877
155	0x3da3040a	0.07959755
156	0xbdde70b4	-0.1086134
157	0xbe0d6fc9	-0.13812174
158	0x3cd6c95c	0.026219063
159	0xbdc4a065	-0.09600905
160	0xbd9d9865	-0.076950826
161	0xbd03b9ad	-0.032159496
162	0xbc7b6cfc	-0.015345808
163	0x3d8ac209	0.067752905
164	0xbdffaee2	-0.12484528
165	0xbdc47a88	-0.095936835
166	0xbc19ee04	-0.009395126
167	0x3c9c747d	0.019098515
168	0xbe47e816	-0.19522128
169	0xbdbcc565	-0.092173375
170	0xbbed1623	-0.007235305
171	0xbd945719	-0.07243175
172	0xbc5e571a	-0.013570571
173	0x3d5d4efa	0.054030396
174	0xbc95c700	-0.018283367
175	0x3cf91a90	0.030408174
176	0x3d08d55a	0.033406593
177	0xbdeeffbb	-0.116698705
178	0x3db30f33	0.087431334
179	0x3d890222	0.0668986
180	0xbdf109ef	-0.11769473
181	0xbd2bc14a	-0.04193238
182	0x3da58f57	0.080839805
183	0x3defff3f	0.11718606
184	0x3d0852f5	0.03328224
185	0x3dc70973	0.09718599
186	0xbda469e7	-0.08028012
187	0xbe0b4912	-0.13602093
188	0x3d9a3ab8	0.07530731
189	0x3e0277cd	0.12741013
190	0xbd048b7d	-0.03235959
191	0x3d548c13	0.051891398
192	0xbd8995c8	-0.06718022
193	0x3d01c0bc	0.031677946
194	0x3d8d4f8d	0.06899939
195	0xbc619eb7	-0.013770751
196	0xbd8ea1c7	-0.0696445
197	0x3d8d3a3b	0.06895872
198	0x3cfdc35b	0.030976942
199	0xbde147c4	-0.11000016
200	0x3d56998a	0.05239252
201	0xbd9fb736	-0.077986166
202	0x3e0634a8	0.13106024
203	0x3e018d06	0.12651452
204	0xbdc9fc00	-0.09862518
205	0x3d9955fb	0.074871026
206	0xbdc2badf	-0.09508299
207	0xbcbeb89d	-0.02328139
208	0x3d280e1c	0.04102908
209	0xbddf9497	-0.10917013
210	0xbcb52144	-0.022110589
211	0xbd79741e	-0.060901754
212	0x3cd0f385	0.025506744
213	0xbb8cb880	-0.004294455
214	0xbdd47280	-0.10373402
215	0x3bd7dc57	0.006587546
216	0xbdd2a366	-0.10285072
217	0xbc904fc0	-0.017616153
218	0xbbf5499a	-0.0074855806
219	0x3d06b107	0.03288367
220	0xbc1effe8	-0.0097045675
221	0x3d49ca3d	0.049265135
222	0x3bbb95af	0.005724631
223	0x3cc8756f	0.02447006
224	0x3de76f8e	0.11300574
225	0x3d395f5d	0.04525696
226	0xbd3089c1	-0.043100122
227	0xbd6a615a	-0.057221748
228	0x3e04977b	0.1294841
229	0x3d947cd4	0.072503716
230	0x3e0c9187	0.1372739
231	0xbd9d3827	-0.07676726
232	0xbc5e6ef2	-0.013576256
233	0xbdf97e2d	-0.12182269
234	0xbc2cccd0	-0.010546878
235	0x3e17eb1a	0.14835778
236	0xbd6bee70	-0.05760044
237	0xbdffd379	-0.12491507
238	0xbd9e9dcf	-0.07744943
239	0xbcc2d63e	-0.0237838
240	0x3d8d88fe	0.06910895
241	0x3d4a8da7	0.049451496
242	0xbd3ae21b	-0.045625787
243	0xbb5c6999	-0.0033632277
244	0x3d9f7dc4	0.0778766
245	0x3d2fcaab	0.04291789
246	0xbd6f6922	-0.05844987
247	0xbc5ab5e0	-0.013349026
248	0x3e0e6a29	0.13907684
249	0x3df112f3	0.117711924
250	0x3d817654	0.063213974
251	0xbdafb2e4	-0.085790426
252	0x3de99497	0.114052944
253	0xbe1bffb0	-0.15234256
254	0xbd24ce03	-0.04023553
255	0x3d0cb1a4	0.0343491

backBone.0.conv2.bias f4 [8]
0	0xb6e8da20	-6.939532e-06
1	0x38e9b40f	0.00011143844
2	0xb72b19da	-1.0198413e-05
3	0xb72039a6	-9.5501655e-06
4	0x3663563b	3.3875829e-06
5	0xb6a899d5	-5.0246986e-06
6	0x383a8ff1	4.447991e-05
7	0x36ea8a94	6.989876e-06

backBone.0.bn2.weight f4 [8]
0	0x3f6c4611	0.9229441
1	0x3f7c48e1	0.98548704
2	0x3f5d4fd4	0.86449933
3	0x3f6d05c0	0.925869
4	0x3f6f3535	0.9344056
5	0x3f67b735	0.90513927
6	0x3f7d3b6a	0.98918784
7	0x3f62856e	0.8848485

backBone.0.bn2.bias f4 [8]
0	0x3dc5c2d3	0.096563004
1	0x3dba4447	0.09095054
2	0x3e30f032	0.17279127
3	0x3d7d1623	0.06178869
4	0x3e2e38de	0.1701388
5	0x3d95a4f4	0.07306853
6	0x3e1a4506	0.15065393
7	0x3e2782c8	0.16358483

backBone.0.bn2.running_mean f4 [8]
0	0x3e52328b	0.20527093
1	0x3df1b279	0.11801619
2	0xbea08e6a	-0.31358653
3	0x3db8c570	0.09022033
4	0x3f416a78	0.75553083
5	0x3ed98df2	0.42491108
6	0x3eae8590	0.34086275
7	0xbe875030	-0.26428366

backBone.0.bn2.running_var f4 [8]
0	0x3e9ac3c5	0.30227485
1	0x3e819f09	0.25316647
2	0x3e9f4170	0.31104612
3	0x3e2d9cf3	0.16954403
4	0x3ec5f9f9	0.38667277
5	0x3e8acf68	0.27111363
6	0x3e4edbb4	0.20200998
7	0x3e90b602	0.2826386

backBone.1.conv1.weight f4 [8, 8, 3, 3]
0	0xbd07f77f	-0.033195015
1	0x3d9d4504	0.07679179
2	0x3dffaa23	0.12483623
3	0xbcf7cc0c	-0.030248664
4	0xbdd282ee	-0.10278879
5	0xbe08219b	-0.1329407
6	0x3d58df2c	0.05294721
7	0xbd20b795	-0.039237577
8	0xbe0dea57	-0.13858925
9	0x3db4a607	0.0882073
10	0xbdfa97ff	-0.12236022
11	0xbd424bdd	-0.04743563
12	0x3c54b279	0.012982004
13	0xbd9487ad	-0.072524406
14	0x3d87286c	0.06599507
15	0xbcce381f	-0.025173245
16	0xbab257fa	-0.0013606541
17	0xbd86f498	-0.06589621
18	0x3c5b26c6	0.0133759435
19	0xbc33bafb	-0.010969873
20	0x3cbafd3f	0.022825835
21	0x3d7c763c	0.061636195
22	0x3e3fa169	0.18713917
23	0xbcf04df0	-0.029334038
24	0x3de33645	0.110943355
25	0x3d30e95a	0.04319129
26	0xbc97b8ae	-0.01852068
27	0xbcd1f18b	-0.025627872
28	0x3c6a5003	0.014301303
29	0x3d28e5ed	0.0412349
30	0xbdca74f2	-0.09885587
31	0x3d95bac6	0.07311015
32	0xbd14f5aa	-0.036367096
33	0x3ce02c44	0.027364857
34	0xbdab2c90	-0.08358109
35	0x3d930bf8	0.07180017
36	0xbdbaee2c	-0.09127459
37	0xbc63e18e	-0.013908757
38	0x3d912dfc	0.07088849
39	0xbdee85be	-0.11646603
40	0xbdd0cc78	-0.10195249
41	0x3da06ff9	0.07833857
42	0xbd891d42	-0.066950336
43	0xbd31109b	-0.043228727
44	0xbc91d9ff	-0.017804144
45	0xbe01a0ce	-0.12658998
46	0x3c4b106a	0.01239405
47	0x3dd07ec0	0.10180426
48	0x3c2e1520	0.010625154
49	0xbe21a9f9	-0.15787496
50	0x3dda1c12	0.10649885
51	0xbd9980ea	-0.074952915
52	0x3cb05529	0.021524983
53	0x3dca66b5	0.09882871
54	0x3d926a72	0.07149209
55	0x3d8898af	0.06669747
56	0xbd9e36bd	-0.07725284
57	0x3de4bd89	0.111689635
58	0x3da0ffe9	0.07861311
59	0x3c30c09d	0.01078811
60	0x3d00f98f	0.031487998
61	0x3daf760c	0.085674375
62	0x3dbe11bb	0.092807256
63	0xbd3eca94	-0.046579912
64	0x3d3124da	0.043248035
65	0x3dc3e712	0.095655575
66	0x3de47346	0.11154799
67	0xbd331c42	-0.04372812
68	0xbc13c62c	-0.009019416
69	0x3d87acd8	0.06624764
70	0x3dbe899c	0.09303591
71	0x3dfb757c	0.12278268
72	0xbdac59eb	-0.08415588
73	0x3d93f847	0.072250895
74	0xbc17792b	-0.009245197
75	0x3d8c113d	0.068392254
76	0x3d076838	0.033058375
77	0x3cd6ff78	0.026244864
78	0x3d40c89b	0.047066312
79	0xbd47dd14	-0.04879482
80	0xbcbc552f	-0.022989837
81	0xbd4224de	-0.04739844
82	0xbdd41116	-0.103548214
83	0x3ce3676a	0.027759273
84	0x3d1dd32a	0.03853146
85	0xbd966ddf	-0.07345175
86	0x3d14c72c	0.036322758
87	0x3e073cd9	0.13206805
88	0xbd265409	-0.040607486
89	0xbde4dd56	-0.11175029
90	0xbd49b42c	-0.04924409
91	0xbdbaef91	-0.09127725
92	0xbbcb7d4d	-0.0062100054
93	0xbc741c71	-0.014899359
94	0xbd9c0865	-0.07618789
95	0xbce27db2	-0.027647827
96	0x3d1e532f	0.03865355
97	0x3dde9ba5	0.108695306
98	0xbd8159b4	-0.06315938
99	0x3e0679d1	0.13132407
100	0x3d30750a	0.043080367
101	0xbe1b9ecb	-0.15197293
102	0xbc3c14f0	-0.011479601
103	0x3e1d2804	0.15347296
104	0xbc899c4e	-0.016798165
105	0xbd3de422	-0.046360143
106	0xbd893d75	-0.06701175
107	0x3ba2b92e	0.004965923
108	0x3dce58f0	0.10075557
109	0xbca41128	-0.020027712
110	0x3db84fd7	0.08999603
111	0x3cdb9512	0.02680448
112	0x3d7e1ed9	0.062041137
113	0x3dc51199	0.09622497
114	0xbd86dc77	-0.06585019
115	0xbd2d743f	-0.04234719
116	0xbc853ce9	-0.016264396
117	0xbcec7e41	-0.028868796
118	0xbd6adbd2	-0.057338543
119	0x3e3a3482	0.18184093
120	0x3dc1a26b	0.09454807
121	0x3d7d9d4d	0.06191759
122	0x3e06c054	0.13159305
123	0xbd132de1	-0.035932425
124	0x3d15d8ea	0.03658382
125	0x3d975322	0.07388903
126	0xbd0c12f0	-0.034197748
127	0x3cd264fe	0.025682922
128	0xbc67ab1c	-0.014139917
129	0xbce93323	-0.028466767
130	0x3d15a153	0.036530804
131	0x3c895ab2	0.01676688
132	0xbd856482	-0.06513311
133	0x3cafa127	0.021439148
134	0x3d6d2b6e	0.057902746
135	0x3ddbcb84	0.10732177
136	0xbe033ff7	-0.1281737
137	0x3d4966f9	0.049170468
138	0xbce4601c	-0.02787786
139	0x3e24849b	0.1606621
140	0x3de0b306	0.10971646
141	0x3c91c350	0.017793328
142	0x3dc3e48e	0.09565078
143	0x3e9715e3	0.29508886
144	0xbdb067a9	-0.086135216
145	0x3ddf75e1	0.109111555
146	0xbe28c640	-0.16481876
147	0xbc106434	-0.008812953
148	0x3d4663e3	0.048435103
149	0xbda3a535	-0.07990495
150	0xbddd7912	-0.10814108
151	0x3ccdc61c	0.02511888
152	0x3baac496	0.005211423
153	0x3d07630e	0.03305345
154	0x3ca45c8f	0.020063667
155	0x3da3fd81	0.080073364
156	0xbd115758	-0.035483688
157	0xbe1cc70e	-0.15310308
158	0xbd7ec6f9	-0.062201474
159	0xbc2ada7c	-0.010428067
160	0xbd84bcae	-0.064813
161	0xbe3073ee	-0.17231724
162	0x3d338120	0.043824315
163	0xbd01c104	-0.031678215
164	0xbdcf39b5	-0.101184286
165	0x3daefa6f	0.0854386
166	0xba84e5e6	-0.0010139316
167	0xbdff13fe	-0.12454985
168	0x3d8160ba	0.06317277
169	0x3d80b9ca	0.062854365
170	0x3dabd97e	0.08391093
171	0xbe0d14f7	-0.13777529
172	0x3c3e01ce	0.01159711
173	0xbd4a8d14	-0.04945095
174	0xbd8fd26f	-0.07022559
175	0x3cbb638f	0.022874622
176	0x3da31eb9	0.07964844
177	0x3dabd5ea	0.0839041
178	0xbc0e4dd7	-0.008685551
179	0xbdab2fb5	-0.08358709
180	0xbdf2e9aa	-0.11860974
181	0x3dea10de	0.114289984
182	0x3c93246e	0.017961707
183	0x3cfdb49e	0.030969914
184	0xbd129f97	-0.035796728
185	0xbd023be6	-0.031795405
186	0xbe092fe0	-0.13397169
187	0xbd8dee96	-0.06930272
188	0xbc9a281a	-0.01881795
189	0x3d18afe0	0.037277102
190	0xbdda705f	-0.10665964
191	0xbce31b64	-0.027723022
192	0xbce80c79	-0.02832626
193	0xbe30ca91	-0.17264773
194	0xbcc9984d	-0.024608755
195	0xbd47c7df	-0.048774596
196	0xbdc7dbd6	-0.09758727
197	0xbe488191	-0.19580676
198	0x3e009535	0.12556918
199	0xbd1a8462	-0.037723906
200	0xbd0e42e1	-0.03473175
201	0xbd4b016e	-0.04956191
202	0xbc92a7b1	-0.017902227
203	0xbd0d6804	-0.034523025
204	0xbdb000f4	-0.08593932
205	0xbd12486a	-0.03571359
206	0x3d304d34	0.043042377
207	0xbbf264c7	-0.0073972675
208	0x3de731b6	0.112887785
209	0x3d0a9304	0.03383161
210	0xbdaf6495	-0.085641064
211	0x3deb9ab9	0.115041204
212	0xbcdf4975	-0.027256707
213	0x3dc28083	0.09497168
214	0x3db9c632	0.09071006
215	0x3c5a61b2	0.013328956
216	0xbdc37401	-0.0954361
217	0x3dba84bc	0.09107348
218	0xbd6e3c2d	-0.058162857
219	0xbd3ac65f	-0.045599338
220	0xbdac59fa	-0.08415599
221	0x3c28281f	0.010263472
222	0xbc902d05	-0.017599592
223	0xbe09c4be	-0.13453957
224	0xbbfc0780	-0.0076913238
225	0xbd76bfc7	-0.060241487
226	0xbdf96b34	-0.121786505
227	0xbc259ede	-0.010108678
228	0x3d07b709	0.03313354
229	0xbc3eab41	-0.01163751
230	0x3bde9e3b	0.006793765
231	0x3d80266f	0.062573306
232	0xbc128968	-0.008943893
233	0xbda44115	-0.08020226
234	0x3e22b01a	0.1588749
235	0x3da82429	0.08210022
236	0xbdf25896	-0.11833303
237	0xbdc325c3	-0.09528687
238	0x3dd07e50	0.10180342
239	0xbd736bae	-0.059428863
240	0xbd99db0f	-0.07512485
241	0x3df09d89	0.117487974
242	0x3c9f1839	0.01942073
243	0xbb3aac73	-0.0028484135
244	0x3c7e703f	0.015529691
245	0xbbb67078	-0.0055676065
246	0xbdeba3dd	-0.11505864
247	0xbdd12d1d	-0.10213683
248	0x3caa576e	0.020793643
249	0xbd81269a	-0.06306191
250	0x3c8a5e96	0.016890805
251	0xbd115585	-0.03548195
252	0x3cd26c46	0.025686394
253	0x3a377a7c	0.00069991476
254	0xbcdda46a	-0.027055938
255	0xbc6c62c2	-0.014427843

backBone.1.conv1.bias f4 [8]
0	0xb69472ba	-4.4240996e-06
1	0xb73732fe	-1.09195225e-05
2	0xb82ac63f	-4.071579e-05
3	0xb70d3be3	-8.418198e-06
4	0x374f6da2	1.2363687e-05
5	0x354f920d	7.732604e-07
6	0x375b601b	1.30757935e-05
7	0xb602e245	-1.9503216e-06

backBone.1.bn1.weight f4 [8]
0	0x3f754029	0.95801026
1	0x3f8034c9	1.0016109
2	0x3f833118	1.0249357
3	0x3f80b00e	1.0053728
4	0x3f7cb2f8	0.98710585
5	0x3f75d92d	0.9603451
6	0x3f872955	1.0559489
7	0x3f7ba151	0.98293024

backBone.1.bn1.bias f4 [8]
0	0x3cfe362e	0.031031694
1	0x3c05ee10	0.008174434
2	0x3b99a980	0.0046893954
3	0x3c85d663	0.01633758
4	0x3d76acd5	0.06022342
5	0xbb4ebf37	-0.0031547078
6	0x3d6a9c27	0.057277825
7	0x3d43d9ef	0.04781526

backBone.1.bn1.running_mean f4 [8]
0	0x3eafeb18	0.3435905
1	0x3f5b148f	0.85578245
2	0xbf487344	-0.7830088
3	0xbcba09b0	-0.022709697
4	0xbe80b81b	-0.2514046
5	0x3f70b1cd	0.940213
6	0xbf3e3a0e	-0.74307334
7	0x3f41a533	0.756427

backBone.1.bn1.running_var f4 [8]
0	0x3f18a102	0.5962068
1	0x3f65d3a4	0.8977606
2	0x3f924102	1.1426089
3	0x3f2059a4	0.6263678
4	0x3f2f1377	0.68389076
5	0x3f2e7194	0.68142056
6	0x3f80d884	1.0066075
7	0x3f4c9efc	0.7993009

backBone.1.conv2.weight f4 [8, 8, 3, 3]
0	0x3ce66532	0.028124426
1	0x3ddc6ddf	0.10763144
2	0x3be77287	0.0070632133
3	0xbd9eabf1	-0.07747639
4	0xbdf4d575	-0.11954776
5	0x3d58c09f	0.052918073
6	0x3dbfeaa3	0.09370925
7	0x3ce5cd83	0.028052097
8	0xbd707952	-0.05870945
9	0x3c01c51e	0.007920532
10	0x3d8c235f	0.06842684
11	0x3da11b4f	0.07866537
12	0xbcb751a7	-0.022377802
13	0xbcbad513	-0.02280668
14	0xbd45e1ad	-0.048310924
15	0x3da9b361	0.08286167
16	0x3b9b4354	0.0047382507
17	0xbbfe6856	-0.0077639027
18	0x3c9865df	0.018603263
19	0x3de3f5d5	0.11130873
20	0x3e41f672	0.18941668
21	0x3dd5c6f2	0.104383364
22	0x3d93f41f	0.07224297
23	0x3d81dd8f	0.06341087
24	0xbda2c033	-0.07946815
25	0x3d33b9dc	0.04387842
26	0x3dd29e30	0.10284078
27	0x3d879336	0.06619875
28	0x3c2dcafa	0.010607475
29	0x3d48ada5	0.048993725
30	0x3d3d5bd4	0.046230152
31	0x3d8c4485	0.068490066
32	0x3dc17de3	0.09447839
33	0xbda029ee	-0.078204975
34	0xbc128e79	-0.008945101
35	0xbd64c3b7	-0.05585071
36	0x3dee1c65	0.116265096
37	0x3ba47fbd	0.0050201104
38	0xbbe41d2f	-0.006961487
39	0xbd0f17fb	-0.03493498
40	0x3ab4639e	0.0013762598
41	0x3c8bc731	0.017062755
42	0xbd138f9c	-0.03602563
43	0x3de3840b	0.111091696
44	0xbdc4947c	-0.09598634
45	0x3c84a00c	0.016189598
46	0xbd4ac968	-0.049508482
47	0xbe163a4b	-0.14670675
48	0x3c0e30b5	0.008678605
49	0x3d94646d	0.07245717
50	0x3bbb8ce0	0.0057235807
51	0xbe10ee47	-0.14153396
52	0xbe10c8b2	-0.14139059
53	0x3bfedc70	0.007777743
54	0xbbc7418e	-0.006080813
55	0x3da7c837	0.08192485
56	0x3e4e1ce2	0.20128205
57	0xbd344ee2	-0.04402054
58	0x3dcaccb4	0.09902325
59	0xbd19c177	-0.037538018
60	0xbd810e87	-0.06301599
61	0x3d2d3791	0.04228932
62	0x3e1e0a68	0.15433657
63	0x3c702c10	0.014658943
64	0x3cf704ac	0.030153595
65	0x3d92c355	0.07166163
66	0xbdc1a98d	-0.09456167
67	0x3d55fb48	0.052241594
68	0xbddaae3b	-0.10677763
69	0xbd9b8a88	-0.07594782
70	0x3d35f1a0	0.044419885
71	0x3d8998e2	0.06718613
72	0xbd9de190	-0.07709038
73	0x3d957cf7	0.07299226
74	0xbd209b1e	-0.03921043
75	0x3cb64c1a	0.022253085
76	0xbcbecccb	-0.023291012
77	0xbd2c0da7	-0.042005207
78	0xbd1c7507	-0.038197543
79	0xbd8eb390	-0.069678426
80	0xbdd78156	-0.10522716
81	0x3d15cb98	0.036571115
82	0x3d43de73	0.047819566
83	0xbdbfea9b	-0.09370919
84	0xbbe05951	-0.006846585
85	0x3d9b2f1c	0.07577345
86	0xbcc297f1	-0.023754092
87	0xbdf7187e	-0.120652184
88	0xbdd3492b	-0.1031669
89	0xbd5c68f2	-0.05381102
90	0xbb28860f	-0.002571467
91	0x3daa634f	0.08319723
92	0xbd2c60ec	-0.04208462
93	0x3d7388a6	0.05945649
94	0xba823b9b	-0.0009935977
95	0xbddca5d4	-0.10773817
96	0xbd9dda66	-0.07707672
97	0x394f2094	0.00019753195
98	0xbe0fc29f	-0.14039086
99	0x3d47042b	0.04858796
100	0xbd93e10a	-0.07220657
101	0xbdec13dc	-0.115272254
102	0xbcc63dc4	-0.024199374
103	0xbc10ef96	-0.008846184
104	0xbe3a2f37	-0.18182074
105	0x3d91531a	0.070959285
106	0x3d975f2b	0.07391199
107	0xbe3d0e42	-0.1846247
108	0xbe332805	-0.17495735
109	0xbd368f0d	-0.044570018
110	0x3d705148	0.058671266
111	0xbda98d8d	-0.08278952
112	0xbce68bbc	-0.028142802
113	0xbdc65e4d	-0.09685955
114	0x3da861a5	0.08221749
115	0xbdfdf4fb	-0.12400242
116	0x3cf683f6	0.03009222
117	0x3e071b4e	0.1319401
118	0xbd950eca	-0.072782114
119	0xbd95a5d2	-0.07307018
120	0xbd85ddc7	-0.06536441
121	0xbd3389fa	-0.043832757
122	0x3d6f828c	0.05847411
123	0x3ca091a9	0.019600706
124	0x3b57e82e	0.0032944786
125	0x3db97651	0.0905577
126	0xbde9ef23	-0.11422565
127	0x3d918302	0.07105066
128	0xbdc63caf	-0.09679543
129	0xbd8b6407	-0.06806188
130	0xbdbd1d1c	-0.09234068
131	0x3c4df878	0.012571447
132	0xbe04ddfa	-0.12975302
133	0x3c01546a	0.007893661
134	0xbc7b09d6	-0.015322169
135	0xbe14ff91	-0.14550616
136	0x3bf33024	0.0074215103
137	0x3d867d26	0.06566839
138	0xbb5e2e0b	-0.0033901955
139	0x3d6343e0	0.055484653
140	0xbd494718	-0.049140066
141	0x3e046eec	0.12932938
142	0xbb050783	-0.0020298667
143	0x3daac9d3	0.08339276
144	0xbc7a27bd	-0.015268263
145	0xbd84fff2	-0.0649413
146	0xbd932759	-0.07185239
147	0xbde21ed6	-0.11041038
148	0x3c1c4ec0	0.00954026
149	0x3b1e2746	0.0024132296
150	0xbdb37d5b	-0.08764144
151	0xbdafda39	-0.085865445
152	0xbce875b3	-0.028376436
153	0xbd6a3e85	-0.05718853
154	0x3d74b773	0.059745263
155	0x3d56c723	0.052436005
156	0x3da434c3	0.08017876
157	0xbd9b9fbd	-0.07598827
158	0xbd07d755	-0.03316434
159	0xbd21c3be	-0.039493315
160	0x3c118ef5	0.008884181
161	0x3c0db75e	0.008649675
162	0xb8db1797	-0.00010447128
163	0x3d978efe	0.074003205
164	0xbd7b3b04	-0.06133558
165	0xbd4f5f0f	-0.050627764
166	0xbd9a0cb5	-0.07521955
167	0xbd8cfb54	-0.068838745
168	0xbd8923d3	-0.06696286
169	0xbc2b8378	-0.010468356
170	0x3c5cf3ca	0.013485858
171	0xbda0aaa4	-0.07845047
172	0x3dff836d	0.12476239
173	0x3d645336	0.05574342
174	0xbc4e4874	-0.012590516
175	0xbd365c31	-0.044521514
176	0xbdd6456a	-0.104624584
177	0xbdd87b03	-0.105703376
178	0xbd84f673	-0.06492319
179	0x3dd043df	0.101691954
180	0xbcdd0cab	-0.02698358
181	0x3e0012a9	0.12507118
182	0x3d4ff0d6	0.05076679
183	0x3daab9f0	0.08336246
184	0xbdf00ce4	-0.11721209
185	0x3df08b3d	0.117453076
186	0xbdf1ce99	-0.118069835
187	0xbca6b8bc	-0.02035176
188	0x3d8c45ac	0.06849226
189	0xbdbc886c	-0.09205708
190	0x3d7ad600	0.061239243
191	0x3d679a60	0.056543708
192	0xbdbc2253	-0.09186234
193	0x3c8b3b32	0.016996
194	0x3e0c51db	0.137031
195	0xbd8bf68c	-0.068341345
196	0x3d8f0299	0.06982917
197	0x3d7c08ae	0.061531715
198	0x3d598977	0.053109612
199	0xbd8f69eb	-0.07002624
200	0xbd7f56c7	-0.062338617
201	0x3d5236ca	0.051321782
202	0x3d049567	0.032369044
203	0x3d3cf7b3	0.046134662
204	0x3d37e552	0.04489643
205	0x3e12300e	0.14276144
206	0x3ce1115c	0.027474098
207	0xbd6148b9	-0.055000994
208	0xbe09f70b	-0.13473146
209	0x3d1e6f9c	0.038680658
210	0xbc8f7083	-0.017509704
211	0xbe4f9052	-0.20269898
212	0x3dc374a7	0.09543734
213	0xbd20257d	-0.03909825
214	0xbd8e4dad	-0.06948409
215	0x3e432213	0.19055967
216	0x3dbcd694	0.09220615
217	0x3d8f7523	0.07004764
218	0x3d32530a	0.043536223
219	0xbda4878b	-0.08033665
220	0x3d62abc1	0.05533958
221	0x3dbc8e5a	0.09206839
222	0xbd476ae8	-0.048685938
223	0xbdd7e921	-0.10542513
224	0x3d922ff2	0.07138051
225	0x3e043ed9	0.129146
226	0xbd0a12f9	-0.0337095
227	0xbbb0b05d	-0.005392118
228	0x3cf2060c	0.029543899
229	0xbe0f3a07	-0.1398698
230	0x3d33c608	0.04389003
231	0x3c21fa4b	0.009886335
232	0xbd340265	-0.043947596
233	0x3cb4f5d0	0.022089869
234	0x3d2a5a17	0.041589823
235	0x3c924c6d	0.017858708
236	0x3db98296	0.090581104
237	0x3cd8ac78	0.026449427
238	0xbd4712bd	-0.048601855
239	0xbc944052	-0.018097077
240	0xbc9572f6	-0.018243294
241	0x3c0425a6	0.008065617
242	0xbcbda746	-0.023151051
243	0xbd9cee71	-0.076626666
244	0xbdba367b	-0.090924226
245	0x3deb21c9	0.114810534
246	0xbc71a382	-0.014748456
247	0xbd729642	-0.05922533
248	0x3a3d2fff	0.000721693
249	0xbd21e18e	-0.039521746
250	0xbe0409df	-0.1289439
251	0xbda9871e	-0.08277725
252	0x3d492e1e	0.049116246
253	0x3da5104c	0.08059749
254	0x3de35db5	0.111018576
255	0xbdeefe26	-0.11669569

backBone.1.conv2.bias f4 [8]
0	0xb6e207be	-6.736226e-06
1	0x36951c83	4.4438652e-06
2	0xb720e05a	-9.588979e-06
3	0x36708b96	3.5844037e-06
4	0x3704be5c	7.912135e-06
5	0xb7d821ff	-2.5765037e-05
6	0x38973ef6	7.2119685e-05
7	0x3696e3cf	4.4968688e-06

backBone.1.bn2.weight f4 [8]
0	0x3f67c8ba	0.9054066
1	0x3f73a379	0.95171314
2	0x3f669ab8	0.9007983
3	0x3f846a3f	1.0344924
4	0x3f7da907	0.9908604
5	0x3f6a791a	0.91591036
6	0x3f71b41b	0.94415444
7	0x3f6b49eb	0.91909665

backBone.1.bn2.bias f4 [8]
0	0x3de0c758	0.10975522
1	0x3cb06228	0.02153118
2	0x3e075fc1	0.13220121
3	0x3d03b5a9	0.032155667
4	0x3ddc8594	0.107676655
5	0x3c1e33c4	0.009655897
6	0x3e3807c0	0.17971706
7	0x3dc6f865	0.09715346

backBone.1.bn2.running_mean f4 [8]
0	0x3eb6c486	0.3569681
1	0xbee8b64e	-0.45451587
2	0xbe4d7d1f	-0.20067261
3	0xbe70e23c	-0.23523802
4	0xbe59d888	-0.21274006
5	0xbd3d432b	-0.046206634
6	0x3eb14005	0.34619156
7	0x3ea5a17b	0.32349762

backBone.1.bn2.running_var f4 [8]
0	0x3e3b5086	0.18292436
1	0x3e353746	0.17696866
2	0x3e816215	0.25270143
3	0x3e5a5841	0.21322729
4	0x3e6ab141	0.2291918
5	0x3e006c8b	0.12541406
6	0x3e3700de	0.17871425
7	0x3e2e2318	0.17005575

backBone.2.conv1.weight f4 [8, 8, 3, 3]
0	0x3c90a374	0.017656066
1	0x3bf3349e	0.007422044
2	0x3d97c09f	0.074097864
3	0x3da5c4dc	0.080941886
4	0x3d8f9a42	0.07011844
5	0xbd1c57e4	-0.038169757
6	0xbcd3400c	-0.025787376
7	0x3d08eaf3	0.03342719
8	0xbdff0349	-0.124517985
9	0xbd60b14c	-0.054856583
10	0xbc0d093c	-0.008608159
11	0x3e138a6c	0.14408273
12	0x3d1a7c15	0.03771599
13	0xbd3f4c65	-0.046703715
14	0x3deac0fa	0.114625886
15	0x3dc0c4b6	0.0941252
16	0x3df3ccd5	0.11904303
17	0x3e063371	0.13105561
18	0xbe098858	-0.13430917
19	0xbb05d79c	-0.0020422703
20	0xbd17af4e	-0.037032418
21	0x3c06611d	0.008201865
22	0xbdc4003b	-0.095703565
23	0xbdc2ce38	-0.09511989
24	0xbd948c09	-0.07253272
25	0xbd862f6c	-0.06552014
26	0x3dbc92d7	0.09207695
27	0x3cd133ed	0.025537455
28	0x3d912c14	0.07088485
29	0xbdb36d01	-0.08761025
30	0xbd53ebdb	-0.0517386
31	0x3d5f6b91	0.054545943
32	0xbd064de4	-0.032789126
33	0x3bbaa2ed	0.005695692
34	0x3d87fcf9	0.066400476
35	0x3dd0ba48	0.1019178
36	0xbde52518	-0.11188716
37	0xbd3c80d0	-0.046021283
38	0xbd431d97	-0.04763564
39	0x3e0d32e0	0.13788939
40	0xbdb5a9a7	-0.08870249
41	0xbda86f76	-0.082243845
42	0x3da813c0	0.08206892
43	0xbd43f460	-0.047840476
44	0xbd0175b1	-0.03160638
45	0xbc18f6d3	-0.009336191
46	0xbe101cff	-0.14073561
47	0xbdf26107	-0.11834913
48	0xbd9fbf9a	-0.07800217
49	0x3b3987bc	0.0028309664
50	0xbd9d7d60	-0.07689929
51	0xbd40da4e	-0.04708319
52	0x3df267c5	0.11836199
53	0xbd4f32f7	-0.050585713
54	0x3cbf4832	0.023349855
55	0x3de33a46	0.11095099
56	0x3c7e61e1	0.015526266
57	0xbd9cf258	-0.07663411
58	0x3c9a9e72	0.01887438
59	0x3ce03e27	0.027373387
60	0xbd1ce8df	-0.03830802
61	0x3c581e6f	0.01319085
62	0xbd4038a6	-0.046929024
63	0xbc5cb791	-0.0134715
64	0x3d0d2af5	0.034464795
65	0xbda10744	-0.07862714
66	0x3bd31b8a	0.006442492
67	0xbd150e90	-0.03639084
68	0xbdfe89d4	-0.124286324
69	0x3dabe074	0.083924204
70	0xbe28eb6d	-0.16496058
71	0xbe035acf	-0.1282761
72	0xbca18fa1	-0.019721808
73	0x3dcb4754	0.09925714
74	0xbd864b4f	-0.06557333
75	0xbc32e6dc	-0.010919299
76	0x3d053ce7	0.032528784
77	0xbd93d62c	-0.072185844
78	0x3c384306	0.011246448
79	0x3caf8d0a	0.021429557
80	0xbdcab254	-0.09897295
81	0x3ceb7458	0.028742
82	0x3c7b0d33	0.015322971
83	0xbe437d91	-0.19090869
84	0xbda1ecbc	-0.079064816
85	0xbde2a98e	-0.11067496
86	0x3d190e6a	0.037367262
87	0xbd876829	-0.06611664
88	0xbe14a3fe	-0.14515683
89	0xbc25cdef	-0.010119899
90	0xbd2fa9f0	-0.042886674
91	0xbd7b12dd	-0.061297286
92	0x3d81055c	0.0629985
93	0x3c7aeff1	0.015315996
94	0xbdd36f8d	-0.10324011
95	0x3e0ea9bc	0.13931936
96	0xbe0b6c66	-0.1361557
97	0xbd9931c2	-0.07480194
98	0xbdd05b85	-0.10173706
99	0xbdc441e3	-0.095828794
100	0xbe33de04	-0.17565161
101	0xbdf6e72a	-0.1205581
102	0xbe07f0c3	-0.13275437
103	0xbdb56ca6	-0.08858614
104	0xbcada727	-0.021197869
105	0x3d54bd73	0.051938485
106	0x3d140a24	0.036142483
107	0xbdb14010	-0.08654797
108	0xbe21ae5f	-0.15789174
109	0xbd8a848b	-0.06763562
110	0x3d570ed8	0.05250439
111	0xbd15d1e6	-0.036577128
112	0xbd9291fe	-0.07156752
113	0xbe000074	-0.12500173
114	0xbb5a11f4	-0.003327486
115	0xbdb9de99	-0.0907566
116	0x3de58fe1	0.11209083
117	0xbd1c1257	-0.038103428
118	0x3d7348c5	0.05939557
119	0xbe294390	-0.1652968
120	0xbd5e4472	-0.054264493
121	0xbdda5068	-0.106598675
122	0xbda74035	-0.081665434
123	0x3b674946	0.0035291477
124	0xbd46b9b5	-0.048516948
125	0x3dc72dab	0.09725507
126	0x3d501673	0.05080266
127	0x3d8569a5	0.06514291
128	0xbdd0769a	-0.101788715
129	0xbd7fbc75	-0.062435586
130	0x3dc79d20	0.09746766
131	0xbd7ddc3f	-0.06197762
132	0x3d8c714b	0.068575464
133	0xbdb51454	-0.08841768
134	0x3d57199e	0.052514665
135	0xbdd9eac0	-0.10640478
136	0xbc924353	-0.017854368
137	0xbe130ff4	-0.14361554
138	0x3e1b5083	0.15167432
139	0xbca9e555	-0.020739237
140	0xbbe88782	-0.007096232
141	0xbd0d35d3	-0.03447516
142	0x3d9fcd38	0.07802814
143	0x3db72986	0.08943467
144	0x3d67b280	0.056566715
145	0xbdda9092	-0.10672106
146	0xbdd1dee3	-0.102475904
147	0xbd69c466	-0.057072066
148	0x39c8e083	0.00038314247
149	0xbd5e3451	-0.05424911
150	0x3d8fe81c	0.07026693
151	0xbd9672a8	-0.07346088
152	0xbcb5280a	-0.022113819
153	0x3dc6f935	0.09715501
154	0x3d7a69f5	0.061136205
155	0x3dd05c5c	0.10173866
156	0x3e068b83	0.13139157
157	0x3e348654	0.17629367
158	0x3cad91ef	0.02118775
159	0x3d3f4cd6	0.046704136
160	0x3c1112f5	0.008854617
161	0x3ccc5a95	0.024945537
162	0x3d597f62	0.053099997
163	0xbc66ca54	-0.014086325
164	0xbd7d9e2f	-0.061918434
165	0xbd8656c3	-0.06559517
166	0x3d240b6e	0.040049963
167	0xbd54e51e	-0.051976316
168	0xbd4a0e14	-0.049329832
169	0x3dec2e67	0.11532288
170	0xbdb417d7	-0.087936096
171	0x3cd66bab	0.026174387
172	0x3d7bf4b2	0.061512657
173	0x3d0f29cc	0.03495197
174	0xbd84ffed	-0.064941265
175	0xbb975ad2	-0.004618981
176	0x3dac5a44	0.08415654
177	0xbd83fede	-0.064450964
178	0xbdb209ca	-0.08693273
179	0x3ce370dc	0.027763776
180	0x3d3fdfce	0.046844296
181	0x3dd9222d	0.10602222
182	0xbcf9fca1	-0.03051597
183	0x3e0f8e9e	0.14019248
184	0x3d5e121f	0.0542165
185	0x3de798f0	0.113084674
186	0xbda15b78	-0.078787744
187	0x3cf3d35f	0.029763876
188	0x3db70332	0.08936156
189	0x3ddaf363	0.106909536
190	0xbda2c4ef	-0.07947718
191	0xbd26005f	-0.040527698
192	0x3d681749	0.05666283
193	0x3dd744c5	0.105111636
194	0x3da9a225	0.0828288
195	0x3d90526d	0.070469715
196	0x39c58ba0	0.00037678797
197	0xbd0ecaeb	-0.034861486
198	0x3d2e76ab	0.04259364
199	0xbd8148d2	-0.063127175
200	0xbd3450b1	-0.044022266
201	0x3da34f45	0.07974104
202	0x3c95feed	0.018310035
203	0xbdcc68e6	-0.09980945
204	0xbd2e3249	-0.042528424
205	0xbe0264bf	-0.12733744
206	0xbc22a65a	-0.009927357
207	0x3d94dc60	0.07268596
208	0xbddd251f	-0.10798096
209	0x3b432789	0.0029778203
210	0x3b822ed0	0.0039728656
211	0x3d5a3131	0.05326957
212	0xbd5cb66e	-0.053884916
213	0xbd1f500e	-0.038894705
214	0xbdc35790	-0.095381856
215	0x3c15693d	0.009119329
216	0x3df6a8a4	0.120438844
217	0xbd8a90fd	-0.067659356
218	0x3b42278b	0.002962562
219	0x3ddc8f69	0.10769541
220	0xbb2b392e	-0.002612661
221	0x3dc7ae64	0.09750059
222	0xbd4620fe	-0.048371308
223	0x3e1ecbee	0.1550748
224	0xbd931dde	-0.07183431
225	0xbd4b0250	-0.049562752
226	0x3e2753e5	0.16340597
227	0x3ab1f8f7	0.0013578226
228	0x3d35d966	0.04439678
229	0xbcd67324	-0.02617795
230	0xbd3bf2e8	-0.04588595
231	0x3d98966f	0.07450568
232	0xbb71f342	-0.0036918675
233	0xbd11d4e2	-0.03560341
234	0x3e29acf6	0.16569886
235	0xbd871769	-0.06596262
236	0x3da0d7a4	0.0785363
237	0x3de9c61c	0.114147395
238	0x3c299434	0.010350276
239	0xbcf4ed4a	-0.029898304
240	0x3e13c6b0	0.14431262
241	0xbe1dd9dc	-0.15415138
242	0xbdcab08d	-0.09896956
243	0xbca78799	-0.0204504
244	0x3d6bec1e	0.057598226
245	0xbc9f5aef	-0.01945254
246	0x3b8eb217	0.004354726
247	0xbc2ac0af	-0.010421916
248	0xbe2dad4e	-0.16960642
249	0x3d0411d1	0.032243554
250	0x3de846a4	0.11341599
251	0x3ca7c708	0.020480648
252	0x3d7ab6d4	0.061209515
253	0xbc0d1be6	-0.008612609
254	0xbdd3f664	-0.1034973
255	0xbcd2865f	-0.025698839

backBone.2.conv1.bias f4 [8]
0	0xb595cb20	-1.1160482e-06
1	0x370b9573	8.319842e-06
2	0xb621db08	-2.4118362e-06
3	0xb69b50a4	-4.628748e-06
4	0x36768b04	3.6737774e-06
5	0x35c0bdf0	1.4360394e-06
6	0xb61e7404	-2.3611365e-06
7	0xb4ad077c	-3.2229207e-07

backBone.2.bn1.weight f4 [8]
0	0x3f7934a7	0.97345966
1	0x3f81986c	1.012464
2	0x3f83ed8d	1.030687
3	0x3f73f4b4	0.9529526
4	0x3f805078	1.0024557
5	0x3f7017b8	0.9378619
6	0x3f7a96d7	0.97886413
7	0x3f82f87f	1.0232085

backBone.2.bn1.bias f4 [8]
0	0xbd097217	-0.03355607
1	0x3c4ff0b5	0.012691666
2	0x3dada99f	0.08479618
3	0x393c8c4c	0.00017981342
4	0x3cf8ab75	0.030355195
5	0x3cb42174	0.021988608
6	0x3ce42209	0.02784826
7	0x3d56c3e0	0.052432895

backBone.2.bn1.running_mean f4 [8]
0	0xbf38a292	-0.7212306
1	0xbfebc1f3	-1.8418564
2	0x3f0107ef	0.5040273
3	0x3f1af8ad	0.605357
4	0xbfa10fa6	-1.25829
5	0xbfa9c2b4	-1.3262544
6	0x3ea50523	0.32230482
7	0xbe2e0400	-0.16993713

backBone.2.bn1.running_var f4 [8]
0	0x3fa2eeca	1.2729123
1	0x40041ef7	2.06439
2	0x3fa536c3	1.2907337
3	0x3f73e900	0.95277405
4	0x3fcb5afd	1.5887142
5	0x3fc63381	1.5484468
6	0x3f2bb4ae	0.6707257
7	0x3fa8184d	1.3132416
