src/interface/game/static/models/AZ-02-05-24-EIPC51-A/main.pt (torch, 496697 bytes, 69 tensors)

startBlock.0.weight f4 [32, 4, 3, 3]
00000000: 55f9 143d d160 d93d 5e44 a9bc 2a88 533d
00000010: 4d27 11bd c86a cb3d 0954 ee3d 5d3a b5bd
00000020: 7b6c 2dbd 7989 54bd d8c6 73bd 967a f73d
00000030: 3388 373d ab1b ab3b 469d 10bd 2b47 3e3d
00000040: 2352 2cbc 7a5f dc3d f5d3 fdbd df41 16bd
00000050: 90cc dcbd 935d 5dbe ba3b 443e fb4d 2f3e
00000060: bc39 6c3c 441b 98bc e61e 213e a701 4d3e
00000070: 556c 31be e1e5 3bbe eaf0 8bbd a47b f53d
00000080: 0399 cdbc bd52 163d f9d3 0fbd 50db 023e
00000090: cf41 253d 9512 0f3d 6178 143d d7af 62bc
000000a0: ddac 32bd 9113 b6ba 655f 863d 2373 5d3d
000000b0: d125 1dbc 220c 10be 2e9a 303e 2815 82bd
000000c0: f33a f0bc 476d 313d c4d8 8fbc 9994 d7bd
000000d0: d59d a63c bc98 45be e74e 553d d991 093e
000000e0: 91d5 263c fcba da3d 6b54 393e be30 99bd
000000f0: 7101 3d3e c976 b8bd 9ece 52be f391 b73d
00000100: bbca 8cbd 2b54 423a 0b96 2c3e 0ba6 583e
00000110: 83a8 d63d 3857 273e c522 313e 95db 523e
00000120: 4681 0cbe f139 a6bd 0b23 b83d 77fd abbd
00000130: d0f3 7abd cb2e 273d 7b59 f63c 74b2 db3d
00000140: 934f b9bc b4fd 08be aa65 22be e67d 393c
00000150: 93d4 5cbe 07f6 07be c07d ac3d 76f8 3b3e
00000160: aae4 75bd ea93 fb3c 4e5f e23d 2a4e 8a3c
00000170: d95b 2bbd 888b f5bc 2e9a ba3c 01bb fabd
00000180: 4605 48bd bbed 26bd a084 c0bd bc14 433e
00000190: a1c6 85be 5964 9c3d 36bb ce3d 7522 ef3d
000001a0: a10c e9bc b2b6 3fbe e1ea 63bd 5c78 12be
000001b0: 5c44 9d3d 4623 0b3e 338d bfbd 9b8a 27bd
000001c0: aadb 7f3c 22d7 493b fc2e 04bd 0a7a 9cbd
000001d0: 101b b9bb 7321 833d f350 46be 6bbc 223e
000001e0: 3b02 68bd d32b c0bd 1bfd 7d3d 29b1 ed3c
000001f0: eff7 053e b6b5 073e 3529 0c3e e711 013d
00000200: 1aec b33d 331e 13be 60b8 193e 0f9a 5ebd
00000210: 1856 05be 0675 0ebe be31 edbb c3a0 c33c
00000220: 1d29 ad3d 51a2 853d 4f9d 9ebc 6fdd 993d
00000230: e5ae 64be 45f1 a9bd b852 0abe 7a55 9f3e
00000240: 2d17 023e eb1b 283d d566 c2bd eaf3 b5bd
00000250: cd37 9e3d 871f fb3d b102 08bd 8594 a1bd
00000260: 6b5b 783d d402 f93d aa76 4dbe e42d 5f3d
00000270: 0355 613e 0102 953d 2957 313d 1c6c 5bbd
00000280: 6f25 b63d a952 c83d 2d95 08be dbef a63d
00000290: 081d 57bc a831 09bd e62e 1e3d 749f 3ebe
000002a0: 7ecb 853c 1481 c73d 2d4c 35bb a13d 38bd
000002b0: 0846 443d 96a0 a73b c246 603e 2829 02be
000002c0: 1456 5abe 2d22 20be 2fa7 88be 87df ca3c
000002d0: 5d74 86bd 5842 99bd e70d 403c 685d c9bd
000002e0: d38b 05bd a9f3 803d 0323 c03c 5748 2a3d
000002f0: 6408 c5bd ef97 a3bb 2866 1fbd bca5 503d
00000300: 1088 afbb a073 663d 832c 27bc 12df 39bc
00000310: ca06 153e 6d97 34bd 25d1 ac3d f81a 09bd
00000320: 1bcc 17be 6a6c 05bd 3aa3 4f3e 723f 8a3d
00000330: f416 053c 4d2b dabd 3fd5 26bd e906 803e
00000340: 60ea 1a3e 76a2 9b3d 75db 723c ed9f 30be
00000350: fa5b b13c 1fa5 25be ed37 8fbd e98c acbd
00000360: 7d92 a13d 3ce0 c53d ec5e ea3d 5661 1cbe
00000370: 2647 3d3d 0874 43bd 7c1e 16be 985d 983c
00000380: d8f0 e23c 368b 1abd 90b1 523e 36d9 963d
00000390: 9923 b73b ee26 e6bd e4ef 50bd 831c 203d
000003a0: 39ed 35bd a916 033e aeee 28bd 06cc 13be
000003b0: fc2f 033d dc37 8cbe a59c 843d 8ad9 a43d
000003c0: 3a99 483d 5bde 913d d638 bd3d 0f8d 503d
000003d0: f474 39be cc66 41be 15e7 2abe 4fc6 903d
000003e0: 67b8 d7ba 0f84 193d 0358 ed3b 02a1 b9bc
000003f0: f446 2437 602c c6bc 672c febd b536 efbd
0.036370594 0.106141694 -0.020662483 0.051643528 -0.03543787 0.09932476 0.11637122 -0.088490225
-0.042339783 -0.051888917 -0.059515804 0.12083928 0.044807624 0.005221804 -0.035306238 0.04645459
-0.01051763 0.10760398 -0.12393943 -0.036683913 -0.10781205 -0.21617727 0.19163409 0.17119591
0.014418062 -0.018567689 0.15734443 0.20020162 -0.17326482 -0.1834941 -0.0683306 0.11986473
-0.025097376 0.0367 -0.035114262 0.12778974 0.040345963 0.03492983 0.036247615 -0.013835869
-0.043621887 -0.0013891329 0.06561164 0.05406488 -0.009591536 -0.14067128 0.17246315 -0.063516915
-0.029324984 0.043317106 -0.017559417 -0.1052639 0.020338932 -0.19296545 0.0520772 0.13434543
0.010182754 0.10680196 0.18098609 -0.0748 0.18457581 -0.090070315 -0.2058663 0.089633845
-0.06874605 0.00074130547 0.16854112 0.2115709 0.1048136 0.16341865 0.1729842 0.20591576
-0.13721189 -0.0811652 0.08991059 -0.08397954 -0.061267674 0.04081611 0.030071964 0.107273966
-0.022620952 -0.1337803 -0.15859094 0.01132152 -0.21565466 -0.13277446 0.084224224 0.18356499
-0.060032524 0.03071018 0.11053334 0.016882975 -0.04183564 -0.02997376 0.022778597 -0.122426994
-0.048833154 -0.04075406 -0.09400296 0.19050878 -0.26128104 0.07636327 0.100943014 0.11676494
-0.028448405 -0.18722036 -0.05564392 -0.14303726 0.07679054 0.13587674 -0.093531035 -0.04090367
0.015616337 0.0030798395 -0.03227137 -0.076404646 -0.005648978 0.06402864 -0.19366817 0.15892188
-0.056642752 -0.09383359 0.06200896 0.02901514 0.1308286 0.13252911 0.13687594 0.031511214
0.08785267 -0.14366989 0.1501174 -0.05434614 -0.13021123 -0.13911828 -0.0072385957 0.023880368
0.08455107 0.065251 -0.01936212 0.07512938 -0.22332342 -0.08297972 -0.13508117 0.311199
0.12704153 0.04104225 -0.0949227 -0.088844135 0.07725487 0.12261873 -0.03320569 -0.07889656
0.060634058 0.121587425 -0.20064798 0.054487124 0.22005086 0.07275773 0.043296013 -0.053569898
0.08893859 0.09781391 -0.13338156 0.081512176 -0.01312948 -0.03349462 0.038618945 -0.18615514
0.016332384 0.097414166 -0.0027663813 -0.04498065 0.04791835 0.005115579 0.21901992 -0.12711012
-0.21321899 -0.15638037 -0.2669005 0.02476479 -0.06565163 -0.07483357 0.011722065 -0.09832269
-0.03260405 0.062964745 0.023454195 0.041572895 -0.09620741 -0.004992477 -0.038915783 0.050939307
-0.005356796 0.056262612 -0.0102034835 -0.011344688 0.14553371 -0.044089723 0.08438329 -0.033472985
-0.14823954 -0.032574095 0.2027711 0.067503825 0.008123148 -0.1065279 -0.04073071 0.25005272
0.1512847 0.07599346 0.01482283 -0.17248507 0.021650303 -0.1617627 -0.06993089 -0.08425314
0.078892685 0.0966191 0.11443886 -0.15271506 0.04621043 -0.047718078 -0.14660066 0.018599316
0.027702734 -0.03773042 0.20575547 0.073656484 0.0055889604 -0.11237894 -0.051010028 0.03908969
-0.044415686 0.12801613 -0.041243248 -0.14433298 0.032028183 -0.27386367 0.0647519 0.08049305
0.048974253 0.07122489 0.09239356 0.050915774 -0.1811102 -0.1888687 -0.16689713 0.07069074
-0.0016458154 0.037479457 0.007243158 -0.022659782 9.791682e-06 -0.024191082 -0.12410813 -0.116803564

startBlock.0.bias f4 [32]
00000000: 25a9 d9b8 f1a4 3239 b664 59b9 5f26 0c38
00000010: 1f83 58b8 ad8c 8eb9 d2f0 7c38 06df d938
00000020: b7d1 2c38 4a9d ccb8 8708 8b38 2aaf f9b8
00000030: 7ce7 80b7 5edc b038 4d92 20b8 4b2a 1939
00000040: ff78 c638 85ec 9db8 2e11 abb9 072a 97b8
00000050: 85c4 5f38 38a3 5638 601e d7b8 00f2 11b9
00000060: 253f 34b9 f5c7 75b9 bd90 4438 b639 5538
00000070: a02f 2437 468f 39b8 2d3f 8ab8 58fe c2b8
-0.00010378872 0.00017036848 -0.0002073225 3.3414337e-05 -5.162053e-05 -0.00027189162 6.0305763e-05 0.00010388908
4.1203308e-05 -9.7567754e-05 6.629625e-05 -0.00011905872 -1.5366582e-05 8.4333806e-05 -3.8283226e-05 0.00014606972
9.463913e-05 -7.5303986e-05 -0.00032628461 -7.208069e-05 5.3350366e-05 5.1173585e-05 -0.00010257657 -0.0001391843
-0.00017189661 -0.0002343951 4.686484e-05 5.0836905e-05 9.78625e-06 -4.424087e-05 -6.59212e-05 -9.298016e-05

startBlock.1.weight f4 [32]
00000000: e9da 7f3f b1b3 823f cc0b 833f 7a23 803f
00000010: a3fd 7b3f dbac 7f3f 43be 783f 242d 763f
00000020: 021e 7e3f 2810 763f bdb3 813f c4fe 7d3f
00000030: 31e7 7c3f 5cb8 7c3f a23f 883f b54f 873f
00000040: 8983 853f 6f31 793f 200d 7b3f c6a5 853f
00000050: e862 7e3f a4c6 7c3f cada 7e3f d6fc 803f
00000060: 7012 853f d8e8 7e3f e4fa 843f b69e 813f
00000070: cd92 6c3f a119 7d3f 5b35 703f 5322 7e3f
0.99943405 1.0211087 1.0237975 1.0010827 0.98433894 0.9987313 0.97165316 0.9616263
0.9926454 0.961184 1.0132977 0.99216866 0.9879027 0.9871881 1.0644419 1.05712
1.0430766 0.97341055 0.980669 1.0441215 0.9936967 0.987406 0.99552596 1.007716
1.0396252 0.9957404 1.0389066 1.012656 0.924115 0.9886723 0.93831414 0.99271125

startBlock.1.bias f4 [32]
00000000: 1513 8a3d d135 793c f4db 033e ded3 e63b
00000010: 6e67 8c3c dddf 343c 1ffb 0d3d e109 3d3c
00000020: 5483 fb3c 344d 0f3d 0635 3b3d 8efe 483d
00000030: f7a0 333e fa5a 113d f6f8 d53d 7a85 083d
00000040: 1a0a d03d 0112 603c e9c1 533d ba12 a13d
00000050: 3c02 ad3c d96e 9a3d 36a5 7a3d ca6c fc3d
00000060: e5a0 653d 8569 09bd e867 5e3d f76b 2d3d
00000070: 1517 083d 0dfa 1bbd 5f29 e0bc 9428 713d
0.06741921 0.015210585 0.12876874 0.0070442995 0.017139163 0.011039701 0.034663316 0.011538
0.03070227 0.034985736 0.045704864 0.049070887 0.17541872 0.035487153 0.10447876 0.03333042
0.10158177 0.0136761675 0.0516986 0.078649 0.02111923 0.07540674 0.061192714 0.12325437
0.056061644 -0.033547897 0.05429831 0.04233929 0.033225138 -0.038080264 -0.027363477 0.05887659

startBlock.1.running_mean f4 [32]
00000000: 0127 903d 1249 133e 7238 e2bd cce7 6aba
00000010: 9318 d4ba d9c3 f7bc d18b b1bc 3aec 07be
00000020: da20 cdbd d079 38bd e69f cbbb 571a 36be
00000030: f386 45bd 88ea ccbd cd24 0abd 477c a3bb
00000040: f30b 67bd df9b bfbc c451 f7bd 5bc8 3cbc
00000050: 495b a83d 601f b8b9 c181 cfbb 80a6 163d
00000060: 469a 803c 372d 7ebc e2c1 62b9 7e6c 5d3d
00000070: 9feb 563d 8293 8fbd 0fc9 51bd 6f45 3c3c
0.070386894 0.14383343 -0.11045922 -0.0008960932 -0.001618164 -0.030244755 -0.021673115 -0.13273707
-0.100160316 -0.045038044 -0.0062141297 -0.17783485 -0.0482244 -0.10005671 -0.033726502 -0.0049891802
-0.05640788 -0.023389755 -0.120761424 -0.011522378 0.08220536 -0.0003511859 -0.0063326065 0.03677988
0.015698563 -0.01551371 -0.00021625267 0.054058544 0.0524708 -0.07010557 -0.051217135 0.011491164

startBlock.1.running_var f4 [32]
00000000: 027e 2b3d b0ff 783d 15fb 3d3d a179 163d
00000010: 50b4 0f3d d71b e63c 3888 443d 76be 6f3d
00000020: 0231 3a3d c871 593d efc2 353d 9d0c 703d
00000030: 827b 0e3d b38d 4d3d 0d6c 303d d70e 063d
00000040: b5e3 133d 7c90 f83c 5aa6 5a3d a9f2 243d
00000050: fd72 2c3d 43d7 383d efcd 113d 39b5 243d
00000060: ca2c a83c 99d8 223d 8c67 1b3d 4b4a e43c
00000070: fde7 1a3d 2ced 073d 32cc 0c3d ba01 ee3c
0.041868217 0.060790718 0.04638203 0.036737088 0.03508407 0.028089447 0.04798147 0.058531247
0.045456894 0.053087026 0.044375356 0.05860578 0.034785755 0.050183963 0.043071795 0.032728996
0.03610583 0.030342333 0.0533813 0.04027048 0.04210185 0.045127165 0.035596784 0.04021189
0.02052917 0.039757345 0.037940547 0.027867457 0.037818898 0.03318517 0.034374423 0.029053558

backBone.0.conv1.weight f4 [32, 32, 3, 3]
00000000: a22b 5dbd 8ea9 71bd c58c 793d bd68 94bc
00000010: da0a 80bc d27d 0fbb 6f67 13bc 9616 8fbd
00000020: 4fbd 773d d2ec 88bd b6bd 36ba 3bb1 fbbc
00000030: 5845 f4bd a794 67bd 8b81 a13c edbe c5bc
00000040: 0765 b63d 6ca2 1e3d 23ea cb3d d6c1 ca3d
00000050: 966d e3bc 122a a43d 4556 ac3d 17c3 d2bc
00000060: 90c2 953d f0be 733d 87d5 793d 489b 54ba
00000070: 5a18 433c 582f 25bd b93f 88bd 9c2e d7bd
00000080: 1efb d63c a621 ae3c de38 38bc d827 5cbd
00000090: 4e95 0a3d 37ae a63c 5d0b 283d 3a84 f43c
000000a0: 4004 d1bb a487 96bc ba70 a93d d3a0 37bd
000000b0: 057d e2bd 65bb 893c c32c 9e3c 2d3e 17bd
000000c0: f96e b9bd 7cc9 2abd 58dd 46bd 1404 a03d
000000d0: e5e8 ef3d d44e 8c3d 0e88 67bb cf52 4e3c
000000e0: 2b4b 17bc ab6e 303d 87f3 3a3b 9875 923c
000000f0: 93bc 0f3d e90e 55bd e328 303b 462c 27bd
00000100: 9d2c 4dbc f57c 523d fd14 603c 5833 22bb
00000110: c778 473c 3f50 703b 8f23 ad3c 0915 033d
00000120: b847 fb3c 2b3a 4e3d 01fd 43bc f5b1 c4bc
00000130: 9ec4 7ebd 3223 69bd 45b0 81ba 9e47 c2bd
00000140: 8461 74bc 8940 0b3c 1fa4 8cbd 779e 173d
00000150: 7a54 bc3d b8c0 bbb9 f98c 7dbd a4ca 003d
00000160: fd22 b6bc 8bcb 2cbc 699f 3abd f7e9 cfba
00000170: 4db9 07bc 9b1e c8bd a61a 29bd 167d 6d3c
00000180: f96d aa3d 4024 7abd 3ceb 993c fd6e 9e3d
00000190: 6203 26bd 7915 013d fe96 dd3d a0a4 603c
000001a0: a0da 70bd ec21 fb3c 4a64 dc3b 6bf7 1dbd
000001b0: da7e 0f3d 7ec6 973b a3ba 36bd 27b6 51bc
000001c0: e027 bd3c c855 7bbd e81b d4bc 50fb d63b
000001d0: 25e7 003b 8fed 0bbd ecd6 03bd 7a5b 85bd
000001e0: 6f60 41bd ca43 bb3d 5dc5 1cbd 24fa 433d
000001f0: a0df 7b3d 1fd3 d4bc d45f 213d 82b4 09bc
00000200: dfc7 f4bc 5115 a63c 9c81 eebc 16b2 b0bb
00000210: 2548 333d e240 37bd 6976 1b3d e37e 163d
00000220: b84c d13b b376 8e3d 98d2 34bd bde2 c23d
00000230: a4cf 783c ad0c 683c 707a 61bd b992 a63d
00000240: 85f6 c33b 6328 823d cce8 a53c 8f9c babb
00000250: 2601 8ebd 7320 9f3d 9f08 ad3d 67ab 193d
00000260: dc2d f0bc 0f4a 3f3d f275 d23c e0be ca3d
00000270: 30f3 59bd 6f60 88bc c905 123d 4cb0 55bc
00000280: e523 bfbd 85dc 693d f3ca b83d 71eb f33c
00000290: 1221 263d 07b5 73bc ff5d 26bd 3d64 eb3c
000002a0: 6c7a 77bc 278f bebc 01ae 3f3d 8e6b c03c
000002b0: 3fdb cbbc c523 993c 879a 06be 5257 33bd
000002c0: 2355 c9bd 8087 8bbd 02f7 98bd 8263 b53d
000002d0: 02ed 34bd 5246 13bb e456 3cbd d1b4 9fbd
000002e0: b960 873d bb9f 01bd 3b54 a9bb 016b dc3c
000002f0: 1b37 b4bc 7d72 493c b1e5 6b3d ebd2 ddbd
00000300: 2c29 d4ba 0b30 b4bc 4764 c0bd 3592 303d
00000310: 33db 4fbc 8043 a43c 4e56 8cbd f715 973d
00000320: 3d1b de3b bc06 16bd 003e 90bd 3b69 9c3b
00000330: bec7 76bb fdee ffbd 755c 503c 3f97 e7bc
00000340: 460f bcbd 3a5b 5c3d f992 77bd dc34 b53c
00000350: ecb0 423d 11e0 7fbd d34f ebbc bd0f 2d3e
00000360: de84 463c 8e64 2b3d 3980 e73c a211 623d
00000370: b740 97bd d2c2 b83d 29e8 7fbd 0240 263c
00000380: 5958 db3b 7a68 8f3c 553e 6a3d 67bc 39bc
00000390: 24a1 943c c7d2 a4bb 583e aebb 4a41 1fbe
000003a0: 6073 b1bd ae79 a7bd 6a3a 8fbc 50eb bcbc
000003b0: 812a 753d de34 8cbc 0bbd 4c3c e6ee cbbc
000003c0: 7bf7 dc3b ae93 ba3d 2210 a23d 0adc 92bd
000003d0: 56eb aabc b2e4 8c3d 84d3 5dbd 09b2 f7bc
000003e0: a8e8 973c 8099 dabc b4f1 bcbc e04c b03c
000003f0: a3a5 1cbd d7c7 60bd dd9c b8bd 59d6 313c
-0.05399669 -0.05899959 0.060925264 -0.01811635 -0.015630174 -0.0021895063 -0.008996828 -0.0698673
0.060483273 -0.06685795 -0.0006971018 -0.030724159 -0.11927289 -0.05653825 0.019715091 -0.024138892
0.08905988 0.038729116 0.099567674 0.099002525 -0.027762216 0.08015837 0.08414892 -0.025727792
0.073125005 0.059508264 0.06099465 -0.0008110297 0.011907661 -0.040328354 -0.06652779 -0.10506937
0.026242789 0.02125628 -0.011244027 -0.053748935 0.033833794 0.020346744 0.041026462 0.029848207
-0.0063786805 -0.018375225 0.08273454 -0.04483111 -0.11059002 0.01681299 0.019308453 -0.03692453
-0.090543695 -0.041696057 -0.048550934 0.07813278 0.11714343 0.06850973 -0.0035328898 0.012592985
-0.00923423 0.04307429 0.0028526501 0.017878339 0.035091948 -0.052016173 0.002687984 -0.040813707
-0.012522844 0.0513887 0.013676879 -0.0024749842 0.012174792 0.0036668924 0.02113512 0.032002483
0.030673847 0.050348442 -0.011962176 -0.024010638 -0.062199228 -0.05691833 -0.0009894451 -0.09486316
-0.014915828 0.008499273 -0.06867241 0.03701636 0.091958 -0.00035811006 -0.06190202 0.031443253
-0.02223348 -0.010546575 -0.04556218 -0.0015862574 -0.008283925 -0.097714625 -0.04128518 0.014495155
0.08321757 -0.061069727 0.018788926 0.07736013 -0.04053057 0.03151462 0.10819815 0.013711125
-0.058802247 0.030655824 0.0067258226 -0.038566034 0.035033084 0.0046318164 -0.044611584 -0.012799776
0.023090303 -0.061361104 -0.025892213 0.0065607205 0.0019669023 -0.0341621 -0.032187387 -0.065115884
-0.047211107 0.09143789 -0.038274158 0.047845975 0.061492562 -0.025979577 0.03939803 -0.008404853
-0.029880462 0.020273836 -0.029114537 -0.0053923232 0.043769974 -0.04473961 0.03795472 0.036742102
0.0063873194 0.06956234 -0.04414615 0.09515903 0.015186224 0.014163178 -0.055048406 0.08133454
0.005980315 0.063553594 0.020252608 -0.005694933 -0.06933813 0.07769861 0.0844891 0.037516978
-0.029318742 0.046701487 0.025691006 0.09899688 -0.053210437 -0.016647546 0.03565005 -0.013042521
-0.09333018 0.05709507 0.090230845 0.029775353 0.040558882 -0.014874703 -0.040616985 0.02873432
-0.015104871 -0.02326162 0.046796802 0.023488786 -0.024884818 0.018693814 -0.13144885 -0.043784447
-0.09830692 -0.06812954 -0.07468988 0.0885687 -0.04417134 -0.0022472334 -0.045981303 -0.0779816
0.06610245 -0.03164647 -0.0051675118 0.026906492 -0.021998933 0.012295363 0.057592098 -0.10831245
-0.0016186587 -0.021995565 -0.093941264 0.043108184 -0.0126865385 0.020051718 -0.06852399 0.07377236
0.0067781494 -0.036627516 -0.070430756 0.0047732866 -0.0037655677 -0.12496755 0.012717356 -0.028270362
-0.09182601 0.053797938 -0.0604429 0.022119932 0.047532007 -0.062469546 -0.028724587 0.16900535
0.012116639 0.041843943 0.028259384 0.055192597 -0.0738539 0.09021534 -0.062477265 0.010147097
0.0066938815 0.017505873 0.05718835 -0.0113364225 0.018143244 -0.0050300094 -0.0053174905 -0.1555225
-0.08664584 -0.081775054 -0.017483909 -0.023061424 0.059854988 -0.017115053 0.012496243 -0.02489419
0.006743369 0.09110199 0.07913233 -0.07170875 -0.02086417 0.06879558 -0.054156795 -0.030236261
0.018543556 -0.026684523 -0.023064472 0.021521032 -0.0382439 -0.054878082 -0.09014294 0.010854327

backBone.0.conv1.bias f4 [32]
00000000: ac09 e7b7 a4f4 23b8 42fd a9b7 f3b8 6136
00000010: ee71 82b7 2ed7 5cb7 a748 0336 1166 fc37
00000020: cbe6 5bb6 8f44 d8b6 bf1e e336 3ba8 8137
00000030: 6f31 66b7 d690 06b9 6601 52b8 f6ac 8d38
00000040: 66e8 1e37 68bc a737 466f 89b7 afe4 4937
00000050: 8380 52b7 12dd 73b7 f6ee 8438 d8c8 4db7
00000060: d1f7 9436 ff28 5837 c7fc 9238 7668 3f37
00000070: 6cd1 19b9 7913 3bb5 6e7c 1338 301f 7b38
-2.754185e-05 -3.9090068e-05 -2.0264302e-05 3.3635267e-06 -1.555026e-05 -1.3163122e-05 1.956281e-06 3.008827e-05
-3.2767882e-06 -6.445283e-06 6.7687065e-06 1.5456337e-05 -1.3720578e-05 -0.00012833191 -5.0069204e-05 6.7556204e-05
9.471643e-06 1.9995685e-05 -1.6383488e-05 1.2033778e-05 -1.2546897e-05 -1.4535401e-05 6.3387604e-05 -1.2265715e-05
4.4395933e-06 1.2884148e-05 7.008906e-05 1.1408809e-05 -0.00014669233 -6.9691265e-07 3.5163415e-05 5.987211e-05

backBone.0.bn1.weight f4 [32]
00000000: bf6c 863f 4db1 7c3f d46a 823f bb9a 673f
00000010: 9656 7e3f f030 863f 5cf7 7f3f c9f8 7f3f
00000020: a202 803f 4780 7e3f 0dd8 6a3f 54ef 793f
00000030: 77af 723f 79d0 753f 700a 773f 8193 7c3f
00000040: f7d0 723f 3c2e 7d3f 4a13 803f 590b 753f
00000050: bd3d 763f e683 793f d205 773f 27e4 743f
00000060: 84ad 723f a226 7c3f efc2 783f 3de1 723f
00000070: 077a 833f 4172 7c3f b6fd 853f d386 723f
1.0501937 0.9870804 1.0188851 0.90470475 0.9935087 1.0483685 0.99986815 0.9998899
1.0000803 0.99414486 0.9173592 0.9763081 0.9479899 0.9602123 0.965003 0.98662573
0.94850105 0.98898673 1.0005887 0.9572044 0.96187955 0.97466886 0.96493256 0.9566063
0.94796014 0.9849645 0.97172445 0.94874936 1.0271615 0.9861184 1.0468051 0.94736975

backBone.0.bn1.bias f4 [32]
00000000: 2eb7 1e3d 6160 5c3b 7466 a93a fff2 fcbc
00000010: 323a 9ebd 862c 433d 373e adbd ee39 c23c
00000020: 6ab9 9bbd 6285 8b3b 67e4 b8bb c758 22bd
00000030: 40fb 173a dca8 69bc bea8 97bc 740c 883d
00000040: 030e 2cbd ce5e a43c 3246 593d 23b5 713d
00000050: 89b2 86bd 9aba 403c 8bea 99bd f609 59bd
00000060: 76a4 4fbc 4344 89bd fedb 16bd f82f 7fbd
00000070: 3ba5 a13d 0ab3 ea3b 312a 223d 2b4f 973d
0.038748913 0.0033626782 0.001292421 -0.030877588 -0.077259436 0.047649883 -0.08459132 0.023709264
-0.07603724 0.004257844 -0.005642462 -0.039635446 0.0005797632 -0.014261451 -0.01851308 0.06643
-0.04200555 0.020064738 0.05304546 0.059010636 -0.06577022 0.011763239 -0.07515439 -0.052988015
-0.012673488 -0.06702473 -0.036830895 -0.062301606 0.07892843 0.0071624564 0.039591018 0.07388147

backBone.0.bn1.running_mean f4 [32]
00000000: bf52 0bbe 5cab 90be edbd 8fbe cc88 26bf
00000010: 167e 77be cbad 40bc d863 fc3b af52 883f
00000020: ae00 6abf a0a7 f4bd 9eca 40bf 269f a93e
00000030: ee37 96be 05eb 2ebf 4330 623e 06a4 8fbe
00000040: fd91 963e 3a9c 85bf 398e 34bf 0754 eabe
00000050: a2ec 343d 4a9d 1f3f b066 ff3a da58 1ebf
00000060: 34f8 e13e e687 bb3e 2379 8b3e 73d2 093e
00000070: 2aff 08bf 49a9 673e 00f3 39bf 86b1 483e
-0.13605784 -0.28255737 -0.2807459 -0.65052485 -0.24169192 -0.0117601855 0.007702332 1.0650233
-0.9140729 -0.119460344 -0.7530917 0.33129233 -0.29339546 -0.6832736 0.22088723 -0.28054827
0.29408255 -1.0438302 -0.70529515 -0.45767233 0.044170983 0.6234938 0.0019485559 -0.61854327
0.44134676 0.3662712 0.27240857 0.13459186 -0.5351435 0.22623171 -0.72636414 0.1959897

backBone.0.bn1.running_var f4 [32]
00000000: b896 f03e 3893 103f 8085 013f 3774 ee3e
00000010: 00e2 003f 2e3e 083f d4a4 ae3e bbc8 ee3e
00000020: 9863 e13e ca10 113f 68b2 073f 8e79 313f
00000030: 2284 043f 0306 173f ea1f e43e e91b b03e
00000040: 831a 013f 6d25 0e3f c4cb f93e fda7 173f
00000050: 86be fc3e e0c6 fa3e 7ff0 0e3f 09ca 2f3f
00000060: e2c7 073f d8fe 053f 3319 0e3f 4d1f db3e
00000070: 2544 073f 2fed 1f3f 48d9 093f 3fef 083f
0.4698999 0.5647464 0.5059433 0.4657304 0.5034485 0.5321988 0.3411013 0.4663752
0.44021297 0.56666243 0.530066 0.693261 0.5176412 0.5899355 0.44555598 0.34396294
0.5043108 0.5552586 0.48788273 0.59240705 0.49364108 0.48979855 0.5583572 0.68667656
0.5303937 0.52341986 0.555072 0.42797318 0.52838355 0.6247129 0.5384717 0.5349006

backBone.0.conv2.weight f4 [32, 32, 3, 3]
00000000: fb70 7d3b dacc a53c 5967 813c 7053 18bd
00000010: 35ed d1bc c022 953d ce6b c0bd 5821 cdbc
00000020: fc27 dabd 4edd a13c 214a bebc 44a0 04bd
00000030: 0dad fb3c 2591 4bbc 374d a83b c6e7 7bbc
00000040: 0b3b 3f3c 9f83 42bd e21f ae3c 7d33 97bd
00000050: ef4b 80bb 42fe a9bc 80ab d2bd d67e b03d
00000060: eede 97bc e36d 7a3d 48ec d33d 0fea 71ba
00000070: 46fb 16ba d93c 08bd f1d6 443c 6799 c4bb
00000080: 43be 7dbd b519 95bc e548 4a3d b413 c23c
00000090: e7f2 7a3d 46ad a6bd 32df 83bd e9f4 a5bc
000000a0: fee8 dfbc d869 ff3b d8f3 9a3d 8790 23bd
000000b0: 5fb6 99bc 0dc3 9e3b 15fc d1bd 2f79 0f3e
000000c0: 7835 c2bc b89f 0bbe fbef 0e3d d71e cbbd
000000d0: b148 35bd 1d90 f4bb bb09 7cbd 2b45 963c
000000e0: 1241 a3bd 61e9 0d3d 64c5 98bc eb35 0a3d
000000f0: b795 babc 3f29 113d 2d89 83bb 506c c5bd
00000100: c4ed 593d 6d50 65bb 121c 913b bd3c f1bb
00000110: 5d90 a83d b9af 033d 8a06 85bc 5a13 b43c
00000120: cf60 b2bd 00ec 0b3d 2730 643d 8be9 ee3d
00000130: e79a 2bbd 1922 d7bc 65fd 1e3d 4859 76ba
00000140: 8193 76bc bd63 13be 742d 483d 129b 8c3c
00000150: 5060 7dbd 95a4 983d 1863 3e3d 82a3 0c3d
00000160: 24a2 0dbc 6ac4 15bd 9c48 edbc b2b7 9dbd
00000170: 51f9 75bd 588a 80bd 4e0f 30bd f685 9f3a
00000180: b061 35bb 4a31 423d a651 8dbd 22fe e2bd
00000190: 12f9 b73c 3802 2e3d 5d03 f13c e624 8f3d
000001a0: e93e 9dbc e42f d23a 0840 09bd 2f02 843c
000001b0: c118 f93c 6c2a 643d ed36 58bd a526 e93c
000001c0: d0d2 fd3b 0e99 043e e296 fa3c 28ea cf3c
000001d0: e9b6 ad3d 4120 d4bc 4a67 4c3d 6703 21bc
000001e0: aba6 cabd 940e 573d 4f40 8e3d 63d2 cd3d
000001f0: ba59 c53d c16f 6c3d fbb2 d43c 63e2 a33d
00000200: 92b0 163d 5a6a dfbc a538 47bd 538e 5c3c
00000210: 3c2d 4e3d b818 2b3b 9797 953d 85c5 38bc
00000220: cef2 a4bd 2ac2 463c 70b1 8fbc 87cc 313d
00000230: 1ea5 023d 0f89 d13c 7446 2d3d 447b 7dba
00000240: e705 10bc e1fb 88bd 5391 77bc b949 183d
00000250: 215d dabc c2c8 13bd 705e c63d 0864 e13d
00000260: 6943 87bd 79ff 1bbd 2f66 d73c 74cb a33c
00000270: c289 edbc f44d 183e bbb8 54bd fca6 3cbd
00000280: 6e33 61bd 15cd 59bd c078 91bd 0abd 07bc
00000290: f7f5 bcbc 1838 de3a 3856 2c3d 7c34 e8bc
000002a0: c02a 49bd 01d4 c4bb 724d bf3c 2c54 3d3d
000002b0: fd38 da3c e7e6 123d 116d e43c b0ca ddbd
000002c0: 0e58 dabc 480d 343d a48e 653b 0b39 f33c
000002d0: 2633 19bd 3f79 3e3d 0fda 38bd cf98 30bb
000002e0: 2f04 8f3c 93d6 943d 592b dbbd d899 98bd
000002f0: e3b5 7fbd 3d21 593d 4b64 b33d 060a f03d
00000300: b0ce 31bd c93b c7bb 0a9f 64bc 98c0 89bb
00000310: db85 7dbc 69e2 493d f509 5e3d 09f5 183d
00000320: c44c 52bd 078c b8bc 7b0e dcbd c020 263d
00000330: f9e3 2ebc 373f 03bd 4741 fd3d 9044 853c
00000340: dad4 5cbd da4b 00bb 1e36 9dba 318f dabd
00000350: 923a b0bc b7a5 a1bd 83d3 dfbc 5a0d be3c
00000360: e8fc a9ba 9c84 b7bc d289 8d3b df50 02bd
00000370: 6537 993c 4adb 55bb f813 41bd baac 4d3d
00000380: 8a94 cf3c 32b9 aa3b 491d 4e3d 4201 bfbb
00000390: 322d 5abd d86e 9a3d 8619 39bc 1c20 0c3c
000003a0: e240 70bd 3a9d 963d 21c2 553d 4d6e b13c
000003b0: c592 613d 8af6 6c3d d7fb 3e3c e474 d93c
000003c0: 06a3 7bbb 6f91 0bbc 2253 9d3d 7ec3 9b3d
000003d0: a7cc a53c ef27 123d 442b ef3b 3fdb 83bc
000003e0: db8f bf3c fd18 97bd a27b dd3b 803f 8bbc
000003f0: 20db 12bc e1df 723d 7a13 ccbb 4a36 e4bc
0.0038672078 0.020239282 0.01579635 -0.037188947 -0.025625804 0.07282019 -0.09395562 -0.025040314
-0.10652158 0.019758847 -0.023228707 -0.032379404 0.030722165 -0.012424742 0.005136158 -0.015375083
0.011671792 -0.047488805 0.021255437 -0.073828675 -0.003915302 -0.020751122 -0.10286617 0.08617942
-0.018538918 0.061139952 0.103478014 -0.0009228298 -0.00057594886 -0.033261154 0.012014137 -0.0059997323
-0.061949026 -0.018200735 0.049385924 0.023691036 0.061266806 -0.08138518 -0.064390555 -0.020258384
-0.027332779 0.0077946 0.07566041 -0.039932754 -0.01876372 0.004845029 -0.10253159 0.14011072
-0.023707137 -0.13635147 0.034896832 -0.099179916 -0.044258777 -0.0074634687 -0.061532717 0.018343529
-0.079713956 0.034646396 -0.01864881 0.033742826 -0.022776468 0.035439726 -0.0040141554 -0.096397996
0.053205267 -0.0034990564 0.004428395 -0.007361977 0.0823066 0.032150004 -0.01623847 0.021981884
-0.08709871 0.034160614 0.055709984 0.116656385 -0.041895773 -0.026261376 0.038815875 -0.0009397459
-0.015049816 -0.14393516 0.048871472 0.017163787 -0.06185943 0.074532665 0.046481222 0.03433562
-0.008644614 -0.03656427 -0.028965287 -0.07701053 -0.06005222 -0.06276387 -0.042983346 0.0012170661
-0.0027676634 0.047410287 -0.06900339 -0.11083628 0.022457633 0.042482585 0.029420549 0.0698946
-0.019195037 0.0016036001 -0.03350833 0.016114322 0.030407311 0.05570452 -0.052786756 0.02846081
0.007746078 0.1294901 0.030589525 0.02538021 0.08482153 -0.025894286 0.04990319 -0.009827471
-0.09895071 0.052504137 0.0694586 0.10049894 0.096362546 0.057723764 0.02596425 0.08002164
0.036789484 -0.027272392 -0.048638005 0.013461667 0.050336108 0.0026107263 0.07304304 -0.011277561
-0.08054124 0.012131253 -0.017540663 0.043407943 0.03189575 0.02557805 0.042303517 -0.0009669552
-0.00879047 -0.06688667 -0.015110332 0.037179682 -0.026655735 -0.03608013 0.09685981 0.110054076
-0.06604654 -0.038085435 0.026293842 0.019994475 -0.028996352 0.14873487 -0.051933985 -0.046057686
-0.054980688 -0.053174097 -0.07103109 -0.0082848165 -0.023066504 0.0016953973 0.042074412 -0.028345339
-0.049113035 -0.006006718 0.023352358 0.04622285 0.026638502 0.035864737 0.027884038 -0.10829675
-0.026653316 0.04395798 0.0035027647 0.029690286 -0.037402295 0.046502348 -0.045129832 -0.002694655
0.01745805 0.07267489 -0.10701627 -0.07451218 -0.06242932 0.053010214 0.08759364 0.11720662
-0.043410003 -0.006080125 -0.0139539335 -0.004203867 -0.015473808 0.049288187 0.054208715 0.03734306
-0.05134274 -0.022527708 -0.107449494 0.040558577 -0.01067447 -0.03204271 0.12365966 0.016268045
-0.05391393 -0.001957646 -0.0011994278 -0.10671843 -0.021512304 -0.07892936 -0.027322536 0.023199726
-0.0012969049 -0.0224021 0.004319408 -0.031815406 0.018703172 -0.0032631927 -0.047138184 0.050213553
0.025339384 0.0052100653 0.050320897 -0.0058290074 -0.053265758 0.07540673 -0.011297589 0.008552577
-0.058655627 0.07354207 0.05218709 0.02165904 0.05507161 0.057852305 0.011656723 0.026544996
-0.003839673 -0.008518561 0.07681872 0.076056466 0.020239187 0.035682615 0.007298859 -0.016095756
0.023384025 -0.07377813 0.006759123 -0.016998053 -0.008963376 0.05929554 -0.0062279077 -0.027857918

backBone.0.conv2.bias f4 [32]
00000000: 8990 97b6 a921 a937 5742 0438 b7f6 c436
00000010: f421 64b7 b2b6 c8b7 8b9b b8b7 b466 3d38
00000020: 2dbe 0bb8 4084 69b8 45c5 e2b7 9908 3c38
00000030: 03e5 bab7 7ede 0d37 fbb1 8b36 691c 87b7
00000040: 4f65 13b8 777f 9b37 9d4f 31b8 3f92 64b8
00000050: 4b45 6eb8 59ed 1638 31aa 51b7 7ae5 67b7
00000060: 18fd 1937 3797 9637 8029 f836 cac5 5035
00000070: 6613 50b8 c602 8937 3f77 e7b7 f0cf b3b7
-4.516977e-06 2.0162044e-05 3.1533036e-05 5.8699766e-06 -1.3597764e-05 -2.3926932e-05 -2.200694e-05 4.515676e-05
-3.3317297e-05 -5.5674696e-05 -2.703316e-05 4.48307e-05 -2.227957e-05 8.456058e-06 4.1632425e-06 -1.6106484e-05
-3.5141882e-05 1.8536795e-05 -4.2274234e-05 -5.449564e-05 -5.6808156e-05 3.5983834e-05 -1.24969965e-05 -1.3822102e-05
9.178439e-06 1.7951808e-05 7.395807e-06 7.777386e-07 -4.960913e-05 1.6332964e-05 -2.7592874e-05 -2.1435291e-05

backBone.0.bn2.weight f4 [32]
00000000: 4559 653f f567 6e3f d052 7c3f 2bbc 743f
00000010: 4813 673f b9ed 723f 7216 743f e3ff 843f
00000020: c489 723f 1723 773f 7e86 693f b759 803f
00000030: 7b1a 6c3f b43e 813f 2e69 753f 8463 793f
00000040: 202f 7b3f a4de 6e3f be4e 813f 2456 7d3f
00000050: 0b43 713f b3a9 803f 7395 763f a1aa 913f
00000060: b30f 6f3f 55ae 693f f854 753f 4638 6e3f
00000070: cb29 853f 1ed5 673f 622a 7f3f 6540 853f
0.8958934 0.93127376 0.9856386 0.9559962 0.90263796 0.94893986 0.9534675 1.039059
0.94741464 0.9653792 0.91220844 1.0027379 0.92227906 1.009726 0.95863616 0.97417474
0.9811878 0.9330847 1.0102155 0.98959565 0.94242924 1.0051788 0.9632179 1.1380197
0.9338333 0.91281635 0.9583278 0.93054616 1.0403379 0.90559566 0.99674046 1.0410277

backBone.0.bn2.bias f4 [32]
00000000: d9de b93d 4780 0e3b ff5c 37bb 0d56 85bc
00000010: 33a3 62bd 9523 28bc d5b0 4b3c f908 05bd
00000020: f64a 1cbd 1617 acbd 10a5 7e3d 2b0d 483d
00000030: 16ca 713d 113a e33c 1f2e 063d eba0 973b
00000040: 52e9 9b3d 2366 a6bc f82c 743d 4224 913d
00000050: b4b8 ae3c c765 333c 0418 01bd e288 d13d
00000060: 74f6 d8b9 3fd5 45bb 4a2e e2ba aeb5 5d3d
00000070: e83c bc3d 9243 f2bd 1bf1 ed3c 97c9 a3bb
0.09075708 0.002174394 -0.0027979014 -0.016276384 -0.05533142 -0.01026239 0.012432297 -0.03247926
-0.038157426 -0.08402841 0.062169135 0.048840683 0.059030615 0.02773765 0.03275883 0.004627337
0.07612862 -0.020312374 0.059613198 0.07086994 0.021328308 0.010949559 -0.031517044 0.102311864
-0.00041382352 -0.003018692 -0.0017256227 0.05412834 0.091913044 -0.11829294 0.029045632 -0.0049983966

backBone.0.bn2.running_mean f4 [32]
00000000: c006 52bd 60cd 5bbf c757 dbbe 42d2 133e
00000010: 8d57 173f 33c4 e1be d04d 563f bb13 70bd
00000020: a934 e2be 2563 a4be 3e21 073f 0c14 b23d
00000030: 72c6 98bc 9928 22bf 3e98 19bf 5990 c3be
00000040: 986a 40be b97a 92be c1c6 9dbe 6d3f b9be
00000050: 6fe9 34be 096f 78bf 9dd3 80be e7f6 c1be
00000060: ab3f 0f3f 7afa c53e b85c 3f3f 4399 e83e
00000070: 5282 0cbe 75ff 28bf c0d1 6d3d 6c16 b03e
-0.05127597 -0.8586025 -0.42840406 0.14435676 0.59117967 -0.44095 0.8371248 -0.058612566
-0.44180802 -0.3210689 0.527851 0.0869523 -0.018649314 -0.633432 -0.5999793 -0.38196066
-0.18790662 -0.28609255 -0.308157 -0.36181203 -0.17667173 -0.97044426 -0.25161448 -0.37883684
0.55956525 0.3866766 0.7475085 0.4542943 -0.13721588 -0.66014796 0.05806136 0.34392107

backBone.0.bn2.running_var f4 [32]
00000000: 48f5 d03e 71b2 e03e fb31 d33e e547 ab3e
00000010: 00ec d83e a47d c93e e369 de3e d230 993e
00000020: ef99 be3e fa34 aa3e 6f07 023f 65a5 a33e
00000030: 2979 cf3e 3768 043f 7b35 163f cf3e e43e
00000040: ac19 ac3e b58b ca3e 2fb6 bd3e 4f18 bf3e
00000050: 6154 e23e da4f d43e 7429 c53e 674b 0f3f
00000060: cf5e f03e 8934 c43e 6080 b23e 19c4 e33e
00000070: 39ae bd3e e3a0 da3e 8421 053f 6646 dc3e
0.40812135 0.4388614 0.4124907 0.3345329 0.42367554 0.3935367 0.4344016 0.2992006
0.37226817 0.33243543 0.5079259 0.31962124 0.40522125 0.5172152 0.58675355 0.4457917
0.33613336 0.39559713 0.37053058 0.37323233 0.44205 0.41467172 0.3850819 0.5597443
0.46947333 0.3832133 0.34863567 0.44485548 0.37046984 0.42700872 0.52004266 0.4302246

backBone.1.conv1.weight f4 [32, 32, 3, 3]
00000000: b1eb edbc b918 ba3c 6c9a 89bd c269 b8bd
00000010: 0f5a b1bd 07bf b53d 2a83 75bd 0fdb 08bd
00000020: 19df 813d 53d8 013d ef28 9a3c 39b5 b73d
00000030: c7c6 64bd 92e3 2a3d 8874 9dbc 9de2 55bd
00000040: 2d69 4fbd f093 1e3d 9bbc 84bd 7eb6 283d
00000050: 8a7d e0bd 10da a2bd 0faf b8bc 17ad 443d
00000060: 2016 0ebc 1e5b 743d 7c7a cebc fcc6 5b3d
00000070: 5a54 5d3d 4f46 a8bd 9cb6 04bb 40a6 4e3d
00000080: c0f0 14bd 2776 d8bb 4bc2 77bd 6e4b 243d
00000090: 0240 f4bd 8378 61bc 2a1d a53d a493 6539
000000a0: f132 dcbb 9cfc 0dbd c9ea 1fbd 2384 b73d
000000b0: 376c 2a3d d4ea 32bc 24f4 fe3c f604 0fbd
000000c0: e14d c33c 144b cabd 34d2 86bd f460 573d
000000d0: b800 ebbd 04ca 0e3d d96f 66bc f610 9fbc
000000e0: 6189 96bb cd12 873d 176b 05bd fd93 d2bd
000000f0: fbc6 8abd 5435 293d 5b53 19bb fa3e b43c
00000100: 9d37 ee3c b247 90bd 6b35 913d dc1a 513d
00000110: c570 b0bc 1734 073d 6511 84bd 4179 26bc
00000120: 2772 303d 8770 bc3d e846 44bd 5175 e9bc
00000130: 0ae0 84bd 4699 bd3c 63a7 8b3d 817b 86bc
00000140: a6fd bfba d175 dcbc dc90 3b3d cd04 88bd
00000150: 5c18 4b3d 55de c13d 42e1 7bbc 2708 b13c
00000160: 7be1 c6bc 39d9 19bd 4be3 93bc 339e aabc
00000170: cb68 d3bd 1b86 b3bd 84f4 d1bb 708e 823d
00000180: fcbe 71bd 936b 8f3b 57df 5abd 3ea2 dfbb
00000190: 4bbf 1c3d 8a4c 48bd d0dc be3d 2a00 0fbd
000001a0: 83a2 213c 1393 313c 644a fcbd ee91 c93b
000001b0: 2b87 e13c dd1c bebc fbf4 7dbd 5d56 0b3c
000001c0: 3044 f1bc 2129 a83d e005 a4bd 6a2d b7bc
000001d0: 5b68 1b3d b0f0 d4bd 84bd 17bd 75f5 10bc
000001e0: 78b5 223d 2cb4 eb3c 3825 233d 7d04 0ebc
000001f0: e23c 333d 110a d5bc ebb9 2cbd 57c1 65bd
00000200: 98a2 d6b8 bac3 d9bc b78d 99bd bed5 41bd
00000210: 412d a73d b528 f73c e3b6 333d 75b5 3e3d
00000220: 8f1b c3bd 3235 c93c a39c ecbc 3910 7fbd
00000230: 9b93 c43a eccb 113d 219d fdbd ba74 813d
00000240: 9216 813d 60dd c5ba a84a 7e3d e565 c63c
00000250: a6f0 2dbd 5989 34bd 8163 cc3c 6d3f e73c
00000260: 5bd2 b1bd c701 023c 3953 dfbb 7ff1 5abd
00000270: 68bf 2dbd 2052 ecbb 74f3 0d3b 26ad e4bd
00000280: 5318 0fbd 78f3 75bc 14a9 e0bd 7a1d a23c
00000290: eb66 d9bc 266a 87bd 57a3 063d b918 6fbd
000002a0: 7cde 8abd a10c 40bd 6df6 b0bc 6975 ad3d
000002b0: 99c6 05bc 4315 1b3d b44a 113e 85e7 8ebd
000002c0: 21a9 d6bc a6d6 5abd f420 6b3d ca28 25bc
000002d0: 64c3 0bbd 62a4 123d 08f7 3cbc b71d 9ebd
000002e0: 32f7 b13c cd27 1bbc c415 adbd 38bd 9bbd
000002f0: d3b5 cebd 2c4f 36bd a02f 70bc 00d0 d1bc
00000300: 2fb8 4abc 6059 68bd d653 903d 8aa9 f03c
00000310: e1b2 d33d b73d b23d a1ce 4bbd e444 983b
00000320: 349d c13c df6c db3c 0226 243c 5537 6ebc
00000330: 187e bb3c 2510 d63a 284f a33d 2676 463a
00000340: aab5 6bbc a1c0 93bd ee82 86bc 6be1 97bd
00000350: dacf e1bd 9f3c 95bc 1a30 213d 8fc1 a2bb
00000360: 6c26 acbd 82c1 54bd 0806 5b3c c51c c2bc
00000370: 6290 a7bd 09f5 59bd 434e 213d 9d64 09bd
00000380: 80f3 53bd 8d74 b7bd 202e c83d b81e b33c
00000390: 637a 903b f752 f4bc 6fd0 20bc 741d 763c
000003a0: 79d1 9c3d 0406 9f3d 38df a33c 762a a63d
000003b0: 1c7b 83bd 54ed 17be 304f 583d 61d1 793b
000003c0: 3fe6 cc3b 00dd e1bd 6ce5 a0bd ccac 4f3d
000003d0: f438 803c d792 ba3d ad45 0a3c d40f 123b
000003e0: 7f44 d8bc 7207 d1bc 3461 f0bc 912f 87bd
000003f0: de26 063d 1ba5 84bd a8a9 f43c 7945 79bd
-0.02904305 0.022716867 -0.06718907 -0.09004547 -0.086597554 0.08874326 -0.05993954 -0.033412036
0.063413806 0.031700443 0.018818347 0.08970112 -0.05585363 0.041720934 -0.019220605 -0.05221807
-0.050637413 0.038715303 -0.06481286 0.041189663 -0.10961445 -0.07951748 -0.022544412 0.048016634
-0.008672267 0.05965721 -0.02520489 0.053656563 0.054035522 -0.08216535 -0.0020250445 0.050451517
-0.03636241 -0.0066058817 -0.060488027 0.040110998 -0.11926271 -0.013761642 0.08062203 0.00021894142
-0.00671994 -0.034664735 -0.039042268 0.0896075 0.041607108 -0.010920245 0.031122275 -0.03491684
0.023840846 -0.09877601 -0.06583062 0.052582696 -0.114747465 0.034860626 -0.0140647525 -0.019417267
-0.0045940136 0.06595383 -0.032572832 -0.10282133 -0.06776234 0.041310623 -0.002339563 0.022002686
0.029079253 -0.07044925 0.07090267 0.051051006 -0.021538148 0.03300866 -0.0644863 -0.010160745
0.043077614 0.092011504 -0.047919184 -0.028498324 -0.064880446 0.023144376 0.06819036 -0.016416313
-0.0014647737 -0.026911648 0.045792446 -0.06641541 0.049583778 0.094662346 -0.01537353 0.021610333
-0.02427744 -0.037560675 -0.018052718 -0.020827388 -0.10322722 -0.08765813 -0.0064073224 0.06374824
-0.059020028 0.0043768375 -0.05343565 -0.0068247607 0.03826837 -0.04890112 0.093194604 -0.034912266
0.009865406 0.010838288 -0.123188764 0.0061514294 0.027530273 -0.023207122 -0.06200121 0.008504477
-0.02945146 0.0821097 -0.08008933 -0.022360522 0.037941318 -0.1039747 -0.03704597 -0.008847584
0.039723843 0.028772436 0.039830416 -0.008668062 0.043759234 -0.026005777 -0.042169493 -0.056092586
-0.000102346006 -0.026582588 -0.07497733 -0.04732298 0.081629284 0.030170778 0.043875586 0.04655977
-0.09526741 0.024561498 -0.028883284 -0.06227133 0.0014997603 0.035594866 -0.123834856 0.06321092
0.06303133 -0.0015095882 0.062082916 0.024218509 -0.04246583 -0.044076297 0.02494979 0.028228486
-0.086827 0.007934994 -0.006815341 -0.053452965 -0.042418867 -0.0072119385 0.0021660002 -0.11165838
-0.034935307 -0.015011661 -0.10969749 0.019789446 -0.026538333 -0.06612043 0.032870617 -0.058373187
-0.06780717 -0.046887044 -0.02160188 0.0846966 -0.008165025 0.037862074 0.14188653 -0.069777526
-0.026203694 -0.05342736 0.057404473 -0.010080526 -0.034121886 0.0358013 -0.011533506 -0.077205114
0.021724317 -0.009469938 -0.08451417 -0.0760445 -0.10093274 -0.044509098 -0.014659792 -0.025611877
-0.012373014 -0.05672586 0.070472404 0.029377718 0.10336853 0.087031774 -0.049757604 0.0046468843
0.02363453 0.026785312 0.010018827 -0.014539559 0.022887275 0.0016331716 0.07974082 0.0007570706
-0.014386574 -0.072144754 -0.016419854 -0.07416042 -0.11025973 -0.018217383 0.039352514 -0.0049669216
-0.08405766 -0.051942356 0.013368137 -0.023695359 -0.08181836 -0.0532122 0.039381277 -0.033543218
-0.05174589 -0.08957777 0.09774423 0.021865234 0.004409121 -0.029824717 -0.009815319 0.015021671
0.07657141 0.07764819 0.0200039 0.081135675 -0.064199656 -0.14836627 0.052809894 0.0038119184
0.0062530334 -0.110284805 -0.07856259 0.0507019 0.015652157 0.09110039 0.008439464 0.0022287266
-0.026399849 -0.025516246 -0.029343225 -0.066008694 0.03275191 -0.06476804 0.029866055 -0.06085727

backBone.1.conv1.bias f4 [32]
00000000: 45dc 76b4 3dfe 2138 9c76 f036 6286 3337
00000010: 6a61 b937 fe78 6f35 b1b4 4c34 0b11 f536
00000020: 7a69 9a37 bfe2 ca35 8d8d a0b7 d528 ffb6
00000030: 119e 1bb7 0244 46b6 e056 3b38 daf6 ffb7
00000040: 1e8f 4bb5 c1ed 0eb8 6c45 4db8 1601 d4b7
00000050: d413 83b6 ef7d 50b6 a194 0d35 57c9 0eb7
00000060: 80b1 90b7 e4a3 92b6 a671 b2b6 feaf 1cb7
00000070: b12d 91b7 dcda 24b8 ebc3 b0b6 4c77 0fb7
-2.2990669e-07 3.862217e-05 7.1663653e-06 1.070052e-05 2.209908e-05 8.9210505e-07 1.9064716e-07 7.303553e-06
1.8407347e-05 1.5116165e-06 -1.9139401e-05 -7.6043457e-06 -9.275523e-06 -2.9543885e-06 4.4665183e-05 -3.0513318e-05
-7.5831656e-07 -3.4076864e-05 -4.8940463e-05 -2.5272875e-05 -3.9064125e-06 -3.1067718e-06 5.2742877e-07 -8.510738e-06
-1.7248793e-05 -4.3702184e-06 -5.318044e-06 -9.339301e-06 -1.7306624e-05 -3.9304476e-05 -5.2680166e-06 -8.55124e-06

backBone.1.bn1.weight f4 [32]
00000000: a585 6f3f 328c 803f 7cfa 703f 5382 753f
00000010: cb03 773f 390e 753f 785d 7d3f a42e 803f
00000020: b880 833f baf6 813f 5454 713f 8e86 7e3f
00000030: cbb7 823f 319f 7f3f a483 813f 5d30 7b3f
00000040: 5dec 6d3f 3c56 6d3f 4010 6e3f 82f9 803f
00000050: 3c05 6f3f 5ef0 6c3f f7da 743f 138e 823f
00000060: 750d 7c3f b676 823f 63d5 773f aa6b 743f
00000070: 7545 733f c595 743f 5301 6f3f 3290 873f
0.935633 1.0042784 0.9413221 0.95901984 0.9649016 0.9572483 0.98970747 1.0014234
1.0273657 1.015342 0.942693 0.99424064 1.0212339 0.9985228 1.0118299 0.9812067
0.92938787 0.9270971 0.92993546 1.0076144 0.9336736 0.9255427 0.95646614 1.0199608
0.98458034 1.0192478 0.9680998 0.9547678 0.9502786 0.9554103 0.93361396 1.059088

backBone.1.bn1.bias f4 [32]
00000000: b4ca 8abd d471 a53c 28fa fbbd 072a 3dbd
00000010: 86cc 9fbc 8a70 8ebd d964 b03b 2951 59bc
00000020: a68d d03b 6635 84bc 970b 86bd 33ca b53c
00000030: fc63 0cbd a7d9 123d b50a 38bd 530e b7bd
00000040: 60cd 78bd 1839 96bd d886 8fbd 6136 27bd
00000050: 3d8e 19bd 2bdb efbd 784f 13bd 7be1 263c
00000060: d984 b8bd b247 39bd 3586 80bd 662b 32bc
00000070: 3dbd 8dbd a0b2 f3bc ab14 a7bd 0bb4 cdbc
-0.06776944 0.020195879 -0.12303573 -0.04618266 -0.019506704 -0.06955059 0.0053831157 -0.013263979
0.006364542 -0.016138744 -0.06545179 0.022191143 -0.03427504 0.0358521 -0.044932086 -0.08938279
-0.060742736 -0.073351085 -0.07008141 -0.040823344 -0.037489165 -0.11711725 -0.03596446 0.010185595
-0.09009714 -0.04523439 -0.06275598 -0.010874605 -0.0692086 -0.029748261 -0.08158239 -0.025110265

backBone.1.bn1.running_mean f4 [32]
00000000: 4fc3 b6bf 74f0 dabd e872 9dbf 31b9 adbf
00000010: eb6e 25bf 23f7 2dbf c1fa 0abe a5f8 a8bc
00000020: 83a0 acbf a236 81be 9ffa 54be 3667 2fbf
00000030: cf48 a2be 1871 19bf 06d7 f2be 21a9 a7bf
00000040: c4d4 8a3f 0a24 393f c8fd db3e 8c81 39be
00000050: c0a6 4dbf 70d0 3cc0 d871 19be 6653 49be
00000060: d3e8 1a3f d580 8ebe 0d96 0fc0 e47a dbbc
00000070: 3607 5fbd 3c7a ddbf 3b3e bebe b554 88bf
-1.4278353 -0.10690394 -1.2300692 -1.3572141 -0.6462237 -0.67955226 -0.13572218 -0.020626375
-1.3486484 -0.25236994 -0.2079873 -0.6851686 -0.31696174 -0.5993819 -0.47429675 -1.3098489
1.0846181 0.72320616 0.42967057 -0.18115824 -0.80332565 -2.950222 -0.14984834 -0.1966072
0.6051151 -0.27832666 -2.2435334 -0.026791997 -0.054450236 -1.7302928 -0.37156853 -1.065085

backBone.1.bn1.running_var f4 [32]
00000000: 3b69 923f c832 343f af7b 953f 5338 633f
00000010: 2744 a03f 2d4d 8a3f a1f4 6c3f df96 9b3f
00000020: 5692 ae3f 182f 613f 0e31 813f baa5 623f
00000030: f907 643f adcd 543f bbad 713f 3b60 863f
00000040: 11eb 613f fc85 833f f67b 323f 8db2 743f
00000050: 1c49 853f f312 c63f 3d0a 773f 442f 693f
00000060: 7af6 4d3f d1c4 843f 7c42 b33f da36 613f
00000070: 8e03 413f c3f1 c23f 1781 853f f729 6c3f
1.1438364 0.70389986 1.167837 0.8875782 1.2520798 1.0804802 0.92560774 1.2155417
1.3638408 0.87962484 1.0093095 0.8853413 0.89074665 0.83126336 0.94405717 1.0498117
0.8824931 1.0275264 0.697204 0.95584947 1.0412936 1.5474533 0.965 0.91087747
0.8045422 1.0372564 1.4004664 0.8797432 0.7539605 1.523003 1.043002 0.92251533

backBone.1.conv2.weight f4 [32, 32, 3, 3]
00000000: e18d 493c 73ee ae3c 704b f53c eaea 2bbd
00000010: 37f4 58bd c8e6 5bbd 9dbb 2bbd 24ac 923c
00000020: b4ec 75bd 5b52 b2bd c9ac 08bd 32e9 5fbd
00000030: 3ef1 7d3d 8406 0bbd 500e 373d 6cb1 85bd
00000040: 1fe5 173d 755b 57bc cc40 f4bb 3d38 833c
00000050: 9b96 a93d 1a1b a93d 466b 1abd caaa cc3d
00000060: ee30 37bc 437a 3cbd e2c3 afbd 476d 80bd
00000070: d564 033d 13a4 00bb 0b79 bfbd 9c99 063e
00000080: 1fc0 913d 551e 353c 5d13 8bbd 415e 34bd
00000090: 062f 883d 963f 9f3c f61d b1bc 88da 183d
000000a0: 663f 0e3d 8450 9ebd 6629 70bd 5f15 e43d
000000b0: f7d6 933d a9d1 bbbc 8d76 4dbd d999 adbc
000000c0: 3e71 58bd 7633 debc fa3c 37bd ec7e 95bd
000000d0: 5026 163d f23d 62bd 0622 49bc 937a 59bc
000000e0: f83d c4bd 5454 20bd 3d17 babc 654e 77bc
000000f0: df37 323d 38e9 e6bc 8fb9 f8bc 85fa 80bc
00000100: 5793 bfbb 2761 54bd a6b8 6fbd 921e 563d
00000110: 8c22 32bc 944d a53d b5c3 8abc cb2b b8bb
00000120: 2865 babd 0e46 56bd 10c3 d13d f685 61bd
00000130: 1327 653d 129b a93d 71fd c8bc a0b7 5bbc
00000140: 41b0 543d def8 e7bc 84fb e1bd b884 1cbb
00000150: 605a 3ebc 7aea b4bc c29d 5fbd 3824 93bd
00000160: 0df1 b03a 355b 58bd 0426 a03c 5ac0 7cbd
00000170: ecdb 6bbd 5990 41bd 93e9 c1bc c80a 933c
00000180: 5548 873d 4c56 bbbd 24f8 9b3c cd7c e53d
00000190: 1d75 e53b a90b 433b 371d 5b3d 8500 7e3d
000001a0: 86fe ce3a 972a 023d 6c4c b9bd b2ad b4bc
000001b0: e66a b03a 9473 643c a095 903c f955 6abc
000001c0: 114c db3d 7126 33bc cf50 7abc 0145 103d
000001d0: bafe 91bd e3e9 27bd 454a a4bd 1331 88bc
000001e0: e24f 333d 3c18 313c e385 babd 2cff 6fbd
000001f0: 6f27 24bd 5170 89bc f92d f4bc aea1 9cbd
00000200: 53a9 1a3d 2493 333d 08cc a83c b34a 97bd
00000210: 7f35 933c 9f12 94bd cfd0 a3bd 5b7a f3bb
00000220: 83de 41bd 975b 1d3c 03c9 103d 0a89 afbc
00000230: fe3d 583b 6a3f 983d 0f55 96bd ffdc 6c3d
00000240: b82a 10bd 6401 103d ab33 01bd 2638 c53c
00000250: bb39 77bb 31de 6ebd b66d 85bd 00b4 7ebc
00000260: ad7d 473d 9f93 da3c 0707 11bd d8f9 06bd
00000270: de76 fa3c 45d0 0ebd f67e 86bd 206e 50bd
00000280: eb41 e6bd 05ae 25bd feb2 48bd f1ef 743d
00000290: 8a85 dc3d e5a1 053d 784c 81bc e492 cfbd
000002a0: 8891 e13c d129 043d 8093 a53c c0b3 8abd
000002b0: ea68 13bd d874 5b3c 549e 6dbc 221e 93bd
000002c0: 5891 b6bc 8b0f d43d 0027 50bd 849b 14bd
000002d0: f19a 9ebd 8908 c83c eb85 b8ba 840a 69bc
000002e0: 595e 4c3d 0e6f 11bd 5d73 45bd e53e a13c
000002f0: f9c8 80bd 91a8 4e3d 3a7c 253c 5299 18bd
00000300: 3e93 6e3d 809a 793c dbee cd3c 7c36 cbbb
00000310: c1cf 993c 61da a2bc 471b d63c 4113 6dbd
00000320: ccba c9bc eaaa a8bc b5a4 813b 92f4 983c
00000330: bb13 86bd 70f2 893b 96b9 95bd fc18 0cbd
00000340: 28dc bbbc 76ea 33bd 8762 19bc 8fd8 d2bc
00000350: d53d 963d ed56 0ebc fdef 13bd 7318 a33d
00000360: 317a eebd c9b7 1c3d 4484 433d f169 213c
00000370: dd8f 733d 91f9 7b3c a9ad 4f3d 4108 07bd
00000380: adfc c5bd 15b1 b3bd 11d3 05bd 5157 0dbd
00000390: 05ed bdbd e7a3 213d 2c67 a6bd c778 7bbc
000003a0: b682 3cbd bbd5 673c e3a1 333c f47e 143c
000003b0: cb02 23bd 541c 043d a8db 033d ffae 9dbb
000003c0: 0625 22bd a5de 843d e292 183d d70a 3fbd
000003d0: 7efe fe3c acc9 d13d 7330 cbbc 4821 45bb
000003e0: ced6 863d 38ea d53c e04f 73bd 8d90 02bd
000003f0: a09e 753d d989 3fbd 125c 303d b49e 79bd
0.012301893 0.021353936 0.029943198 -0.04197208 -0.052967276 -0.053686887 -0.04192697 0.017904349
-0.06004019 -0.08707114 -0.033367906 -0.05466575 0.061997645 -0.03394176 0.044691384 -0.06527981
0.03708374 -0.013144364 -0.0074540135 0.016018027 0.08280679 0.08257122 -0.03769996 0.09993513
-0.011181099 -0.046015035 -0.085822836 -0.06270843 0.032078583 -0.0019629046 -0.09349259 0.13144535
0.07116722 0.011054595 -0.06790803 -0.0440352 0.06649594 0.0194395 -0.021620732 0.037317783
0.03472843 -0.07730201 -0.05863323 0.11136889 0.07218736 -0.022927122 -0.050161887 -0.021191524
-0.05284237 -0.027124148 -0.044735886 -0.07299599 0.03665763 -0.055234857 -0.012276178 -0.013273853
-0.09582132 -0.03914292 -0.022716159 -0.015094374 0.043510314 -0.02818738 -0.030361919 -0.015744457
-0.0058464217 -0.051850464 -0.058525704 0.052275248 -0.010872494 0.080714375 -0.016939024 -0.005620455
-0.09101325 -0.052312903 0.10242283 -0.055059396 0.055945467 0.082815304 -0.024534913 -0.013410479
0.0519259 -0.028316911 -0.11034301 -0.0023882817 -0.011618227 -0.022084463 -0.05459381 -0.071846426
0.0013499573 -0.052821357 0.019549377 -0.06170688 -0.05758278 -0.0472568 -0.023670947 0.017949477
0.06605593 -0.09147319 0.019039221 0.112054445 0.0070024864 0.0029761589 0.05349466 0.062012214
0.0015792407 0.031778898 -0.090477794 -0.02205548 0.0013459593 0.013943572 0.017649472 -0.014302724
0.10707868 -0.010934458 -0.015278055 0.035222057 -0.07128663 -0.040994536 -0.08021978 -0.016624963
0.043777354 0.010809001 -0.09107568 -0.05859296 -0.04007667 -0.01677719 -0.029807078 -0.076480255
0.037759136 0.043841496 0.020605102 -0.073872946 0.017969845 -0.07230114 -0.079988115 -0.0074303574
-0.047331344 0.009604356 0.03534795 -0.02142765 0.0032995935 0.0743397 -0.073404424 0.057827946
-0.03519699 0.035157576 -0.031543415 0.024074625 -0.003772362 -0.058317367 -0.06515066 -0.015545845
0.04870384 0.02668172 -0.035407092 -0.032953113 0.030574258 -0.03486659 -0.065671846 -0.050886273
-0.112430416 -0.04044916 -0.048998825 0.05979914 0.10767658 0.032625098 -0.015783533 -0.10135439
0.027535215 0.03226644 0.020211935 -0.06772566 -0.035988726 0.013394557 -0.01450308 -0.07183482
-0.022286102 0.10354527 -0.050818443 -0.036281124 -0.077443965 0.024418132 -0.0014077997 -0.0142236985
0.049894664 -0.0355063 -0.048205722 0.01968331 -0.062883325 0.050453726 0.010100419 -0.037255593
0.05824589 0.01523459 0.02513831 -0.0062015634 0.018775823 -0.019879522 0.026136054 -0.05787969
-0.024625205 -0.02058931 0.003956402 0.018671308 -0.06546732 0.004209809 -0.07310788 -0.034203514
-0.022932127 -0.04392477 -0.00936187 -0.025738029 0.07336012 -0.008687717 -0.036117543 0.07963648
-0.116444 0.03826121 0.04773356 0.009851919 0.05946337 0.0153793255 0.050702725 -0.032966856
-0.09667335 -0.0877401 -0.03267199 -0.0345071 -0.092737235 0.03946295 -0.08125147 -0.01534862
-0.046023093 0.014150078 0.01096389 0.009063471 -0.039797585 0.03225358 0.032191902 -0.004812121
-0.03958609 0.064877786 0.037249453 -0.046641197 0.03112721 0.10243544 -0.024803376 -0.0030079652
0.065839395 0.02611266 -0.059402347 -0.031876136 0.05996573 -0.04676232 0.043056555 -0.060942367

backBone.1.conv2.bias f4 [32]
00000000: 0267 56b7 534e 7337 164b 0238 c69b 0736
00000010: 832b 9bb5 ecb8 fe36 b9b9 8fb7 6859 e5b7
00000020: 8c50 36b7 fa8b 48b6 f9d6 5035 7b85 a2b7
00000030: cee1 a1b7 be1a 55b7 7c18 44b7 460e 3db7
00000040: dd85 84b7 3fcb 5835 7856 0b37 be36 d3b7
00000050: 8d09 2ab7 99e4 8d37 ecb7 5337 92cb ea36
00000060: 36fa e337 42f5 d237 3674 7cb7 2254 6db8
00000070: b2f3 4937 14f8 aab6 55c5 7738 ca20 c537
-1.2779377e-05 1.4502165e-05 3.1064345e-05 2.020724e-06 -1.1561064e-06 7.5913176e-06 -1.7133412e-05 -2.734056e-05
-1.0866799e-05 -2.98838e-06 7.7798865e-07 -1.9374062e-05 -1.9297844e-05 -1.2702016e-05 -1.1688211e-05 -1.1268601e-05
-1.5797961e-05 8.076203e-07 8.305178e-06 -2.5178651e-05 -1.0135013e-05 1.6914959e-05 1.2619403e-05 6.997442e-06
2.7177022e-05 2.5148158e-05 -1.5047428e-05 -5.6583558e-05 1.2037273e-05 -5.095275e-06 5.907317e-05 2.3499499e-05

backBone.1.bn2.weight f4 [32]
00000000: 1520 673f 0e82 6a3f 0d1a 7c3f c472 693f
00000010: acb3 883f d912 743f cf4f 673f 5bdb 833f
00000020: 3e13 833f ecb4 823f 1423 753f a6be 7c3f
00000030: 38e6 823f 797d 7e3f f68d 693f 9cdc 6d3f
00000040: 4f2e 6d3f 9577 853f 0bac 783f f6f4 6a3f
00000050: ce59 713f f174 773f 4915 793f d6c6 7a3f
00000060: 0b33 813f c524 883f 3501 6b3f c883 803f
00000070: 19b2 823f f089 823f 83bc 7e3f 46a6 813f
0.9028333 0.916047 0.9847725 0.91190743 1.0679832 0.9534126 0.90356153 1.0301317
1.0240247 1.0211463 0.9575665 0.98728406 1.0226507 0.99410206 0.9123224 0.9291475
0.92648786 1.0427119 0.97137517 0.9178003 0.94277656 0.96662813 0.97298104 0.9795965
1.0093702 1.0636221 0.91798717 1.0040216 1.0210601 1.0198345 0.99506396 1.0128868

backBone.1.bn2.bias f4 [32]
00000000: 63ae cd3c aeea 01bc b329 a9bd 184a eabc
00000010: 0372 be3c 5e16 40bd 9513 1cbb ae29 fbbc
00000020: e48d 0bbc 064e 90bc 1c98 1e3d 7a86 283d
00000030: 49b2 f83c 1051 4e3d 6691 fdba fc0b 36bc
00000040: fdd8 5d3d b944 88bc 724e 983c 0b77 d0ba
00000050: 9c40 193d 2898 2d3d aee8 5abd f8dc a53d
00000060: 93f2 ddba 4f74 31bd 8420 ee3c ff66 5a3c
00000070: 6077 cc3d 2194 b5bd 2503 f73b 46a9 f4bd
0.025107568 -0.007929487 -0.082599066 -0.028599784 0.023247724 -0.04689633 -0.0023815383 -0.030659523
-0.008517716 -0.01761533 0.03871928 0.04114387 0.03035845 0.050370276 -0.00193457 -0.011111256
0.054162014 -0.016634332 0.018592093 -0.0015904618 0.037415132 0.042381436 -0.053444557 0.08098787
-0.0016933255 -0.04332381 0.029068239 0.01333022 0.099837065 -0.08866144 0.0075382167 -0.11946349
