models/TestAlphazeo/main.pt (torch, 39871 bytes, 57 tensors)

startBlock.0.weight f4 [3, 4, 3, 3]
0	0xbe163318	-0.14667928
1	0x3dde4ed1	0.10854877
2	0xbd9e05b0	-0.077159286
3	0xbc5a8ade	-0.013338773
4	0xbe290906	-0.16507348
5	0x3e14bec4	0.14525896
6	0x3dff4710	0.12464726
7	0x3b8d84f4	0.0043188278
8	0xbe203659	-0.15645732
9	0xbd919171	-0.07107819
10	0xbd4939f3	-0.04912753
11	0x3df79a15	0.12089936
12	0xbc503283	-0.012707355
13	0x3e0d37ef	0.13790868
14	0xbcc325d3	-0.023821747
15	0xbe248e9b	-0.16070025
16	0xbd2d3fea	-0.04229728
17	0xbd810783	-0.06300261
18	0x3e1a52da	0.15070668
19	0x3d80155e	0.062540755
20	0x3bf84c66	0.007577467
21	0xbe05bfdb	-0.13061468
22	0xbde3f0d2	-0.11129917
23	0x3d4c3831	0.049858276
24	0x3dda0040	0.10644579
25	0xbd774444	-0.060367838
26	0x3da0c8e2	0.07850815
27	0x3d84da42	0.06486942
28	0xbdcc3936	-0.099718496
29	0x3dc473c2	0.095923916
30	0x3e10912b	0.14117877
31	0xbd3ead1f	-0.04655182
32	0xbe203794	-0.15646201
33	0xbd202878	-0.039101094
34	0xbdf2c98c	-0.11854848
35	0xbe13250e	-0.14369604
36	0xbc73e0c4	-0.014885131
37	0xbcf8dc5e	-0.030378517
38	0xbde9e751	-0.11421073
39	0x3dfea932	0.12434615
40	0x3e287327	0.16450177
41	0x3d713436	0.058887683
42	0xbd9bc5cd	-0.07606087
43	0x3c415f34	0.011802483
44	0x3dfb80c5	0.1228042
45	0xbe2fea42	-0.17179206
46	0x3db2d6ac	0.08732352
47	0x3ddb3e2e	0.10705219
48	0x3d74b8aa	0.059746422
49	0x3e0082a5	0.12549837
50	0xbe26232c	-0.16224355
51	0xbc8788d2	-0.016544733
52	0xbd4683de	-0.048465602
53	0xbb78253e	-0.0037863995
54	0xbe0cfbf2	-0.13767985
55	0x3e1b13d4	0.15144283
56	0xbe1f6586	-0.15566072
57	0x3bf31ff2	0.0074195797
58	0x3c5ca9c9	0.013468214
59	0xbe211dfe	-0.15734097
60	0xbd2b1831	-0.041771118
61	0x3e302997	0.17203365
62	0x3d7f958a	0.06239847
63	0xbdd13a0e	-0.10216151
64	0x3e039e2a	0.12853304
65	0xbdb90bac	-0.09035429
66	0xbe09e940	-0.13467884
67	0x3d18d649	0.037313733
68	0xbdc57f2f	-0.09643399
69	0xbc0cff73	-0.008605826
70	0x3d64f3fd	0.055896748
71	0xbafce5c0	-0.0019294545
72	0x3ca5a73a	0.020221341
73	0x3e05b807	0.13058482
74	0xbe0c8a02	-0.13724521
75	0xbddc692a	-0.10762246
76	0x3aebc108	0.0017986605
77	0xbd22d44a	-0.039753236
78	0xbcd24ce4	-0.02567143
79	0xbdfef56c	-0.12449154
80	0x3bc633a9	0.006048639
81	0x3d83c039	0.06433148
82	0xbbf3f5ed	-0.007445088
83	0xbcbe0266	-0.023194503
84	0xbdcd5aac	-0.1002706
85	0x3dcad670	0.09904182
86	0xbd874af0	-0.0660609
87	0xbcf4dafb	-0.029889574
88	0xbdecdd0e	-0.115656
89	0xbce61d51	-0.028090151
90	0xbd88d193	-0.06680598
91	0x3e0d3f12	0.1379359
92	0xbd274123	-0.040833604
93	0x3db8f3d8	0.090308845
94	0x3dcc0579	0.09961981
95	0xbdada6bb	-0.08479067
96	0xbb1b0a18	-0.002365714
97	0xbe261376	-0.16218361
98	0x3c909db5	0.017653326
99	0xbd86dfc7	-0.06585651
100	0xbd721c00	-0.059108734
101	0x3e069f22	0.13146642
102	0xbe08aaee	-0.13346455
103	0xbe1df721	-0.15426303
104	0xbdd8d958	-0.1058833
105	0x3e1272e3	0.14301638
106	0xbe2f9bb7	-0.17149244
107	0xbbc91ee1	-0.0061377143

startBlock.0.bias f4 [3]
0	0xbdb9b237	-0.09067195
1	0x3ab5074b	0.0013811378
2	0x3afae2b4	0.0019141049

startBlock.1.weight f4 [3]
0	0x3f8079f9	1.0037223
1	0x3f811733	1.0085205
2	0x3f7cc432	0.9873687

startBlock.1.bias f4 [3]
0	0xba755be4	-0.0009359701
1	0x39eca74c	0.00045138074
2	0xbb934134	-0.004493857

startBlock.1.running_mean f4 [3]
0	0xbe0481e7	-0.12940179
1	0x3d99ae7e	0.07503985
2	0xbdbdead0	-0.092733026

startBlock.1.running_var f4 [3]
0	0x3e1bff77	0.15234171
1	0x3e293ccc	0.16527098
2	0x3e2087f7	0.15676866

backBone.0.conv1.weight f4 [3, 3, 3, 3]
0	0xbd637d97	-0.055539694
1	0xbe3fa826	-0.18716487
2	0x3db56674	0.08857432
3	0x3da5d422	0.08097102
4	0xbde35e78	-0.11102003
5	0xbe25bd0d	-0.16185398
6	0xbcffb19a	-0.031212617
7	0x3d8bcb66	0.068259045
8	0xbe220cd9	-0.15825213
9	0xbe2eb969	-0.17062916
10	0x3c096646	0.0083862
11	0x3e099cb0	0.13438678
12	0x3dc9594f	0.098314874
13	0x3d0d605e	0.03451573
14	0xbcb8d147	-0.022560729
15	0x3e214138	0.15747535
16	0x3e2e0130	0.1699264
17	0x3dbf9d28	0.09356147
18	0xbde7cbfa	-0.11318202
19	0xbb969044	-0.0045948345
20	0x3e3c7608	0.184044
21	0x3e45cbcb	0.19316022
22	0xbdd70997	-0.10499876
23	0x3d1ac613	0.037786555
24	0xbdb534b9	-0.08847947
25	0x3daba616	0.08381288
26	0xbe34bc84	-0.17650038
27	0x3b508778	0.0031819027
28	0xbe29f96f	-0.16599058
29	0x3d9cf63f	0.07664155
30	0x3d54888a	0.051888026
31	0x3e37d2cf	0.17951511
32	0xbe31a958	-0.17349756
33	0x3dc8d81e	0.09806846
34	0xbdeca8e0	-0.11555648
35	0x3d93af2f	0.07211148
36	0x3e413ff3	0.18872051
37	0xbc93a4ea	-0.018022973
38	0xbe090608	-0.13381207
39	0xbdcc4a08	-0.09975058
40	0xbc72cfd5	-0.014820059
41	0x3dc6a4bd	0.0969939
42	0x3d1f594d	0.038903523
43	0x3dda129b	0.1064808
44	0x3e28725e	0.16449878
45	0xbd947dbd	-0.07250545
46	0xbe36f96e	-0.17868587
47	0xbdfdf3c7	-0.124000125
48	0xbe0956c4	-0.13412005
49	0xbe0dc07c	-0.13842958
50	0x3d4e0e8f	0.050306853
51	0xbd56e1c0	-0.052461386
52	0xbd3b8f22	-0.0457908
53	0x3e0dbb77	0.13841043
54	0xbdc3a56e	-0.095530376
55	0x3e0954b3	0.13411216
56	0xbe17672f	-0.14785455
57	0xbd71f7ca	-0.0590742
58	0x3e1fe647	0.15615188
59	0x3e00834f	0.1255009
60	0xbd037581	-0.032094482
61	0xbe3c8a29	-0.18412079
62	0x3ddc3157	0.10751598
63	0xbe1ff0cd	-0.15619202
64	0x3b524ff8	0.0032091122
65	0x3e3736b3	0.1789196
66	0x3daa3438	0.08310741
67	0x3e132541	0.1436968
68	0x3d8c13b3	0.06839695
69	0x3d862829	0.06550629
70	0x3c6a5006	0.014301306
71	0xbb8d368c	-0.004309481
72	0x3e40b4f1	0.18819024
73	0x3cf603f7	0.030031187
74	0x3da59d23	0.08086612
75	0x3e2d8b9e	0.16947791
76	0x3dcd5413	0.100258015
77	0x3d338f78	0.043837994
78	0x3e3231f8	0.17401874
79	0x3e0d034c	0.13770789
80	0xbc892c07	-0.016744627

backBone.0.conv1.bias f4 [3]
0	0x3b29c6e6	0.0025905906
1	0xbb16fc08	-0.0023038406
2	0x3cec7892	0.028866086

backBone.0.bn1.weight f4 [3]
0	0x3f7ba284	0.98294854
1	0x3f8165bc	1.0109172
2	0x3f7f7e22	0.9980184

backBone.0.bn1.bias f4 [3]
0	0xbc7cd888	-0.015432484
1	0x3c120f83	0.008914831
2	0x3c3fad8b	0.011699091

backBone.0.bn1.running_mean f4 [3]
0	0xbcdca8ab	-0.026935896
1	0xbd8bea66	-0.06831817
2	0x3ebf8ac0	0.37410545

backBone.0.bn1.running_var f4 [3]
0	0x3e43bd8e	0.19115278
1	0x3e5c0d26	0.2148939
2	0x3e454b6b	0.19267051

backBone.0.conv2.weight f4 [3, 3, 3, 3]
0	0x3bfe207d	0.0077553377
1	0xbda3bd5f	-0.07995104
2	0xbdae13ab	-0.08499845
3	0xbd7325a7	-0.05936208
4	0x3e3b5af6	0.18296418
5	0xbd86de28	-0.06585342
6	0x3e315cb0	0.17320514
7	0xbdad9a4a	-0.08476694
8	0xbaa5a02f	-0.0012636239
9	0x3d8bde2e	0.06829487
10	0x3e2adb84	0.16685301
11	0x3e251482	0.16121104
12	0x3e1db786	0.1540204
13	0xbd913b15	-0.07091347
14	0xba77e648	-0.0009456617
15	0xbb7e2d1e	-0.0038784216
16	0xbdb30a0c	-0.08742151
17	0xbdd0a5a7	-0.10187846
18	0x3dff3619	0.1246149
19	0x3decb7cd	0.11558495
20	0xbdf815d9	-0.12113542
21	0xbac05b8b	-0.001467572
22	0xbc3a26a4	-0.011361752
23	0x3de19853	0.11015382
24	0xbd9f49dc	-0.077777594
25	0xbc2b9338	-0.010472111
26	0x3d6078a7	0.054802563
27	0xbe0bb4fd	-0.1364326
28	0xbbbbab42	-0.0057272026
29	0x3dd7f33a	0.10544439
30	0x3dfcaf7e	0.1233816
31	0xbe0033bd	-0.12519737
32	0x3d1bbbd6	0.03802093
33	0xbe52f694	-0.20601875
34	0xbdf26304	-0.11835292
35	0xbe2bc554	-0.16774493
36	0x3dcdecca	0.100549296
37	0xbe14b0b8	-0.14520538
38	0xbe019d62	-0.12657693
39	0x3e2b81e0	0.16748762
40	0xbd27b989	-0.040948424
41	0x3d68919d	0.056779493
42	0x3e33a6d9	0.17544116
43	0x3e157a11	0.14597346
44	0xbe1f6fba	-0.15569964
45	0xbdf787cf	-0.1208645
46	0xbd601208	-0.054704696
47	0xbdda4f20	-0.10659623
48	0x3e37d179	0.17951001
49	0x3c58b30c	0.013226282
50	0x3df36152	0.11883797
51	0xbe08ebd7	-0.13371216
52	0xbe0eb432	-0.13935927
53	0xbd9c257e	-0.076243386
54	0x3e328a04	0.17435461
55	0xbe2f6e5a	-0.1713194
56	0xbe40e6dd	-0.18838067
57	0xbe12d169	-0.14337696
58	0xbdb64e5a	-0.08901663
59	0x3e37efea	0.17962614
60	0x3e4886ae	0.19582626
61	0x3dbe3ed3	0.092893265
62	0x3dedd6c3	0.11613228
63	0x3d19ceb0	0.03755063
64	0x3dc03c41	0.093864925
65	0x3e268bf9	0.16264333
66	0x3dfc9148	0.12332398
67	0xbe0f3c3a	-0.13987818
68	0x3dafdaaa	0.08586629
69	0x3d38f324	0.045153752
70	0x3c933a78	0.017972216
71	0xbe384c7f	-0.17997931
72	0xbdf868b7	-0.12129348
73	0xbe0a59f8	-0.13510883
74	0xbe002c87	-0.12516986
75	0xbdb52ccf	-0.08846437
76	0xbdb4087e	-0.08790682
77	0xbdbcf805	-0.092269935
78	0x3dd08b18	0.1018278
79	0x3e28e940	0.16495228
80	0x3cb38490	0.021913797

backBone.0.conv2.bias f4 [3]
0	0xbd9a4508	-0.07532698
1	0xbd1dd5ba	-0.038533904
2	0x3b9ff017	0.004880916

backBone.0.bn2.weight f4 [3]
0	0x3f7f6be4	0.99774003
1	0x3f811f21	1.0087625
2	0x3f800d62	1.0004084

backBone.0.bn2.bias f4 [3]
0	0xbb90672d	-0.0044068308
1	0xbb072bbe	-0.0020625438
2	0xbc3f3eed	-0.0116727175

backBone.0.bn2.running_mean f4 [3]
0	0x3da3a749	0.079908915
1	0xbe35272a	-0.17690721
2	0xbc4eadf7	-0.012614719

backBone.0.bn2.running_var f4 [3]
0	0x3e4ae24b	0.19812886
1	0x3e55c34b	0.2087528
2	0x3e62040e	0.22071859

backBone.1.conv1.weight f4 [3, 3, 3, 3]
0	0x3c43e17b	0.011955614
1	0x3e2a36e7	0.16622506
2	0x3e3335ec	0.17501038
3	0x3e2b30a3	0.16717772
4	0x3df9710e	0.121797666
5	0x3df7b8bd	0.12095783
6	0x3ddad3a8	0.106849015
7	0x3df5a609	0.11994559
8	0x3d14e296	0.0363489
9	0x3b4d4ffe	0.0031328197
10	0xbe43e72e	-0.19131157
11	0x3e097190	0.13422227
12	0xbd870efa	-0.065946534
13	0xbdb9f53d	-0.090799786
14	0xbc964c93	-0.01834706
15	0xbcaac14e	-0.020844128
16	0x3e1f3233	0.15546493
17	0xbb764be9	-0.0037581867
18	0xbe3f9984	-0.18710905
19	0x3dc047f7	0.09388726
20	0x3da4a510	0.08039296
21	0xbdffc014	-0.12487808
22	0x3dcebfc0	0.10095167
23	0x3da66fa1	0.0812676
24	0x3c081569	0.008305886
25	0xbe037e61	-0.12841178
26	0xbdcabad3	-0.09898915
27	0x3d2e37de	0.042533748
28	0xbc29879b	-0.010347272
29	0x3d9c5c06	0.076347396
30	0x3dfcf332	0.12351073
31	0x3d1ec5b3	0.03876276
32	0x3e0c2083	0.13684277
33	0x3d8be3ae	0.06830536
34	0x3cf20916	0.029545348
35	0xbe02435c	-0.12721008
36	0xbdf051c8	-0.117343485
37	0xbd81a526	-0.06330328
38	0x3e23ec0c	0.16008013
39	0x3d10ae48	0.035322458
40	0xbdd546fb	-0.10413929
41	0x3e1fe4f3	0.15614681
42	0x3d80a651	0.06281722
43	0x3d96b37c	0.07358453
44	0xbe1b7b31	-0.15183713
45	0xbda35e0c	-0.079769224
46	0xbd112584	-0.03543617
47	0x3c790664	0.015199278
48	0xbe05a2ee	-0.13050434
49	0xbdb52042	-0.08844043
50	0x3d4fc4d3	0.050724816
51	0xbdf44593	-0.11927333
52	0x3ca227d0	0.019794375
53	0x3d468c47	0.048473623
54	0x3e2ac354	0.16676074
55	0xbe33988c	-0.17538661
56	0xbd59aa81	-0.05314112
57	0x3d47bf77	0.04876658
58	0xbe157530	-0.14595485
59	0xbe4033ff	-0.18769835
60	0x3e1a0b00	0.15043259
61	0x3d0c6abb	0.034281474
62	0x3e330d6e	0.17485592
63	0xbdce42bf	-0.100713246
64	0xbd76ca64	-0.06025161
65	0xbde8232a	-0.11334832
66	0x3e190e74	0.1494692
67	0xbdb263fd	-0.087104775
68	0xbe34060f	-0.17580436
69	0xbe176bc4	-0.14787203
70	0x3e069939	0.13144387
71	0xbc9f527c	-0.019448511
72	0xbe34f421	-0.17671253
73	0x3d7bf6fc	0.06151484
74	0xbdfa6084	-0.1222544
75	0xbdc9eedb	-0.09860011
76	0xbd147f57	-0.036254253
77	0x3dbab94b	0.09117373
78	0xbb9b3cbe	-0.0047374656
79	0xbdd4c3b1	-0.10388888
80	0xbdbd69d4	-0.09248701

backBone.1.conv1.bias f4 [3]
0	0x3d708db9	0.058728907
1	0xbd24de33	-0.04025097
2	0x3e24ba7f	0.16086768

backBone.1.bn1.weight f4 [3]
0	0x3f80d433	1.0064758
1	0x3f7ec2a6	0.9951576
2	0x3f7d0c98	0.9884734

backBone.1.bn1.bias f4 [3]
0	0x3b47a813	0.003046517
1	0xbbf6714a	-0.0075208293
2	0xbc658731	-0.014009283

backBone.1.bn1.running_mean f4 [3]
0	0x3eda4a88	0.42634988
1	0x3cac47b8	0.021030292
2	0xbe81c9b7	-0.2534921

backBone.1.bn1.running_var f4 [3]
0	0x3ecb1ff8	0.39672828
1	0x3e690e3a	0.22759333
2	0x3e9d2da5	0.30698887

backBone.1.conv2.weight f4 [3, 3, 3, 3]
0	0x3e163348	0.14668
1	0xbbfa9ee5	-0.0076483362
2	0x3d81b6c5	0.06333689
3	0x3e2a4da5	0.16631182
4	0x3deb76f3	0.11497297
5	0x3cab6ce8	0.020925954
6	0x3e3d631f	0.18494843
7	0x3dce4618	0.10071963
8	0xbe0ef82e	-0.1396186
9	0x3e2ab42a	0.1667029
10	0x3e01e1ca	0.12683788
11	0xbb5183a2	-0.0031969328
12	0x3dfa9ab7	0.12236541
13	0xbe1658b5	-0.14682277
14	0x3e4dc698	0.20095289
15	0x3d8d1403	0.068885826
16	0xbd517544	-0.051137224
17	0xbdb0c73e	-0.086317524
18	0xbdf66ff7	-0.12033074
19	0x3cca5a82	0.02470136
20	0x3badfe37	0.005309846
21	0xbe1119a7	-0.14169942
22	0x3abb72fd	0.0014301237
23	0x3dbe22cb	0.0928398
24	0xbde6db8c	-0.11272344
25	0x3b385119	0.002812451
26	0xbc573ca8	-0.01313702
27	0xbe04521e	-0.1292195
28	0xbcfef0be	-0.031120654
29	0xbe4ea19a	-0.20178834
30	0xbdb7b2ff	-0.08969688
31	0xbcc85245	-0.024453292
32	0xbe0cc8b5	-0.13748439
33	0x3c98fed8	0.018676206
34	0x3d977630	0.07395589
35	0x3c8e5a55	0.017377058
36	0x3d5a3cca	0.05328063
37	0xbda2e79b	-0.079543315
38	0x3e228f83	0.15875058
39	0x3dfcb32c	0.12338862
40	0x3d471422	0.048603185
41	0x3daef1f5	0.085422434
42	0x3da9ae1c	0.08285162
43	0xbda6378e	-0.08116065
44	0xbdc3c64e	-0.09559308
45	0x3e43475a	0.19070187
46	0x3de1f343	0.110327266
47	0xbe060ecd	-0.13091584
48	0xbcafa23e	-0.021439668
49	0x3cda4c65	0.026647756
50	0xbd90662b	-0.07050737
51	0xbd86914b	-0.06570681
52	0xbe182d9d	-0.1486115
53	0xbc7bfe0f	-0.0153803965
54	0xbe1e3c23	-0.15452628
55	0x3dd1e63e	0.10248993
56	0x3ddc6f9e	0.10763477
57	0xbdbe00ef	-0.09277522
58	0x3d00e299	0.0314661
59	0x3d1ebecf	0.038756188
60	0xbdc446a5	-0.09583787
61	0xbe123671	-0.1427858
62	0xbd70ba48	-0.0587714
63	0x3ded84ec	0.115976185
64	0xbc2c3d4c	-0.010512661
65	0xbe01c972	-0.12674502
66	0xbd2071e5	-0.03917112
67	0xbd79fb4c	-0.06103067
68	0x3e09571e	0.13412139
69	0xbd953c45	-0.07286886
70	0x3dfda6ec	0.123853534
71	0xbe34419f	-0.17603157
72	0xbe09bd61	-0.13451149
73	0xbc8a13cb	-0.016855141
74	0xbe27fbf7	-0.1640471
75	0x3e136382	0.14393428
76	0xbd160205	-0.03662302
77	0xbe3aa082	-0.18225291
78	0xbe384ce8	-0.17998087
79	0xbe102a64	-0.1407867
80	0xbd4f9470	-0.05067867

backBone.1.conv2.bias f4 [3]
0	0xb9bdfaaf	-0.00036235663
1	0x3d2c98e7	0.042138007
2	0x3d656f03	0.056014072

backBone.1.bn2.weight f4 [3]
0	0x3f7e6bb1	0.99383074
1	0x3f7df994	0.9920895
2	0x3f7d9711	0.99058634

backBone.1.bn2.bias f4 [3]
0	0xbb9c920c	-0.0047781523
1	0xbb614b95	-0.0034377326
2	0xbc296cba	-0.010340864

backBone.1.bn2.running_mean f4 [3]
0	0x3e86fbde	0.26364034
1	0xbd266a23	-0.040628564
2	0xbe59064f	-0.21193813

backBone.1.bn2.running_var f4 [3]
0	0x3e982c7b	0.29721436
1	0x3e3b8e1a	0.18315926
2	0x3e646cd0	0.22307134

backBone.2.conv1.weight f4 [3, 3, 3, 3]
0	0x3e1b7bdd	0.15183969
1	0xbd8c6763	-0.06855657
2	0xbd5cc7a7	-0.05390134
3	0xbe246d27	-0.16057263
4	0x3b83f85d	0.00402741
5	0x3df31885	0.11869911
6	0x3c062860	0.008188337
7	0xbde9b313	-0.11411109
8	0xbddb66e1	-0.10712982
9	0xbd398511	-0.045292918
10	0x3e237877	0.15963922
11	0xbb7010f1	-0.0036631192
12	0x3e08c81f	0.1335759
13	0x3d0398a8	0.032128006
14	0x3de08487	0.109627776
15	0xbc3856ca	-0.011251161
16	0x3e0d2b84	0.13786131
17	0x3d8ae97a	0.06782813
18	0xbc73040e	-0.01483251
19	0xbe32e762	-0.17471078
20	0x3dac73d8	0.08420533
21	0x3ca80069	0.020508008
22	0xbd14521d	-0.03621112
23	0x3da0d0bd	0.07852314
24	0x3cdc0c99	0.026861476
25	0xbe22f15d	-0.15912385
26	0xbd2fef75	-0.042952973
27	0x3e37912e	0.17926475
28	0xbd923e5e	-0.07140802
29	0x3c9c8a6e	0.019108977
30	0x3d2e07b0	0.0424878
31	0xbe381980	-0.17978477
32	0x3e27ccd1	0.16386725
33	0xbdccf5f5	-0.1000785
34	0xbe134dd5	-0.1438516
35	0x3d46614c	0.048432633
36	0x3dcc9549	0.099894114
37	0xbc75bff4	-0.0149993785
38	0xbde489ad	-0.11159072
39	0x3e03d0ef	0.1287267
40	0x3de3d1c4	0.11123994
41	0xbe2118e6	-0.15732154
42	0xbc3f8026	-0.011688268
43	0xbd77d8b3	-0.060509395
44	0x3d862272	0.06549539
45	0xbe03f6b8	-0.12887084
46	0xbdf76437	-0.12079661
47	0xbc9a0ac3	-0.01880396
48	0xbe06f17d	-0.13178058
49	0xbccd7c36	-0.025083642
50	0x3e228265	0.15870054
51	0xbe1c2bb7	-0.15251051
52	0x3ddf51c6	0.10904269
53	0xbe05565b	-0.13021223
54	0xbda02ca6	-0.07821016
55	0x3e307fc5	0.1723624
56	0xbe35c6ed	-0.17751665
57	0xbcaea936	-0.02132092
58	0xbe28878a	-0.16457954
59	0x3e1d2e07	0.1534959
60	0x3d9cbf4f	0.07653677
61	0x3e0ac272	0.13550738
62	0xbd977311	-0.07394994
63	0x3d69d559	0.05708823
64	0x3d9c0b6f	0.07619368
65	0x3e409bcc	0.18809432
66	0x3e055e1c	0.13024181
67	0x3bbcfa34	0.005767131
68	0x3e13cb6f	0.14433073
69	0xbdc228ce	-0.09480439
70	0xbd8e029f	-0.06934094
71	0x3db55905	0.0885487
72	0xbd814c6b	-0.06313404
73	0xbe06a474	-0.13148671
74	0xbe1f363b	-0.15548031
75	0x3d9f4f51	0.077788
76	0xbd9b367b	-0.07578751
77	0x3df04d11	0.11733449
78	0x3e3682d2	0.17823341
79	0xbe1b67d2	-0.15176323
80	0xbe16edb3	-0.14739113

backBone.2.conv1.bias f4 [3]
0	0x3dbd5527	0.09244757
1	0x3d0e9292	0.03480775
2	0x3d2331a7	0.039842274

backBone.2.bn1.weight f4 [3]
0	0x3f7cb53a	0.9871403
1	0x3f7f1c89	0.99652916
2	0x3f80d110	1.0063801

backBone.2.bn1.bias f4 [3]
0	0xba2964b2	-0.0006461843
1	0xba713f60	-0.0009202864
2	0x3b91adbf	0.004445761

backBone.2.bn1.running_mean f4 [3]
0	0x3e1f8760	0.15578985
1	0xbe7ee127	-0.24890576
2	0x3e6d1363	0.23151927

backBone.2.bn1.running_var f4 [3]
0	0x3e9a4b19	0.3013542
1	0x3ed2f2b7	0.41200802
2	0x3efdf347	0.49599668

backBone.2.conv2.weight f4 [3, 3, 3, 3]
0	0xbdac55e1	-0.084148176
1	0xbe28ca01	-0.16483308
2	0xbe34e5ea	-0.1766583
3	0x3e4ff1df	0.2030711
4	0x3d1eaa67	0.038736727
5	0xbdab030e	-0.08350192
6	0x3cfb69f8	0.030690178
7	0x3e3aff2b	0.18261401
8	0xbd9a7395	-0.07541577
9	0x3d2461bb	0.040132266
10	0x3e22cc3c	0.15898222
11	0x3ddb6531	0.1071266
12	0xbe3ccabc	-0.18436712
13	0x3e04762c	0.12935704
14	0x3dea8b97	0.11452406
15	0x3d6b38cf	0.057427224
16	0x3dbb18f5	0.091356196
17	0xbcafe6f1	-0.021472426
18	0x3e0afb0e	0.13572332
19	0xbe225b35	-0.15855105
20	0x3d80dce8	0.062921345
21	0xbd90244c	-0.07038173
22	0xbdc5388e	-0.096299276
23	0xbe110127	-0.14160596
24	0xbd0029af	-0.031289753
25	0xbdb585e3	-0.088634275
26	0xbe1de1b9	-0.15418138
27	0x3dd0327f	0.10165881
28	0x3e3c51ff	0.18390654
29	0x3c93a764	0.018024154
30	0x3db25a54	0.08708635
31	0xbd451945	-0.048119802
32	0x3c10cc3e	0.008837758
33	0x3d3a47c3	0.045478594
34	0x3c1e3052	0.009655075
35	0x3dcb7330	0.0993408
36	0xbde52ca2	-0.11190154
37	0x3d0c9fd5	0.034332115
38	0x3c4cefe2	0.012508364
39	0x3dbf35c3	0.09336426
40	0xbe29e19f	-0.16589974
41	0xbe0b1c68	-0.13585055
42	0x3dc5d35d	0.09659455
43	0x3dc04031	0.093872435
44	0x3d4d2a6e	0.050089292
45	0x3e0b7c87	0.13621722
46	0xbc483dea	-0.012221793
47	0x3e22bbac	0.15891904
48	0x3d0e3bb0	0.03472489
49	0xbdee37db	-0.11631747
50	0x3de504eb	0.11182579
51	0x3d92a8b7	0.07161086
52	0x3de043e8	0.10950452
53	0x3dbcb4d2	0.09214176
54	0xbe38ece2	-0.18059114
55	0xbd988f53	-0.07449212
56	0xbd364630	-0.04450053
57	0x3c83ea34	0.016102888
58	0xbe09415e	-0.13403842
59	0xbdd89c1e	-0.10576652
60	0xbe038e6b	-0.12847297
61	0xbe16e68a	-0.14736381
62	0x3d4adbe4	0.04952611
63	0xbd965669	-0.073407
64	0x3dc774e8	0.09739095
65	0xbdec5802	-0.11540224
66	0xbd5b47e7	-0.05353537
67	0x3c3245a3	0.0108808605
68	0xbd86bb5b	-0.06578704
69	0xbc280114	-0.010254163
70	0xbdb24873	-0.08705225
71	0x3e43c443	0.19117837
72	0x3e4a6601	0.19765474
73	0xbd063ff6	-0.03277584
74	0xbe4b5871	-0.19857956
75	0xbcc3dcb7	-0.023908956
76	0xbda7d0b4	-0.08194104
77	0x3e272bfc	0.16325372
78	0x3e1b5ab7	0.15171324
79	0xbdaac7e6	-0.08338909
80	0x3e13fc00	0.14451599

backBone.2.conv2.bias f4 [3]
0	0xba835b64	-0.0010021743
1	0xbde9095d	-0.11378739
2	0xbe1c33e3	-0.15254168

backBone.2.bn2.weight f4 [3]
0	0x3f7ee892	0.99573624
1	0x3f815fa0	1.0107307
2	0x3f81ab16	1.0130336

backBone.2.bn2.bias f4 [3]
0	0xbaf74fef	-0.0018868427
1	0x3aa09505	0.0012251443
2	0xbbd42617	-0.006474267

backBone.2.bn2.running_mean f4 [3]
0	0xbd964289	-0.07336909
1	0x3e0cead9	0.13761462
2	0xbe92f2c5	-0.28700843

backBone.2.bn2.running_var f4 [3]
0	0x3e865b7b	0.2624167
1	0x3e6ae90a	0.2294046
2	0x3e42ce6c	0.19024056

policyHead.0.weight f4 [6, 3, 3, 3]
0	0xbe233f5e	-0.15942141
1	0xbe250324	-0.1611448
2	0x3dbfbb15	0.09361855
3	0xbdb57f53	-0.08862176
4	0x3d8955fb	0.067058526
5	0x3bd786ea	0.0065773623
6	0xbe2131ec	-0.157417
7	0xbd4898ef	-0.048973974
8	0xbafdbefe	-0.0019359288
9	0xbe37afc0	-0.17938137
10	0xbe3cfdac	-0.18456143
11	0x3e337cb6	0.17528042
12	0xbe332076	-0.17492852
13	0x3d4e5415	0.050373156
14	0x3e063ca7	0.13109075
15	0xbdf8ee9d	-0.12154887
16	0x3c092e8e	0.008372916
17	0xbd1455ec	-0.036214754
18	0xbd4600fb	-0.04834078
19	0xbe0d0371	-0.13770844
20	0x3e1c8cc2	0.1528807
21	0xbe40160c	-0.1875841
22	0xbdaf3ef0	-0.08556926
23	0x3c9759b4	0.018475391
24	0xbdbea0b6	-0.09307997
25	0xbc851c58	-0.016248867
26	0x3e0eb9e6	0.13938102
27	0xbe22c19e	-0.15894172
28	0x3db2cf8c	0.08730993
29	0xbe4f3814	-0.20236236
30	0x3e275be4	0.16343647
31	0xbe29ee0c	-0.16594714
32	0x3d3a737e	0.0455203
33	0x3ca670c9	0.020317452
34	0x3e37adc3	0.17937379
35	0x3dbee87c	0.093216866
36	0x3dabba53	0.08385148
37	0x3ce9ef3b	0.028556457
38	0xbdfadbe8	-0.12248975
39	0xbe0ef430	-0.13960338
40	0x3cbe8c77	0.023260338
41	0xbb9eb902	-0.004843832
42	0xbd4a40b8	-0.049378127
43	0xbdad9118	-0.0847494
44	0x3caf0fb0	0.021369785
45	0x3df5a2a1	0.119939096
46	0x3e071d79	0.13194837
47	0x3d858a14	0.06520477
48	0xbd6e066c	-0.058111593
49	0x3dd9ea3c	0.1064038
50	0x3e37c6fd	0.17947002
51	0x3dd7a162	0.10528828
52	0x3e4651ee	0.19367191
53	0xbdc8f7a5	-0.098128594
54	0xbd7701aa	-0.06030432
55	0x3e2263a7	0.15858327
56	0xbe372018	-0.17883337
57	0xbe1a1e13	-0.15050535
58	0xbd8928d7	-0.06697243
59	0xbdd62dfa	-0.10457988
60	0xbe2650ca	-0.16241756
61	0xbc562a7a	-0.013071651
62	0xbd16b52c	-0.036793873
63	0xbdba4a20	-0.090961695
64	0x3e00884b	0.12551992
65	0x3bd430ca	0.0064755427
66	0xbe259e52	-0.16173676
67	0xbd343ba0	-0.044002175
68	0xbb1a0404	-0.0023500929
69	0x3bb40684	0.005493941
70	0x3e052cb3	0.13005333
71	0xbd0cb12c	-0.03434865
72	0x3dc35cf9	0.095392175
73	0x3dca5b7f	0.09880733
74	0xbe51865d	-0.20461412
75	0xbe45b697	-0.19307934
76	0x3e00da97	0.12583385
77	0xbe394c75	-0.18095572
78	0x3e263cc7	0.16234122
79	0xbccd35d8	-0.025050089
80	0xbe340318	-0.17579305
81	0x3ca49e7a	0.020095099
82	0x3d6027a4	0.054725304
83	0xbe429e5a	-0.19005719
84	0xbe209aef	-0.15684102
85	0x3d16f8f9	0.036858533
86	0xbdd2036c	-0.10254559
87	0xbe40ac7e	-0.188158
88	0x3e34e781	0.17666437
89	0xbd64fe47	-0.05590656
90	0x3d2b158e	0.041768603
91	0x3da01a8d	0.07817564
92	0x3d123a21	0.035699967
93	0x3d060d40	0.03272748
94	0xbc5ae9ba	-0.013361389
95	0x3da4f72b	0.08054956
96	0x3dbf97fe	0.09355162
97	0xbe187ea3	-0.14892058
98	0xbcbd78e9	-0.023128944
99	0xbd0a6471	-0.033787195
100	0xbd40115a	-0.046891548
101	0xbd6f5807	-0.05843356
102	0xbb216d74	-0.002463189
103	0x3d2e60e6	0.04257288
104	0xbdc56772	-0.09638871
105	0x3e4b57c3	0.19857697
106	0x3dac0909	0.08400161
107	0x3dd22e39	0.102627225
108	0x3d7329ad	0.059365917
109	0xbc887061	-0.016655149
110	0xbdad9c07	-0.084770255
111	0x3e11e18c	0.14246196
112	0xbe49e9c8	-0.19718087
113	0xbd2e1483	-0.04250003
114	0xbe52d47b	-0.20588867
115	0xbe0b4613	-0.1360095
116	0xbe385bc3	-0.18003754
117	0xbd81f06c	-0.06344685
118	0x3de8fbab	0.11376127
119	0x3e1732c4	0.1476546
120	0xbe4f65ea	-0.20253721
121	0x3ca9ce40	0.02072823
122	0xbe29f3c5	-0.16596897
123	0x3cde81a8	0.027161434
124	0x3c773aba	0.015089685
125	0xbdd229a9	-0.10261852
126	0x3dd61c15	0.10454575
127	0x3dc27c81	0.094964035
128	0x3e291cc3	0.16514878
129	0xbe19425f	-0.14966725
130	0xbe119f7c	-0.14220995
131	0x3d082df6	0.033246957
132	0xbdaa166f	-0.0830506
133	0x3e2585d9	0.1616434
134	0xbdcb8018	-0.09936541
135	0xbc73c840	-0.014879286
136	0xbcf11e62	-0.029433433
137	0x3dd8fe34	0.105953604
138	0xbe0015e9	-0.12508358
139	0x3d7c72d4	0.061632946
140	0x3d45ec90	0.048321307
141	0x3c8643ad	0.016389692
142	0x3e342aef	0.17594503
143	0xbe2ba264	-0.16761166
144	0x3db5feb9	0.08886475
145	0x3dcb6bf5	0.099327005
146	0xbd381265	-0.044939417
147	0xbde09c39	-0.10967297
148	0x3d878422	0.06616999
149	0xbd8de4f9	-0.06928439
150	0xbe020952	-0.12698868
151	0x3ddb6f92	0.1071464
152	0x3da95924	0.08268955
153	0xbe010f18	-0.12603414
154	0xbcd5b533	-0.02608738
155	0xbe1985db	-0.14992468
156	0xbdc52de0	-0.096278906
157	0xbd31fffa	-0.04345701
158	0xbdb4ec0a	-0.088340834
159	0x3c44766e	0.011991126
160	0x3bb857d7	0.0056257057
161	0x3e32dfaa	0.17468134

policyHead.0.bias f4 [6]
0	0x3d15f9c3	0.036615144
1	0xbdbcf2b9	-0.09225983
2	0xbe2b9489	-0.1675588
3	0xbc773f91	-0.015090839
4	0x3a80de04	0.0009831791
5	0xbb074d70	-0.0020645522

policyHead.1.weight f4 [6]
0	0x3f7cbecc	0.9872863
1	0x3f7d149c	0.9885957
2	0x3f7c35bd	0.985195
3	0x3f7b7cfe	0.982376
4	0x3f7be137	0.98390526
5	0x3f7bed24	0.9840872

policyHead.1.bias f4 [6]
0	0xbb8a40a4	-0.0042191315
1	0xbc3b33fc	-0.011425968
2	0xbc23c248	-0.009995051
3	0xbc8c45ce	-0.01712313
4	0xbc507eac	-0.012725513
5	0xbc0adf4d	-0.008476091

policyHead.1.running_mean f4 [6]
0	0xbf1a9c4c	-0.6039474
1	0x3eaa2748	0.33233094
2	0xbf3d6f43	-0.73997897
3	0xbc17404c	-0.009231638
4	0xbf1c69d3	-0.61098975
5	0xbacb7847	-0.0015523516

policyHead.1.running_var f4 [6]
0	0x3f6ca6fd	0.92442304
1	0x3efa1453	0.4884363
2	0x3f59d653	0.8509266
3	0x3eb13675	0.3461186
4	0x3f26c8f7	0.651504
5	0x3ee9f0f5	0.45691648

policyHead.4.weight f4 [25, 150]
0	0x3d8073da	0.06272097
1	0x3d969f41	0.07354594
2	0x3d7abacd	0.061213303
3	0xbc4f6035	-0.012657215
4	0xbdb27c47	-0.0871511
5	0xbd7a6551	-0.06113178
6	0xbd4d0bd9	-0.050060127
7	0xbd32782b	-0.043571632
8	0x3d2aa72f	0.041663345
9	0x3d43817a	0.0477309
10	0xbb5572c1	-0.003256962
11	0xbcccb61d	-0.024989182
12	0xbbdfca60	-0.006829545
13	0x3d38b928	0.045098454
14	0xbcc992c8	-0.024606124
15	0xbbd917ec	-0.006625166
16	0x3da11875	0.07865993
17	0xbbba6188	-0.005687896
18	0x3d068777	0.032844033
19	0x3c897c8d	0.016783023
20	0xbcd058fa	-0.025433052
21	0xbd375703	-0.044760715
22	0xbd4475ba	-0.047963835
23	0xbd606f27	-0.054793503
24	0x3c0a9891	0.008459226
25	0xbc1a0e6d	-0.009402853
26	0x3d0fab57	0.03507551
27	0x3c978bdc	0.018499307
28	0xbc3fc809	-0.011705407
29	0xbc7aaa3c	-0.015299376
30	0xbcf42670	-0.029803485
31	0xbc2a341e	-0.010388402
32	0xbc4594e7	-0.012059427
33	0xbd5b1614	-0.053487852
34	0x3cb00b95	0.021489898
35	0x3dae5ef0	0.08514202
36	0xbda14584	-0.07874587
37	0x3d164966	0.036691092
38	0xbd8d13ac	-0.06888518
39	0xbd83521b	-0.06412145
40	0x3cc8cf69	0.024512963
41	0xbd364a16	-0.044504248
42	0x3d6f7812	0.058464117
43	0xbd41db2e	-0.047328167
44	0x3d68b00a	0.05680851
45	0xbce16f08	-0.027518764
46	0xbd478833	-0.048713874
47	0x3cc9e806	0.02464677
48	0x3d7fa97a	0.062417485
49	0x3d5074bd	0.05089258
50	0x3ce75838	0.028240308
51	0xbb1f43ae	-0.0024301815
52	0xbc86636b	-0.016404828
53	0x3d7988b2	0.06092138
54	0x3dab97a3	0.08378532
55	0x3d3e5455	0.046467144
56	0xbd55412e	-0.052064113
57	0xbd771e76	-0.060331784
58	0xbd397bea	-0.04528419
59	0x3d03b920	0.03215897
60	0x3d867c1b	0.0656664
61	0x3d9d4fd0	0.07681239
62	0xbd0d1f99	-0.034453962
63	0xbd227444	-0.03966166
64	0xbd23eed8	-0.0400227
65	0x3c12960f	0.00894691
66	0xbcaf5056	-0.021400612
67	0x3d763a6e	0.060114317
68	0x3da24697	0.0792362
69	0x3d00c3f1	0.031436864
70	0xbca00b80	-0.019536734
71	0xbd232395	-0.039828856
72	0x3c13b1c6	0.009014552
73	0x3d81d836	0.06340067
74	0xbd32e1a1	-0.043672208
75	0x3d07a31b	0.033114534
76	0xbd827a00	-0.06370926
77	0x3da57901	0.0807972
78	0xbb97de3d	-0.004634647
79	0xbcf8e46f	-0.030382363
80	0x3d506e97	0.050886717
81	0x3d99fc40	0.07518816
82	0xbd1480f2	-0.036255784
83	0xbd7c752d	-0.061635185
84	0xbd0bc215	-0.034120638
85	0xbd876e73	-0.066128634
86	0xbd7438c9	-0.059624467
87	0x3d0027c2	0.031287916
88	0x3d8ea9e3	0.06965997
89	0x3da94a94	0.08266178
90	0xbd8d8621	-0.06910349
91	0x3d124482	0.035709865
92	0x3ca22430	0.019792646
93	0x3d18aefa	0.037276246
94	0xbd808720	-0.06275773
95	0xbda729f0	-0.08162296
96	0xbd7fde38	-0.062467784
97	0x3d472fd6	0.048629604
98	0x3d8237ec	0.063583225
99	0xbc9f11ff	-0.01941776
100	0x3d5c2d68	0.05375424
101	0x3ca5d5e0	0.020243585
102	0xbbcd7638	-0.0062701963
103	0x3cf9ab14	0.030477084
104	0x3d7f851d	0.062382806
105	0xbd0fe9a9	-0.035134945
106	0xbcee4f14	-0.029090442
107	0x3d0f220c	0.03494458
108	0x3cb16437	0.021654231
109	0x3d0ac3bd	0.033878077
110	0x3d7305f5	0.059331853
111	0xbb3a3235	-0.0028411273
112	0xbcb733f0	-0.022363633
113	0x3ce8808f	0.028381614
114	0x3d4ad157	0.04951605
115	0x3d259e20	0.040434003
116	0xbd22523c	-0.039629206
117	0x3d66c0d3	0.056336235
118	0x3d4ee460	0.050510764
119	0x3d87fd17	0.0664007
120	0x3d0e0c9a	0.034679987
121	0xbd13f86f	-0.036125597
122	0x3d857b1a	0.065176204
123	0xbc5b4051	-0.013382033
124	0xbd92326c	-0.071385235
125	0xbd112278	-0.035433263
126	0x3db90d85	0.09035782
127	0xbd86da76	-0.06584637
128	0x3d227119	0.03965864
129	0xbcd46ea5	-0.025931666
130	0xbc12f296	-0.00896897
131	0x3da40d54	0.08010355
132	0xbd04d147	-0.032426145
133	0xbd0bae85	-0.03410198
134	0xbba10f70	-0.0049151704
135	0x3d260699	0.040533636
136	0xbd9d3d0b	-0.07677659
137	0x3c036644	0.0080199875
138	0xbd75bbfe	-0.059993736
139	0x3cf9bfcb	0.030486962
140	0xbc462adf	-0.012095182
141	0xbcce5ef2	-0.025191758
142	0x3d493c7c	0.049129948
143	0xbd230417	-0.039798822
144	0xbc09f376	-0.008419862
145	0xbd5942b2	-0.05304212
146	0x3cf7911e	0.030220564
147	0x3d21853c	0.039433703
148	0xbd212cb2	-0.039349265
149	0x3da66ef0	0.081266284
150	0xbcaa8938	-0.020817384
151	0xbd5503dc	-0.052005634
152	0x3da566e7	0.08076268
153	0x3d8d6c05	0.06905369
154	0x3d0c4937	0.03424951
155	0x3b128457	0.0022356713
156	0xbc98664e	-0.01860347
157	0xbd266017	-0.040618982
158	0x3bc0fdf1	0.005889647
159	0x3d26bff7	0.040710416
160	0xbcb5ea65	-0.022206495
161	0x3c0223eb	0.007943134
162	0xbd719f0b	-0.058989566
163	0xbc8e6e45	-0.017386565
164	0xbd686c2f	-0.056743797
165	0x3ad00f9c	0.0015873793
166	0xbd2c08e1	-0.042000655
167	0x3d1ee1bd	0.0387895
168	0xbd26d640	-0.04073167
169	0x3db96002	0.09051515
170	0x3d808e91	0.062771924
171	0xbdab01c3	-0.083499454
172	0x3c344c99	0.01100459
173	0xbd1cdfab	-0.038299244
174	0x3cf814dd	0.030283386
175	0xbd333558	-0.043752044
176	0xbca428fa	-0.02003907
177	0xbca79abf	-0.02045953
178	0x3d8520c9	0.06500394
179	0xbd9f72be	-0.07785557
180	0x3d48c1b0	0.04901284
181	0x3d1d7de2	0.03845013
182	0xbd372936	-0.044717036
183	0xbd0788e3	-0.03308953
184	0xbd37819b	-0.044801336
185	0xbd361376	-0.044452153
186	0x3d1934de	0.037403934
187	0x3c32c911	0.010912196
188	0xbb4adfeb	-0.003095622
189	0xbd5d5d1b	-0.05404387
190	0xbd15f803	-0.036613476
191	0xbd85ab1c	-0.06526777
192	0x3d28faa2	0.041254647
193	0x3d9bfb69	0.07616312
194	0xbd7d88ec	-0.061898157
195	0xbce7bb35	-0.02828751
196	0x3d0cf032	0.034408756
197	0xbd13963c	-0.036031947
198	0xbdb6f0ff	-0.08932685
199	0xbb0828e2	-0.0020776321
200	0x3c33f72e	0.010984225
201	0xbd990e61	-0.07473446
202	0x3da39a89	0.079884596
203	0x3d046cdd	0.032330383
204	0xbd88d4f5	-0.06681243
205	0x3d17ba9d	0.037043203
206	0x3c08cae1	0.008349151
207	0xbd40380f	-0.04692846
208	0xbd984ae8	-0.07436162
209	0x3c9b2c2a	0.018941958
210	0xbd85b525	-0.06528691
211	0xbcc77139	-0.024345981
212	0x3da88340	0.08228159
213	0xbda800c2	-0.082032695
214	0x3d93f663	0.07224729
215	0x3a984817	0.0011618164
216	0x3da5d65a	0.08097525
217	0x3d862c66	0.06551437
218	0x3d7c4751	0.06159145
219	0x3c944a48	0.018101826
220	0x3dae012c	0.08496317
221	0xbd764968	-0.0601286
222	0xbbd5b2df	-0.0065215672
223	0x3cd21d4d	0.025648737
224	0xbce89522	-0.028391425
225	0xbd8a9016	-0.067657635
226	0x3c7575dc	0.014981713
227	0xbd8d56e8	-0.06901342
228	0x3d938e98	0.07204932
229	0x3ccf1079	0.02527641
230	0xbd2e7223	-0.042589318
231	0x398abeae	0.0002646348
232	0x3d826b88	0.06368166
233	0xbca3f5f2	-0.020014737
234	0xbd621e6a	-0.055204786
235	0xbd6d10f4	-0.057877496
236	0xbd96ab9c	-0.07356951
237	0xbd3f5f26	-0.0467216
238	0xbd9e8ab2	-0.07741298
239	0x3d1ba79e	0.03800165
240	0xbd04e4cc	-0.03244476
241	0x3d88d93c	0.06682059
242	0xbd46e580	-0.048558712
243	0xb9bca868	-0.00035983627
244	0xbd791dbc	-0.060819373
245	0xbda21cfd	-0.07915685
246	0x3cca1d17	0.024672074
247	0xbd104c45	-0.035228986
248	0x3c905898	0.01762037
249	0x3d7b2f83	0.061324608
250	0xbc566da2	-0.013087662
251	0xbce32e52	-0.027732048
252	0xbd88ff24	-0.06689289
253	0x3cfbbdcb	0.030730149
254	0xbc1eeceb	-0.00970004
255	0x3db984d6	0.090585396

policyHead.4.bias f4 [25]
0	0x3d861d2b	0.06548532
1	0x3d8b8560	0.06812549
2	0xbc2c9f51	-0.010536031
3	0xbc025f48	-0.007957287
4	0xbd7312c5	-0.059344072
5	0x3cb761bc	0.02238547
6	0x3d549332	0.05189819
7	0xbd97cc73	-0.074120425
8	0xbd0b1c6f	-0.033962663
9	0xbd954341	-0.07288218
10	0xbafcc18c	-0.0019283756
11	0x3ade56a3	0.0016963076
12	0x3d48e8a4	0.04904999
13	0xbb98d076	-0.0046635224
14	0x3d7d83ef	0.0618934
15	0xbd65a9c0	-0.05607009
16	0xbd83db1e	-0.06438278
17	0x3ca84702	0.020541672
18	0x3d140725	0.036139626
19	0x3d2a09a2	0.041513093
20	0x3d526e30	0.051374614
21	0xbd0788f0	-0.03308958
22	0x3d807713	0.062727116
23	0x3d086ddd	0.0333079
24	0x3d5a0d65	0.05323543

valueHead.0.weight f4 [3, 3, 3, 3]
0	0xbe0bc07d	-0.13647647
1	0x3d680b5c	0.05665146
2	0x3be78668	0.007065583
3	0x3e26f2c6	0.16303548
4	0xbdf94994	-0.12172237
5	0xbe060d33	-0.13090973
6	0x3d905a31	0.07048453
7	0xbda37266	-0.07980804
8	0xbda458d9	-0.08024759
9	0x3e4714af	0.19441484
10	0xbe04640a	-0.12928787
11	0x3dbc7f9d	0.09204028
12	0xbd94dbeb	-0.072685085
13	0x3dda1d3b	0.106501065
14	0xbdda37f8	-0.106552064
15	0x3e24595b	0.16049711
16	0xbe24d2cb	-0.16096036
17	0x3d0ae369	0.03390828
18	0x3da0bfd5	0.07849089
19	0xbdfbfd18	-0.12304133
20	0x3cb2a779	0.021808373
21	0xbe34f89d	-0.17672963
22	0xbcc0739f	-0.023492632
23	0x3d1d1ca8	0.038357407
24	0xbd935e47	-0.07195716
25	0x3e26a01d	0.16272016
26	0x3d7d863d	0.061895598
27	0x3c9e9cf1	0.019361945
28	0xbdfb6662	-0.12275387
29	0xbe21c450	-0.15797544
30	0x3daf49c1	0.08558989
31	0x3e069392	0.13142231
32	0xbcde5132	-0.027138326
33	0x3e31ea84	0.17374617
34	0x3e255f7b	0.16149704
35	0xbdbb5b91	-0.09148324
36	0x3db12870	0.08650291
37	0x3db29e0b	0.087215506
38	0xbe083b57	-0.13303886
39	0x3e017518	0.12642324
40	0xbd0eff8d	-0.03491168
41	0x3d2d36c6	0.042288564
42	0x3da19358	0.07889432
43	0xbdf1010a	-0.11767776
44	0x3e45075d	0.1924109
45	0xbdc62dfa	-0.09676738
46	0xbd998581	-0.07496167
47	0x3cbe08d4	0.023197569
48	0x3e48ad22	0.19597295
49	0xbd35433b	-0.04425357
50	0xbcee8ef2	-0.029120896
51	0x3d26c3cd	0.040714074
52	0x3deeb7fb	0.11656185
53	0xbbe2cd28	-0.006921429
54	0x3c4b659e	0.012414364
55	0xbd5eda13	-0.05440719
56	0x3cef2fce	0.0291976
57	0xbe3f770f	-0.18697761
58	0xbe03653a	-0.12831584
59	0xbdc8dfc8	-0.09808308
60	0xbdd66578	-0.104685724
61	0x3e3fd1e6	0.18732414
62	0xbd4f7f22	-0.050658353
63	0x3d1f674f	0.038916882
64	0xbe4ee61a	-0.20204964
65	0x3e2c25ff	0.1681137
66	0x3dc02682	0.09382345
67	0x3d6a97c8	0.057273656
68	0xbe357f5d	-0.17724366
69	0x3e08767a	0.13326445
70	0x3cc66573	0.024218297
71	0x3ceb589d	0.028728778
72	0xbb571218	-0.0032817181
73	0x3e166e91	0.14690615
74	0xbdeb7410	-0.114967465
75	0x3d6d7fb7	0.057983126
76	0xbe2c2f14	-0.16814834
77	0x3db672b2	0.08908595
78	0xbe25db11	-0.16196848
79	0xbdadc8b4	-0.08485547
80	0x3cf85f50	0.030318886

valueHead.0.bias f4 [3]
0	0xbc90f154	-0.0176932
1	0x3db9ff53	0.09081902
2	0xbe1be7d5	-0.15225156

valueHead.1.weight f4 [3]
0	0x3f7dcaec	0.9913776
1	0x3f7c5d09	0.9857946
2	0x3f7d15f4	0.9886162

valueHead.1.bias f4 [3]
0	0xbc0a3b1f	-0.008436947
1	0xbc6e9af2	-0.014563309
2	0xbc9aeb8a	-0.018911142

valueHead.1.running_mean f4 [3]
0	0xbe8c0687	-0.2734873
1	0x3f075d6d	0.5287693
2	0xbefadf6c	-0.48998582

valueHead.1.running_var f4 [3]
0	0x3eb07f76	0.34472245
1	0x3f1dac23	0.61590785
2	0x3f0e871e	0.5567492

valueHead.4.weight f4 [1, 75]
0	0x3dc4b975	0.096056856
1	0x3d589db8	0.052884787
2	0xbd008ac2	-0.03138233
3	0x3d9af790	0.0756675
4	0x3ceb061c	0.028689437
5	0xbb36f7e6	-0.0027918755
6	0x3dc2ebd7	0.09517639
7	0xbd920768	-0.07130319
8	0x3d921462	0.07132794
9	0xbd4b2ead	-0.04960506
10	0xbcd2ca93	-0.02573136
11	0x3dab6da3	0.08370521
12	0x3d9ed69b	0.077557765
13	0x3c8c9c21	0.017164292
14	0xbd7269ec	-0.059183046
15	0x3db018ed	0.08598504
16	0x3baa3076	0.0051937653
17	0xbd44e088	-0.048065692
18	0xbd9bcff3	-0.076080225
19	0x3de7cbb3	0.113181494
20	0xbda986b8	-0.08277649
21	0xbdaf6b66	-0.085654065
22	0xbc31f0bd	-0.010860619
23	0xbd7126a4	-0.05887474
24	0x3d84a0c3	0.06475975
25	0x3de628f6	0.112382814
26	0xbd411eb8	-0.047148436
27	0xbdb14797	-0.08656233
28	0xbcfc2fd6	-0.030784529
29	0x3c417cb7	0.0118095195
30	0x3d4a9257	0.049455967
31	0x3dafa527	0.08576422
32	0xbdb7cf91	-0.08975137
33	0x3d1468ba	0.036232688
34	0x3bd8bedc	0.006614549
35	0x3d02234f	0.031771954
36	0x3d7e7599	0.06212387
37	0x3d6da515	0.058018763
38	0xbdbd2a24	-0.09236553
39	0xbd093a83	-0.033503067
40	0xbdc7c34f	-0.09754049
41	0x3da5fa6b	0.08104404
42	0x3dc78e5b	0.09743949
43	0x3dd54345	0.10413221
44	0xbd6598d1	-0.05605394
45	0x3c520142	0.012817683
46	0x3ccd368a	0.02505042
47	0x3df821ca	0.1211582
48	0xbd4727f4	-0.048622087
49	0x3d223b9c	0.03960763
50	0xbd2c29e8	-0.042032152
51	0x3dbb0787	0.09132295
52	0x3c8602ff	0.01635885
53	0x3d781eba	0.060576178
54	0xbcb759bb	-0.022381654
55	0xbd93ddbb	-0.07220026
56	0xbd3505c2	-0.044194944
57	0xbdb8f0f4	-0.09030333
58	0x3c008451	0.007844047
59	0xbd66a3a5	-0.056308407
60	0x3d240546	0.04004409
61	0xbbe32a0c	-0.0069325026
62	0xbd82d330	-0.06387937
63	0xbbeb3b96	-0.007178734
64	0x3dda09b0	0.10646379
65	0x3ddf618b	0.10907277
66	0x3ccc2ece	0.024924662
67	0xbce62912	-0.028095756
68	0x3d38f185	0.045152206
69	0x3deb0f4d	0.11477528
70	0x3cd07a57	0.025448961
71	0xbd6b8127	-0.057496216
72	0x3dbda03c	0.09259078
73	0xbc239c55	-0.009986003
74	0x3de1260c	0.10993585
